models_decentralized/final/online_critic_2_1850.pth (torch, 631787 bytes, 26 tensors)

Q1.conv.net.0.weight f4 [3, 31, 3, 3]
0	0x3e1bab28	0.1520201
1	0xbddb5144	-0.107088596
2	0x3d678f9d	0.056533445
3	0xbd0055ba	-0.031331755
4	0x3d96d8a7	0.07365542
5	0x3e2783e0	0.163589
6	0x3dc976d3	0.09837117
7	0xbdc0b068	-0.09408647
8	0xbd9ca93e	-0.07649468
9	0x3e2087ea	0.15676847
10	0x3befb55c	0.007315321
11	0x3d519919	0.051171396
12	0x3d443e7e	0.04791116
13	0xbddb3e78	-0.10705274
14	0x3d95b1bb	0.0730929
15	0x3e1cf3b9	0.15327348
16	0xbd842ceb	-0.0645388
17	0xbe1855b2	-0.1487644
18	0x3d73bb70	0.059504926
19	0x3d1f06bd	0.038824786
20	0x3d6ea788	0.05826524
21	0x3e3b7778	0.18307292
22	0xbd8a5790	-0.067549825
23	0xbda565a4	-0.08076027
24	0x3d305d86	0.04305794
25	0xbdb1575e	-0.08659242
26	0xbe160083	-0.14648633
27	0xbdc790fb	-0.0974445
28	0x3d90d261	0.070713766
29	0xbdb82384	-0.08991149
30	0x3d2e73bb	0.042590838
31	0xbda26fb0	-0.07931459
32	0x3d60d0aa	0.054886498
33	0x3de21c3d	0.11040542
34	0x3e07a935	0.13248141
35	0xbe0f5b0c	-0.13999575
36	0xbe0a1074	-0.13482839
37	0xbc245b34	-0.01003151
38	0xbe17c6a3	-0.14821868
39	0x3dbc2fb8	0.09188789
40	0xbda75642	-0.08170749
41	0xbc993d16	-0.018705886
42	0xbc7d53d9	-0.015461885
43	0x3e0e2af5	0.13883574
44	0x3dd93a52	0.10606827
45	0x3e4e27d6	0.20132384
46	0xbdf5739c	-0.11984941
47	0x3e0bdcbe	0.13658425
48	0xbdaa72fd	-0.083227135
49	0xbd38752e	-0.045033626
50	0xbdd6c720	-0.10487199
51	0x3e13f466	0.144487
52	0xbdb5bc96	-0.088738605
53	0x3e118dfe	0.14214322
54	0x3d3158f5	0.043297727
55	0xbdab3597	-0.08359831
56	0x3e4442e1	0.19166137
57	0x3c73966e	0.014867408
58	0x3d98834a	0.074469164
59	0xba748d1b	-0.00093288877
60	0x3dfbd6f3	0.12296858
61	0x3dd5b9bc	0.10435817
62	0x3e4357e9	0.19076504
63	0x3d37663c	0.044775233
64	0xbdac9b6a	-0.084280804
65	0xbd8942f2	-0.06702222
66	0xbd619d14	-0.055081442
67	0x3e197a45	0.14988048
68	0x3e16f29c	0.14740986
69	0x3e14ac73	0.14518909
70	0x3cad203b	0.021133533
71	0x3b991a19	0.0046723005
72	0xbdbfbb12	-0.09361853
73	0xbd42306d	-0.047409464
74	0x3e550964	0.20804363
75	0xbde7794f	-0.11302435
76	0xbd814587	-0.063120894
77	0xbde2df22	-0.110777155
78	0x3da6ecfb	0.08150669
79	0xbc92930f	-0.017892389
80	0x3e0a92ce	0.13532564
81	0x3e51b750	0.20480084
82	0xbd6e28da	-0.058144428
83	0xbd5a63d2	-0.053317852
84	0xbe17488b	-0.14773767
85	0xbdee30ad	-0.11630378
86	0xbe0be83d	-0.1366281
87	0x3d9cf896	0.076646015
88	0x3e3695b1	0.1783054
89	0x3e3fa74d	0.18716164
90	0x3daccc54	0.0843741
91	0x3e2616ce	0.16219637
92	0xbd473bfa	-0.048641182
93	0x3e08cd30	0.13359523
94	0x3dc44a9b	0.09584542
95	0x3dffc6c5	0.12489084
96	0x3e13e145	0.14441402
97	0x3de7af54	0.11312738
98	0x3b7bc3f9	0.003841637
99	0xbccd9920	-0.02509743
100	0x3e072bb7	0.1320027
101	0x3de1eb63	0.110312246
102	0xbdb3bc83	-0.0877619
103	0x3d7ae439	0.061252806
104	0xbc4cca69	-0.01249943
105	0x3da3ac25	0.07991818
106	0x3d6d35be	0.05791258
107	0x3c2927fa	0.010324473
108	0xbdc54390	-0.09632027
109	0x3c0243f6	0.007950773
110	0xbd05b355	-0.032641727
111	0x3dfa2bcb	0.12215384
112	0x3e20e1ec	0.15711182
113	0xbd36a32a	-0.0445892
114	0x3c61af99	0.013774776
115	0x3e2820ef	0.16418813
116	0x3deb2641	0.11481906
117	0x3da780d3	0.08178868
118	0x3d4434c9	0.047901902
119	0x3d92cb48	0.07167679
120	0x3e2304c1	0.15919782
121	0x3e0a83d1	0.13526846
122	0xbd685252	-0.05671913
123	0x3ddc00ba	0.10742326
124	0x3dfbd073	0.12295618
125	0x3cdb60ba	0.026779521
126	0x3e146f76	0.14495644
127	0x3dc7d356	0.09757106
128	0xbde9b382	-0.114111915
129	0x3dd1496f	0.102190845
130	0xbd9bfedf	-0.07616972
131	0x3d1dd447	0.03853252
132	0x3df02ddc	0.11727497
133	0xbda1dced	-0.079034664
134	0x3dc23d62	0.09484364
135	0x3db2de61	0.08733822
136	0xbda11508	-0.078653395
137	0xbdcca378	-0.09992117
138	0x3e25a88e	0.1617758
139	0xbddbbd19	-0.10729427
140	0xbd1f4d9f	-0.038892385
141	0x3d866fda	0.06564303
142	0xbdf9b87e	-0.12193392
143	0x3c53a351	0.012917356
144	0xbce5eaf1	-0.02806613
145	0x3e041f5d	0.12902589
146	0x3e1ce539	0.15321817
147	0x3c59fc97	0.013304851
148	0x3de9a60b	0.11408623
149	0xbdb04f72	-0.08608903
150	0x3d9f186f	0.07768332
151	0xbc7ec366	-0.015549516
152	0x3d9a5da1	0.075373895
153	0xbde98540	-0.114023685
154	0xbd216314	-0.03940113
155	0x3d1f2aba	0.038859107
156	0xbc2c1ace	-0.010504438
157	0xbdf1b2b3	-0.11801662
158	0xbd233eaf	-0.0398547
159	0x3da7cb17	0.08193033
160	0xbe05b54a	-0.13057438
161	0xbd071186	-0.032975696
162	0xbd23a206	-0.03994944
163	0x3deeeef9	0.11666674
164	0x3d500f65	0.05079593
165	0xbcd77f4d	-0.026305819
166	0x3d0d3479	0.03447387
167	0xbd297fd4	-0.041381672
168	0xbdf050aa	-0.117341354
169	0x3d864a82	0.0655718
170	0x3e23c80f	0.15994285
171	0x3e0f83c2	0.14015105
172	0xbd46ccfc	-0.048535332
173	0x3dc3e180	0.09564495
174	0xbd99273b	-0.07478186
175	0xbc5b6270	-0.013390169
176	0x3dadb5c5	0.084819354
177	0x3dc16041	0.09442187
178	0xbc811508	-0.015757099
179	0x3e200c9c	0.1562981
180	0xbe1bef5c	-0.15228027
181	0xbd936951	-0.07197822
182	0x3d11d5f4	0.035604432
183	0xbd96271c	-0.07331678
184	0x3dbb8fe6	0.09158306
185	0x3df3f157	0.11911266
186	0xbe1696d6	-0.14705977
187	0x3dc420bb	0.09576555
188	0xbd7cc7e6	-0.061714076
189	0xbe2565e1	-0.16152145
190	0xbdf03c7d	-0.11730287
191	0x3bdf3c15	0.0068125823
192	0xbca84a26	-0.02054317
193	0xbdfa4b10	-0.12221348
194	0x3db4d748	0.08830124
195	0x3db0092d	0.085955
196	0xbcf2ba11	-0.029629739
197	0x3de086b2	0.10963191
198	0xbd764b56	-0.06013044
199	0xbca2d6c0	-0.019877791
200	0x3c34f117	0.011043808
201	0xbd7ad870	-0.061241567
202	0x3d8305a3	0.063975595
203	0xbd28b63c	-0.041189417
204	0xbc36fa74	-0.011168111
205	0xbadaa91e	-0.0016682481
206	0xbb8cf8e4	-0.004302131
207	0xbd9cf47c	-0.07663819
208	0xbe003c67	-0.12523042
209	0xbd75b831	-0.05999011
210	0xbde53188	-0.11191088
211	0xbd8d74df	-0.06907057
212	0xbd3621af	-0.044465717
213	0xbd51da7a	-0.051233746
214	0xbdd4f552	-0.10398354
215	0x3e28c6cb	0.16482083
216	0xbe1babc0	-0.15202236
217	0xbe385f78	-0.18005168
218	0xbd3d50ad	-0.046219517
219	0xbded2eb5	-0.11581174
220	0xbdb5ad76	-0.08870976
221	0x3cc67f53	0.024230635
222	0xbe03c108	-0.12866604
223	0xbdab4892	-0.08363451
224	0x3de42317	0.11139505
225	0xbcdcf72e	-0.026973333
226	0x3db9c0cb	0.090699755
227	0xbc8c86eb	-0.017154178
228	0xbde9de0a	-0.11419304
229	0x3d9c56a8	0.07633716
230	0xbe00b9c1	-0.1257086
231	0xbd449559	-0.04799399
232	0x3db3716d	0.087618686
233	0x3db35da8	0.08758098
234	0xbddee81f	-0.10884117
235	0xbe0ad46c	-0.13557595
236	0xbdec9ff9	-0.1155395
237	0xbd28e76f	-0.041236337
238	0x3da3eeee	0.080045566
239	0x3e0a8ea6	0.13530979
240	0x3defafee	0.11703478
241	0xbde82e36	-0.11336939
242	0x3d1ae406	0.037815116
243	0xbd2323de	-0.039829127
244	0x3de875cd	0.11350594
245	0x3ba67888	0.0050802864
246	0xbd6809fa	-0.05665014
247	0xbcd6ed85	-0.026236305
248	0xbd9db991	-0.077014096
249	0x3e082920	0.13296938
250	0xbdf61094	-0.12014881
251	0xbd102fec	-0.03520195
252	0xbe15177a	-0.14559737
253	0xbdfaa1d3	-0.12237897
254	0xbd27581d	-0.040855516
255	0xbce078fd	-0.027401442

Q1.conv.net.0.bias f4 [3]
0	0x3c68dab4	0.014212299
1	0x3c8353e5	0.016031215
2	0x3b276294	0.0025540935

Q1.conv.net.3.weight f4 [6, 3, 3, 3]
0	0xbec89ba6	-0.3918125
1	0xbdecb3e9	-0.11557753
2	0x3e077091	0.13226534
3	0x3eca195e	0.3947248
4	0x3eed05d4	0.4629351
5	0x3e28ed70	0.16496825
6	0xbe63fcc6	-0.22264394
7	0xbe8ab3e2	-0.27090365
8	0x3efe8a07	0.49714682
9	0x3c3fd32d	0.011708063
10	0x3e7c7853	0.24655275
11	0x3e4c7d13	0.19969587
12	0x3e5f96a1	0.21834804
13	0xbdd3aeb3	-0.103360556
14	0xbec07ca9	-0.37595108
15	0x3f05ed3c	0.52315116
16	0x3eeaa4b4	0.45828784
17	0xbde1ef1c	-0.110319346
18	0x3ee6f3e2	0.45107943
19	0xbe88e042	-0.26733595
20	0xbede6878	-0.43439078
21	0x3d102076	0.035187207
22	0x3e48b71d	0.19601102
23	0xbe898629	-0.2686017
24	0x3ef06c30	0.4695754
25	0x3e95bb2b	0.2924436
26	0x3e98ccc7	0.29843733
27	0xbe445a19	-0.19174995
28	0x3d998608	0.074962676
29	0xbcb1d290	-0.02170685
30	0x3ee8f741	0.4550114
31	0x3ef8fa08	0.4862826
32	0xbe49264e	-0.19643518
33	0xbe3b9efa	-0.18322363
34	0xbdd1f824	-0.10252407
35	0x3d5b2ecf	0.053511437
36	0x3ef87edc	0.48534286
37	0x3d0d64d2	0.034519978
38	0xbed817d2	-0.42205673
39	0x3e195598	0.14974058
40	0xbe7dab6d	-0.24772425
41	0xbc712be9	-0.014719942
42	0x3ea582af	0.32326266
43	0xbdb48259	-0.08813924
44	0x3e5aed44	0.21379572
45	0x3e6b547a	0.22981444
46	0xbdf1be9a	-0.118039325
47	0x3ee825a7	0.45341226
48	0x3d144502	0.036198623
49	0x3ece0029	0.40234497
50	0xbd8ffc49	-0.070305414
51	0x3c1998ba	0.009374792
52	0xbe495a3c	-0.19663328
53	0xbe570e47	-0.2100154
54	0x3ebc7f52	0.36815888
55	0xbe41ab72	-0.18913057
56	0x3dd494a4	0.103799134
57	0x3d331164	0.043717757
58	0xbd621840	-0.055198908
59	0xbdd9586b	-0.106125675
60	0xbe97d702	-0.29656225
61	0x3e55c59d	0.20876165
62	0x3d63c9fe	0.055612557
63	0xbeb9768a	-0.3622325
64	0x3e55b91b	0.20871393
65	0x3ea7c055	0.32763925
66	0xbd06f315	-0.032946665
67	0xbd460e5c	-0.048353538
68	0xbe75cd31	-0.24004056
69	0x3d204f2f	0.039138015
70	0x3e94dd75	0.29075208
71	0x3e562521	0.20912601
72	0xbdce8bd6	-0.10085265
73	0x3ef4e2ec	0.47829378
74	0x3b4cdf85	0.0031261158
75	0xbdb5b2bf	-0.08871984
76	0xbda79790	-0.08183205
77	0x3e42dfd3	0.19030695
78	0x3c6a7838	0.014310889
79	0xbebaeeba	-0.3651026
80	0xbe9abc21	-0.30221656
81	0xbedf6d41	-0.43638042
82	0xbd2b5d96	-0.041837297
83	0x3ebbf6ab	0.3671163
84	0x3e61f482	0.22065929
85	0x3d317c88	0.043331653
86	0x3e8cdb1f	0.27510926
87	0xbe5042cd	-0.20337982
88	0xbd883119	-0.0664999
89	0x3eadb6ec	0.3392862
90	0x3de5a0cd	0.11212311
91	0x3e3dc9f0	0.18534064
92	0x3d13854f	0.036015805
93	0x3d36b964	0.044610396
94	0x3ed737ad	0.42034665
95	0x3e81fd95	0.2538878
96	0x3ec67a73	0.38765296
97	0x3b9cbc98	0.0047832243
98	0x3e9c5f02	0.30541235
99	0xbe8aceb6	-0.27110833
100	0x3eceb21e	0.40370268
101	0x3d8270d1	0.06369174
102	0xbe6d1137	-0.23151098
103	0xbe84f772	-0.25970036
104	0xbde324af	-0.11090981
105	0x3ee33155	0.44373575
106	0xbdb5240a	-0.088447645
107	0xbebcdbff	-0.36886594
108	0x3e47edc0	0.19524288
109	0x3e42bd8e	0.19017622
110	0x3ea6d7b7	0.32586452
111	0x3efe0888	0.49615884
112	0xbe4647fe	-0.193634
113	0x3ef49c5e	0.4777555
114	0x3e4050d1	0.18780829
115	0x3e6de30f	0.23231147
116	0x3e8ab315	0.27089754
117	0xbeba3748	-0.363703
118	0x3d7de85f	0.061989184
119	0xbeb49376	-0.35268754
120	0x3ed768ff	0.42072293
121	0x3dda1e5f	0.10650324
122	0x3e95c32c	0.29250467
123	0xbe147240	-0.14496708
124	0xbe86cc45	-0.2632772
125	0x3e634c7a	0.22197142
126	0xbdc3c8f2	-0.09559812
127	0xbe9543db	-0.29153332
128	0xbdae7411	-0.08518232
129	0x3e8f214c	0.2795509
130	0xbe7d2d1d	-0.2472424
131	0xbeac8387	-0.33694097
132	0xbe7529a3	-0.23941664
133	0x3ea3cd74	0.31992686
134	0x3e51c22f	0.20484231
135	0x3eb4f78a	0.35345107
136	0xbe920077	-0.2851598
137	0x3e87c20e	0.2651524
138	0xbed8cc71	-0.42343476
139	0x3e2f8f70	0.17144561
140	0xbe4dd5c1	-0.20101072
141	0x3e5b7332	0.21430662
142	0x3db7eeee	0.08981119
143	0xbe0427e6	-0.12905845
144	0xbd7bf35b	-0.06151138
145	0xbe962974	-0.293285
146	0x3be4248f	0.006962366
147	0xbc337495	-0.010953088
148	0x3e75610e	0.23962805
149	0x3d84f7bf	0.06492566
150	0xbe536c76	-0.20646843
151	0x3e2b7cd6	0.1674684
152	0xbea2fbd7	-0.31832764
153	0xbe6b488f	-0.22976898
154	0xbe608d2a	-0.2192885
155	0xbdb59d1c	-0.08867857
156	0x3eb1d844	0.3473531
157	0x3e983330	0.29726553
158	0x3b252302	0.0025197868
159	0x3ee6754b	0.45011362
160	0xbe7bdd2c	-0.24596089
161	0xbeebdd87	-0.4606745

Q1.conv.net.3.bias f4 [6]
0	0xb9de7606	-0.00042431074
1	0x3c6dc245	0.0145116495
2	0xbbf57fe8	-0.0074920543
3	0x3c7f5f6a	0.015586713
4	0x3c8bab7e	0.017049547
5	0xbd0049a0	-0.031320214

Q1.conv.net.6.weight f4 [6, 6, 3, 3]
0	0x3e73bb90	0.23802018
1	0x3e5cb25d	0.21552415
2	0xbe23bbb7	-0.15989576
3	0xbe5ec6d4	-0.21755534
4	0xbe3841f4	-0.17993909
5	0xbe7117c3	-0.2354422
6	0x3df063ac	0.11737761
7	0xbe0cf6e1	-0.13766052
8	0x3ea5c850	0.3237939
9	0x3e35aecc	0.17742461
10	0xbd4afa9c	-0.049555406
11	0xbe5c8481	-0.21534921
12	0x3e444bff	0.19169615
13	0xbe793916	-0.24338183
14	0x3e8513a9	0.25991562
15	0xbe801332	-0.25014645
16	0x3e8932b9	0.2679651
17	0xbe39cb6f	-0.1814401
18	0xbd8057d6	-0.062667534
19	0x3e90201f	0.28149506
20	0xbe767133	-0.2406662
21	0xbe659809	-0.22421278
22	0xbdbfddbf	-0.093684666
23	0xbd9191fa	-0.07107921
24	0xbe6881bb	-0.22705738
25	0x3cb1e60c	0.02171614
26	0x3e90792c	0.28217447
27	0xbe939561	-0.28824905
28	0x3e1d9650	0.15389371
29	0x3d67d79b	0.0566021
30	0xbe3a14fa	-0.18172064
31	0xbe18fd3a	-0.14940348
32	0x3dfa439a	0.12219925
33	0x3dbed053	0.093170784
34	0x3bc339fa	0.005957839
35	0xbe837db4	-0.2568184
36	0x3df62624	0.120189935
37	0xbe88c3d0	-0.26711893
38	0xbe7b34ec	-0.24531907
39	0xbe08b512	-0.13350323
40	0xbe9ad05e	-0.30237097
41	0x3e8aa6ca	0.27080375
42	0x3ea9b1d3	0.33143482
43	0xbe9374fd	-0.28800192
44	0x3e07415e	0.1320853
45	0xbe6045cc	-0.21901625
46	0xbe4739a5	-0.19455583
47	0x3d9546b0	0.07288873
48	0x3dd4f507	0.10398298
49	0x3dee981f	0.116501085
50	0x3d1a8756	0.037726723
51	0x3e992b69	0.29915932
52	0xbcd17cb4	-0.025572158
53	0x3e0237b2	0.12716559
54	0xbe7a0368	-0.24415362
55	0x3e6552b5	0.22394831
56	0x3eb07708	0.34465814
57	0xbe9c3664	-0.30510247
58	0x3e323628	0.17403471
59	0x3e85837f	0.26076886
60	0xbe616de5	-0.22014578
61	0xbe833d83	-0.25632867
62	0xbe1d94c1	-0.15388776
63	0x3e31b05e	0.17352435
64	0x3ea6343a	0.3246172
65	0xbd2096c5	-0.039206285
66	0x3ea3af96	0.319699
67	0x3e759bb5	0.23985179
68	0x3c5722ce	0.013130857
69	0x3e932e3a	0.28746206
70	0x3df20224	0.118168145
71	0x3e9dc24d	0.30812302
72	0x3bfae812	0.0076570595
73	0x3d83d276	0.064366266
74	0xbe93241b	-0.28738484
75	0xbe8194f7	-0.25308964
76	0xbe74ccd1	-0.23906256
77	0x3e5d9a2c	0.21640843
78	0x3d5dea82	0.054178722
79	0x3e3c9bc2	0.18418792
80	0x3e25e1cc	0.16199416
81	0xbe118f51	-0.14214827
82	0x3ea6f2e0	0.32607174
83	0x3dcec3c1	0.10095931
84	0x3e82cd0d	0.25547066
85	0xbe889a24	-0.266801
86	0xbe0a3907	-0.13498317
87	0xbcc276e6	-0.023738336
88	0x3e3c7dd6	0.18407378
89	0x3e0813c0	0.13288784
90	0x3e4c6895	0.1996177
91	0xbdc1b220	-0.09457803
92	0xbcd1cabb	-0.025609365
93	0x3e908377	0.282253
94	0xbe5b4174	-0.21411687
95	0x3df971c8	0.12179905
96	0xbe3d9052	-0.18512085
97	0xbe91d657	-0.2848384
98	0x3e2f6582	0.17128566
99	0x3df6fb4e	0.12059651
100	0xbdc3a0af	-0.09552132
101	0x3e9ec379	0.3100851
102	0xbe92d5ea	-0.28678828
103	0xbe013eaf	-0.12621568
104	0xbe4d6f28	-0.20061934
105	0x3d851f25	0.06500081
106	0x3e1c3796	0.1525558
107	0xbe98c1dc	-0.29835403
108	0xbe2e8fc5	-0.17047031
109	0xbd5a9069	-0.053360377
110	0x3e13febd	0.14452644
111	0x3e009a2a	0.12558809
112	0x3e767108	0.24066556
113	0x3e70f134	0.23529512
114	0x3d0b1bd5	0.03396209
115	0xbd3e47f7	-0.04645535
116	0xbd8fd08b	-0.07022198
117	0xbd985f26	-0.07440023
118	0x3e18001b	0.1484379
119	0x3dbdf71a	0.092756465
120	0xbe0d5763	-0.13802867
121	0xbd77576e	-0.060386114
122	0x3ea147b7	0.31500027
123	0x3e70b1b6	0.23505291
124	0x3e9c058d	0.30472985
125	0xbe4f2baa	-0.202315
126	0x3e944626	0.2895977
127	0xbe60871c	-0.2192654
128	0xbd17d3b7	-0.03706714
129	0xbe998604	-0.29985058
130	0xbe429fd3	-0.1900628
131	0x3e180170	0.14844298
132	0xbe5f6854	-0.21817142
133	0xbd918fe4	-0.07107523
134	0x3e65dd24	0.2244764
135	0xbcd05780	-0.025432348
136	0xbe99df78	-0.30053306
137	0x3d9da67a	0.076977685
138	0x3e7ee997	0.24893795
139	0xbe7b5b1c	-0.24546474
140	0x3e93f17b	0.28895172
141	0x3e7bcbf7	0.24589525
142	0x3e7c66c6	0.2464858
143	0x3dafbeb6	0.08581297
144	0x3df8d79c	0.12150499
145	0x3e6cf5da	0.2314066
146	0x3caa3edf	0.020781932
147	0x3da6223a	0.08111997
148	0xbe039773	-0.12850742
149	0x3e97a19e	0.29615492
150	0xbe86c0e8	-0.2631905
151	0xbd5ad35d	-0.053424228
152	0x3e9e3daa	0.3090642
153	0xbe09ff21	-0.1347623
154	0x3e8d887e	0.27643198
155	0x3e79543e	0.24348542
156	0xbe4e9cc1	-0.20176984
157	0xbe0c2131	-0.13684537
158	0x3dbaad86	0.09115128
159	0x3de4fb0f	0.11180698
160	0xbe68167f	-0.22664832
161	0x3cb26374	0.021775939
162	0x3e0e758a	0.13912025
163	0xbe4a65a2	-0.19765332
164	0x3db9672d	0.09052882
165	0xbdeeb1fa	-0.1165504
166	0xbc7ac7bd	-0.01530641
167	0x3ea3b92d	0.31977215
168	0xbe99a302	-0.30007178
169	0xbd8eb882	-0.06968786
170	0xbe3d262e	-0.18471596
171	0x3e3980f1	0.18115593
172	0x3e65f606	0.22457132
173	0x3e6548ae	0.22391006
174	0x3e87b458	0.2650478
175	0x3e91b377	0.28457233
176	0xbe486299	-0.19568862
177	0xbe5ea0d5	-0.2174104
178	0xbea0c25e	-0.3139829
179	0x3df5e9bd	0.12007473
180	0xbe93139c	-0.28725898
181	0x3d815f72	0.06317033
182	0x3eae554d	0.34049454
183	0xbe5d2c42	-0.21598914
184	0x3e977a66	0.2958557
185	0x3e7534fd	0.23945995
186	0xbe4ad47d	-0.1980762
187	0xbc410ffb	-0.011783595
188	0x3dbd0a8f	0.092305295
189	0xbe37ef7e	-0.17962453
190	0x3ea14522	0.31498057
191	0x3eaed314	0.34145415
192	0x3e3a4cd6	0.18193373
193	0x3de01d26	0.109430596
194	0xbd77ab3a	-0.06046603
195	0x3e084d39	0.13310708
196	0xbe72e159	-0.23718776
197	0x3cc5b361	0.024133386
198	0x3e95ba6d	0.29243794
199	0xbe3340ae	-0.17505142
200	0x3d0eb612	0.034841605
201	0x3d726271	0.059175912
202	0xbe8f3933	-0.27973327
203	0x3e19c19e	0.15015265
204	0x3ea9f754	0.3319651
205	0x3e1a1fce	0.15051195
206	0x3e83f41e	0.25772184
207	0x3d4c54a0	0.049885392
208	0xbd9adea9	-0.07562
209	0x3c4c379b	0.012464429
210	0x3ea88cb9	0.32919863
211	0x3e1af94c	0.15134162
212	0x3cf454a9	0.029825525
213	0xbe6cb08d	-0.23114224
214	0x3e99b056	0.30017346
215	0x3c5b5e97	0.013389251
216	0x3df35879	0.11882109
217	0xbdb3a680	-0.08771992
218	0xbe17fb6a	-0.14842
219	0xbe617cc6	-0.22020254
220	0x3dc0218f	0.09381401
221	0xbe87adc6	-0.26499766
222	0xbcec315f	-0.028832136
223	0xbc68db5c	-0.014212456
224	0xbe67fc02	-0.22654727
225	0x3db05200	0.0860939
226	0x3e8f6621	0.28007606
227	0xbe0957ec	-0.13412446
228	0xbde7e580	-0.113230705
229	0xbe7561d7	-0.23963104
230	0x3c7f286f	0.015573605
231	0x3e87355b	0.26407894
232	0x3ea3f48a	0.32022506
233	0x3e045cca	0.12926021
234	0x3d3e7ab1	0.046503726
235	0xbe203159	-0.15643825
236	0x3e0abd44	0.13548762
237	0xbdb0a8e5	-0.08625964
238	0x3e2a6a87	0.166422
239	0xbd034fe4	-0.03205861
240	0x3e47aa91	0.1949866
241	0xbe3815d6	-0.1797708
242	0xbe8c8a1c	-0.2744912
243	0xbdcf0e93	-0.10110202
244	0x3df28711	0.11842168
245	0xbe46c5fb	-0.19411461
246	0x3e70e2ad	0.2352397
247	0xbea24136	-0.31690377
248	0xbe7886ef	-0.24270223
249	0xbe7673fa	-0.24067679
250	0x3d8f8850	0.070084214
251	0xbdbd8aa9	-0.09254963
252	0x3de905ae	0.113780364
253	0x3eadda0f	0.33955428
254	0xbe71b030	-0.23602366
255	0x3eada3fb	0.3391417

Q1.conv.net.6.bias f4 [6]
0	0x3c7e76cd	0.015531254
1	0x3c5d41e8	0.013504483
2	0x3c96337d	0.018335098
3	0x3c81153a	0.015757192
4	0x3cd1879f	0.025577364
5	0x3c5a6acd	0.013331127

Q1.a_head.0.weight f4 [128, 294]
0	0xbca27cbd	-0.01983487
1	0xbd0dbf62	-0.034606345
2	0x3c935537	0.01798497
3	0x3b24f623	0.0025171123
4	0x3c8c53bc	0.017129771
5	0x3d14078e	0.036140017
6	0xbd21dc16	-0.03951653
7	0x3caaf08f	0.02086666
8	0xbc917249	-0.01775469
9	0xbb9bb54e	-0.004751838
10	0xbcc691c8	-0.024239436
11	0x3c3f3e30	0.0116725415
12	0xbd242c67	-0.040081408
13	0x3d091c85	0.033474464
14	0x3d49f3b4	0.04930468
15	0xbccb18b6	-0.024792057
16	0x3b9210dc	0.004457576
17	0x3d5201e2	0.051271327
18	0xbd4eb025	-0.050460953
19	0xbc30b5ca	-0.010785529
20	0x3b218cd6	0.0024650595
21	0xbcceb724	-0.025233813
22	0xbba00b91	-0.0048841913
23	0x3d06f964	0.03295268
24	0xba8fcf99	-0.0010971903
25	0xbd36cf4a	-0.04463128
26	0x3cbb7912	0.02288488
27	0x3d0e1059	0.03468356
28	0x3c20f79f	0.0098246625
29	0x3d1c3793	0.038138937
30	0xbd33965a	-0.04384456
31	0x3b0b8b5c	0.0021292781
32	0xbd2b46c4	-0.041815534
33	0xbd598e55	-0.053114254
34	0xbc9ca1d4	-0.019120134
35	0xbc5113eb	-0.0127610965
36	0xbd4d5f57	-0.05013975
37	0xbd695b06	-0.056971572
38	0xbcf5d2d9	-0.030007767
39	0x3d255479	0.040363763
40	0xbd1085e0	-0.035283923
41	0xbd035c69	-0.03207055
42	0xbc58af95	-0.013225456
43	0xbccbdb93	-0.024884975
44	0xbcefa9a7	-0.029255701
45	0xbc00be9d	-0.007857946
46	0x3cd5690b	0.026051065
47	0x3cba6deb	0.022757491
48	0xbd2dce50	-0.042433083
49	0xbc1de839	-0.009637886
50	0xbd2a9090	-0.04164177
51	0xbca6fb51	-0.020383509
52	0x3d69336d	0.05693381
53	0xbd136efe	-0.035994522
54	0xbca40e35	-0.020026306
55	0xbc3fdac0	-0.011709869
56	0x3d342a6d	0.043985773
57	0xbd108041	-0.035278562
58	0xbd62cd0d	-0.055371333
59	0x3c9222e9	0.017838912
60	0xbcf31957	-0.029675169
61	0x3cc2a13f	0.023758529
62	0x3d140598	0.036138147
63	0xbc3cf523	-0.0115330545
64	0x3d015ce8	0.031582743
65	0xb9a9d5be	-0.00032393442
66	0x3d2988b4	0.041390136
67	0xbd29848a	-0.041386165
68	0xba846c79	-0.0010103128
69	0xbd3fb4c8	-0.046803266
70	0xbbcc652f	-0.006237648
71	0x3d4339c7	0.047662523
72	0x3cc36467	0.023851587
73	0x3cb73974	0.022366263
74	0x3d210ed0	0.039320767
75	0xbd0e40b6	-0.034729682
76	0x3c9a55f3	0.018839812
77	0x3d5bae84	0.053633228
78	0x3c9ac741	0.01889384
79	0x3b1f276a	0.0024284967
80	0xbd29d3f1	-0.04146189
81	0xbd2a4e9f	-0.041578885
82	0xbd21027f	-0.03930902
83	0x3ce2a705	0.027667532
84	0xbd296c8c	-0.041363284
85	0xbd4367a2	-0.047706254
86	0x3bdf8db4	0.0068223123
87	0xbca02018	-0.019546553
88	0x3d57a6ac	0.052649185
89	0xbd3c84fa	-0.046025254
90	0xbd0e503d	-0.03474449
91	0xbd673fb9	-0.056457255
92	0xbd6395cd	-0.055562783
93	0xbd622dab	-0.055219334
94	0x3d30e79c	0.04318963
95	0x3d0c2372	0.03421349
96	0xbd04054a	-0.032231607
97	0xbbcc495d	-0.0062343315
98	0xbcc5bfc8	-0.0241393
99	0x3d574a17	0.052560892
100	0xbd69e02e	-0.05709856
101	0xbc8304e1	-0.015993537
102	0x3c46b9fa	0.012129301
103	0x3cf293fa	0.029611576
104	0xbcc7b5a2	-0.024378601
105	0xbd57e827	-0.052711632
106	0x3d18c343	0.03729559
107	0x3d0252aa	0.031817116
108	0xbca9116c	-0.02063819
109	0xbd288fdc	-0.04115282
110	0xbcb182bb	-0.021668782
111	0x3c8f38e2	0.017483179
112	0xbb010830	-0.0019688718
113	0x3cba769f	0.022761641
114	0x3ca5b9b0	0.020230144
115	0x3c2fa1d8	0.010719739
116	0xbc1a5a78	-0.0094209835
117	0xb9f64f00	-0.00046979636
118	0xbd4c5b79	-0.049891923
119	0xbccf6b1b	-0.025319627
120	0x3c381580	0.011235595
121	0x3c266a85	0.010157232
122	0xbd6e93df	-0.05824649
123	0x3cae5b21	0.021283688
124	0xbd5d802a	-0.054077305
125	0xbcb22e3d	-0.021750564
126	0x3c515818	0.012777351
127	0x3d11efb1	0.03562898
128	0xbd4c92d2	-0.049944706
129	0x3bda0480	0.0066533685
130	0x3d514e8a	0.05110029
131	0x3c5be8d4	0.01342221
132	0x3c91f61f	0.017817555
133	0xbd3b5ad5	-0.04574092
134	0x3d10c0b6	0.035340033
135	0xbc8183cc	-0.015809916
136	0x3c56aa28	0.013102092
137	0xbd1c4631	-0.038152877
138	0x3cb8a259	0.02253835
139	0xbd0233b6	-0.031787597
140	0xbba8a5a8	-0.005146701
141	0xbca6d8bb	-0.020367017
142	0x3d56b185	0.05241539
143	0xbd6ad31a	-0.05733023
144	0x3d4ab3b1	0.049487773
145	0xbd18e323	-0.03732599
146	0xbcd5779f	-0.026058016
147	0x3d1b550e	0.03792291
148	0xbd18ea60	-0.037332892
149	0x3d0eafa7	0.034835484
150	0xbd473554	-0.048634842
151	0xbd09b80c	-0.033622786
152	0xbabda8da	-0.0014469877
153	0xbd21701b	-0.039413553
154	0xbd2c2e90	-0.042036593
155	0xbbca9e39	-0.0061834124
156	0xbca9df96	-0.020736497
157	0x3c37891f	0.011202126
158	0x3d1d8995	0.038461287
159	0x3c630961	0.013857217
160	0x3c41f444	0.011838023
161	0xbc5f9674	-0.013646711
162	0x3c9d17ed	0.019176448
163	0xbcbb366d	-0.0228531
164	0x3d29ab9f	0.041423436
165	0x3d6ed07f	0.058304306
166	0xbccced95	-0.025015632
167	0xbd095855	-0.033531506
168	0x3d2ec0d3	0.04266436
169	0x3d233c5b	0.03985248
170	0xbc844252	-0.016144905
171	0xbd220dc5	-0.039563913
172	0xbcdeb35d	-0.027185136
173	0x3beaf8ff	0.007170796
174	0xbd1d07cd	-0.038337518
175	0x3d1be117	0.03805646
176	0x3cd3bf9a	0.025848199
177	0xbc294434	-0.010331202
178	0x3d330eef	0.043715414
179	0x3d17f302	0.037096985
180	0x3bb728b7	0.0055895704
181	0xbca7b337	-0.020471198
182	0xbcc4b4f2	-0.024012063
183	0x3cdc2835	0.026874641
184	0x3d53ce6e	0.05171054
185	0x3bff5d26	0.0077930866
186	0x3d341107	0.04396155
187	0x3b35f5f3	0.0027765005
188	0xbd3e02b8	-0.04638931
189	0xbd28825f	-0.041139957
190	0x3b52df5f	0.0032176597
191	0xbb3a573b	-0.002843334
192	0xbc70cae6	-0.014696812
193	0x3d621a6e	0.055200987
194	0x3d4f3a32	0.05059261
195	0x3d37d6a1	0.04488242
196	0xbd57e811	-0.05271155
197	0xbd65c1ec	-0.05609314
198	0xbb552ce2	-0.0032527973
199	0xbcde5383	-0.02713943
200	0x3ca2b7a5	0.01986296
201	0xbc1c6967	-0.009546614
202	0xbcefd4bd	-0.029276246
203	0xbb67b83a	-0.003535761
204	0xbd65eabf	-0.056132074
205	0x3d1563a5	0.03647198
206	0xbc655311	-0.013996855
207	0x3d1fce20	0.039014935
208	0x3c725526	0.014790809
209	0xbca5ab1c	-0.020223193
210	0x3d5bd171	0.053666536
211	0x3d15d08b	0.036575835
212	0xbc004362	-0.007828565
213	0x3d4a2a06	0.049356483
214	0xbbb8273b	-0.005619911
215	0x3cfa49f9	0.030552851
216	0xbd170e86	-0.036879085
217	0x3ca80662	0.020510856
218	0x3d33077a	0.043708302
219	0x3d5f503e	0.054519884
220	0xbc97b9fb	-0.0185213
221	0xbd0386d7	-0.032111015
222	0x3b04fedc	0.002029351
223	0x3d6ddaf8	0.058070153
224	0x3cfc4ded	0.030798877
225	0x3ce8e7ce	0.028430846
226	0x3cb1cd87	0.021704448
227	0x3d285257	0.04109415
228	0x3d5588a3	0.05213226
229	0x3d442280	0.047884464
230	0xbd696a66	-0.056986235
231	0xbc99969d	-0.018748576
232	0xbcaa512e	-0.020790663
233	0xbc4ee8b3	-0.012628722
234	0xbd1d344d	-0.038379956
235	0xbd11844b	-0.035526555
236	0xbcd47830	-0.025936216
237	0xbca34ae0	-0.019933164
238	0x3d0ee43c	0.03488563
239	0xbd0da5a8	-0.03458181
240	0x3d40264a	0.046911515
241	0xbcc25ff9	-0.023727404
242	0xbd4b4b25	-0.04963221
243	0x3cbe6696	0.023242276
244	0x3d51aceb	0.051190298
245	0xbcdfe6d9	-0.027331756
246	0xbc87cf36	-0.016578298
247	0x3d5a5b23	0.05330957
248	0xbd34d6bb	-0.044150095
249	0xbbbbb4ed	-0.005728355
250	0xbd04b3df	-0.0323981
251	0x3d1b9e0d	0.037992526
252	0x3b64498f	0.0034833883
253	0x3bd8aa03	0.006612064
254	0xba0cfc6a	-0.0005378189
255	0x3d089f98	0.033355325

Q1.a_head.0.bias f4 [128]
0	0xbca9cfa2	-0.02072889
1	0xbd5ae7f1	-0.053443853
2	0xbd028b2d	-0.03187101
3	0xbb34d433	-0.00275923
4	0xbbd954f7	-0.006632443
5	0x3cfb741d	0.030695016
6	0x3ceda8a4	0.029011078
7	0xbce92dc9	-0.028464215
8	0xbd41cad7	-0.047312584
9	0xbcea4f19	-0.02860217
10	0x3d17186c	0.036888525
11	0x3cf9e252	0.030503426
12	0xbd350fdb	-0.044204574
13	0xbcb487f0	-0.022037476
14	0x3d14cebf	0.03632998
15	0x3d2053bb	0.03914235
16	0x3cc4a09f	0.024002371
17	0x3cf4f01b	0.029899647
18	0xbbb6c802	-0.005578042
19	0x3bba271d	0.005680932
20	0xbd00e516	-0.031468473
21	0x3ca0c84b	0.019626757
22	0xbd40054b	-0.046880048
23	0xbb9220d7	-0.004459481
24	0xbb71250c	-0.0036795763
25	0xbd1ee17b	-0.038789254
26	0xbd27a9f8	-0.04093358
27	0x3d6098dc	0.054833278
28	0xbad4b2fe	-0.001622766
29	0xbccdfa16	-0.025143664
30	0x3d1de466	0.038547896
31	0xbc9b7590	-0.018976957
32	0x3a6f48ab	0.0009127955
33	0xbcee14bb	-0.02906262
34	0xbd020f7c	-0.03175305
35	0x3d18eb61	0.03733385
36	0x3c941efe	0.018081184
37	0x3d67451e	0.0564624
38	0xbd0716da	-0.032980777
39	0x3ca8b441	0.020593764
40	0x3d3de42f	0.04636019
41	0xbcaca806	-0.021076214
42	0xbd687825	-0.056755204
43	0xbc899af9	-0.01679753
44	0xbc738b46	-0.014864748
45	0xbd0e3bee	-0.034725122
46	0x3c5bd2bd	0.013416943
47	0xbcd9dc13	-0.026594197
48	0xbd17b115	-0.037034113
49	0x3d1e165b	0.03859554
50	0x3c937fa1	0.018005194
51	0xbd61519d	-0.055009473
52	0x3d556f0a	0.05210785
53	0x3d5ca84b	0.053871434
54	0xbd253b35	-0.040339667
55	0x3cf37689	0.029719608
56	0xbc462525	-0.012093817
57	0x3c7c44db	0.015397276
58	0xbcaf24b3	-0.021379804
59	0xbca7143a	-0.020395387
60	0xbd03c89b	-0.032173734
61	0xb9ab4bcb	-0.00032672132
62	0xbc8287a1	-0.015933814
63	0xbbf06083	-0.007335724
64	0xbd562c2b	-0.052288216
65	0xbccd5207	-0.025063528
66	0x3d1ceb7b	0.03831051
67	0xbd58656c	-0.0528311
68	0x3d553c60	0.05205953
69	0xbcf68a6a	-0.030095298
70	0xbc822242	-0.015885476
71	0x3c30e9ee	0.010797961
72	0xbd052b4e	-0.032512
73	0xbb3cc752	-0.0028805328
74	0x3b930583	0.004486741
75	0xbd663f7f	-0.0562129
76	0xbd24ae86	-0.0402055
77	0x3bf4ec59	0.007474464
78	0x3d2fd1c4	0.042924657
79	0x3d419841	0.04726434
80	0x3c3bacf9	0.011454814
81	0x3d395d8f	0.04525524
82	0xbd04264c	-0.032263085
83	0xbd0b759d	-0.03404771
84	0xbd39a7a1	-0.04532588
85	0xbd4964b0	-0.04916829
86	0xbbb9a0dc	-0.005664928
87	0xbc78e776	-0.015191903
88	0x3d1028b2	0.03519506
89	0x3c79e8d5	0.015253265
90	0xbc0341de	-0.008011309
91	0xbd14bbf2	-0.03631205
92	0x3c77e118	0.01512935
93	0x3c291f28	0.01032237
94	0xbd3b838c	-0.04577975
95	0x3c3326ee	0.0109345745
96	0x3d68e17e	0.05685567
97	0x3c16520a	0.009174833
98	0xbccd6551	-0.025072725
99	0xbd1ab5ff	-0.03777122
100	0xbd07f9eb	-0.033197325
101	0xbd069f87	-0.03286698
102	0xbd5bfefc	-0.05370997
103	0x3d5466d4	0.051855877
104	0xbd3d4322	-0.0462066
105	0x3d070566	0.032964133
106	0x3b32cfc3	0.002728448
107	0x3ce41737	0.027843101
108	0xbcf35035	-0.029701332
109	0xbc8960ea	-0.016769845
110	0x3c7fb3ba	0.015606815
111	0xbba953fb	-0.005167482
112	0xbd16e7e7	-0.036842253
113	0x3d1e4df8	0.038648576
114	0xbc413593	-0.011792558
115	0x3c935361	0.017984094
116	0xbcb15075	-0.02164481
117	0xbd016a73	-0.03159566
118	0x3cfb30d3	0.03066293
119	0x3d4056df	0.046957847
120	0x3d2e1a72	0.04250569
121	0xbd18d6d7	-0.037314262
122	0x3d520774	0.05127664
123	0x3cc95374	0.024575926
124	0xbba27a52	-0.0049584294
125	0xbd28a8b7	-0.041176524
126	0x3cf764ea	0.030199487
127	0x3cfeec14	0.03111843

Q1.a_head.2.weight f4 [6, 128]
0	0xbd51b7b6	-0.05120059
1	0x3d1cbc70	0.038265646
2	0x3dac6d3a	0.08419271
3	0xbd8efbac	-0.06981596
4	0x3d056366	0.032565497
5	0xbd6617d1	-0.056175057
6	0x3d008a62	0.031381972
7	0xbd9cda68	-0.07658845
8	0xbd4f2098	-0.050568193
9	0x3d81872b	0.06324609
10	0x3d753efd	0.059874523
11	0xbd954949	-0.07289369
12	0x3bf7dd12	0.0075641954
13	0x3d385adc	0.045008525
14	0x3da6009b	0.08105584
15	0x3cb40cff	0.021978853
16	0xbd841886	-0.0644999
17	0x3ca609c7	0.020268334
18	0xbc25563d	-0.010091362
19	0x3d9c95e6	0.07645778
20	0x3d70297c	0.058633313
21	0x39b27b37	0.00034042608
22	0xbd6d2a6b	-0.05790178
23	0x3d9ee216	0.07757966
24	0x3d9a12a3	0.07523086
25	0x3bc8e577	0.00613087
26	0xbda0de00	-0.07854843
27	0xbd254dcf	-0.040357407
28	0x3d2dd6e7	0.042441275
29	0xbda544db	-0.08069774
30	0xbd97e1b9	-0.074161
31	0xbcd01e3f	-0.025405047
32	0x3d9717b4	0.07377568
33	0xbbe00a23	-0.006837146
34	0xbc66e977	-0.014093748
35	0xbce6003f	-0.02807629
36	0x3d0a4ac8	0.033762723
37	0x3ca276a4	0.019831963
38	0x3d8c6f2c	0.06857142
39	0xbc6b3a7e	-0.014357207
40	0x3d1bcf5f	0.03803956
41	0xbd243ac6	-0.040095113
42	0x3c825e30	0.015914053
43	0xbd746126	-0.05966296
44	0x3a6b0702	0.0008965583
45	0x3d6638ee	0.056206636
46	0xbc082912	-0.008310573
47	0x3d701dc1	0.058622126
48	0xbd8bf4f2	-0.06833829
49	0xbc5eeefc	-0.013606783
50	0xbd4e6dd0	-0.050397694
51	0x3d8c0608	0.06837088
52	0xbd4adae5	-0.04952516
53	0xbd925ffc	-0.07147214
54	0xbcbe874d	-0.023257876
55	0x3d3f9e2a	0.046781696
56	0x3d5c72b9	0.053820346
57	0xbd53fdfb	-0.051755887
58	0xbd70f3da	-0.058826305
59	0x3d10669b	0.035254102
60	0x3d99030c	0.07471284
61	0x3d0886da	0.03333173
62	0xbda32ea2	-0.07967879
63	0x3d4c5d3d	0.049893606
64	0x3d258751	0.04041225
65	0x3ab03d4d	0.0013446003
66	0xbb9f9a02	-0.004870654
67	0x3d5dfc56	0.054195724
68	0x3d56f9b7	0.05248424
69	0xbd6dd92c	-0.05806844
70	0x3d1443d6	0.036197506
71	0xbd631f6c	-0.055449888
72	0xbd2aa82c	-0.041664287
73	0x3ca83a46	0.0205356
74	0xbb7f44ff	-0.0038951037
75	0x3d355337	0.044268813
76	0xbcd3ee96	-0.025870603
77	0x3c961555	0.018320719
78	0xbd9d7463	-0.07688215
79	0xbb1ad5e0	-0.0023626015
80	0xbcc32763	-0.023822492
81	0x3da9af2f	0.08285367
82	0x3c84ec8a	0.016226072
83	0xbd40d827	-0.04708114
84	0xbd1c2d54	-0.038129166
85	0x3d8dc928	0.06923133
86	0x3d837e21	0.064205416
87	0xbcced0bb	-0.025246015
88	0xbc953b7d	-0.018216843
89	0x3d4fa90c	0.050698325
90	0x3cb97808	0.022640243
91	0xbd031fef	-0.032012876
92	0xbd13a6ab	-0.03604762
93	0x3d255c6e	0.04037135
94	0x3da421b9	0.080142446
95	0x3d188f3b	0.03724597
96	0xbd97e8ff	-0.07417487
97	0xbd25e3d4	-0.040500477
98	0x3cfe9c6b	0.031080445
99	0xb94cedaa	-0.00019543493
100	0xbce8518f	-0.028359203
101	0x3cfc2b17	0.030782266
102	0xbcc82f0e	-0.0244365
103	0xbb9a89f3	-0.004716152
104	0xbd9cba1b	-0.07652684
105	0x3960c859	0.0002143694
106	0x3c25ad0e	0.01011206
107	0xbc4f39ab	-0.012648026
108	0xbdb31805	-0.08744816
109	0x3cc1e05b	0.023666551
110	0xbd9827e3	-0.07429483
111	0xbda55c88	-0.080742896
112	0xbc878a2c	-0.016545378
113	0x3d8467e9	0.06465132
114	0x3c1c27b9	0.009530955
115	0xbd10e96b	-0.035378855
116	0x3d2cbf16	0.04217442
117	0xbccccaff	-0.02499914
118	0xbb0809e4	-0.0020757848
119	0xbcaf2b19	-0.021382855
120	0xbd009357	-0.031390514
121	0xbda0beeb	-0.07848915
122	0x3d54eab8	0.051981658
123	0x3da6f9e7	0.08153134
124	0x3d9c4292	0.07629885
125	0x3caf8184	0.021424063
126	0xbd7a6d1b	-0.061139207
127	0x3cde6e1d	0.027152115
128	0x3d9957db	0.0748746
129	0x3d8e7f3e	0.06957863
130	0xbd552272	-0.052034803
131	0x3d8b7a5b	0.06810447
132	0xbda41597	-0.080119304
133	0xbd2a8d82	-0.04163886
134	0xbcd91955	-0.026501337
135	0x3d41327b	0.047167283
136	0xb9b21b62	-0.00033971207
137	0x3d59062a	0.052984394
138	0x3d056f3f	0.032576796
139	0xbc8b9a91	-0.017041476
140	0xbcdfd56a	-0.027323443
141	0x3da64b24	0.08119801
142	0x3d11fa05	0.035638828
143	0x3d28e24f	0.04123145
144	0xbd3d8d02	-0.046277054
145	0x3d2d711f	0.04234421
146	0xbc645fdb	-0.013938869
147	0x3d2baf19	0.041915033
148	0x3d89061a	0.06690617
149	0xbd51e2ed	-0.051241804
150	0x3cb102a6	0.021607708
151	0x3d1f57e2	0.03890217
152	0x3c958850	0.018253475
153	0xbd9560c8	-0.0729385
154	0x3d82122d	0.06351123
155	0xbd92391f	-0.07139801
156	0xbda8a878	-0.08235258
157	0xbd092906	-0.03348639
158	0x3d844449	0.06458337
159	0x3db4a27b	0.08820053
160	0xbc96bec6	-0.018401515
161	0x3c887ddc	0.016661577
162	0x3d15ee6e	0.036604337
163	0xbc960106	-0.018311035
164	0xbd5d3c53	-0.054012608
165	0x3d72fb64	0.059321776
166	0xbd6fcb6b	-0.058543604
167	0xbcd6dba6	-0.026227783
168	0xbd823eef	-0.0635966
169	0x3c4f564b	0.012654851
170	0x3d44a56a	0.048009314
171	0x3cc47e40	0.023985982
172	0xbcb0f92c	-0.02160319
173	0xbc01800a	-0.007904062
174	0xbd0e0106	-0.034668945
175	0xbd5cdb66	-0.053920172
176	0x3d029e87	0.031889465
177	0x3d25a2ee	0.040438585
178	0xbd22251a	-0.039586164
179	0x3d702462	0.058628447
180	0xbd72bb57	-0.059260692
181	0xbda1e2cf	-0.079045884
182	0x3d2fe76d	0.042945314
183	0xbd837e1f	-0.0642054
184	0x3d397a96	0.045282923
185	0xbd61022d	-0.054933716
186	0x3d8d2c9a	0.06893273
187	0xbd0dfcd1	-0.034664933
188	0x3cc8b80d	0.024501825
189	0x3d11c394	0.03558691
190	0xbbdca82e	-0.006733916
191	0x3d161c5b	0.036648136
192	0xbce80b0c	-0.02832558
193	0xbd3e7336	-0.046496592
194	0x3a02f30c	0.0004995323
195	0xbdabc8a6	-0.0838788
196	0x3d990b84	0.074728996
197	0x3c8e5542	0.017374638
198	0x3ceaafd0	0.028648287
199	0x3cf68065	0.03009052
200	0x3ca62512	0.020281348
201	0x3d8fdce2	0.07024552
202	0x3c1ca4af	0.009560748
203	0x3d6998d3	0.05703051
204	0xbd62a9e2	-0.055337794
205	0x3baf88a3	0.0053568645
206	0xbda5ca4e	-0.08095227
207	0xbb7e34c6	-0.003878878
208	0xbd35cdd0	-0.04438573
209	0xbd3daddf	-0.046308395
210	0x3c06fcb4	0.00823896
211	0xbd8af065	-0.06784133
212	0x3c29eb3d	0.010371027
213	0xbd908d17	-0.07058161
214	0x3cdf0527	0.027224137
215	0xbcadbed7	-0.021209164
216	0xbc2cda21	-0.010550053
217	0xbd515ed9	-0.051115844
218	0xbca5a0e8	-0.020218328
219	0x3c5a9781	0.013341785
220	0x3da3d08c	0.079987615
221	0xbcfdf45f	-0.031000314
222	0xbd9af704	-0.07566646
223	0xbccbc034	-0.024871923
224	0x3d4af259	0.049547527
225	0x3d812619	0.06306095
226	0xbd017b19	-0.031611536
227	0x3d56cb43	0.05243994
228	0xbd8dbcb0	-0.06920755
229	0xbcb52804	-0.022113807
230	0xbd1b2438	-0.037876338
231	0x3a9e62f9	0.001208394
232	0x3d426c05	0.047466297
233	0xbb825f16	-0.0039786203
234	0x3cd5a227	0.026078297
235	0xbd3aa3ef	-0.045566496
236	0xbd6c4e25	-0.057691712
237	0x3d9012de	0.07034849
238	0x3d4caeca	0.04997138
239	0x3ced88c6	0.028995883
240	0x3d920463	0.07129743
241	0x3da941e3	0.0826452
242	0x3d2c59c8	0.04207781
243	0x3d20449c	0.03912793
244	0xbd725b67	-0.0591692
245	0x3d84ab18	0.06477946
246	0xbd3016eb	-0.042990606
247	0x3c86043f	0.016359447
248	0xbd584295	-0.052797873
249	0x3cd95e98	0.026534364
250	0xbd883fcf	-0.066527955
251	0x3d9dbbc6	0.077018306
252	0xbd7a740b	-0.061145823
253	0xbda074ee	-0.078348026
254	0xbd1bbc58	-0.038021415
255	0xbb777d1f	-0.0037763787

Q1.a_head.2.bias f4 [6]
0	0x3da5c8c9	0.08094937
1	0x3ce265af	0.027636377
2	0xbbe33718	-0.006934058
3	0xbd80ecb2	-0.06295146
4	0x3ced796c	0.028988563
5	0xbd9842a6	-0.07434587

Q1.v_head.0.weight f4 [128, 294]
0	0xbbe1780f	-0.006880767
1	0xbcd624c5	-0.02614058
2	0x3d202d15	0.039105494
3	0xbd7cdf08	-0.061736137
4	0xbd5273b3	-0.05137987
5	0x3c97027b	0.0184338
6	0xbbf743a4	-0.007545905
7	0xbd6250fd	-0.055253018
8	0xbc9204bc	-0.017824523
9	0x3cf364c0	0.029711127
10	0x3cbea8eb	0.023273906
11	0xbc3d7a8a	-0.01156486
12	0xbaca64b5	-0.001544139
13	0xbd155bcc	-0.036464497
14	0x3d34f022	0.04417432
15	0xbc0f1fa6	-0.008735573
16	0x3d2c63a0	0.042087197
17	0xbceb387e	-0.028713461
18	0xbc8391e8	-0.016060784
19	0x3d1bcb74	0.038035825
20	0xbb885e95	-0.0041616657
21	0x3cdd32e2	0.027001802
22	0xbc907804	-0.017635353
23	0xbc928c7c	-0.017889254
24	0xbc56b561	-0.013104768
25	0xbd7f631b	-0.062350374
26	0xbc7b03f8	-0.01532077
27	0xbd25677f	-0.040381905
28	0x3c70f066	0.014705753
29	0x3caa2946	0.020771634
30	0x3d31e94f	0.04343539
31	0x3b5052fe	0.0031787748
32	0xbcab73c4	-0.020929225
33	0x3d3f72ec	0.046740457
34	0xbcdd2e77	-0.026999695
35	0xbc4b367f	-0.01240313
36	0xbcf23ee3	-0.029571002
37	0x3cb477a7	0.022029711
38	0xbd2e201d	-0.042511094
39	0x3b1173dc	0.0022194302
40	0xbc8c0207	-0.01709081
41	0x3d052ff1	0.032516424
42	0x3c96550f	0.018351106
43	0xbabf0d14	-0.0014576041
44	0xbc27fc4b	-0.010253022
45	0xbcd8baa6	-0.026456188
46	0x3aab8aeb	0.0013087665
47	0xbc3de024	-0.011589084
48	0x3d0b0297	0.033938017
49	0xbc169d11	-0.009192721
50	0xbd1bdab9	-0.038050387
51	0x3d503d5d	0.05083977
52	0x3b44b2c1	0.0030013772
53	0x3c7b15e5	0.015325044
54	0x3d1e8f42	0.03871084
55	0xbd46fce4	-0.04858102
56	0x3d375610	0.04475981
57	0xbc4c9b5a	-0.012488211
58	0xbd2ac44b	-0.041691106
59	0x3d113c5e	0.03545796
60	0xbc4f2f43	-0.012645545
61	0x3d2fdc2f	0.042934593
62	0x3beaa37d	0.0071606026
63	0x3d1c961a	0.038229086
64	0xbd07c85e	-0.03315007
65	0x3c075adb	0.008261408
66	0x3bca3f23	0.0061720773
67	0xbd6e8ce9	-0.05823985
68	0xbce1bc43	-0.02755559
69	0xbd1b95eb	-0.03798477
70	0x3d2e323f	0.042528387
71	0x3bb6e0dd	0.005581005
72	0xbd35a226	-0.04434409
73	0x3d605709	0.054770503
74	0xbd0c95a4	-0.034322396
75	0xbcd863ae	-0.026414718
76	0x3d173405	0.036914844
77	0xbd1ca7e5	-0.038246054
78	0xbd2c3a95	-0.042048056
79	0xbb3f0c11	-0.002915148
80	0xbcc9bd6a	-0.024626452
81	0xbcaf34bf	-0.021387456
82	0x3cf0b5dc	0.029383592
83	0xbd036e18	-0.032087415
84	0xbd523b42	-0.051326044
85	0x3c281e70	0.010261163
86	0x3ccc5621	0.024943413
87	0xbd7fe553	-0.06247456
88	0xbd3f407c	-0.046692356
89	0x3d4e0ff2	0.050308175
90	0x3d3ed416	0.04658898
91	0x3d1f1f28	0.038848072
92	0x3c37f07d	0.0112267705
93	0xbce4df06	-0.027938377
94	0x3d248f69	0.04017583
95	0xbd3e7d1a	-0.046506025
96	0xbcf5862f	-0.02997121
97	0x3d2caf8a	0.042159595
98	0xbc9d3f0f	-0.019195108
99	0xbcda8bbe	-0.026677962
100	0x3ca9e426	0.020738672
101	0xbd509ba6	-0.050929688
102	0xb9578e51	-0.00020557015
103	0xbcc498f8	-0.023998722
104	0x3be71d4b	0.0070530525
105	0x3d3fd403	0.04683305
106	0xbb7a7e6f	-0.0038222333
107	0x3c87e2e5	0.016587684
108	0xbc63e433	-0.013909387
109	0xbd022e9a	-0.031782724
110	0xbcfdd9db	-0.03098767
111	0xbd2e9a27	-0.04262748
112	0xbc600d0a	-0.013674984
113	0xbd7b2081	-0.061310295
114	0xbc45ec21	-0.012080223
115	0x3af33e78	0.0018558046
116	0xbc82613a	-0.015915502
117	0xbd2b6669	-0.041845713
118	0xbd53caba	-0.051707007
119	0x3d4c88b9	0.049935076
120	0xbd4c9c49	-0.049953733
121	0x3d51859f	0.05115282
122	0xbc008567	-0.007844306
123	0x3ca2589c	0.019817643
124	0xba8bd336	-0.0010667804
125	0xbc7d6f60	-0.015468448
126	0xbc97088f	-0.018436698
127	0xbd190669	-0.03735963
128	0xbc9e8366	-0.019349765
129	0x3d2c79a9	0.04210821
130	0xbd1a87fb	-0.037727337
131	0x3d007672	0.03136296
132	0x3d3617ee	0.044456415
133	0x3bbc5195	0.00574703
134	0xbc67c639	-0.014146381
135	0xbd0a4c64	-0.033764258
136	0x3cb480b5	0.022034029
137	0xbc9dfab8	-0.019284591
138	0x3c46ecb7	0.012141398
139	0x3d3be9a3	0.04587711
140	0xbc82bdbe	-0.015959617
141	0x3d0a81a8	0.033815056
142	0x3d549b1a	0.05190573
143	0xbbd113cb	-0.0063805333
144	0xbb9a8a23	-0.004716174
145	0x3c1a59b6	0.009420803
146	0xbba5bfca	-0.0050582634
147	0xbd279586	-0.04091408
148	0x3ca7e1ee	0.020493474
149	0x3d046128	0.032319218
150	0x3c44949e	0.011998324
151	0xbd1cb220	-0.03825581
152	0xbd066f5b	-0.03282104
153	0xbd43450b	-0.047673266
154	0xbc6f33c5	-0.014599745
155	0x3d5297a8	0.051414162
156	0x3cdf1e4a	0.027236123
157	0xbc9f5b99	-0.019452857
158	0x3d1f92de	0.038958423
159	0xbcbb519b	-0.022866061
160	0xbd5218ed	-0.051293302
161	0x3cd78f22	0.026313368
162	0x3c9cd10e	0.019142654
163	0x3d351a54	0.04421456
164	0x3d30a70d	0.043128062
165	0xbd3303ac	-0.043704674
166	0xbca03e2f	-0.019560901
167	0x3d33cda4	0.043897286
168	0xbd6adfda	-0.057342388
169	0x3c4f4168	0.012649871
170	0x3ca543fb	0.020174017
171	0x3d6d1a1c	0.057886228
172	0x3d20cd26	0.039258145
173	0x3c9a7fd3	0.01885978
174	0x3d3b6c3a	0.04575751
175	0xbb949a27	-0.004534978
176	0xbd4fce98	-0.050734133
177	0x3cb45d91	0.022017272
178	0x3d4f179d	0.05055963
179	0x3d1aa799	0.03775749
180	0xbd335e1b	-0.043790918
181	0xbd460682	-0.04834605
182	0x3d149591	0.03627545
183	0xbd1a3cae	-0.037655525
184	0x3c195b18	0.009360097
185	0xbcd6731b	-0.026177933
186	0x3d44a9e0	0.048013568
187	0xbd6ae8e3	-0.057351004
188	0x3c9ad88e	0.01890209
189	0xbcd86b01	-0.026418211
190	0xbd09a557	-0.033604946
191	0x3d211070	0.039322317
192	0xbd251cd7	-0.040310707
193	0xbc851f8c	-0.016250394
194	0x3d4b1bce	0.049587063
195	0x3aaea331	0.0013323781
196	0x3d2866f3	0.041113805
197	0x3c8e8433	0.017397022
198	0xbd4567e6	-0.04819479
199	0xbd7c938d	-0.061664153
200	0xbd1c4ef0	-0.03816122
201	0x3d4c63a8	0.049899727
202	0x3d05fef1	0.032713834
203	0x3c1a8850	0.0094319135
204	0x3ccc00fe	0.024902817
205	0xbccee120	-0.025253832
206	0x3d4d540c	0.05012898
207	0xbc27c423	-0.010239634
208	0x3d332ed9	0.04374585
209	0xbd41dbbe	-0.047328703
210	0xbd75434a	-0.059878625
211	0xbb712ad8	-0.0036799219
212	0xbcf2b8c3	-0.029629117
213	0xbd00bc30	-0.03142947
214	0xbcdbb397	-0.026819034
215	0xbd1cb97d	-0.038262833
216	0xbb198360	-0.0023424253
217	0xbd5e48d9	-0.05426869
218	0x3d1c04a9	0.03809038
219	0xbd21f3a4	-0.039538994
220	0xbd6c5c91	-0.057705466
221	0x3d2c48a2	0.042061456
222	0xbd4f0112	-0.05053813
223	0x3cba7872	0.02276251
224	0x3d26a4b3	0.040684413
225	0xbd1c5f00	-0.038176537
226	0xbafeadf4	-0.0019430504
227	0xbd156370	-0.036471784
228	0x3d523aa7	0.051325466
229	0x3d2919ec	0.041284487
230	0x3cae2244	0.021256573
231	0x3d09274d	0.033484746
232	0x3cbc2a8b	0.022969505
233	0x3d4edac9	0.05050162
234	0x3badaf32	0.005300426
235	0x3ce1aa7d	0.027547115
236	0x3d038f3d	0.032119025
237	0x3d1a4d01	0.037671093
238	0xbd46820c	-0.048463866
239	0x3cea442f	0.028596966
240	0x3d2aaf4c	0.041671082
241	0x3d092d99	0.03349075
242	0x3d04de24	0.032438412
243	0xbce1386d	-0.027492726
244	0x3cd9e33e	0.026597615
245	0xbcc88008	-0.024475113
246	0xbcfa1790	-0.030528814
247	0x3cee04f6	0.0290551
248	0x3c4473e3	0.01199052
249	0xbca7d8e1	-0.020489158
250	0xbc10e9a3	-0.008844766
251	0xbb40dfff	-0.0029430387
252	0x3d4ea77c	0.050452694
253	0x3be89e21	0.0070989286
254	0x3cdccc7f	0.02695298
255	0x3d32dcb4	0.04366751

Q1.v_head.0.bias f4 [128]
0	0x3c4b16f1	0.012395606
1	0x3ab47ca2	0.0013770054
2	0xbc8b7417	-0.01702313
3	0x3d117016	0.035507284
4	0x3d07b429	0.0331308
5	0x3d800f35	0.062529005
6	0x3c86edf6	0.01647089
7	0x3d1a5f95	0.03768881
8	0xbcdb0824	-0.02673728
9	0xbd28ab34	-0.041178897
10	0x3d620a0e	0.05518537
11	0x3c46bbda	0.012129748
12	0x3d052062	0.032501586
13	0xbcfff56c	-0.031244956
14	0x3c17a04e	0.009254528
15	0x3d0ce160	0.03439462
16	0xbcccde42	-0.025008325
17	0xbc0c040c	-0.008545887
18	0x3c9f67e3	0.019458717
19	0x3d278d27	0.040906098
20	0xbccb60be	-0.024826404
21	0x3d66b50e	0.05632501
22	0x3d195224	0.03743185
23	0xbd2daed0	-0.042403042
24	0x3d078c03	0.03309251
25	0x3ce8e1dd	0.028428013
26	0xbcea226b	-0.028580865
27	0xbd34076c	-0.04395239
28	0x3a4df255	0.00078562397
29	0xbcd4b897	-0.025966926
30	0x3a9dde7b	0.0012044454
31	0x3d235307	0.039874103
32	0x3c7eee32	0.01555972
33	0x3cb5c8a9	0.022190409
34	0xbd1045cf	-0.035222825
35	0x3a0a4f06	0.00052760576
36	0x3d2860b8	0.041107863
37	0x3d07830a	0.033083953
38	0xbd1df13d	-0.03856014
39	0x3d52e2eb	0.051485937
40	0xbd3ae006	-0.0456238
41	0xbd196bd5	-0.037456352
42	0xbcd73cbf	-0.026274083
43	0xbbaee68d	-0.0053375424
44	0xbc509ad8	-0.01273223
45	0x3d31e960	0.043435454
46	0x3ccd99d6	0.025097769
47	0xbcf3a0d6	-0.029739778
48	0xbca22a8c	-0.019795679
49	0x3cfa26ff	0.030536173
50	0x3c6bd380	0.014393687
51	0xbc3160c2	-0.0108262915
52	0xbd2265d0	-0.039647877
53	0x3caed34d	0.02134099
54	0xbcf68de9	-0.030096965
55	0xbd718ed0	-0.058974087
56	0xbd3cd463	-0.046100985
57	0xbbef9d1d	-0.0073124305
58	0x3d8c2fcc	0.06845054
59	0x3d160cc8	0.036633283
60	0xbc75f767	-0.015012599
61	0x3d2efc6b	0.042721193
62	0x3d72d192	0.059281893
63	0xbd3273e7	-0.043567564
64	0xbd31dcad	-0.043423343
65	0xbb3e82be	-0.0029069628
66	0x3d15330b	0.03642563
67	0x3d1d2dcc	0.038373753
68	0x3d296664	0.041357413
69	0xbb85190b	-0.0040618232
70	0xbba14466	-0.004921484
71	0x3be75e02	0.007060767
72	0xbd45577d	-0.04817914
73	0xbd539c41	-0.051662687
74	0x3cdbabfe	0.02681541
75	0xbcfa65de	-0.030566152
76	0xbc9892a2	-0.018624607
77	0xbbe09a4f	-0.0068543325
78	0x3d5c6c8a	0.05381445
79	0xbd356538	-0.044285983
80	0x3d0b7869	0.03405038
81	0x3c0c5970	0.008566245
82	0xbc6c0d0f	-0.01440741
83	0x3d194a30	0.037424266
84	0x3d3eac5b	0.04655109
85	0xbc80a781	-0.015704872
86	0x3d28d7c2	0.041221388
87	0x3d1c4be8	0.038158327
88	0x3c348716	0.011018535
89	0xbc9bc634	-0.019015409
90	0xbd0679c1	-0.032830957
91	0xbcb0829c	-0.021546654
92	0x3d310d51	0.04322559
93	0x3a82ff9d	0.0009994392
94	0xbbd90f7e	-0.0066241613
95	0xbd0a44bb	-0.033756953
96	0x3c5bf6a0	0.013425499
97	0x3d6b137b	0.057391625
98	0x3d108e52	0.035291977
99	0xbb02dd39	-0.0019968285
100	0xbd7177ff	-0.058952328
101	0x3bcb1e5a	0.0061986865
102	0x3cb133b8	0.021631107
103	0x3d473d94	0.04864271
104	0x3d4250e8	0.04744044
105	0x3cb05f82	0.021529917
106	0xbd278e4d	-0.040907193
107	0x3d761565	0.060078997
108	0x3b8b0f23	0.004243748
109	0x3d3fe22e	0.04684656
110	0xbc962ef5	-0.018332938
111	0x3d81742d	0.06320987
112	0xbcc77158	-0.024346039
113	0xbd147d1b	-0.036252122
114	0xbd2f0d88	-0.042737514
115	0xbd218a32	-0.039438434
116	0x3d5907d1	0.05298597
117	0x3d41bfb4	0.047301963
118	0x3c83ab15	0.01607279
119	0x3cb862bf	0.022508023
120	0x3cdc1103	0.02686358
121	0xbd35090c	-0.04419808
122	0xbd00c294	-0.031435564
123	0xbd5394bf	-0.051655527
124	0x3d4d7e0d	0.05016904
125	0xbbb4fca0	-0.0055232793
126	0x3bbe3264	0.005804347
127	0xbc940a76	-0.018071394

Q1.v_head.2.weight f4 [1, 128]
0	0xbc95c49a	-0.018282223
1	0xbd266842	-0.04062677
2	0xbd8ca74a	-0.06867845
3	0xbc745579	-0.014912956
4	0x3da8dcb2	0.08245219
5	0x3d3856ee	0.045004778
6	0x3d252d9a	0.040326692
7	0xbc9cae4e	-0.019126084
8	0x3c42ab6f	0.011881693
9	0xbd7b0b52	-0.061290093
10	0x3dbce282	0.092228904
11	0xbd894128	-0.06701881
12	0xbd02850c	-0.031865165
13	0xbcbe24a2	-0.023210827
14	0x3b772aeb	0.003771479
15	0xbd867885	-0.06565956
16	0x3d021630	0.03175944
17	0xbd035829	-0.032066498
18	0xbd49178d	-0.049094725
19	0x3d1b1044	0.03785731
20	0x3db3e6fc	0.08784291
21	0x3dbfea07	0.09370809
22	0x3d06c252	0.032900162
23	0x3c9d071c	0.01916843
24	0xbd807454	-0.06272188
25	0xbd774da8	-0.060376793
26	0xbd306b98	-0.04307136
27	0xbc9abf8c	-0.018890165
28	0x3d6f34b9	0.05839989
29	0xbcdb86ae	-0.026797619
30	0x3d699520	0.057026982
31	0x3db3f0d2	0.08786167
32	0xbd043996	-0.03228148
33	0xbd89aaa9	-0.06722004
34	0x3d83b9b4	0.064319044
35	0x3d998097	0.0749523
36	0xbd46f97a	-0.048577763
37	0xbc6c584c	-0.0144253485
38	0xbd95680f	-0.07295238
39	0x3cbf971d	0.023387486
40	0x3d9e5ea4	0.07732895
41	0xbc63f432	-0.013913201
42	0x3ce6b3f7	0.028161986
43	0xbc029bbe	-0.007971702
44	0xbd623fa0	-0.05523646
45	0x3daee61f	0.08539986
46	0x3d94f0cb	0.0727249
47	0x3dbe60bf	0.092957966
48	0x3d98a4fe	0.07453345
49	0x3d8c359d	0.068461634
50	0xbd98936a	-0.07449992
51	0xbbb38d63	-0.005479501
52	0xbd13a4a5	-0.03604569
53	0xbc3cff4b	-0.011535476
54	0xbd0099c4	-0.031396642
55	0xbd7ceca0	-0.0617491
56	0xbd8bde3f	-0.068294995
57	0xbd92f9c2	-0.07176544
58	0x3db0795a	0.08616896
59	0xbd16a23c	-0.036775813
60	0x3d9df6fc	0.07713124
61	0xbd570128	-0.052491337
62	0x3dc33126	0.09530859
63	0x3d30c6d5	0.04315837
64	0x3c7009b3	0.01465075
65	0xbd773063	-0.06034888
66	0xbd948971	-0.07252777
67	0xbd4a5b8f	-0.049403723
68	0xbd1781b9	-0.036988948
69	0xbc3e49de	-0.011614291
70	0xbd7679a8	-0.060174614
71	0x38d001b1	9.918528e-05
72	0xbd439674	-0.047750905
73	0xbd3fe49c	-0.04684888
74	0x3a6ea89c	0.0009104104
75	0x3da82e62	0.08211972
76	0xbd07e459	-0.033176754
77	0x3d10b00e	0.03532415
78	0xbcbfc950	-0.023411423
79	0xbd94deb7	-0.07269042
80	0xbd7dd64d	-0.06197195
81	0xbcfc87ae	-0.030826416
82	0xbcf9ea52	-0.03050724
83	0xbcb46622	-0.022021357
84	0x3dd99d31	0.10625685
85	0x3d9ec330	0.07752073
86	0xbc1e213f	-0.009651481
87	0x3dc0be97	0.09411352
88	0x3d9f1d3f	0.0776925
89	0xbda0c947	-0.078508906
90	0x3dcdfdaa	0.10058148
91	0xbd74c918	-0.05976209
92	0x3d20849b	0.039188962
93	0x3d76a133	0.060212325
94	0xbd5a2d3a	-0.053265788
95	0xbd8efadb	-0.06981441
96	0xbc91109f	-0.01770812
97	0x3be0ca62	0.0068600634
98	0x3d814c1b	0.06313344
99	0xbcc6f06c	-0.024284564
100	0xbd99c16e	-0.07507597
101	0x3cf506f5	0.029910544
102	0x3d37b6fc	0.044852242
103	0xbd6e45bd	-0.058171976
104	0xbcedb378	-0.029016241
105	0xbc23287e	-0.009958385
106	0xbcdf226b	-0.027238091
107	0x3db6ae2b	0.08919939
108	0xbcf6d501	-0.030130865
109	0x3cdc138f	0.026864795
110	0x3d57049e	0.052494638
111	0x3d5cd328	0.05391231
112	0x3cda150d	0.026621366
113	0x3dacfd9e	0.08446811
114	0x3d22db64	0.03976001
115	0xbd2cb94b	-0.042168897
116	0xbcb1e84e	-0.021717217
117	0x3d938dec	0.07204804
118	0x3d1ff872	0.039055295
119	0x3da2b440	0.07944536
120	0xbd8024b7	-0.06257003
121	0xbd4138d0	-0.04717332
122	0x3b9ce74a	0.004788314
123	0x3b15cb53	0.0022856786
124	0x3d11f533	0.03563423
125	0x3db265a4	0.08710793
126	0xbda31bf3	-0.07964315
127	0xbdab4c59	-0.083641715
