models_decentralized/final/online_critic_2_200.pth (torch, 631787 bytes, 26 tensors)

Q1.conv.net.0.weight f4 [3, 31, 3, 3]
0.13873272 -0.1197283 0.05159876 -0.08759454 0.05593527 0.12571383 0.084659085 -0.10408441
-0.07427033 0.14233182 0.0010106645 0.04596723 0.0043199845 -0.1341502 0.023919148 0.13736066
-0.06898107 -0.14224063 0.050674237 0.043323487 0.066134304 0.14667584 -0.101086475 -0.13867092
0.029918376 -0.081535555 -0.13077667 -0.11725794 0.066700906 -0.08153954 0.008425265 -0.10450953
0.0068316483 0.090424865 0.1314945 -0.12817892 -0.14681049 -0.0133130355 -0.13256402 0.051676154
-0.11226222 -0.07573973 -0.024812862 0.13330327 0.10454287 0.12877604 -0.13308153 0.06650801
-0.093453854 -0.06514064 -0.09660352 0.07167521 -0.10938936 0.0733673 -0.021436524 -0.12639517
0.119092666 0.009568033 0.03945335 0.014524707 0.052619603 0.05131299 0.11677544 -0.016591327
-0.13145353 -0.12112531 -0.042783737 0.12351906 0.14614484 0.07986427 -0.037873633 -0.054197244
-0.14117335 -0.09467806 0.13490117 -0.116502605 -0.06538394 -0.08590265 0.020981908 -0.066428386
0.06409008 0.13553706 -0.12031804 -0.10509428 -0.13469316 -0.055252455 -0.10353428 0.014537202
0.098907955 0.12688948 0.067610964 0.12827545 -0.07516027 0.09548484 0.0853759 0.10779927
0.12427228 0.07745631 -0.018491143 -0.06697615 0.107802436 0.078903675 -0.1255034 0.05328396
-0.04222614 0.042060643 0.03259018 -0.020257194 -0.12827653 -0.023753123 -0.04812165 0.09052733
0.14505471 -0.10034009 -0.01620846 0.13158055 0.09611679 0.060814325 0.017521445 0.05035221
0.14376816 0.11483301 -0.097240314 0.09120349 0.08748161 0.010370657 0.1208137 0.0666106
-0.13430609 0.08187846 -0.10563523 0.010712826 0.09410518 -0.11463849 0.07538113 0.08446201
-0.07993726 -0.121845245 0.14448993 -0.11258167 -0.045360778 0.047321983 -0.11410915 -0.009586836
-0.04364608 0.13737643 0.1391002 -0.03598248 0.11387899 -0.11561029 0.053593576 -0.008615465
0.05993849 -0.13853683 -0.028110374 0.020152908 -0.06147868 -0.11416375 -0.04276685 0.05124353
-0.11682863 -0.057650577 -0.05318654 0.12549189 0.034910154 -0.052952882 0.0030296599 -0.045052834
-0.1439514 0.071687505 0.14336796 0.13266274 -0.04489462 0.081135 -0.08851026 -0.037430793
0.06377496 0.0807808 -0.015490856 0.13983512 -0.12269805 -0.05518767 0.014361696 -0.08284944
0.13232182 0.12660277 -0.11242193 0.10601638 -0.099563666 -0.12805453 -0.09579641 -0.019733759
-0.009785794 -0.117393784 0.0946491 0.09471927 -0.027871521 0.072694354 -0.039912395 -0.009265309
-0.0067354958 -0.047967512 0.078347795 -0.046232704 -0.0026526514 -0.0021324544 -0.038578168 -0.032223944
-0.10685775 -0.07776661 -0.09727973 -0.07986217 -0.030483596 -0.044689413 -0.091149196 0.1385215
-0.12392198 -0.14041479 -0.059397627 -0.10947488 -0.102291904 0.04571247 -0.12957053 -0.05701275
0.0910745 -0.026973333 0.090699755 -0.017154178 -0.11419304 0.07633716 -0.1257086 -0.04799399
0.087618686 0.08758098 -0.10884117 -0.13557595 -0.1155395 -0.041236337 0.080045566 0.13530979
0.11703478 -0.11336939 0.037815116 -0.039829127 0.11350594 0.0050802864 -0.05665014 -0.026236305
-0.077014096 0.13296938 -0.12014881 -0.03520195 -0.14559737 -0.12237897 -0.040855516 -0.027401442
00000000: f30f 0e3e 1c34 f5bd 3959 533d c464 b3bd
00000010: 621c 653d 20bb 003e be61 ad3d 352a d5bd
00000020: 0b1b 98bd 6fbf 113e 4678 843a 2248 3c3d
00000030: a88e 8d3b ac5e 09be 17f2 c33c 46a8 0c3e
00000040: f245 8dbd 87a7 11be ca8f 4f3d f873 313d
00000050: 6c71 873d 3132 163e 6d06 cfbd c0ff 0dbe
00000060: 6217 f53c 1dfc a6bd 52ea 05be ee24 f0bd
00000070: 7c9a 883d 34fe a6bd 1f0a 0a3c 1809 d6bd
00000080: 05dc df3b ac30 b93d 7fa6 063e 5641 03be
00000090: 7d55 16be eb1e 5abc ddbe 07be 60aa 533d
000000a0: bce9 e5bd 6e1d 9bbd 5844 cbbc a780 083e
000000b0: 921a d63d dedd 033e 8646 08be 5a35 883d
000000c0: bc64 bfbd 7568 85bd 11d8 c5bd 74ca 923d
000000d0: 8707 e0bd 9841 963d a69b afbc bc6d 01be
000000e0: dbe6 f33d 3dc3 1c3c d699 213d 09f9 6d3c
000000f0: a787 573d 922d 523d f627 ef3d 89ea 87bc
00000100: c19b 06be 8c10 f8bd 003e 2fbd 90f7 fc3d
00000110: fea6 153e e18f a33d 6221 1bbd eefd 5dbd
00000120: bf8f 10be 92e6 c1bd 8823 0a3e eb98 eebd
00000130: 04e8 85bd bbed afbd 40e2 ab3c 9b0b 88bd
00000140: a941 833d 3aca 0a3e 4e69 f6bd ab3b d7bd
00000150: 01ed 09be 6650 62bd c809 d4bd 722d 6e3c
00000160: 4190 ca3d 51ef 013e 9e77 8a3d a45a 033e
00000170: a1ed 99bd 8e8d c33d 8fd9 ae3d ddc5 dc3d
00000180: 7782 fe3d 6aa1 9e3d bd7a 97bc cb2a 89bd
00000190: 86c7 dc3d 4098 a13d f783 00be 4840 5a3d
000001a0: 51f5 2cbd c847 2c3d 487d 053d 6af2 a5bc
000001b0: ec5a 03be e995 c2bc 351b 45bd 6566 b93d
000001c0: 3989 143e 1b7f cdbd 9bc7 84bc 0dbd 063e
000001d0: e1d8 c43d 7118 793d 2289 8f3c 1e3e 4e3d
000001e0: f637 133e 922d eb3d ee25 c7bd e5c8 ba3d
000001f0: 8f29 b33d b0e9 293c 2c6d f73d 236b 883d
00000200: 8987 09be e5af a73d 4957 d8bd d984 2f3c
00000210: 37ba c03d 96c7 eabd 6c61 9a3d 6bfa ac3d
00000220: 25b6 a3bd 008a f9bd 2bf5 133e 3891 e6bd
00000230: 39cc 39bd b2d4 413d 0fb2 e9bd 1b12 1dbc
00000240: 3bc6 32bd 68ac 0c3e 4870 0e3e 5d62 13bd
00000250: 6339 e93d 16c5 ecbd f084 5b3d e127 0dbc
00000260: 1082 753d 99dc 0dbe ba47 e6bc b617 a53c
00000270: 12d1 7bbd afce e9bd 4b2c 2fbd bce4 513d
00000280: d943 efbd 0323 6cbd 21da 59bd f280 003e
00000290: f3fd 0e3d 1fe5 58bd 428d 463b 5289 38bd
000002a0: ff67 13be e6d0 923d 0dcf 123e bed8 073e
000002b0: 6ce3 37bd 1b2a a63d de44 b5bd 0851 19bd
000002c0: 729c 823d 6770 a53d 5ccd 7dbc f030 0f3e
000002d0: 1e49 fbbd 770c 62bd 524d 6b3c f8ac a9bd
000002e0: 5f7f 073e 28a4 013e 783d e6bd 1e1f d93d
000002f0: 09e8 cbbd ba20 03be e930 c4bd b1a8 a1bc
00000300: 9854 20bc 276c f0bd 63d7 c13d 2dfc c13d
00000310: d152 e4bc c7e0 943d 2e7b 23bd 86cd 17bc
00000320: 6fb5 dcbb 9579 44bd cf74 a03d 815e 3dbd
00000330: 1bd8 2dbb a6c0 0bbb 2404 1ebd 41fd 03bd
00000340: 3cd8 dabd 1a44 9fbd 983a c7bd c78e a3bd
00000350: bcb8 f9bc 3f0c 37bd 6eac babd 95d8 0d3e
00000360: cfca fdbd e5c8 0fbe ed4a 73bd 5e34 e0bd
00000370: 6b7e d1bd 003d 3b3d 23ae 04be 3486 69bd
00000380: 4485 ba3d 2ef7 dcbc cbc0 b93d eb86 8cbc
00000390: 0ade e9bd a856 9c3d c1b9 00be 5995 44bd
000003a0: 6d71 b33d a85d b33d 1fe8 debd 6cd4 0abe
000003b0: f99f ecbd 6fe7 28bd eeee a33d a68e 0a3e
000003c0: eeaf ef3d 362e e8bd 06e4 1a3d de23 23bd
000003d0: cd75 e83d 8878 a63b fa09 68bd 85ed d6bc
000003e0: 91b9 9dbd 2029 083e 9410 f6bd ec2f 10bd
000003f0: 7a17 15be d3a1 fabd 1d58 27bd fd78 e0bc

Q1.conv.net.0.bias f4 [3]
-0.0002999997 0.00029999987 -0.00029999993
00000000: 4749 9db9 4d49 9d39 4f49 9db9

Q1.conv.net.3.weight f4 [6, 3, 3, 3]
-0.40072492 -0.124204494 0.12320617 0.3752904 0.4425989 0.15106502 -0.26595446 -0.3225044
0.45194024 0.0015766558 0.23905353 0.1931311 0.18523043 -0.13723123 -0.4041162 0.45953915
0.39221045 -0.16719957 0.44787046 -0.27281383 -0.44552016 0.01801241 0.17806007 -0.28658107
0.45551774 0.27836448 0.28427863 -0.21535622 0.05278098 -0.040447064 0.42980787 0.46137214
-0.21878332 -0.20655128 -0.12659091 0.029054781 0.4567156 0.006976282 -0.44494793 0.11838788
-0.2778559 -0.041793186 0.292618 -0.117471494 0.18467104 0.21141987 -0.13645545 0.43497813
0.018003868 0.38550115 -0.086308904 -0.02236432 -0.22693843 -0.24166752 0.37310728 -0.18331335
0.10568252 0.029429141 -0.0738494 -0.12641923 -0.3292115 0.1646745 0.00799758 -0.3529949
0.2120075 0.33142263 -0.045041904 -0.06527195 -0.25748137 -0.00181308 0.25299722 0.17851682
-0.11712589 0.4624954 -0.012273076 -0.10110694 -0.09031499 0.18539216 -0.027893491 -0.40328726
-0.33638695 -0.45881492 -0.06613113 0.3402524 0.19540052 0.016473655 0.24572778 -0.22768578
-0.09072371 0.3127335 0.08131917 0.15351993 0.004168976 0.010844691 0.38555765 0.21939664
0.35627636 -0.026138665 0.27373943 -0.28963774 0.3851129 0.04508794 -0.27074447 -0.25006005
-0.09753867 0.4518859 -0.08037171 -0.3608249 0.16797243 0.15982567 0.29335895 0.46888855
-0.22208235 0.44824216 0.16059335 0.20540398 0.2437729 -0.3885151 0.036480546 -0.37990272
0.38794667 0.07496292 0.2605871 -0.17906551 -0.29577464 0.18932238 -0.11774798 -0.31473234
-0.11306435 0.24793096 -0.28350285 -0.37474403 -0.25742304 0.30202708 0.18681751 0.3690586
-0.26698527 0.2903164 -0.40786684 0.1930169 -0.17226966 0.22159442 0.10093042 -0.11079446
-0.019582056 -0.2477254 0.056165703 0.025768675 0.28410813 0.11165802 -0.18322986 0.19641653
-0.28325438 -0.21563539 -0.20509835 -0.074471936 0.36151892 0.31148025 0.016714683 0.46428668
-0.23179613 -0.4465243
00000000: d12b cdbe ed5e febd 8453 fc3d 1026 c03e
00000010: 539c e23e cab0 1a3e 2f2b 88be 4c1f a5be
00000020: b664 e73e caa7 ce3a 73ca 743e 29c4 453e
00000030: 0cad 3d3e 5886 0cbe 52e8 cebe b748 eb3e
00000040: cfcf c83e 5d36 2bbe 474f e53e 41ae 8bbe
00000050: 381b e4be c38e 933c 6155 363e c1ba 92be
00000060: 9f39 e93e ca85 8e3e f88c 913e 5786 5cbe
00000070: de30 583d d2ab 25bd c70f dc3e f838 ec3e
00000080: bc08 60be 2e82 53be 0ca1 01be 4b04 ee3c
00000090: a1d6 e93e 4c99 e43b 37d0 e3be 5875 f23d
000000a0: 2143 8ebe 552f 2bbd 07d2 953e e594 f0bd
000000b0: 681a 3d3e 737e 583e faba 0bbe 74b5 de3e
000000c0: d97c 933c 6860 c53e b9c2 b0bd 6135 b7bc
000000d0: 8c62 68be b177 77be eb07 bf3e 7fb6 3bbe
000000e0: 1470 d83d 6215 f13c 5b3e 97bd 0b74 01be
000000f0: 698e a8be 6fa0 283e 4808 033c bfbb b4be
00000100: 7e18 593e 3ab0 a93e dc7d 38bd 4dad 85bd
00000110: 99d4 83be dfa4 edba da88 813e 1dcd 363e
00000120: b3df efbd 32cc ec3e 0315 49bc 2811 cfbd
00000130: 11f7 b8bd 71d7 3d3e e480 e4bc ab7b cebe
00000140: e93a acbe cae9 eabe c26f 87bd 9035 ae3e
00000150: 1317 483e c2f3 863c 10a0 7b3e 7626 69be
00000160: 5acd b9bd 9b1e a03e aa8a a63d 5434 1d3e
00000170: e89b 883b eead 313c d067 c53e 83a9 603e
00000180: db69 b63e c120 d6bc 9327 8c3e 664b 94be
00000190: 852d c53e 22ae 383d 059f 8abe df07 80be
000001a0: 5bc2 c7bd 975d e73e ec99 a4bd 0bbe b8be
000001b0: f700 2c3e 57a9 233e 2533 963e 2912 f03e
000001c0: 8e69 63be ff7f e53e 9572 243e 6c55 523e
000001d0: 9a9f 793e 74eb c6be a06c 153d 9c82 c2be
000001e0: f2a0 c63e 2986 993d ac6b 853e f35c 37be
000001f0: c66f 97be badd 413e da25 f1bd 9924 a1be
00000200: 488e e7bd 9de1 7d3e 4927 91be 73de bfbe
00000210: f4cc 83be 4ba3 9a3e 174d 3f3e 40f5 bc3e
00000220: 4bb2 88be 5aa4 943e ecd3 d0be 39a6 453e
00000230: 7567 30be a6e9 623e 9cb4 ce3d 35e8 e2bd
00000240: 8c6a a0bc baab 7dbe 020e 663d d418 d33c
00000250: 9f76 913e f6ac e43d 9ca0 3bbe 6a21 493e
00000260: b806 91be 86cf 5cbe 4d05 52be be84 98bd
00000270: 0219 b93e 577a 9f3e 3bed 883c fcb6 ed3e
00000280: f75b 6dbe d59e e4be

Q1.conv.net.3.bias f4 [6]
0.0002999996 -0.00029999987 -0.00029999987 -0.0002999998 0.00029999984 -0.00029999987
00000000: 4449 9d39 4d49 9db9 4d49 9db9 4b49 9db9
00000010: 4c49 9d39 4d49 9db9

Q1.conv.net.6.weight f4 [6, 6, 3, 3]
0.20678967 0.19089806 -0.19461027 -0.23342018 -0.19770627 -0.26801637 0.107955314 -0.15027702
0.3088484 0.14774913 -0.07560093 -0.245246 0.16714218 -0.26469952 0.23526019 -0.26802555
0.24743472 -0.20323904 -0.11854794 0.22182477 -0.30977407 -0.26627633 -0.13761881 -0.1314295
-0.24889523 -0.020912828 0.2159058 -0.31660178 0.1251325 0.02562887 -0.20317417 -0.17157763
0.09038545 0.07010342 -0.021003146 -0.28962672 0.09560733 -0.2919942 -0.2749079 -0.15498692
-0.32804337 0.23788165 0.3185529 -0.30490083 0.117083065 -0.25520554 -0.21443054 0.03986031
0.09324974 0.11681272 0.010109094 0.2882196 -0.04652104 0.097851194 -0.26259962 0.20619263
0.3284046 -0.32285073 0.15825038 0.24558946 -0.23817734 -0.27460647 -0.17230198 0.15510209
0.30630153 -0.057468146 0.30197465 0.22409484 -0.0022417603 0.26932204 0.101941206 0.29248896
-0.010822069 0.046150636 -0.30567518 -0.27157485 -0.2556457 0.19990744 0.038080346 0.1692852
0.14692332 -0.1643101 0.30179536 0.075939946 0.2381886 -0.28515247 -0.15380868 -0.038510196
0.17019328 0.11893695 0.18530478 -0.10830012 -0.03944603 0.26404098 -0.23014756 0.103339575
-0.19809595 -0.30156678 0.15158977 0.102404065 -0.11385613 0.2919299 -0.29865807 -0.13952728
-0.21397822 0.04720254 0.13450861 -0.3166503 -0.18903825 -0.071802355 0.12607646 0.10746812
0.22239129 0.21688004 0.016908238 -0.06357898 -0.0873358 -0.087813444 0.13492446 0.07909204
-0.15672454 -0.079104915 0.29628018 0.21705846 0.2865343 -0.22061743 0.27663815 -0.23303922
-0.05077103 -0.31817818 -0.20828564 0.1302946 -0.2362363 -0.08950219 0.20605798 -0.05146453
-0.32748944 0.046860404 0.23549828 -0.2602626 0.27440798 0.22703294 0.22727962 0.06651524
0.10283596 0.21248591 0.0018299718 0.06422574 -0.14420708 0.27868432 -0.28540337 -0.078373484
0.28151542 -0.14866929 0.26352412 0.23003925 -0.22023377 -0.15519485 0.072631426 0.094786115
-0.2432894 0.0049271453 0.13070394 -0.20858467 0.079032876 -0.11661783 -0.018049827 0.31536335
-0.32480812 -0.098242745 -0.21758424 0.16364765 0.20669682 0.20599131 0.25788754 0.27531388
-0.20545411 -0.21869631 -0.3176004 0.11562754 -0.30509531 0.045206342 0.32254803 -0.22652559
0.28389552 0.22753248 -0.198602 -0.015870085 0.08794253 -0.20187724 0.29246104 0.32055706
0.163433 0.09097611 -0.07886288 0.12992288 -0.2445236 0.018293073 0.2899132 -0.18100028
0.030037811 0.031914167 -0.30778134 0.12161619 0.31117243 0.12770703 0.23177521 0.034175146
-0.09323408 -0.0053362153 0.33006155 0.15055265 0.025734397 -0.26773983 0.26079956 -0.032504577
0.11015858 -0.09644031 -0.14856333 -0.2470389 0.07323227 -0.286945 -0.0498622 -0.031835344
-0.2587092 0.08384412 0.26806396 -0.14651869 -0.12272066 -0.24766222 0.01256313 0.2431561
0.300738 0.102579616 0.039978005 -0.16153258 0.12382796 -0.09087525 0.17437914 -0.017013362
0.17688233 -0.19548634 -0.29689914 -0.15075086 0.071249865 -0.22840704 0.21557933 -0.32708135
-0.25829446 -0.27726495 0.041984912 -0.1273686 0.072953604 0.29820004 -0.27486652 0.30858147
00000000: acc0 533e c87a 433e ea47 47be b305 6fbe
00000010: 8373 4abe 7139 89be ad17 dd3d 38e2 19be
00000020: 6121 9e3e 8c4b 173e a9d4 9abd c421 7bbe
00000030: 5227 2b3e b286 87be 0ce8 703e a53a 89be
00000040: 875f 7d3e e51d 50be 43c9 f2bd 0826 633e
00000050: b59a 9ebe 5f55 88be f2eb 0cbe 7495 06be
00000060: 64de 7ebe 6151 abbc 6916 5d3e a119 a2be
00000070: bc22 003e a3f3 d13c e40c 50be 0cb2 2fbe
00000080: 021c b93d 6292 8f3d ca0e acbc f449 94be
00000090: c7cd c33d 4480 95be bac0 8cbe e4b4 1ebe
000000a0: 4df5 a7be 3f97 733e 5e19 a33e f61b 9cbe
000000b0: 3fc9 ef3d 4daa 82be ae93 5bbe 9044 233d
000000c0: b8f9 be3d 823b ef3d 9da0 253c 8591 933e
000000d0: d98c 3ebd 3566 c83d 7573 86be 2924 533e
000000e0: a624 a83e b14c a5be 630c 223e ce7b 7b3e
000000f0: c3e4 73be 3899 8cbe ee6f 30be 15d3 1e3e
00000100: 8ed3 9c3e b863 6bbd 6c9c 9a3e 1e79 653e
00000110: 7fea 12bb 94e4 893e 8dc6 d03d 1dc1 953e
00000120: 0c4f 31bc 7308 3d3d 7581 9cbe dc0b 8bbe
00000130: fee3 82be 89b4 4c3e 23fa 1b3d 1959 2d3e
00000140: 1173 163e e840 28be ec84 9a3e 6786 9b3d
00000150: b6e7 733e 81ff 91be 0680 1dbe debc 1dbd
00000160: 2647 2e3e 3795 f33d 89c0 3d3e 74cc ddbd
00000170: 2992 21bd 6130 873e cdab 6bbe b3a3 d33d
00000180: aad9 4abe f666 9abe 593a 1b3e 39b9 d13d
00000190: 672d e9bd d677 953e b6e9 98be 3de0 0ebe
000001a0: 1b1d 5bbe 7357 413d a0bc 093e fd1f a2be
000001b0: 3e93 41be 1d0d 93bd 301a 013e 3f18 dc3d
000001c0: 8bba 633e cd15 5e3e 2583 8a3c b235 82bd
000001d0: 1ddd b2bd 89d7 b3bd a329 0a3e 02fb a13d
000001e0: 667c 20be c201 a2bd 09b2 973e 9344 5e3e
000001f0: a0b4 923e 89e9 61be 84a3 8d3e d5a1 6ebe
00000200: 49f5 4fbd 40e8 a2be d548 55be f36b 053e
00000210: eee7 71be ed4c b7bd dd00 533e 79cc 52bd
00000220: b2ac a7be b2f0 3f3d 7626 713e 2441 85be
00000230: 347f 8c3e 537b 683e fdbb 683e 2439 883d
00000240: a99b d23d e895 593e aadb ef3a c988 833d
00000250: 05ab 13be b6af 8e3e 6420 92be 4782 a0bd
00000260: ca22 903e c33c 18be a2ec 863e 698f 6b3e
00000270: f684 61be 66eb 1ebe c9bf 943d 391f c23d
00000280: db20 79be e473 a13b 41d7 053e 3897 55be
00000290: fddb a13d 54d5 eebd 3bdd 93bc 4e77 a13e
000002a0: 404d a6be 7e33 c9bd 67ce 5ebe 4093 273e
000002b0: 55a8 533e 63ef 523e d609 843e f1f5 8c3e
000002c0: 9062 52be edf1 5fbe 859c a2be 22ce ec3d
000002d0: 7435 9cbe 492a 393d 0425 a53e 53f6 67be
000002e0: c15a 913e 46fe 683e 535e 4bbe fb01 82bc
000002f0: 371b b43d e8b8 4ebe 74bd 953e 0e20 a43e
00000300: fb5a 273e af51 ba3d dd82 a1bd 810a 053e
00000310: 6564 7abe 5bdb 953c 816f 943e 2358 39be
00000320: db11 f63c 6eb8 023d 8495 9dbe e911 f93d
00000330: fe51 9f3e a2c5 023e 7b56 6d3e 3dfb 0b3d
00000340: 82f1 bebd 6bdb aebb d4fd a83e 792a 1a3e
00000350: f1d0 d23c 3215 89be 8587 853e 8523 05bd
00000360: d29a e13d 7f82 c5bd fc20 18be c4f7 7cbe
00000370: cdfa 953d 74ea 92be 4e3c 4cbd c765 02bd
00000380: 8875 84be 77b6 ab3d ae3f 893e ff08 16be
00000390: f854 fbbd 2a9b 7dbe 96d5 4d3c eafd 783e
000003a0: 55fa 993e 4315 d23d fabf 233d cc68 25be
000003b0: 8399 fd3d ce1c babd 7290 323e 9b5f 8bbc
000003c0: a420 353e 922d 48be 2a03 98be 6f5e 1abe
000003d0: 73eb 913d 89e3 69be d4c0 5c3e 3577 a7be
000003e0: 2c3f 84be acf5 8dbe 5ff8 2b3d ea6c 02be
000003f0: b368 953d adad 983e 4ebb 8cbe 64fe 9d3e

Q1.conv.net.6.bias f4 [6]
-0.00029999987 -0.00029999993 0.0002999999 -0.00029999987 -0.00029999873 -0.00029999996
00000000: 4d49 9db9 4f49 9db9 4e49 9d39 4d49 9db9
00000010: 2649 9db9 5049 9db9

Q1.a_head.0.weight f4 [128, 294]
-0.01983487 -0.034606345 0.01798497 0.0025171123 0.017129771 0.036140017 -0.03951653 0.02086666
-0.01775469 -0.004751838 -0.024239436 0.0116725415 -0.040081408 0.033474464 0.04930468 -0.024792057
0.004457576 0.051271327 -0.050460953 -0.010785529 0.0024650595 -0.025233813 -0.0048841913 0.03295268
-0.0010971903 -0.04463128 0.02288488 0.03468356 0.0098246625 0.038138937 -0.04384456 0.0021292781
-0.041815534 -0.053114254 -0.019120134 -0.0127610965 -0.05013975 -0.056971572 -0.030007767 0.040363763
-0.035283923 -0.03207055 -0.013225456 -0.024884975 -0.029255701 -0.007857946 0.026051065 0.022757491
-0.042433083 -0.009637886 -0.04164177 -0.020383509 0.05693381 -0.035994522 -0.020026306 -0.011709869
0.043985773 -0.035278562 -0.055371333 0.017838912 -0.029675169 0.023758529 0.036138147 -0.0115330545
0.031582743 -0.00032393442 0.041390136 -0.041386165 -0.0010103128 -0.046803266 -0.006237648 0.047662523
0.023851587 0.022366263 0.039320767 -0.034729682 0.018839812 0.053633228 0.01889384 0.0024284967
-0.04146189 -0.041578885 -0.03930902 0.027667532 -0.041363284 -0.047706254 0.0068223123 -0.019546553
0.052649185 -0.046025254 -0.03474449 -0.056457255 -0.055562783 -0.055219334 0.04318963 0.03421349
-0.032231607 -0.0062343315 -0.0241393 0.052560892 -0.05709856 -0.015993537 0.012129301 0.029611576
-0.024378601 -0.052711632 0.03729559 0.031817116 -0.02063819 -0.04115282 -0.021668782 0.017483179
-0.0019688718 0.022761641 0.020230144 0.010719739 -0.0094209835 -0.00046979636 -0.049891923 -0.025319627
0.011235595 0.010157232 -0.05824649 0.021283688 -0.054077305 -0.021750564 0.012777351 0.03562898
-0.049944706 0.0066533685 0.05110029 0.01342221 0.017817555 -0.04574092 0.035340033 -0.015809916
0.013102092 -0.038152877 0.02253835 -0.031787597 -0.005146701 -0.020367017 0.05241539 -0.05733023
0.049487773 -0.03732599 -0.026058016 0.03792291 -0.037332892 0.034835484 -0.048634842 -0.033622786
-0.0014469877 -0.039413553 -0.042036593 -0.0061834124 -0.020736497 0.011202126 0.038461287 0.013857217
0.011838023 -0.013646711 0.019176448 -0.0228531 0.041423436 0.058304306 -0.025015632 -0.033531506
0.04266436 0.03985248 -0.016144905 -0.039563913 -0.027185136 0.007170796 -0.038337518 0.03805646
0.025848199 -0.010331202 0.043715414 0.037096985 0.0055895704 -0.020471198 -0.024012063 0.026874641
0.05171054 0.0077930866 0.04396155 0.0027765005 -0.04638931 -0.041139957 0.0032176597 -0.002843334
-0.014696812 0.055200987 0.05059261 0.04488242 -0.05271155 -0.05609314 -0.0032527973 -0.02713943
0.01986296 -0.009546614 -0.029276246 -0.003535761 -0.056132074 0.03647198 -0.013996855 0.039014935
0.014790809 -0.020223193 0.053666536 0.036575835 -0.007828565 0.049356483 -0.005619911 0.030552851
-0.036879085 0.020510856 0.043708302 0.054519884 -0.0185213 -0.032111015 0.002029351 0.058070153
0.030798877 0.028430846 0.021704448 0.04109415 0.05213226 0.047884464 -0.056986235 -0.018748576
-0.020790663 -0.012628722 -0.038379956 -0.035526555 -0.025936216 -0.019933164 0.03488563 -0.03458181
0.046911515 -0.023727404 -0.04963221 0.023242276 0.051190298 -0.027331756 -0.016578298 0.05330957
-0.044150095 -0.005728355 -0.0323981 0.037992526 0.0034833883 0.006612064 -0.0005378189 0.033355325
00000000: bd7c a2bc 62bf 0dbd 3755 933c 23f6 243b
00000010: bc53 8c3c 8e07 143d 16dc 21bd 8ff0 aa3c
00000020: 4972 91bc 4eb5 9bbb c891 c6bc 303e 3f3c
00000030: 672c 24bd 851c 093d b4f3 493d b618 cbbc
00000040: dc10 923b e201 523d 25b0 4ebd cab5 30bc
00000050: d68c 213b 24b7 cebc 910b a0bb 64f9 063d
00000060: 99cf 8fba 4acf 36bd 1279 bb3c 5910 0e3d
00000070: 9ff7 203c 9337 1c3d 5a96 33bd 5c8b 0b3b
00000080: c446 2bbd 558e 59bd d4a1 9cbc eb13 51bc
00000090: 575f 4dbd 065b 69bd d9d2 f5bc 7954 253d
000000a0: e085 10bd 695c 03bd 95af 58bc 93db cbbc
000000b0: a7a9 efbc 9dbe 00bc 0b69 d53c eb6d ba3c
000000c0: 50ce 2dbd 39e8 1dbc 9090 2abd 51fb a6bc
000000d0: 6d33 693d fe6e 13bd 350e a4bc c0da 3fbc
000000e0: 6d2a 343d 4180 10bd 0dcd 62bd e922 923c
000000f0: 5719 f3bc 3fa1 c23c 9805 143d 23f5 3cbc
00000100: e85c 013d bed5 a9b9 b488 293d 8a84 29bd
00000110: 796c 84ba c8b4 3fbd 2f65 ccbb c739 433d
00000120: 6764 c33c 7439 b73c d00e 213d b640 0ebd
00000130: f355 9a3c 84ae 5b3d 41c7 9a3c 6a27 1f3b
00000140: f1d3 29bd 9f4e 2abd 7f02 21bd 05a7 e23c
00000150: 8c6c 29bd a267 43bd b48d df3b 1820 a0bc
00000160: aca6 573d fa84 3cbd 3d50 0ebd b93f 67bd
00000170: cd95 63bd ab2d 62bd 9ce7 303d 7223 0c3d
00000180: 4a05 04bd 5d49 ccbb c8bf c5bc 174a 573d
00000190: 2ee0 69bd e104 83bc fab9 463c fa93 f23c
000001a0: a2b5 c7bc 27e8 57bd 43c3 183d aa52 023d
000001b0: 6c11 a9bc dc8f 28bd bb82 b1bc e238 8f3c
000001c0: 3008 01bb 9f76 ba3c b0b9 a53c d8a1 2f3c
000001d0: 785a 1abc 004f f6b9 795b 4cbd 1b6b cfbc
000001e0: 8015 383c 856a 263c df93 6ebd 215b ae3c
000001f0: 2a80 5dbd 3d2e b2bc 1858 513c b1ef 113d
00000200: d292 4cbd 8004 da3b 8a4e 513d d4e8 5b3c
00000210: 1ff6 913c d55a 3bbd b6c0 103d cc83 81bc
00000220: 28aa 563c 3146 1cbd 59a2 b83c b633 02bd
00000230: a8a5 a8bb bbd8 a6bc 85b1 563d 1ad3 6abd
00000240: b1b3 4a3d 23e3 18bd 9f77 d5bc 0e55 1b3d
00000250: 60ea 18bd a7af 0e3d 5435 47bd 0cb8 09bd
00000260: daa8 bdba 1b70 21bd 902e 2cbd 399e cabb
00000270: 96df a9bc 1f89 373c 9589 1d3d 6109 633c
00000280: 44f4 413c 7496 5fbc ed17 9d3c 6d36 bbbc
00000290: 9fab 293d 7fd0 6e3d 95ed ccbc 5558 09bd
000002a0: d3c0 2e3d 5b3c 233d 5242 84bc c50d 22bd
000002b0: 5db3 debc fff8 ea3b cd07 1dbd 17e1 1b3d
000002c0: 9abf d33c 3444 29bc ef0e 333d 02f3 173d
000002d0: b728 b73b 37b3 a7bc f2b4 c4bc 3528 dc3c
000002e0: 6ece 533d 265d ff3b 0711 343d f3f5 353b
000002f0: b802 3ebd 5f82 28bd 5fdf 523b 3b57 3abb
00000300: e6ca 70bc 6e1a 623d 323a 4f3d a1d6 373d
00000310: 11e8 57bd ecc1 65bd e22c 55bb 8353 debc
00000320: a5b7 a23c 6769 1cbc bdd4 efbc 3ab8 67bb
00000330: bfea 65bd a563 153d 1153 65bc 20ce 1f3d
00000340: 2655 723c 1cab a5bc 71d1 5b3d 8bd0 153d
00000350: 6243 00bc 062a 4a3d 3b27 b8bb f949 fa3c
00000360: 860e 17bd 6206 a83c 7a07 333d 3e50 5f3d
00000370: fbb9 97bc d786 03bd dcfe 043b f8da 6d3d
00000380: ed4d fc3c cee7 e83c 87cd b13c 5752 283d
00000390: a388 553d 8022 443d 666a 69bd 9d96 99bc
000003a0: 2e51 aabc b3e8 4ebc 4d34 1dbd 4b84 11bd
000003b0: 3078 d4bc e04a a3bc 3ce4 0e3d a8a5 0dbd
000003c0: 4a26 403d f95f c2bc 254b 4bbd 9666 be3c
000003d0: ebac 513d d9e6 dfbc 36cf 87bc 235b 5a3d
000003e0: bbd6 34bd edb4 bbbb dfb3 04bd 0d9e 1b3d
000003f0: 8f49 643b 03aa d83b 6afc 0cba 989f 083d

Q1.a_head.0.bias f4 [128]
-0.02072889 -0.05226264 -0.03187101 -0.00022513804 -0.006586161 0.029289726 0.029896906 -0.0266032
-0.047783513 -0.025571661 0.03984925 0.030503426 -0.042318095 -0.022037476 0.03909092 0.03914235
0.025503939 0.03314363 -0.006228572 0.008962128 -0.031468473 0.019482309 -0.046880048 -0.004459481
-0.003257075 -0.038789254 -0.038694005 0.054833278 -0.001622766 -0.025577037 0.039000213 -0.016760038
0.002802514 -0.02906262 -0.03175305 0.036786035 0.018081184 0.057774205 -0.03120418 0.020593764
0.049322966 -0.022405 -0.05457171 -0.01679753 -0.014864748 -0.034725122 0.014086437 -0.025575954
-0.037034113 0.03859554 0.018005194 -0.055009473 0.05210785 0.053621285 -0.040546864 0.031593304
-0.012093817 0.015397276 -0.021379804 -0.018989827 -0.030690705 0.0006942472 -0.015122692 -0.0034764945
-0.052288216 -0.025063528 0.038851522 -0.0528311 0.05434113 -0.029764963 -0.015885476 0.010797961
-0.032512 -0.0014869503 0.005658437 -0.054120306 -0.041948553 0.007474464 0.042281594 0.048873603
0.012956457 0.04525524 -0.02955192 -0.03404771 -0.04199121 -0.04916829 -0.0053092786 -0.014572438
0.035086945 0.015428209 -0.008011309 -0.03710998 0.01512935 0.0126724625 -0.04790556 0.014079842
0.057419337 0.011208436 -0.025072725 -0.03777122 -0.033197325 -0.03286698 -0.05370997 0.053526312
-0.0462066 0.032964133 0.0039445194 0.027843101 -0.029701332 -0.016769845 0.015606815 -0.005167482
-0.036842253 0.039645907 -0.009823428 0.017984094 -0.02164481 -0.03159566 0.03066293 0.046957847
0.04127829 -0.036297046 0.05222101 0.024575926 -0.0049584294 -0.040261813 0.02937425 0.03111843
00000000: a2cf a9bc 5a11 56bd 2d8b 02bd 0813 6cb9
00000010: b9d0 d7bb 02f1 ef3c 5bea f43c f4ee d9bc
00000020: a5b8 43bd a97b d1bc f838 233d 52e2 f93c
00000030: bd55 2dbd f087 b4bc cd1d 203d bb53 203d
00000040: a3ed d03c 9dc1 073d 0d19 ccbb e4d5 123c
00000050: 16e5 00bd 5d99 9f3c 4b05 40bd d720 92bb
00000060: a774 55bb 7be1 1ebd 9b7d 1ebd dc98 603d
00000070: feb2 d4ba ef86 d1bc b0be 1f3d 594c 89bc
00000080: 62aa 373b bb14 eebc 7c0f 02bd f4ac 163d
00000090: fe1e 943c a5a4 6c3d e99f ffbc 41b4 a83c
000000a0: e106 4a3d b18a b7bc 9686 5fbd f99a 89bc
000000b0: 468b 73bc ee3b 0ebd cdca 663c aa84 d1bc
000000c0: 15b1 17bd 5b16 1e3d a17f 933c 9d51 61bd
000000d0: 0a6f 553d fea1 5b3d 7814 26bd fb67 013d
000000e0: 2525 46bc db44 7c3c b324 afbc 8e90 9bbc
000000f0: 136b fbbc 24fe 353a 2bc5 77bc e6d5 63bb
00000100: 2b2c 56bd 0752 cdbc c622 1f3d 6c65 58bd
00000110: ce94 5e3d a7d5 f3bc 4222 82bc eee9 303c
00000120: 4e2b 05bd c6e5 c2ba 696a b93b 41ad 5dbd
00000130: 3fd2 2bbd 59ec f43b 772f 2d3d b02f 483d
00000140: 5247 543c 8f5d 393d de16 f2bc 9d75 0bbd
00000150: fafe 2bbd b064 49bd 75f9 adbb 3cc1 6ebc
00000160: 54b7 0f3d 99c6 7c3c de41 03bc a200 18bd
00000170: 18e1 773c 29a0 4f3c 9f38 44bd 23af 663c
00000180: 8a30 6b3d 97a3 373c 5165 cdbc ffb5 1abd
00000190: ebf9 07bd 879f 06bd fcfe 5bbd 683e 5b3d
000001a0: 2243 3dbd 6605 073d 0741 813b 3717 e43c
000001b0: 3550 f3bc ea60 89bc bab3 7f3c fb53 a9bb
000001c0: e7e7 16bd bf63 223d 71f2 20bc 6153 933c
000001d0: 7550 b1bc 736a 01bd d330 fb3c df56 403d
000001e0: 6d13 293d 36ac 14bd b3e5 553d 7453 c93c
000001f0: 527a a2bb 92e9 24bd 44a2 f03c 14ec fe3c

Q1.a_head.2.weight f4 [6, 128]
-0.05120059 0.038986877 0.08419271 -0.07500946 0.036379874 -0.062132273 0.03388715 -0.07865158
-0.05068973 0.06477153 0.06629003 -0.07289369 0.009858444 0.045008525 0.084134966 0.021978853
-0.06599363 0.021953968 -0.0077215834 0.078364745 0.058633313 7.8794925e-05 -0.05790178 0.07757966
0.07534235 0.00613087 -0.07922315 -0.040357407 0.042441275 -0.08246621 -0.076835126 -0.024558607
0.0781171 -0.006837146 -0.014093748 -0.028468214 0.033762723 0.02085992 0.07502478 -0.014357207
0.040526237 -0.048609305 0.016943414 -0.05966296 0.0008965583 0.056206636 -0.0053295954 0.06283485
-0.06833829 -0.013606783 -0.050397694 0.06837088 -0.04952516 -0.07114423 -0.024631185 0.054642852
0.053820346 -0.051755887 -0.058826305 0.039173536 0.07587702 0.034767218 -0.07887439 0.052349083
0.04041225 0.0013446003 -0.0032591196 0.054195724 0.055735372 -0.05990735 0.036197506 -0.055449888
-0.041664287 0.018322373 -0.0018608874 0.047483776 -0.027711699 0.018320719 -0.078463666 -0.0033620421
-0.022320872 0.08285367 0.019904587 -0.04708114 -0.037219018 0.06923133 0.06573014 -0.032901388
-0.019457227 0.05248252 0.022640243 -0.034188077 -0.03604762 0.042476993 0.08298835 0.044110186
-0.08297986 -0.04005255 0.031080445 -0.00019543493 -0.028359203 0.030782266 -0.0244365 -0.002302681
-0.07652684 0.0002143694 0.0116544375 -0.012648026 -0.08744816 0.023666551 -0.07429483 -0.080742896
-0.016545378 0.06698478 0.011314659 -0.035378855 0.04217442 -0.02499914 -0.0020757848 -0.021382855
-0.032559894 -0.08011641 0.054919202 0.08153134 0.07629885 0.025801659 -0.06150854 0.027152115
0.0748746 0.07893461 -0.052034803 0.07706015 -0.08300868 -0.046324234 -0.028073972 0.049084112
0.00024697144 0.055492472 0.038911592 -0.017041476 -0.026548002 0.08119801 0.03764629 0.04123145
-0.04777081 0.044692554 -0.014116978 0.044181395 0.06690617 -0.05504726 0.021607708 0.03890217
0.019893156 -0.0729385 0.0702796 -0.07139801 -0.08235258 -0.032597795 0.071122475 0.08773893
-0.018946672 0.016661577 0.036604337 -0.017008003 -0.054012608 0.06531873 -0.06014962 -0.026227783
-0.060966857 0.013123714 0.049950674 0.023985982 -0.02160319 -0.007904062 -0.034915388 -0.05567215
0.031889465 0.040438585 -0.039586164 0.058628447 -0.059260692 -0.083233185 0.044226877 -0.06293525
0.045282923 -0.054933716 0.06893273 -0.035298333 0.026960962 0.0373054 -0.004382196 0.03904404
-0.02832558 -0.046496592 1.272987e-05 -0.0838788 0.075169496 0.018469362 0.028648287 0.03009052
0.020281348 0.07224235 0.012570257 0.060762424 -0.059991535 0.0053568645 -0.085275926 -4.2661617e-05
-0.045887362 -0.046308395 0.012621497 -0.06784133 0.01768013 -0.07058161 0.028574226 -0.033961825
-0.010639865 -0.051154368 -0.020218328 0.012441946 0.079987615 -0.028889017 -0.07931259 -0.023278767
0.061488785 0.07056051 -0.031611536 0.05243994 -0.06920755 -0.022113807 -0.037876338 0.0046796715
0.047466297 -0.0039786203 0.03126372 -0.045566496 -0.057691712 0.07034849 0.04997138 0.028995883
0.07129743 0.08297622 0.04486022 0.03912793 -0.0591692 0.06477946 -0.042990606 0.016359447
-0.055818263 0.029737385 -0.06651108 0.077018306 -0.061145823 -0.082475066 -0.037870206 -0.0037763787
00000000: b6b7 51bd b4b0 1f3d 3a6d ac3d 8f9e 99bd
00000010: 1003 153d 697e 7ebd 41cd 0a3d 1414 a1bd
00000020: 09a0 4fbd f0a6 843d 11c3 873d 4949 95bd
00000030: 5085 213c dc5a 383d f44e ac3d ff0c b43c
00000040: ab27 87bd cfd8 b33c 5605 fdbb b27d a03d
00000050: 7c29 703d b43e a538 6b2a 6dbd 16e2 9e3d
00000060: 174d 9a3d 77e5 c83b bf3f a2bd cf4d 25bd
00000070: e7d6 2d3d 0be4 a8bd bc5b 9dbd 222f c9bc
00000080: dcfb 9f3d 230a e0bb 77e9 66bc 2c36 e9bc
00000090: c84a 0a3d 6ce2 aa3c 98a6 993d 7e3a 6bbc
000000a0: d7fe 253d 8d1a 47bd eacc 8a3c 2661 74bd
000000b0: 0207 6b3a ee38 663d e3a3 aebb 8faf 803d
000000c0: f2f4 8bbd fcee 5ebc d06d 4ebd 0806 8c3d
000000d0: e5da 4abd 11b4 91bd 57c7 c9bc 2fd1 5f3d
000000e0: b972 5c3d fbfd 53bd daf3 70bd 6e74 203d
000000f0: 6965 9b3d 1268 0e3d e588 a1bd fe6b 563d
00000100: 5187 253d 4d3d b03a f496 55bb 56fc 5d3d
00000110: c64a 643d 6961 75bd d643 143d 6c1f 63bd
00000120: 2ca8 2abd cd18 963c 05e9 f3ba 597e 423d
00000130: a503 e3bc 5515 963c 8fb1 a0bd b555 5cbb
00000140: 43da b6bc 2faf a93d f20e a33c 27d8 40bd
00000150: f872 18bd 28c9 8d3d 869d 863d 9bc3 06bd
00000160: c364 9fbc e9f7 563d 0878 b93c cc08 0cbd
00000170: aba6 13bd 5bfc 2d3d ccf5 a93d e2ac 343d
00000180: 58f1 a9bd 250e 24bd 6b9c fe3c aaed 4cb9
00000190: 8f51 e8bc 172b fc3c 0e2f c8bc 94e8 16bb
000001a0: 1bba 9cbd 59c8 6039 41f2 3e3c ab39 4fbc
000001b0: 0518 b3bd 5be0 c13c e327 98bd 885c a5bd
000001c0: 2c8a 87bc 512f 893d 1f61 393c 6be9 10bd
000001d0: 16bf 2c3d ffca ccbc e409 08bb 192b afbc
000001e0: 865d 05bd 1314 a4bd f5f2 603d e7f9 a63d
000001f0: 9242 9c3d 005e d33c 61f0 7bbd 1d6e de3c
00000200: db57 993d 78a8 a13d 7222 55bd b6d1 9d3d
00000210: 7400 aabd 7bbe 3dbd 63fb e5bc 6c0c 493d
00000220: f27b 8139 134c 633d c361 1f3d 919a 8bbc
00000230: 327b d9bc 244b a63d ff32 1a3d 4fe2 283d
00000240: 53ab 43bd 8a0f 373d e64a 67bc 8df7 343d
00000250: 1a06 893d 3c79 61bd a602 b13c e257 1f3d
00000260: f9f6 a23c c860 95bd c0ee 8f3d 1f39 92bd
00000270: 78a8 a8bd 4485 05bd a9a8 913d 78b0 b33d
00000280: 0d36 9bbc dc7d 883c 6eee 153d 5e54 8bbc
00000290: 533c 5dbd d4c5 853d 735f 76bd a6db d6bc
000002a0: 62b8 79bd d904 573c 1499 4c3d 407e c43c
000002b0: 2cf9 b0bc 0a80 01bc 7003 0fbd 7b08 64bd
000002c0: 879e 023d eea2 253d 1a25 22bd 6224 703d
000002d0: 57bb 72bd 2976 aabd 3e27 353d 32e4 80bd
000002e0: 967a 393d 2d02 61bd 9a2c 8d3d fc94 10bd
000002f0: 3cdd dc3c 8ccd 183d 8698 8fbb a5ec 1f3d
00000300: 0c0b e8bc 3673 3ebd 6092 5537 a6c8 abbd
00000310: 77f2 993d 0f4d 973c d0af ea3c 6580 f63c
00000320: 1225 a63c ccf3 933d 7bf3 4d3c 05e2 783d
00000330: afb9 75bd a388 af3b 25a5 aebd 90ef 32b8
00000340: 63f4 3bbd dfad 3dbd 65ca 4e3c 65f0 8abd
00000350: ecd5 903c 178d 90bd 7f14 ea3c 8e1b 0bbd
00000360: d452 2ebc 3e87 51bd e8a0 a5bc 4ed9 4b3c
00000370: 8cd0 a33d a9a8 ecbc a46e a2bd 1db3 bebc
00000380: aadb 7b3d 0782 903d 197b 01bd 43cb 563d
00000390: b0bc 8dbd 0428 b5bc 3824 1bbd ee57 993b
000003a0: 056c 423d 165f 82bb 630e 003d efa3 3abd
000003b0: 254e 6cbd de12 903d caae 4c3d c688 ed3c
000003c0: 6304 923d 70ef a93d 5abf 373d 9c44 203d
000003d0: 675b 72bd 18ab 843d eb16 30bd 3f04 863c
000003e0: b1a1 64bd d19b f33c f636 88bd c6bb 9d3d
000003f0: 0b74 7abd b0e8 a8bd ca1d 1bbd 1f7d 77bb

Q1.a_head.2.bias f4 [6]
0.08270836 0.029402075 -0.00813474 -0.061942033 0.027140714 -0.07461404
00000000: 0063 a93d 9fdc f03c 9347 05bc eeb6 7dbd
00000010: 3456 de3c 3fcf 98bd

Q1.v_head.0.weight f4 [128, 294]
-0.004655045 -0.024186505 0.042142328 -0.058319163 -0.047286488 0.020942101 -0.0045478526 -0.054260273
-0.01411032 0.032267455 0.02401887 -0.007981714 0.0016266662 -0.03254103 0.047424573 -0.009632425
0.045089174 -0.02710827 -0.012506087 0.042402755 -0.0003286763 0.031642027 -0.012988895 -0.013206304
-0.008402484 -0.057669748 -0.010638001 -0.035683516 0.014705753 0.020771634 0.04343539 0.0031787748
-0.020929225 0.046740457 -0.026999695 -0.01240313 -0.029571002 0.022029711 -0.042511094 0.0022194302
-0.01709081 0.032516424 0.018351106 -0.0014576041 -0.010253022 -0.026456188 0.0013087665 -0.011589084
0.033938017 -0.0049952543 -0.03390615 0.056279533 0.008174982 0.020321488 0.042611517 -0.044843666
0.04963897 -0.007809333 -0.03656644 0.040594347 -0.0073003746 0.04716771 0.012171338 0.041586038
-0.028873248 0.013372058 0.010859018 -0.05383957 -0.022958824 -0.032778453 0.042528387 0.005581005
-0.04434409 0.054770503 -0.034322396 -0.026414718 0.036914844 -0.033475623 -0.037294734 0.0020281388
-0.019674238 -0.016421093 0.034321785 -0.027075103 -0.046626072 0.0149620995 0.029665267 -0.057744555
-0.04196032 0.055037543 0.051319648 0.04353964 0.015937053 -0.02321814 0.04488426 -0.041794393
-0.025251016 0.04688107 -0.013981997 -0.021665987 0.026144853 -0.04513286 0.005515827 -0.018688375
0.012490225 0.05168988 0.00093802204 0.021724118 -0.00857949 -0.02638804 -0.026277825 -0.037841804
-0.010323023 -0.057160515 -0.007427562 0.0064314962 -0.011718206 -0.037438862 -0.04647716 0.048226025
-0.049953733 0.05115282 -0.007844306 0.019817643 -0.0010667804 -0.015468448 -0.013716884 -0.03260393
-0.014602666 0.046870574 -0.0329728 0.036131404 0.04922665 0.010482568 -0.009355327 -0.028926471
0.026885971 -0.01442074 0.01700284 0.05073342 -0.011266146 0.03852825 0.056667037 -0.0016243397
2.3927685e-05 0.014150926 -0.00034982787 -0.036646202 0.026087312 0.03802188 0.01763551 -0.03386438
-0.029202873 -0.04337007 -0.009860807 0.056434136 0.03149074 -0.014602708 0.044243198 -0.01782963
-0.04603767 0.030359497 0.023718176 0.049116347 0.048708506 -0.03829732 -0.014735697 0.049440827
-0.057342388 0.012649871 0.020174017 0.057886228 0.039258145 0.01885978 0.04575751 -0.004534978
-0.050734133 0.022017272 0.05055963 0.03775749 -0.043790918 -0.04834605 0.04086935 -0.033054695
0.013992682 -0.021551149 0.05263292 -0.052724667 0.023537753 -0.021696128 -0.028880488 0.04404022
-0.0356041 -0.011535851 0.054303132 0.006048602 0.04463648 0.02050036 -0.04514482 -0.058501124
-0.03530586 0.05374701 0.037022434 0.0131545365 0.027606137 -0.024748666 0.049783323 -0.0058664107
0.0459139 -0.04432458 -0.056785375 -0.00077179517 -0.026796173 -0.027441045 -0.023302862 -0.034102436
-0.0012267348 -0.05426869 0.03809038 -0.039538994 -0.057705466 0.042061456 -0.05053813 0.02276251
0.040684413 -0.038176537 -0.0019430504 -0.036471784 0.051325466 0.041284487 0.021256573 0.033484746
0.022969505 0.05050162 0.005300426 0.027547115 0.032119025 0.037671093 -0.048463866 0.028596966
0.041671082 0.03349075 0.032438412 -0.027492726 0.026597615 -0.0198111 -0.025268517 0.034054242
0.016223442 -0.016852558 -0.0073738503 0.0013138287 0.05069047 0.010362832 0.029658042 0.0491
00000000: 5989 98bb c722 c6bc 6f9d 2c3d 13e0 6ebd
00000010: 7aaf 41bd c58e ab3c 2706 95bb 0540 5ebd
00000020: f92e 67bc e12a 043d 39c3 c43c bcc5 02bc
00000030: dc35 d53a be49 05bd 4540 423d 52d1 1dbc
00000040: 6daf 383d 2a12 debc 55e6 4cbc 83ae 2d3d
00000050: 3052 acb9 129b 013d 60cf 54bc 415f 58bc
00000060: 92aa 09bc 1d37 6cbd 034b 2ebc e128 12bd
00000070: 66f0 703c 4629 aa3c 4fe9 313d fe52 503b
00000080: c473 abbc ec72 3f3d 772e ddbc 7f36 4bbc
00000090: e33e f2bc a777 b43c 1d20 2ebd dc73 113b
000000a0: 0702 8cbc f12f 053d 0f55 963c 140d bfba
000000b0: 4bfc 27bc a6ba d8bc eb8a ab3a 24e0 3dbc
000000c0: 9702 0b3d 3baf a3bb 2de1 0abd 5e85 663d
000000d0: 5cf0 053c 4079 a63c 6a89 2e3d fead 37bd
000000e0: 3c52 4b3d 6fe5 ffbb b1c6 15bd 4246 263d
000000f0: fb37 efbb ee32 413d 4b6a 473c 1f56 2a3d
00000100: 9787 ecbc 7a16 5b3c 06ea 313c e286 5cbd
00000110: 2514 bcbc b342 06bd 3f32 2e3d dde0 b63b
00000120: 26a2 35bd 0957 603d a495 0cbd ae63 d8bc
00000130: 0534 173d bc1d 09bd 5dc2 18bd 86ea 043b
00000140: de2b a1bc 8785 86bc 0095 0c3d 9bcc ddbc
00000150: fbfa 3ebd 9823 753c 9304 f33c 8e85 6cbd
00000160: 96de 2bbd 0c6f 613d 8d34 523d 9f56 323d
00000170: 6c8e 823c f833 bebc 8fd8 373d 9930 2bbd
00000180: 38db cebc 5d06 403d bf14 65bc de7c b1bc
00000190: bb2d d63c 3cdd 38bd 1cbe b43b 5d18 99bc
000001a0: cda3 4c3c c5b8 533d 98e5 753a c7f6 b13c
000001b0: fd90 0cbc bb2b d8bc 9844 d7bc 0200 1bbd
000001c0: e621 29bc 2521 6abd e862 f3bb 4dbf d23b
000001d0: b8fd 3fbc 7e59 19bd d65e 3ebd a788 453d
000001e0: 499c 4cbd 9f85 513d 6785 00bc 9c58 a23c
000001f0: 36d3 8bba 606f 7dbc c8bc 60bc b38b 05bd
00000200: 0540 6fbc 5cfb 3f3d 7d0e 07bd 86fe 133d
00000210: e2a1 493d 14bf 2b3c 1647 19bc 35f7 ecbc
00000220: f83f dc3c f844 6cbc 8a49 8b3c d9cd 4f3d
00000230: a495 38bc cccf 1d3d b21b 683d cce7 d4ba
00000240: 50b8 c837 49d9 673c 1a69 b7b9 541a 16bd
00000250: 0fb5 d53c d5bc 1b3d 5878 903c 60b5 0abd
00000260: dd3a efbc d1a4 31bd 398f 21bc 7b27 673d
00000270: 6ffc 003d 3240 6fbc 5b38 353d 720f 92bc
00000280: ff91 3cbd 7bb4 f83c 9f4c c23c 392e 493d
00000290: 9282 473d a7dd 1cbd fe6d 71bc 7782 4a3d
000002a0: dadf 6abd 6841 4f3c fb43 a53c 1c1a 6d3d
000002b0: 26cd 203d d37f 9a3c 3a6c 3b3d 279a 94bb
000002c0: 98ce 4fbd 915d b43c 9d17 4f3d 99a7 1a3d
000002d0: 1b5e 33bd 8206 46bd 9f66 273d 5c64 07bd
000002e0: 9041 653c 098c b0bc 9e95 573d d2f5 57bd
000002f0: 3fd2 c03c 14bc b1bc c696 ecbc 8563 343d
00000300: 9bd5 11bd de00 3dbc f66c 5e3d 5a33 c63b
00000310: bed4 363d 5ff0 a73c c6e9 38bd e09e 6fbd
00000320: e19c 10bd d325 5c3d d6a4 173d 2086 573c
00000330: 4426 e23c b7bd cabc 99e9 4b3d 053b c0bb
00000340: 3710 3c3d b18d 35bd c897 68bd 4c52 4aba
00000350: a683 dbbc 0bcc e0bc a5e5 bebc ffae 0bbd
00000360: 64ca a0ba d948 5ebd a904 1c3d a4f3 21bd
00000370: 915c 6cbd a248 2c3d 1201 4fbd 7278 ba3c
00000380: b3a4 263d 005f 1cbd f4ad feba 7063 15bd
00000390: a73a 523d ec19 293d 4422 ae3c 4d27 093d
000003a0: 8b2a bc3c c9da 4e3d 32af ad3b 7daa e13c
000003b0: 3d8f 033d 014d 1a3d 0c82 46bd 2f44 ea3c
000003c0: 4caf 2a3d 992d 093d 24de 043d 6d38 e1bc
000003d0: 3ee3 d93c e34a a2bc ecff cebc 767c 0b3d
000003e0: 06e7 843c 600e 8abc 57a0 f1bb c734 ac3a
000003f0: cfa0 4f3d dec8 293c 6cf5 f23c 151d 493d

Q1.v_head.0.bias f4 [128]
0.01749571 0.00324879 -0.01702313 0.035507284 0.01740678 0.04682152 0.01647089 0.04540966
-0.028756764 -0.041178897 0.040208183 0.016392548 0.03964914 -0.025473619 0.009254528 0.03439462
-0.025008325 -0.0013225769 0.019458717 0.040906098 -0.038595147 0.0413551 0.021040466 -0.042403042
0.03309251 0.03127549 -0.02650036 -0.04395239 0.0023540223 -0.025966926 0.0012044454 0.02485837
0.01555972 0.022190409 -0.05047925 0.00052760576 0.04406324 0.033083953 -0.03856014 0.03356934
-0.0456238 -0.037456352 -0.026274083 -0.0038358995 -0.01273223 0.028401306 0.025097769 -0.044721045
-0.03491576 0.015327692 0.023548445 -0.0108262915 -0.033395503 0.023255097 -0.028272951 -0.05736412
-0.043431412 -0.0073124305 0.053419895 0.043795586 -0.015012599 0.046031967 0.044314265 -0.043567564
-0.043423343 -0.0029069628 0.043914396 0.038373753 0.045235794 -0.0040618232 -0.0032685539 0.010479627
-0.04817914 -0.051662687 0.030335244 -0.045620628 -0.018624607 -0.023836255 0.056483503 -0.0405872
0.039732065 0.008566245 -0.007181686 0.038649466 0.03165078 -0.030801384 0.045617674 0.023187466
-0.0040875305 -0.019015409 -0.047759797 -0.01649378 0.04322559 0.0009994392 -0.0066241613 -0.033756953
0.017770046 0.057391625 0.02000377 0.0018504066 -0.048726123 0.0061986865 0.021631107 0.04864271
0.057262786 0.028324887 -0.037730508 0.04508084 0.004243748 0.02973326 -0.018332938 0.047745846
-0.04156946 -0.036252122 -0.042737514 -0.03268584 0.05298597 0.03137788 7.8085344e-05 0.022508023
0.02686358 -0.04419808 -0.031435564 -0.046459425 0.05016904 -0.0055232793 0.008965123 -0.016128723
00000000: 2a53 8f3c a7e9 543b 1774 8bbc 1670 113d
00000010: aa98 8e3c ecc7 3f3d f6ed 863c 7bff 393d
00000020: 4e93 ebbc 34ab 28bd 56b1 243d aa49 863c
00000030: 2367 223d 0dae d0bc 4ea0 173c 60e1 0c3d
00000040: 42de ccbc 515a adba e367 9f3c 278d 273d
00000050: f215 1ebd f763 293d 0e5d ac3c d0ae 2dbd
00000060: 038c 073d ba1a 003d 4817 d9bc 6c07 34bd
00000070: f145 1a3b 97b8 d4bc 7bde 9d3a c8a3 cb3c
00000080: 32ee 7e3c a9c8 b53c 54c3 4ebd 064f 0a3a
00000090: a87b 343d 0a83 073d 3df1 1dbd 0180 093d
000000a0: 06e0 3abd d56b 19bd bf3c d7bc b763 7bbb
000000b0: d89a 50bc dba9 e83c d699 cd3c 6a2d 37bd
000000c0: d403 0fbd 0021 7b3c abe8 c03c c260 31bc
000000d0: b9c9 08bd 7981 be3c ad9c e7bc a4f6 6abd
000000e0: 23e5 31bd 1d9d efbb d2ce 5a3d 0063 333d
000000f0: 67f7 75bc 048c 3c3d e082 353d e773 32bd
00000100: addc 31bd be82 3ebb 95df 333d cc2d 1d3d
00000110: 2b49 393d 0b19 85bb 3c35 56bb beb2 2b3c
00000120: 7d57 45bd 419c 53bd 9e81 f83c b2dc 3abd
00000130: a292 98bc 4044 c3bc 3f5b 673d c43e 26bd
00000140: 17be 223d 7059 0c3c 5954 ebbb e74e 1e3d
00000150: 40a4 013d 2f53 fcbc 99d9 3a3d a4f3 bd3c
00000160: b1f0 85bb 34c6 9bbc c79f 43bd f71d 87bc
00000170: 510d 313d 9dff 823a 7e0f d9bb bb44 0abd
00000180: 7d92 913c 7b13 6b3d f2de a33c 5889 f23a
00000190: 0b95 47bd 5a1e cb3b b833 b13c 943d 473d
000001a0: 628c 6a3d 9809 e83c 4e8b 1abd b0a6 383d
000001b0: 230f 8b3b 2a93 f33c f52e 96bc 2691 433d
000001c0: bd44 2abd 1b7d 14bd 880d 2fbd 96e1 05bd
000001d0: d107 593d 1886 003d c0c1 a338 bf62 b83c
000001e0: 0311 dc3c 0c09 35bd 94c2 00bd 3d4c 3ebd
000001f0: 0d7e 4d3d a0fc b4bb 74e2 123c 6220 84bc

Q1.v_head.2.weight f4 [1, 128]
-0.021670004 -0.04226406 -0.06867845 -0.014912956 0.06297188 0.025618823 0.040326692 -0.026201727
-0.00450119 -0.061290093 0.07300065 -0.069773056 -0.03815531 -0.026970055 0.003771479 -0.06565956
0.03175944 -0.037803985 -0.049094725 0.03785731 0.07226417 0.074409254 0.013595677 0.01916843
-0.06272188 -0.06257447 -0.044779055 -0.018890165 0.05996039 -0.026797619 0.057026982 0.06835758
-0.03228148 -0.06722004 0.044861514 0.0749523 -0.051112033 -0.0144253485 -0.07295238 0.004071068
0.07732895 -0.013913201 0.028161986 -0.009473338 -0.05523646 0.0658937 0.0727249 0.073391855
0.055319224 0.04882673 -0.083120055 -0.005479501 -0.040334165 -0.013581558 -0.032962408 -0.06335209
-0.070270725 -0.07176544 0.0666019 -0.043055177 0.07713124 -0.05477943 0.075768344 0.04315837
0.01465075 -0.06034888 -0.07927974 -0.049403723 -0.039798066 -0.011614291 -0.061709415 -0.002415827
-0.047750905 -0.04684888 -0.0019421596 0.06276354 -0.033176754 0.015980236 -0.025300555 -0.07505096
-0.06590144 -0.030826416 -0.036320627 -0.023175761 0.08708651 0.058132738 -0.012672314 0.07470639
0.058018908 -0.078508906 0.081349514 -0.0626953 0.039188962 0.060212325 -0.053265788 -0.06981441
-0.020541618 0.0068600634 0.043447226 -0.026858639 -0.08579551 0.029910544 0.044852242 -0.058171976
-0.03922151 -0.015270014 -0.029500667 0.06994427 -0.030130865 0.0076975306 0.052494638 0.034277674
0.007092133 0.08446811 0.03976001 -0.047086522 -0.021717217 0.05292071 0.019450694 0.07944536
-0.06257003 -0.04717332 0.004788314 -0.0035620423 0.03563423 0.08710793 -0.08200738 -0.085215956
00000000: 4b85 b1bc 141d 2dbd 4aa7 8cbd 7955 74bc
00000010: 67f7 803d 91de d13c 9a2d 253d 01a5 d6bc
00000020: b87e 93bb 520b 7bbd 5d81 953d 2de5 8ebd
00000030: be48 1cbd 4ef0 dcbc eb2a 773b 8578 86bd
00000040: 3016 023d 5ad8 1abd 8d17 49bd 4410 1b3d
00000050: 3dff 933d e163 983d 67c0 5e3c 1c07 9d3c
00000060: 5474 80bd 0b27 80bd 3e6a 37bd 8cbf 9abc
00000070: 0799 753d ae86 dbbc 2095 693d 0fff 8b3d
00000080: 9639 04bd a9aa 89bd b5c0 373d 9780 993d
00000090: da5a 51bd 4c58 6cbc 0f68 95bd 9866 853b
000000a0: a45e 9e3d 32f4 63bc f7b3 e63c 0f36 1bbc
000000b0: a03f 62bd 47f3 863d cbf0 943d 784e 963d
000000c0: 6996 623d 8afe 473d d93a aabd 638d b3bb
000000d0: 7035 25bd 2f85 5ebc 9703 07bd bebe 81bd
000000e0: 19ea 8fbd c2f9 92bd 9466 883d a05a 30bd
000000f0: fcf6 9d3d 6560 60bd 6f2c 9b3d d5c6 303d
00000100: b309 703c 6330 77bd 6b5d a2bd 8f5b 4abd
00000110: 4c03 23bd de49 3ebc 03c3 7cbd da52 1ebb
00000120: 7496 43bd 9ce4 3fbd 1090 feba 2c8a 803d
00000130: 59e4 07bd fce8 823c 1c43 cfbc 51b4 99bd
00000140: 56f7 86bd ae87 fcbc f0c4 14bd 18db bdbc
00000150: 6a5a b23d 981c 6e3d 8a9f 4fbc aaff 983d
00000160: 3ca5 6d3d 47c9 a0bd 939a a63d 6566 80bd
00000170: 9b84 203d 33a1 763d 3a2d 5abd dbfa 8ebd
00000180: e546 a8bc 62ca e03b b8f5 313d a606 dcbc
00000190: 8eb5 afbd f506 f53c fcb6 373d bd45 6ebd
000001a0: bca6 20bd 152f 7abc 62ab f1bc f13e 8f3d
000001b0: 01d5 f6bc 913b fc3b 9e04 573d bf66 0c3d
000001c0: 2065 e83b 9efd ac3d 64db 223d ccdd 40bd
000001d0: 4ee8 b1bc 63c3 583d 1057 9f3c 40b4 a23d
000001e0: b724 80bd d038 41bd 4ae7 9c3b 2771 69bb
000001f0: 33f5 113d a465 b23d 7cf3 a7bd b485 aebd
