models_decentralized/final/online_critic_1_250.pth (torch, 631787 bytes, 26 tensors)

Q1.conv.net.0.weight f4 [3, 31, 3, 3]
00000000: 0e46 afbd 5eaa d23d d387 eabd a63d 853d
00000010: 3ed9 443d 948f 9d3d 7a9e d0bd 5707 bebc
00000020: 493f 373b c433 eebc a426 01bb 3ab8 c0bd
00000030: 472f d8bd 69e8 9d3d 9f6e 583c dac0 6b3d
00000040: 2819 ab3c 6b77 a9bc 1b0c 593d 1c6d c5bd
00000050: 2daf cd3d 43d2 97bd ca3e 673d e099 103e
00000060: 3a50 dcbd 8425 57bc 68b0 bd3d 9423 ce3c
00000070: 4df8 7b3b 725a f3bc 77e0 12bc 942f 3cbd
00000080: c475 2dbd 4c8d 16bc 85fe cebc de13 b53d
00000090: 424b bcbd a2a9 263c b2ca 303d 90b9 62bd
000000a0: fb3f 61bd 5afb dbbb bc68 af3d 840b 0dbe
000000b0: a074 853d b5a1 31bd f60d 45bd e064 a23d
000000c0: 8726 083e de78 023e 0a34 8abd 4be4 95bd
000000d0: 16f5 843d f978 32bd 4a99 9bbd eeb8 1dbd
000000e0: 8499 abbc 4f3b bd3d a9a4 f4bd c85b d8bd
000000f0: 5e37 43bd e849 763d 682f 6f3d c9ed 0c3e
00000100: 2a70 9a3d b8ca d73c 50ae c8ba fad4 dc3d
00000110: de3a ec3d 0d34 e53d 8117 06be 2b10 51bd
00000120: f387 103e 8a82 21bd 84d2 983d 3412 763d
00000130: d7ea d53d 79c2 ed3d 58d0 c0bd 7f73 523d
00000140: e1fc d4bd f8ca 9ebd a48f 003e b2b4 d93d
00000150: 69f2 073c e73a 0bbe 509f babd 63a4 9ebd
00000160: 4d95 4ebd 0aa1 41bd cb46 8b3d c8f7 13bd
00000170: 48fd 10be ee98 f33d c615 c8bd 3a84 0ebd
00000180: beb7 3a3d fc63 46bd 23fd abbd ac9c da3c
00000190: 8598 673d 1d5a c9bd b295 873d 63c8 02be
000001a0: 7ddb 10be d2f4 02bd 320b 2fbd 431d bbbd
000001b0: 7368 713c 79fe 363d 97cd 113d 4cac c6bd
000001c0: fbbf 07be 72ee 03be 9498 913d 7687 b53c
000001d0: fe29 043e e189 0cbd 146d 82ba 5488 83bd
000001e0: 33dd 4a3d 093c 01be ac60 e8bd 2d6e 0e3e
000001f0: 0060 d23d 28d2 d33d 7606 a2bd fdff 003e
00000200: 67b4 0d3e 7c68 9a3d 7dd4 833d 575e c13d
00000210: 24df 03bd 7727 e73c a440 06bd 7dcd a23d
00000220: bdcf 123e 590d 0d3e 2ef8 063e 60d7 dcbd
00000230: 49f4 f33d d522 d03c 5e9c babd eee1 8fbd
00000240: 0058 013e e39e 983c 9c5a 0f3e 8b7c 01bc
00000250: 0664 80bd 5de2 973d eb69 a1bd a34f a3bd
00000260: a765 05be 9d47 283d ef46 04bd b083 3e3d
00000270: 16a5 123e b929 07bd 3352 c03d 1574 403d
00000280: df34 0f3e ec55 b33b 0180 eabd 41b3 91bd
00000290: 26d1 c5bd 51df 043e 32f3 043e 824a 00bc
000002a0: f61b 9abd 2def ea3d 616b a6bd 2699 b93d
000002b0: a089 aabd 361f 86bd da21 53bd 855b 0ebe
000002c0: 9409 8cbd d919 f5bd 7cb2 98bd b197 703d
000002d0: fb04 fb3b 14d7 e6bd ebd9 853d 49de b73d
000002e0: 5027 d63d 1bb0 cfbc f780 293c f33b 60bc
000002f0: 9fbc b13d bff0 8dbd 0957 d8bc 945c 09be
00000300: e532 0d3e bfde f03d 56aa 1e3d d8b5 ccbd
00000310: 527c 0bbe 12cb 153e de9d ee3d 67d0 5d3d
00000320: f89c b9bc a8d3 5abd 1e9a 8b3c 2387 9ebd
00000330: fc2a fdbd 624d da3d 81a6 143e ab2c fcbd
00000340: 3a2d d6bc 35da c83d b2cb 11bd 07be 0f3d
00000350: 4ab7 c3bd 514a e43d 2e08 ecbd 7089 ea3c
00000360: 20f0 8fbd e356 0f3d 54c5 203d 58b8 01be
00000370: 2b66 6dbd c1af 10bd 55c4 f93c a55e 0bbe
00000380: bd43 993c 3597 bb3d 8e82 0f3e 5fa0 103e
00000390: fcbf 82bd a1f4 0bbd 55e4 033e 4c85 013d
000003a0: 2455 01be f2aa 01be 3fd0 d0bb 0662 eb3d
000003b0: 0ded 733d 1798 df3d d990 a9bd faf2 4cbc
000003c0: d068 613d f3ac 5bbd 6b00 5d3d 5678 a1bd
000003d0: 66b6 5cbd ee26 29bd ceed eabd 5992 113e
000003e0: a440 063c 0c0d 173d c9bb a6bd 2617 6bbd
000003f0: f4e2 4fbd ad47 003d 072e fdbd 6e2d 373d
-0.08558284 0.10286401 -0.11451688 0.06505899 0.04805874 0.07693401 -0.10186477 -0.02319686
0.0027961305 -0.029077418 -0.001970687 -0.094101384 -0.105558924 0.07710344 0.013209968 0.057556964
0.020886019 -0.020686826 0.05299006 -0.096399516 0.10043178 -0.07413151 0.056456365 0.14121199
-0.107574895 -0.013131503 0.092621624 0.02516345 0.003844756 -0.029706214 -0.008964649 -0.04594381
-0.04234864 -0.009188961 -0.025267849 0.0884168 -0.09194042 0.01017228 0.043162055 -0.055352747
-0.054992657 -0.006713313 0.08564898 -0.13773924 0.06516385 -0.043367106 -0.048109017 0.07929397
0.13295947 0.1274142 -0.06748207 -0.07318934 0.06492059 -0.0435724 -0.07597597 -0.03850644
-0.020947225 0.09239828 -0.11945469 -0.10564381 -0.047660224 0.060129076 0.05839482 0.13762583
0.07540925 0.026341781 -0.0015310738 0.107828096 0.115346655 0.111915685 -0.13094904 -0.05104081
0.1411436 -0.039431132 0.07462028 0.060075954 0.10445183 0.11609358 -0.094147384 0.051379677
-0.10399795 -0.07753557 0.12554795 0.10630168 0.008297541 -0.13596688 -0.09112418 -0.07746198
-0.050435353 -0.04727272 0.06800612 -0.036124974 -0.14159119 0.118944034 -0.09769778 -0.03479407
0.045585386 -0.048435196 -0.08397891 0.026686035 0.05654194 -0.09831641 0.06620349 -0.12771754
-0.14146228 -0.03197176 -0.042735286 -0.091364406 0.014734375 0.044676278 0.035596456 -0.09700832
-0.13256828 -0.12883928 0.0710918 0.02215932 0.12906644 -0.03431118 -0.0009950721 -0.06422487
0.04952736 -0.12620558 -0.11346564 0.13909216 0.10272217 0.103428185 -0.079113886 0.12597652
0.1383835 0.0753946 0.06437013 0.09441822 -0.032195225 0.02821706 -0.03277649 0.0794935
0.14337058 0.13774623 0.1318061 -0.10783267 0.11911828 0.025407234 -0.09111856 -0.070255145
0.12631226 0.01863045 0.13999408 -0.0079032285 -0.06269078 0.07416222 -0.078815304 -0.07974174
-0.13027059 0.04108392 -0.03229421 0.046512306 0.14320788 -0.032998774 0.09390678 0.046985704
0.13985012 0.005472889 -0.11450196 -0.07114268 -0.096590325 0.12975813 0.12983397 -0.007830264
-0.075248644 0.114714004 -0.0812595 0.09062414 -0.08327031 -0.06548922 -0.051545955 -0.139021
-0.068377644 -0.11967821 -0.07455918 0.058738414 0.007660506 -0.11271492 0.06535705 0.089779444
0.10456717 -0.025352528 0.010345689 -0.013686168 0.08678555 -0.06930684 -0.02640869 -0.13414222
0.13788946 0.117612354 0.038736664 -0.099956214 -0.13621643 0.14628246 0.116512045 0.054153826
-0.022657856 -0.053424507 0.017041262 -0.07740619 -0.12361714 0.10659291 0.14516641 -0.12313207
-0.026144613 0.09807245 -0.03559465 0.035093334 -0.09556444 0.11146987 -0.11524998 0.028629988
-0.07028222 0.03499497 0.039250687 -0.12667978 -0.057958763 -0.035323862 0.030489126 -0.13610323
0.018709058 0.091597 0.14014646 0.14123677 -0.06384274 -0.034168843 0.1288007 0.031621262
-0.12630135 -0.12662867 -0.006372481 0.11493306 0.05955224 0.10917681 -0.082795806 -0.012509102
0.055031598 -0.053631734 0.053955477 -0.078842804 -0.053884886 -0.041296892 -0.11471139 0.14215983
0.008194122 0.036877677 -0.08141286 -0.057395123 -0.05075355 0.031318355 -0.12362295 0.04472106

Q1.conv.net.0.bias f4 [3]
00000000: d2ed 9138 b0cb 8aba 1a67 df38
6.958436e-05 -0.0010589268 0.00010652673

Q1.conv.net.3.weight f4 [6, 3, 3, 3]
00000000: 972f e6be 8d33 84be ad3a c3be 2d15 82be
00000010: e348 743c c765 88be 70f2 973e 15a2 3cbe
00000020: 298f ad3d afd5 e5bd a602 8cbe e163 99be
00000030: c47e ebbe 6f0a 6cbe 7d20 8f3e 121e c93e
00000040: dbe4 52be 13bc 2c3e 15d4 1ebe 1a61 143e
00000050: 93f9 84be 1ade d73e b2b8 a13e f54b 98bc
00000060: 4ff6 35bd c0c6 a0be 56d5 943d 317e f6bd
00000070: 091d 77be 9edf 903d 69f3 efbe f49b b73e
00000080: d065 df3e 833c 653d a211 993e 8840 2a3d
00000090: 86ef a2be 58da 5e3e 333b 60be 20d5 9bbe
000000a0: f572 9bbe c832 afbe fa14 633d 08b0 9d3d
000000b0: 9854 73be 0893 e9be 2c71 b13e 2ebf 44be
000000c0: 5ba2 6dbe eaa3 e83d 38fe bf3e 386f 823d
000000d0: 4251 88bd 497d e63e 73b9 bbbd 9cf7 b8be
000000e0: 9ddd 023e b2fd a0bd 80e6 ed3e 4cb9 4d3e
000000f0: 4fde 073c c09c c93e 8a66 a73e e33b bebc
00000100: 43f8 2b3d be14 d1bb 7f4d 80be fd7f b03e
00000110: d49a d9bd 7336 bcbe 90c8 c73d 9e76 a3bc
00000120: cce4 24be 90b2 b1be 6ef3 8cbe eabe 893e
00000130: 6e4e 97be 6bfc 36be 27ae ce3e aa12 39be
00000140: c839 ea3e a119 d83d 5833 8fbe e01f 72be
00000150: 4185 aa3c f7b9 92bd 11b7 e0be 9173 a8be
00000160: 537d adbe 1e5f c0be 70a5 563e f8fd 913e
00000170: d4cf ab3e 8776 d6bd b52c dc3e 3152 ddbe
00000180: 898c 92be a2ce d0be 4f7d c5be da91 f0bd
00000190: 28a4 573e ab0e 9fbe f86b b43e c3bd 89be
000001a0: 4b01 8dbe 1a8d 03be 60a7 c2bb 5060 343e
000001b0: 450c d3bd e4f4 46be 7f4a 943d a873 edbc
000001c0: 9906 013d e196 c3bd da14 97bc ce39 4f3e
000001d0: e9ca 87be b56f 76be f5f0 e73e 4713 bfbe
000001e0: 0714 76be f9d1 6e3e b461 563e c6a2 323e
000001f0: baf5 853c 64a3 223e 62fe 60bd 34a7 21bc
00000200: 111a cdbd 2eb4 b5be 409c be3e fc10 07be
00000210: 2966 b1be dd2d b23e 3842 aabe 158a 91be
00000220: 6d83 ab3e d7ed eebe 9405 bdbe b7ec 693d
00000230: bd22 023e 6357 8ebe e512 c63d 090a 4f3e
00000240: e228 3b3c 3e92 e03e 051e cfbc ccf4 853e
00000250: 8a6a 393e c949 6abe 2be1 58be 33a6 8b3e
00000260: edf4 3dbe 080c a7be 8805 e63e 5bfb 0cbe
00000270: 685c 9d3d 6d39 86be 0c94 453e 5980 873d
00000280: 2f66 e0bd b093 fbbd
-0.44958183 -0.2582058 -0.38130704 -0.2540678 0.014909956 -0.2664015 0.29677153 -0.18421204
0.08474571 -0.112223975 -0.2734577 -0.29959014 -0.45995152 -0.23050855 0.27954474 0.39280754
-0.20595114 0.1686862 -0.1551059 0.14490166 -0.2597166 0.42161638 0.31586224 -0.018590907
-0.04442435 -0.31401634 0.07267253 -0.12035788 -0.2413217 0.070739016 -0.46865395 0.3586117
0.43632364 0.05596591 0.29896265 0.041565448 -0.31823367 0.21762979 -0.21897583 -0.3043604
-0.30361143 -0.3421843 0.055439927 0.07699591 -0.23762739 -0.45619988 0.34656656 -0.19213554
-0.23206465 0.11359389 0.3749864 0.063688695 -0.06656124 0.4501746 -0.09166231 -0.3612641
0.12779851 -0.078608885 0.4646492 0.20090216 0.008292749 0.39377403 0.3269542 -0.023221916
0.041984808 -0.0063806465 -0.25059125 0.34472647 -0.10625234 -0.3676029 0.09755051 -0.019954022
-0.16102904 -0.34706545 -0.27529472 0.26903468 -0.29552025 -0.17869727 0.40367243 -0.18073526
0.4574721 0.10551763 -0.2796886 -0.23644972 0.020815494 -0.07164376 -0.4388967 -0.3290067
-0.33884677 -0.3757257 0.20961547 0.28514075 0.33556998 -0.10471826 0.4300286 -0.4322677
-0.28622845 -0.40782648 -0.38572165 -0.11746569 0.21058714 -0.31065878 0.35238624 -0.2690259
-0.2754005 -0.12846795 -0.005940363 0.17614865 -0.103050746 -0.19429356 0.072407715 -0.028985813
0.031500433 -0.09550262 -0.01844256 0.20236894 -0.26521996 -0.2406605 0.45301023 -0.37319395
-0.24031077 0.23322286 0.20935708 0.17444906 0.016352523 0.15882641 -0.0549301 -0.0098665245
-0.100147374 -0.3548903 0.37228584 -0.13190073 -0.34648255 0.34800616 -0.33253646 -0.2842566
0.33498707 -0.46665832 -0.36918318 0.057110514 0.12708564 -0.27801046 0.096715726 0.20218672
0.011423321 0.43861574 -0.02528287 0.26163328 0.18107048 -0.2287971 -0.21179645 0.27275237
-0.18550463 -0.32626367 0.44926095 -0.1376776 0.07683641 -0.26215687 0.19294757 0.06616277
-0.1095699 -0.122840285

Q1.conv.net.3.bias f4 [6]
00000000: 6aa8 cc38 5628 303a ffed 7439 f47e 3cba
00000010: fe23 03bb 0c97 c7ba
9.7588476e-05 0.0006719878 0.00023358314 -0.00071905483 -0.0020010467 -0.0015227511

Q1.conv.net.6.weight f4 [6, 6, 3, 3]
00000000: cc43 6fbd 214c c93c 9564 443e 40c3 8e3e
00000010: 0378 603e ac41 143e 09b7 f1bc f9c9 573d
00000020: a013 87be f2f2 81be aeb0 0abe f8f6 8e3e
00000030: e722 c9bd 757e 46be eb1a 633e 38a4 433e
00000040: daa3 88be 9f75 a13e fcba 11be d3bb 083e
00000050: b4fa a83e 0a66 833d 71ce d3bd d439 923e
00000060: 8c3c d5bd a667 24be 04ba 3a3e 77b7 8b3e
00000070: ee66 093e 4439 d43d b9f5 01be 1059 1a3d
00000080: f0de 8cbe c7b7 53be e874 593e 53f9 a5bd
00000090: 3ee9 813e 9c1d 8fbd 1a00 91be 9b23 65be
000000a0: b851 523e a7ce 073e befc 07be 87be afbd
000000b0: 04fb 39bd 8545 87be e710 8f3e bf3e 383e
000000c0: a7ac 213e 8450 7ebe 386d 173e 8ae7 76bd
000000d0: 6f8a 84bd e7a5 21bd 3b34 9bbd 6334 03be
000000e0: 5493 57be ce29 363e 78d9 973e 86b1 513a
000000f0: 6f8f a23d 7fa3 b93d 233d cd3b 4019 9b3e
00000100: 0a81 a1be 8797 32bd a3d9 9ebe 3a75 193c
00000110: 5f4f d33d d9d9 a7be 4c31 8c3e a565 27bb
00000120: 8d1b 473e 4b9c ac3d 3bc0 5ebe 3fe0 a6be
00000130: ab6d 8d3e e7e8 19be 53a3 c9bd 1662 8a3e
00000140: 8acd 1ebe 5fbe 8f3e b2ec 52be d669 66be
00000150: a2fe 9cbe 60b7 6d3d a5cc 973e 555d f7bd
00000160: 851c 2fbe 99aa 9cbe 65a0 8a3d 5583 a8be
00000170: 3fcb d4bc 36a5 6ebe ae6e a3be 896a a13e
00000180: b77b 8ebe 2276 5cbe 736c b13d 0c41 983b
00000190: 96bf 75bd a8e2 623c 863e 57be 49b9 84be
000001a0: aa15 07be 28e7 92be b3d6 8f3e a850 943d
000001b0: 364f a1be f14f 983e 299b 7ebc bc57 6abe
000001c0: 19a2 6b3e cf2b 83be 6a8f 2d3d 5a8f 143d
000001d0: b4ba 983e b3f6 963e b2f0 8e3e 2751 86be
000001e0: 971a 6c3e d08c 61be 3e39 1e3e fd72 2fbe
000001f0: 110e 693e 2695 ab3d d523 1dbe c5c0 8c3e
00000200: 6dae fe3c 51ae 2e3b 2431 193e f412 92be
00000210: 3ecf 113e a9ea 823e 3564 14bc 7b0b e3bd
00000220: 1896 81be 1690 a6be a5bf 3abe 342a 943d
00000230: b7b2 b9bd 32d6 683e 0653 2d3b 2ee9 883d
00000240: 0414 96be 43d2 a9bd d1e2 8c3e 59d9 98be
00000250: 1ba7 2b3e 21d4 853d a2e1 07be 6a75 7f3e
00000260: b697 d43d f2ee d3bd 8797 85be e5d4 ccbd
00000270: 2fed 6fbd 02c4 97be 7534 043b b9c2 2ebe
00000280: c3a7 95be 7885 96bc b6be 85bc dc6c 683e
00000290: 9ddb 9fbe ae9f 603e 59aa 523d 4fca c13d
000002a0: 2b2d 9abe 2bf7 2dbe 03c0 a93e 58a7 b7bd
000002b0: 9e53 1c3e 6b1a 443c a6d3 413e 6ec5 96be
000002c0: 4337 85be 70b6 233e 568f 82be e75f 7a3e
000002d0: ac2d 5b3e b14c 06be f80f 47bd 67de 43be
000002e0: c5e9 12be cbeb e23d e4d1 00be 0811 ecbd
000002f0: ba07 6dbe 62b6 92be f04f b7bd 65fb a83e
00000300: 5a32 a4bc 7ff5 833e e70e 5fbc 9b5e 8a3e
00000310: 64ff 733b d0c2 093d c8da 4b3d 84e0 01be
00000320: db56 f5bd e3c6 2c3e ab58 9a3e 7d4a 853e
00000330: 46a7 98be eb56 093e c0cf b63d 0525 cf3d
00000340: 067b 49be 3e89 353d 9d25 74be a370 163e
00000350: 0ca5 b6bd 2419 a43d e5c7 8fbe 915d 19be
00000360: 9472 00be d964 01be 9d2e 85be 4daf 9c3e
00000370: 265e d13d f943 cd3d 5493 6c3b 272e 583e
00000380: cede edbc 17d2 dbbd 48b6 f03b 9c28 8abe
00000390: 1339 583d 7863 2c3e 17b0 95be fff7 e93d
000003a0: 52a6 963e f109 0fbe 7878 3abe e215 f1bc
000003b0: a5b2 8abd f2fd 56be a26b 323e ae53 493d
000003c0: ca4c 4c3c 4314 963e a98c 3bbe 0c07 8bbe
000003d0: 5e11 31be 841f 8abd c856 ce3d 41fe 90be
000003e0: f945 853d 7d06 073d 29bb 20bd 0afd 9b3e
000003f0: 9da8 ce3d d1ae 09bb f997 593e 5719 3bbd
-0.058414266 0.024572434 0.19178994 0.2788334 0.21920781 0.14478177 -0.029506223 0.05268285
-0.2638216 -0.25380665 -0.1354396 0.27922797 -0.0982111 -0.19384177 0.22178237 0.19105613
-0.2668751 0.3153505 -0.14231485 0.13352899 0.3300377 0.06415947 -0.1034211 0.28559744
-0.10411939 -0.16055164 0.18235022 0.2728841 0.13418171 0.10362485 -0.12691392 0.037682593
-0.27513838 -0.20675574 0.21236002 -0.081041954 0.25373262 -0.069880694 -0.2832039 -0.22376864
0.20538986 0.13262425 -0.13280007 -0.08581262 -0.045405403 -0.26420227 0.27942583 0.17992686
0.15788518 -0.24835402 0.14787757 -0.060279407 -0.064717166 -0.039464857 -0.075783215 -0.12812953
-0.21052295 0.17789385 0.29658103 0.00079991703 0.07937514 0.090643875 0.0062633916 0.30292702
-0.31543761 -0.04360154 -0.3102542 0.009366328 0.10317873 -0.32783392 0.2738136 -0.0025542763
0.19444104 0.08428248 -0.21753018 -0.3259296 0.27622733 -0.15030251 -0.09845605 0.2702796
-0.15508094 0.2807493 -0.20598105 -0.2250131 -0.3066302 0.05803621 0.2964832 -0.120783485
-0.17100723 -0.30598906 0.06768874 -0.32912698 -0.025975822 -0.2330521 -0.3192038 0.31526592
-0.27828762 -0.21529439 0.08663263 0.004646426 -0.059997164 0.013847984 -0.21019945 -0.2592261
-0.13191858 -0.28691983 0.2809349 0.072419465 -0.31505746 0.2974849 -0.015539923 -0.2288503
0.23011054 -0.2561936 0.0423731 0.036269523 0.29829943 0.29485092 0.2791801 -0.2623379
0.23057018 -0.22026372 0.15451524 -0.17133708 0.22759272 0.08378057 -0.153457 0.2749082
0.031089032 0.0026654194 0.14960152 -0.28530085 0.14239213 0.25569656 -0.009057094 -0.11086174
-0.25309825 -0.32531804 -0.18237169 0.07234612 -0.0906729 0.22737959 0.002644719 0.066851005
-0.29312146 -0.08292057 0.27516797 -0.29853323 0.16762964 0.06534601 -0.13269666 0.24947134
0.10380499 -0.103483096 -0.2609217 -0.10001544 -0.058575805 -0.2964173 0.0020172868 -0.17066468
-0.29229555 -0.01837419 -0.01632629 0.22697777 -0.3122224 0.21935913 0.051431987 0.094624154
-0.30112585 -0.16988818 0.33154306 -0.08967465 0.15266272 0.011969189 0.18928394 -0.29447502
-0.26018724 0.15987563 -0.25499982 0.24450646 0.21404141 -0.13115193 -0.048599213 -0.19127809
-0.14346988 0.1108013 -0.12580067 -0.11526686 -0.23147479 -0.28654772 -0.08950794 0.330043
-0.02004354 0.25773236 -0.013614393 0.27025303 0.0037231082 0.033633053 0.049769193 -0.12683302
-0.11979457 0.16872744 0.30145773 0.26033393 -0.2981512 0.13412063 0.08926344 0.10114483
-0.19675836 0.044320337 -0.23842473 0.14691405 -0.08918199 0.08012608 -0.28082195 -0.14977099
-0.12543708 -0.12636127 -0.26012126 0.30602494 0.102230355 0.100227304 0.0036098557 0.21111356
-0.029036906 -0.10733431 0.0073459484 -0.26984107 0.052788805 0.1683482 -0.29235908 0.114242546
0.29423767 -0.13968636 -0.18210018 -0.02942938 -0.06772355 -0.2099531 0.17423871 0.04915207
0.01246948 0.29312333 -0.18315376 -0.27153814 -0.17291781 -0.067442924 0.10075146 -0.2831898
0.06507487 0.032965172 -0.03924099 0.3046649 0.10090754 -0.002100874 0.21249379 -0.045678463

Q1.conv.net.6.bias f4 [6]
00000000: 2c6d 4aba 0508 a83a ccac e83a 243b 8c39
00000010: dc74 bcba 08e7 6cba
-0.00077219564 0.0012819773 0.0017751693 0.00026746944 -0.0014378089 -0.0009037112

Q1.a_head.0.weight f4 [128, 294]
00000000: ad14 6abd 451a 8fbb da2f 0b3d b5e5 66bc
00000010: f6fa f4bc 60b6 b7bc b00b 96bc a727 cf3c
00000020: e69a 02bd b046 663d 0749 30bd 6272 45bd
00000030: e846 783c 4003 af3a a242 44bd 88f7 e2bb
00000040: 2573 39bd b33e c93c 29ed e5bc 5e2f 27bd
00000050: 8502 623d 1169 2b3d 66ee ab3c a288 3ebc
00000060: 8568 65bc b8f6 213d b3de 4b3d 6900 953c
00000070: 2a53 543c d537 d33c 7556 bd3c b262 a2bc
00000080: d000 29bd 8dd2 02bd 1677 13bd 5121 723d
00000090: 4c92 013a 2971 8ebc ede6 4c3d 79f5 b8bc
000000a0: c147 e53c 29dc af3c 72be ec3c 827c 5d3d
000000b0: 9a97 cabc e954 4a3c 8258 073d 2c03 333d
000000c0: 8d32 13bd 6f0d b73b 9523 58bd e0ce 323d
000000d0: 3224 5b3d df34 37bd b0a1 23bd d27d 6b3c
000000e0: 4fac 5abd df38 62bc f5c0 0b3c d526 663d
000000f0: ff9d f93c 88ae 743c ba41 bcbc a928 60bd
00000100: 4e6a 86bb 056a 0b3c 6b09 4ebd 8346 a8bc
00000110: d1c8 b43c d01a 2a3d 018a 60bc 1713 80bc
00000120: 99e4 fcbb 6582 1fbc ce66 9abc 4269 033d
00000130: 1085 0f3c da0d c73c eb72 29bd e0fa 08bd
00000140: 0754 d3bc 2471 71bc 4c99 693d 6e43 2f3d
00000150: e6a3 1dbd c220 4abd ca61 3ebd 06a4 febc
00000160: e5d5 53bd c98c 893c c2e5 e43c 1b17 6e3d
00000170: 2560 50bc 8635 f3bc 1c1c 1abd 2454 353d
00000180: 2efe 53bd a5c7 5d3d 8986 2ebd 1874 2dbd
00000190: fea0 0cbd 555f 53bd 65c0 33bd c7ea eebc
000001a0: 7607 5ebd 7371 b73b 91c8 643d 0f9b 05bd
000001b0: b863 e63c f296 b53c 2683 593d 93bf 223d
000001c0: 71b7 1e3d 515a 3c3d 2cda 9d3c d195 b4bb
000001d0: c4c4 09bc 3050 0dbd 677b 4dbd aad3 343d
000001e0: d584 96bc d47b 7fbc d80c 773c 0887 6bbb
000001f0: eaed 1c3d 9b97 a93c efad 343d edb9 083d
00000200: 8eca fd3c c737 1cbd f701 5a3d 364a 0b3d
00000210: 496c 173d 2d4d b03c 5cd2 e73c ae42 f93c
00000220: 9c62 c8bc 1156 383d f48e 573d 3909 623d
00000230: 9ef7 36bd 4450 fb3b 7b91 2e3d a9f7 b4ba
00000240: 993e 47bd ab5f 5abd e7d3 3ebd 4e05 833b
00000250: 6b2c 6cbd a4ec e7ba 91f5 8c3c c297 9c3c
00000260: d0b1 66bb 122b 3d3d 4289 353d 26a1 263d
00000270: a24e 09bc 3f64 16bd 35cb 5d3b c01b a0bc
00000280: 5baa 5e3c 66b7 81bc a3c9 98bc ff55 b3bc
00000290: 1b38 593d aff3 743c 6244 26ba 5420 0b3d
000002a0: 0b3c 69bd dd99 bb3c 1fdf d0bc c439 08bc
000002b0: 4055 cc3c a5f2 08bd 9406 203c 26a5 4d3d
000002c0: 3dfc f3bc e76c f53c 2aa8 4a3c 69be 0abd
000002d0: 19d2 48bd 1ab2 10bd 1a42 b8bc c70b 073c
000002e0: 6ff0 d3bc ea4d 4c3d 86ed 1dbd c68e 493d
000002f0: 4ecb edbb 5d43 a83c 805d 4c3d 7cf5 ab3c
00000300: 9753 d43c 6ac7 753a 55cb 9dbc 19a2 cb3b
00000310: a324 293d 5c8b 5ebd ec8f acbc c9d0 09bd
00000320: 395d 2cbc dd02 aa3c e9a8 c7bc d926 d03c
00000330: a29b 4cba 7fe5 743c 6370 533d 5a5b f33c
00000340: b4a3 2a3c 87f9 3abd b9f1 3d3b 6b96 b2bc
00000350: ad3a 4abc 7bfe dcbc e93e b23c 0aa8 19bd
00000360: 9694 37bd 3f7e 523d 87b6 463d cf4f 4fbd
00000370: 2840 9c3c c46c 3abd 2a0f 3cbd 927f 8fbc
00000380: 7360 efbb 29b5 e53c ee0c 083d a71a 71bb
00000390: 6f25 da3b 1553 9ebc 8e54 8d3c e9d9 01bb
000003a0: c339 26bc d1c0 57bc 1b16 313d f2b1 593c
000003b0: d898 a9bc f6e5 0c3d a4be 3b3d 86bd b7bc
000003c0: 4a8f 02bd 4b19 06bd 28c8 4cbc 5964 4cbd
000003d0: 0cfe 3cbd 5027 a6bb d19e 58bd 22c1 02bc
000003e0: f7ef da3b be80 213d 0f2c b9bc 82c4 4b3d
000003f0: aa48 f9bc 992d 4bbd 2a9b 343d 1e12 563d
-0.057148624 -0.0043671452 0.03398118 -0.014092852 -0.029904824 -0.02242583 -0.01831612 0.025287462
-0.031886004 0.056219757 -0.043038394 -0.048204787 0.015153624 0.0013352409 -0.04791511 -0.0069264807
-0.045275826 0.02456603 -0.028067188 -0.040816657 0.055178184 0.041848246 0.0209877 -0.0116292555
-0.01400197 0.03954193 0.04977293 0.018188672 0.012959281 0.025783459 0.023112515 -0.019822452
-0.04126054 -0.031939078 -0.03600224 0.059113804 0.00049427594 -0.017387943 0.050024915 -0.022577988
0.027988316 0.021467285 0.028899405 0.054073818 -0.024730492 0.012349346 0.033043392 0.043704197
-0.03593688 0.005586318 -0.05276831 0.043654323 0.053501315 -0.044728156 -0.03994912 0.01437326
-0.053386983 -0.013807504 0.008529891 0.056189377 0.030470846 0.01493419 -0.02298056 -0.054726277
-0.004102028 0.008509164 -0.05030195 -0.020541435 0.022068413 0.041529477 -0.013704778 -0.015634103
-0.0077176807 -0.009735678 -0.01884785 0.032082804 0.008759752 0.024298597 -0.04136936 -0.033442378
-0.025796903 -0.0147364475 0.05703096 0.042788915 -0.038486384 -0.049347647 -0.046479978 -0.031084072
-0.051717658 0.016790764 0.027941588 0.058127504 -0.012718235 -0.029688608 -0.037624463 0.044269696
-0.051756077 0.054145474 -0.04260877 -0.042347044 -0.03433322 -0.051604588 -0.043884654 -0.029164685
-0.054206334 0.005598241 0.055855338 -0.03261858 0.028123721 0.022166703 0.05310359 0.03973348
0.038749162 0.04598457 0.019269072 -0.0055110236 -0.008408729 -0.0345003 -0.050166514 0.04414717
-0.018373886 -0.015593488 0.015078746 -0.003593864 0.03831283 0.020702174 0.04411119 0.033380438
0.030980375 -0.03813913 0.05322453 0.03400632 0.036968503 0.021521175 0.02829855 0.030427303
-0.024461083 0.045003954 0.052626565 0.055184577 -0.04466974 0.0076694805 0.04261921 -0.0013806719
-0.048643682 -0.053313892 -0.046588805 0.003998435 -0.057659548 -0.0017694426 0.017206939 0.019115333
-0.00352012 0.046183653 0.044320352 0.040681027 -0.008380564 -0.036716696 0.0033843045 -0.019544482
0.013590421 -0.015834522 -0.018650835 -0.021891592 0.053032022 0.014950677 -0.00063425873 0.033966377
-0.056942027 0.022900516 -0.025497017 -0.008314554 0.024942994 -0.03343453 0.009767193 0.050206326
-0.029783363 0.029959155 0.012369195 -0.033872996 -0.04902849 -0.0353261 -0.022492457 0.008242554
-0.025871484 0.049878992 -0.038556598 0.049208425 -0.007256902 0.020539934 0.049893856 0.02099108
0.025918765 0.00093757233 -0.019261995 0.006214392 0.041294705 -0.054332122 -0.021064721 -0.03364638
-0.010520273 0.020753318 -0.024372535 0.025409149 -0.00078051735 0.014947294 0.051620852 0.029706646
0.010415006 -0.045648124 0.002898319 -0.02180024 -0.012343091 -0.026976814 0.021758514 -0.03751377
-0.044819437 0.05138993 0.048513915 -0.05061322 0.01907356 -0.045513883 -0.0459129 -0.017516885
-0.007305199 0.028040485 0.033215456 -0.0036789568 0.0066572945 -0.019326726 0.017252233 -0.0019813722
-0.010145607 -0.01316853 0.043233972 0.013287054 -0.020702764 0.034398995 0.045836106 -0.022429239
-0.031874932 -0.032738965 -0.012498893 -0.049900386 -0.046140715 -0.0050706044 -0.052885834 -0.007980617
0.006681438 0.03942942 -0.022604017 0.04974795 -0.030430157 -0.049604032 0.04409329 0.05226337

Q1.a_head.0.bias f4 [128]
00000000: 77ba d8bb b0fd 29bd d893 073d d8ab 9cbc
00000010: cf5a 9d3c e592 7f3c 8110 ebbc 6a5c 2c3d
00000020: 6afd b83c bd52 8a3c 4412 2a3d a233 043c
00000030: 1eb9 fabc 23ab 24bb 2882 09bc c7ce 423d
00000040: e5f2 0fbd 10bf f7bc 52e9 243d 3343 883c
00000050: c081 27bd bb68 083d b752 b0bc b7f3 4cbd
00000060: 3196 9cbc ccfb ba3c b85f 9cbc 1a18 47bd
00000070: 183b 0cbd 9529 cf3c 2a5c e2bc 4196 45bc
00000080: b948 203d dffd 32bd ed9d 46bb 1b60 723c
00000090: 4fae 133d 4e32 c13c 2cf9 05bc 62e1 893b
000000a0: 32d7 3abd 994a f7bb 9225 ce3c c05f e1ba
000000b0: 427e 4fbd 4150 f2bb bb95 68bd f30b 623d
000000c0: 5a61 f9bb 03b4 b7bc 16e8 2b3d eee2 7d3c
000000d0: f9c2 4c3b 5ee3 30bd adc1 5fbd 0e1a 56bd
000000e0: cfda 1cbc ea1f babc b714 85bc 23c3 f43c
000000f0: d4cb 3f3d 61cb cf3c de42 51bd dfae 643d
00000100: afa7 2dbd 0651 d93c aa8e 0cbd e1ba 17bd
00000110: 8241 c6bc 02b2 39bc 9865 003d a47e 2fbd
00000120: aeac d7bc 7b5e 36bc 38c5 603d f661 5a3d
00000130: 6824 61bd aa52 2dbd 701f 043d 261e 4b3d
00000140: 566a 373d a92b 1a3d 10c8 1a3d 4ff1 bebc
00000150: 57e6 52bc 2795 6b3c 80f4 323d e9dc 5ebd
00000160: 69a4 313c 56a4 61bd 3d3a 333c 345b fcbc
00000170: e790 10bd 5158 29bd 3a4d ba3c f252 20bd
00000180: a4f6 de3c 44d9 313d 8470 02bd 2f26 cabc
00000190: 5662 f8bc 4d7f 2fbd 2f05 c13c ae52 0abd
000001a0: 6a14 213d 3170 5aba 2402 b9bc d5c3 4e3d
000001b0: 9a7c 8ebc 1cfa 093a a069 f73b 0f7a 4f3d
000001c0: 65b4 2d3c d43f 853c 1dee fa3b 169f 81bb
000001d0: a068 293d f9cd 27bd db3a e63a 2071 0f3d
000001e0: dd24 80bb 586d 65bb 5b09 52bc b28e 49bd
000001f0: 89b1 35bc f7cb 453d 5a3f 083b 7a50 523d
-0.006614025 -0.0415017 0.03309998 -0.01912491 0.01920834 0.015598987 -0.028694393 0.04208032
0.022581775 0.016885156 0.041521326 0.008068951 -0.030605849 -0.002512642 -0.008392848 0.04756048
-0.03514375 -0.030242473 0.040261574 0.016633606 -0.040895224 0.033303004 -0.021523817 -0.050037112
-0.019114586 0.022825144 -0.019088611 -0.04860697 -0.034236044 0.025288383 -0.027631838 -0.012059749
0.039131854 -0.04369914 -0.0030306533 0.014793421 0.036054906 0.023583557 -0.008177083 0.004207776
-0.045615382 -0.0075467345 0.0251644 -0.0017194673 -0.05065752 -0.007394821 -0.05678342 0.055187177
-0.007610482 -0.022424703 0.04196938 0.015495999 0.0031244142 -0.043185584 -0.054628063 -0.05227094
-0.009573652 -0.022720296 -0.01624523 0.029878205 0.046825245 0.025365533 -0.05108916 0.055830833
-0.042396244 0.026527893 -0.034315743 -0.037043456 -0.024201158 -0.011333944 0.031346887 -0.042845383
-0.026327457 -0.011130924 0.054875582 0.05331608 -0.05496636 -0.042315163 0.032256544 0.0495893
0.044779144 0.037639294 0.03778845 -0.023308424 -0.0128723 0.014378822 0.043690205 -0.054409895
0.010842421 -0.055088364 0.010939178 -0.030805208 -0.03529444 -0.04134399 0.022741903 -0.039141603
0.027217217 0.04342009 -0.031845585 -0.02467641 -0.030320328 -0.042846013 0.023562042 -0.033770256
0.03932611 -0.0008332758 -0.022584029 0.05047973 -0.017393399 0.00052634045 0.0075504333 0.050653514
0.010602091 0.016265787 0.00765778 -0.003955732 0.041359544 -0.040967915 0.0017565148 0.035019994
-0.0039106444 -0.00350078 -0.012819613 -0.04920835 -0.011089691 0.04829022 0.0020789714 0.05134628

Q1.a_head.2.weight f4 [6, 128]
00000000: b451 12bd bb1b 6c3d 6717 8cbd 3723 4f3d
00000010: c109 463d 021f 2e3d 1b73 82bd 9766 ae3d
00000020: 040a 453d 7d00 62bd 9582 a13c 4d38 ca3c
00000030: d46a 873d 7360 f5bb 0626 5abd 072e 9c3c
00000040: ea5c 02bd 818c 5d3d a6dc 6ebc 7da0 f53c
00000050: 558b 8d3d 4eb0 a6bd f286 fd3b 8b74 853d
00000060: fe61 f13c 15e2 a13d 977d aebc 07b6 89bd
00000070: e726 e53c 458c 2f3d 2034 7f3d f908 52bd
00000080: 4746 3c3d 791a 82bc 9e73 a3bd ab93 273d
00000090: 69ee ea3c 5298 5cbd 9b37 a9bd d4f4 e93b
000000a0: 75a7 af3d e1dc 88bd 6ff8 1abd 8865 903d
000000b0: b261 083d 2ee4 6bbc a188 adbd c172 17bd
000000c0: 4339 23bb 3676 9a3c 237c 093d b7d9 6e3d
000000d0: 8a74 d43b 7203 603c cb61 563d 614b 95bd
000000e0: f21b 023d 8008 b2bc cea8 0ebd 8688 afbc
000000f0: 7f57 ed3c b0f7 043d dd3c 6abd 2b7e 5e3d
00000100: 2298 dcbc 0229 81bc a5ee 583d 899f 8a3d
00000110: cee0 9d3c ca71 653d a0d4 adbd 3dd2 a4bd
00000120: e8db 3cbd cbe9 51bd 746d 04bd c80c 40bd
00000130: 8693 a5bc a194 0e3d 09a0 55bc e354 4a3d
00000140: de6c 7ebc 2299 98bd 0643 2abd ea2f 1ebc
00000150: 5ba5 063d 5bd2 54bc 4c0e a03c 0c88 abbd
00000160: d541 1f3d 9ae9 51bc 9a07 adbd 4df6 adbd
00000170: eebf af3d 7be8 293c 37e6 3abd 3124 ecbc
00000180: 4731 11bd d095 073d c55b 8b3d ada0 143d
00000190: 19d0 f2bc c3f2 853d 183d cdbc 7589 5f3d
000001a0: 6597 acbd 2618 f33c 6824 503d 47f2 c4bc
000001b0: 2bcd 86bd a17b a53c b896 b43d 348a 9c3d
000001c0: 95d6 583c 9ed9 efba c3f5 993d 8c01 aa3d
000001d0: cb17 143c 980f 9d3c b76d 843d c33a e6b8
000001e0: fb1f 2c3d 69b8 6dbd 4253 91bd 0516 a4bd
000001f0: c24f 44bd 906a 67bd 297b a23d ce8f 7d3d
00000200: 8a22 023d b017 403d c361 ae3d 6afc 89bd
00000210: 8458 883d a60b b2bc 89e2 99bd 8d08 323d
00000220: 68a1 af3c 1516 143d 1379 23bd d872 c9bb
00000230: 7841 2b3d 311e 9a3d 8135 95bd d552 92bd
00000240: e012 30bc 532d 1fbb 93b3 2c3d eeff 453d
00000250: f368 edbc a614 2b3d 4ece 5cbd 5191 22bc
00000260: c1b8 3c3c a632 8c3d cd82 203d dce9 0cbd
00000270: b141 123d 2358 98bd 89a0 0fbc a719 8b3c
00000280: b080 95bd c18c 40bd 45c2 9b3d c9ee 81bd
00000290: a049 583d 043c 48bd 82b2 293d 4c3e 1bbd
000002a0: 5152 8e3d 5427 3ebd 85f8 a6bd 8c71 84bc
000002b0: 58a6 a53b 5ac5 4e3d 7f31 423b c9a4 56bd
000002c0: ce01 a9bd fb02 0ebd ce7d 873d a638 25bd
000002d0: 785e 84bc 92ac ddbc 633e a2bc 8ce9 eb3c
000002e0: 4460 31bd 87d1 aebd b68a 8fbd d8eb 3dbd
000002f0: 5430 85bd 19ce d33c becc 0fbd a996 693d
00000300: 4826 8e3d 4c39 9d3d 7fb7 b2bd 50f0 a03d
00000310: e6a7 32bd cdb2 15bc 64fa 073d 0997 913d
00000320: 2b12 75bd 52d9 a33d b3b3 703d 64cf 59bd
00000330: e683 7abd f38f c43c b0ed 65bb 6d15 4a3d
00000340: 01a1 493d cb64 d63b 5908 133d a47b e63c
00000350: 124c 50bc 3f0b acbd a7a9 fe3c ff24 12bd
00000360: 1b99 5c3d 59e3 95bd fae1 02bc 5d95 883d
00000370: 0565 373b d9d1 13bd 4135 3dbc 7f93 553d
00000380: b610 6bbd 7740 003b f927 85bc 5874 833d
00000390: b196 6e3c 52d2 d03c 5802 17bd 9b78 263d
000003a0: bcea 6cbd eb33 7fbd b5f3 813d 122f 2cbd
000003b0: ed74 ad3d 38c3 78bd f547 9a3c ee21 bbbc
000003c0: 9ad4 6abb 4592 9dbd ee4d 5f3d 5180 983d
000003d0: aaf2 b13d 15ba 9d3d e04f da3c ad64 7c3d
000003e0: 6179 88bd 6413 8fbd 2325 4bbd 0577 2d3c
000003f0: 3eaf 52bd 9b26 95bd 4c4d 983d 3251 8e3d
-0.03572245 0.057643633 -0.06840401 0.050570693 0.048349146 0.04251004 -0.06369611 0.08515661
0.048105255 -0.055176247 0.019715587 0.02468505 0.06612173 -0.0074883043 -0.05325892 0.019064916
-0.03182689 0.054089073 -0.014578974 0.029983753 0.06911341 -0.08139096 0.007737034 0.065163694
0.029465672 0.0790445 -0.02130012 -0.06724172 0.027972652 0.04285838 0.06230557 -0.05127809
0.04596546 -0.015881764 -0.079810366 0.04091231 0.028678136 -0.0538562 -0.08262559 0.0071397815
0.08576862 -0.06682754 -0.03783458 0.070506155 0.033296295 -0.014397664 -0.084733255 -0.036974672
-0.0024905957 0.018855195 0.03356565 0.058313098 0.006483619 0.013672696 0.052339356 -0.07289768
0.031764932 -0.021732569 -0.034828953 -0.021427404 0.028972385 0.032462776 -0.05718695 0.054319542
-0.026928011 -0.015766624 0.052961964 0.0676871 0.019272234 0.05601672 -0.084878206 -0.08047912
-0.046108156 -0.051248353 -0.032330945 -0.04688719 -0.020211946 0.034809712 -0.013038644 0.04939736
-0.015528886 -0.07451083 -0.041567825 -0.009654978 0.03287254 -0.012989606 0.019538067 -0.08375558
0.03888114 -0.012812043 -0.084487155 -0.08494244 0.085815296 0.010370369 -0.045629706 -0.028825851
-0.035447385 0.033101857 0.06804613 0.036286045 -0.029640244 0.06540444 -0.025053546 0.05457445
-0.08427314 0.0296746 0.05081597 -0.024041308 -0.065821014 0.020200552 0.0881781 0.07643548
0.013234754 -0.0018299108 0.075175785 0.08301076 0.009038876 0.019172475 0.06466239 -0.000109782
0.042022686 -0.058037195 -0.07095958 -0.080120124 -0.047927625 -0.05649811 0.07933647 0.06190472
0.03177122 0.04689759 0.0851474 -0.06737597 0.06657508 -0.02173407 -0.07513911 0.043465186
0.02143927 0.03615387 -0.039910387 -0.0061477236 0.041810483 0.0752529 -0.07285596 -0.07144705
-0.010746688 -0.002428849 0.042163443 0.048339777 -0.028980708 0.04176774 -0.053907685 -0.009922341
0.011518658 0.06845598 0.03918724 -0.034402713 0.03570718 -0.07438686 -0.008766302 0.016980005
-0.07299936 -0.047009233 0.07605413 -0.06344373 0.05280459 -0.04888536 0.041430004 -0.037901208
0.06949294 -0.046424225 -0.0815287 -0.016167425 0.00505523 0.050481178 0.0029631553 -0.052403245
-0.08252297 -0.03467081 0.06615792 -0.040337227 -0.016158327 -0.027059827 -0.019805139 0.028797887
-0.043304697 -0.08536058 -0.07008879 -0.046367496 -0.065033585 0.025855111 -0.035107367 0.057028446
0.06940895 0.07676944 -0.08726405 0.07858336 -0.04361715 -0.009136868 0.033197775 0.07108886
-0.05983178 0.08000435 0.058765125 -0.0531763 -0.061160944 0.023994422 -0.00350843 0.04933684
0.04922581 0.006542777 0.035896633 0.028135128 -0.012713449 -0.084005825 0.031086756 -0.035679813
0.05385695 -0.07318754 -0.007988447 0.06669114 0.0027983796 -0.0360888 -0.011548341 0.052142616
-0.057388984 0.0019569674 -0.016254412 0.06418675 0.014562295 0.025490914 -0.03686747 0.040642362
-0.057841048 -0.062305372 0.063453116 -0.042037077 0.084695674 -0.06073305 0.01883314 -0.022843327
-0.0035832287 -0.07693914 0.05451768 0.074463494 0.086888626 0.07701508 0.026649415 0.06161945
-0.06663776 -0.0698612 -0.049595963 0.0105874585 -0.051436655 -0.07282754 0.07436618 0.069490805

Q1.a_head.2.bias f4 [6]
00000000: 098f aa3d 5b15 59bc 3fd6 2f3c 0141 15bc
00000010: 5a6f 953c 8ce3 aa3b
0.08328063 -0.01324972 0.010732233 -0.009109736 0.018241573 0.005215114

Q1.v_head.0.weight f4 [128, 294]
00000000: c9ed 513d 3d27 1e3c 0e1a 083d 4363 34bd
00000010: 3872 283c 97a6 4b3d bbbc 9e3c 9f24 283c
00000020: 49ae b4bc 281e 323c 4493 76bc 470b d93c
00000030: fcdd 613d 4e29 58bd 0328 74bc 3544 4ebd
00000040: 4683 a5bb dced 42bd 35ed 1ebc 3317 40bd
00000050: a4b7 15bd b32f 36bd e6d0 58bd 97a0 0fbb
00000060: c83f 7c3b 5c1f 99bc 9a9b 143d b8a9 56bb
00000070: 9855 95bb 9960 d23c 02da 3bbd a453 273d
00000080: ed5a 8ebc b5de 243d a73f a8bc 1735 63bc
00000090: 07f6 09bd d021 41bd 46a6 133d 5ad6 eabb
000000a0: 38c4 213d 6186 923c 098b bbbc 7935 c4bc
000000b0: 1a17 d6bb 3e7d 2bbd b678 693d 3f5b b23c
000000c0: 6244 d3bc ef02 6ebd abca 2e3d 76d4 2bbc
000000d0: f05a 40bd d9a7 1b3d 87e4 163d 3b4f 363d
000000e0: 398a 8ebc bc80 a0bb 2272 3abd 3b33 cb3b
000000f0: 7b29 ce3c 4d3d 56bd e769 443c c2ad 903c
00000100: 04b4 49bd 772d c2bc 2d45 b53b d6ab 483c
00000110: 7de4 61ba e2fa 99bb e6f0 9ebc 211a 523b
00000120: 738e 4ebc 7eb2 1abd ada3 99bc b16e 333d
00000130: 1f89 c83c 9c22 49bd a791 c93b 1f33 513d
00000140: 820a 3abc 2561 97bc 7a4c 263d 79f5 d03c
00000150: b1a1 3bbd cfc3 643d 75b6 233d ccb3 4ebd
00000160: cd49 973c 52d3 233c 54c2 f5bb 90bd 64bc
00000170: 4518 123c 64a5 603d 0e39 e4bc 6df2 243d
00000180: dc38 1ebd cc4a 113d 10ef f6bc 1bcf 933c
00000190: 6332 a93b 8385 6bbd 2490 f4bc 0891 58bd
000001a0: 567d 913c 357e 8a3b 3869 eb3c c388 1abd
000001b0: fe48 783b 5aa9 9d3c 2cd4 cfbc 26fc 87bb
000001c0: a942 2ebd 3dd7 f5bc 9262 4e3d baa9 b93c
000001d0: c0a2 f83c 0b46 45bd 8895 cc3b fb3e 6cbc
000001e0: 5fa2 4c3d 601b 693d b0e7 81bc 71a4 1fbd
000001f0: 43d5 10bd cf92 1bbd 67d8 f63c dada cf3a
00000200: 4234 0cb7 4bf8 a0bb cbcd b33c ae4b 16bd
00000210: 59eb 02bd d472 a53b 0b60 c03b 2ae2 dabc
00000220: d595 e53c 8f5f cfbc 743d 863c fd1e c2bc
00000230: 3b4a 26bd e8b2 c5bc 9f64 b03c 4894 ac3c
00000240: 8f49 e4b9 7908 533d 1241 5dbd 1dd8 32bb
00000250: a925 5e3d 76a0 1a3d e88c 623d 5627 6e3d
00000260: f6dc 6ebd 5074 90bc b8e4 0f3d b740 583d
00000270: d8a2 883c fd75 e7bc 3351 42bd 277a 66bd
00000280: 94b8 683d 4800 423d 0d39 31bd 09e3 c4bc
00000290: 089e 07bd cf4e 25bd 4f29 183d ca42 ff39
000002a0: 608e 873c 55d6 04bd e089 22bd 16dc 0d3d
000002b0: c537 26bd f778 56bb a63a 13bd 1c52 da3c
000002c0: cf1e e0bb d8ce 59bc 9a31 51bd 06a7 4fbd
000002d0: 2677 f13b f523 15bd 4aa7 63bd d244 51bd
000002e0: 7b25 153b 0c23 213d fd3f 16bc 0830 39bd
000002f0: 9011 373c b0c8 6e3d 61ad 533d ebce 97bc
00000300: b353 513d fb2b 563d d303 c2bc bb25 993c
00000310: 8f0f 5bbd c459 65bd 3d88 51bc 86b3 7d3c
00000320: c511 953b da68 28bd 43fc 01bd 78cc 50bd
00000330: 7443 313d 9aba 6c3d 44ba 5b3d 2d16 2d3d
00000340: 5224 63bc 8cb5 02bd a29a 043d 80bf 0e3d
00000350: c651 79ba f72f 65bd 2216 3fbd e730 ae3c
00000360: 111b 31bd 07bf 04bc e664 54bd 667d 83bc
00000370: 4589 97bc 7003 533d c604 c6bc f478 84bc
00000380: 747b 9ebc 71b6 66bd 3ecb 49bd db53 42bd
00000390: 6f6e 28bd 5768 9fbc fe06 62bd fa40 d8bb
000003a0: ce3a 513d 10a3 183d 4365 593d 9e08 613c
000003b0: b961 b2bc b519 e5bb bbb4 68bd d5b6 283d
000003c0: 8cdc 54bc 11fa 3c3c 92e2 a23c 8449 2f3c
000003d0: 5b6b 40bb b791 36bd b6f6 293d 8f6b 3e3d
000003e0: 1b9e dfbc 90b8 293d 7ba6 e6bc 489c 973b
000003f0: 8ee3 62bc 87a7 2cbd 096f e9bc ebb5 bdba
0.05125216 0.00965291 0.033227973 -0.044039976 0.010281138 0.04971942 0.019377103 0.010262637
-0.022055762 0.010871448 -0.015049759 0.026494635 0.05514334 -0.052773766 -0.014902118 -0.050358016
-0.0050510494 -0.04759012 -0.009700109 -0.046897124 -0.036552086 -0.044479083 -0.052933596 -0.0021915787
0.0038490165 -0.018691711 0.036281206 -0.003275497 -0.0045573227 0.025680827 -0.045862205 0.04085125
-0.017377341 0.040251452 -0.020538164 -0.013867638 -0.033681896 -0.047151387 0.036047243 -0.007166666
0.03949377 0.017886342 -0.022893446 -0.023951279 -0.0065335156 -0.041867487 0.056999885 0.021772025
-0.025789443 -0.058108266 0.042673748 -0.010487666 -0.046961725 0.03800187 0.036839034 0.044509154
-0.017399894 -0.004898159 -0.045519 0.0062011755 0.025166264 -0.052304555 0.01198814 0.01766098
-0.049243942 -0.02370332 0.005531928 0.012248 -0.0008617116 -0.004699097 -0.019401979 0.003205903
-0.012607205 -0.03776788 -0.018754805 0.043806735 0.024479447 -0.04910527 0.0061513963 0.051074143
-0.011355044 -0.01847894 0.040600277 0.025507675 -0.045808498 0.0558508 0.039968926 -0.050464436
0.018467808 0.009999113 -0.0074999724 -0.013961211 0.008916919 0.05484523 -0.027859237 0.040270258
-0.038628444 0.035471722 -0.03014329 0.018043092 0.0051634773 -0.057500374 -0.029853888 -0.052872688
0.01775996 0.004226471 0.028736696 -0.037728082 0.0037885304 0.019245792 -0.025369726 -0.0041499315
-0.04254404 -0.03000986 0.050386973 0.02266394 0.030351043 -0.0481625 0.0062434115 -0.014419313
0.049959537 0.056910872 -0.015857548 -0.038975183 -0.035359632 -0.037981804 0.030132486 0.001585807
-8.3568175e-06 -0.0049124113 0.021948716 -0.036693268 -0.031962726 0.005049089 0.005870824 -0.026719172
0.028025547 -0.02531412 0.016386725 -0.023696417 -0.040598135 -0.02413316 0.021532355 0.0210668
-0.00043542354 0.051521752 -0.054017134 -0.0027289458 0.054235134 0.037750684 0.05531016 0.058142982
-0.058316194 -0.017633587 0.035130233 0.052796092 0.016679212 -0.028254503 -0.04744072 -0.056268837
0.056816652 0.04736355 -0.0432673 -0.02403404 -0.033109695 -0.04035836 0.03714877 0.00048687152
0.016547382 -0.032430965 -0.03968227 0.03463372 -0.04058053 -0.003272591 -0.035944603 0.02665048
-0.00683961 -0.013293944 -0.051072694 -0.050696395 0.00736894 -0.036411244 -0.05557946 -0.051091023
0.0022757936 0.039340064 -0.009170529 -0.04521182 0.011173621 0.05829686 0.05167902 -0.018531283
0.051105212 0.052288037 -0.023683464 0.01869475 -0.053481635 -0.05599381 -0.012788829 0.015484696
0.0045492374 -0.04111562 -0.031734716 -0.050976247 0.04327722 0.057795145 0.053644434 0.042257477
-0.01386364 -0.031911418 0.03237403 0.034850597 -0.00095107814 -0.055953946 -0.046651967 0.021263553
-0.043238703 -0.008102185 -0.051854037 -0.016051006 -0.018498072 0.05151695 -0.024172198 -0.016170956
-0.019345976 -0.056326333 -0.049266092 -0.047443252 -0.041120943 -0.019458933 -0.05518245 -0.0065995427
0.05108147 0.037264884 0.053075086 0.013734965 -0.021775113 -0.00699159 -0.056812983 0.041189987
-0.012992036 0.01153423 0.019883428 0.01069868 -0.0029360864 -0.04457256 0.041495048 0.046489295
-0.02729707 0.04143578 -0.028155556 0.0046267845 -0.013848199 -0.042151954 -0.028495329 -0.0014473771

Q1.v_head.0.bias f4 [128]
00000000: 47c1 be3c 83e1 d93c 5327 e13c 3d12 fb3c
00000010: 0499 a83b 53f3 493d f4a1 933c d9aa fd3c
00000020: f9d3 53bb 6a45 293d 4616 833c 32fa 5cbd
00000030: 79d2 dbbc 5b3e 17bd 0b8a 3c3d f8bc 423c
00000040: cda3 103c 4539 333d 40d0 2bbd 16ec 3a3d
00000050: 5294 483d fe95 dcbb b34d 60bd 7e41 0f3c
00000060: 021c 693d b2ed 37bd d564 ebbc 1f8b 973c
00000070: cd84 1fbd d86e 523c 6dc0 17bd a394 6dbc
00000080: 5b32 25bd 4e72 533c a382 2c3d cf0b 113d
00000090: 5a04 5f3d b158 6cbd d991 4c3d 7a08 d63c
000000a0: 682d 0fbd 358a 3dbc 6973 84bc bb9e 5bbd
000000b0: ffe5 ed3c 3518 4cbd 6b1d dfbb ed3c d9bb
000000c0: 7a82 b53c 38b7 d13c d8f2 22bb 4d93 18bc
000000d0: 9686 3abd 8f63 073d 920e 65bb 4879 e03c
000000e0: 84dd 64bd e43d 863c 007e d73c 3635 6fbb
000000f0: 9ded 5c3d 0faa 3f3d cea1 1b3d ecea 003d
00000100: 1e63 7b3d 2963 ac3c 3b43 733b a3f9 513d
00000110: d6d8 4d3d 5114 a1bc 3abd 5e3d 9ed9 503d
00000120: a840 a4bc 2938 723d 35e0 813b f487 10bd
00000130: 5f22 c53b 79e7 663d 2f98 6c3d e76e 843c
00000140: 27aa 113d 3289 bd3c a07b 763c 53f2 c2bc
00000150: 3576 683c f2b5 e73b 1421 3abd 58be 3dbd
00000160: 2b69 c13c 840f 63bd 5136 cd3c f604 77bc
00000170: 4ac1 b9ba 427b 1a3c 91d9 1b3d ad31 12bd
00000180: b2ca 483d f51b 56bd ec8d dd3c 6b7a 34bd
00000190: 0ee9 143c 6ac9 9cbb d4e9 163d 3c49 59bc
000001a0: ef3a abbc d52b 473d 3d61 3ebd d676 47bd
000001b0: b207 e53c 9434 ae3a 48cd 223c b476 433d
000001c0: 3de7 963c ba9a bdbc 0199 bc3c 5caf 8a3c
000001d0: b43e 12bc 014d 7c3d 7f5b 6e3d 0962 293b
000001e0: e809 93bc 5982 5f3d 37f7 e63c dd5a 67bd
000001f0: c4e8 a2bc 2b91 683d 36b5 90bc 5fb0 eebc
0.023285521 0.02659679 0.027484572 0.030648345 0.005145194 0.049304318 0.018021561 0.030965256
-0.003232239 0.041325964 0.016001832 -0.053949542 -0.02683376 -0.0369247 0.046030086 0.011885874
0.008828116 0.04375579 -0.04194665 0.045635305 0.048969574 -0.0067317476 -0.0547616 0.008743642
0.056911476 -0.04490442 -0.028734604 0.018498955 -0.038945008 0.01284381 -0.037048746 -0.01450077
-0.040331226 0.01290567 0.042116772 0.035411652 0.05444751 -0.05770177 0.04994378 0.026127089
-0.034955412 -0.011568596 -0.016168313 -0.053618174 0.029040335 -0.049827773 -0.006808927 -0.0066295774
0.022156943 0.02560006 -0.0024863984 -0.009312463 -0.045538507 0.03305393 -0.0034951312 0.027401581
-0.055875316 0.016386934 0.026305199 -0.0036500222 0.053937543 0.04679304 0.037996106 0.03147404
0.061373822 0.021043377 0.003711893 0.051263463 0.05025562 -0.019663008 0.05437968 0.050988786
-0.020050362 0.05913559 0.003963495 -0.035285905 0.0060160602 0.056373093 0.05776232 0.016166164
0.03556266 0.023136709 0.015044123 -0.02379719 0.014188339 0.00707125 -0.045441702 -0.046324104
0.023609718 -0.05543472 0.025050314 -0.015076866 -0.0014171985 0.009428801 0.038049284 -0.035691906
0.04902143 -0.052272756 0.027045213 -0.04406206 0.009088768 -0.0047847526 0.03684409 -0.013262089
-0.020902125 0.048625786 -0.046479452 -0.048697315 0.027957771 0.0013290816 0.009936638 0.047720626
0.01842081 -0.023145068 0.023022177 0.016929321 -0.008926082 0.061596874 0.058192726 0.0025845787
-0.01794906 0.05456767 0.028194053 -0.05648314 -0.019886382 0.056779068 -0.017664533 -0.029136835

Q1.v_head.2.weight f4 [1, 128]
00000000: 623b 013d 82e0 083d 62a0 113d 905e 40bd
00000010: 7dd1 33bd 5a3c 04bd 1eb6 8fbd 87c2 8ebc
00000020: 6d72 12bd 0c9f 00bc 3ec7 813d bf48 80bd
00000030: 1b01 a9bb 303e a1bd f84e 91bd bcda 5abd
00000040: 5d87 29bd 0bf3 07bc c2ab 07bc 3028 6c3d
00000050: bc58 413d b9ac 8b3c 5426 a13d 32ae 7b3d
00000060: 358a 22bd bba2 06bd f75a e53b b48c b53d
00000070: 3102 3a3d 9d3f 333c 608f 72bd 9355 81bc
00000080: cee0 8c3d 1dcf 32bc 0175 c0bb 2eef b3bd
00000090: 1549 b93d fe70 c8bb b473 973d 4c3f b7bc
000000a0: a7a3 b73c 48e8 4f3c 66d0 6abd 990b 94bb
000000b0: c8fe 32bd 2332 243c c76a 24bd 2fe8 553d
000000c0: c0a4 9c3d d3bf 313c 12d5 a63d bab7 5dbc
000000d0: 393f b6bc 22ac e0bb b4af 963d bfdb 4bbd
000000e0: e380 62bd d37f 673d deef c63c edbd 4a3d
000000f0: 6b80 58bd 8db0 5abb 7a86 383d a803 8d3c
00000100: 63b3 613d a518 8fbd 1691 1fbc ec92 7f3d
00000110: 5945 c03a 0978 0e3b 9fb3 a3bd 9b45 3e3d
00000120: 592c a0bc afbf 643c 7d01 b1bd 8da3 d93c
00000130: fee0 9fbd 3f10 b3bd 7942 b2bd be96 8e3d
00000140: 85fd c63c 5068 2abc 5746 fe3b 99c3 b73d
00000150: 9a24 70bd a8ac 0b3d 8c84 55bd bacd bd3c
00000160: 27a2 08bd fbe5 c7bc d43a 7bbc d9ca 3a3c
00000170: 6544 a7bd 2693 7b3d 8c86 87ba 4c20 08bd
00000180: 8df0 6d3d 0144 e03c 493c 21bd a39d 86bd
00000190: 9fcc 44bd 4dc7 8cbd a2b5 123d 081c 9c3c
000001a0: 614d 97bd a00b 88bd 0bb2 14bc 9c84 a3bc
000001b0: bcda 1fbd 1b00 7b3d 4853 aabd f664 703c
000001c0: 16e1 27bd 0709 5d3c e909 3a3d 50b6 1ebd
000001d0: 1543 a23d dc9e a53c af82 d03b cf4c 0bb7
000001e0: 25f3 a83c 5eb1 d8bc 77f3 2dbc 7b6a bdbc
000001f0: 9258 60bd 96e7 9cbd 09c8 383d a4d4 a0bd
0.031550772 0.033417232 0.035553344 -0.04696518 -0.043900955 -0.03228412 -0.07017158 -0.017426742
-0.035753656 -0.00785042 0.063368306 -0.06263875 -0.0051576025 -0.078731894 -0.0709514 -0.053431258
-0.041388858 -0.008297692 -0.008280696 0.057655513 0.047203764 0.017050134 0.07868639 0.061445422
-0.039682586 -0.032870036 0.0069993692 0.088647276 0.045412246 0.01094046 -0.059218764 -0.015787875
0.068788156 -0.0109136375 -0.005873323 -0.08785854 0.090471424 -0.0061169853 0.073951155 -0.02236905
0.022416903 0.0126896575 -0.05732765 -0.004517984 -0.04370001 0.010021719 -0.040140893 0.05222338
0.07648611 0.010848957 0.08146109 -0.013532573 -0.022246944 -0.0068564573 0.073577315 -0.049770113
-0.055298697 0.056518387 0.0242843 0.049497534 -0.052856844 -0.0033369393 0.04505012 0.017213657
0.055102717 -0.069871224 -0.009739181 0.062395975 0.0014669105 0.0021739027 -0.079932444 0.0464531
-0.019552397 0.013961717 -0.08642862 0.026567245 -0.07806586 -0.08743333 -0.08704085 0.069623455
0.02429081 -0.010400847 0.00775985 0.08972854 -0.058628656 0.034100205 -0.05212836 0.023169387
-0.033357766 -0.024401655 -0.01533385 0.011400902 -0.08167342 0.06141963 -0.0010339781 -0.033233926
0.058090735 0.027376177 -0.039364133 -0.065730356 -0.048046704 -0.06873951 0.03581775 0.019056335
-0.07387806 -0.06642842 -0.009075652 -0.019960694 -0.03902696 0.061279397 -0.08316666 0.014672508
-0.040986143 0.013490922 0.045419607 -0.038748085 0.07922951 0.020217352 0.006363235 -8.302929e-06
0.020623753 -0.026451763 -0.010617129 -0.023122063 -0.054771967 -0.07661359 0.045112643 -0.07853058
