models_decentralized/final/online_critic_2_2100.pth (torch, 631787 bytes, 26 tensors)

Q1.conv.net.0.weight f4 [3, 31, 3, 3]
00000000: b295 1f3e 8ab5 debd d91c 723d f3fd 8abc
00000010: a2ba 853d 5e5b 2c3e 3eac ce3d ee3d c6bd
00000020: 7445 9ebd 920b 223e 1d43 dd3b 29ba 593d
00000030: 4a79 4b3d 3ae2 d8bd 70d7 9c3d bade 1d3e
00000040: 9c05 83bd 3662 15be 63b9 7e3d d06d 0f3d
00000050: 1fc3 7e3d 428f 3c3e e26a 8cbd e742 97bd
00000060: 2524 393d 614b b9bd 5058 10be ce3d cbbd
00000070: e500 923d c14b b6bd 9ed2 513d 72a6 b4bd
00000080: cb7c 803d 06f6 de3d b7d3 063e a882 0dbe
00000090: 7bf9 0bbe 2f41 18bc dbf7 1bbe bad6 c03d
000000a0: 0b2c acbd 602b 2dbc 8877 87bc e296 0e3e
000000b0: 7823 d13d c01c 5b3e 1903 d9bd e7f2 173e
000000c0: c375 a4bd 8353 0ebd 40c4 dabd 5f08 203e
000000d0: 90d5 9dbd 4ff0 1c3e 5c4a 643d ab53 91bd
000000e0: 4239 503e 0962 8a3c 1c45 b33d dc0e d9ba
000000f0: bfff 093e 911c f13d 86cf 4e3e 1252 653d
00000100: 96af 8fbd 43c2 70bd c82a 3dbd 6507 243e
00000110: 9c1c 183e c242 1f3e 0dd5 103d b3ff 573c
00000120: fd26 adbd 2b07 07bd 71eb 5f3e 0350 d9bd
00000130: ef09 72bd 4970 e4bd a9bd bb3d 6ad3 66bb
00000140: 3675 143e 61e6 5b3e 72cb 33bd 7da0 3dbd
00000150: 7113 14be 9851 f4bd c747 10be e75b b03d
00000160: db9d 443e b068 483e 70e3 c53d dae3 313e
00000170: 1b25 09bd 0de4 f53d 9a6f ae3d f159 e13d
00000180: e3db 203e 92cd fd3d 6d97 963c 94d5 0ebc
00000190: 1348 113e 2461 023e b8e9 cbbd 12c9 4d3d
000001a0: 941d abbc 20d1 c33d 3ae6 883d 0714 db3c
000001b0: c865 abbd 7bdc af3c 5e1c 9fbc 1120 dd3d
000001c0: 93c1 153e 49b3 52bd a4a0 cf3c 387e 353e
000001d0: 0f3e 013e 2288 c13d d0df 773d d3e2 ad3d
000001e0: 975e 173e a7f2 fa3d 6d0a 7abd c770 f23d
000001f0: da8c 0a3e 875d 1c3d e80c 223e 07ce e23d
00000200: ae3f cbbd e793 b73d b60e adbd 33f3 cb3c
00000210: 8cac 043e 899b 86bd 68ab dc3d 0814 d13d
00000220: 71ad 90bd 2965 adbd 8b9a 2b3e 4b66 d5bd
00000230: 87ec 0abd fcc3 a43d 5b7e f1bd 99ec df3c
00000240: cdce 8cbc a9ac 113e e957 263e 20dd a83c
00000250: 31ff ed3d 3ed8 9ebd 4077 b43d c11f 9bbb
00000260: 3646 ab3d cdec d0bd b8f0 dcbc 52c0 4d3d
00000270: 73ef 973b 9e2b f5bd 771d 13bd 252e be3d
00000280: ac1f f7bd d5dd b8bc ff02 e7bc ce80 043e
00000290: e7f0 7a3d 9ef7 6bbc 1bca 183d 84ce 15bd
000002a0: 6857 ddbd 78f0 9d3d fcd2 2c3e 2d06 1c3e
000002b0: e670 13bd 6713 d93d d082 8bbd d458 e1bb
000002c0: 54c3 ae3d 5b95 d73d 50df fdba c479 293e
000002d0: 7dfc 1ebe 6682 93bd 3d60 293d 02e0 a3bd
000002e0: 23e8 ae3d 7ce2 e03d a457 1bbe 1c42 c53d
000002f0: 8189 6dbd af9b 28be c1e7 f5bd f93b 6c3c
00000300: 665c e9bc ca20 fcbd b09f a23d 33ae b53d
00000310: 00e6 01bd b44d ee3d 448d 7fbd a86c b0bc
00000320: eef8 a83c 874e 87bd 229e 6c3d e8ba 2cbd
00000330: 6c26 17bc 5a56 b7ba c6fd b03b 1930 afbd
00000340: 70a7 04be 85d2 67bd ae21 ebbd cf73 90bd
00000350: 8a6b 45bd d6db 5fbd 3146 debd 5a9b 2c3e
00000360: 01f2 21be edf1 3dbe 38da 36bd 62e9 efbd
00000370: 15c1 bbbd f583 963c 0883 06be 6e8a b0bd
00000380: 151c e53d 2ef7 dcbc cbc0 b93d eb86 8cbc
00000390: 0ade e9bd a856 9c3d c1b9 00be 5995 44bd
000003a0: 6d71 b33d a85d b33d 1fe8 debd 6cd4 0abe
000003b0: f99f ecbd 6fe7 28bd eeee a33d a68e 0a3e
000003c0: eeaf ef3d 362e e8bd 06e4 1a3d de23 23bd
000003d0: cd75 e83d 8878 a63b fa09 68bd 85ed d6bc
000003e0: 91b9 9dbd 2029 083e 9410 f6bd ec2f 10bd
000003f0: 7a17 15be d3a1 fabd 1d58 27bd fd78 e0bc
0.15584448 -0.108744696 0.059109543 -0.016966796 0.06529738 0.16831729 0.10091446 -0.09679781
-0.07728091 0.15824726 0.0067523853 0.05315605 0.049676217 -0.10590024 0.07658279 0.15416995
-0.06397554 -0.14588246 0.062188517 0.035016835 0.0621978 0.18414024 -0.06856324 -0.073858075
0.045200486 -0.090475805 -0.14096189 -0.09923898 0.07129077 -0.08901168 0.05122625 -0.088208094
0.06273802 0.10886769 0.131667 -0.13819373 -0.13669388 -0.009292885 -0.15231268 0.09415956
-0.08406838 -0.010569423 -0.01653649 0.13924745 0.10211843 0.21397686 -0.10596294 0.14838754
-0.08030274 -0.03474761 -0.10681963 0.15628193 -0.077067494 0.15326045 0.055734977 -0.070960365
0.20334342 0.01689245 0.08753416 -0.0016560215 0.13476466 0.11773027 0.20196351 0.05598647
-0.07015912 -0.058779012 -0.046183378 0.16018446 0.14854664 0.1555281 0.03535943 0.013183522
-0.08454702 -0.03296582 0.21867158 -0.10610964 -0.059091505 -0.11154229 0.09167034 -0.0035221227
0.14497837 0.21474601 -0.043895192 -0.04629563 -0.14460541 -0.11929625 -0.14089881 0.08611279
0.19200842 0.19571185 0.09662521 0.17372075 -0.033482652 0.12006388 0.0851738 0.11003483
0.1570888 0.12392725 0.018382752 -0.008717913 0.1418765 0.12732369 -0.09956688 0.050240584
-0.020888127 0.09561372 0.06684537 0.026742948 -0.083690226 0.021467438 -0.019422706 0.10797132
0.14624624 -0.05144051 0.025345154 0.1772393 0.1262133 0.094497934 0.06051618 0.08490529
0.14782177 0.122533135 -0.0610451 0.11837917 0.13530293 0.038175132 0.15825236 0.11074453
-0.09924255 0.08963757 -0.084500715 0.02489624 0.12956446 -0.06572635 0.10774881 0.10208899
-0.07064331 -0.084665604 0.16758172 -0.104199015 -0.033916976 0.080451936 -0.117916785 0.027334498
-0.017188454 0.14226021 0.16244473 0.020613253 0.116209395 -0.07756089 0.08811808 -0.00473401
0.08363001 -0.10201416 -0.026970252 0.05023224 0.004636699 -0.1197121 -0.03591677 0.09286145
-0.12066588 -0.022566715 -0.02819967 0.1293976 0.0612649 -0.014402298 0.037302118 -0.0365739
-0.10807687 0.077118814 0.16877359 0.15236731 -0.03599634 0.10599404 -0.0681206 -0.006877044
0.0853335 0.10526534 -0.001936892 0.16550356 -0.15526004 -0.07202606 0.041351546 -0.080017105
0.0854037 0.109806985 -0.15170151 0.0963175 -0.057992462 -0.16465639 -0.12007094 0.0144185955
-0.028486442 -0.123109415 0.07940614 0.088711165 -0.031713486 0.116359144 -0.06239058 -0.021536186
0.020626511 -0.06606775 0.057767995 -0.042170435 -0.009225469 -0.0013987527 0.005401346 -0.08554096
-0.12954497 -0.05659725 -0.11481033 -0.07053339 -0.04819826 -0.05465301 -0.10853232 0.16856137
-0.15814973 -0.18549319 -0.044641703 -0.11714436 -0.09167687 0.018373469 -0.13135922 -0.08620153
0.11186997 -0.026973333 0.090699755 -0.017154178 -0.11419304 0.07633716 -0.1257086 -0.04799399
0.087618686 0.08758098 -0.10884117 -0.13557595 -0.1155395 -0.041236337 0.080045566 0.13530979
0.11703478 -0.11336939 0.037815116 -0.039829127 0.11350594 0.0050802864 -0.05665014 -0.026236305
-0.077014096 0.13296938 -0.12014881 -0.03520195 -0.14559737 -0.12237897 -0.040855516 -0.027401442

Q1.conv.net.0.bias f4 [3]
00000000: 723f 3e3c b153 633c d95f 51b9
0.011611806 0.013874934 -0.00019967499

Q1.conv.net.3.weight f4 [6, 3, 3, 3]
00000000: f640 c6be 231a e2bd 26d3 0b3e d24b cf3e
00000010: bad6 f13e 5b99 2f3e 1b58 55be 1817 84be
00000020: cee3 013f e5b2 953c 09ba 803e 6db9 4e3e
00000030: 4fa6 683e ad62 c8bd 492e c0be 14b5 083f
00000040: 9a9b ee3e c5e6 dcbd 7993 eb3e 9382 84be
00000050: 208d dabe 9281 0a3d 934d 473e db3b 8abe
00000060: c0ba ef3e 7509 953e d11a 983e 4723 40be
00000070: 85c2 a03d 61b6 9ebc 6c98 ea3e f561 fa3e
00000080: 074d 47be f722 3abe e532 cfbd 4953 603d
00000090: 69b2 fa3e a0b0 1a3d df5e d7be d043 1d3e
000000a0: a474 7abe 358a 52bc dee1 a63e 01c9 afbd
000000b0: 9ce2 5c3e 08f6 693e e57c f4bd cd75 e73e
000000c0: 87c1 0e3d 294f cd3e dbc1 92bd f18e 5a3c
000000d0: 2000 46be a2a0 54be 058d bd3e bf2c 3ebe
000000e0: bcda dd3d 1365 4b3d 76f8 4abd 0cc0 cdbd
000000f0: bc6b 96be 88e3 593e 91f4 733d 9a42 b8be
00000100: 0595 563e 0929 a73e 0b89 e0bc e467 37bd
00000110: 8f63 73be bfad 2f3d 74e5 953e 8b0a 563e
00000120: d166 d1bd ed2b f43e 4bc3 e43a a99a b8bd
00000130: e786 aabd f563 413e 4b71 7f3c 75d0 babe
00000140: 5e20 9abe 3d73 debe d843 1dbd b62b be3e
00000150: 92c5 633e 20a0 3b3d c645 8e3e 86c5 4fbe
00000160: 5acd 86bd 3708 ae3e 24a2 eb3d ae63 413e
00000170: 1e47 213d 3a81 413d a3a0 d83e e34a 833e
00000180: e860 c73e efae c33b afb1 9c3e 887c 8bbe
00000190: d003 ce3e b56a 7f3d ab4f 69be 2eea 84be
000001a0: e7ee e3bd 854c e33e 42cf b4bd adcc bcbe
000001b0: 8596 4c3e c8cd 473e 0a49 a93e 694f 003f
000001c0: 9c1f 41be a0fc f63e 3e59 443e 2396 713e
000001d0: aa39 8c3e 45a1 b8be 3be6 843d 4e37 b3be
000001e0: bec8 d93e 75a4 e23d 6ca7 973e 5938 10be
000001f0: b105 85be 4438 663e 88c6 b6bd ac57 92be
00000200: 0f9f a3bd 47a0 933e d052 74be b822 a8be
00000210: ad85 76be f01f a33e fe67 503e 057c b73e
00000220: af33 8ebe 1ee9 893e 3070 d4be e855 393e
00000230: 4a96 44be c363 5f3e 53c5 c13d 5613 00be
00000240: 1d27 71bd 7afd 93be 219f 173c 6217 69bb
00000250: 984b 7c3e b543 8f3d db21 50be 2cd7 2e3e
00000260: 7dc2 a0be 7cba 6bbe 46d9 60be b236 b6bd
00000270: 7799 b13e fafd 973e 602b 093b df2c e63e
00000280: 786e 7cbe 0c29 ecbe
-0.38721436 -0.110401414 0.13654765 0.40487534 0.47234136 0.17148344 -0.20834391 -0.2579887
0.5073823 0.01827378 0.25141934 0.20187922 0.22719692 -0.09784446 -0.37535313 0.53401303
0.4660309 -0.10786203 0.4601095 -0.2588087 -0.42685795 0.033814974 0.19463186 -0.2699879
0.46822166 0.29108778 0.2970796 -0.18763457 0.07849602 -0.019374074 0.45819414 0.4890286
-0.19462977 -0.181774 -0.10117129 0.054766927 0.4896424 0.0377661 -0.42064568 0.153579
-0.24458557 -0.012850334 0.32594198 -0.0858326 0.2157082 0.2284776 -0.11937884 0.45207062
0.03485253 0.40099457 -0.07165881 0.013339744 -0.19335985 -0.20764402 0.37021652 -0.18571757
0.10832736 0.04965694 -0.049553357 -0.10046396 -0.2937907 0.21278203 0.05955941 -0.35988313
0.20955284 0.32648495 -0.027409097 -0.044776812 -0.23768447 0.042890307 0.2927662 0.2090246
-0.10224689 0.47689763 0.0017453221 -0.09013874 -0.08326512 0.18885787 0.015590976 -0.36487165
-0.3010282 -0.43447295 -0.03839478 0.37142724 0.22243336 0.045807004 0.27787608 -0.20290193
-0.065821365 0.33990642 0.11505535 0.18885681 0.039374463 0.04724238 0.42310056 0.25643072
0.3894112 0.0059717814 0.30604312 -0.27243447 0.40237284 0.062357623 -0.22784297 -0.25959915
-0.111295514 0.44394317 -0.08828594 -0.36874905 0.19979294 0.19512093 0.33063537 0.5012117
-0.18859714 0.48239613 0.19174668 0.23592429 0.27387744 -0.3606054 0.064892255 -0.35003132
0.42535967 0.11066524 0.2961992 -0.14083995 -0.25980905 0.22482401 -0.089245856 -0.28582513
-0.079893224 0.2883322 -0.23859715 -0.32838988 -0.24074431 0.31860304 0.2035217 0.35836807
-0.27773806 0.26935667 -0.41491842 0.18099177 -0.19197956 0.218154 0.09461465 -0.12507376
-0.058875192 -0.28904325 0.009254248 -0.0035566916 0.24638212 0.06995336 -0.20325415 0.17074269
-0.31398383 -0.23020357 -0.21957883 -0.08897151 0.34687397 0.29685956 0.0020930395 0.4495611
-0.24651515 -0.46125066

Q1.conv.net.3.bias f4 [6]
00000000: 9d49 ccb9 9f68 4b3c 4395 23bc c5c8 633c
00000010: 86b8 6f3c 8609 f2bc
-0.00038964758 0.01241508 -0.009984317 0.013902848 0.014631396 -0.029545557

Q1.conv.net.6.weight f4 [6, 6, 3, 3]
00000000: e0a1 793e e9d3 5d3e 82a1 24be 0fb6 58be
00000010: 2abf 32be 61a1 6bbe 0d9d ed3d 4f5a 0ebe
00000020: 2715 a53e 581f 393e 0bcb 4ebd 2363 5fbe
00000030: 48c0 463e aed6 79be 0341 853e 4cd3 78be
00000040: 7e4b 8c3e b126 36be fcf1 7dbd 46d2 8f3e
00000050: fe74 7abe 907b 62be 98a1 c0bd b587 93bd
00000060: 20cc 5fbe 46ee c93c f8ca 923e 98c3 8ebe
00000070: 3520 243e 15ef 7b3d 762e 36be aaa6 14be
00000080: 416c 033e 6aea d13d 99bf 763c 638d 7dbe
00000090: 5542 063e ea76 85be e0eb 75be 14a8 03be
000000a0: 7fd9 98be 3144 8d3e 1c07 a93e e020 94be
000000b0: 00e8 053e 99ea 64be 29ef 4bbe ee04 893d
000000c0: c17e e23d 835d ff3d cfc0 3d3d 220f 9a3e
000000d0: cd42 82bc 8078 003e ea57 7bbe adfc 633e
000000e0: feca af3e 7ae4 9cbe f2da 303e f5d5 843e
000000f0: 38cd 62be c9ec 83be 59ef 1ebe ce5f 303e
00000100: f689 a53e d5ec 25bd 9b03 a33e c242 743e
00000110: 4d88 413c d37e 923e c745 ef3d df13 9d3e
00000120: 8cf7 d03b e328 813d e7ce 93be f43f 82be
00000130: 1d26 76be b93f 5c3e 8573 583d e13f 3b3e
00000140: 2e85 243e ef47 0fbe 9d67 a83e 2f62 d33d
00000150: dc2e 823e ac3a 89be 6f7b 0bbe 4ee9 ccbc
00000160: 9e38 3b3e 1fd5 063e ec27 4b3e 8938 c4bd
00000170: 63e7 dbbc feda 8f3e d98f 5cbe 9ad0 f63d
00000180: 81e8 3ebe 7a36 92be 1390 2f3e 705c f43d
00000190: 9340 c6bd c218 9e3e 7982 93be a395 02be
000001a0: 6cc6 4ebe 9b6b 823d add9 1a3e 3d6f 99be
000001b0: d3e0 2fbe f9d5 5fbd 4bad 123e a38b fe3d
000001c0: 6c1c 753e 729c 6f3e 25d6 053d 4391 43bd
000001d0: 1678 92bd ecf8 9abd a5b1 163e ce5a bb3d
000001e0: aaab 0ebe 69a7 7cbd ce9d a03e c05b 6f3e
000001f0: 755a 9b3e a781 50be 0ea1 933e ebd3 61be
00000200: d60d 1dbd c72f 9abe 31f3 43be caac 163e
00000210: 53be 60be 593b 94bd 8686 643e 13eb bcbc
00000220: 5a98 98be d932 a33d 77c0 7d3e dc8c 7cbe
00000230: a856 933e f194 7a3e db2f 7b3e ae46 ad3d
00000240: 6d60 f63d 76b9 6b3e 876d a03c 50a3 a33d
00000250: ebdd 04be 67fd 963e fa73 86be 77fc 58bd
00000260: 9564 9e3e 424e 0bbe 04e1 8c3e 2104 783e
00000270: d8ed 4fbe ef73 0dbe d00b b83d 1553 e23d
00000280: 056a 69be fdbf a73c 5c04 0d3e 36d4 4bbe
00000290: e18a b63d 6898 f1bd f6e0 88bc 3702 a33e
000002a0: db50 99be ef3f 8bbd d31d 3bbe 9317 383e
000002b0: b48c 643e a2df 633e 72fa 863e fafa 903e
000002c0: aed2 49be a015 60be 8b7a a1be 800e f33d
000002d0: 3bc7 93be ff1d 7d3d 6ba0 ad3e 9e9d 5ebe
000002e0: e8c2 963e 67c4 733e 5e49 4cbe 62f9 57bc
000002f0: 272a ba3d 7045 36be 1976 a23e aff1 af3e
00000300: b7ff 383e d77e dd3d 88fa 7cbd b1f8 063e
00000310: c02a 74be 064b bb3c 7f10 953e 0794 34be
00000320: f561 093d 823e 7a3d 6a45 8ebe f65f 1b3e
00000330: c7e1 a93e 3b53 1a3e 3a1f 843e 00a6 463d
00000340: cfaf 9dbd dfa9 353c ebce a73e da7f 193e
00000350: 01c6 e83c 0943 6abe d60d 9b3e 911e 8b3c
00000360: 5743 f93d 8adb afbd d2cb 17be ef0b 60be
00000370: ffbc c13d d0b6 87be 9125 e7bc 58a7 67bc
00000380: 0f22 68be a5ab b33d d534 903e ebcb 08be
00000390: 0093 e3bd 617f 73be b1e5 7c3c d07a 873e
000003a0: 2d11 a43e 322a 043e 7946 483d ca88 1ebe
000003b0: 5bc8 0b3e b778 abbd 3089 2b3e 9889 01bd
000003c0: 7bb5 483e 54a2 37be 4c72 8cbe c2fc bebd
000003d0: cdcb f93d 6203 4abe 1ea6 763e dd3e a2be
000003e0: e171 7bbe 6bc3 74be 736c 883d 18eb c5bd
000003f0: 5735 fd3d 8278 b13e e3a4 70be f8f0 af3e
0.24378157 0.21662869 -0.16077235 -0.211632 -0.17455736 -0.2301078 0.11602221 -0.13901637
0.322427 0.18078363 -0.050486606 -0.21815161 0.19409287 -0.243983 0.26026163 -0.24299353
0.27401346 -0.17788197 -0.061998352 0.28090113 -0.24458691 -0.22117448 -0.094058216 -0.072036184
-0.21855211 0.02464975 0.28670478 -0.278836 0.16027911 0.061507303 -0.17791161 -0.14516702
0.12834264 0.10249789 0.015060329 -0.24760966 0.13111241 -0.26067287 -0.2401576 -0.12857085
-0.29853436 0.27591088 0.33013237 -0.28931332 0.13076782 -0.22355117 -0.19915451 0.066903934
0.11059333 0.12469008 0.046326455 0.3008967 -0.015900994 0.12545967 -0.24545255 0.22264357
0.34334558 -0.30643064 0.17271021 0.25944486 -0.22148597 -0.2576659 -0.15520991 0.17224047
0.32331818 -0.040509064 0.31838688 0.23853591 0.011812282 0.28612384 0.11683231 0.30679223
0.006377166 0.06306627 -0.2886879 -0.25439417 -0.24037977 0.21508683 0.052844543 0.18286087
0.16066429 -0.13992284 0.3289155 0.103214614 0.25426376 -0.26802576 -0.13621305 -0.025013592
0.18283316 0.13167237 0.19839448 -0.09581096 -0.026843732 0.28096765 -0.21539249 0.12051506
-0.1864338 -0.28557187 0.17144804 0.119316936 -0.09680285 0.30878264 -0.2881048 -0.12752394
-0.2019288 0.0636818 0.15122099 -0.2996768 -0.17175607 -0.05464742 0.14323919 0.12428977
0.23936623 0.23399523 0.032674927 -0.047745954 -0.07151811 -0.07567009 0.14716204 0.09148179
-0.13932672 -0.061683092 0.31370395 0.23374844 0.3034245 -0.20361958 0.28833812 -0.22053497
-0.038343273 -0.30114576 -0.19135739 0.14714351 -0.21947603 -0.07237882 0.22316942 -0.02306131
-0.29803735 0.07968683 0.24780451 -0.24663109 0.2877705 0.24470879 0.24529974 0.08460747
0.120301105 0.23019966 0.019583477 0.07990134 -0.1297528 0.29490206 -0.26260358 -0.052975144
0.30936113 -0.13604072 0.27515423 0.24220325 -0.20305574 -0.13813756 0.08986628 0.11051003
-0.2279435 0.02047729 0.13771194 -0.19905171 0.08913208 -0.11796647 -0.016708832 0.31837627
-0.299445 -0.06799304 -0.18273096 0.17977743 0.22319299 0.22253278 0.2636295 0.2831648
-0.19709274 -0.2188325 -0.31538805 0.11868 -0.28862938 0.061796185 0.33911452 -0.21739814
0.29445577 0.2380539 -0.19949862 -0.013182016 0.09090071 -0.17799926 0.31730726 0.34364077
0.18066297 0.108152084 -0.061762363 0.13180806 -0.23844433 0.022862922 0.29114148 -0.17634593
0.033540685 0.06109477 -0.27787334 0.15173325 0.33180067 0.15070812 0.25805074 0.048498154
-0.076995485 0.011087864 0.32775053 0.14990178 0.028414728 -0.22877134 0.30283993 0.016982349
0.12171047 -0.08586796 -0.14823845 -0.21879552 0.09459876 -0.26506662 -0.028216155 -0.014139019
-0.22669242 0.08772973 0.28165308 -0.13359039 -0.111120224 -0.2377906 0.015435622 0.26460886
0.32044354 0.12906721 0.048895333 -0.15481868 0.13650648 -0.08372634 0.16751552 -0.03162536
0.1960048 -0.17933017 -0.27430952 -0.093255535 0.12197075 -0.19727853 0.24086806 -0.31688586
-0.2455516 -0.23902671 0.0666131 -0.09663981 0.123636894 0.34662253 -0.235004 0.34363532

Q1.conv.net.6.bias f4 [6]
00000000: 89aa 983c 5c06 443c f287 8a3c 36b1 693c
00000010: 099d a83c d110 393c
0.018636005 0.011964407 0.016910527 0.014263442 0.020582693 0.011295513

Q1.a_head.0.weight f4 [128, 294]
00000000: bd7c a2bc 62bf 0dbd 3755 933c 23f6 243b
00000010: bc53 8c3c 8e07 143d 16dc 21bd 8ff0 aa3c
00000020: 4972 91bc 4eb5 9bbb c891 c6bc 303e 3f3c
00000030: 672c 24bd 851c 093d b4f3 493d b618 cbbc
00000040: dc10 923b e201 523d 25b0 4ebd cab5 30bc
00000050: d68c 213b 24b7 cebc 910b a0bb 64f9 063d
00000060: 99cf 8fba 4acf 36bd 1279 bb3c 5910 0e3d
00000070: 9ff7 203c 9337 1c3d 5a96 33bd 5c8b 0b3b
00000080: c446 2bbd 558e 59bd d4a1 9cbc eb13 51bc
00000090: 575f 4dbd 065b 69bd d9d2 f5bc 7954 253d
000000a0: e085 10bd 695c 03bd 95af 58bc 93db cbbc
000000b0: a7a9 efbc 9dbe 00bc 0b69 d53c eb6d ba3c
000000c0: 50ce 2dbd 39e8 1dbc 9090 2abd 51fb a6bc
000000d0: 6d33 693d fe6e 13bd 350e a4bc c0da 3fbc
000000e0: 6d2a 343d 4180 10bd 0dcd 62bd e922 923c
000000f0: 5719 f3bc 3fa1 c23c 9805 143d 23f5 3cbc
00000100: e85c 013d bed5 a9b9 b488 293d 8a84 29bd
00000110: 796c 84ba c8b4 3fbd 2f65 ccbb c739 433d
00000120: 6764 c33c 7439 b73c d00e 213d b640 0ebd
00000130: f355 9a3c 84ae 5b3d 41c7 9a3c 6a27 1f3b
00000140: f1d3 29bd 9f4e 2abd 7f02 21bd 05a7 e23c
00000150: 8c6c 29bd a267 43bd b48d df3b 1820 a0bc
00000160: aca6 573d fa84 3cbd 3d50 0ebd b93f 67bd
00000170: cd95 63bd ab2d 62bd 9ce7 303d 7223 0c3d
00000180: 4a05 04bd 5d49 ccbb c8bf c5bc 174a 573d
00000190: 2ee0 69bd e104 83bc fab9 463c fa93 f23c
000001a0: a2b5 c7bc 27e8 57bd 43c3 183d aa52 023d
000001b0: 6c11 a9bc dc8f 28bd bb82 b1bc e238 8f3c
000001c0: 3008 01bb 9f76 ba3c b0b9 a53c d8a1 2f3c
000001d0: 785a 1abc 004f f6b9 795b 4cbd 1b6b cfbc
000001e0: 8015 383c 856a 263c df93 6ebd 215b ae3c
000001f0: 2a80 5dbd 3d2e b2bc 1858 513c b1ef 113d
00000200: d292 4cbd 8004 da3b 8a4e 513d d4e8 5b3c
00000210: 1ff6 913c d55a 3bbd b6c0 103d cc83 81bc
00000220: 28aa 563c 3146 1cbd 59a2 b83c b633 02bd
00000230: a8a5 a8bb bbd8 a6bc 85b1 563d 1ad3 6abd
00000240: b1b3 4a3d 23e3 18bd 9f77 d5bc 0e55 1b3d
00000250: 60ea 18bd a7af 0e3d 5435 47bd 0cb8 09bd
00000260: daa8 bdba 1b70 21bd 902e 2cbd 399e cabb
00000270: 96df a9bc 1f89 373c 9589 1d3d 6109 633c
00000280: 44f4 413c 7496 5fbc ed17 9d3c 6d36 bbbc
00000290: 9fab 293d 7fd0 6e3d 95ed ccbc 5558 09bd
000002a0: d3c0 2e3d 5b3c 233d 5242 84bc c50d 22bd
000002b0: 5db3 debc fff8 ea3b cd07 1dbd 17e1 1b3d
000002c0: 9abf d33c 3444 29bc ef0e 333d 02f3 173d
000002d0: b728 b73b 37b3 a7bc f2b4 c4bc 3528 dc3c
000002e0: 6ece 533d 265d ff3b 0711 343d f3f5 353b
000002f0: b802 3ebd 5f82 28bd 5fdf 523b 3b57 3abb
00000300: e6ca 70bc 6e1a 623d 323a 4f3d a1d6 373d
00000310: 11e8 57bd ecc1 65bd e22c 55bb 8353 debc
00000320: a5b7 a23c 6769 1cbc bdd4 efbc 3ab8 67bb
00000330: bfea 65bd a563 153d 1153 65bc 20ce 1f3d
00000340: 2655 723c 1cab a5bc 71d1 5b3d 8bd0 153d
00000350: 6243 00bc 062a 4a3d 3b27 b8bb f949 fa3c
00000360: 860e 17bd 6206 a83c 7a07 333d 3e50 5f3d
00000370: fbb9 97bc d786 03bd dcfe 043b f8da 6d3d
00000380: ed4d fc3c cee7 e83c 87cd b13c 5752 283d
00000390: a388 553d 8022 443d 666a 69bd 9d96 99bc
000003a0: 2e51 aabc b3e8 4ebc 4d34 1dbd 4b84 11bd
000003b0: 3078 d4bc e04a a3bc 3ce4 0e3d a8a5 0dbd
000003c0: 4a26 403d f95f c2bc 254b 4bbd 9666 be3c
000003d0: ebac 513d d9e6 dfbc 36cf 87bc 235b 5a3d
000003e0: bbd6 34bd edb4 bbbb dfb3 04bd 0d9e 1b3d
000003f0: 8f49 643b 03aa d83b 6afc 0cba 989f 083d
-0.01983487 -0.034606345 0.01798497 0.0025171123 0.017129771 0.036140017 -0.03951653 0.02086666
-0.01775469 -0.004751838 -0.024239436 0.0116725415 -0.040081408 0.033474464 0.04930468 -0.024792057
0.004457576 0.051271327 -0.050460953 -0.010785529 0.0024650595 -0.025233813 -0.0048841913 0.03295268
-0.0010971903 -0.04463128 0.02288488 0.03468356 0.0098246625 0.038138937 -0.04384456 0.0021292781
-0.041815534 -0.053114254 -0.019120134 -0.0127610965 -0.05013975 -0.056971572 -0.030007767 0.040363763
-0.035283923 -0.03207055 -0.013225456 -0.024884975 -0.029255701 -0.007857946 0.026051065 0.022757491
-0.042433083 -0.009637886 -0.04164177 -0.020383509 0.05693381 -0.035994522 -0.020026306 -0.011709869
0.043985773 -0.035278562 -0.055371333 0.017838912 -0.029675169 0.023758529 0.036138147 -0.0115330545
0.031582743 -0.00032393442 0.041390136 -0.041386165 -0.0010103128 -0.046803266 -0.006237648 0.047662523
0.023851587 0.022366263 0.039320767 -0.034729682 0.018839812 0.053633228 0.01889384 0.0024284967
-0.04146189 -0.041578885 -0.03930902 0.027667532 -0.041363284 -0.047706254 0.0068223123 -0.019546553
0.052649185 -0.046025254 -0.03474449 -0.056457255 -0.055562783 -0.055219334 0.04318963 0.03421349
-0.032231607 -0.0062343315 -0.0241393 0.052560892 -0.05709856 -0.015993537 0.012129301 0.029611576
-0.024378601 -0.052711632 0.03729559 0.031817116 -0.02063819 -0.04115282 -0.021668782 0.017483179
-0.0019688718 0.022761641 0.020230144 0.010719739 -0.0094209835 -0.00046979636 -0.049891923 -0.025319627
0.011235595 0.010157232 -0.05824649 0.021283688 -0.054077305 -0.021750564 0.012777351 0.03562898
-0.049944706 0.0066533685 0.05110029 0.01342221 0.017817555 -0.04574092 0.035340033 -0.015809916
0.013102092 -0.038152877 0.02253835 -0.031787597 -0.005146701 -0.020367017 0.05241539 -0.05733023
0.049487773 -0.03732599 -0.026058016 0.03792291 -0.037332892 0.034835484 -0.048634842 -0.033622786
-0.0014469877 -0.039413553 -0.042036593 -0.0061834124 -0.020736497 0.011202126 0.038461287 0.013857217
0.011838023 -0.013646711 0.019176448 -0.0228531 0.041423436 0.058304306 -0.025015632 -0.033531506
0.04266436 0.03985248 -0.016144905 -0.039563913 -0.027185136 0.007170796 -0.038337518 0.03805646
0.025848199 -0.010331202 0.043715414 0.037096985 0.0055895704 -0.020471198 -0.024012063 0.026874641
0.05171054 0.0077930866 0.04396155 0.0027765005 -0.04638931 -0.041139957 0.0032176597 -0.002843334
-0.014696812 0.055200987 0.05059261 0.04488242 -0.05271155 -0.05609314 -0.0032527973 -0.02713943
0.01986296 -0.009546614 -0.029276246 -0.003535761 -0.056132074 0.03647198 -0.013996855 0.039014935
0.014790809 -0.020223193 0.053666536 0.036575835 -0.007828565 0.049356483 -0.005619911 0.030552851
-0.036879085 0.020510856 0.043708302 0.054519884 -0.0185213 -0.032111015 0.002029351 0.058070153
0.030798877 0.028430846 0.021704448 0.04109415 0.05213226 0.047884464 -0.056986235 -0.018748576
-0.020790663 -0.012628722 -0.038379956 -0.035526555 -0.025936216 -0.019933164 0.03488563 -0.03458181
0.046911515 -0.023727404 -0.04963221 0.023242276 0.051190298 -0.027331756 -0.016578298 0.05330957
-0.044150095 -0.005728355 -0.0323981 0.037992526 0.0034833883 0.006612064 -0.0005378189 0.033355325

Q1.a_head.0.bias f4 [128]
00000000: a2cf a9bc 521a 60bd 2d8b 02bd 33d4 34bb
00000010: acbb d0bb 1d74 fb3c 98d9 e73c c92d e9bc
00000020: 4004 41bd 194f eabc c6d6 163d 52e2 f93c
00000030: 1abc 36bd f087 b4bc 1ea9 143d bb53 203d
00000040: 9fa0 c43c 1bf0 f43c 02c8 b6bb 1d27 ba3b
00000050: 16e5 00bd 4bc8 a03c 4b05 40bd d720 92bb
00000060: 0c25 71bb 7be1 1ebd d2fe 29bd dc98 603d
00000070: feb2 d4ba f3ec cbbc e01a 1a3d 9075 9bbc
00000080: bc1b 8d3a bb14 eebc 7c0f 02bd 61eb 183d
00000090: fe1e 943c caba 673d 7bf3 08bd 41b4 a83c
000000a0: 2fe4 3d3d 687c afbc 8811 6bbd f99a 89bc
000000b0: 468b 73bc ee3b 0ebd bdd2 5b3c 01a6 dabc
000000c0: 15b1 17bd 5b16 1e3d a17f 933c 9d51 61bd
000000d0: 0a6f 553d 1c6f 5d3d 81d6 25bd 8976 f33c
000000e0: 2525 46bc db44 7c3c b324 afbc b265 a9bc
000000f0: 9bc8 03bd cb4b abb9 a187 82bc 8360 f0bb
00000100: 2b2c 56bd 0752 cdbc 3c64 1b3d 6c65 58bd
00000110: 603c 553d 649d f3bc 4222 82bc eee9 303c
00000120: 4e2b 05bd 52c7 3cbb 444f 623b a90f 68bd
00000130: cf76 24bd 59ec f43b 5289 2e3d 6997 413d
00000140: f9ac 3b3c 8f5d 393d d92f 02bd 9d75 0bbd
00000150: e35c 39bd b064 49bd dca0 b9bb 37eb 78bc
00000160: e43a 0f3d 1941 783c de41 03bc e0cd 13bd
00000170: 18e1 773c 281f 293c a571 3abd ee26 333c
00000180: 850c 673d 79ef 143c 5165 cdbc ffb5 1abd
00000190: ebf9 07bd 879f 06bd fcfe 5bbd 35ff 533d
000001a0: 2243 3dbd 6605 073d 8338 393b 3717 e43c
000001b0: 3550 f3bc ea60 89bc bab3 7f3c fb53 a9bb
000001c0: e7e7 16bd f84d 1e3d fba7 3dbc 6153 933c
000001d0: 7550 b1bc 736a 01bd d330 fb3c df56 403d
000001e0: f149 2e3d d7d6 18bd 7407 523d 7453 c93c
000001f0: 527a a2bb 8454 28bd b2d7 f63c 14ec fe3c
-0.02072889 -0.0547126 -0.03187101 -0.00275923 -0.0063700285 0.030695016 0.028301999 -0.028464215
-0.047123194 -0.02860217 0.036825918 0.030503426 -0.04461298 -0.022037476 0.036294095 0.03914235
0.024002371 0.029899647 -0.005578042 0.005680932 -0.031468473 0.019626757 -0.046880048 -0.004459481
-0.0036795763 -0.038789254 -0.04150278 0.054833278 -0.001622766 -0.02489326 0.037623286 -0.018976957
0.0010765712 -0.02906262 -0.03175305 0.03733385 0.018081184 0.05657462 -0.033435326 0.020593764
0.04636019 -0.021421626 -0.057389766 -0.01679753 -0.014864748 -0.034725122 0.013416943 -0.026690485
-0.037034113 0.03859554 0.018005194 -0.055009473 0.05210785 0.05406104 -0.04048777 0.029719608
-0.012093817 0.015397276 -0.021379804 -0.020678375 -0.032173734 -0.00032672132 -0.015933814 -0.007335724
-0.052288216 -0.025063528 0.037937388 -0.0528311 0.05205953 -0.029738136 -0.015885476 0.010797961
-0.032512 -0.0028805328 0.003453211 -0.05665556 -0.040152367 0.007474464 0.042611428 0.047263537
0.011454814 0.04525524 -0.031783912 -0.03404771 -0.0452546 -0.04916829 -0.005664928 -0.015192798
0.03496827 0.015152239 -0.008011309 -0.03608501 0.01512935 0.01032237 -0.045518536 0.0109345745
0.056408424 0.009090298 -0.025072725 -0.03777122 -0.033197325 -0.03286698 -0.05370997 0.051757056
-0.0462066 0.032964133 0.0028262443 0.027843101 -0.029701332 -0.016769845 0.015606815 -0.005167482
-0.036842253 0.038648576 -0.011575694 0.017984094 -0.02164481 -0.03159566 0.03066293 0.046957847
0.042550985 -0.037314262 0.05127664 0.024575926 -0.0049584294 -0.041096225 0.030132148 0.03111843

Q1.a_head.2.weight f4 [6, 128]
00000000: b6b7 51bd 7cf8 1b3d 3a6d ac3d acfb 8ebd
00000010: 0c6b 053d d117 66bd d624 ff3c 68da 9cbd
00000020: 8f07 4fbd 2b87 813d d0ab 733d 4949 95bd
00000030: 70d5 ea3b dc5a 383d ca0e a53d ff0c b43c
00000040: 8618 84bd c709 a63c 3d56 25bc e695 9c3d
00000050: 7c29 703d 377b b239 6b2a 6dbd 16e2 9e3d
00000060: a312 9a3d 77e5 c83b 3f78 a0bd cf4d 25bd
00000070: e7d6 2d3d c6f2 a4bd 1a28 97bd 3f1e d0bc
00000080: 6cb9 963d 230a e0bb 77e9 66bc 3f00 e6bc
00000090: c84a 0a3d 0b19 a23c e538 8b3d 7e3a 6bbc
000000a0: 5fcf 1b3d b5cc 1ebd b824 813c 2661 74bd
000000b0: 0207 6b3a ee38 663d 1229 08bc 7283 6f3d
000000c0: f2f4 8bbd fcee 5ebc d06d 4ebd 0806 8c3d
000000d0: e5da 4abd aebd 92bd 8b3a bfbc 2a9e 3f3d
000000e0: b972 5c3d fbfd 53bd daf3 70bd f633 0e3d
000000f0: 0c03 993d da86 083d a22e a3bd 3d5d 4c3d
00000100: 5187 253d 4d3d b03a 9de8 9abb 56fc 5d3d
00000110: b7f9 563d 0e16 6ebd d643 143d 6c1f 63bd
00000120: 2ca8 2abd 463a a83c 7d14 80bb e450 353d
00000130: 57f6 cfbc 5515 963c aea7 9cbd 64d6 1abb
00000140: 6327 c3bc 2faf a93d c1e6 803c 27d8 40bd
00000150: 2c2b 1dbd 28c9 8d3d 217e 833d 03d1 cebc
00000160: 6e11 99bc c9cd 4e3d 0878 b93c 5807 02bd
00000170: aba6 13bd 6e5c 253d 6edc a33d 3b8f 183d
00000180: db33 97bd a76a 24bd 6b9c fe3c aaed 4cb9
00000190: 8f51 e8bc 172b fc3c 0e2f c8bc 8f47 89bb
000001a0: 1bba 9cbd 59c8 6039 8b41 2c3c ab39 4fbc
000001b0: 0518 b3bd 5be0 c13c e327 98bd 885c a5bd
000001c0: 2c8a 87bc e967 843d 196f 1c3c 6be9 10bd
000001d0: 16bf 2c3d ffca ccbc e409 08bb 192b afbc
000001e0: 490e ffbc ebbe a0bd b8ea 543d e7f9 a63d
000001f0: 9242 9c3d 3931 aa3c 2ca0 79bd 1d6e de3c
00000200: db57 993d 0dc7 8c3d 7222 55bd 5b7a 8b3d
00000210: b15a a5bd 828d 2abd a2e9 dcbc 7b32 413d
00000220: 0426 6aba 2a06 593d c855 013d 919a 8bbc
00000230: 47bb e1bc 244b a63d 7ace 103d 4fe2 283d
00000240: 028d 3dbd 1f71 2d3d db5f 64bc 19af 2b3d
00000250: 1a06 893d ede2 51bd a602 b13c e257 1f3d
00000260: 5088 953c c860 95bd fd25 803d 1f39 92bd
00000270: 78a8 a8bd 5755 0abd c04e 823d 7ba2 b43d
00000280: 40a9 9abc dc7d 883c 6eee 153d 0601 96bc
00000290: 533c 5dbd 001c 713d 6aff 70bd a6db d6bc
000002a0: ef3e 82bd 0d3a 443c 916c 423d 407e c43c
000002b0: 2cf9 b0bc 0a80 01bc 0601 0ebd acba 5fbd
000002c0: 879e 023d eea2 253d 1a25 22bd 6224 703d
000002d0: 57bb 72bd f95f a2bd 27b8 2e3d 1f7e 83bd
000002e0: 967a 393d 2d02 61bd 9a2c 8d3d 1cc7 0dbd
000002f0: 0db8 c83c 94c3 113d 2ea8 dcbb 5b1c 163d
00000300: 0c0b e8bc 3673 3ebd 91a1 03ba a6c8 abbd
00000310: 840b 993d ab78 8c3c d0af ea3c 6580 f63c
00000320: 1225 a63c e2dc 8f3d 3521 0e3c 1a23 653d
00000330: a0e1 62bd a388 af3b 07c3 a6bd 0629 7ebb
00000340: d0cd 35bd dfad 3dbd f06b 003c 65f0 8abd
00000350: 62fd 1e3c 178d 90bd 2705 df3c 79bc adbc
00000360: 6b16 28bc e6ae 52bd e8a0 a5bc 15f5 503c
00000370: 8cd0 a33d 5ff4 fdbc 12ee 9bbd 34c0 cbbc
00000380: c07a 4a3d 5d5e 7d3d 197b 01bd 43cb 563d
00000390: b0bc 8dbd 0428 b5bc 3824 1bbd f824 8836
000003a0: 056c 423d 165f 82bb e047 ce3c efa3 3abd
000003b0: 254e 6cbd de12 903d caae 4c3d c688 ed3c
000003c0: 6304 923d e341 a93d 1a33 293d 9c44 203d
000003d0: 675b 72bd 18ab 843d eb16 30bd 3f04 863c
000003e0: 8759 58bd 985e d93c cf3f 88bd c6bb 9d3d
000003f0: 0b74 7abd bb3e a0bd ce39 1ebd 1f7d 77bb
-0.05120059 0.03807877 0.08419271 -0.06981596 0.03257279 -0.056175057 0.031145494 -0.07658845
-0.050544318 0.06324609 0.059490025 -0.07289369 0.007166557 0.045008525 0.080594614 0.021978853
-0.0644999 0.020268334 -0.010091362 0.07645778 0.058633313 0.00034042608 -0.05790178 0.07757966
0.07523086 0.00613087 -0.07835435 -0.040357407 0.042441275 -0.08054118 -0.07380696 -0.025405047
0.07359585 -0.006837146 -0.014093748 -0.02807629 0.033762723 0.019787332 0.06797961 -0.014357207
0.03803956 -0.038769443 0.01576458 -0.05966296 0.0008965583 0.056206636 -0.008310573 0.058474965
-0.06833829 -0.013606783 -0.050397694 0.06837088 -0.04952516 -0.07165085 -0.023343345 0.046781696
0.053820346 -0.051755887 -0.058826305 0.034717523 0.07471284 0.03333173 -0.07967879 0.049893606
0.04041225 0.0013446003 -0.0047274367 0.054195724 0.05248424 -0.0581265 0.036197506 -0.055449888
-0.041664287 0.0205356 -0.0039086924 0.044266596 -0.025386019 0.018320719 -0.0764917 -0.0023626322
-0.023822492 0.08285367 0.015735032 -0.04708114 -0.03837125 0.06923133 0.064205416 -0.025246149
-0.018685069 0.05048922 0.022640243 -0.031745285 -0.03604762 0.04037135 0.08001028 0.03724597
-0.073829375 -0.040140774 0.031080445 -0.00019543493 -0.028359203 0.030782266 -0.0244365 -0.0041894387
-0.07652684 0.0002143694 0.010513674 -0.012648026 -0.08744816 0.023666551 -0.07429483 -0.080742896
-0.016545378 0.06465132 0.009547972 -0.035378855 0.04217442 -0.02499914 -0.0020757848 -0.021382855
-0.031134741 -0.07848915 0.051981658 0.08153134 0.07629885 0.020775424 -0.060943767 0.027152115
0.0748746 0.068739034 -0.052034803 0.06810447 -0.08073939 -0.04163886 -0.026966874 0.047167283
-0.00089320564 0.052984394 0.031575948 -0.017041476 -0.027555121 0.08119801 0.03535316 0.04123145
-0.046277054 0.04234421 -0.013938869 0.041915033 0.06690617 -0.051241804 0.021607708 0.03890217
0.018253475 -0.0729385 0.06257246 -0.07139801 -0.08235258 -0.033772793 0.063626766 0.08820053
-0.018879533 0.016661577 0.036604337 -0.018311035 -0.054012608 0.058864594 -0.05883733 -0.026227783
-0.0635966 0.011976731 0.04746682 0.023985982 -0.02160319 -0.007904062 -0.034668945 -0.054621384
0.031889465 0.040438585 -0.039586164 0.058628447 -0.059260692 -0.079284616 0.04265609 -0.0642054
0.045282923 -0.054933716 0.06893273 -0.034613714 0.024501825 0.03558691 -0.006733916 0.036648136
-0.02832558 -0.046496592 -0.00050213287 -0.0838788 0.074728996 0.017147383 0.028648287 0.03009052
0.020281348 0.07024552 0.008674909 0.05594168 -0.055390954 0.0053568645 -0.08142667 -0.0038781776
-0.04438573 -0.046308395 0.007838234 -0.06784133 0.009703966 -0.07058161 0.027224137 -0.021208035
-0.010259251 -0.051436327 -0.020218328 0.012753745 0.079987615 -0.031000314 -0.07613768 -0.024871923
0.04943347 0.06185757 -0.031611536 0.05243994 -0.06920755 -0.022113807 -0.037876338 4.0574196e-06
0.047466297 -0.0039786203 0.025180757 -0.045566496 -0.057691712 0.07034849 0.04997138 0.028995883
0.07129743 0.0826452 0.0413085 0.03912793 -0.0591692 0.06477946 -0.042990606 0.016359447
-0.052819755 0.026534364 -0.066527955 0.077018306 -0.061145823 -0.07824465 -0.038629346 -0.0037763787

Q1.a_head.2.bias f4 [6]
00000000: bc97 a53d 1926 dd3c 1688 dbbb 964c 7dbd
00000010: 83f3 ec3c bede 98bd
0.08085582 0.026995705 -0.0066995723 -0.061840616 0.02892471 -0.0746436

Q1.v_head.0.weight f4 [128, 294]
00000000: 0f78 e1bb c524 d6bc 152d 203d 08df 7cbd
00000010: b373 52bd 7b02 973c a443 f7bb fd50 62bd
00000020: bc04 92bc c064 f33c eba8 be3c 8a7a 3dbc
00000030: b564 caba cc5b 15bd 22f0 343d a61f 0fbc
00000040: a063 2c3d 7e38 ebbc e891 83bc 74cb 1b3d
00000050: 955e 88bb e232 dd3c 0478 90bc 7c8c 92bc
00000060: 61b5 56bc 1b63 7fbd f803 7bbc 7f67 25bd
00000070: 66f0 703c 4629 aa3c 4fe9 313d fe52 503b
00000080: c473 abbc ec72 3f3d 772e ddbc 7f36 4bbc
00000090: e33e f2bc a777 b43c 1d20 2ebd dc73 113b
000000a0: 0702 8cbc f12f 053d 0f55 963c 140d bfba
000000b0: 4bfc 27bc a6ba d8bc eb8a ab3a 24e0 3dbc
000000c0: 9702 0b3d 119d 16bc b9da 1bbd 5d3d 503d
000000d0: c1b2 443b e515 7b3c 428f 1e3d e4fc 46bd
000000e0: 1056 373d 5a9b 4cbc 4bc4 2abd 5e3c 113d
000000f0: 432f 4fbc 2fdc 2f3d 7da3 ea3b 1a96 1c3d
00000100: 5ec8 07bd db5a 073c 233f ca3b e98c 6ebd
00000110: 43bc e1bc eb95 1bbd 3f32 2e3d dde0 b63b
00000120: 26a2 35bd 0957 603d a495 0cbd ae63 d8bc
00000130: 0534 173d e5a7 1cbd 953a 2cbd 110c 3fbb
00000140: 6abd c9bc bf34 afbc dcb5 f03c 186e 03bd
00000150: 423b 52bd 701e 283c 2156 cc3c 53e5 7fbd
00000160: 7c40 3fbd f20f 4e3d 16d4 3e3d 281f 1f3d
00000170: 7df0 373c 06df e4bc 698f 243d 1a7d 3ebd
00000180: 2f86 f5bc 8aaf 2c3d 0f3f 9dbc be8b dabc
00000190: 26e4 a93c a69b 50bd 518e 57b9 f898 c4bc
000001a0: 4b1d e73b 03d4 3f3d 6f7e 7abb e5e2 873c
000001b0: 33e4 63bc 9a2e 02bd dbd9 fdbc 279a 2ebd
000001c0: 0a0d 60bc 8120 7bbd 21ec 45bc 783e f33a
000001d0: 3a61 82bc 6966 2bbd baca 53bd b988 4c3d
000001e0: 499c 4cbd 9f85 513d 6785 00bc 9c58 a23c
000001f0: 36d3 8bba 606f 7dbc 8f08 97bc 6906 19bd
00000200: 6683 9ebc a979 2c3d fb87 1abd 7276 003d
00000210: ee17 363d 9551 bc3b 39c6 67bc 644c 0abd
00000220: b580 b43c b8fa 9dbc b7ec 463c a3e9 3b3d
00000230: bebd 82bc a881 0a3d 1a9b 543d cb13 d1bb
00000240: 238a 9abb b659 1a3c cabf a5bb 8695 27bd
00000250: eee1 a73c 2861 043d 9e94 443c 20b2 1cbd
00000260: 5b6f 06bd 0b45 43bd c533 6fbc a897 523d
00000270: 4a1e df3c 995b 9fbc de92 1f3d 9b51 bbbc
00000280: ed18 52bd 228f d73c 0ed1 9c3c 541a 353d
00000290: 0da7 303d ac03 33bd 2f3e a0bc a4cd 333d
000002a0: dadf 6abd 6841 4f3c fb43 a53c 1c1a 6d3d
000002b0: 26cd 203d d37f 9a3c 3a6c 3b3d 279a 94bb
000002c0: 98ce 4fbd 915d b43c 9d17 4f3d 99a7 1a3d
000002d0: 1b5e 33bd 8206 46bd 9195 143d ae3c 1abd
000002e0: 185b 193c 1b73 d6bc e0a9 443d e3e8 6abd
000002f0: 8ed8 9a3c 016b d8bc 57a5 09bd 7010 213d
00000300: d71c 25bd 8c1f 85bc ce1b 4b3d 31a3 ae3a
00000310: f366 283d 3384 8e3c e667 45bd 8d93 7cbd
00000320: f04e 1cbd a863 4c3d f1fe 053d 5088 1a3c
00000330: fe00 cc3c 20e1 cebc 0c54 4d3d 23c4 27bc
00000340: d92e 333d bedb 41bd 4a43 75bd d82a 71bb
00000350: c3b8 f2bc 30bc 00bd 97b3 dbbc 7db9 1cbd
00000360: 6083 19bb d948 5ebd a904 1c3d a4f3 21bd
00000370: 915c 6cbd a248 2c3d 1201 4fbd 7278 ba3c
00000380: b3a4 263d 005f 1cbd f4ad feba 7063 15bd
00000390: a73a 523d ec19 293d 4422 ae3c 4d27 093d
000003a0: 8b2a bc3c c9da 4e3d 32af ad3b 7daa e13c
000003b0: 3d8f 033d 014d 1a3d 0c82 46bd 2f44 ea3c
000003c0: 4caf 2a3d 992d 093d 24de 043d 6d38 e1bc
000003d0: 3ee3 d93c 0880 c8bc 9017 fabc f604 ee3c
000003e0: e373 443c e1d8 a7bc a3e9 10bc ffdf 40bb
000003f0: 7ca7 4e3d 219e e83b 7fcc dc3c b4dc 323d
-0.006880767 -0.02614058 0.039105494 -0.061736137 -0.05137987 0.0184338 -0.007545905 -0.055253018
-0.017824523 0.029711127 0.023273906 -0.01156486 -0.001544139 -0.036464497 0.04417432 -0.008735573
0.042087197 -0.028713461 -0.016060784 0.038035825 -0.0041616657 0.027001802 -0.017635353 -0.017889254
-0.013104768 -0.062350374 -0.01532077 -0.040381905 0.014705753 0.020771634 0.04343539 0.0031787748
-0.020929225 0.046740457 -0.026999695 -0.01240313 -0.029571002 0.022029711 -0.042511094 0.0022194302
-0.01709081 0.032516424 0.018351106 -0.0014576041 -0.010253022 -0.026456188 0.0013087665 -0.011589084
0.033938017 -0.009192721 -0.038050387 0.05083977 0.0030013772 0.015325044 0.03871084 -0.04858102
0.04475981 -0.012488211 -0.041691106 0.03545796 -0.012645545 0.042934593 0.0071606026 0.038229086
-0.03315007 0.008261408 0.0061720773 -0.05823985 -0.02755559 -0.03798477 0.042528387 0.005581005
-0.04434409 0.054770503 -0.034322396 -0.026414718 0.036914844 -0.038246054 -0.042048056 -0.002915148
-0.024626452 -0.021387456 0.029383592 -0.032087415 -0.051326044 0.010261163 0.024943413 -0.06247456
-0.046692356 0.050308175 0.04658898 0.038848072 0.0112267705 -0.027938377 0.04017583 -0.046506025
-0.02997121 0.042159595 -0.019195108 -0.026677962 0.020738672 -0.050929688 -0.00020557015 -0.023998722
0.0070530525 0.04683305 -0.0038222333 0.016587684 -0.013909387 -0.031782724 -0.03098767 -0.04262748
-0.013674984 -0.061310295 -0.012080223 0.0018558046 -0.015915502 -0.041845713 -0.051707007 0.049935076
-0.049953733 0.05115282 -0.007844306 0.019817643 -0.0010667804 -0.015468448 -0.018436698 -0.03735963
-0.019349765 0.04210821 -0.037727337 0.03136296 0.044456415 0.00574703 -0.014146381 -0.033764258
0.022034029 -0.019284591 0.012141398 0.04587711 -0.015959617 0.033815056 0.05190573 -0.0063805333
-0.004716174 0.009420803 -0.0050582634 -0.04091408 0.020493474 0.032319218 0.011998324 -0.03825581
-0.03282104 -0.047673266 -0.014599745 0.051414162 0.027236123 -0.019452857 0.038958423 -0.022866061
-0.051293302 0.026313368 0.019142654 0.04421456 0.043128062 -0.043704674 -0.019560901 0.043897286
-0.057342388 0.012649871 0.020174017 0.057886228 0.039258145 0.01885978 0.04575751 -0.004534978
-0.050734133 0.022017272 0.05055963 0.03775749 -0.043790918 -0.04834605 0.03627545 -0.037655525
0.009360097 -0.026177933 0.048013568 -0.057351004 0.01890209 -0.026418211 -0.033604946 0.039322317
-0.040310707 -0.016250394 0.049587063 0.0013323781 0.041113805 0.017397022 -0.04819479 -0.061664153
-0.03816122 0.049899727 0.032713834 0.0094319135 0.024902817 -0.025253832 0.05012898 -0.010239634
0.04374585 -0.047328703 -0.059878625 -0.0036799219 -0.029629117 -0.03142947 -0.026819034 -0.038262833
-0.0023424253 -0.05426869 0.03809038 -0.039538994 -0.057705466 0.042061456 -0.05053813 0.02276251
0.040684413 -0.038176537 -0.0019430504 -0.036471784 0.051325466 0.041284487 0.021256573 0.033484746
0.022969505 0.05050162 0.005300426 0.027547115 0.032119025 0.037671093 -0.048463866 0.028596966
0.041671082 0.03349075 0.032438412 -0.027492726 0.026597615 -0.024475113 -0.030528814 0.0290551
0.01199052 -0.020489158 -0.008844766 -0.0029430387 0.050452694 0.0070989286 0.02695298 0.04366751

Q1.v_head.0.bias f4 [128]
00000000: f116 4b3c a27c b43a 1774 8bbc 1670 113d
00000010: a574 033d 75bd 7b3d f6ed 863c 955f 1a3d
00000020: 8de6 e4bc 34ab 28bd 68d4 5d3d dabb 463c
00000030: 6220 053d 6cf5 ffbc 4ea0 173c 60e1 0c3d
00000040: 42de ccbc 0c04 0cbc e367 9f3c 278d 273d
00000050: 820a d4bc 0280 623d a0d4 143d d0ae 2dbd
00000060: 038c 073d dde1 e83c 6b22 eabc 6c07 34bd
00000070: 55f2 4d3a 97b8 d4bc 7bde 9d3a 051b 1f3d
00000080: 32ee 7e3c a9c8 b53c 978d 14bd 064f 0a3a
00000090: b860 283d 0a83 073d 3df1 1dbd f63d 4e3d
000000a0: 06e0 3abd d56b 19bd bf3c d7bc 8de6 aebb
000000b0: d89a 50bc 0bb0 2d3d d699 cd3c 3f0c fcbc
000000c0: 88a9 aabc c89d f13c 80d3 6b3c c260 31bc
000000d0: d065 22bd 4dd3 ae3c e98d f6bc d08e 71bd
000000e0: 63d4 3cbd 1d9d efbb 5a13 8a3d c80c 163d
000000f0: 67f7 75bc 6bfc 2e3d eb9c 6e3d e773 32bd
00000100: addc 31bd be82 3ebb 0b33 153d cc2d 1d3d
00000110: 6466 293d 0b19 85bb 6644 a1bb 025e e73b
00000120: 7d57 45bd 419c 53bd feab db3c b46d 01bd
00000130: a292 98bc 1d33 02bc 8a6c 5c3d 3865 35bd
00000140: 6978 0b3d 7059 0c3c 0f0d 6cbc 304a 193d
00000150: 727c 3a3d e522 89bc c2d7 283d ef16 183d
00000160: e88f 233c 34c6 9bbc dbab 0abd 9c82 b0bc
00000170: 510d 313d 9dff 823a 7e0f d9bb bb44 0abd
00000180: a0f6 5b3c 7b13 6b3d 2145 0c3d 39dd 02bb
00000190: ff77 71bd 5a1e cb3b b833 b13c 943d 473d
000001a0: e850 423d 825f b03c 4d8e 27bd 70de 713d
000001b0: 230f 8b3b 2a4f 3b3d f52e 96bc 1a95 7e3d
000001c0: d89b d0bc 1b7d 14bd 880d 2fbd 328a 21bd
000001d0: d107 593d 7274 3d3d 33a1 753c bf62 b83c
000001e0: 0311 dc3c 0c09 35bd 94c2 00bd bf94 53bd
000001f0: 0d7e 4d3d a0fc b4bb 6432 be3b 760a 94bc
0.012395606 0.0013770054 -0.01702313 0.035507284 0.032093663 0.061459977 0.01647089 0.03768881
-0.027941966 -0.041178897 0.054157645 0.012129748 0.032501586 -0.031244956 0.009254528 0.03439462
-0.025008325 -0.008545887 0.019458717 0.040906098 -0.025883917 0.05529786 0.036335588 -0.042403042
0.03309251 0.028428013 -0.028580865 -0.04395239 0.00078562397 -0.025966926 0.0012044454 0.038844127
0.01555972 0.022190409 -0.036267843 0.00052760576 0.041107863 0.033083953 -0.03856014 0.05035206
-0.0456238 -0.037456352 -0.026274083 -0.0053375424 -0.01273223 0.042404216 0.025097769 -0.030767558
-0.020832792 0.029494181 0.014393687 -0.0108262915 -0.039647877 0.02134099 -0.030096965 -0.058974087
-0.046100985 -0.0073124305 0.06741972 0.036633283 -0.015012599 0.042721193 0.058255117 -0.043567564
-0.043423343 -0.0029069628 0.03642563 0.038373753 0.041357413 -0.0040618232 -0.004921484 0.007060767
-0.04817914 -0.051662687 0.02681541 -0.03159876 -0.018624607 -0.007946757 0.05381445 -0.044285983
0.03405038 0.008566245 -0.01440741 0.037424266 0.045528837 -0.016740272 0.041221388 0.037131246
0.00998304 -0.019015409 -0.0338553 -0.021546654 0.04322559 0.0009994392 -0.0066241613 -0.033756953
0.013425499 0.057391625 0.034245614 -0.0019968285 -0.058952328 0.0061986865 0.021631107 0.04864271
0.04744044 0.021529917 -0.040907193 0.059050024 0.004243748 0.045729794 -0.018332938 0.062153913
-0.025464937 -0.036252122 -0.042737514 -0.039438434 0.05298597 0.04625363 0.014992046 0.022508023
0.02686358 -0.04419808 -0.031435564 -0.051655527 0.05016904 -0.0055232793 0.005804347 -0.018071394

Q1.v_head.2.weight f4 [1, 128]
00000000: 9ac4 95bc 4268 26bd 4aa7 8cbd 7955 74bc
00000010: 7a64 a63d 5071 333d 9a2d 253d 4eae 9cbc
00000020: e425 2e3c 520b 7bbd b070 ba3d 2841 89bd
00000030: 0c85 02bd a224 bebc eb2a 773b 8578 86bd
00000040: 3016 023d 2958 03bd 8d17 49bd 4410 1b3d
00000050: 9c6b b13d b175 bd3d 36dd 013d 1c07 9d3c
00000060: 5474 80bd a84d 77bd 986b 30bd 8cbf 9abc
00000070: b934 6f3d ae86 dbbc 2095 693d 207a b13d
00000080: 9639 04bd a9aa 89bd 383f 813d 9780 993d
00000090: 7af9 46bd 4c58 6cbc 0f68 95bd 84d3 b53c
000000a0: a45e 9e3d 32f4 63bc f7b3 e63c be9b 02bc
000000b0: a03f 62bd 6573 ac3d cbf0 943d 4deb bb3d
000000c0: 5231 963d 5fbe 893d 6a93 98bd 638d b3bb
000000d0: a5a4 13bd 4bff 3cbc c499 00bd a0ec 7cbd
000000e0: 3fde 8bbd c2f9 92bd 3f04 ae3d 3ca2 16bd
000000f0: fcf6 9d3d 2801 57bd 13bc c03d d5c6 303d
00000100: b309 703c 6330 77bd 7189 94bd 8f5b 4abd
00000110: b981 17bd de49 3ebc a879 76bd b101 d038
00000120: 7496 43bd 9ce4 3fbd 9ca8 6e3a f0b5 a53d
00000130: 59e4 07bd 48c3 0b3d 50c9 bfbc b7de 94bd
00000140: 4dd6 7dbd ae87 fcbc 52ea f9bc 2266 b4bc
00000150: 512a d73d 2e4b 9c3d 3f21 1ebc 9c48 be3d
00000160: dca4 9c3d 47c9 a0bd 0389 cb3d 18c9 74bd
00000170: 9b84 203d 33a1 763d 3a2d 5abd dbfa 8ebd
00000180: 9f10 91bc 62ca e03b d7a6 7d3d 6cf0 c6bc
00000190: 6ec1 99bd f506 f53c fcb6 373d bd45 6ebd
000001a0: 78b3 edbc 7e28 23bc 6b22 dfbc 2c3a b43d
000001b0: 01d5 f6bc 1346 d23c 9e04 573d 3be2 573d
000001c0: 443f d03c 9efd ac3d 64db 223d 4bb9 2cbd
000001d0: 4ee8 b1bc 7414 913d b008 1b3d 40b4 a23d
000001e0: b724 80bd d038 41bd 4ae7 9c3b 53cb 153b
000001f0: 33f5 113d a465 b23d f31b a3bd 594c abbd
-0.018282223 -0.04062677 -0.06867845 -0.014912956 0.08124633 0.043809235 0.040326692 -0.019126084
0.010629151 -0.061290093 0.09103525 -0.06701881 -0.031865165 -0.023210827 0.003771479 -0.06565956
0.03175944 -0.032066498 -0.049094725 0.03785731 0.08663103 0.092509635 0.031705104 0.01916843
-0.06272188 -0.060376793 -0.04307136 -0.018890165 0.05839989 -0.026797619 0.057026982 0.086658716
-0.03228148 -0.06722004 0.06310886 0.0749523 -0.048577763 -0.0144253485 -0.07295238 0.022195585
0.07732895 -0.013913201 0.028161986 -0.007971702 -0.05523646 0.08420447 0.0727249 0.091757394
0.07333626 0.067257635 -0.07449992 -0.005479501 -0.03604569 -0.011535476 -0.031396642 -0.0617491
-0.068294995 -0.07176544 0.08496904 -0.036775813 0.07713124 -0.052491337 0.09410872 0.04315837
0.01465075 -0.06034888 -0.07252777 -0.049403723 -0.036988948 -0.011614291 -0.060174614 9.918528e-05
-0.047750905 -0.04684888 0.0009104104 0.080913424 -0.033176754 0.03412178 -0.023411423 -0.07269042
-0.06197195 -0.030826416 -0.03050724 -0.022021357 0.10506118 0.07631527 -0.009651481 0.09291193
0.07648632 -0.078508906 0.09938242 -0.05976209 0.039188962 0.060212325 -0.053265788 -0.06981441
-0.01770812 0.0068600634 0.06192669 -0.024284564 -0.07507597 0.029910544 0.044852242 -0.058171976
-0.029016241 -0.009958385 -0.027238091 0.08800158 -0.030130865 0.02566818 0.052494638 0.052705985
0.025420792 0.08446811 0.03976001 -0.042168897 -0.021717217 0.07083979 0.037850082 0.07944536
-0.06257003 -0.04717332 0.004788314 0.0022856786 0.03563423 0.08710793 -0.07964315 -0.083641715
