models_decentralized/final/online_critic_1_600.pth (torch, 631787 bytes, 26 tensors)

Q1.conv.net.0.weight f4 [3, 31, 3, 3]
-0.07196006 0.117738985 -0.101273894 0.06688015 0.05332005 0.082076944 -0.09321812 -0.009676935
0.014438556 -0.015950847 0.014592224 -0.082155034 -0.10657732 0.07949844 0.020637434 0.0684683
0.036025904 -0.01083851 0.06664268 -0.081119694 0.11432507 -0.07926179 0.062334724 0.14889865
-0.09402055 9.351749e-05 0.10577484 0.04024964 0.015937373 -0.012889923 -0.006564162 -0.042933136
-0.03521659 0.0039011345 -0.013006114 0.102323525 -0.074828565 0.016767452 0.062187992 -0.05020886
-0.060326207 -0.002793811 0.10104435 -0.13237996 0.08189052 -0.02341202 -0.031275537 0.09369741
0.13229844 0.12741646 -0.06573162 -0.05295359 0.0791001 -0.027088711 -0.057360742 -0.025447262
-0.0051162387 0.09168717 -0.1220314 -0.104247406 -0.02796479 0.07310146 0.07324282 0.15340133
0.08939336 0.042955574 -0.008768932 0.10982863 0.11095909 0.12900352 -0.11602322 -0.03448478
0.15682338 -0.025561312 0.08949272 0.055564534 0.10377607 0.110660784 -0.07728647 0.06472125
-0.08856555 -0.061558038 0.14288518 0.119697735 0.005461468 -0.13641968 -0.09161597 -0.059756912
-0.031373337 -0.034652226 0.07372306 -0.038312145 -0.14465053 0.12467179 -0.10357567 -0.033778176
0.048916634 -0.0506924 -0.08809279 0.02690949 0.06164451 -0.10775072 0.0705224 -0.12814556
-0.14241809 -0.03238445 -0.03811038 -0.100396484 0.013113844 0.053169418 0.030951101 -0.09149437
-0.13044135 -0.13062412 0.06917657 0.029615583 0.12691292 -0.03146899 0.0021879426 -0.06715454
0.054198757 -0.12260981 -0.11322762 0.14047074 0.10460124 0.10274223 -0.07871131 0.12969834
0.13630079 0.073735304 0.07024503 0.096266426 -0.031875964 0.031404495 -0.03631486 0.085078865
0.13936779 0.14204179 0.14634487 -0.10727407 0.13267481 0.029468026 -0.097131215 -0.06891796
0.13024667 0.016211873 0.14120886 0.005020105 -0.055376172 0.08606086 -0.07491887 -0.08237254
-0.13189662 0.046122056 -0.029841036 0.04830335 0.15205383 -0.025822036 0.10293944 0.050783917
0.13991676 0.0036439812 -0.10791119 -0.067770705 -0.09371097 0.1422563 0.13498077 0.0063020913
-0.07034831 0.11366677 -0.08184155 0.093991585 -0.07391412 -0.06417991 -0.040753055 -0.13149136
-0.05693754 -0.11674919 -0.07181227 0.059088502 0.008987629 -0.10678701 0.07080867 0.096542075
0.11306285 -0.024342442 0.012905302 -0.012123759 0.095181294 -0.072529286 -0.019424612 -0.13266021
0.14991167 0.12343695 0.0446572 -0.10194706 -0.12914528 0.14771685 0.11801332 0.050030246
-0.02073331 -0.04425867 0.029579988 -0.07427078 -0.122187465 0.10347172 0.14661811 -0.12368624
-0.027293276 0.09943129 -0.026147587 0.04601783 -0.09602527 0.108949274 -0.116188675 0.029879091
-0.07713064 0.037640087 0.039072733 -0.12122249 -0.049309246 -0.032732237 0.02500248 -0.13176543
0.019107668 0.091597 0.14014646 0.14123677 -0.054039817 -0.024365883 0.13860975 0.031621262
-0.12630135 -0.12662867 -0.006372481 0.11493306 0.05955224 0.118979774 -0.07299284 -0.0027000597
0.055031598 -0.053631734 0.053955477 -0.078842804 -0.053884886 -0.041296892 -0.10490843 0.15196285
0.018003162 0.036877677 -0.08141286 -0.057395123 -0.05075355 0.031318355 -0.12362295 0.05452399
00000000: cc5f 93bd 2321 f13d b068 cfbd 76f8 883d
00000010: 2066 5a3d f517 a83d 24e9 bebd 028c 1ebc
00000020: b18f 6c3c 5aab 82bc 3914 6f3c e640 a8bd
00000030: 3645 dabd 14d0 a23d d60f a93c 1c39 8c3d
00000040: e68f 133d 0194 31bc f57b 883d 1522 a6bd
00000050: 4323 ea3d 0154 a2bd b252 7f3d e378 183e
00000060: d98d c0bd d21e c438 7ba0 d83d cedc 243d
00000070: 188f 823c 4130 53bc 2f18 d7bb a8da 2fbd
00000080: 453f 10bd 2daa 7f3b 9917 55bc ff8e d13d
00000090: b83f 99bd e55b 893c d6b8 7e3d cea7 4dbd
000000a0: 9d18 77bd 5f18 37bb 57f0 ce3d 9d8e 07be
000000b0: 38b6 a73d 91ca bfbc c71a 00bd 6de4 bf3d
000000c0: 3e79 073e 7679 023e 4d9e 86bd dde5 58bd
000000d0: 3cff a13d 25e9 ddbc 19f3 6abd c776 d0bc
000000e0: 1fa6 a7bb 7cc6 bb3d 99eb f9bd aa7f d5bd
000000f0: 6a16 e5bc 38b6 953d 5500 963d 3d15 1d3e
00000100: de13 b73d 2ff2 2f3d 91ab 0fbc d5ed e03d
00000110: 853e e33d 8019 043e 959d edbd ea3f 0dbd
00000120: 4f96 203e f565 d1bc f647 b73d a397 633d
00000130: 8c88 d43d 1fa2 e23d 5e48 9ebd 938c 843d
00000140: db61 b5bd 4824 7cbd 7e50 123e 1624 f53d
00000150: 1df6 b23b 9ab1 0bbe 27a1 bbbd aac3 74bd
00000160: 5481 00bd 7eef 0dbd 1efc 963d 32ed 1cbd
00000170: 451f 14be ec53 ff3d 7b1f d4bd fc5a 0abd
00000180: cf5c 483d d6a2 4fbd fe69 b4bd 4a71 dc3c
00000190: f47e 7c3d 69ac dcbd 0c6e 903d 9738 03be
000001a0: 0cd6 11be 8fa5 04bd a119 1cbd ac9c cdbd
000001b0: 73db 563c 2dc8 593d 2a8d fd3c 6661 bbbd
000001c0: 6b92 05be 54c2 05be 72ac 8d3d 619c f23c
000001d0: 76f5 013e a1e5 00bd 9663 0f3b 5288 89bd
000001e0: 84ff 5d3d da1a fbbd e2e3 e7bd 90d7 0f3e
000001f0: 2d39 d63d 856a d23d 6533 a1bd a4cf 043e
00000200: 6f92 0b3e 8902 973d a0dc 8f3d 5527 c53d
00000210: 5f90 02bd 00a2 003d e4be 14bd d43d ae3d
00000220: 6eb6 0e3e 6773 113e 6edb 153e 82b2 dbbd
00000230: e8db 073e ee66 f13c bbec c6bd dc24 8dbd
00000240: 625f 053e c3ce 843c 0e99 103e b17f a43b
00000250: 20d2 62bd ad40 b03d 116f 99bd efb2 a8bd
00000260: e80f 07be 7bea 3c3d 3075 f4bc bcd9 453d
00000270: 00b4 1b3e bc88 d3bc ead1 d23d cc02 503d
00000280: 5746 0f3e dccf 6e3b 8b00 ddbd 5ecb 8abd
00000290: 89eb bfbd a3ab 113e 6638 0a3e c681 ce3b
000002a0: c612 90bd 20ca e83d 8b9c a7bd a97e c03d
000002b0: 4960 97bd c270 83bd adec 26bd aca5 06be
000002c0: 5737 69bd 331a efbd 5012 93bd c906 723d
000002d0: d940 133c 26b3 dabd 2304 913d dab7 c53d
000002e0: 7f8d e73d cd69 c7bc c370 533c bba2 46bc
000002f0: 69ee c23d 3c8a 94bd 5d20 9fbc 14d8 07be
00000300: 7282 193e 83cc fc3d 78ea 363d 9fc9 d0bd
00000310: a93e 04be 1643 173e f8b0 f13d 84ec 4c3d
00000320: e7d8 a9bc 9448 35bd bb51 f23c 471b 98bd
00000330: 6c3d fabd fbe8 d33d 0f23 163e 364f fdbd
00000340: 2696 dfbc a2a2 cb3d 7733 d6bc 317d 3c3d
00000350: e6a8 c4bd cc20 df3d 54f4 edbd ffc4 f43c
00000360: abf6 9dbd 7e2c 1a3d bb0a 203d 7f43 f8bd
00000370: 7ef8 49bd 3d12 06bd 00d2 cc3c 84ed 06be
00000380: af87 9c3c 3597 bb3d 8e82 0f3e 5fa0 103e
00000390: db58 5dbd f69a c7bc b7ef 0d3e 4c85 013d
000003a0: 2455 01be f2aa 01be 3fd0 d0bb 0662 eb3d
000003b0: 0ded 733d abab f33d 457d 95bd 7cf3 30bb
000003c0: d068 613d f3ac 5bbd 6b00 5d3d 5678 a1bd
000003d0: 66b6 5cbd ee26 29bd 3bda d6bd 269c 1b3e
000003e0: 5e7b 933c 0c0d 173d c9bb a6bd 2617 6bbd
000003f0: f4e2 4fbd ad47 003d 072e fdbd 8c54 5f3d

Q1.conv.net.0.bias f4 [3]
0.009713537 -0.012582838 0.008723232
00000000: 8725 1f3c 3f28 4ebc e3eb 0e3c

Q1.conv.net.3.weight f4 [6, 3, 3, 3]
-0.4347215 -0.24326639 -0.3670815 -0.24369283 0.02527559 -0.2560359 0.307149 -0.17384489
0.095013306 -0.094637424 -0.2561777 -0.28211278 -0.44318664 -0.21664375 0.29315487 0.40842605
-0.19343464 0.18234856 -0.14351219 0.15649638 -0.24748637 0.43191078 0.32615626 -0.008296714
-0.03413052 -0.30372387 0.08290918 -0.11014087 -0.23104854 0.0808374 -0.45917696 0.3685408
0.44637725 0.0661342 0.30923706 0.051958624 -0.30198914 0.23436521 -0.20223957 -0.28615806
-0.28453332 -0.323818 0.07256021 0.0952341 -0.22052878 -0.44659126 0.35680452 -0.18187918
-0.22278996 0.123275384 0.38489345 0.073683016 -0.05644161 0.46040246 -0.07962442 -0.34950933
0.14117073 -0.068592645 0.47483167 0.2109935 0.018559465 0.40388173 0.3370312 -0.012847925
0.052569173 0.008299581 -0.24899727 0.35337502 -0.09125158 -0.37602118 0.10181537 -0.009187057
-0.14728113 -0.33420655 -0.25994578 0.2788099 -0.28551906 -0.16866332 0.41401744 -0.17052794
0.46759778 0.09822188 -0.28595707 -0.2427895 0.011486102 -0.07964715 -0.4416781 -0.33750945
-0.34354523 -0.3805668 0.20651236 0.281016 0.33199677 -0.1094435 0.4263839 -0.433523
-0.29373327 -0.41234654 -0.3911952 -0.1245523 0.20230044 -0.319588 0.3421974 -0.27675545
-0.28278658 -0.14120525 -0.016641615 0.16475804 -0.10445701 -0.19231676 0.073384106 -0.026891539
0.02511444 -0.10232042 -0.01617054 0.19718677 -0.27096778 -0.2405436 0.45557392 -0.36984172
-0.23464513 0.24072628 0.21660836 0.18032633 0.022073565 0.1637335 -0.056064997 -0.011002593
-0.100105345 -0.34901607 0.36585996 -0.13846652 -0.34015748 0.34276685 -0.33795616 -0.29143688
0.32478535 -0.47710916 -0.37472126 0.046843056 0.11662626 -0.27982837 0.0864631 0.19261436
0.0040818546 0.43168205 -0.029848613 0.25358185 0.17298444 -0.23483224 -0.2150676 0.26845583
-0.18985769 -0.3354717 0.43901402 -0.14800005 0.07034445 -0.27244902 0.18254143 0.06413484
-0.11983699 -0.13260877
00000000: d193 debe d31a 79be 1bf2 bbbe 9d8a 79be
00000010: c10e cf3c 2317 83be a242 9d3e 6504 32be
00000020: 5696 c23d 44d1 c1bd b929 83be 1671 90be
00000030: 5ce9 e2be dcd7 5dbe 6518 963e 381d d13e
00000040: bb13 46be 95b9 3a3e dcf4 12be 9640 203e
00000050: 116d 7dbe 6923 dd3e f4fd a63e f1ee 07bc
00000060: 72cc 0bbd b281 9bbe 4acc a93d 8991 e1bd
00000070: fd97 6cbe 148e a53d 3e19 ebbe 61b1 bc3e
00000080: 8f8b e43e 5e71 873d 5254 9e3e 91d2 543d
00000090: 529e 9abe 6ffd 6f3e e417 4fbe 4f83 92be
000000a0: 5aae 91be 79cb a5be 739a 943d 190a c33d
000000b0: 4cd2 61be 9ca7 e4be 15af b63e 893e 3abe
000000c0: 0d23 64be ce77 fc3d c110 c53e 1fe7 963d
000000d0: 512f 67bd dfb9 eb3e 2112 a3bd e3f2 b2be
000000e0: 0f8f 103e 4d7a 8cbd 231d f33e ae0e 583e
000000f0: 050a 983c 96c9 ce3e 5a8f ac3e 1a80 52bc
00000100: c652 573d f7fa 073c 24f9 7ebe 92ed b43e
00000110: 1ce2 babd d985 c0be 9484 d03d 4f85 16bc
00000120: ddd0 16be 1f1d abbe 9d17 85be 2cc0 8e3e
00000130: 8e2f 92be 14b6 2cbe 18fa d33e e09e 2ebe
00000140: fa68 ef3e 8e28 c93d f768 92be d09d 78be
00000150: 3430 3c3c 0c1e a3bd a223 e2be 0ace acbe
00000160: 29e5 afbe a7d9 c2be fa77 533e 54e1 8f3e
00000170: 7bfb a93e ea23 e0bd fe4e da3e baf6 ddbe
00000180: 3564 96be 161f d3be bd4a c8be 4715 ffbd
00000190: d927 4f3e 0aa1 a3be 7f34 af3e e4b2 8dbe
000001a0: 67c9 90be 1c98 10be ff53 88bc 55b6 283e
000001b0: 8fed d5bd afee 44be 684a 963d a54b dcbc
000001c0: ccbc cd3c 5e8d d1bd 1578 84bc 54eb 493e
000001d0: 4abc 8abe 1051 76be fc40 e93e e55b bdbe
000001e0: d046 70be f380 763e 95ce 5d3e 77a7 383e
000001f0: 9fd3 b43c c1a9 273e 69a4 65bd 3844 34bc
00000200: 0804 cdbd 3cb2 b2be ff51 bb3e 2bca 0dbe
00000210: 1f29 aebe 237f af3e 9708 adbe 3737 95be
00000220: 444a a63e a747 f4be 77db bfbe 81de 3f3d
00000230: c0d9 ee3d aa45 8fbe 9113 b13d b33c 453e
00000240: 14c1 853b 6e05 dd3e 1485 f4bc 7bd5 813e
00000250: d522 313e dd77 70be ae3a 5cbe 0b73 893e
00000260: 0e6a 42be f2c2 abbe 72c6 e03e 538d 17be
00000270: c010 903d 707e 8bbe 24ec 3a3e 2159 833d
00000280: 196d f5bd 98ca 07be

Q1.conv.net.3.bias f4 [6]
0.0073311133 0.010128401 0.0055963746 -0.0070952377 -0.0034458411 -0.011401897
00000000: d639 f03b 98f1 253c cb61 b73b 2b7f e8bb
00000010: 9fd3 61bb 06cf 3abc

Q1.conv.net.6.weight f4 [6, 6, 3, 3]
-0.0479345 0.035150994 0.20224561 0.2880275 0.22856255 0.15377904 -0.022210184 0.059511624
-0.25674358 -0.2434339 -0.12536785 0.2894788 -0.08920623 -0.18558225 0.23034126 0.19865714
-0.25864062 0.3235661 -0.13191454 0.14372596 0.3401789 0.072635286 -0.09500043 0.29398808
-0.09647185 -0.15219662 0.19085091 0.27662298 0.14120536 0.11393505 -0.122306466 0.044282768
-0.26818466 -0.19841796 0.21951976 -0.07600029 0.25918597 -0.06668836 -0.2713965 -0.21874003
0.20370674 0.14334823 -0.12876655 -0.08036222 -0.03287381 -0.25621018 0.28654614 0.1908234
0.16762458 -0.24399453 0.1542246 -0.050948244 -0.059691343 -0.031057173 -0.069631614 -0.12179273
-0.2042095 0.18532668 0.3072089 0.011814928 0.0880402 0.09790615 0.013680804 0.3091824
-0.3091372 -0.037299175 -0.30297637 0.016746575 0.110602394 -0.3224739 0.28133202 0.0048882994
0.20067687 0.09060512 -0.21121173 -0.3186897 0.28361732 -0.14289261 -0.094605505 0.27712673
-0.14781372 0.28060013 -0.20598836 -0.22104062 -0.3011886 0.060802568 0.3002756 -0.1130417
-0.16171771 -0.3001645 0.07033269 -0.32679424 -0.021830678 -0.22545278 -0.3151306 0.32055587
-0.2701569 -0.2107518 0.094685145 0.0101971645 -0.059701946 0.017295396 -0.20473751 -0.25211617
-0.1281948 -0.27903283 0.28788528 0.079364866 -0.3060283 0.30692017 -0.0057833525 -0.21871689
0.24023134 -0.24607925 0.052120294 0.04602612 0.30781704 0.30510563 0.28954417 -0.25200048
0.24102582 -0.20969796 0.16508381 -0.16130961 0.23748358 0.09380066 -0.14308241 0.28533092
0.041515797 0.013227805 0.16016181 -0.27474123 0.15244798 0.26576787 0.0010076292 -0.10287434
-0.24953838 -0.31995523 -0.17216934 0.080430426 -0.08469978 0.23599347 0.013380046 0.076223426
-0.28786767 -0.07714423 0.28613806 -0.29375806 0.1704434 0.07903296 -0.12670255 0.2491489
0.11919393 -0.09379751 -0.2517168 -0.09004769 -0.049564697 -0.2881116 0.010966757 -0.16124728
-0.28915837 -0.00635371 -0.008609818 0.23397285 -0.30527586 0.23284385 0.06527614 0.107654475
-0.29306477 -0.16249962 0.33943972 -0.08345127 0.1595739 0.018939814 0.2008601 -0.28761092
-0.25164244 0.16664213 -0.24666014 0.2534636 0.22127417 -0.12412703 -0.041598134 -0.1793902
-0.13247214 0.12373485 -0.11563964 -0.10508401 -0.22189862 -0.28145266 -0.089411534 0.33311406
-0.016663246 0.2645655 -0.0055716615 0.28135023 0.017365487 0.042260937 0.04890393 -0.12527853
-0.1138635 0.18252446 0.31281134 0.273344 -0.28813252 0.14338763 0.099048056 0.099217325
-0.19477566 0.04550139 -0.24042611 0.14885256 -0.080402695 0.091477595 -0.2689607 -0.1378533
-0.11553127 -0.11384799 -0.24715488 0.3155004 0.11315481 0.112716675 0.011893481 0.22045894
-0.019495955 -0.093326956 0.021490665 -0.25483832 0.062068872 0.1778571 -0.28285125 0.124503314
0.30427438 -0.1297563 -0.16520678 -0.01370576 -0.050993513 -0.20089252 0.18369117 0.058653634
0.022299666 0.3031133 -0.17314798 -0.26293963 -0.16625646 -0.06186039 0.10852434 -0.2747385
0.07179153 0.040456723 -0.036915924 0.30712843 0.11445598 0.008702258 0.22279225 -0.04177374
00000000: f756 44bd 7dfa 0f3d 7919 4f3e 5778 933e
00000010: 4d0c 6a3e 4178 1d3e 22f2 b5bc 76c2 733d
00000020: e573 83be bc46 79be 6e60 00be 9136 943e
00000030: c2b1 b6bd 4609 3ebe 94de 6b3e c76c 4b3e
00000040: 8b6c 84be 75aa a53e 9b14 07be e62c 133e
00000050: ee2b ae3e cfc1 943d 968f c2bd 9b85 963e
00000060: 0993 c5bd 6ed9 1bbe 6c6e 433e 87a1 8d3e
00000070: 2398 103e c856 e93d d07b fabd d961 353d
00000080: 804f 89be 142e 4bbe cac9 603e 0aa6 9bbd
00000090: 06b4 843e e893 88bd 7bf4 8abe 63fd 5fbe
000000a0: 8098 503e e1c9 123e 61db 03be f394 a4bd
000000b0: b0a6 06bd fb2d 83be 2db6 923e 3667 433e
000000c0: c7a5 2b3e b4d9 79be 0eed 1d3e 1baf 50bd
000000d0: e97e 74bd 9d6b febc 059b 8ebd 786e f9bd
000000e0: 4c1c 51be 47c6 3d3e 7c4a 9d3e 6693 413c
000000f0: 6c4e b43d 0583 c83d 7325 603c 284d 9e3e
00000100: 3b47 9ebe 05c7 18bd b81f 9bbe 1d30 893c
00000110: 8283 e23d 4d1b a5be c00a 903e 072e a03b
00000120: 3d7e 4d3e 2d8f b93d e347 58be 4c2b a3be
00000130: 4a36 913e 7152 12be 88c0 c1bd 8ee3 8d3e
00000140: 7b5c 17be d2aa 8f3e 9dee 52be 7958 62be
00000150: 6435 9abe 1d0c 793d b9bd 993e 6882 e7bd
00000160: 5499 25be 29af 99be 960a 903d 9351 a7be
00000170: 40d6 b2bc 18dd 66be cc58 a1be e61f a43e
00000180: 0152 8abe 52cf 57be 49ea c13d 0212 273c
00000190: 078a 74bd 13af 8d3c b6a6 51be 5f15 81be
000001a0: 7f45 03be 64dd 8ebe b365 933e 0c8a a23d
000001b0: beaf 9cbe a424 9d3e 4782 bdbb 52f7 5fbe
000001c0: 34ff 753e 33fc 7bbe 177c 553d e385 3c3d
000001d0: 329a 9d3e ce36 9c3e 223f 943e 3506 81be
000001e0: 79cf 763e 10bb 56be bb0b 293e 592e 25be
000001f0: e52e 733e 8f1a c03d 3284 12be e516 923e
00000200: 780c 2a3d 6fb9 583c 7501 243e e2aa 8cbe
00000210: 531b 1c3e ba12 883e 6d12 843a c8af d2bd
00000220: fd86 7fbe 2cd1 a3be 294d 30be b5b8 a43d
00000230: 1477 adbd 46a8 713e fb37 5b3c 071b 9c3d
00000240: 6463 93be cbfd 9dbd b080 923e 7567 96be
00000250: b788 2e3e 08dc a13d 50be 01be e420 7f3e
00000260: f21b f43d e918 c0bd 06e1 80be ec6a b8bd
00000270: 5a04 4bbd 5d83 93be eaad 333c 021e 25be
00000280: 910c 94be c832 d0bb 3210 0dbc 9496 6f3e
00000290: 1e4d 9cbe 9e6e 6e3e 7faf 853d f379 dc3d
000002a0: 960c 96be 4d66 26be 0bcb ad3e 80e8 aabd
000002b0: 5767 233e ab27 9b3c 45ae 4d3e bd41 93be
000002c0: 47d7 80be 3ca4 2a3e 7a94 7cbe fbc5 813e
000002d0: b295 623e 5036 febd ce62 2abd 11b2 37be
000002e0: c7a6 07be b268 fd3d 7ad4 ecbd 4936 d7bd
000002f0: 6439 63be 901a 90be 651d b7bd ed8d aa3e
00000300: 5c81 88bc 2175 873e 7c92 b6bb 230d 903e
00000310: 1142 8e3c ce19 2d3d 7d4f 483d 0449 00be
00000320: 4431 e9bd b1e7 3a3e cf28 a03e bff3 8b3e
00000330: 1b86 93be 35d4 123e b5d9 ca3d 7432 cb3d
00000340: 4573 47be aa5f 3a3d 4332 76be ce6c 183e
00000350: 2baa a4bd 9b58 bb3d 38b5 89be 6a29 0dbe
00000360: a99b ecbd 2329 e9bd 2b16 7dbe 4589 a13e
00000370: b6bd e73d 00d8 e63d e0dc 423c fdbf 613e
00000380: fbb5 9fbc 3422 bfbd 310d b03c 2b7a 82be
00000390: ee3b 7e3d 2c20 363e e1d1 90be 98fb fe3d
000003a0: dac9 9b3e d6de 04be f72b 29be 208e 60bc
000003b0: 93de 50bd c5b6 4dbe 8a19 3c3e cb3e 703d
000003c0: caad b63c ab31 9b3e b44d 31be 06a0 86be
000003d0: 223f 2abe 5261 7dbd 0242 de3d 86aa 8cbe
000003e0: 7007 933d f3b5 253d 2735 17bd f03f 9d3e
000003f0: e667 ea3d ea93 0e3c a723 643e f11a 2bbd

Q1.conv.net.6.bias f4 [6]
0.00804982 0.010843227 0.01205409 0.008716308 0.00717914 0.008661723
00000000: 64e3 033c caa7 313c 857e 453c d8ce 0e3c
00000010: fe3e eb3b e6e9 0d3c

Q1.a_head.0.weight f4 [128, 294]
-0.061140135 -0.006224509 0.03108928 -0.012694357 -0.03336611 -0.02268988 -0.015473087 0.023924466
-0.028650783 0.055787906 -0.044492148 -0.05332039 0.013958314 0.0015526606 -0.0463205 -0.006597105
-0.047196835 0.021662101 -0.037617937 -0.045966968 0.05578983 0.04127453 0.020516124 -0.012060534
-0.014461897 0.039075088 0.04930799 0.017765878 0.012470642 0.025297258 0.02265392 -0.020278635
-0.041727383 -0.032407347 -0.03645857 0.058595814 -8.005969e-06 -0.01787754 0.049539674 -0.023066362
0.027495855 0.020980569 0.028311037 0.053498436 -0.025250504 0.011828125 0.032519847 0.043183707
-0.036450163 0.0057223835 -0.053018034 0.045209836 0.05176528 -0.05074528 -0.04605614 0.012630044
-0.05643443 -0.019105745 0.008596605 0.05506807 0.02408016 0.011008352 -0.022277113 -0.05784814
0.002400947 0.011497149 -0.048122976 -0.0167043 0.019660914 0.03597973 -0.0142375585 -0.016056312
-0.0064161387 -0.007855759 -0.015780995 0.03435837 0.010703272 0.023666527 -0.04136936 -0.033442378
-0.025796903 -0.0147364475 0.05703096 0.042788915 -0.038486384 -0.049347647 -0.046479978 -0.031084072
-0.051717658 0.016790764 0.027941588 0.058127504 -0.01290784 -0.029688608 -0.037624463 0.044269696
-0.051756077 0.054145474 -0.040438678 -0.044058647 -0.03692589 -0.05732955 -0.047075003 -0.03369354
-0.059032675 0.0025548376 0.055011556 -0.032543775 0.029386263 0.023372693 0.052386303 0.038311932
0.04147149 0.04746255 0.018759238 -0.0074997307 -0.00926048 -0.04060029 -0.056123186 0.043677527
-0.018888064 -0.016105562 0.014571257 -0.0041046753 0.037805613 0.020192135 0.043585863 0.032806866
0.030450104 -0.038674172 0.05269053 0.033474907 0.036437575 0.021521175 0.027729273 0.0298627
-0.02502432 0.04444948 0.05207767 0.05461837 -0.04516843 0.0071427287 0.04211058 -0.0018912635
-0.049157724 -0.053828627 -0.047103293 0.008112583 -0.056979496 -0.005860134 0.014008103 0.017332532
-0.0018566428 0.045385487 0.046207048 0.03734476 -0.01115018 -0.039545666 0.003249486 -0.018026829
0.018080458 -0.020897485 -0.019415958 -0.024015207 0.052899584 0.015489306 5.3836335e-05 0.026382465
-0.056942027 0.022900516 -0.025497017 -0.008314554 0.024942994 -0.03343453 0.009767193 0.050206326
-0.029783363 0.029959155 0.012369195 -0.033872996 -0.04902849 -0.0353261 -0.022492457 0.008242554
-0.025871484 0.049878992 -0.038556598 0.049208425 -0.007256902 0.020106176 0.050705083 0.020487837
0.025443489 0.000465228 -0.019737352 0.0057357764 0.044467065 -0.05038527 -0.01927861 -0.032982226
-0.010243579 0.014421479 -0.03256524 0.030634277 -0.0002057963 0.016806683 0.053344466 0.030607887
0.0038568007 -0.049321476 -0.000169156 -0.027069762 -0.010449627 -0.028852059 0.023733754 -0.036345202
-0.0484861 0.05093652 0.048029512 -0.05111621 0.018568808 -0.046009142 -0.04640166 -0.018014567
-0.007759644 0.027555862 0.032720316 -0.0041722325 0.006168551 -0.019816121 0.016759748 -0.0019813722
-0.010145607 -0.01316853 0.043233972 0.013287054 -0.020702764 0.034398995 0.045836106 -0.022429239
-0.031874932 -0.032738965 -0.012498893 -0.049900386 -0.046140715 -0.0051103183 -0.050059043 -0.006488355
0.008666377 0.03623881 -0.026805114 0.04422643 -0.031201 -0.048684284 0.045007877 0.049051072
00000000: 146e 7abd f7f6 cbbb f2ae fe3c fefb 4fbc
00000010: e7aa 08bd 21e0 b9bc d582 7dbc 3efd c33c
00000020: 0cb5 eabc dc81 643d 663d 36bd 7b66 5abd
00000030: 6ab1 643c a582 cb3a 91ba 3dbd 872c d8bb
00000040: 7851 41bd b874 b13c 4415 1abd dc47 3cbd
00000050: e083 643d 7b0f 293d 6e11 a83c 8c99 45bc
00000060: 98f1 6cbc 330d 203d 2df7 493d bf89 913c
00000070: aa51 4c3c 323c cf3c b794 b93c 611f a6bc
00000080: 55ea 2abd 91bd 04bd 9555 15bd 2a02 703d
00000090: 6051 06b7 eb73 92bc 1dea 4a3d abf5 bcbc
000000a0: fd3e e13c 71df ab3c 8cec e73c 2d21 5b3d
000000b0: 25da cebc c1ca 413c 8833 053d 66e1 303d
000000c0: c44c 15bd d582 bb3b 7029 59bd f32d 393d
000000d0: d507 543d 48da 4fbd 5da5 3cbd 3eee 4e3c
000000e0: ca27 67bd a783 9cbc c6d8 0c3c 0e8f 613d
000000f0: c143 c53c 605c 343c 7e7e b6bc 2cf2 6cbd
00000100: 3559 1d3b 8a5e 3c3c 991c 45bd 75d7 88bc
00000110: ed0f a13c 7b5f 133d a644 69bc 8788 83bc
00000120: 793e d2bb 71b5 00bc 2547 81bc 5dbb 0c3d
00000130: c75c 2f3c 4ee0 c13c eb72 29bd e0fa 08bd
00000140: 0754 d3bc 2471 71bc 4c99 693d 6e43 2f3d
00000150: e6a3 1dbd c220 4abd ca61 3ebd 06a4 febc
00000160: e5d5 53bd c98c 893c c2e5 e43c 1b17 6e3d
00000170: 687b 53bc 8635 f3bc 1c1c 1abd 2454 353d
00000180: 2efe 53bd a5c7 5d3d 07a3 25bd d776 34bd
00000190: 9a3f 17bd 64d2 6abd b8d1 40bd 3d02 0abd
000001a0: 3fcc 71bd 106f 273b cc53 613d 9f4c 05bd
000001b0: 76bb f03c 1778 bf3c 0593 563d f9ec 1c3d
000001c0: 02de 293d 1768 423d f9ac 993c 4dc0 f5bb
000001d0: 45b9 17bc 7d4c 26bd 6de1 65bd 35e7 323d
000001e0: 24bb 9abc d0ef 83bc 48bc 6e3c 8380 86bb
000001f0: 0fda 1a3d fa69 a53c 1787 323d 7e60 063d
00000200: 7f72 f93c cf68 1ebd 06d2 573d fc1c 093d
00000210: 913f 153d 2d4d b03c 8028 e33c 9fa2 f43c
00000220: ceff ccbc a810 363d 654f 553d 83b7 5f3d
00000230: 8802 39bd 8d0d ea3b 257c 2c3d 46e4 f7ba
00000240: 9c59 49bd 687b 5cbd 62ef 40bd a4ea 043c
00000250: 5563 69bd 5e06 c0bb 3e82 653c f4fc 8d3c
00000260: 985a f3ba 22e6 393d 9a43 3d3d d2f6 183d
00000270: 3faf 36bc a3fa 21bd 54f5 543b 00ad 93bc
00000280: 781d 943c 3431 abbc 370e 9fbc 8abb c4bc
00000290: 3cad 583d dcc6 7d3c 53ce 6138 0a20 d83c
000002a0: 0b3c 69bd dd99 bb3c 1fdf d0bc c439 08bc
000002b0: 4055 cc3c a5f2 08bd 9406 203c 26a5 4d3d
000002c0: 3dfc f3bc e76c f53c 2aa8 4a3c 69be 0abd
000002d0: 19d2 48bd 1ab2 10bd 1a42 b8bc c70b 073c
000002e0: 6ff0 d3bc ea4d 4c3d 86ed 1dbd c68e 493d
000002f0: 4ecb edbb b5b5 a43c 22b0 4f3d 1cd6 a73c
00000300: dd6e d03c d8e9 f339 3ab0 a1bc 2ef3 bb3b
00000310: 1923 363d c960 4ebd 2dee 9dbc 5f18 07bd
00000320: afd4 27bc 1148 6c3c 2163 05bd bcf4 fa3c
00000330: 06cb 57b9 2bae 893c ba7f 5a3d 64bd fa3c
00000340: 61c2 7c3b 5105 4abd 785f 31b9 68c1 ddbc
00000350: ea34 2bbc 275b ecbc 4a6d c23c b5de 14bd
00000360: 5c99 46bd d0a2 503d 98ba 443d 3b5f 51bd
00000370: 9d1d 983c 1574 3cbd ab0f 3ebd 4993 93bc
00000380: 9d44 febb d5bc e13c bd05 063d 39b7 88bb
00000390: 8e21 ca3b 6b55 a2bc bd4b 893c e9d9 01bb
000003a0: c339 26bc d1c0 57bc 1b16 313d f2b1 593c
000003b0: d898 a9bc f6e5 0c3d a4be 3b3d 86bd b7bc
000003c0: 4a8f 02bd 4b19 06bd 28c8 4cbc 5964 4cbd
000003d0: 0cfe 3cbd 7574 a7bb b60a 4dbd 449c d4bb
000003e0: 6bfd 0d3c 256f 143d 6696 dbbc c626 353d
000003f0: 3d99 ffbc 2c69 47bd 2e5a 383d c7e9 483d

Q1.a_head.0.bias f4 [128]
-0.0069314777 -0.042074636 0.03237857 -0.019962262 0.01920834 0.014383835 -0.029278373 0.040300068
0.022581775 0.016538417 0.041821085 0.0074396925 -0.030605849 -0.002512642 -0.00977454 0.048126366
-0.035630334 -0.030242473 0.040261574 0.01721785 -0.04097982 0.032598678 -0.021523817 -0.04917499
-0.020684522 0.02331392 -0.020016283 -0.04860697 -0.034236044 0.025288383 -0.027631838 -0.012059749
0.038489874 -0.04369914 -0.0030306533 0.01403381 0.035581347 0.023583557 -0.008177083 0.004207776
-0.045615382 -0.0075467345 0.0251644 -0.0017194673 -0.05065752 -0.008254634 -0.05678342 0.05411083
-0.008492265 -0.0225101 0.0430168 0.015927497 0.0023337642 -0.042861816 -0.055679746 -0.05227094
-0.009573652 -0.022720296 -0.01624523 0.030141698 0.045201752 0.025365533 -0.05108916 0.055830833
-0.04220592 0.026119944 -0.03472022 -0.037043456 -0.024963386 -0.011333944 0.031346887 -0.043085676
-0.026327457 -0.010119689 0.053989932 0.05331608 -0.056458473 -0.042315163 0.032256544 0.048787292
0.043845534 0.036926746 0.038541302 -0.024683895 -0.0128723 0.014378822 0.043690205 -0.054409895
0.010842421 -0.05640633 0.010928584 -0.031170543 -0.035398338 -0.038693566 0.022741903 -0.039141603
0.026242094 0.043982025 -0.032423865 -0.023963498 -0.030320328 -0.04310462 0.022846587 -0.034857485
0.038162027 -0.0008897848 -0.022584029 0.04918929 -0.016418377 -0.0011697104 0.0075504333 0.050653514
0.009389334 0.016265787 0.0067965398 -0.0037639693 0.041359544 -0.040967915 0.0015277311 0.035019994
-0.0035885165 -0.005006356 -0.013337881 -0.049470697 -0.011089691 0.047323853 0.0026299313 0.05134628
00000000: 7321 e3bb 7456 2cbd 649f 043d e687 a3bc
00000010: cf5a 9d3c 2daa 6b3c 33d9 efbc af11 253d
00000020: 6afd b83c 937b 873c 964c 2b3d aac8 f33b
00000030: 1eb9 fabc 23ab 24bb 6425 20bc 2720 453d
00000040: 1df1 11bd 10bf f7bc 52e9 243d 730c 8d3c
00000050: 75da 27bd 3186 053d b752 b0bc b76b 49bd
00000060: 9672 a9bc d5fc be3c 30f9 a3bc 1a18 47bd
00000070: 183b 0cbd 9529 cf3c 2a5c e2bc 4196 45bc
00000080: 8fa7 1d3d dffd 32bd ed9d 46bb 11ee 653c
00000090: bfbd 113d 4e32 c13c 2cf9 05bc 62e1 893b
000000a0: 32d7 3abd 994a f7bb 9225 ce3c c05f e1ba
000000b0: 427e 4fbd 723e 07bc bb95 68bd 51a3 5d3d
000000c0: 2423 0bbc 1a67 b8bc 6232 303d 627a 823c
000000d0: 11f2 183b df8f 2fbd 7210 64bd 0e1a 56bd
000000e0: cfda 1cbc ea1f babc b714 85bc b9eb f63c
000000f0: 7925 393d 61cb cf3c de42 51bd dfae 643d
00000100: 1de0 2cbd 7ef9 d53c ca36 0ebd e1ba 17bd
00000110: 0480 ccbc 02b2 39bc 9865 003d 9b7a 30bd
00000120: aeac d7bc 0dcd 25bc 8c24 5d3d f661 5a3d
00000130: 0041 67bd aa52 2dbd 701f 043d 2fd5 473d
00000140: 6097 333d 8040 173d 7cdd 1d3d e135 cabc
00000150: 57e6 52bc 2795 6b3c 80f4 323d e9dc 5ebd
00000160: 69a4 313c 530a 67bd ce0d 333c 5e59 ffbc
00000170: d9fd 10bd 257d 1ebd 3a4d ba3c f252 20bd
00000180: a9f9 d63c 7f26 343d e3ce 04bd 194f c4bc
00000190: 5662 f8bc 788e 30bd c428 bb3c b9c6 0ebd
000001a0: c94f 1c3d 7240 69ba 2402 b9bc b57a 493d
000001b0: d57f 86bc f850 99ba a069 f73b 0f7a 4f3d
000001c0: b9d5 193c d43f 853c 82b5 de3b edac 76bb
000001d0: a068 293d f9cd 27bd 263e c83a 2071 0f3d
000001e0: 512d 6bbb 5c0c a4bb 2187 5abc c9a1 4abd
000001f0: 89b1 35bc a8d6 413d ed5a 2c3b 7a50 523d

Q1.a_head.2.weight f4 [6, 128]
-0.03470563 0.057265807 -0.06761185 0.051114686 0.048349146 0.040279564 -0.06160023 0.08194467
0.048105255 -0.054168306 0.019538842 0.019001393 0.06612173 -0.0074883043 -0.052536324 0.018916318
-0.030819073 0.054089073 -0.014578974 0.02847476 0.06555298 -0.08171455 0.007737034 0.06505095
0.030592427 0.07414707 -0.016531797 -0.06724172 0.027972652 0.04285838 0.06230557 -0.05127809
0.046438545 -0.015881764 -0.079810366 0.03988889 0.02826328 -0.0538562 -0.08262559 0.0071397815
0.08576862 -0.06682754 -0.03783458 0.070506155 0.033296295 -0.014915129 -0.084733255 -0.034785166
-0.0002798924 0.017112352 0.03355496 0.057546172 0.0061626993 0.012944337 0.051903903 -0.07289768
0.031764932 -0.021732569 -0.034828953 -0.02105364 0.029457266 0.032462776 -0.05718695 0.054319542
-0.0249315 -0.016174572 0.052813854 0.0676871 0.020405428 0.05601672 -0.084878206 -0.0788903
-0.046108156 -0.051011067 -0.03265297 -0.04688719 -0.02015447 0.034809712 -0.013038644 0.047852665
-0.015878318 -0.071263485 -0.041797716 -0.00982228 0.03287254 -0.012989606 0.019538067 -0.08375558
0.03888114 -0.011719862 -0.07949983 -0.084530346 0.08507828 0.010822784 -0.045629706 -0.028825851
-0.03444003 0.030861076 0.06754568 0.034044474 -0.029640244 0.06606895 -0.028174601 0.054064922
-0.08280389 0.028749455 0.05081597 -0.022890944 -0.06522012 0.018507352 0.0881781 0.07643548
0.012663165 -0.0018299108 0.07464474 0.08248414 0.009038876 0.019172475 0.06407834 -0.000109782
0.042799838 -0.057341382 -0.06915627 -0.07619322 -0.047927625 -0.051481914 0.07828463 0.06190472
0.033013623 0.04635993 0.08607132 -0.06568386 0.06657508 -0.021088794 -0.07309737 0.042721186
0.02143927 0.03718464 -0.0388487 -0.009094199 0.041810483 0.0752529 -0.07145533 -0.07068872
-0.009745358 -0.002428849 0.042163443 0.04766434 -0.030081462 0.04105653 -0.053907685 -0.009283818
0.013391145 0.06450057 0.041660026 -0.034402713 0.03570718 -0.07438686 -0.008766302 0.016980005
-0.07107603 -0.047009233 0.07605413 -0.06078436 0.052057367 -0.04888536 0.041430004 -0.037901208
0.06949294 -0.046424225 -0.0815287 -0.016167425 0.00505523 0.05125808 0.0029631553 -0.04825597
-0.08027476 -0.034473624 0.06518027 -0.04009432 -0.016868263 -0.026615873 -0.020555673 0.028797887
-0.043304697 -0.08536058 -0.07008879 -0.045378592 -0.06354129 0.025855111 -0.035107367 0.057028446
0.07036339 0.0763615 -0.08576701 0.07858336 -0.041592624 -0.009136868 0.033197775 0.07221001
-0.05983178 0.08036887 0.058051556 -0.0531763 -0.05956963 0.023994422 -0.00350843 0.049004246
0.0484731 0.008799978 0.0338464 0.028941104 -0.012713449 -0.084005825 0.031086756 -0.035679813
0.05385695 -0.07085811 -0.005364713 0.06760417 0.0024808447 -0.037340757 -0.011548341 0.052142616
-0.054967906 0.0005087101 -0.016515046 0.062937684 0.014562295 0.026462296 -0.036055595 0.0399638
-0.055941354 -0.060856305 0.063453116 -0.040308982 0.08538576 -0.05903851 0.01883314 -0.022843327
-0.004238831 -0.07693914 0.053854633 0.07473503 0.086888626 0.07701508 0.025991905 0.06161945
-0.06533087 -0.068328194 -0.047826428 0.013050704 -0.051436655 -0.06858163 0.07423825 0.069490805
00000000: 7e27 0ebd 8d8f 6a3d 1578 8abd a25d 513d
00000010: c109 463d 2ffc 243d 8650 7cbd 9bd2 a73d
00000020: 040a 453d 96df 5dbd ec0f a03c cfa8 9b3c
00000030: d46a 873d 7360 f5bb 5430 57bd 65f6 9a3c
00000040: 4878 fcbc 818c 5d3d a6dc 6ebc e643 e93c
00000050: a440 863d f559 a7bd f286 fd3b 6f39 853d
00000060: f89c fa3c 6bda 973d b16d 87bc 07b6 89bd
00000070: e726 e53c 458c 2f3d 2034 7f3d f908 52bd
00000080: 5836 3e3d 791a 82bc 9e73 a3bd 8862 233d
00000090: 6588 e73c 5298 5cbd 9b37 a9bd d4f4 e93b
000000a0: 75a7 af3d e1dc 88bd 6ff8 1abd 8865 903d
000000b0: b261 083d 965e 74bc a188 adbd e47a 0ebd
000000c0: 86be 92b9 342f 8c3c ed70 093d 89b5 6b3d
000000d0: 78f0 c93b 7c14 543c 3099 543d 614b 95bd
000000e0: f21b 023d 8008 b2bc cea8 0ebd af78 acbc
000000f0: 5d50 f13c b0f7 043d dd3c 6abd 2b7e 5e3d
00000100: 253d ccbc 8980 84bc 5753 583d 899f 8a3d
00000110: 4929 a73c ca71 653d a0d4 adbd 3d91 a1bd
00000120: e8db 3cbd fbf0 50bd 1fbf 05bd c80c 40bd
00000130: fd1a a5bc a194 0e3d 09a0 55bc 2801 443d
00000140: 3f13 82bc 97f2 91bd 1534 2bbd a1ed 20bc
00000150: 5ba5 063d 5bd2 54bc 4c0e a03c 0c88 abbd
00000160: d541 1f3d aa04 40bc cfd0 a2bd 3f1e adbd
00000170: 853d ae3d 0c52 313c 37e6 3abd 3124 ecbc
00000180: fd10 0dbd 5ed0 fc3c 6455 8a3d 3872 0b3d
00000190: 19d0 f2bc 284f 873d 6cce e6bc 2e73 5d3d
000001a0: 1695 a9bd fa83 eb3c 6824 503d ca85 bbbc
000001b0: 2092 85bd bb9c 973c b896 b43d 348a 9c3d
000001c0: 2a79 4f3c 9ed9 efba 57df 983d 72ed a83d
000001d0: cb17 143c 980f 9d3c 813b 833d c33a e6b8
000001e0: e24e 2f3d ccde 6abd cda1 8dbd 310b 9cbd
000001f0: c24f 44bd b3de 52bd b153 a03d ce8f 7d3d
00000200: 4b39 073d e9e3 3d3d 2946 b03d 4285 86bd
00000210: 8458 883d 68c2 acbc 13b4 95bd 69fc 2e3d
00000220: 68a1 af3c ec4e 183d d01f 1fbd d6ff 14bc
00000230: 7841 2b3d 311e 9a3d 2c57 92bd 3fc5 90bd
00000240: feaa 1fbc 532d 1fbb 93b3 2c3d af3b 433d
00000250: 666d f6bc e42a 283d 4ece 5cbd 281b 18bc
00000260: 8866 5b3c e018 843d b4a3 2a3d dce9 0cbd
00000270: b141 123d 2358 98bd 89a0 0fbc a719 8b3c
00000280: 4f90 91bd c18c 40bd 45c2 9b3d 05f9 78bd
00000290: 1b3a 553d 043c 48bd 82b2 293d 4c3e 1bbd
000002a0: 5152 8e3d 5427 3ebd 85f8 a6bd 8c71 84bc
000002b0: 58a6 a53b fef3 513d 7f31 423b 0da8 45bd
000002c0: 1867 a4bd 3734 0dbd 3c7d 853d f139 24bd
000002d0: 502f 8abc 8809 dabc 5f64 a8bc 8ce9 eb3c
000002e0: 4460 31bd 87d1 aebd b68a 8fbd e7de 39bd
000002f0: f021 82bd 19ce d33c becc 0fbd a996 693d
00000300: ae1a 903d 6b63 9c3d 9da6 afbd 50f0 a03d
00000310: 075d 2abd cdb2 15bc 64fa 073d d7e2 933d
00000320: 2b12 75bd 6f98 a43d 78c7 6d3d 64cf 59bd
00000330: 49ff 73bd f38f c43c b0ed 65bb adb8 483d
00000340: bb8b 463d c82d 103c 86a2 0a3d e515 ed3c
00000350: 124c 50bc 3f0b acbd a7a9 fe3c ff24 12bd
00000360: 1b99 5c3d 0f1e 91bd 79ca afbb 0e74 8a3d
00000370: ab95 223b 9ff2 18bd 4135 3dbc 7f93 553d
00000380: 0726 61bd f55a 053a 904a 87bc 79e5 803d
00000390: b196 6e3c 75c7 d83c 08af 13bd 15b1 233d
000003a0: c322 65bd 7644 79bd b5f3 813d 081b 25bd
000003b0: bbde ae3d 5dd2 71bd f547 9a3c ee21 bbbc
000003c0: e4e5 8abb 4592 9dbd ad96 5c3d ae0e 993d
000003d0: aaf2 b13d 15ba 9d3d faec d43c ad64 7c3d
000003e0: 31cc 85bd a7ef 8bbd a5e5 43bd 9fd2 553c
000003f0: 3eaf 52bd 8774 8cbd 390a 983d 3251 8e3d

Q1.a_head.2.bias f4 [6]
0.083474584 -0.012218563 0.010844645 -0.010242964 0.019347074 0.004536575
00000000: b9f4 aa3d 5e30 48bc bdad 313c 1bd2 27bc
00000010: c17d 9e3c 8da7 943b

Q1.v_head.0.weight f4 [128, 294]
0.05125216 0.00965291 0.033227973 -0.044039976 0.010281138 0.04971942 0.019377103 0.010262637
-0.022055762 0.010871448 -0.015049759 0.026494635 0.05514334 -0.052773766 -0.014902118 -0.050358016
-0.0050510494 -0.04759012 -0.009700109 -0.046897124 -0.036552086 -0.044479083 -0.052933596 -0.0021915787
0.0038490165 -0.018691711 0.036281206 -0.003275497 -0.0045573227 0.025680827 -0.045862205 0.04085125
-0.017377341 0.040251452 -0.020538164 -0.013867638 -0.033681896 -0.047151387 0.036047243 -0.007166666
0.03949377 0.017886342 -0.022893446 -0.023951279 -0.0065335156 -0.041867487 0.056999885 0.021772025
-0.025789443 -0.058108266 0.042673748 -0.010487666 -0.046961725 0.03800187 0.036839034 0.044509154
-0.017399894 -0.004898159 -0.045519 0.0062011755 0.025166264 -0.052304555 0.01198814 0.01766098
-0.049243942 -0.02370332 0.005531928 0.012248 -0.0008617116 -0.004699097 -0.019401979 0.003205903
-0.012607205 -0.03776788 -0.018754805 0.043806735 0.024479447 -0.04910527 0.0061513963 0.051074143
-0.011355044 -0.01847894 0.040600277 0.025507675 -0.045808498 0.0558508 0.039968926 -0.050464436
0.018467808 0.009999113 -0.0074999724 -0.013961211 0.008916919 0.05484523 -0.027859237 0.040270258
-0.038628444 0.035471722 -0.03014329 0.018043092 0.0051634773 -0.057500374 -0.029853888 -0.052872688
0.01775996 0.004226471 0.028736696 -0.037728082 0.0037885304 0.019245792 -0.025369726 -0.0041499315
-0.04254404 -0.03000986 0.050386973 0.02266394 0.030351043 -0.0481625 0.0062434115 -0.014419313
0.049959537 0.056910872 -0.015857548 -0.038975183 -0.035359632 -0.037981804 0.030132486 0.001585807
-8.3568175e-06 -0.0049124113 0.021948716 -0.036693268 -0.031962726 0.005049089 0.005870824 -0.026719172
0.028025547 -0.02531412 0.016386725 -0.023696417 -0.040598135 -0.02413316 0.021532355 0.0210668
-0.00043542354 0.051521752 -0.054017134 -0.0027289458 0.054235134 0.037750684 0.05531016 0.058142982
-0.058316194 -0.017633587 0.035130233 0.052796092 0.016679212 -0.028254503 -0.04744072 -0.056268837
0.056816652 0.04736355 -0.0432673 -0.02403404 -0.033109695 -0.04035836 0.03714877 0.00048687152
0.016547382 -0.032430965 -0.03968227 0.03463372 -0.04058053 -0.003272591 -0.035944603 0.02665048
-0.00683961 -0.013293944 -0.051072694 -0.050696395 0.00736894 -0.036411244 -0.05557946 -0.051091023
0.0022757936 0.039340064 -0.009170529 -0.04521182 0.011173621 0.05829686 0.05167902 -0.018531283
0.051105212 0.052288037 -0.023683464 0.01869475 -0.053481635 -0.05599381 -0.012788829 0.015484696
0.0045492374 -0.04111562 -0.031734716 -0.050976247 0.04327722 0.057795145 0.053644434 0.042257477
-0.01386364 -0.031911418 0.03237403 0.034850597 -0.00095107814 -0.055953946 -0.046651967 0.021263553
-0.043238703 -0.008102185 -0.051854037 -0.016051006 -0.018498072 0.05151695 -0.024172198 -0.016170956
-0.019345976 -0.056326333 -0.049266092 -0.047443252 -0.041120943 -0.019458933 -0.05518245 -0.0065995427
0.05108147 0.037264884 0.053075086 0.013734965 -0.021775113 -0.00699159 -0.056812983 0.041189987
-0.012992036 0.01153423 0.019883428 0.01069868 -0.0029360864 -0.04457256 0.041495048 0.046489295
-0.02729707 0.04143578 -0.028155556 0.0046267845 -0.013848199 -0.042151954 -0.028495329 -0.0014473771
00000000: c9ed 513d 3d27 1e3c 0e1a 083d 4363 34bd
00000010: 3872 283c 97a6 4b3d bbbc 9e3c 9f24 283c
00000020: 49ae b4bc 281e 323c 4493 76bc 470b d93c
00000030: fcdd 613d 4e29 58bd 0328 74bc 3544 4ebd
00000040: 4683 a5bb dced 42bd 35ed 1ebc 3317 40bd
00000050: a4b7 15bd b32f 36bd e6d0 58bd 97a0 0fbb
00000060: c83f 7c3b 5c1f 99bc 9a9b 143d b8a9 56bb
00000070: 9855 95bb 9960 d23c 02da 3bbd a453 273d
00000080: ed5a 8ebc b5de 243d a73f a8bc 1735 63bc
00000090: 07f6 09bd d021 41bd 46a6 133d 5ad6 eabb
000000a0: 38c4 213d 6186 923c 098b bbbc 7935 c4bc
000000b0: 1a17 d6bb 3e7d 2bbd b678 693d 3f5b b23c
000000c0: 6244 d3bc ef02 6ebd abca 2e3d 76d4 2bbc
000000d0: f05a 40bd d9a7 1b3d 87e4 163d 3b4f 363d
000000e0: 398a 8ebc bc80 a0bb 2272 3abd 3b33 cb3b
000000f0: 7b29 ce3c 4d3d 56bd e769 443c c2ad 903c
00000100: 04b4 49bd 772d c2bc 2d45 b53b d6ab 483c
00000110: 7de4 61ba e2fa 99bb e6f0 9ebc 211a 523b
00000120: 738e 4ebc 7eb2 1abd ada3 99bc b16e 333d
00000130: 1f89 c83c 9c22 49bd a791 c93b 1f33 513d
00000140: 820a 3abc 2561 97bc 7a4c 263d 79f5 d03c
00000150: b1a1 3bbd cfc3 643d 75b6 233d ccb3 4ebd
00000160: cd49 973c 52d3 233c 54c2 f5bb 90bd 64bc
00000170: 4518 123c 64a5 603d 0e39 e4bc 6df2 243d
00000180: dc38 1ebd cc4a 113d 10ef f6bc 1bcf 933c
00000190: 6332 a93b 8385 6bbd 2490 f4bc 0891 58bd
000001a0: 567d 913c 357e 8a3b 3869 eb3c c388 1abd
000001b0: fe48 783b 5aa9 9d3c 2cd4 cfbc 26fc 87bb
000001c0: a942 2ebd 3dd7 f5bc 9262 4e3d baa9 b93c
000001d0: c0a2 f83c 0b46 45bd 8895 cc3b fb3e 6cbc
000001e0: 5fa2 4c3d 601b 693d b0e7 81bc 71a4 1fbd
000001f0: 43d5 10bd cf92 1bbd 67d8 f63c dada cf3a
00000200: 4234 0cb7 4bf8 a0bb cbcd b33c ae4b 16bd
00000210: 59eb 02bd d472 a53b 0b60 c03b 2ae2 dabc
00000220: d595 e53c 8f5f cfbc 743d 863c fd1e c2bc
00000230: 3b4a 26bd e8b2 c5bc 9f64 b03c 4894 ac3c
00000240: 8f49 e4b9 7908 533d 1241 5dbd 1dd8 32bb
00000250: a925 5e3d 76a0 1a3d e88c 623d 5627 6e3d
00000260: f6dc 6ebd 5074 90bc b8e4 0f3d b740 583d
00000270: d8a2 883c fd75 e7bc 3351 42bd 277a 66bd
00000280: 94b8 683d 4800 423d 0d39 31bd 09e3 c4bc
00000290: 089e 07bd cf4e 25bd 4f29 183d ca42 ff39
000002a0: 608e 873c 55d6 04bd e089 22bd 16dc 0d3d
000002b0: c537 26bd f778 56bb a63a 13bd 1c52 da3c
000002c0: cf1e e0bb d8ce 59bc 9a31 51bd 06a7 4fbd
000002d0: 2677 f13b f523 15bd 4aa7 63bd d244 51bd
000002e0: 7b25 153b 0c23 213d fd3f 16bc 0830 39bd
000002f0: 9011 373c b0c8 6e3d 61ad 533d ebce 97bc
00000300: b353 513d fb2b 563d d303 c2bc bb25 993c
00000310: 8f0f 5bbd c459 65bd 3d88 51bc 86b3 7d3c
00000320: c511 953b da68 28bd 43fc 01bd 78cc 50bd
00000330: 7443 313d 9aba 6c3d 44ba 5b3d 2d16 2d3d
00000340: 5224 63bc 8cb5 02bd a29a 043d 80bf 0e3d
00000350: c651 79ba f72f 65bd 2216 3fbd e730 ae3c
00000360: 111b 31bd 07bf 04bc e664 54bd 667d 83bc
00000370: 4589 97bc 7003 533d c604 c6bc f478 84bc
00000380: 747b 9ebc 71b6 66bd 3ecb 49bd db53 42bd
00000390: 6f6e 28bd 5768 9fbc fe06 62bd fa40 d8bb
000003a0: ce3a 513d 10a3 183d 4365 593d 9e08 613c
000003b0: b961 b2bc b519 e5bb bbb4 68bd d5b6 283d
000003c0: 8cdc 54bc 11fa 3c3c 92e2 a23c 8449 2f3c
000003d0: 5b6b 40bb b791 36bd b6f6 293d 8f6b 3e3d
000003e0: 1b9e dfbc 90b8 293d 7ba6 e6bc 489c 973b
000003f0: 8ee3 62bc 87a7 2cbd 096f e9bc ebb5 bdba

Q1.v_head.0.bias f4 [128]
0.023285521 0.03500762 0.027484572 0.027108032 0.0042364933 0.049304318 0.013731959 0.030965256
-0.003232239 0.041325964 0.016001832 -0.053949542 -0.028374791 -0.04031587 0.046030086 0.010533145
0.008828116 0.04375579 -0.04194665 0.053799763 0.048969574 0.002184187 -0.04668655 0.016900375
0.056911476 -0.04593291 -0.028734604 0.026540311 -0.030670153 0.022226797 -0.037048746 -0.015195028
-0.040331226 0.010521027 0.041626483 0.035411652 0.06247208 -0.061295807 0.05804127 0.023694431
-0.025882453 -0.011568596 -0.021071464 -0.053618174 0.025187695 -0.049827773 -0.01208689 0.0008959937
0.030242246 0.02560006 0.0055779717 -0.009312463 -0.04639295 0.032362588 -0.0034951312 0.026371235
-0.055875316 0.016386934 0.034951564 0.0045697754 0.049715526 0.04617388 0.037996106 0.03147404
0.06954706 0.021043377 0.0028624013 0.051263463 0.05025562 -0.019663008 0.05437968 0.059252653
-0.020050362 0.068298854 0.003963495 -0.035285905 0.0060160602 0.056373093 0.05776232 0.024268491
0.03556266 0.022118995 0.024866406 -0.015758418 0.014188339 0.015468208 -0.045441702 -0.046324104
0.020668946 -0.05543472 0.022649558 -0.015076866 -0.004325424 0.017585305 0.038049284 -0.035691906
0.04902143 -0.043720506 0.027045213 -0.050332554 0.0052278633 -0.007277087 0.03684409 -0.004437226
-0.020902125 0.045654714 -0.04732902 -0.048697315 0.024940118 0.0013290816 0.009936638 0.047720626
0.01842081 -0.023145068 0.03128173 0.016233578 -0.008926082 0.07036464 0.06829858 0.0025845787
-0.00920921 0.050492816 0.028194053 -0.057819143 -0.019886382 0.056779068 -0.009409583 -0.02999119
00000000: 47c1 be3c 2664 0f3d 5327 e13c aa11 de3c
00000010: 48d2 8a3b 53f3 493d 03fc 603c d9aa fd3c
00000020: f9d3 53bb 6a45 293d 4616 833c 32fa 5cbd
00000030: 4072 e8bc 4122 25bd 0b8a 3c3d 3693 2c3c
00000040: cda3 103c 4539 333d 40d0 2bbd 245d 5c3d
00000050: 5294 483d 9424 0f3b 653a 3fbd a872 8a3c
00000060: 021c 693d 2624 3cbd d564 ebbc 116b d93c
00000070: f93f fbbc f914 b63c 6dc0 17bd 91f4 78bc
00000080: 5b32 25bd 6360 2c3c 8880 2a3d cf0b 113d
00000090: b9e2 7f3d 5011 7bbd afbc 6d3d d31a c23c
000000a0: 7007 d4bc 358a 3dbc 109e acbc bb9e 5bbd
000000b0: 6d56 ce3c 3518 4cbd 1708 46bc 1fe1 6a3a
000000c0: 96be f73c 38b7 d13c 6bc7 b63b 4d93 18bc
000000d0: 8906 3ebd a28e 043d 920e 65bb 7d08 d83c
000000e0: 84dd 64bd e43d 863c 5f29 0f3d 0ebe 953b
000000f0: 82a2 4b3d d320 3d3d cea1 1b3d ecea 003d
00000100: b06e 8e3d 2963 ac3c 2097 3b3b a3f9 513d
00000110: d6d8 4d3d 5114 a1bc 3abd 5e3d e9b2 723d
00000120: a840 a4bc 45e0 8b3d 35e0 813b f487 10bd
00000130: 5f22 c53b 79e7 663d 2f98 6c3d b7ce c63c
00000140: 27aa 113d e532 b53c a2b4 cb3c cc17 81bc
00000150: 3576 683c 5e6e 7d3c 1421 3abd 58be 3dbd
00000160: ec51 a93c 840f 63bd 918b b93c f604 77bc
00000170: 49bc 8dbb 0f0f 903c 91d9 1b3d ad31 12bd
00000180: b2ca 483d 4614 33bd ec8d dd3c 8229 4ebd
00000190: 7f4e ab3b a174 eebb d4e9 163d 2666 91bb
000001a0: ef3a abbc 7000 3b3d 13dc 41bd d676 47bd
000001b0: 384f cc3c 9434 ae3a 48cd 223c b476 433d
000001c0: 3de7 963c ba9a bdbc 4521 003d 48fc 843c
000001d0: b43e 12bc 561b 903d 20e0 8b3d 0962 293b
000001e0: 3ae2 16bc 8ed1 4e3d 37f7 e63c c4d3 6cbd
000001f0: c4e8 a2bc 2b91 683d a72a 1abc 16b0 f5bc

Q1.v_head.2.weight f4 [1, 128]
0.031550772 0.044362128 0.035553344 -0.044490404 -0.043206673 -0.03228412 -0.067236125 -0.017426742
-0.035753656 -0.00785042 0.063368306 -0.06263875 -0.0041116443 -0.076253705 -0.0709514 -0.05255912
-0.041388858 -0.008297692 -0.008280696 0.06863636 0.047203764 0.027979266 0.08985677 0.07272741
-0.039682586 -0.0321257 0.0069993692 0.09973171 0.056661747 0.021757603 -0.059218764 -0.01524837
0.068788156 -0.009267285 -0.005439839 -0.08785854 0.10100606 -0.0034968886 0.085257344 -0.020138737
0.033693947 0.0126896575 -0.054065596 -0.004517984 -0.041144326 0.010021719 -0.036269944 0.059892986
0.087792315 0.010848957 0.09258553 -0.013532573 -0.021621699 -0.006327551 0.073577315 -0.049029257
-0.055298697 0.056518387 0.035536032 0.060379427 -0.050039407 -0.00271678 0.04505012 0.017213657
0.065827645 -0.069871224 -0.008905021 0.062395975 0.0014669105 0.0021739027 -0.079932444 0.057723682
-0.019552397 0.025205702 -0.08642862 0.026567245 -0.07806586 -0.08743333 -0.08704085 0.080589786
0.02429081 -0.009674369 0.018423809 0.100833274 -0.058628656 0.044980455 -0.05212836 0.023169387
-0.031497214 -0.024401655 -0.013957627 0.011400902 -0.08000634 0.07269786 -0.0010339781 -0.033233926
0.058090735 0.038572554 -0.039364133 -0.060743697 -0.045515243 -0.06720126 0.03581775 0.030113345
-0.07387806 -0.064352676 -0.008437889 -0.019960694 -0.037218273 0.061279397 -0.08316666 0.014672508
-0.040986143 0.013490922 0.056408927 -0.03821069 0.07922951 0.03118047 0.017138615 -8.302929e-06
0.031462654 -0.023628902 -0.010617129 -0.02226354 -0.054771967 -0.07661359 0.05591442 -0.07785491
00000000: 623b 013d 10b5 353d 62a0 113d 923b 36bd
00000010: 7bf9 30bd 5a3c 04bd 18b3 89bd 87c2 8ebc
00000020: 6d72 12bd 0c9f 00bc 3ec7 813d bf48 80bd
00000030: f9ba 86bb e72a 9cbd f84e 91bd 3b48 57bd
00000040: 5d87 29bd 0bf3 07bc c2ab 07bc 3891 8c3d
00000050: bc58 413d c634 e53c d406 b83d 1cf2 943d
00000060: 358a 22bd 3d96 03bd f75a e53b 2440 cc3d
00000070: 2616 683d 003d b23c 608f 72bd 4dd4 79bc
00000080: cee0 8c3d cfd5 17bc ad40 b2bb 2eef b3bd
00000090: 44dc ce3d 0e2c 65bb 679b ae3d fef9 a4bc
000000a0: aa02 0a3d 48e8 4f3c e373 5dbd 990b 94bb
000000b0: f486 28bd 2332 243c cb8f 14bd 5952 753d
000000c0: 75cc b33d d3bf 313c 7b9d bd3d bab7 5dbc
000000d0: fd1f b1bc 5857 cfbb b4af 963d e7d2 48bd
000000e0: e380 62bd d37f 673d 3b8e 113d 6b50 773d
000000f0: 1ff6 4cbd 010c 32bb 7a86 383d a803 8d3c
00000100: a5d0 863d a518 8fbd 5de6 11bc ec92 7f3d
00000110: 5945 c03a 0978 0e3b 9fb3 a3bd ab6f 6c3d
00000120: 592c a0bc 307c ce3c 7d01 b1bd 8da3 d93c
00000130: fee0 9fbd 3f10 b3bd 7942 b2bd 420c a53d
00000140: 85fd c63c 3f81 1ebc 87ed 963c ad81 ce3d
00000150: 9a24 70bd 6d3d 383d 8c84 55bd bacd bd3c
00000160: 3903 01bd fbe5 c7bc 88ae 64bc d9ca 3a3c
00000170: 5dda a3bd 9ee2 943d 8c86 87ba 4c20 08bd
00000180: 8df0 6d3d 41fe 1d3d 493c 21bd 62ce 78bd
00000190: 316e 3abd d0a0 89bd a2b5 123d 43b0 f63c
000001a0: 614d 97bd 56cb 83bd 123f 0abc 9c84 a3bc
000001b0: 3072 18bd 1b00 7b3d 4853 aabd f664 703c
000001c0: 16e1 27bd 0709 5d3c 0c0d 673d d082 1cbd
000001d0: 1543 a23d 2f6e ff3c 4866 8c3c cf4c 0bb7
000001e0: fcde 003d 6691 c1bc 77f3 2dbc 0762 b6bc
000001f0: 9258 60bd 96e7 9cbd 8506 653d 6572 9fbd
