models_decentralized/final/online_critic_1_2350.pth (torch, 631787 bytes, 26 tensors)

Q1.conv.net.0.weight f4 [3, 31, 3, 3]
0.009215833 0.19378182 -0.035611097 0.08514041 0.09384925 0.121235356 -0.025530139 0.06972937
0.07449804 0.059777223 0.10155558 -0.01505369 -0.11100671 0.12644303 0.05615143 0.14170234
0.12237075 0.0586613 0.14594573 0.008811624 0.18560615 -0.07864549 0.101465054 0.18478452
-0.017047316 0.08971259 0.17576829 0.123537846 0.09152232 0.06604642 -0.0043524285 -0.02047632
-0.02192859 0.08511741 0.06296154 0.18002073 2.2645952e-05 0.07309037 0.13570777 -0.069309466
-0.08504519 -0.0049383338 0.17630436 -0.074104875 0.15444197 0.06984249 0.04568116 0.17690523
0.12592158 0.106499866 -0.080729336 0.03561364 0.14707766 0.05038414 0.04073283 0.0457304
0.08343406 0.079806514 -0.122191414 -0.12564044 0.060586214 0.14246567 0.14911315 0.23228255
0.1818035 0.1200795 -0.017723138 0.10077859 0.078031436 0.20338142 -0.022960246 0.036538187
0.24324487 0.059870582 0.1713671 0.038917307 0.0957834 0.07047076 0.0071165306 0.14372715
-0.012354723 0.02790219 0.23057744 0.19725327 -0.008036008 -0.13917352 -0.11764385 0.025755089
0.054213524 0.038757406 0.06600131 -0.04342076 -0.17053461 0.14024284 -0.12707973 -0.043321114
0.033806603 -0.05966769 -0.120721124 0.017531 0.05001966 -0.13702692 0.0849128 -0.1511767
-0.14835644 -0.046230026 -0.058360156 -0.13451429 -0.006053455 0.044508904 -0.0017721325 -0.07058903
-0.13228753 -0.1343762 0.04947369 0.013966928 0.09106536 -0.050233375 -0.0019930117 -0.09528379
0.063053206 -0.11349053 -0.11743635 0.12073735 0.093287356 0.07145687 -0.1032272 0.12012142
0.12773964 0.076287925 0.084412195 0.09719535 -0.05369912 0.017209755 -0.05578541 0.09606131
0.11064904 0.1441373 0.20084725 -0.08203453 0.17984614 0.03304049 -0.121345975 -0.072162785
0.14162475 -0.0077923806 0.14429866 0.054762468 -0.03284 0.13222103 -0.07032194 -0.10180582
-0.14086938 0.05838835 -0.05347816 0.05303794 0.18964249 0.015068033 0.1423052 0.057001624
0.11180493 0.001809348 -0.09641668 -0.08111298 -0.09340047 0.18228972 0.16837038 0.047055732
-0.06267528 0.088140555 -0.09021969 0.09328746 -0.079383 -0.07077774 -0.021452729 -0.09149766
-0.029306592 -0.11650842 -0.09066053 0.04877441 -0.03252228 -0.115765564 0.039896846 0.11757748
0.15288338 -0.024193693 -0.02307037 -0.03126113 0.0746448 -0.09351042 -0.039680365 -0.15012792
0.16504706 0.16056329 0.04049619 -0.12211473 -0.14594336 0.12716089 0.093502454 0.024702724
-0.046042845 -0.022392962 0.07311957 -0.069288924 -0.14283328 0.07839988 0.12435826 -0.14694129
-0.048727736 0.08013828 -0.0073227426 0.09238373 -0.09088278 0.08498205 -0.13612315 0.015079027
-0.10448809 0.022917576 0.018811714 -0.09916988 -0.02522913 -0.027684186 -0.012710126 -0.1382904
0.002309681 0.091597 0.14014646 0.14123677 -0.053064547 -0.023390612 0.13960512 0.031621262
-0.12630135 -0.12662867 -0.006372481 0.11493306 0.05955224 0.119955026 -0.07201759 -0.0017047604
0.055031598 -0.053631734 0.053955477 -0.078842804 -0.053884886 -0.041296892 -0.10393318 0.15293819
0.01899846 0.036877677 -0.08141286 -0.057395123 -0.05075355 0.031318355 -0.12362295 0.05549926
00000000: 01fe 163c be6e 463e f1dc 11bd 185e ae3d
00000010: 0934 c03d 3e4a f83d 9524 d1bc 46ce 8e3d
00000020: 6e92 983d f6d8 743d 5ffc cf3d c1a3 76bc
00000030: 7c57 e3bd 487a 013e 0bff 653d 6b1a 113e
00000040: 849d fa3d d546 703d cc72 153e a15e 103c
00000050: 8a0f 3e3e e310 a1bd e9cc cf3d 2738 3d3e
00000060: d0a6 8bbc 3cbb b73d 9afc 333e 6901 fd3d
00000070: 0e70 bb3d 5843 873d d19e 8ebb f5bd a7bc
00000080: 96a3 b3bc 0952 ae3d fbf1 803d 5b57 383e
00000090: d0f7 bd37 67b0 953d faf6 0a3e 1ff2 8dbd
000000a0: 2c2c aebd bfd1 a1bb 2189 343e 4cc4 97bd
000000b0: 0926 1e3e 9409 8f3d 2b1c 3b3d a526 353e
000000c0: 96f1 003e 9a1c da3d 6c55 a5bd 9cdf 113d
000000d0: 879b 163e 9a5f 4e3d 78d7 263d cd4f 3b3d
000000e0: 7adf aa3d 9971 a33d 7e3f fabd e3a7 00be
000000f0: 4029 783d 85e2 113e 1eb1 183e 7adb 6d3e
00000100: b22a 3a3e 3eec f53d 1d30 91bc 0165 ce3d
00000110: f2ce 9f3d 3843 503e 2017 bcbc 11a9 153d
00000120: 2f15 793e db3a 753d db7a 2f3e c167 1f3d
00000130: 162a c43d f952 903d c931 e93b 362d 133e
00000140: 776b 4abc 2293 e43c 7e1c 6c3e c3fc 493e
00000150: 76a9 03bc 8183 0ebe 42ef f0bd 56fc d23c
00000160: 000f 5e3d 16c0 1e3d b22b 873d f8d9 31bd
00000170: a0a0 2ebe d29b 0f3e 3021 02be 7b71 31bd
00000180: cb78 0a3d 1c66 74bd a33c f7bd 2c9d 8f3c
00000190: 6ae1 4c3d c950 0cbe c3e6 ad3d 11ce 1abe
000001a0: c0ea 17be b25b 3dbd 0f0b 6fbd 1dbe 09be
000001b0: 105c c6bb f84e 363d e646 e8ba fb90 90bd
000001c0: 6276 07be ea99 09be eda4 4a3d 8bd5 643c
000001d0: 7a80 ba3d 83c1 4dbd 309d 02bb 2624 c3bd
000001e0: 0a22 813d b96d e8bd 7882 f0bd 2545 f73d
000001f0: 710d bf3d fb57 923d c868 d3bd 3802 f63d
00000200: 2ece 023e d83c 9c3d 4de0 ac3d 5b0e c73d
00000210: 9cf3 5bbd 79fb 8c3c 3e7f 64bd cbbb c43d
00000220: f79b e23d ba98 133e e7aa 4d3e b801 a8bd
00000230: 9629 383e 7755 073d 3d84 f8bd 15ca 93bd
00000240: 1406 113e 3a57 ffbb 07c3 133e 9c4e 603d
00000250: 3c83 06bd f364 073e f304 90bd 927f d0bd
00000260: 1040 10be 9f28 6f3d ea0b 5bbd 503e 593d
00000270: a431 423e e9df 763c 74b8 113e 897a 693d
00000280: fcf9 e43d a527 ed3a 1c76 c5bd 901e a6bd
00000290: bf48 bfbd 28aa 3a3e 4969 2c3e 83bd 403d
000002a0: e65b 80bd 0983 b43d 1ac5 b8bd 7f0d bf3d
000002b0: 8e93 a2bd ebf3 90bd a2bd afbc 2063 bbbd
000002c0: 6114 f0bc f79b eebd 3aac b9bd adc7 473d
000002d0: 1536 05bd 7f16 edbd e06a 233d 76cc f03d
000002e0: 768d 1c3e da31 c6bc 13fe bcbc ac0b 00bd
000002f0: 5fdf 983d 6482 bfbd e187 22bd 22bb 19be
00000300: 1902 293e b46a 243e 55df 253d 4a17 fabd
00000310: 2d72 15be 7736 023e 377e bf3d 5e5d ca3c
00000320: 6c97 3cbd 7271 b7bc b7bf 953d 5ae7 8dbd
00000330: e342 12be 1e90 a03d 8baf fe3d c777 16be
00000340: bc96 47bd 8a1f a43d 9ef3 efbb ae33 bd3d
00000350: c020 babd 120b ae3d de63 0bbe 060e 773c
00000360: dafd d5bd a4bd bb3c 061b 9a3c 9419 cbbd
00000370: 52ad cebc f2c9 e2bc 223e 50bc 009c 0dbe
00000380: 045e 173b 3597 bb3d 8e82 0f3e 5fa0 103e
00000390: 365a 59bd ab9d bfbc a5f4 0e3e 4c85 013d
000003a0: 2455 01be f2aa 01be 3fd0 d0bb 0662 eb3d
000003b0: 0ded 733d fbaa f53d f57d 93bd 4472 dfba
000003c0: d068 613d f3ac 5bbd 6b00 5d3d 5678 a1bd
000003d0: 66b6 5cbd ee26 29bd ebda d4bd d49b 1c3e
000003e0: a9a2 9b3c 0c0d 173d c9bb a6bd 2617 6bbd
000003f0: f4e2 4fbd ad47 003d 072e fdbd 3153 633d

Q1.conv.net.0.bias f4 [3]
0.009129603 -0.029714992 0.0052105035
00000000: 5594 153c db6c f3bc dfbc aa3b

Q1.conv.net.3.weight f4 [6, 3, 3, 3]
-0.42170486 -0.23167263 -0.35672677 -0.24251404 0.026446357 -0.254876 0.30834845 -0.17266108
0.096106954 -0.08668236 -0.2480731 -0.27639684 -0.4325389 -0.21048641 0.30051264 0.4172282
-0.18621314 0.18806778 -0.12399912 0.1747985 -0.23476996 0.43309057 0.32734406 -0.007118935
-0.032952953 -0.30254355 0.084020756 -0.109189905 -0.23015408 0.08184713 -0.45821977 0.3694245
0.44734764 0.0670867 0.3102101 0.0530155 -0.290308 0.24693654 -0.19186017 -0.28703922
-0.2783831 -0.3194268 0.072262466 0.09914304 -0.22004613 -0.4455979 0.35773104 -0.18088913
-0.22179559 0.12418339 0.38584757 0.07463914 -0.055470604 0.46144116 -0.063071966 -0.32663196
0.169035 -0.067565195 0.47593465 0.21210563 0.019511318 0.40490437 0.33804145 -0.023754947
0.04555526 0.0051418575 -0.2775298 0.3410198 -0.09839247 -0.40981963 0.09265037 -0.015612339
-0.12940073 -0.30948675 -0.23323238 0.27983168 -0.28442588 -0.16755213 0.4149656 -0.1695123
0.4686168 0.08177467 -0.29044598 -0.23217973 -0.030458104 -0.09629739 -0.4374429 -0.34663877
-0.3487925 -0.38288686 0.22265452 0.2973087 0.35347793 -0.09977425 0.43566594 -0.41923672
-0.27991217 -0.4031615 -0.38367262 -0.14273468 0.19214357 -0.31262684 0.3025116 -0.2932927
-0.28006575 -0.14260876 -0.019329948 0.15852207 -0.10179905 -0.18710287 0.06545173 -0.017712235
0.02518413 -0.10242138 0.00897312 0.19773027 -0.2711993 -0.22925383 0.48144507 -0.3468761
-0.22107238 0.25855374 0.23072852 0.19072028 0.034291703 0.1722294 -0.040554147 0.0066042813
-0.09503549 -0.3434241 0.36584687 -0.13868771 -0.3190438 0.34315604 -0.3381481 -0.28444865
0.32218128 -0.47969675 -0.3644443 0.04416675 0.1138533 -0.26180777 0.08373842 0.19007334
0.014359125 0.43726924 -0.025549635 0.26970953 0.18335079 -0.22727078 -0.18809912 0.28500125
-0.180819 -0.3237302 0.43640637 -0.15059188 0.083586 -0.27507463 0.17983225 0.0856832
-0.12240631 -0.13504231
00000000: b3e9 d7be 973b 6dbe e4a4 b6be 9a55 78be
00000010: 08a6 d83c 1b7f 82be d9df 9d3e 11ce 30be
00000020: b9d3 c43d 8586 b1bd e006 7ebe e383 8dbe
00000030: bd75 ddbe c089 57be cbdc 993e ef9e d53e
00000040: a8ae 3ebe d794 403e 40f3 fdbd 61fe 323e
00000050: 8967 70be 0cbe dd3e a499 a73e f545 e9bb
00000060: adf9 06bd fde6 9abe 1313 ac3d f59e dfbd
00000070: 83ad 6bbe 789f a73d c89b eabe 3525 bd3e
00000080: c00a e53e c064 893d dcd3 9e3e c826 593d
00000090: 40a3 94be efdc 7c3e fe76 44be cef6 92be
000000a0: 3b88 8ebe e98b a3be 58fe 933d 820b cb3d
000000b0: c653 61be 6825 e4be 8628 b73e 003b 39be
000000c0: 621e 63be dc53 fe3d d08d c53e 68dc 983d
000000d0: 2535 63bd 0442 ec3e e02b 81bd 4e3c a7be
000000e0: 8317 2d3e 9f5f 8abd b5ad f33e 3832 593e
000000f0: 33d6 9f3c a04f cf3e c513 ad3e bc99 c2bc
00000100: 2798 3a3d 077d a83b 6318 8ebe 269a ae3e
00000110: fe81 c9bd e1d3 d1be 7abf bd3d e5ca 7fbc
00000120: a081 04be 0c75 9ebe 78d4 6ebe 1946 8f3e
00000130: 45a0 91be c992 2bbe 5f76 d43e a294 2dbe
00000140: 8bee ef3e 7a79 a73d 56b5 94be 86c0 6dbe
00000150: 4683 f9bc 9137 c5bd 84f8 dfbe a37a b1be
00000160: ee94 b2be bf09 c4be 8cff 633e d938 983e
00000170: 0ffb b43e 7156 ccbd 9b0f df3e 32a6 d6be
00000180: a650 8fbe 2f6b cebe bd70 c4be 0a29 12be
00000190: 49c1 443e a010 a0be cde2 9a3e 762a 96be
000001a0: c764 8fbe 0808 12be d759 9ebc 9c53 223e
000001b0: 057c d0bd e597 3fbe 8e0b 863d 4019 91bc
000001c0: f34e ce3c 4dc2 d1bd fe03 133c ce79 4a3e
000001d0: a2da 8abe 84c1 6abe f87f f63e bf99 b1be
000001e0: cc60 62be 2861 843e 1944 6c3e 2d4c 433e
000001f0: 7575 0c3d e75c 303e 1b1c 26bd ba68 d83b
00000200: f8a1 c2bd 49d5 afbe 4850 bb3e 2704 0ebe
00000210: b559 a3be 26b2 af3e bf21 adbe 41a3 91be
00000220: f2f4 a43e d09a f5be 7198 babe 32e8 343d
00000230: eb2b e93d ab0b 86be 0c7f ab3d 96a2 423e
00000240: 8942 6b3c c1e1 df3e 784d d1bc 5e17 8a3e
00000250: 4fc0 3b3e acb9 68be 0e9d 40be afeb 913e
00000260: 9e28 39be f7bf a5be a870 df3e c234 1abe
00000270: 232f ab3d 95d6 8cbe f225 383e ac7a af3d
00000280: 29b0 fabd 8848 0abe

Q1.conv.net.3.bias f4 [6]
0.009499946 0.0076702028 0.01354603 -0.01728375 0.0057127187 -0.026734157
00000000: a9a5 1b3c 5356 fb3b 2bf0 5d3c a796 8dbc
00000010: c231 bb3b 9701 dbbc

Q1.conv.net.6.weight f4 [6, 6, 3, 3]
-0.046882376 0.036168866 0.2033181 0.28887418 0.2294872 0.15464754 -0.021996114 0.059731614
-0.2564702 -0.2424491 -0.1243005 0.29052198 -0.08837111 -0.1848536 0.23109221 0.19897904
-0.2582268 0.32397828 -0.13090849 0.14474362 0.34120518 0.07333821 -0.094291076 0.29469398
-0.09616698 -0.15180346 0.191278 0.29132268 0.14863114 0.11597248 -0.109100625 0.051436927
-0.25970584 -0.19743411 0.22696738 -0.06298336 0.26404813 -0.06212434 -0.2551962 -0.21700235
0.20769985 0.15905295 -0.13147257 -0.08246168 -0.024534049 -0.2550837 0.2882647 0.20701897
0.1688301 -0.24295156 0.1765972 -0.05001906 -0.058629934 -0.009454008 -0.06818497 -0.12116905
-0.20386006 0.18649733 0.33736536 0.05727295 0.089046784 0.09840048 0.01412933 0.30970326
-0.3088095 -0.03703093 -0.30218437 0.017388798 0.1113102 -0.32374132 0.28086174 0.0042254585
0.2014075 0.09103018 -0.2108917 -0.3182661 0.2840926 -0.14236881 -0.096302435 0.2762358
-0.14858902 0.2655243 -0.22376676 -0.23370592 -0.28840834 0.04752194 0.29641303 -0.12245961
-0.17457388 -0.29578516 0.07396368 -0.32364446 -0.018070703 -0.22146302 -0.31674284 0.3291878
-0.2705221 -0.20968045 0.092826895 0.01071321 -0.07283283 0.01198665 -0.20380533 -0.2444104
-0.121981956 -0.27868894 0.28833735 0.08231715 -0.3046388 0.3081426 -0.00453658 -0.21790507
0.2414602 -0.24416693 0.053460244 0.047360964 0.30909157 0.30633476 0.29097566 -0.25056446
0.24242038 -0.20768951 0.16674067 -0.16011582 0.23860125 0.094940536 -0.14189355 0.28676087
0.043013506 0.014474582 0.1616641 -0.27314156 0.15356258 0.26686975 0.0021005375 -0.101715416
-0.24367885 -0.32787707 -0.16351987 0.078587964 -0.09087 0.23699111 0.019908125 0.08789804
-0.28181797 -0.07431245 0.2897165 -0.29267603 0.18386167 0.088268876 -0.12835242 0.2503413
0.1293558 -0.09180825 -0.24995188 -0.084969096 -0.044225875 -0.27587476 0.020484513 -0.15995584
-0.28692523 0.011892033 -0.007926505 0.23446006 -0.3048559 0.2754281 0.109851286 0.13180558
-0.28597552 -0.15041927 0.35562178 -0.083067566 0.16001049 0.019390514 0.2366503 -0.27860793
-0.2283099 0.1698198 -0.23980142 0.29196122 0.22189246 -0.12362596 -0.041133862 -0.15012299
-0.11238008 0.14956145 -0.11626981 -0.10080688 -0.19996448 -0.26771167 -0.08859977 0.3277509
0.012255354 0.2986864 0.019590227 0.30320588 0.038665313 0.06681046 0.051665578 -0.11713139
-0.09034515 0.21842603 0.341327 0.29873577 -0.2958036 0.16403162 0.1266022 0.0972688
-0.19491433 0.055071544 -0.2402992 0.15099216 -0.04829284 0.113136545 -0.25121814 -0.097777665
-0.100607194 -0.06090661 -0.19693129 0.31764054 0.12443481 0.11529258 0.012621805 0.22128901
-0.018692177 -0.08349513 0.02315984 -0.2550961 0.06286371 0.17846306 -0.2822136 0.12550451
0.30521065 -0.12884626 -0.15917222 -0.013316535 -0.0525988 -0.20006299 0.18447801 0.0593702
0.023293769 0.3040973 -0.17219047 -0.24954066 -0.16662729 -0.06874308 0.11958474 -0.2600657
0.07391254 0.055619113 -0.018795028 0.3187475 0.13698839 0.027610648 0.2295249 -0.031419132
00000000: bc07 40bd ce25 143d 9f32 503e 51e7 933e
00000010: b1fe 6a3e ed5b 1e3e 3231 b4bc 23a9 743d
00000020: 1050 83be 9444 78be 4391 febd 4cbf 943e
00000030: eafb b4bd 434a 3dbe 70a3 6c3e 29c1 4b3e
00000040: 4e36 84be 7be0 a53e e00c 06be ac37 143e
00000050: 72b2 ae3e 5832 963d ae1b c1bd 21e2 963e
00000060: 32f3 c4bd 5e72 1bbe 61de 433e 3f28 953e
00000070: c332 183e fb82 ed3d 2670 dfbd 87af 523d
00000080: 2af8 84be 2b2c 4abe 236a 683e 6bfd 80bd
00000090: 5131 873e 1876 7ebd 14a9 82be dd35 5ebe
000000a0: 45af 543e c7de 223e bfa0 06be abe1 a8bd
000000b0: a1fb c8bc 559a 82be 6e97 933e c8fc 533e
000000c0: cce1 2c3e 4bc8 78be e5d5 343e c9e0 4cbd
000000d0: f125 70bd fce4 1abc 90a4 8bbd 7b27 f8bd
000000e0: b1c0 50be 28f9 3e3e 27bb ac3e 0a97 6a3d
000000f0: 295e b63d 3186 c93d b57e 673c 6d91 9e3e
00000100: 471c 9ebe bfad 17bd e9b7 9abe f472 8e3c
00000110: 9af6 e33d 6cc1 a5be 1ccd 8f3e b775 8a3b
00000120: c53d 4e3e 086e ba3d fef3 57be c6f3 a2be
00000130: 9674 913e 21c9 11be 363a c5bd c76e 8d3e
00000140: b827 18be cdf2 873e 1d23 65be 9b50 6fbe
00000150: 42aa 93be 5ea6 423d 73c3 973e 1bcc fabd
00000160: 7fc3 32be 2771 97be 457a 973d bab4 a5be
00000170: 0309 94bc 34c7 62be 1e2c a2be 4e8b a83e
00000180: df81 8abe 79b6 56be 071c be3d 7686 2f3c
00000190: 6129 95bd a763 443c 58b2 50be b846 7abe
000001a0: add1 f9bd 51b0 8ebe f4a0 933e e595 a83d
000001b0: 9ef9 9bbe dec4 9d3e 97a7 94bb 8222 5fbe
000001c0: 5841 773e e506 7abe 21f9 5a3d 92fd 413d
000001d0: 4041 9e3e e9d7 9c3e c3fa 943e fc49 80be
000001e0: 0c3d 783e 8fac 54be 11be 2a3e 67f5 23be
000001f0: e353 743e 2f70 c23d 8b4c 11be 52d2 923e
00000200: ee2e 303d cc26 6d3c 468b 253e 36d9 8bbe
00000210: 823f 1d3e 27a3 883e 2ca9 093b 2c50 d0bd
00000220: f386 79be 81df a7be c171 27be baf2 a03d
00000230: 0d1a babd ccad 723e 5d16 a33c e303 b43d
00000240: 724a 90be 2031 98bd b955 943e a2d9 95be
00000250: 3c46 3c3e 50c6 b43d d16e 03be bc2c 803e
00000260: d975 043e f705 bcbd 63f3 7fbe 4704 aebd
00000270: 3126 35bd 753f 8dbe 23cf a73c 77cb 23be
00000280: dde7 92be cdd6 423c 2cde 01bc 4c16 703e
00000290: 1316 9cbe e904 8d3e b6f9 e03d 0bf8 063e
000002a0: 626b 92be 8207 1abe 0f14 b63e 541f aabd
000002b0: cad9 233e dbd8 9e3c 7554 723e b3a5 8ebe
000002c0: 12ca 69be 3ee5 2d3e 818e 75be f17b 953e
000002d0: c737 633e 9b2f fdbd fb7b 28bd d7b9 19be
000002e0: 8727 e6bd a326 193e de1e eebd d673 cebd
000002f0: 7dc3 4cbe 8111 89be cc73 b5bd f7ce a73e
00000300: aeca 483c 6ced 983e af7b a03c cd3d 9b3e
00000310: 855f 1e3d ecd3 883d 499f 533d 95e2 efbd
00000320: e106 b9bd 13ab 5f3e 6ac2 ae3e e5f3 983e
00000330: 9273 97be e8f7 273e 02a4 013e dd34 c73d
00000340: 9f97 47be b392 613d fe10 76be b09d 1a3e
00000350: b7ce 45bd 22b4 e73d aa9f 80be a83f c8bd
00000360: 250b cebd 3679 79bd 5ba8 49be c8a1 a23e
00000370: add7 fe3d 841e ec3d b0cb 4e3c 9699 623e
00000380: 5620 99bc 7fff aabd b4b9 bd3c f59b 82be
00000390: b0be 803d 05bf 363e 4d7e 90be 4184 003e
000003a0: 9244 9c3e 46f0 03be 0bfe 22be 992d 5abc
000003b0: d771 57bd 50dd 4cbe cee7 3c3e 2b2e 733d
000003c0: 93d2 be3c a4b2 9b3e b352 30be 9687 7fbe
000003d0: 58a0 2abe 2cc9 8cbd d8e8 f43d 5527 85be
000003e0: 755f 973d ded0 633d 08f8 99bc df32 a33e
000003f0: af46 0c3e ba2f e23c 9308 6b3e 59b1 00bd

Q1.conv.net.6.bias f4 [6]
0.0065703904 0.005603711 0.013205002 0.010453238 0.0015581698 0.006967671
00000000: 6e4c d73b 569f b73b cb59 583c 0f44 2b3c
00000010: 813b cc3a 1051 e43b

Q1.a_head.0.weight f4 [128, 294]
-0.06134606 -0.0046063084 0.037217986 -0.012152337 -0.045381095 -0.028853048 -0.016266013 0.03227503
-0.027094642 0.058315728 -0.04952715 -0.06514925 0.008727377 -0.0050064106 -0.04229913 -0.0037936252
-0.042085376 0.0227231 -0.049331967 -0.04920212 0.05329851 0.039062005 0.018294675 -0.014289786
-0.016637545 0.036754176 0.047104634 0.01554298 0.01023503 0.023065206 0.020425716 -0.022488168
-0.043974362 -0.034621328 -0.03866828 0.056328565 -0.0022684832 -0.020136556 0.047280923 -0.025335705
0.02523437 0.018716212 0.026024865 0.051169924 -0.027540233 0.00955174 0.030234484 0.04090236
-0.038730994 0.011454456 -0.050298307 0.03997001 0.057943843 -0.05712401 -0.044603642 0.015185939
-0.057044804 -0.0038507152 0.019761669 0.06348025 0.025587628 0.0074487287 -0.019434646 -0.070983216
0.008195917 0.0069559845 -0.0316336 0.0036355031 0.00790205 0.04050804 -0.016536023 -0.018430011
-0.009187258 -0.010651935 -0.018063473 0.031170858 0.008326546 0.02142022 -0.04136936 -0.033442378
-0.025796903 -0.0147364475 0.05703096 0.042788915 -0.038486384 -0.049347647 -0.046479978 -0.031084072
-0.051717658 0.016790764 0.027941588 0.058127504 -0.0145848235 -0.029688608 -0.037624463 0.044269696
-0.051756077 0.054145474 -0.040383957 -0.045528457 -0.03424617 -0.057333894 -0.045045156 -0.03617206
-0.06510067 0.0060861795 0.058501523 -0.032009628 0.03405728 0.028529081 0.04901179 0.030367633
0.04143155 0.04853362 0.02265156 -0.0038797876 -0.008361841 -0.047626987 -0.056330275 0.041438874
-0.02113307 -0.018342271 0.012330651 -0.0063478267 0.035554577 0.017941639 0.04131435 0.030524261
0.028175415 -0.04094662 0.050416965 0.03120223 0.034159154 0.036529586 0.025447315 0.027575282
-0.027315414 0.042167164 0.049804788 0.052327324 -0.047406744 0.004886758 0.039846357 -0.0041650943
-0.051415723 -0.05609044 -0.049375664 0.013813539 -0.055693038 -0.018126016 -0.0039419266 0.021987675
0.0026479121 0.0387727 0.054207377 0.05100979 -0.0077513317 -0.028598404 0.004148991 -0.027315307
0.015339604 -0.02411359 -0.035185173 -0.015256917 0.05610082 0.01691087 0.016136503 0.02124355
-0.056942027 0.022900516 -0.025497017 -0.008314554 0.024942994 -0.03343453 0.009767193 0.050206326
-0.029783363 0.029959155 0.012369195 -0.033872996 -0.04902849 -0.0353261 -0.022492457 0.008242554
-0.025871484 0.049878992 -0.038556598 0.049208425 -0.007256902 0.017714106 0.04822803 0.01814115
0.023112474 -0.0018681762 -0.022106027 0.0034042401 0.05549465 -0.047449388 -0.0101297675 -0.028163763
-0.008337024 0.007028461 -0.046105035 0.02792808 0.00075103325 0.024953231 0.058962718 0.03308514
0.003682873 -0.05560962 -0.00024008314 -0.028411614 -0.009154555 -0.031567298 0.033116445 -0.032899126
-0.05195553 0.048663195 0.045758426 -0.05338741 0.01629464 -0.048256677 -0.04866861 -0.02027134
-0.010012266 0.025289116 0.030441184 -0.006455916 0.003904702 -0.022104526 0.014478738 -0.0063153985
-0.010145607 -0.01316853 0.043233972 0.013287054 -0.020702764 0.034398995 0.045836106 -0.022429239
-0.031874932 -0.032738965 -0.012498893 -0.049900386 -0.046140715 -0.0023376523 -0.040256456 -0.006025931
0.0057500005 0.03369187 -0.02950956 0.035529256 -0.032819297 -0.04331425 0.047113344 0.047687713
00000000: 0246 7bbd 84f0 96bb e371 183d 981a 47bc
00000010: 87e1 39bd 3a5d ecbc 4d40 85bc d232 043d
00000020: 95f5 ddbc 79dc 6e3d fbdc 4abd f86c 85bd
00000030: 46fd 0e3c d10c a4bb da41 2dbd 789e 78bb
00000040: b761 2cbd cb25 ba3c 5110 4abd 2a88 49bd
00000050: 8a4f 5a3d 7bff 1f3d b7de 953c b51f 6abc
00000060: 764b 88bc 8c8b 163d caf0 403d fca7 7e3c
00000070: d4b0 273c 3ef3 bc3c d553 a73c 1b39 b8bc
00000080: 761e 34bd 18cf 0dbd a162 1ebd c8b8 663d
00000090: d5aa 14bb 6bf5 a4bc a4a9 413d d38c cfbc
000000a0: 4fb8 ce3c be52 993c 1932 d53c 8e97 513d
000000b0: 0e9c e1bc e77e 1c3c 4fae f73c 3c89 273d
000000c0: 64a4 1ebd 78ab 3b3c 9905 4ebd 98b7 233d
000000d0: 8656 6d3d defa 69bd 4fb2 36bd 72ce 783c
000000e0: d0a7 69bd 485c 7cbb 39e3 a13c ef01 823d
000000f0: 259d d13c 7714 f43b 6835 9fbc a65f 91bd
00000100: 2b48 063c 07ef e33b 3c92 01bd 9f41 6e3b
00000110: 9a77 013c c2eb 253d 8e76 87bc 89fa 96bc
00000120: 2786 16bc 7485 2ebc d9f9 93bc 075a ff3c
00000130: 116c 083c 7579 af3c eb72 29bd e0fa 08bd
00000140: 0754 d3bc 2471 71bc 4c99 693d 6e43 2f3d
00000150: e6a3 1dbd c220 4abd ca61 3ebd 06a4 febc
00000160: e5d5 53bd c98c 893c c2e5 e43c 1b17 6e3d
00000170: 2ff5 6ebc 8635 f3bc 1c1c 1abd 2454 353d
00000180: 2efe 53bd a5c7 5d3d a669 25bd 0c7c 3abd
00000190: b645 0cbd f2d6 6abd 4581 38bd 2729 14bd
000001a0: 8053 85bd 936e c73b 4b9f 6f3d 871c 03bd
000001b0: a57f 0b3d d2b5 e93c 96c0 483d 8bc5 f83c
000001c0: 21b4 293d 30cb 463d c48f b93c 0944 7ebb
000001d0: 1a00 09bc 8414 43bd 93ba 66bd cfbb 293d
000001e0: 431f adbc 8842 96bc 8006 4a3c 6e01 d0bb
000001f0: ada1 113d 58fa 923c 3c39 293d 040e fa3c
00000200: 21d0 e63c a5b7 27bd 0582 4e3d d29b ff3c
00000210: 78ea 0b3d 0ca0 153d e376 d03c 8fe5 e13c
00000220: 93c4 dfbc 7ab7 2c3d 1b00 4c3d 2d55 563d
00000230: 932d 42bd 1921 a03b ef35 233d 587b 88bb
00000240: 4b99 52bd 17bf 65bd 233e 4abd 2f52 623c
00000250: 621e 64bd 037d 94bc 472b 81bb 7f1f b43c
00000260: 9888 2d3b 1fd0 1e3d 8e08 5e3d a4ef 503d
00000270: e2fe fdbb 3347 eabc 42f4 873b 5ac4 dfbc
00000280: f652 7b3c dd89 c5bc 541e 10bd 26f8 79bc
00000290: f9c9 653d aa88 8a3c b330 843c f406 ae3c
000002a0: 0b3c 69bd dd99 bb3c 1fdf d0bc c439 08bc
000002b0: 4055 cc3c a5f2 08bd 9406 203c 26a5 4d3d
000002c0: 3dfc f3bc e76c f53c 2aa8 4a3c 69be 0abd
000002d0: 19d2 48bd 1ab2 10bd 1a42 b8bc c70b 073c
000002e0: 6ff0 d3bc ea4d 4c3d 86ed 1dbd c68e 493d
000002f0: 4ecb edbb 2c1d 913c c18a 453d c09c 943c
00000300: 5f56 bd3c 97dd f4ba b317 b5bc ac19 5f3b
00000310: 5c4e 633d 4a5a 42bd 53f7 25bc b1b7 e6bc
00000320: 0398 08bc 014f e63b a2d8 3cbd 6ec9 e43c
00000330: fde0 443a b86a cc3c e482 713d 4984 073d
00000340: 5b5c 713b eac6 63bd d4be 7bb9 79bf e8bc
00000350: fdfc 15bc b64c 01bd 1ca5 073d 3cc1 06bd
00000360: 52cf 54bd 0f53 473d 306d 3b3d c2ac 5abd
00000370: 567c 853c cba8 45bd bd58 47bd 1510 a6bc
00000380: 7d0a 24bc 1f2b cf3c ca5f f93c 268c d3bb
00000390: 07e6 7f3b 8d14 b5bc 3b38 6d3c 67f1 cebb
000003a0: c339 26bc d1c0 57bc 1b16 313d f2b1 593c
000003b0: d898 a9bc f6e5 0c3d a4be 3b3d 86bd b7bc
000003c0: 4a8f 02bd 4b19 06bd 28c8 4cbc 5964 4cbd
000003d0: 0cfe 3cbd 4c33 19bb f4e3 24bd 2c75 c5bb
000003e0: 806a bc3b 7c00 0a3d 08be f1bc 2087 113d
000003f0: 876d 06bd 486a 31bd ecf9 403d 3154 433d

Q1.a_head.0.bias f4 [128]
-0.008977263 -0.042074736 0.031833425 -0.020948319 0.01920834 0.012461075 -0.030311802 0.04029569
0.022581775 0.01597905 0.040393084 0.006243162 -0.030605849 -0.002512642 -0.010539284 0.046907227
-0.036773708 -0.030242473 0.040261574 0.016306281 -0.04113274 0.032598555 -0.021523817 -0.050241843
-0.021272587 0.021979935 -0.020612236 -0.04860697 -0.034236044 0.025288383 -0.027631838 -0.012059749
0.037729487 -0.04369914 -0.0030306533 0.012902627 0.03558127 0.023583557 -0.008177083 0.004207776
-0.045615382 -0.0075467345 0.0251644 -0.0017194673 -0.05065752 -0.008646478 -0.05678342 0.05217083
-0.0089116255 -0.023147985 0.042049535 0.015162042 0.0023336145 -0.043795418 -0.055679936 -0.05227094
-0.009573652 -0.022720296 -0.01624523 0.02867817 0.04517927 0.025365533 -0.05108916 0.055830833
-0.043447644 0.026119873 -0.035325494 -0.037043456 -0.025963526 -0.011333944 0.031346887 -0.044212613
-0.026327457 -0.011221938 0.053989775 0.05331608 -0.05694618 -0.042315163 0.032256544 0.04852013
0.04384537 0.035949416 0.036768146 -0.02477398 -0.0128723 0.014378822 0.043690205 -0.054409895
0.010842421 -0.057201013 0.009368207 -0.031975735 -0.035653185 -0.039318465 0.022741903 -0.039141603
0.025309877 0.04320174 -0.032423977 -0.024995362 -0.030320328 -0.044095244 0.021904891 -0.03485768
0.0376001 -0.0030710709 -0.022584029 0.048656125 -0.01759813 -0.0011702793 0.0075504333 0.050653514
0.009389105 0.016265787 0.0067963777 -0.003949037 0.041359544 -0.040967915 0.001527694 0.035019994
-0.006239728 -0.0055833636 -0.01423103 -0.05167085 -0.011089691 0.04688539 0.0020038395 0.05134628
00000000: 5f15 13bc 8f56 2cbd c463 023d cf9b abbc
00000010: cf5a 9d3c 8929 4c3c 7550 f8bc 180d 253d
00000020: 6afd b83c 7fe6 823c 3873 253d 7093 cc3b
00000030: 1eb9 fabc 23ab 24bb f6ac 2cbc cb21 403d
00000040: 07a0 16bd 10bf f7bc 52e9 243d c094 853c
00000050: ce7a 28bd 1086 053d b752 b0bc 64ca 4dbd
00000060: d943 aebc 440f b43c feda a8bc 1a18 47bd
00000070: 183b 0cbd 9529 cf3c 2a5c e2bc 4196 45bc
00000080: 3c8a 1a3d dffd 32bd ed9d 46bb 8a65 533c
00000090: aabd 113d 4e32 c13c 2cf9 05bc 62e1 893b
000000a0: 32d7 3abd 994a f7bb 9225 ce3c c05f e1ba
000000b0: 427e 4fbd f5a9 0dbc bb95 68bd 15b1 553d
000000c0: 1102 12bc d8a0 bdbc 223c 2c3d 376a 783c
000000d0: 8eef 183b d362 33bd a510 64bd 0e1a 56bd
000000e0: cfda 1cbc ea1f babc b714 85bc 7bee ea3c
000000f0: e60d 393d 61cb cf3c de42 51bd dfae 643d
00000100: 28f6 31bd 58f9 d53c 77b1 10bd e1ba 17bd
00000110: 76b1 d4bc 02b2 39bc 9865 003d 4918 35bd
00000120: aeac d7bc 38dc 37bc 6224 5d3d f661 5a3d
00000130: 6640 69bd aa52 2dbd 701f 043d 0bbd 463d
00000140: 3497 333d b23f 133d 329a 163d cdf2 cabc
00000150: 57e6 52bc 2795 6b3c 80f4 323d e9dc 5ebd
00000160: 69a4 313c 9c4b 6abd 1c7d 193c fdf8 02bd
00000170: 1309 12bd 660c 21bd 3a4d ba3c f252 20bd
00000180: a956 cf3c 4ff4 303d 01cf 04bd 13c3 ccbc
00000190: 5662 f8bc 379d 34bd e371 b33c edc6 0ebd
000001a0: 9002 1a3d 0544 49bb 2402 b9bc a54b 473d
000001b0: f429 90bc 0f64 99ba a069 f73b 0f7a 4f3d
000001c0: c3d4 193c d43f 853c 26b4 de3b ec66 81bb
000001d0: a068 293d f9cd 27bd e83c c83a 2071 0f3d
000001e0: a276 ccbb a6f4 b6bb 4429 69bc d0a4 53bd
000001f0: 89b1 35bc e50a 403d d952 033b 7a50 523d

Q1.a_head.2.weight f4 [6, 128]
-0.032328386 0.057265744 -0.063863285 0.050648592 0.048349146 0.033579547 -0.058318626 0.081934735
0.048105255 -0.052696504 0.01932489 0.01435257 0.06612173 -0.0074883043 -0.05228557 0.018008247
-0.029419854 0.054089073 -0.014578974 0.026424246 0.052017312 -0.081714585 0.007737034 0.06466806
0.028307354 0.074110106 -0.016291602 -0.06724172 0.027972652 0.04285838 0.06230557 -0.05127809
0.04599054 -0.015881764 -0.079810366 0.036893945 0.02826321 -0.0538562 -0.08262559 0.0071397815
0.08576862 -0.06682754 -0.03783458 0.070506155 0.033296295 -0.01419803 -0.084733255 -0.029231727
-0.0023912285 0.011324702 0.034913927 0.05413322 0.0061626397 0.011536807 0.051903833 -0.07289768
0.031764932 -0.021732569 -0.034828953 -0.021173459 0.028888598 0.032462776 -0.05718695 0.054319542
-0.018784944 -0.016174642 0.04640352 0.0676871 0.017434029 0.05601672 -0.084878206 -0.07379488
-0.046108156 -0.0492025 -0.03265302 -0.04688719 -0.02037942 0.034809712 -0.013038644 0.044106517
-0.01587838 -0.06898793 -0.03818293 -0.0086887395 0.03287254 -0.012989606 0.019538067 -0.08375558
0.03888114 -0.014495575 -0.073759824 -0.080607496 0.07751137 0.008414801 -0.045629706 -0.028825851
-0.03275662 0.025226895 0.067545615 0.03039353 -0.029640244 0.065843396 -0.02818447 0.05406484
-0.08114935 0.027878638 0.05081597 -0.021367226 -0.06348616 0.018506788 0.0881781 0.07643548
0.012663061 -0.0018299108 0.07464466 0.08163019 0.009038876 0.019172475 0.06407826 -0.000109782
0.03915108 -0.0568701 -0.06611471 -0.06604729 -0.047927625 -0.051193204 0.07559808 0.06190472
0.032696635 0.04635984 0.08265293 -0.061963335 0.06657508 -0.0188395 -0.07089615 0.042710077
0.02143927 0.03455171 -0.034625202 -0.012197503 0.041810483 0.0752529 -0.07011787 -0.069747336
-0.013039012 -0.002428849 0.042163443 0.04222512 -0.031085597 0.041056406 -0.053907685 -0.009532619
0.01582792 0.06067084 0.03910178 -0.034402713 0.03570718 -0.07438686 -0.008766302 0.016980005
-0.066155784 -0.047009233 0.07605413 -0.048651956 0.05205724 -0.04888536 0.041430004 -0.037901208
0.06949294 -0.046424225 -0.0815287 -0.016167425 0.00505523 0.051112853 0.0029631553 -0.03608567
-0.07811515 -0.030420043 0.05609703 -0.040941767 -0.016868394 -0.025264155 -0.020555807 0.028797887
-0.043304697 -0.08536058 -0.07008879 -0.043176673 -0.06157033 0.025855111 -0.035107367 0.057028446
0.06406715 0.07636145 -0.07751627 0.07858336 -0.03433321 -0.009136868 0.033197775 0.06879714
-0.05983178 0.0777909 0.058051433 -0.0531763 -0.056840934 0.023994422 -0.00350843 0.042629957
0.048472974 0.009413482 0.026877262 0.024559688 -0.012713449 -0.084005825 0.031086756 -0.035679813
0.05385695 -0.063650355 -0.004805559 0.065021165 -3.3071272e-05 -0.038571555 -0.011548341 0.052142616
-0.049087923 -0.0045246556 -0.016515074 0.057431314 0.014562295 0.024499174 -0.03160368 0.03996369
-0.053372923 -0.056435555 0.063453116 -0.037574492 0.083565556 -0.05903795 0.01883314 -0.022843327
-0.0042389543 -0.07693914 0.05385452 0.07279971 0.086888626 0.07701508 0.025991786 0.06161945
-0.06024855 -0.06653583 -0.04725607 0.014702798 -0.051436655 -0.06633918 0.07036525 0.069490805
00000000: c56a 04bd 7c8f 6a3d c1ca 82bd e674 4f3d
00000010: c109 463d b58a 093d 83df 6ebd 66cd a73d
00000020: 040a 453d 4ad8 57bd 3b4f 9e3c 0b27 6b3c
00000030: d46a 873d 7360 f5bb 6529 56bd 0886 933c
00000040: e801 f1bc 818c 5d3d a6dc 6ebc a977 d83c
00000050: 1b10 553d fa59 a7bd f286 fd3b b070 843d
00000060: d3e4 e73c 0ac7 973d f775 85bc 07b6 89bd
00000070: e726 e53c 458c 2f3d 2034 7f3d f908 52bd
00000080: 9460 3c3d 791a 82bc 9e73 a3bd 1b1e 173d
00000090: 3f88 e73c 5298 5cbd 9b37 a9bd d4f4 e93b
000000a0: 75a7 af3d e1dc 88bd 6ff8 1abd 8865 903d
000000b0: b261 083d db9e 68bc a188 adbd 6077 efbc
000000c0: 28b6 1cbb 3e8b 393c e801 0f3d ccba 5d3d
000000d0: f8ef c93b e004 3d3c 1d99 543d 614b 95bd
000000e0: f21b 023d 8008 b2bc cea8 0ebd f673 adbc
000000f0: c8a7 ec3c b0f7 043d dd3c 6abd 2b7e 5e3d
00000100: e2e2 99bc af80 84bc 9e11 3e3d 899f 8a3d
00000110: cfd1 8e3c ca71 653d a0d4 adbd c521 97bd
00000120: e8db 3cbd 9088 49bd 2cbf 05bd c80c 40bd
00000130: bef2 a6bc a194 0e3d 09a0 55bc 09a9 343d
00000140: 6013 82bc 8b49 8dbd b465 1cbd 375b 0ebc
00000150: 5ba5 063d 5bd2 54bc 4c0e a03c 0c88 abbd
00000160: d541 1f3d d97e 6dbc 640f 97bd 8b15 a5bd
00000170: 48be 9e3d 3cde 093c 37e6 3abd 3124 ecbc
00000180: ce2b 06bd a2a8 ce3c 5b55 8a3d dafb f83c
00000190: 19d0 f2bc e7d8 863d 1ee3 e6bc 1873 5d3d
000001a0: a131 a6bd be61 e43c 6824 503d 520a afbc
000001b0: 0805 82bd 8c9b 973c b896 b43d 348a 9c3d
000001c0: ba78 4f3c 9ed9 efba 4ddf 983d bb2d a73d
000001d0: cb17 143c 980f 9d3c 763b 833d c33a e6b8
000001e0: e25c 203d 9ff0 68bd 2667 87bd cd43 87bd
000001f0: c24f 44bd f7af 51bd 2bd3 9a3d ce8f 7d3d
00000200: e8ec 053d d1e3 3d3d f045 a93d 44cd 7dbd
00000210: 8458 883d 4c55 9abc 0032 91bd c3f0 2e3d
00000220: 68a1 af3c 1886 0d3d 28d3 0dbd 09d8 47bc
00000230: 7841 2b3d 311e 9a3d f599 8fbd b1d7 8ebd
00000240: 95a1 55bc 532d 1fbb 93b3 2c3d 3ff4 2c3d
00000250: 39a7 febc c32a 283d 4ece 5cbd b42e 1cbc
00000260: 8ea9 813c fd81 783d 3029 203d dce9 0cbd
00000270: b141 123d 2358 98bd 89a0 0fbc a719 8b3c
00000280: af7c 87bd c18c 40bd 45c2 9b3d 4647 47bd
00000290: f939 553d 043c 48bd 82b2 293d 4c3e 1bbd
000002a0: 5152 8e3d 5427 3ebd 85f8 a6bd 8c71 84bc
000002b0: 58a6 a53b b65b 513d 7f31 423b 91ce 13bd
000002c0: d6fa 9fbd 7433 f9bc 00c6 653d 8eb2 27bd
000002d0: 962f 8abc c6f6 cebc a764 a8bc 8ce9 eb3c
000002e0: 4460 31bd 87d1 aebd b68a 8fbd 06da 30bd
000002f0: 2c31 7cbd 19ce d33c becc 0fbd a996 693d
00000300: a335 833d 6463 9c3d dac0 9ebd 50f0 a03d
00000310: fba0 0cbd cdb2 15bc 64fa 073d 84e5 8c3d
00000320: 2b12 75bd d650 9f3d 57c7 6d3d 64cf 59bd
00000330: 0ad2 68bd f38f c43c b0ed 65bb c09c 2e3d
00000340: 998b 463d 013b 1a3c b42d dc3c 6631 c93c
00000350: 124c 50bc 3f0b acbd a7a9 fe3c ff24 12bd
00000360: 1b99 5c3d 1e5b 82bd f377 9dbb d129 853d
00000370: 02b6 0ab8 35fd 1dbd 4135 3dbc 7f93 553d
00000380: 6b10 49bd 9043 94bb 9f4a 87bc 193d 6b3d
00000390: b196 6e3c 7eb2 c83c dc72 01bd f7b0 233d
000003a0: 919d 5abd f828 67bd b5f3 813d b6e7 19bd
000003b0: 6b24 ab3d c7d1 71bd f547 9a3c ee21 bbbc
000003c0: ede6 8abb 4592 9dbd 8f96 5c3d 0418 953d
000003d0: aaf2 b13d 15ba 9d3d baec d43c ad64 7c3d
000003e0: 2fc7 76bd f043 88bd 958f 41bd 01e4 703c
000003f0: 3eaf 52bd d6dc 87bd a81b 903d 3251 8e3d

Q1.a_head.2.bias f4 [6]
0.08400947 -0.012356032 0.010645506 -0.009713018 0.01861141 0.004607566
00000000: 280d ac3d f470 4abc 7d6a 2e3c 5a23 1fbc
00000010: f576 983c 11fb 963b

Q1.v_head.0.weight f4 [128, 294]
0.05125216 0.00965291 0.033227973 -0.044039976 0.010281138 0.04971942 0.019377103 0.010262637
-0.022055762 0.010871448 -0.015049759 0.026494635 0.05514334 -0.052773766 -0.014902118 -0.050358016
-0.0050510494 -0.04759012 -0.009700109 -0.046897124 -0.036552086 -0.044479083 -0.052933596 -0.0021915787
0.0038490165 -0.018691711 0.036281206 -0.003275497 -0.0045573227 0.025680827 -0.045862205 0.04085125
-0.017377341 0.040251452 -0.020538164 -0.013867638 -0.033681896 -0.047151387 0.036047243 -0.007166666
0.03949377 0.017886342 -0.022893446 -0.023951279 -0.0065335156 -0.041867487 0.056999885 0.021772025
-0.025789443 -0.058108266 0.042673748 -0.010487666 -0.046961725 0.03800187 0.036839034 0.044509154
-0.017399894 -0.004898159 -0.045519 0.0062011755 0.025166264 -0.052304555 0.01198814 0.01766098
-0.049243942 -0.02370332 0.005531928 0.012248 -0.0008617116 -0.004699097 -0.019401979 0.003205903
-0.012607205 -0.03776788 -0.018754805 0.043806735 0.024479447 -0.04910527 0.0061513963 0.051074143
-0.011355044 -0.01847894 0.040600277 0.025507675 -0.045808498 0.0558508 0.039968926 -0.050464436
0.018467808 0.009999113 -0.0074999724 -0.013961211 0.008916919 0.05484523 -0.027859237 0.040270258
-0.038628444 0.035471722 -0.03014329 0.018043092 0.0051634773 -0.057500374 -0.029853888 -0.052872688
0.01775996 0.004226471 0.028736696 -0.037728082 0.0037885304 0.019245792 -0.025369726 -0.0041499315
-0.04254404 -0.03000986 0.050386973 0.02266394 0.030351043 -0.0481625 0.0062434115 -0.014419313
0.049959537 0.056910872 -0.015857548 -0.038975183 -0.035359632 -0.037981804 0.030132486 0.001585807
-8.3568175e-06 -0.0049124113 0.021948716 -0.036693268 -0.031962726 0.005049089 0.005870824 -0.026719172
0.028025547 -0.02531412 0.016386725 -0.023696417 -0.040598135 -0.02413316 0.021532355 0.0210668
-0.00043542354 0.051521752 -0.054017134 -0.0027289458 0.054235134 0.037750684 0.05531016 0.058142982
-0.058316194 -0.017633587 0.035130233 0.052796092 0.016679212 -0.028254503 -0.04744072 -0.056268837
0.056816652 0.04736355 -0.0432673 -0.02403404 -0.033109695 -0.04035836 0.03714877 0.00048687152
0.016547382 -0.032430965 -0.03968227 0.03463372 -0.04058053 -0.003272591 -0.035944603 0.02665048
-0.00683961 -0.013293944 -0.051072694 -0.050696395 0.00736894 -0.036411244 -0.05557946 -0.051091023
0.0022757936 0.039340064 -0.009170529 -0.04521182 0.011173621 0.05829686 0.05167902 -0.018531283
0.051105212 0.052288037 -0.023683464 0.01869475 -0.053481635 -0.05599381 -0.012788829 0.015484696
0.0045492374 -0.04111562 -0.031734716 -0.050976247 0.04327722 0.057795145 0.053644434 0.042257477
-0.01386364 -0.031911418 0.03237403 0.034850597 -0.00095107814 -0.055953946 -0.046651967 0.021263553
-0.043238703 -0.008102185 -0.051854037 -0.016051006 -0.018498072 0.05151695 -0.024172198 -0.016170956
-0.019345976 -0.056326333 -0.049266092 -0.047443252 -0.041120943 -0.019458933 -0.05518245 -0.0065995427
0.05108147 0.037264884 0.053075086 0.013734965 -0.021775113 -0.00699159 -0.056812983 0.041189987
-0.012992036 0.01153423 0.019883428 0.01069868 -0.0029360864 -0.04457256 0.041495048 0.046489295
-0.02729707 0.04143578 -0.028155556 0.0046267845 -0.013848199 -0.042151954 -0.028495329 -0.0014473771
00000000: c9ed 513d 3d27 1e3c 0e1a 083d 4363 34bd
00000010: 3872 283c 97a6 4b3d bbbc 9e3c 9f24 283c
00000020: 49ae b4bc 281e 323c 4493 76bc 470b d93c
00000030: fcdd 613d 4e29 58bd 0328 74bc 3544 4ebd
00000040: 4683 a5bb dced 42bd 35ed 1ebc 3317 40bd
00000050: a4b7 15bd b32f 36bd e6d0 58bd 97a0 0fbb
00000060: c83f 7c3b 5c1f 99bc 9a9b 143d b8a9 56bb
00000070: 9855 95bb 9960 d23c 02da 3bbd a453 273d
00000080: ed5a 8ebc b5de 243d a73f a8bc 1735 63bc
00000090: 07f6 09bd d021 41bd 46a6 133d 5ad6 eabb
000000a0: 38c4 213d 6186 923c 098b bbbc 7935 c4bc
000000b0: 1a17 d6bb 3e7d 2bbd b678 693d 3f5b b23c
000000c0: 6244 d3bc ef02 6ebd abca 2e3d 76d4 2bbc
000000d0: f05a 40bd d9a7 1b3d 87e4 163d 3b4f 363d
000000e0: 398a 8ebc bc80 a0bb 2272 3abd 3b33 cb3b
000000f0: 7b29 ce3c 4d3d 56bd e769 443c c2ad 903c
00000100: 04b4 49bd 772d c2bc 2d45 b53b d6ab 483c
00000110: 7de4 61ba e2fa 99bb e6f0 9ebc 211a 523b
00000120: 738e 4ebc 7eb2 1abd ada3 99bc b16e 333d
00000130: 1f89 c83c 9c22 49bd a791 c93b 1f33 513d
00000140: 820a 3abc 2561 97bc 7a4c 263d 79f5 d03c
00000150: b1a1 3bbd cfc3 643d 75b6 233d ccb3 4ebd
00000160: cd49 973c 52d3 233c 54c2 f5bb 90bd 64bc
00000170: 4518 123c 64a5 603d 0e39 e4bc 6df2 243d
00000180: dc38 1ebd cc4a 113d 10ef f6bc 1bcf 933c
00000190: 6332 a93b 8385 6bbd 2490 f4bc 0891 58bd
000001a0: 567d 913c 357e 8a3b 3869 eb3c c388 1abd
000001b0: fe48 783b 5aa9 9d3c 2cd4 cfbc 26fc 87bb
000001c0: a942 2ebd 3dd7 f5bc 9262 4e3d baa9 b93c
000001d0: c0a2 f83c 0b46 45bd 8895 cc3b fb3e 6cbc
000001e0: 5fa2 4c3d 601b 693d b0e7 81bc 71a4 1fbd
000001f0: 43d5 10bd cf92 1bbd 67d8 f63c dada cf3a
00000200: 4234 0cb7 4bf8 a0bb cbcd b33c ae4b 16bd
00000210: 59eb 02bd d472 a53b 0b60 c03b 2ae2 dabc
00000220: d595 e53c 8f5f cfbc 743d 863c fd1e c2bc
00000230: 3b4a 26bd e8b2 c5bc 9f64 b03c 4894 ac3c
00000240: 8f49 e4b9 7908 533d 1241 5dbd 1dd8 32bb
00000250: a925 5e3d 76a0 1a3d e88c 623d 5627 6e3d
00000260: f6dc 6ebd 5074 90bc b8e4 0f3d b740 583d
00000270: d8a2 883c fd75 e7bc 3351 42bd 277a 66bd
00000280: 94b8 683d 4800 423d 0d39 31bd 09e3 c4bc
00000290: 089e 07bd cf4e 25bd 4f29 183d ca42 ff39
000002a0: 608e 873c 55d6 04bd e089 22bd 16dc 0d3d
000002b0: c537 26bd f778 56bb a63a 13bd 1c52 da3c
000002c0: cf1e e0bb d8ce 59bc 9a31 51bd 06a7 4fbd
000002d0: 2677 f13b f523 15bd 4aa7 63bd d244 51bd
000002e0: 7b25 153b 0c23 213d fd3f 16bc 0830 39bd
000002f0: 9011 373c b0c8 6e3d 61ad 533d ebce 97bc
00000300: b353 513d fb2b 563d d303 c2bc bb25 993c
00000310: 8f0f 5bbd c459 65bd 3d88 51bc 86b3 7d3c
00000320: c511 953b da68 28bd 43fc 01bd 78cc 50bd
00000330: 7443 313d 9aba 6c3d 44ba 5b3d 2d16 2d3d
00000340: 5224 63bc 8cb5 02bd a29a 043d 80bf 0e3d
00000350: c651 79ba f72f 65bd 2216 3fbd e730 ae3c
00000360: 111b 31bd 07bf 04bc e664 54bd 667d 83bc
00000370: 4589 97bc 7003 533d c604 c6bc f478 84bc
00000380: 747b 9ebc 71b6 66bd 3ecb 49bd db53 42bd
00000390: 6f6e 28bd 5768 9fbc fe06 62bd fa40 d8bb
000003a0: ce3a 513d 10a3 183d 4365 593d 9e08 613c
000003b0: b961 b2bc b519 e5bb bbb4 68bd d5b6 283d
000003c0: 8cdc 54bc 11fa 3c3c 92e2 a23c 8449 2f3c
000003d0: 5b6b 40bb b791 36bd b6f6 293d 8f6b 3e3d
000003e0: 1b9e dfbc 90b8 293d 7ba6 e6bc 489c 973b
000003f0: 8ee3 62bc 87a7 2cbd 096f e9bc ebb5 bdba

Q1.v_head.0.bias f4 [128]
0.023285521 0.037142478 0.027484572 0.027107257 0.004236321 0.049304318 0.013730759 0.030965256
-0.003232239 0.041325964 0.016001832 -0.053949542 -0.028375076 -0.040316563 0.046030086 0.0105328895
0.008828116 0.04375579 -0.04194665 0.05586235 0.048969574 0.004438654 -0.044653177 0.0189594
0.056911476 -0.04597154 -0.028734604 0.028562797 -0.028575176 0.024566205 -0.037048746 -0.015195155
-0.040331226 0.0105205765 0.041626405 0.035411652 0.06448872 -0.061296713 0.06008174 0.023652542
-0.023647556 -0.011568596 -0.021073202 -0.053618174 0.025186762 -0.049827773 -0.012089339 0.0033003576
0.03227941 0.02560006 0.007607831 -0.009312463 -0.046393104 0.03236247 -0.0034951312 0.026371047
-0.055875316 0.016386934 0.037145153 0.006649073 0.049714383 0.04617378 0.037996106 0.03147404
0.07161208 0.021043377 0.002862241 0.051263463 0.05025562 -0.019663008 0.05437968 0.06134489
-0.020050362 0.07059852 0.003963495 -0.035285905 0.0060160602 0.056373093 0.05776232 0.026311364
0.03556266 0.02211881 0.027265726 -0.013736752 0.014188339 0.01759894 -0.045441702 -0.046324104
0.020668382 -0.05543472 0.022649106 -0.015076866 -0.004325982 0.01964433 0.038049284 -0.035691906
0.04902143 -0.041549068 0.027045213 -0.050340015 0.005226925 -0.0072775595 0.03684409 -0.0022019662
-0.020902125 0.045654155 -0.047329172 -0.048697315 0.02493954 0.0013290816 0.009936638 0.047720626
0.01842081 -0.023145068 0.033373214 0.016233452 -0.008926082 0.07258699 0.07073184 0.0025845787
-0.006992809 0.05049174 0.028194053 -0.057819385 -0.019886382 0.056779068 -0.007319451 -0.02999135
00000000: 47c1 be3c b622 183d 5327 e13c 0a10 de3c
00000010: d6d0 8a3b 53f3 493d faf6 603c d9aa fd3c
00000020: f9d3 53bb 6a45 293d 4616 833c 32fa 5cbd
00000030: d972 e8bc fb22 25bd 0b8a 3c3d 2492 2c3c
00000040: cda3 103c 4539 333d 40d0 2bbd ebcf 643d
00000050: 5294 483d 2172 913b 40e6 36bd be50 9b3c
00000060: 021c 693d a74c 3cbd d564 ebbc 87fc e93c
00000070: 7d16 eabc 113f c93c 6dc0 17bd 19f5 78bc
00000080: 5b32 25bd 7f5e 2c3c 7380 2a3d cf0b 113d
00000090: a912 843d 4312 7bbd 4518 763d fac2 c13c
000000a0: 85b8 c1bc 358a 3dbc b5a1 acbc bb9e 5bbd
000000b0: 7854 ce3c 3518 4cbd 5d12 46bc d04a 583b
000000c0: 6a37 043d 38b7 d13c 1d4b f93b 4d93 18bc
000000d0: b206 3ebd 828e 043d 920e 65bb 1808 d83c
000000e0: 84dd 64bd e43d 863c 8425 183d 78e0 d93b
000000f0: 4fa1 4b3d b820 3d3d cea1 1b3d ecea 003d
00000100: 5ba9 923d 2963 ac3c 6f94 3b3b a3f9 513d
00000110: d6d8 4d3d 5114 a1bc 3abd 5e3d c844 7b3d
00000120: a840 a4bc f595 903d 35e0 813b f487 10bd
00000130: 5f22 c53b 79e7 663d 2f98 6c3d ee8a d73c
00000140: 27aa 113d 8232 b53c 5f5c df3c 1d10 61bc
00000150: 3576 683c a72b 903c 1421 3abd 58be 3dbd
00000160: bd50 a93c 840f 63bd 9e8a b93c f604 77bc
00000170: f8c0 8dbb 25ed a03c 91d9 1b3d ad31 12bd
00000180: b2ca 483d 5b2f 2abd ec8d dd3c 5531 4ebd
00000190: a046 ab3b 9878 eebb d4e9 163d dd4e 10bb
000001a0: ef3a abbc daff 3a3d 3cdc 41bd d676 47bd
000001b0: 024e cc3c 9434 ae3a 48cd 223c b476 433d
000001c0: 3de7 963c ba9a bdbc 5ab2 083d 04fc 843c
000001d0: b43e 12bc 7da8 943d dbdb 903d 0962 293b
000001e0: ef23 e5bb 6dd0 4e3d 37f7 e63c 05d4 6cbd
000001f0: c4e8 a2bc 2b91 683d 01d8 efbb 6bb0 f5bc

Q1.v_head.2.weight f4 [1, 128]
0.031550772 0.046889585 0.035553344 -0.044489928 -0.04320655 -0.03228412 -0.067235485 -0.017426742
-0.035753656 -0.00785042 0.063368306 -0.06263875 -0.0041114483 -0.076253235 -0.0709514 -0.052558966
-0.041388858 -0.008297692 -0.008280696 0.071175665 0.047203764 0.03052507 0.09241038 0.07527312
-0.039682586 -0.032124795 0.0069993692 0.10226998 0.059224207 0.024287451 -0.059218764 -0.01524827
0.068788156 -0.0092669735 -0.005439758 -0.08785854 0.10350448 -0.0034963265 0.087795496 -0.020101195
0.03627166 0.0126896575 -0.05406476 -0.004517984 -0.041143823 0.010021719 -0.036268696 0.06250049
0.0903468 0.010848957 0.09512549 -0.013532573 -0.021621587 -0.0063274517 0.073577315 -0.04902913
-0.055298697 0.056518387 0.038088344 0.06291 -0.05003879 -0.0027166624 0.04505012 0.017213657
0.06835226 -0.069871224 -0.008904868 0.062395975 0.0014669105 0.0021739027 -0.079932444 0.060276154
-0.019552397 0.027743587 -0.08642862 0.026567245 -0.07806586 -0.08743333 -0.08704085 0.08311322
0.02429081 -0.009674232 0.020950573 0.10336107 -0.058628656 0.04752331 -0.05212836 0.023169387
-0.03149687 -0.024401655 -0.013957369 0.011400902 -0.080006056 0.0752356 -0.0010339781 -0.033233926
0.058090735 0.041121542 -0.039364133 -0.060740914 -0.04551474 -0.06720098 0.03581775 0.032643393
-0.07387806 -0.0643523 -0.008437771 -0.019960694 -0.03721794 0.061279397 -0.08316666 0.014672508
-0.040986143 0.013490922 0.058943458 -0.0382106 0.07922951 0.03372009 0.019668262 -8.302929e-06
0.03398718 -0.023628285 -0.010617129 -0.022263382 -0.054771967 -0.07661359 0.05843567 -0.07785481
00000000: 623b 013d 4b0f 403d 62a0 113d 123b 36bd
00000010: 5af9 30bd 5a3c 04bd c2b2 89bd 87c2 8ebc
00000020: 6d72 12bd 0c9f 00bc 3ec7 813d bf48 80bd
00000030: 54b9 86bb a82a 9cbd f84e 91bd 1248 57bd
00000040: 5d87 29bd 0bf3 07bc c2ab 07bc 8cc4 913d
00000050: bc58 413d b60f fa3c a741 bd3d cb28 9a3d
00000060: 358a 22bd 4a95 03bd f75a e53b ec72 d13d
00000070: 1595 723d 7af6 c63c 608f 72bd e1d3 79bc
00000080: cee0 8c3d 81d4 17bc ff3f b2bb 2eef b3bd
00000090: 28fa d33d a022 65bb 20ce b33d 43ab a4bc
000000a0: 9891 143d 48e8 4f3c 0373 5dbd 990b 94bb
000000b0: 6d86 28bd 2332 243c 7c8e 14bd 4200 803d
000000c0: be07 b93d d3bf 313c 27d1 c23d bab7 5dbc
000000d0: c11f b1bc 8356 cfbb b4af 963d c5d2 48bd
000000e0: e380 62bd d37f 673d 8602 1c3d f5d6 803d
000000f0: 79f5 4cbd 080a 32bb 7a86 383d a803 8d3c
00000100: 45fc 8b3d a518 8fbd b9e5 11bc ec92 7f3d
00000110: 5945 c03a 0978 0e3b 9fb3 a3bd 21e4 763d
00000120: 592c a0bc 8546 e33c 7d01 b1bd 8da3 d93c
00000130: fee0 9fbd 3f10 b3bd 7942 b2bd 4437 aa3d
00000140: 85fd c63c ac80 1ebc 89a0 ab3c f8ae d33d
00000150: 9a24 70bd cda7 423d 8c84 55bd bacd bd3c
00000160: dd02 01bd fbe5 c7bc 73ad 64bc d9ca 3a3c
00000170: 37da a3bd 1f15 9a3d 8c86 87ba 4c20 08bd
00000180: 8df0 6d3d 106f 283d 493c 21bd 77cb 78bd
00000190: aa6d 3abd aba0 89bd a2b5 123d 14b5 053d
000001a0: 614d 97bd 23cb 83bd 943e 0abc 9c84 a3bc
000001b0: d771 18bd 1b00 7b3d 4853 aabd f664 703c
000001c0: 16e1 27bd 0709 5d3c b26e 713d b882 1cbd
000001d0: 1543 a23d 141e 0a3d 561f a13c cf4c 0bb7
000001e0: 2436 0b3d 1b90 c1bc 77f3 2dbc b261 b6bc
000001f0: 9258 60bd 96e7 9cbd 3e5a 6f3d 5872 9fbd
