models_decentralized/final/online_critic_2_1600.pth (torch, 631787 bytes, 26 tensors)

Q1.conv.net.0.weight f4 [3, 31, 3, 3]
0	0x3e1a5685	0.15072067
1	0xbddb6782	-0.10713102
2	0x3d605046	0.054764055
3	0xbd2125c5	-0.03934266
4	0x3d903800	0.07041931
5	0x3e254bcc	0.16142195
6	0x3dc8b0a1	0.09799314
7	0xbdbcc785	-0.09217743
8	0xbda0fa1e	-0.07860206
9	0x3e2087c8	0.15676796
10	0x3b328e2c	0.0027245386
11	0x3d44f0f1	0.048081342
12	0x3d2ceff6	0.042221032
13	0xbde43925	-0.11143712
14	0x3d888407	0.06665807
15	0x3e1db861	0.15402366
16	0xbd8e23dd	-0.06940434
17	0xbe1d27aa	-0.15347162
18	0x3d75b29a	0.05998478
19	0x3d0f7359	0.035022113
20	0x3d729e54	0.059233025
21	0x3e3526ea	0.17690626
22	0xbd987a3b	-0.074451886
23	0xbdb78c28	-0.089622796
24	0x3d350486	0.044193767
25	0xbdb8e47d	-0.09027956
26	0xbe157899	-0.14596786
27	0xbdc3ff52	-0.09570183
28	0x3d8b83dd	0.0681226
29	0xbdb88942	-0.09010555
30	0x3d1ac368	0.03778401
31	0xbda75e02	-0.081722274
32	0x3d4b2679	0.049597237
33	0x3de6c975	0.11268894
34	0x3e05ee15	0.13079102
35	0xbe0d6a55	-0.13810094
36	0xbe0be118	-0.13660085
37	0xbc32731e	-0.010891704
38	0xbe160c5d	-0.14653154
39	0x3db1fb78	0.08690542
40	0xbdaaf075	-0.08346645
41	0xbcdb622a	-0.026780207
42	0xbc8e9f09	-0.017409818
43	0x3e0d7b31	0.13816525
44	0x3dd82542	0.10553981
45	0x3e43da94	0.1912635
46	0xbe02a01b	-0.12756388
47	0x3e010528	0.12599623
48	0xbdab2741	-0.083570965
49	0xbd4295f9	-0.047506306
50	0xbdd36a80	-0.10323048
51	0x3e094e81	0.13408853
52	0xbdcf3a46	-0.10118537
53	0x3e06a85d	0.13150163
54	0x3d09bdb4	0.03362818
55	0xbdc06667	-0.09394532
56	0x3e3ab6de	0.18233821
57	0x3c190e3f	0.009341775
58	0x3d8e77b3	0.069564246
59	0x3a9287e1	0.0011179411
60	0x3de687f5	0.112564005
61	0x3db9aee2	0.090665594
62	0x3e393eb6	0.18090329
63	0x3d118051	0.035522763
64	0xbdc1f766	-0.09471016
65	0xbd9c2cae	-0.076257095
66	0xbd733c42	-0.05938364
67	0x3e1481b2	0.145026
68	0x3e151632	0.14559248
69	0x3e09eb9a	0.13468781
70	0x3c339eb5	0.010963132
71	0xbbccb933	-0.0062476634
72	0xbdd70b90	-0.10500252
73	0xbd5ee74a	-0.054419793
74	0x3e4808ff	0.19534682
75	0xbdf1a0ce	-0.11798249
76	0xbd7123c8	-0.058872014
77	0xbde145e8	-0.10999662
78	0x3d8bfd87	0.06835466
79	0xbcda31d0	-0.02663508
80	0x3dfa0987	0.122088484
81	0x3e4821f7	0.19544207
82	0xbd8f8e55	-0.070095696
83	0xbd7dbc8f	-0.0619474
84	0xbe1b314b	-0.15155523
85	0xbdd91d67	-0.10601311
86	0xbe0cf346	-0.13764676
87	0x3d887974	0.0666379
88	0x3e2ae35b	0.16688292
89	0x3e351562	0.17683938
90	0x3d9f6007	0.07781988
91	0x3e174d91	0.14775683
92	0xbd6bddc6	-0.057584547
93	0x3e0876e6	0.13326606
94	0x3dd1e12f	0.102480285
95	0x3e01bb54	0.12669116
96	0x3e0c54e1	0.13704254
97	0x3dc90824	0.09816006
98	0xbb944b51	-0.00452558
99	0xbd23f917	-0.040032472
100	0x3dfbeced	0.123010494
101	0x3dc3278b	0.095290266
102	0xbdabaf38	-0.0838303
103	0x3d844781	0.06458951
104	0xbc250611	-0.010072247
105	0x3d861a2f	0.06547963
106	0x3d476e98	0.048689455
107	0xbb5c3685	-0.0033601832
108	0xbdd94979	-0.10609717
109	0xbbaf828e	-0.0053561395
110	0xbd2dca03	-0.04242898
111	0x3dfef93d	0.12449882
112	0x3e25c185	0.16187103
113	0xbd4518b5	-0.048119266
114	0x3b507819	0.0031809865
115	0x3e199925	0.14999826
116	0x3dd767ca	0.10517843
117	0x3d96b930	0.073595405
118	0x3d054ed8	0.032545894
119	0x3d828c3d	0.063744046
120	0x3e24ded6	0.1610063
121	0x3e11cfbf	0.14239405
122	0xbd72470c	-0.059149787
123	0x3dcc5f7d	0.099791504
124	0x3ddae6ae	0.1068853
125	0x3ca1f297	0.019768996
126	0x3e08d1e1	0.13361312
127	0x3dab0aad	0.083516456
128	0xbdface39	-0.12246365
129	0x3ddcbed7	0.10778587
130	0xbd9b137d	-0.075720765
131	0x3d2f3017	0.04277047
132	0x3dd8e954	0.10591379
133	0xbdbfe812	-0.09370436
134	0x3daecca4	0.08535126
135	0x3dabed24	0.0839484
136	0xbda37338	-0.079809606
137	0xbdd93d7c	-0.1060743
138	0x3e217350	0.15766644
139	0xbde355e2	-0.11100365
140	0xbd0e1efb	-0.034697514
141	0x3d7926d3	0.06082804
142	0xbdf69a8e	-0.12041198
143	0x3bf9f85c	0.0076284837
144	0xbd040e10	-0.032239974
145	0x3e03198d	0.12802716
146	0x3e1a7d93	0.15086965
147	0x3b225257	0.0024768317
148	0x3dead748	0.11466843
149	0xbdc16349	-0.09442765
150	0x3d94ce9e	0.072659716
151	0xbc7e1ded	-0.015510065
152	0x3d959ac2	0.07304908
153	0xbdfc4f0c	-0.123197645
154	0xbd1a374b	-0.037650388
155	0x3d073dc4	0.03301789
156	0xbcad8746	-0.021182667
157	0xbdf01768	-0.117232144
158	0xbd1b6ea0	-0.037947297
159	0x3d95eed8	0.073209465
160	0xbe02ac03	-0.1276093
161	0xbd20fa3a	-0.039301135
162	0xbd37ebaf	-0.0449025
163	0x3de9b421	0.1141131
164	0x3d4594f5	0.04823776
165	0xbd061830	-0.03273791
166	0x3cde2717	0.027118249
167	0xbd2ee4e5	-0.04269876
168	0xbdf9dad8	-0.12199944
169	0x3d82465a	0.06361075
170	0x3e228d8b	0.15874307
171	0x3e0c0c30	0.13676524
172	0xbd4abb36	-0.049494945
173	0x3dbb7498	0.09153098
174	0xbd9d4280	-0.076786995
175	0xbcb4d6f7	-0.02207516
176	0x3dabef32	0.08395232
177	0x3dba9b2a	0.091116264
178	0xbc8683f3	-0.01642034
179	0x3e1be5f0	0.15224433
180	0xbe173b3f	-0.14768694
181	0xbd956a8c	-0.07295713
182	0x3cc6abf9	0.024251925
183	0xbd8e2a6c	-0.06941685
184	0x3dccb5cb	0.09995612
185	0x3e026dac	0.12737149
186	0xbe14e7b3	-0.14541511
187	0x3dbc51a9	0.09195263
188	0xbd9aee21	-0.07564951
189	0xbe22a7ca	-0.15884319
190	0xbdea8e62	-0.114529386
191	0xbb765d0c	-0.0037592081
192	0xbc5a9412	-0.013340967
193	0xbdf82319	-0.12116069
194	0x3dc39025	0.09548978
195	0x3dab498d	0.08363638
196	0xbd1212da	-0.03566251
197	0x3dc74ebd	0.09731815
198	0xbd741ad2	-0.05959589
199	0xbc96ecd8	-0.018423483
200	0xb99adb39	-0.00029536503
201	0xbd6e4f7c	-0.05818127
202	0x3d8c37f8	0.06846613
203	0xbd1267d4	-0.03574355
204	0xbc422b95	-0.011851211
205	0xbb83fe85	-0.004028144
206	0xbc963ea4	-0.018340416
207	0xbd8f1b69	-0.0698765
208	0xbdf553a9	-0.119788475
209	0xbd8b9eda	-0.06817408
210	0xbde37363	-0.11105993
211	0xbd88043a	-0.06641431
212	0xbd1e93df	-0.03871524
213	0xbd4ec6eb	-0.05048267
214	0xbdd40858	-0.10353154
215	0x3e1f7dc1	0.15575315
216	0xbe14939e	-0.14509436
217	0xbe3237ba	-0.1740407
218	0xbd5502b8	-0.052004546
219	0xbdeaabb8	-0.11458534
220	0xbdb97efa	-0.09057422
221	0x3d13df84	0.036101833
222	0xbe01eabe	-0.12687203
223	0xbda3316c	-0.07968411
224	0x3dd46c22	0.10372187
225	0xbcdcf72e	-0.026973333
226	0x3db9c0cb	0.090699755
227	0xbc8c86eb	-0.017154178
228	0xbde9de0a	-0.11419304
229	0x3d9c56a8	0.07633716
230	0xbe00b9c1	-0.1257086
231	0xbd449559	-0.04799399
232	0x3db3716d	0.087618686
233	0x3db35da8	0.08758098
234	0xbddee81f	-0.10884117
235	0xbe0ad46c	-0.13557595
236	0xbdec9ff9	-0.1155395
237	0xbd28e76f	-0.041236337
238	0x3da3eeee	0.080045566
239	0x3e0a8ea6	0.13530979
240	0x3defafee	0.11703478
241	0xbde82e36	-0.11336939
242	0x3d1ae406	0.037815116
243	0xbd2323de	-0.039829127
244	0x3de875cd	0.11350594
245	0x3ba67888	0.0050802864
246	0xbd6809fa	-0.05665014
247	0xbcd6ed85	-0.026236305
248	0xbd9db991	-0.077014096
249	0x3e082920	0.13296938
250	0xbdf61094	-0.12014881
251	0xbd102fec	-0.03520195
252	0xbe15177a	-0.14559737
253	0xbdfaa1d3	-0.12237897
254	0xbd27581d	-0.040855516
255	0xbce078fd	-0.027401442

Q1.conv.net.0.bias f4 [3]
0	0x3c75b6c7	0.014997191
1	0x3c87ddfe	0.016585346
2	0x3b4f5565	0.0031636592

Q1.conv.net.3.weight f4 [6, 3, 3, 3]
0	0xbeca4d6b	-0.3951219
1	0xbdf3734f	-0.11887228
2	0x3e043014	0.12908965
3	0x3ec7eb62	0.3904677
4	0x3eead451	0.4586511
5	0x3e25820f	0.16162895
6	0xbe6cded9	-0.23131885
7	0xbe8f0d6e	-0.27939934
8	0x3efafe05	0.49021927
9	0x3c12d544	0.008961979
10	0x3e7954f9	0.24348821
11	0x3e49a5ed	0.19692202
12	0x3e594b25	0.21220072
13	0xbdde7b05	-0.10863308
14	0xbec24022	-0.37939554
15	0x3f02f5c5	0.51156265
16	0x3ee4efdf	0.44714257
17	0xbdf2353d	-0.11826561
18	0x3ee7283b	0.4514788
19	0xbe892fc0	-0.26794243
20	0xbee024e1	-0.43778136
21	0x3d106725	0.035254616
22	0x3e48c7dd	0.19607492
23	0xbe897de4	-0.2685386
24	0x3ef06d7d	0.46958533
25	0x3e95bc50	0.29245234
26	0x3e98cde2	0.29844576
27	0xbe47b9f7	-0.19504534
28	0x3d93624a	0.071964815
29	0xbcc2e82d	-0.02379235
30	0x3ee71ff5	0.4514157
31	0x3ef73b9d	0.4828767
32	0xbe4c016c	-0.19922417
33	0xbe3e7053	-0.18597536
34	0xbdd7ecdd	-0.10543225
35	0x3d4e6042	0.050384767
36	0x3ef62be2	0.48080355
37	0x3cfbdfe0	0.0307464
38	0xbed959bc	-0.42451274
39	0x3e144bde	0.14482066
40	0xbe810e30	-0.25206137
41	0xbc95858a	-0.018252153
42	0x3ea32be5	0.31869426
43	0xbdbd5913	-0.09245505
44	0x3e569865	0.20956571
45	0x3e6b58ee	0.22983143
46	0xbdf1b58f	-0.11802208
47	0x3ee82820	0.45343113
48	0x3d145e87	0.03622296
49	0x3ece033d	0.40236846
50	0xbd8fef0d	-0.07028017
51	0x3b86b645	0.0041110837
52	0xbe4e858e	-0.20168135
53	0xbe5c5bb5	-0.21519358
54	0x3eba6f38	0.36412978
55	0xbe467790	-0.19381547
56	0x3dcb0932	0.09913863
57	0x3d1b1249	0.037859235
58	0xbd7d06c9	-0.06177405
59	0xbde8151f	-0.113321535
60	0xbe9a7b18	-0.30172038
61	0x3e4f0588	0.20216954
62	0x3d454cdc	0.048169002
63	0xbebb08ed	-0.36530247
64	0x3e52ba22	0.20578817
65	0x3ea6cc25	0.32577625
66	0xbd1aab12	-0.0377608
67	0xbd5d63bf	-0.054050203
68	0xbe7b8213	-0.24561338
69	0x3d086b11	0.03330523
70	0x3e910d85	0.28330627
71	0x3e4ec775	0.20193274
72	0xbdcea641	-0.10090304
73	0x3ef4da99	0.47823027
74	0x3b476f9a	0.003043151
75	0xbdb6118b	-0.08890065
76	0xbda806bc	-0.082044095
77	0x3e4298c7	0.19003592
78	0x3c22d98d	0.009939563
79	0xbebe5fb4	-0.3718239
80	0xbe9eeacc	-0.3103851
81	0xbee0a042	-0.43872267
82	0xbd38fb44	-0.0451615
83	0x3eb9f643	0.36320695
84	0x3e5ecbd7	0.21757446
85	0x3d22dfb7	0.039764132
86	0x3e8add22	0.27121836
87	0xbe52ea0d	-0.20597096
88	0xbd8def48	-0.06930405
89	0x3eac2b7d	0.3362693
90	0x3ddd341c	0.10800955
91	0x3e390479	0.18068112
92	0x3d00a5d2	0.03140814
93	0x3d23bd0c	0.03997521
94	0x3ed4b9df	0.41548058
95	0x3e7f2500	0.24916458
96	0x3ec426e8	0.38310933
97	0x3a0344dc	0.0005007514
98	0x3e9a57e6	0.30145186
99	0xbe8ad229	-0.27113464
100	0x3eceafe2	0.40368563
101	0x3d82698b	0.06367787
102	0xbe72cca4	-0.23710877
103	0xbe85b4aa	-0.26114398
104	0xbde4e0f1	-0.11175717
105	0x3ee30c23	0.44345197
106	0xbdb5bf0d	-0.08874331
107	0xbebd0466	-0.36917418
108	0x3e448cf7	0.19194399
109	0x3e3edd49	0.18639101
110	0x3ea4c533	0.321817
111	0x3efbf5e2	0.4921103
112	0xbe4ac250	-0.19800687
113	0x3ef25117	0.47327492
114	0x3e3c4a57	0.18387733
115	0x3e69a168	0.22815478
116	0x3e888f72	0.2667194
117	0xbebbbd3d	-0.36667815
118	0x3d709ca7	0.058743145
119	0xbeb63b21	-0.35591987
120	0x3ed49699	0.41521147
121	0x3dcf60ea	0.10125907
122	0x3e934c69	0.28769234
123	0xbe1a8933	-0.150914
124	0xbe89b2ea	-0.26894313
125	0x3e5e04b4	0.21681482
126	0xbdca5605	-0.09879688
127	0xbe96f70f	-0.29485366
128	0xbdb5d5f2	-0.088786975
129	0x3e8c3c8c	0.27389944
130	0xbe81c429	-0.2534497
131	0xbeafdbb8	-0.3434732
132	0xbe751e9b	-0.23937456
133	0x3ea3d24c	0.3199638
134	0x3e51caf4	0.20487577
135	0x3eb73926	0.35785788
136	0xbe90c239	-0.2827318
137	0x3e8a21ab	0.26978812
138	0xbed7f0f4	-0.4217602
139	0x3e30311f	0.17206238
140	0xbe4cd70a	-0.20003906
141	0x3e5b9f3d	0.21447463
142	0x3db7047f	0.089364044
143	0xbe0424ee	-0.12904713
144	0xbd5e2042	-0.054229982
145	0xbe92fc4c	-0.28708112
146	0x3c66f2b1	0.014095948
147	0xbb8cad92	-0.004293152
148	0x3e7bab21	0.24576999
149	0x3d908df4	0.070583254
150	0xbe4d8729	-0.20071091
151	0x3e316f52	0.17327622
152	0xbea03b0f	-0.31295058
153	0xbe6c285c	-0.23062271
154	0xbe617467	-0.2201706
155	0xbdb76ad7	-0.08955925
156	0x3eb16b99	0.34652403
157	0x3e97c3ce	0.29641575
158	0x3ada7326	0.0016666397
159	0x3ee60c0c	0.44931066
160	0xbe7cb1e8	-0.24677241
161	0xbeec4856	-0.46148938

Q1.conv.net.3.bias f4 [6]
0	0xb9fe7bad	-0.000485388
1	0x3c75cc18	0.015002273
2	0xbbd28b0a	-0.006425266
3	0x3c81ffbd	0.015869016
4	0x3c8f80ef	0.017517535
5	0xbce6cffa	-0.028175343

Q1.conv.net.6.weight f4 [6, 6, 3, 3]
0	0x3e69fde9	0.22850765
1	0x3e54e5dd	0.20790811
2	0xbe2d0fc1	-0.16900541
3	0xbe65f281	-0.22455789
4	0xbe40a880	-0.18814278
5	0xbe7b6322	-0.24549535
6	0x3df06ddc	0.11739704
7	0xbe0cf1d2	-0.13764122
8	0x3ea5c9d6	0.3238055
9	0x3e2e3523	0.17012458
10	0xbd5ff0bb	-0.054672938
11	0xbe621e6d	-0.22081919
12	0x3e3d360f	0.18477653
13	0xbe7f6c67	-0.24943696
14	0x3e8129cd	0.25227204
15	0xbe8390b2	-0.2569633
16	0x3e8473e3	0.25869665
17	0xbe426e4c	-0.18987387
18	0xbd93f027	-0.0722354
19	0x3e89cb07	0.2691271
20	0xbe81aa65	-0.25325313
21	0xbe74971f	-0.23885773
22	0xbddf9a93	-0.109181546
23	0xbdb6566d	-0.08903203
24	0xbe74da7d	-0.23911472
25	0x3b899fcb	0.004199957
26	0x3e8561ba	0.26051122
27	0xbe96e036	-0.29467934
28	0x3e179293	0.14802007
29	0x3d4f023f	0.05053925
30	0xbe4002f5	-0.18751128
31	0xbe1ff94c	-0.15622443
32	0x3de90b6d	0.113791324
33	0x3dab80dc	0.08374187
34	0xbb679e82	-0.003534228
35	0xbe88af39	-0.26696184
36	0x3deaf32e	0.11472164
37	0xbe8b40b0	-0.2719779
38	0xbe805e50	-0.25071955
39	0xbe0e3597	-0.1388763
40	0xbe9e0c41	-0.30868724
41	0x3e86a4ce	0.2629761
42	0x3ea9b2b9	0.33144167
43	0xbe9376b8	-0.28801513
44	0x3e073d8c	0.13207072
45	0xbe693ce4	-0.22777134
46	0xbe4df60c	-0.2011339
47	0x3d82b8a6	0.06382875
48	0x3dcaf705	0.099103965
49	0x3de468e3	0.11152818
50	0x3cef7f0e	0.02923539
51	0x3e95ac89	0.29233196
52	0xbd14d33a	-0.036334254
53	0x3dee8254	0.11645952
54	0xbe7a0004	-0.24414068
55	0x3e6557dc	0.22396797
56	0x3eb07a1d	0.34468165
57	0xbe9c341b	-0.30508503
58	0x3e323b15	0.1740535
59	0x3e858665	0.26079097
60	0xbe6177bc	-0.22018331
61	0xbe833f72	-0.25634342
62	0xbe1d9ac4	-0.1539107
63	0x3e31ab41	0.17350484
64	0x3ea6338a	0.32461196
65	0xbd209d19	-0.03921232
66	0x3ea3b34d	0.31972733
67	0x3e75a417	0.23988377
68	0x3c57b298	0.013165139
69	0x3e932fc7	0.2874739
70	0x3df20c6d	0.11818776
71	0x3e9dc4c5	0.30814186
72	0x3bfa8d2d	0.007646224
73	0x3d83cd5f	0.06435656
74	0xbe932542	-0.28739363
75	0xbe8192fd	-0.25307456
76	0xbe74c50b	-0.23903291
77	0x3e5da1fc	0.21643823
78	0x3d5e00c8	0.054199964
79	0x3e3ca23e	0.18421265
80	0x3e25e842	0.1620188
81	0xbe14667b	-0.14492218
82	0x3ea54e6d	0.32286397
83	0x3dc80514	0.097665936
84	0x3e82bf89	0.25536755
85	0xbe88a915	-0.266915
86	0xbe0a5927	-0.13510571
87	0xbcc30abc	-0.02380883
88	0x3e3c6fd7	0.18402039
89	0x3e07fb3b	0.1327943
90	0x3e4c6012	0.19958523
91	0xbdc1b28b	-0.094578825
92	0xbcd1e7a7	-0.025623156
93	0x3e907b84	0.28219235
94	0xbe5b5263	-0.21418147
95	0x3df94a3b	0.121723615
96	0xbe3e9a43	-0.18613534
97	0xbe92b285	-0.28651825
98	0x3e2cd950	0.16879773
99	0x3df6e74c	0.12055835
100	0xbdc3a2bb	-0.09552523
101	0x3e9ec386	0.31008548
102	0xbe92c940	-0.28669167
103	0xbe0132c4	-0.12617022
104	0xbe4d5f82	-0.20055965
105	0x3d850712	0.06495489
106	0x3e1c3677	0.15255152
107	0xbe98c1cd	-0.29835358
108	0xbe2e99f5	-0.17050917
109	0xbd5ab1d1	-0.053392235
110	0x3e13f475	0.14448722
111	0x3e008e75	0.12554343
112	0x3e7666e2	0.24062684
113	0x3e70e70d	0.23525639
114	0x3d0abc8a	0.03387121
115	0xbd3ea22c	-0.046541378
116	0xbd8ff72e	-0.07029568
117	0xbd9880a9	-0.07446415
118	0x3e17f108	0.1483804
119	0x3dbdd6e8	0.09269506
120	0xbe0d5d82	-0.13805202
121	0xbd7770d9	-0.060410354
122	0x3ea143ca	0.3149703
123	0x3e70a53e	0.23500535
124	0x3e9c0033	0.30468902
125	0xbe4f3629	-0.20235504
126	0x3e943ed7	0.28954193
127	0xbe6098f1	-0.21933343
128	0xbd181823	-0.037132394
129	0xbe998849	-0.2998679
130	0xbe42a8ba	-0.19009677
131	0x3e17f8f2	0.14841059
132	0xbe5f7395	-0.21821435
133	0xbd91a16c	-0.07110867
134	0x3e65d3f6	0.22444138
135	0xbce831db	-0.028344085
136	0xbe9b692d	-0.3035368
137	0x3d966058	0.07342595
138	0x3e7eb968	0.24875414
139	0xbe7b8e7c	-0.24566072
140	0x3e93d6a3	0.28874692
141	0x3e7ba662	0.24575189
142	0x3e7c3ab0	0.24631763
143	0x3daf60f9	0.08563418
144	0x3df8b87a	0.12144561
145	0x3e6cdd86	0.2313138
146	0x3ca96dbb	0.020682206
147	0x3da5d05b	0.08096381
148	0xbe03b34e	-0.12861368
149	0x3e979162	0.29603106
150	0xbe8800ca	-0.26563102
151	0xbd660702	-0.056159027
152	0x3e9cc6f1	0.3062053
153	0xbe0a1261	-0.13483573
154	0x3e8d83cd	0.2763962
155	0x3e794855	0.24343999
156	0xbe4ea324	-0.2017942
157	0xbe0c1f5e	-0.1368384
158	0x3dbaa611	0.09113706
159	0x3de4e70f	0.111768834
160	0xbe68299f	-0.22672127
161	0x3cb2093f	0.021732925
162	0x3e0e854c	0.13918036
163	0xbe4a58fc	-0.19760507
164	0x3db97d43	0.09057095
165	0xbdee7d13	-0.1164495
166	0xbc79b2c2	-0.015240373
167	0x3ea3bef2	0.31981617
168	0xbe9b418c	-0.30323446
169	0xbd970a4f	-0.07375013
170	0xbe42a99d	-0.19010015
171	0x3e398588	0.18117344
172	0x3e65fbe2	0.22459367
173	0x3e654e4c	0.22393149
174	0x3e87bd95	0.26511827
175	0x3e91bac0	0.2846279
176	0xbe4855b9	-0.1956395
177	0xbe5e8b4e	-0.21732828
178	0xbea0bb54	-0.3139292
179	0x3df5faed	0.12010751
180	0xbe931152	-0.28724152
181	0x3d816929	0.06318886
182	0x3eae5829	0.34051636
183	0xbe5d1d62	-0.2159324
184	0x3e97800a	0.29589874
185	0x3e75410d	0.23950596
186	0xbe4abbe2	-0.19798234
187	0xbc4048fd	-0.011736152
188	0x3dbd212a	0.09234841
189	0xbe3a2eb7	-0.18181883
190	0x3ea00031	0.31250146
191	0x3ead66ea	0.3386758
192	0x3e3a350a	0.18184295
193	0x3ddfeeb8	0.10934204
194	0xbd780fe2	-0.060562022
195	0x3e08357d	0.13301654
196	0xbe73046e	-0.23732159
197	0x3cc464e0	0.023973882
198	0x3e95bd65	0.2924606
199	0xbe334180	-0.17505455
200	0x3d0eb4f1	0.034840528
201	0x3d67919c	0.05653535
202	0xbe90b455	-0.28262582
203	0x3e16b641	0.14717962
204	0x3ea9021b	0.3300942
205	0x3e17c1f7	0.14820085
206	0x3e8295f5	0.25505033
207	0x3d4c689a	0.049904443
208	0xbd9ad2b3	-0.07559719
209	0x3c4ca0d0	0.012489513
210	0x3ea8a18b	0.32935748
211	0x3e1b186e	0.15146038
212	0x3cf4f6ec	0.029902898
213	0xbe72fb5a	-0.23728696
214	0x3e96ace8	0.29428792
215	0x3ba18051	0.0049286266
216	0x3df0e75f	0.117628805
217	0xbdb572a7	-0.08859759
218	0xbe1835fd	-0.14864345
219	0xbe611d69	-0.21983875
220	0x3dc15e3c	0.09441802
221	0xbe8676d6	-0.2626254
222	0xbcef5a55	-0.029217878
223	0xbc673f30	-0.014114186
224	0xbe660a0c	-0.2246477
225	0x3daefc5c	0.085442275
226	0x3e8f13d9	0.2794483
227	0xbe09b191	-0.13446642
228	0xbde9f06d	-0.11422811
229	0xbe769310	-0.24079537
230	0x3c7b566a	0.015340427
231	0x3e874c00	0.2642517
232	0x3ea4131b	0.32045826
233	0x3e067839	0.13131799
234	0x3d3ac10d	0.045594264
235	0xbe20ab18	-0.15690267
236	0x3e0a98d7	0.13534866
237	0xbdb285e8	-0.08716947
238	0x3e2a0d3d	0.16606613
239	0xbd0432a6	-0.032274865
240	0x3e46a339	0.19398202
241	0xbe36e7a2	-0.17861798
242	0xbe8b9301	-0.27260593
243	0xbddd99ab	-0.108203255
244	0x3de6b7bd	0.11265514
245	0xbe48124f	-0.19538234
246	0x3e6ba68f	0.23012756
247	0xbea373f5	-0.31924406
248	0xbe78a818	-0.24282873
249	0xbe7edde5	-0.24889334
250	0x3d8aa5fe	0.06769942
251	0xbdc038cc	-0.09385833
252	0x3ddd4461	0.10804058
253	0x3eaad75f	0.3336744
254	0xbe7626ac	-0.2403819
255	0x3ead8c94	0.33896315

Q1.conv.net.6.bias f4 [6]
0	0x3c5c2615	0.013436814
1	0x3c5f7be8	0.013640381
2	0x3c958f8d	0.018256927
3	0x3c812892	0.015766416
4	0x3ccd0c23	0.025030201
5	0x3c5f140f	0.013615622

Q1.a_head.0.weight f4 [128, 294]
0	0xbca27cbd	-0.01983487
1	0xbd0dbf62	-0.034606345
2	0x3c935537	0.01798497
3	0x3b24f623	0.0025171123
4	0x3c8c53bc	0.017129771
5	0x3d14078e	0.036140017
6	0xbd21dc16	-0.03951653
7	0x3caaf08f	0.02086666
8	0xbc917249	-0.01775469
9	0xbb9bb54e	-0.004751838
10	0xbcc691c8	-0.024239436
11	0x3c3f3e30	0.0116725415
12	0xbd242c67	-0.040081408
13	0x3d091c85	0.033474464
14	0x3d49f3b4	0.04930468
15	0xbccb18b6	-0.024792057
16	0x3b9210dc	0.004457576
17	0x3d5201e2	0.051271327
18	0xbd4eb025	-0.050460953
19	0xbc30b5ca	-0.010785529
20	0x3b218cd6	0.0024650595
21	0xbcceb724	-0.025233813
22	0xbba00b91	-0.0048841913
23	0x3d06f964	0.03295268
24	0xba8fcf99	-0.0010971903
25	0xbd36cf4a	-0.04463128
26	0x3cbb7912	0.02288488
27	0x3d0e1059	0.03468356
28	0x3c20f79f	0.0098246625
29	0x3d1c3793	0.038138937
30	0xbd33965a	-0.04384456
31	0x3b0b8b5c	0.0021292781
32	0xbd2b46c4	-0.041815534
33	0xbd598e55	-0.053114254
34	0xbc9ca1d4	-0.019120134
35	0xbc5113eb	-0.0127610965
36	0xbd4d5f57	-0.05013975
37	0xbd695b06	-0.056971572
38	0xbcf5d2d9	-0.030007767
39	0x3d255479	0.040363763
40	0xbd1085e0	-0.035283923
41	0xbd035c69	-0.03207055
42	0xbc58af95	-0.013225456
43	0xbccbdb93	-0.024884975
44	0xbcefa9a7	-0.029255701
45	0xbc00be9d	-0.007857946
46	0x3cd5690b	0.026051065
47	0x3cba6deb	0.022757491
48	0xbd2dce50	-0.042433083
49	0xbc1de839	-0.009637886
50	0xbd2a9090	-0.04164177
51	0xbca6fb51	-0.020383509
52	0x3d69336d	0.05693381
53	0xbd136efe	-0.035994522
54	0xbca40e35	-0.020026306
55	0xbc3fdac0	-0.011709869
56	0x3d342a6d	0.043985773
57	0xbd108041	-0.035278562
58	0xbd62cd0d	-0.055371333
59	0x3c9222e9	0.017838912
60	0xbcf31957	-0.029675169
61	0x3cc2a13f	0.023758529
62	0x3d140598	0.036138147
63	0xbc3cf523	-0.0115330545
64	0x3d015ce8	0.031582743
65	0xb9a9d5be	-0.00032393442
66	0x3d2988b4	0.041390136
67	0xbd29848a	-0.041386165
68	0xba846c79	-0.0010103128
69	0xbd3fb4c8	-0.046803266
70	0xbbcc652f	-0.006237648
71	0x3d4339c7	0.047662523
72	0x3cc36467	0.023851587
73	0x3cb73974	0.022366263
74	0x3d210ed0	0.039320767
75	0xbd0e40b6	-0.034729682
76	0x3c9a55f3	0.018839812
77	0x3d5bae84	0.053633228
78	0x3c9ac741	0.01889384
79	0x3b1f276a	0.0024284967
80	0xbd29d3f1	-0.04146189
81	0xbd2a4e9f	-0.041578885
82	0xbd21027f	-0.03930902
83	0x3ce2a705	0.027667532
84	0xbd296c8c	-0.041363284
85	0xbd4367a2	-0.047706254
86	0x3bdf8db4	0.0068223123
87	0xbca02018	-0.019546553
88	0x3d57a6ac	0.052649185
89	0xbd3c84fa	-0.046025254
90	0xbd0e503d	-0.03474449
91	0xbd673fb9	-0.056457255
92	0xbd6395cd	-0.055562783
93	0xbd622dab	-0.055219334
94	0x3d30e79c	0.04318963
95	0x3d0c2372	0.03421349
96	0xbd04054a	-0.032231607
97	0xbbcc495d	-0.0062343315
98	0xbcc5bfc8	-0.0241393
99	0x3d574a17	0.052560892
100	0xbd69e02e	-0.05709856
101	0xbc8304e1	-0.015993537
102	0x3c46b9fa	0.012129301
103	0x3cf293fa	0.029611576
104	0xbcc7b5a2	-0.024378601
105	0xbd57e827	-0.052711632
106	0x3d18c343	0.03729559
107	0x3d0252aa	0.031817116
108	0xbca9116c	-0.02063819
109	0xbd288fdc	-0.04115282
110	0xbcb182bb	-0.021668782
111	0x3c8f38e2	0.017483179
112	0xbb010830	-0.0019688718
113	0x3cba769f	0.022761641
114	0x3ca5b9b0	0.020230144
115	0x3c2fa1d8	0.010719739
116	0xbc1a5a78	-0.0094209835
117	0xb9f64f00	-0.00046979636
118	0xbd4c5b79	-0.049891923
119	0xbccf6b1b	-0.025319627
120	0x3c381580	0.011235595
121	0x3c266a85	0.010157232
122	0xbd6e93df	-0.05824649
123	0x3cae5b21	0.021283688
124	0xbd5d802a	-0.054077305
125	0xbcb22e3d	-0.021750564
126	0x3c515818	0.012777351
127	0x3d11efb1	0.03562898
128	0xbd4c92d2	-0.049944706
129	0x3bda0480	0.0066533685
130	0x3d514e8a	0.05110029
131	0x3c5be8d4	0.01342221
132	0x3c91f61f	0.017817555
133	0xbd3b5ad5	-0.04574092
134	0x3d10c0b6	0.035340033
135	0xbc8183cc	-0.015809916
136	0x3c56aa28	0.013102092
137	0xbd1c4631	-0.038152877
138	0x3cb8a259	0.02253835
139	0xbd0233b6	-0.031787597
140	0xbba8a5a8	-0.005146701
141	0xbca6d8bb	-0.020367017
142	0x3d56b185	0.05241539
143	0xbd6ad31a	-0.05733023
144	0x3d4ab3b1	0.049487773
145	0xbd18e323	-0.03732599
146	0xbcd5779f	-0.026058016
147	0x3d1b550e	0.03792291
148	0xbd18ea60	-0.037332892
149	0x3d0eafa7	0.034835484
150	0xbd473554	-0.048634842
151	0xbd09b80c	-0.033622786
152	0xbabda8da	-0.0014469877
153	0xbd21701b	-0.039413553
154	0xbd2c2e90	-0.042036593
155	0xbbca9e39	-0.0061834124
156	0xbca9df96	-0.020736497
157	0x3c37891f	0.011202126
158	0x3d1d8995	0.038461287
159	0x3c630961	0.013857217
160	0x3c41f444	0.011838023
161	0xbc5f9674	-0.013646711
162	0x3c9d17ed	0.019176448
163	0xbcbb366d	-0.0228531
164	0x3d29ab9f	0.041423436
165	0x3d6ed07f	0.058304306
166	0xbccced95	-0.025015632
167	0xbd095855	-0.033531506
168	0x3d2ec0d3	0.04266436
169	0x3d233c5b	0.03985248
170	0xbc844252	-0.016144905
171	0xbd220dc5	-0.039563913
172	0xbcdeb35d	-0.027185136
173	0x3beaf8ff	0.007170796
174	0xbd1d07cd	-0.038337518
175	0x3d1be117	0.03805646
176	0x3cd3bf9a	0.025848199
177	0xbc294434	-0.010331202
178	0x3d330eef	0.043715414
179	0x3d17f302	0.037096985
180	0x3bb728b7	0.0055895704
181	0xbca7b337	-0.020471198
182	0xbcc4b4f2	-0.024012063
183	0x3cdc2835	0.026874641
184	0x3d53ce6e	0.05171054
185	0x3bff5d26	0.0077930866
186	0x3d341107	0.04396155
187	0x3b35f5f3	0.0027765005
188	0xbd3e02b8	-0.04638931
189	0xbd28825f	-0.041139957
190	0x3b52df5f	0.0032176597
191	0xbb3a573b	-0.002843334
192	0xbc70cae6	-0.014696812
193	0x3d621a6e	0.055200987
194	0x3d4f3a32	0.05059261
195	0x3d37d6a1	0.04488242
196	0xbd57e811	-0.05271155
197	0xbd65c1ec	-0.05609314
198	0xbb552ce2	-0.0032527973
199	0xbcde5383	-0.02713943
200	0x3ca2b7a5	0.01986296
201	0xbc1c6967	-0.009546614
202	0xbcefd4bd	-0.029276246
203	0xbb67b83a	-0.003535761
204	0xbd65eabf	-0.056132074
205	0x3d1563a5	0.03647198
206	0xbc655311	-0.013996855
207	0x3d1fce20	0.039014935
208	0x3c725526	0.014790809
209	0xbca5ab1c	-0.020223193
210	0x3d5bd171	0.053666536
211	0x3d15d08b	0.036575835
212	0xbc004362	-0.007828565
213	0x3d4a2a06	0.049356483
214	0xbbb8273b	-0.005619911
215	0x3cfa49f9	0.030552851
216	0xbd170e86	-0.036879085
217	0x3ca80662	0.020510856
218	0x3d33077a	0.043708302
219	0x3d5f503e	0.054519884
220	0xbc97b9fb	-0.0185213
221	0xbd0386d7	-0.032111015
222	0x3b04fedc	0.002029351
223	0x3d6ddaf8	0.058070153
224	0x3cfc4ded	0.030798877
225	0x3ce8e7ce	0.028430846
226	0x3cb1cd87	0.021704448
227	0x3d285257	0.04109415
228	0x3d5588a3	0.05213226
229	0x3d442280	0.047884464
230	0xbd696a66	-0.056986235
231	0xbc99969d	-0.018748576
232	0xbcaa512e	-0.020790663
233	0xbc4ee8b3	-0.012628722
234	0xbd1d344d	-0.038379956
235	0xbd11844b	-0.035526555
236	0xbcd47830	-0.025936216
237	0xbca34ae0	-0.019933164
238	0x3d0ee43c	0.03488563
239	0xbd0da5a8	-0.03458181
240	0x3d40264a	0.046911515
241	0xbcc25ff9	-0.023727404
242	0xbd4b4b25	-0.04963221
243	0x3cbe6696	0.023242276
244	0x3d51aceb	0.051190298
245	0xbcdfe6d9	-0.027331756
246	0xbc87cf36	-0.016578298
247	0x3d5a5b23	0.05330957
248	0xbd34d6bb	-0.044150095
249	0xbbbbb4ed	-0.005728355
250	0xbd04b3df	-0.0323981
251	0x3d1b9e0d	0.037992526
252	0x3b64498f	0.0034833883
253	0x3bd8aa03	0.006612064
254	0xba0cfc6a	-0.0005378189
255	0x3d089f98	0.033355325

Q1.a_head.0.bias f4 [128]
0	0xbca9cfa2	-0.02072889
1	0xbd5d2530	-0.053990543
2	0xbd028b2d	-0.03187101
3	0xbb34d306	-0.00275916
4	0xbbd8fdef	-0.006622068
5	0x3cfb741d	0.030695016
6	0x3ce8aa4d	0.028401518
7	0xbce92dc9	-0.028464215
8	0xbd40010c	-0.046876
9	0xbcea4f19	-0.02860217
10	0x3d1bc705	0.038031597
11	0x3cf9e252	0.030503426
12	0xbd352d26	-0.04423251
13	0xbcb487f0	-0.022037476
14	0x3d169e1b	0.036771875
15	0x3d2053bb	0.03914235
16	0x3cc4a09f	0.024002371
17	0x3cf4f01b	0.029899647
18	0xbbb6c802	-0.005578042
19	0x3bba271d	0.005680932
20	0xbd00e516	-0.031468473
21	0x3ca0c84b	0.019626757
22	0xbd40054b	-0.046880048
23	0xbb9220d7	-0.004459481
24	0xbb71250c	-0.0036795763
25	0xbd1ee17b	-0.038789254
26	0xbd255484	-0.040363804
27	0x3d6098dc	0.054833278
28	0xbad4b2fe	-0.001622766
29	0xbcd0074d	-0.025394106
30	0x3d1d4798	0.038398355
31	0xbc9b7590	-0.018976957
32	0x3a7b07e2	0.0009576065
33	0xbcee14bb	-0.02906262
34	0xbd020f7c	-0.03175305
35	0x3d18eb61	0.03733385
36	0x3c941efe	0.018081184
37	0x3d68bd77	0.056821313
38	0xbd083d9f	-0.03326189
39	0x3ca8b441	0.020593764
40	0x3d3de42f	0.04636019
41	0xbcb1d4fa	-0.021708
42	0xbd670bfe	-0.05640792
43	0xbc899af9	-0.01679753
44	0xbc738b46	-0.014864748
45	0xbd0e3bee	-0.034725122
46	0x3c5bd2bd	0.013416943
47	0xbcd91873	-0.026500916
48	0xbd17b115	-0.037034113
49	0x3d1e165b	0.03859554
50	0x3c937fa1	0.018005194
51	0xbd61519d	-0.055009473
52	0x3d556f0a	0.05210785
53	0x3d5e40d4	0.054261044
54	0xbd25ea17	-0.04050645
55	0x3cf37689	0.029719608
56	0xbc462525	-0.012093817
57	0x3c7c44db	0.015397276
58	0xbcaf24b3	-0.021379804
59	0xbcaad3f1	-0.020853015
60	0xbd03c89b	-0.032173734
61	0xb9ab4bcb	-0.00032672132
62	0xbc8287a1	-0.015933814
63	0xbbf06083	-0.007335724
64	0xbd562c2b	-0.052288216
65	0xbccd5207	-0.025063528
66	0x3d1d5433	0.038410377
67	0xbd58656c	-0.0528311
68	0x3d553c60	0.05205953
69	0xbcf410bc	-0.029793136
70	0xbc822242	-0.015885476
71	0x3c30e9ee	0.010797961
72	0xbd052b4e	-0.032512
73	0xbb3cc752	-0.0028805328
74	0x3b89f31c	0.004209889
75	0xbd638ee0	-0.055556178
76	0xbd27c21a	-0.040956594
77	0x3bf4ec59	0.007474464
78	0x3d2d4a1d	0.042307008
79	0x3d43ac11	0.047771517
80	0x3c3bacf9	0.011454814
81	0x3d395d8f	0.04525524
82	0xbcfdaacb	-0.03096523
83	0xbd0b759d	-0.03404771
84	0xbd3497d7	-0.04409012
85	0xbd4964b0	-0.04916829
86	0xbbb9a0dc	-0.005664928
87	0xbc6fbc63	-0.014632317
88	0x3d0ef41d	0.034900773
89	0x3c6f100a	0.014591226
90	0xbc0341de	-0.008011309
91	0xbd1362a4	-0.035982743
92	0x3c77e118	0.01512935
93	0x3c291f28	0.01032237
94	0xbd3bfbf8	-0.045894593
95	0x3c3326ee	0.0109345745
96	0x3d679290	0.056536257
97	0x3c2377ec	0.009977322
98	0xbccd6551	-0.025072725
99	0xbd1ab5ff	-0.03777122
100	0xbd07f9eb	-0.033197325
101	0xbd069f87	-0.03286698
102	0xbd5bfefc	-0.05370997
103	0x3d553538	0.052052706
104	0xbd3d4322	-0.0462066
105	0x3d070566	0.032964133
106	0x3b443f5f	0.0029944999
107	0x3ce41737	0.027843101
108	0xbcf35035	-0.029701332
109	0xbc8960ea	-0.016769845
110	0x3c7fb3ba	0.015606815
111	0xbba953fb	-0.005167482
112	0xbd16e7e7	-0.036842253
113	0x3d1e4df8	0.038648576
114	0xbc30d39d	-0.01079264
115	0x3c935361	0.017984094
116	0xbcb15075	-0.02164481
117	0xbd016a73	-0.03159566
118	0x3cfb30d3	0.03066293
119	0x3d4056df	0.046957847
120	0x3d2b10aa	0.04176394
121	0xbd18d6d7	-0.037314262
122	0x3d520774	0.05127664
123	0x3cc95374	0.024575926
124	0xbba27a52	-0.0049584294
125	0xbd289ce5	-0.04116525
126	0x3cf5e7a3	0.03001768
127	0x3cfeec14	0.03111843

Q1.a_head.2.weight f4 [6, 128]
0	0xbd51b7b6	-0.05120059
1	0x3d207e03	0.039182674
2	0x3dac6d3a	0.08419271
3	0xbd8efbae	-0.06981598
4	0x3d06430b	0.03277878
5	0xbd6617d1	-0.056175057
6	0x3d0109fe	0.03150367
7	0xbd9cda68	-0.07658845
8	0xbd4f4827	-0.05060592
9	0x3d81872b	0.06324609
10	0x3d7b9c7a	0.061428525
11	0xbd954949	-0.07289369
12	0x3bfb5a30	0.0076706633
13	0x3d385adc	0.045008525
14	0x3da69d9d	0.08135531
15	0x3cb40cff	0.021978853
16	0xbd841886	-0.0644999
17	0x3ca609c7	0.020268334
18	0xbc25563d	-0.010091362
19	0x3d9c95e6	0.07645778
20	0x3d70297c	0.058633313
21	0x39b27b37	0.00034042608
22	0xbd6d2a6b	-0.05790178
23	0x3d9ee216	0.07757966
24	0x3d9a12a3	0.07523086
25	0x3bc8e577	0.00613087
26	0xbd9ff1cd	-0.07809792
27	0xbd254dcf	-0.040357407
28	0x3d2dd6e7	0.042441275
29	0xbda66bce	-0.08126031
30	0xbd977bf7	-0.07396691
31	0xbcd01e3f	-0.025405047
32	0x3d97ae8f	0.07406341
33	0xbbe00a23	-0.006837146
34	0xbc66e977	-0.014093748
35	0xbce6003f	-0.02807629
36	0x3d0a4ac8	0.033762723
37	0x3ca445b7	0.020052774
38	0x3d8d878b	0.069106184
39	0xbc6b3a7e	-0.014357207
40	0x3d1bcf5f	0.03803956
41	0xbd29ddc6	-0.041471265
42	0x3c840380	0.01611495
43	0xbd746126	-0.05966296
44	0x3a6b0702	0.0008965583
45	0x3d6638ee	0.056206636
46	0xbc082912	-0.008310573
47	0x3d720f2e	0.059096508
48	0xbd8bf4f2	-0.06833829
49	0xbc5eeefc	-0.013606783
50	0xbd4e6dd0	-0.050397694
51	0x3d8c0608	0.06837088
52	0xbd4adae5	-0.04952516
53	0xbd92f782	-0.071761146
54	0xbcc129c2	-0.023579482
55	0x3d3f9e2a	0.046781696
56	0x3d5c72b9	0.053820346
57	0xbd53fdfb	-0.051755887
58	0xbd70f3da	-0.058826305
59	0x3d100c3c	0.035167918
60	0x3d99030c	0.07471284
61	0x3d0886da	0.03333173
62	0xbda32ea2	-0.07967879
63	0x3d4c5d3d	0.049893606
64	0x3d258751	0.04041225
65	0x3ab03d4d	0.0013446003
66	0xbb8da48f	-0.0043225954
67	0x3d5dfc56	0.054195724
68	0x3d56f9b7	0.05248424
69	0xbd6f7039	-0.058456633
70	0x3d1443d6	0.036197506
71	0xbd631f6c	-0.055449888
72	0xbd2aa82c	-0.041664287
73	0x3ca83a46	0.0205356
74	0xbb54da4e	-0.0032478753
75	0x3d394a35	0.045236785
76	0xbcdf245c	-0.027239017
77	0x3c961555	0.018320719
78	0xbd9ed983	-0.07756331
79	0xbb198ad3	-0.0023428693
80	0xbcc32763	-0.023822492
81	0x3da9af2f	0.08285367
82	0x3c8ba4ad	0.017046297
83	0xbd40d827	-0.04708114
84	0xbd18e53a	-0.037327982
85	0x3d8dc928	0.06923133
86	0x3d837e21	0.064205416
87	0xbcce1870	-0.025158137
88	0xbc9ac50e	-0.018892791
89	0x3d4f58ed	0.050621916
90	0x3cb97808	0.022640243
91	0xbd042402	-0.032260902
92	0xbd13a6ab	-0.03604762
93	0x3d255c6e	0.04037135
94	0x3da4a448	0.08039147
95	0x3d188f3b	0.03724597
96	0xbd9a3e57	-0.07531422
97	0xbd229039	-0.039688323
98	0x3cfe9c6b	0.031080445
99	0xb94cedaa	-0.00019543493
100	0xbce8518f	-0.028359203
101	0x3cfc2b17	0.030782266
102	0xbcc82f0e	-0.0244365
103	0xbb843c70	-0.004035525
104	0xbd9cba1b	-0.07652684
105	0x3960c859	0.0002143694
106	0x3c2c78fa	0.01052689
107	0xbc4f39ab	-0.012648026
108	0xbdb31805	-0.08744816
109	0x3cc1e05b	0.023666551
110	0xbd9827e3	-0.07429483
111	0xbda55c88	-0.080742896
112	0xbc878a2c	-0.016545378
113	0x3d8467e9	0.06465132
114	0x3c22bbfa	0.009932512
115	0xbd10e96b	-0.035378855
116	0x3d2cbf16	0.04217442
117	0xbccccaff	-0.02499914
118	0xbb0809e4	-0.0020757848
119	0xbcaf2b19	-0.021382855
120	0xbd04e2af	-0.032442745
121	0xbda0beeb	-0.07848915
122	0x3d54eab8	0.051981658
123	0x3da6f9e7	0.08153134
124	0x3d9c4292	0.07629885
125	0x3caf169c	0.021373086
126	0xbd7b04a1	-0.06128371
127	0x3cde6e1d	0.027152115
128	0x3d9957db	0.0748746
129	0x3d915216	0.07095735
130	0xbd552272	-0.052034803
131	0x3d8b7a5e	0.06810449
132	0xbda445a5	-0.08021096
133	0xbd2a8d82	-0.04163886
134	0xbcd97e74	-0.026549555
135	0x3d41327b	0.047167283
136	0x3905cb74	0.0001275966
137	0x3d59062a	0.052984394
138	0x3d0d3dec	0.03448288
139	0xbc8b9a91	-0.017041476
140	0xbcde1c11	-0.027112992
141	0x3da64b24	0.08119801
142	0x3d1402bd	0.036135424
143	0x3d28e24f	0.04123145
144	0xbd3d8d02	-0.046277054
145	0x3d2d711f	0.04234421
146	0xbc645fdb	-0.013938869
147	0x3d2baf19	0.041915033
148	0x3d89061a	0.06690617
149	0xbd51e2ed	-0.051241804
150	0x3cb102a6	0.021607708
151	0x3d1f57e2	0.03890217
152	0x3c958850	0.018253475
153	0xbd9560c8	-0.0729385
154	0x3d84f1d9	0.06491441
155	0xbd92391f	-0.07139801
156	0xbda8a878	-0.08235258
157	0xbd09ab93	-0.03361089
158	0x3d870192	0.065920964
159	0x3db4a27b	0.08820053
160	0xbc9733db	-0.018457344
161	0x3c887ddc	0.016661577
162	0x3d15ee6e	0.036604337
163	0xbc960106	-0.018311035
164	0xbd5d3c53	-0.054012608
165	0x3d75ffc8	0.060058385
166	0xbd70422e	-0.058656864
167	0xbcd6dba6	-0.026227783
168	0xbd823eef	-0.0635966
169	0x3c44e637	0.012017778
170	0x3d47269c	0.048620805
171	0x3cc47e40	0.023985982
172	0xbcb0f92c	-0.02160319
173	0xbc01800a	-0.007904062
174	0xbd0e0106	-0.034668945
175	0xbd5bd796	-0.053672396
176	0x3d029e87	0.031889465
177	0x3d25a2ee	0.040438585
178	0xbd22251a	-0.039586164
179	0x3d702462	0.058628447
180	0xbd72bb57	-0.059260692
181	0xbda1a4bb	-0.07892748
182	0x3d30d073	0.043167543
183	0xbd837e1f	-0.0642054
184	0x3d397a96	0.045282923
185	0xbd61022d	-0.054933716
186	0x3d8d2c9a	0.06893273
187	0xbd10d206	-0.035356544
188	0x3cc8b80d	0.024501825
189	0x3d11c394	0.03558691
190	0xbbdca82e	-0.006733916
191	0x3d161c5b	0.036648136
192	0xbce80b0c	-0.02832558
193	0xbd3e7336	-0.046496592
194	0x3ab6316e	0.0013900229
195	0xbdabc8a6	-0.0838788
196	0x3d990b84	0.074728996
197	0x3c909ff2	0.017654393
198	0x3ceaafd0	0.028648287
199	0x3cf68065	0.03009052
200	0x3ca62512	0.020281348
201	0x3d8fdce2	0.07024552
202	0x3c2b6a22	0.010462316
203	0x3d6f567e	0.058432095
204	0xbd6a2285	-0.057161827
205	0x3baf88a3	0.0053568645
206	0xbda72aa2	-0.081624284
207	0xbb8d6a77	-0.00431567
208	0xbd35cdd0	-0.04438573
209	0xbd3daddf	-0.046308395
210	0x3c1def7b	0.009639616
211	0xbd8af065	-0.06784133
212	0x3c4d9825	0.012548481
213	0xbd908d17	-0.07058161
214	0x3cdf0527	0.027224137
215	0xbcb388d0	-0.021915823
216	0xbc327ba6	-0.010893738
217	0xbd519ff8	-0.05117795
218	0xbca5a0e8	-0.020218328
219	0x3c617789	0.01376141
220	0x3da3d08c	0.079987615
221	0xbcfdf45f	-0.031000314
222	0xbd9c0b0c	-0.076192945
223	0xbccbc034	-0.024871923
224	0x3d4d7321	0.050158624
225	0x3d84d999	0.06486816
226	0xbd017b19	-0.031611536
227	0x3d56cb43	0.05243994
228	0xbd8dbcb0	-0.06920755
229	0xbcb52804	-0.022113807
230	0xbd1b2438	-0.037876338
231	0x3b0dd310	0.0021640696
232	0x3d426c05	0.047466297
233	0xbb825f16	-0.0039786203
234	0x3cdc18a1	0.026867213
235	0xbd3aa3ef	-0.045566496
236	0xbd6c4e25	-0.057691712
237	0x3d9012de	0.07034849
238	0x3d4caeca	0.04997138
239	0x3ced88c6	0.028995883
240	0x3d920463	0.07129743
241	0x3da941e3	0.0826452
242	0x3d2fb3a8	0.042895943
243	0x3d20449c	0.03912793
244	0xbd725b67	-0.0591692
245	0x3d84ab18	0.06477946
246	0xbd3016eb	-0.042990606
247	0x3c86043f	0.016359447
248	0xbd5d64e1	-0.054051284
249	0x3cd95e98	0.026534364
250	0xbd883fcf	-0.066527955
251	0x3d9dbbc6	0.077018306
252	0xbd7a740b	-0.061145823
253	0xbda19da4	-0.07891396
254	0xbd1ada84	-0.03780605
255	0xbb777d1f	-0.0037763787

Q1.a_head.2.bias f4 [6]
0	0x3da5fa1c	0.08104345
1	0x3ce58241	0.028016211
2	0xbbfaacf3	-0.0076500117
3	0xbd7c1e0b	-0.06155209
4	0x3cea23dd	0.028581554
5	0xbd98cc3e	-0.07460831

Q1.v_head.0.weight f4 [128, 294]
0	0xbbe1780f	-0.006880767
1	0xbcd624c5	-0.02614058
2	0x3d202d15	0.039105494
3	0xbd7cdf08	-0.061736137
4	0xbd5273b3	-0.05137987
5	0x3c97027b	0.0184338
6	0xbbf743a4	-0.007545905
7	0xbd6250fd	-0.055253018
8	0xbc9204bc	-0.017824523
9	0x3cf364c0	0.029711127
10	0x3cbea8eb	0.023273906
11	0xbc3d7a8a	-0.01156486
12	0xbaca64b5	-0.001544139
13	0xbd155bcc	-0.036464497
14	0x3d34f022	0.04417432
15	0xbc0f1fa6	-0.008735573
16	0x3d2c63a0	0.042087197
17	0xbceb387e	-0.028713461
18	0xbc8391e8	-0.016060784
19	0x3d1bcb74	0.038035825
20	0xbb885e95	-0.0041616657
21	0x3cdd32e2	0.027001802
22	0xbc907804	-0.017635353
23	0xbc928c7c	-0.017889254
24	0xbc56b561	-0.013104768
25	0xbd7f631b	-0.062350374
26	0xbc7b03f8	-0.01532077
27	0xbd25677f	-0.040381905
28	0x3c70f066	0.014705753
29	0x3caa2946	0.020771634
30	0x3d31e94f	0.04343539
31	0x3b5052fe	0.0031787748
32	0xbcab73c4	-0.020929225
33	0x3d3f72ec	0.046740457
34	0xbcdd2e77	-0.026999695
35	0xbc4b367f	-0.01240313
36	0xbcf23ee3	-0.029571002
37	0x3cb477a7	0.022029711
38	0xbd2e201d	-0.042511094
39	0x3b1173dc	0.0022194302
40	0xbc8c0207	-0.01709081
41	0x3d052ff1	0.032516424
42	0x3c96550f	0.018351106
43	0xbabf0d14	-0.0014576041
44	0xbc27fc4b	-0.010253022
45	0xbcd8baa6	-0.026456188
46	0x3aab8aeb	0.0013087665
47	0xbc3de024	-0.011589084
48	0x3d0b0297	0.033938017
49	0xbc169d11	-0.009192721
50	0xbd1bdab9	-0.038050387
51	0x3d503d5d	0.05083977
52	0x3b44b2c1	0.0030013772
53	0x3c7b15e5	0.015325044
54	0x3d1e8f42	0.03871084
55	0xbd46fce4	-0.04858102
56	0x3d375610	0.04475981
57	0xbc4c9b5a	-0.012488211
58	0xbd2ac44b	-0.041691106
59	0x3d113c5e	0.03545796
60	0xbc4f2f43	-0.012645545
61	0x3d2fdc2f	0.042934593
62	0x3beaa37d	0.0071606026
63	0x3d1c961a	0.038229086
64	0xbd07c85e	-0.03315007
65	0x3c075adb	0.008261408
66	0x3bca3f23	0.0061720773
67	0xbd6e8ce9	-0.05823985
68	0xbce1bc43	-0.02755559
69	0xbd1b95eb	-0.03798477
70	0x3d2e323f	0.042528387
71	0x3bb6e0dd	0.005581005
72	0xbd35a226	-0.04434409
73	0x3d605709	0.054770503
74	0xbd0c95a4	-0.034322396
75	0xbcd863ae	-0.026414718
76	0x3d173405	0.036914844
77	0xbd1ca7e5	-0.038246054
78	0xbd2c3a95	-0.042048056
79	0xbb3f0c11	-0.002915148
80	0xbcc9bd6a	-0.024626452
81	0xbcaf34bf	-0.021387456
82	0x3cf0b5dc	0.029383592
83	0xbd036e18	-0.032087415
84	0xbd523b42	-0.051326044
85	0x3c281e70	0.010261163
86	0x3ccc5621	0.024943413
87	0xbd7fe553	-0.06247456
88	0xbd3f407c	-0.046692356
89	0x3d4e0ff2	0.050308175
90	0x3d3ed416	0.04658898
91	0x3d1f1f28	0.038848072
92	0x3c37f07d	0.0112267705
93	0xbce4df06	-0.027938377
94	0x3d248f69	0.04017583
95	0xbd3e7d1a	-0.046506025
96	0xbcf5862f	-0.02997121
97	0x3d2caf8a	0.042159595
98	0xbc9d3f0f	-0.019195108
99	0xbcda8bbe	-0.026677962
100	0x3ca9e426	0.020738672
101	0xbd509ba6	-0.050929688
102	0xb9578e51	-0.00020557015
103	0xbcc498f8	-0.023998722
104	0x3be71d4b	0.0070530525
105	0x3d3fd403	0.04683305
106	0xbb7a7e6f	-0.0038222333
107	0x3c87e2e5	0.016587684
108	0xbc63e433	-0.013909387
109	0xbd022e9a	-0.031782724
110	0xbcfdd9db	-0.03098767
111	0xbd2e9a27	-0.04262748
112	0xbc600d0a	-0.013674984
113	0xbd7b2081	-0.061310295
114	0xbc45ec21	-0.012080223
115	0x3af33e78	0.0018558046
116	0xbc82613a	-0.015915502
117	0xbd2b6669	-0.041845713
118	0xbd53caba	-0.051707007
119	0x3d4c88b9	0.049935076
120	0xbd4c9c49	-0.049953733
121	0x3d51859f	0.05115282
122	0xbc008567	-0.007844306
123	0x3ca2589c	0.019817643
124	0xba8bd336	-0.0010667804
125	0xbc7d6f60	-0.015468448
126	0xbc97088f	-0.018436698
127	0xbd190669	-0.03735963
128	0xbc9e8366	-0.019349765
129	0x3d2c79a9	0.04210821
130	0xbd1a87fb	-0.037727337
131	0x3d007672	0.03136296
132	0x3d3617ee	0.044456415
133	0x3bbc5195	0.00574703
134	0xbc67c639	-0.014146381
135	0xbd0a4c64	-0.033764258
136	0x3cb480b5	0.022034029
137	0xbc9dfab8	-0.019284591
138	0x3c46ecb7	0.012141398
139	0x3d3be9a3	0.04587711
140	0xbc82bdbe	-0.015959617
141	0x3d0a81a8	0.033815056
142	0x3d549b1a	0.05190573
143	0xbbd113cb	-0.0063805333
144	0xbb9a8a23	-0.004716174
145	0x3c1a59b6	0.009420803
146	0xbba5bfca	-0.0050582634
147	0xbd279586	-0.04091408
148	0x3ca7e1ee	0.020493474
149	0x3d046128	0.032319218
150	0x3c44949e	0.011998324
151	0xbd1cb220	-0.03825581
152	0xbd066f5b	-0.03282104
153	0xbd43450b	-0.047673266
154	0xbc6f33c5	-0.014599745
155	0x3d5297a8	0.051414162
156	0x3cdf1e4a	0.027236123
157	0xbc9f5b99	-0.019452857
158	0x3d1f92de	0.038958423
159	0xbcbb519b	-0.022866061
160	0xbd5218ed	-0.051293302
161	0x3cd78f22	0.026313368
162	0x3c9cd10e	0.019142654
163	0x3d351a54	0.04421456
164	0x3d30a70d	0.043128062
165	0xbd3303ac	-0.043704674
166	0xbca03e2f	-0.019560901
167	0x3d33cda4	0.043897286
168	0xbd6adfda	-0.057342388
169	0x3c4f4168	0.012649871
170	0x3ca543fb	0.020174017
171	0x3d6d1a1c	0.057886228
172	0x3d20cd26	0.039258145
173	0x3c9a7fd3	0.01885978
174	0x3d3b6c3a	0.04575751
175	0xbb949a27	-0.004534978
176	0xbd4fce98	-0.050734133
177	0x3cb45d91	0.022017272
178	0x3d4f179d	0.05055963
179	0x3d1aa799	0.03775749
180	0xbd335e1b	-0.043790918
181	0xbd460682	-0.04834605
182	0x3d149591	0.03627545
183	0xbd1a3cae	-0.037655525
184	0x3c195b18	0.009360097
185	0xbcd6731b	-0.026177933
186	0x3d44a9e0	0.048013568
187	0xbd6ae8e3	-0.057351004
188	0x3c9ad88e	0.01890209
189	0xbcd86b01	-0.026418211
190	0xbd09a557	-0.033604946
191	0x3d211070	0.039322317
192	0xbd251cd7	-0.040310707
193	0xbc851f8c	-0.016250394
194	0x3d4b1bce	0.049587063
195	0x3aaea331	0.0013323781
196	0x3d2866f3	0.041113805
197	0x3c8e8433	0.017397022
198	0xbd4567e6	-0.04819479
199	0xbd7c938d	-0.061664153
200	0xbd1c4ef0	-0.03816122
201	0x3d4c63a8	0.049899727
202	0x3d05fef1	0.032713834
203	0x3c1a8850	0.0094319135
204	0x3ccc00fe	0.024902817
205	0xbccee120	-0.025253832
206	0x3d4d540c	0.05012898
207	0xbc27c423	-0.010239634
208	0x3d332ed9	0.04374585
209	0xbd41dbbe	-0.047328703
210	0xbd75434a	-0.059878625
211	0xbb712ad8	-0.0036799219
212	0xbcf2b8c3	-0.029629117
213	0xbd00bc30	-0.03142947
214	0xbcdbb397	-0.026819034
215	0xbd1cb97d	-0.038262833
216	0xbb198360	-0.0023424253
217	0xbd5e48d9	-0.05426869
218	0x3d1c04a9	0.03809038
219	0xbd21f3a4	-0.039538994
220	0xbd6c5c91	-0.057705466
221	0x3d2c48a2	0.042061456
222	0xbd4f0112	-0.05053813
223	0x3cba7872	0.02276251
224	0x3d26a4b3	0.040684413
225	0xbd1c5f00	-0.038176537
226	0xbafeadf4	-0.0019430504
227	0xbd156370	-0.036471784
228	0x3d523aa7	0.051325466
229	0x3d2919ec	0.041284487
230	0x3cae2244	0.021256573
231	0x3d09274d	0.033484746
232	0x3cbc2a8b	0.022969505
233	0x3d4edac9	0.05050162
234	0x3badaf32	0.005300426
235	0x3ce1aa7d	0.027547115
236	0x3d038f3d	0.032119025
237	0x3d1a4d01	0.037671093
238	0xbd46820c	-0.048463866
239	0x3cea442f	0.028596966
240	0x3d2aaf4c	0.041671082
241	0x3d092d99	0.03349075
242	0x3d04de24	0.032438412
243	0xbce1386d	-0.027492726
244	0x3cd9e33e	0.026597615
245	0xbcc88008	-0.024475113
246	0xbcfa1790	-0.030528814
247	0x3cee04f6	0.0290551
248	0x3c4473e3	0.01199052
249	0xbca7d8e1	-0.020489158
250	0xbc10e9a3	-0.008844766
251	0xbb40dfff	-0.0029430387
252	0x3d4ea77c	0.050452694
253	0x3be89e21	0.0070989286
254	0x3cdccc7f	0.02695298
255	0x3d32dcb4	0.04366751

Q1.v_head.0.bias f4 [128]
0	0x3c4b16f1	0.012395606
1	0x3ab47ca2	0.0013770054
2	0xbc8b7417	-0.01702313
3	0x3d117016	0.035507284
4	0x3d072cad	0.03300159
5	0x3d7f97a6	0.062400483
6	0x3c86edf6	0.01647089
7	0x3d1a5f95	0.03768881
8	0xbcdbf0b8	-0.026848182
9	0xbd28ab34	-0.041178897
10	0x3d618326	0.055056714
11	0x3c46bbda	0.012129748
12	0x3d052062	0.032501586
13	0xbcfff56c	-0.031244956
14	0x3c17a04e	0.009254528
15	0x3d0ce160	0.03439462
16	0xbcccde42	-0.025008325
17	0xbc0c040c	-0.008545887
18	0x3c9f67e3	0.019458717
19	0x3d278d27	0.040906098
20	0xbccc75b8	-0.024958476
21	0x3d662e2e	0.056196384
22	0x3d18cc02	0.037303932
23	0xbd2daed0	-0.042403042
24	0x3d078c03	0.03309251
25	0x3ce8e1dd	0.028428013
26	0xbcea226b	-0.028580865
27	0xbd34076c	-0.04395239
28	0x3a4df255	0.00078562397
29	0xbcd4b897	-0.025966926
30	0x3a9dde7b	0.0012044454
31	0x3d22cc1b	0.03974543
32	0x3c7eee32	0.01555972
33	0x3cb5c8a9	0.022190409
34	0xbd10ccaf	-0.03535145
35	0x3a0a4f06	0.00052760576
36	0x3d2860b8	0.041107863
37	0x3d07830a	0.033083953
38	0xbd1df13d	-0.03856014
39	0x3d525e8f	0.05135971
40	0xbd3ae006	-0.0456238
41	0xbd196bd5	-0.037456352
42	0xbcd73cbf	-0.026274083
43	0xbbaee68d	-0.0053375424
44	0xbc509ad8	-0.01273223
45	0x3d316275	0.043306787
46	0x3ccd99d6	0.025097769
47	0xbcf4ae9d	-0.029868418
48	0xbca33864	-0.01992435
49	0x3cf9191e	0.030407485
50	0x3c6bd380	0.014393687
51	0xbc3160c2	-0.0108262915
52	0xbd2265d0	-0.039647877
53	0x3caed34d	0.02134099
54	0xbcf68de9	-0.030096965
55	0xbd718ed0	-0.058974087
56	0xbd3cd463	-0.046100985
57	0xbbef9d1d	-0.0073124305
58	0x3d8bec5b	0.068321906
59	0x3d160cc8	0.036633283
60	0xbc75f767	-0.015012599
61	0x3d2efc6b	0.042721193
62	0x3d724aac	0.059153244
63	0xbd3273e7	-0.043567564
64	0xbd31dcad	-0.043423343
65	0xbb3e82be	-0.0029069628
66	0x3d15330b	0.03642563
67	0x3d1d2dcc	0.038373753
68	0x3d296664	0.041357413
69	0xbb85190b	-0.0040618232
70	0xbba14466	-0.004921484
71	0x3be75e02	0.007060767
72	0xbd45577d	-0.04817914
73	0xbd539c41	-0.051662687
74	0x3cdbabfe	0.02681541
75	0xbcfb739f	-0.03069478
76	0xbc9892a2	-0.018624607
77	0xbbe4cf1c	-0.006982697
78	0x3d5c6c8a	0.05381445
79	0xbd356538	-0.044285983
80	0x3d0b7869	0.03405038
81	0x3c0c5970	0.008566245
82	0xbc6c0d0f	-0.01440741
83	0x3d194a30	0.037424266
84	0x3d3e2583	0.046422493
85	0xbc81b550	-0.015833527
86	0x3d28d7c2	0.041221388
87	0x3d1bc503	0.038029682
88	0x3c326b6e	0.010889871
89	0xbc9bc634	-0.019015409
90	0xbd07009d	-0.03295957
91	0xbcb0829c	-0.021546654
92	0x3d310d51	0.04322559
93	0x3a82ff9d	0.0009994392
94	0xbbd90f7e	-0.0066241613
95	0xbd0a44bb	-0.033756953
96	0x3c5bf6a0	0.013425499
97	0x3d6b137b	0.057391625
98	0x3d100764	0.0351633
99	0xbb02dd39	-0.0019968285
100	0xbd7177ff	-0.058952328
101	0x3bcb1e5a	0.0061986865
102	0x3cb133b8	0.021631107
103	0x3d473d94	0.04864271
104	0x3d4250e8	0.04744044
105	0x3cb05f82	0.021529917
106	0xbd278e4d	-0.040907193
107	0x3d758e85	0.05995037
108	0x3b8b0f23	0.004243748
109	0x3d3f5cea	0.04671947
110	0xbc962ef5	-0.018332938
111	0x3d8130c1	0.06308127
112	0xbcc87b9d	-0.024473006
113	0xbd147d1b	-0.036252122
114	0xbd2f0d88	-0.042737514
115	0xbd218a32	-0.039438434
116	0x3d5907d1	0.05298597
117	0x3d41379f	0.047172185
118	0x3c829e18	0.015944526
119	0x3cb862bf	0.022508023
120	0x3cdc1103	0.02686358
121	0xbd35090c	-0.04419808
122	0xbd00c294	-0.031435564
123	0xbd5394bf	-0.051655527
124	0x3d4d7e0d	0.05016904
125	0xbbb4fca0	-0.0055232793
126	0x3bbe3264	0.005804347
127	0xbc940a76	-0.018071394

Q1.v_head.2.weight f4 [1, 128]
0	0xbc95c49a	-0.018282223
1	0xbd266842	-0.04062677
2	0xbd8ca74a	-0.06867845
3	0xbc745579	-0.014912956
4	0x3da8a19b	0.08233949
5	0x3d37db75	0.044887025
6	0x3d252d9a	0.040326692
7	0xbc9cae4e	-0.019126084
8	0x3c4112bb	0.011784251
9	0xbd7b0b52	-0.061290093
10	0x3dbca45b	0.09211036
11	0xbd894128	-0.06701881
12	0xbd02850c	-0.031865165
13	0xbcbe24a2	-0.023210827
14	0x3b772aeb	0.003771479
15	0xbd867885	-0.06565956
16	0x3d021630	0.03175944
17	0xbd035829	-0.032066498
18	0xbd49178d	-0.049094725
19	0x3d1b1044	0.03785731
20	0x3db3a933	0.087725066
21	0x3dbfad1b	0.09359189
22	0x3d0647a6	0.032783173
23	0x3c9d071c	0.01916843
24	0xbd807454	-0.06272188
25	0xbd774da8	-0.060376793
26	0xbd306b98	-0.04307136
27	0xbc9abf8c	-0.018890165
28	0x3d6f34b9	0.05839989
29	0xbcdb86ae	-0.026797619
30	0x3d699520	0.057026982
31	0x3db3b35f	0.08774447
32	0xbd043996	-0.03228148
33	0xbd89aaa9	-0.06722004
34	0x3d837fb4	0.06420842
35	0x3d998097	0.0749523
36	0xbd46f97a	-0.048577763
37	0xbc6c584c	-0.0144253485
38	0xbd95680f	-0.07295238
39	0x3cbe9d55	0.023268381
40	0x3d9e5ea4	0.07732895
41	0xbc63f432	-0.013913201
42	0x3ce6b3f7	0.028161986
43	0xbc029bbe	-0.007971702
44	0xbd623fa0	-0.05523646
45	0x3daea8e5	0.08528308
46	0x3d94f0cb	0.0727249
47	0x3dbe22be	0.0928397
48	0x3d986907	0.074419074
49	0x3d8bf852	0.06834473
50	0xbd98936a	-0.07449992
51	0xbbb38d63	-0.005479501
52	0xbd13a4a5	-0.03604569
53	0xbc3cff4b	-0.011535476
54	0xbd0099c4	-0.031396642
55	0xbd7ceca0	-0.0617491
56	0xbd8bde3f	-0.068294995
57	0xbd92f9c2	-0.07176544
58	0x3db03d65	0.0860546
59	0xbd16a23c	-0.036775813
60	0x3d9df6fc	0.07713124
61	0xbd570128	-0.052491337
62	0x3dc2f351	0.09519065
63	0x3d30c6d5	0.04315837
64	0x3c7009b3	0.01465075
65	0xbd773063	-0.06034888
66	0xbd948971	-0.07252777
67	0xbd4a5b8f	-0.049403723
68	0xbd1781b9	-0.036988948
69	0xbc3e49de	-0.011614291
70	0xbd7679a8	-0.060174614
71	0x38d001b1	9.918528e-05
72	0xbd439674	-0.047750905
73	0xbd3fe49c	-0.04684888
74	0x3a6ea89c	0.0009104104
75	0x3da7f4a6	0.0820096
76	0xbd07e459	-0.033176754
77	0x3d1038c2	0.03521038
78	0xbcbfc950	-0.023411423
79	0xbd94deb7	-0.07269042
80	0xbd7dd64d	-0.06197195
81	0xbcfc87ae	-0.030826416
82	0xbcf9ea52	-0.03050724
83	0xbcb46622	-0.022021357
84	0x3dd9615e	0.106142744
85	0x3d9e8744	0.077406436
86	0xbc1e213f	-0.009651481
87	0x3dc08280	0.09399891
88	0x3d9ee1c1	0.07757903
89	0xbda0c947	-0.078508906
90	0x3dcdc251	0.100468285
91	0xbd74c918	-0.05976209
92	0x3d20849b	0.039188962
93	0x3d76a133	0.060212325
94	0xbd5a2d3a	-0.053265788
95	0xbd8efadb	-0.06981441
96	0xbc91109f	-0.01770812
97	0x3be0ca62	0.0068600634
98	0x3d81102d	0.063019134
99	0xbcc6f06c	-0.024284564
100	0xbd99c16e	-0.07507597
101	0x3cf506f5	0.029910544
102	0x3d37b6fc	0.044852242
103	0xbd6e45bd	-0.058171976
104	0xbcedb378	-0.029016241
105	0xbc23287e	-0.009958385
106	0xbcdf226b	-0.027238091
107	0x3db67336	0.089086935
108	0xbcf6d501	-0.030130865
109	0x3cdb299e	0.026753243
110	0x3d57049e	0.052494638
111	0x3d5c5fc3	0.053802263
112	0x3cd925c8	0.026507273
113	0x3dacfd9e	0.08446811
114	0x3d22db64	0.03976001
115	0xbd2cb94b	-0.042168897
116	0xbcb1e84e	-0.021717217
117	0x3d9350f5	0.07193176
118	0x3d1f812a	0.03894154
119	0x3da2b440	0.07944536
120	0xbd8024b7	-0.06257003
121	0xbd4138d0	-0.04717332
122	0x3b9ce74a	0.004788314
123	0x3b15cb53	0.0022856786
124	0x3d11f533	0.03563423
125	0x3db265a4	0.08710793
126	0xbda31bf3	-0.07964315
127	0xbdab4c59	-0.083641715
