models_decentralized/final/policy_1_3450.pth (torch, 163209 bytes, 10 tensors)

conv.net.0.weight f4 [3, 31, 3, 3]
000000 e9 28 c2 3c 48 e7 d4 bd 78 7b 55 3d 1b ae d7 3d
       0.023701148 -0.10395676 0.052119702 0.10531255
000010 b8 0c 33 3d c5 ee 83 bc b7 fe 02 be c1 08 31 3d
       0.0437133 -0.016105065 -0.12792479 0.04322124
000020 ca 63 94 3d b6 8e f3 3d 5b 54 9c bd 2e e2 cc bd
       0.07245596 0.11892454 -0.07633277 -0.10004078
000030 e3 2e 0d bd af 6b 2d 3d b0 cf 01 bd dc d6 cc 3d
       -0.034468543 0.042339023 -0.031692207 0.10001919
000040 8e e8 e0 ba 67 a1 78 3d a6 6c 1c 3e 18 05 be 3c
       -0.001715915 0.0607008 0.15275821 0.023195788
000050 4b 4b ac 3d ee 6c cd bd 0f c9 12 be e7 e6 7d bc
       0.084127985 -0.10030542 -0.1433451 -0.015496946
000060 a0 e2 b9 3d fa 92 bb bc a4 34 d4 3d 73 31 86 3c
       0.090764284 -0.022897232 0.10361603 0.016381001
000070 46 d4 c8 bc 49 52 fa 3d 32 7e 11 bd 90 b3 c7 bd
       -0.024515282 0.12222726 -0.03552074 -0.09751046
000080 af 42 92 bd e2 48 ee bb 6a fe b7 3c df 14 86 bd
       -0.07141625 -0.007271872 0.022460181 -0.065469496
000090 5a 24 67 3d 47 cb 89 bc a3 1e a1 3d 7b 91 07 be
       0.056431152 -0.016820563 0.078671716 -0.1323909
0000a0 85 6a 4e 3d e5 ad 12 be e5 f7 ff bd 9b 4f 05 bd
       0.050394554 -0.14324148 -0.12498454 -0.03254662
0000b0 31 e6 19 bc 7d 7a eb bd ff 53 60 bd 05 76 8d 3d
       -0.009393261 -0.11497972 -0.054767605 0.06907276
0000c0 bc ee f4 3c 52 d1 73 3c ab 2b 14 be 77 c5 fd bd
       0.029898994 0.014881449 -0.14469783 -0.12391179
0000d0 61 74 f8 bd 35 b2 63 bd 39 70 78 3d 9b 80 7f 3d
       -0.121315725 -0.055589873 0.0606539 0.062378507
0000e0 87 6d b1 3d 8d d7 f6 3d 5a ff f4 bc 9f a3 12 be
       0.08663469 0.12052832 -0.029906917 -0.14320229
0000f0 5c 6a ca 3d 0b 32 f4 bd a4 cb 3b 3d 35 36 1b bd
       0.09883568 -0.119236074 0.045848504 -0.037893493
000100 63 b4 02 bc 72 6c b6 3d 2f e7 2d bd e6 af a3 3c
       -0.007977578 0.08907403 -0.042456802 0.019981336
000110 e1 37 ee 3c e3 05 aa bd d6 11 de 3d 86 2d 10 3d
       0.02907938 -0.08301904 0.10843246 0.035199665
000120 01 a8 f8 bd 71 a2 59 3d 31 ff e7 3d 16 dd a7 3d
       -0.12141419 0.05313343 0.11327971 0.08196466
000130 8c 16 ae 3c 3b 13 5c 3c e0 44 82 3d 02 a0 84 3c
       0.021250986 0.013432319 0.06360793 0.016189579
000140 7c d3 b3 bd e9 0c 17 bc d0 d9 65 3d 12 39 16 3e
       -0.08780572 -0.009219387 0.056115925 0.14670208
000150 77 1e 12 3e 0c dc dc 3b 8e fd 09 3b a6 1f 97 bc
       0.14269434 0.006740099 0.0021055671 -0.018447708
000160 10 c9 e4 3c 64 a6 8e 3d 1f 31 92 bd f2 6e d9 bd
       0.027927905 0.0696533 -0.07138275 -0.10616864
000170 03 49 fd 3d 89 5b cf 3d 82 38 f2 3d d5 a4 da 3d
       0.123674415 0.10124881 0.11827184 0.106759705
000180 4c 02 de bd ff 7f a1 3d 61 f0 dd 3c 46 71 83 39
       -0.10840282 0.078857414 0.02709216 0.00025070662
000190 c3 c2 ff 3c f4 dd 88 3d c2 a2 46 3d ee 75 d6 bd
       0.0312208 0.06682959 0.04849506 -0.10471712
0001a0 ab 01 5a bd 10 40 9d 3d bd 47 5e 3d b4 11 88 bc
       -0.053224247 0.076782346 0.054267634 -0.016610004
0001b0 0a 71 84 3c 6f 4f 31 3d c9 50 f7 3c db b0 66 3d
       0.016167182 0.043288644 0.030189889 0.056321006
0001c0 0f 02 ad bd 40 e8 0c 3e 18 b9 04 3e 63 17 bb 3d
       -0.08447658 0.13760471 0.12961233 0.0913532
0001d0 18 2b 99 bd 31 f3 06 be 16 7e fc 3d 1f 00 6f bd
       -0.074789226 -0.13178708 0.123287365 -0.058349725
0001e0 b6 da 51 3d 59 ac 12 bd 40 ba 65 3d a3 c6 0d be
       0.05123397 -0.035808895 0.056085825 -0.13845305
0001f0 5d f8 ea 3d 25 b7 d3 3d b4 63 e4 3d 18 f5 89 3d
       0.11473153 0.103376664 0.11151829 0.06736201
000200 39 bc 84 3d e6 e7 42 bd ec 58 04 3e 89 b3 09 3e
       0.06481213 -0.047584437 0.12924546 0.13447393
000210 50 e6 f3 bc 3b f9 1e 3e 5f df 0d 3e 87 67 bc 3d
       -0.029772907 0.15524761 0.1385474 0.09199434
000220 74 74 a9 bd b3 23 1d be c4 68 ab bd 2e f8 0e be
       -0.08274165 -0.1534565 -0.08369592 -0.1396186
000230 da 50 5e 3d d0 4e 5d bd e7 65 97 bc 5f ea b5 bd
       0.054276325 -0.05403024 -0.018481208 -0.08882593
000240 63 5e 0c 3e bc 32 90 bd 6e 85 0b be fd 26 fe 3d
       0.1370788 -0.07040927 -0.13625118 0.1240978
000250 7b 2c 2f bd 75 3a 64 3d 61 f3 f8 3d 04 9f 2d 3d
       -0.04276703 0.05571981 0.12155796 0.042387977
000260 0a fb 00 3e 75 33 80 3d be 69 b6 3d e2 0e 94 bc
       0.12595764 0.06259815 0.089068875 -0.018073503
000270 04 81 b8 39 36 ae aa 3d a6 9f cd 3d 55 d9 a6 bd
       0.0003519134 0.08334009 0.10040216 -0.081469215
000280 de 0f 4a 3c 2b 4e 0a bc 2d 24 b1 3d 28 9f 9a 3d
       0.012332885 -0.008441488 0.08649478 0.07549888
000290 91 65 c4 3d cb b9 3f bd e6 cc fb bd 80 83 e8 3c
       0.09589685 -0.046808045 -0.12294941 0.028383017
0002a0 02 f2 ba 3d 0b 40 d0 3d 0f f5 f5 bd ea 2f a7 3a
       0.091281906 0.10168465 -0.12009632 0.0012755368
0002b0 88 c8 37 bd 49 65 19 bd 8e 31 6f bd fa da 9b bd
       -0.044868976 -0.03745011 -0.05839687 -0.07610126
0002c0 39 67 4b bc 40 b2 e7 bc c0 29 14 be 63 50 08 3e
       -0.012414747 -0.028283238 -0.14469051 0.13311915
0002d0 73 65 8b bc 4d b3 14 3e 32 ba 04 3d 1f d1 ad bd
       -0.017016148 0.14521523 0.032404132 -0.08487152
0002e0 e3 04 ec bd a6 a9 c1 3d 75 f5 b8 3d ec d4 f7 bd
       -0.115243696 0.09456186 0.09031192 -0.121011585
0002f0 8e 65 9b 3d bc e6 63 bc 1a 51 c3 bd 93 81 4b bb
       0.075877294 -0.013909992 -0.09536953 -0.0031052574
000300 11 83 57 bc 0b fe 78 bd 1d 92 a7 3c 32 45 e8 bd
       -0.013153807 -0.06078915 0.020455414 -0.11341323
000310 41 89 07 3e 70 77 f2 bd ea 2d ab 3b 6e 29 a5 bd
       0.13235952 -0.11839187 0.0052239792 -0.08064543
000320 45 7b f0 bd 60 6a 13 be e2 3a 0a 3d da 8b 62 3d
       -0.11742262 -0.14396048 0.03374756 0.055309154
000330 85 25 ef bd fb ce 63 3d 23 d2 85 bd dd 9f 90 3d
       -0.11677078 0.055617314 -0.06534221 0.070617415
000340 26 53 0d be c1 04 92 3d 71 2f f0 bd 3c 56 95 3d
       -0.1380125 0.07129813 -0.11727799 0.072918385
000350 1a 64 b1 3d 88 98 af 3c 05 72 81 bd b1 4f 0b be
       0.08661671 0.021435037 -0.063205756 -0.13604619
000360 e7 57 f2 ba cd 50 07 bd 89 53 8b bb 6a 28 0a bd
       -0.0018489332 -0.033036042 -0.0042519015 -0.033729948
000370 19 cf 18 3e b5 49 8d 3b b7 b0 16 39 1c b0 c6 3d
       0.14922751 0.004311765 0.00014370946 0.09701559
000380 21 aa c6 3d 97 a3 ed bd 5e 6c bd bd 9d 0f d0 bd
       0.09700418 -0.11603468 -0.09249185 -0.10159228
000390 02 a9 1b bd 84 db 10 be 77 69 7c bd ee 99 05 3e
       -0.038002975 -0.14146239 -0.061624017 0.13047001
0003a0 c3 98 10 be 7a 09 0f be 27 85 bf 3c 10 66 d5 bd
       -0.14120774 -0.13968459 0.023378922 -0.104198575
0003b0 ea b9 0c 3b 75 34 11 3e 30 ab 5b bd 82 00 a5 bd
       0.0021473118 0.14180167 -0.053630054 -0.080567375
0003c0 68 16 d5 3d 91 5e ad bd ec 37 8d 3d fc 20 3e 3d
       0.10404664 -0.08465303 0.06895432 0.046418175
0003d0 91 52 85 bd 49 62 4d 3d d7 ae 00 3e 8a c5 b4 bc
       -0.06509889 0.05014256 0.12566696 -0.02206685
0003e0 7f 92 13 bd e5 7c 6a 3d 22 b2 0d 3d 6f 14 b6 3d
       -0.03602838 0.057248015 0.03459371 0.08890616
0003f0 10 ee 08 be ce a7 a0 bc 7d 58 d3 bd cd 43 cb bd
       -0.13372064 -0.019611266 -0.10319612 -0.09925041

conv.net.0.bias f4 [3]
000000 96 ce 1a 3c 35 7d c8 bb 13 55 55 bc
       0.009448668 -0.0061184415 -0.013020772

conv.net.3.weight f4 [6, 3, 3, 3]
000000 a3 1a bc be 65 a5 8b be 50 e0 a6 3e 10 b8 70 be
       -0.36739072 -0.27274624 0.32593012 -0.23507714
000010 de 02 38 bd f9 fd c9 bd 73 5d a8 3c 95 f2 26 3e
       -0.04492461 -0.098628946 0.020552373 0.16303475
000020 f0 9b 2f be 85 2b 92 3d ad 8e 5b 3e cc 6f a1 3e
       -0.17149329 0.07137207 0.21441145 0.31530607
000030 7b be 59 bd 4b fd c9 3e 41 fb 0c be 6a 99 9c be
       -0.053160172 0.3945106 -0.13767721 -0.30585796
000040 5b 9f ad 3e f7 c8 13 3e 3b 7f 98 bd ec 06 08 3e
       0.3391064 0.14432131 -0.07446142 0.1328389
000050 1f 5d c7 3e 79 07 d2 3e 5a 0b 92 3d 04 26 3f 3d
       0.38938233 0.41021326 0.071310714 0.046667114
000060 6b 4b b1 3d 0b 1c d5 3e 24 ea b4 be d5 cc 61 3e
       0.08656963 0.41622958 -0.35334885 0.22050793
000070 39 bc a3 bd e9 60 b6 3e e2 f7 a6 be f9 2e 12 3d
       -0.07994885 0.35620812 -0.32610995 0.035689328
000080 63 c0 d6 bb fe 7a 15 3e 05 d3 e1 be b9 ef 83 3d
       -0.006553696 0.14597699 -0.44106308 0.06442208
000090 cd 97 d7 3c 2d 79 c3 3d 68 09 68 3d 35 dd 4a 3e
       0.026317501 0.09544597 0.056649595 0.19810946
0000a0 26 38 bc 3e 04 bb 14 bd e6 02 4e bd a5 9e 92 be
       0.36761588 -0.036311164 -0.050295733 -0.2863666
0000b0 df 40 7c be 67 a1 92 3c ec 2b d0 3e df 84 89 be
       -0.24634121 0.017899228 0.4065851 -0.26859185
0000c0 5e dd 49 bc 27 b8 63 be 0c ec 2c be 4c 06 93 3e
       -0.012320844 -0.22238217 -0.1688692 0.28715742
0000d0 7c c5 f7 be a6 80 63 3d 55 f4 4b be 6f 23 05 3e
       -0.48392856 0.05554261 -0.19917424 0.13001798
0000e0 79 3c 20 3e 9a 27 91 3e d0 52 3e 3e 0b 2c a6 be
       0.15648068 0.28350526 0.18586278 -0.32455477
0000f0 9c c5 c7 bd 2e af ad be a0 7e 53 3e 50 ee c8 be
       -0.09754488 -0.33922714 0.20653772 -0.39244318
000100 ff 46 0d 3e 98 dc 8b be 4b ac 24 3c 82 d7 22 bd
       0.13796614 -0.27316737 0.0100508435 -0.039756306
000110 c2 7f ae bc 2c 49 0d 3e b4 81 06 be 7b f6 d1 bd
       -0.021301154 0.13797444 -0.13135415 -0.102520905
000120 9f 0f c2 3e 95 a4 be be 40 52 16 3e 46 05 b8 3e
       0.37902543 -0.3723494 0.14679813 0.35941523
000130 ac ab 29 3c fd 07 06 3c ce 6c bf 3e e2 3c ea be
       0.010355871 0.0081806155 0.373877 -0.45749575
000140 87 85 b5 be 69 25 ac be 3e 1e 9f be b3 09 cf 3e
       -0.35453436 -0.33622292 -0.3107776 0.40437087
000150 4b 2f ab 3e c3 56 ef 3e 07 a2 0c 3e 0b 1e e7 be
       0.3343452 0.4674588 0.13733684 -0.45140108
000160 73 3d 4f be 5b 35 64 3e 2e 43 c4 bd 45 25 d0 3e
       -0.20238285 0.22285978 -0.09583126 0.40653434
000170 06 4a 4c be a8 5d 42 3e fe 2b dc be d6 12 ae bd
       -0.19950113 0.1898104 -0.43002313 -0.084996864
000180 4f eb eb 3d 09 60 85 bd 6b 4d d9 be b3 31 46 3e
       0.11519491 -0.06512458 -0.42441878 0.19354896
000190 97 ad d2 bd b6 78 e1 3e 90 08 cd be fb fa e8 be
       -0.10287016 0.44037408 -0.40045595 -0.45503983
0001a0 df b5 8b bd 7a c3 b2 3d 51 6e 7d be b1 56 71 3e
       -0.068217985 0.087286904 -0.24749114 0.23568226
0001b0 dc 75 8c bd cf 9d 9e 3e 84 76 75 bd bd df f2 3e
       -0.068584174 0.30979773 -0.05992748 0.47436324
0001c0 5a 30 ba 3e 8e 75 aa be f4 57 67 bd 3f 93 c6 3e
       0.36365014 -0.33292812 -0.056480363 0.38784215
0001d0 31 40 cc be e4 c5 94 3e 9b 61 d9 be c1 0b c9 3e
       -0.39892724 0.2905723 -0.4245728 0.3926678
0001e0 f5 63 43 be 24 16 0d be 60 fa 78 3d c1 7f 3a 3e
       -0.190811 -0.13777977 0.06078565 0.18212797
0001f0 02 41 ef 3d 5e 57 14 be b9 18 0c be 97 75 e1 be
       0.11682321 -0.14486453 -0.13681306 -0.44035026
000200 0f 04 11 3e 82 fe e3 bd 39 10 1b 3d f6 86 78 be
       0.14161704 -0.11132528 0.037857268 -0.24270234
000210 4f 8f 2a be df 6b 6a be 12 f0 26 be 1b 97 ab 3d
       -0.1665623 -0.22892712 -0.16302517 0.083784305
000220 45 52 92 bd 6b 26 80 3e ea 2b 94 bd 11 b4 4e 3d
       -0.07144598 0.2502931 -0.072349384 0.050464693
000230 53 29 66 3e 0f b9 1c be e5 45 c9 3d 10 9c b8 be
       0.22476701 -0.15304969 0.098277844 -0.36056566
000240 64 8c 5f 3d 25 bf 81 bc 51 9b 58 bd c1 6f ed 3e
       0.054577246 -0.015838215 -0.052882496 0.46374324
000250 36 83 7a be 06 1f 4e be 44 4d ae 3e f9 16 29 3e
       -0.24464116 -0.20129022 0.34043324 0.1651267
000260 2b cc 9d 3e 8d c0 67 3e 35 3f b5 be 1b e9 79 3e
       0.3081983 0.22632046 -0.35399786 0.24405329
000270 ce 36 d8 bd 03 fa 86 3e de f2 88 3e c3 f9 b2 be
       -0.10557328 0.2636262 0.26747793 -0.34956178
000280 97 5a 7a 3e 7e 29 53 3e
       0.2444862 0.20621297

conv.net.3.bias f4 [6]
000000 f5 fe 0b bc d2 58 92 bb 49 3b 0e 3b a3 23 be 3a
       -0.008544673 -0.0044661546 0.0021702817 0.001450647
000010 ae 6b b3 3b ad f2 b3 bb
       0.005475483 -0.0054915757

conv.net.6.weight f4 [6, 6, 3, 3]
000000 a2 dd c0 bd ae 2b 7b be 23 66 83 be e0 f7 4f 3e
       -0.09417273 -0.24528381 -0.25663862 0.203094
000010 f7 47 2f 3e 02 2c 2c 3e 7e af 14 be 30 31 82 bc
       0.17117296 0.16813663 -0.1452007 -0.015892595
000020 67 a5 b7 bd ae 5e 94 be ad 07 f1 3a 79 42 14 3e
       -0.08967095 -0.28978485 0.0018389128 0.14478482
000030 a0 5d a6 be fc f0 b8 bd f5 e3 4c be 8d 11 57 3e
       -0.32493305 -0.09030339 -0.20008834 0.21002789
000040 9f ca 5a 3e f8 93 4c bd 0f 45 80 3e 6e c7 66 3e
       0.21366356 -0.0499458 0.25052688 0.22537014
000050 84 10 75 bd 4e 43 90 3d bf f5 c5 3a a7 ca 5a 3e
       -0.059830204 0.07044087 0.0015103145 0.21366368
000060 db ec 1a 3d e1 26 cb bc 4b 7f 6f be 7f a4 04 be
       0.03782354 -0.024798812 -0.23388402 -0.12953375
000070 3a 16 55 be 22 77 f7 3d ba 80 14 be b2 e3 94 3e
       -0.2080926 0.1208327 -0.1450223 0.29079968
000080 71 f9 0d 3e 9e 96 3a be 88 c3 65 3e 68 a3 41 be
       0.13864686 -0.18221518 0.2243787 -0.18909991
000090 65 e9 6a be b8 48 73 3e 5e 56 9d be 1a 3d 8a 3e
       -0.22940595 0.23758209 -0.30729955 0.26999742
0000a0 46 16 38 3e 97 f8 86 bd 9d da 98 3e 2e 6b 29 be
       0.17977247 -0.065903835 0.2985429 -0.16544792
0000b0 8c 85 2f be 3b 08 2d be cb 1e 6a 3e fc 94 2f 3e
       -0.17140788 -0.16897671 0.22863309 0.17146677
0000c0 c3 ca 0a bc 69 ec 83 be 64 3b b3 bd 6f 75 3b 3e
       -0.008471194 -0.25766304 -0.08751562 0.18306516
0000d0 0b 47 87 be ee 5d b5 bd 83 32 e3 bd 9b 49 4c 3d
       -0.2642139 -0.08855806 -0.11093619 0.049874883
0000e0 da 51 e9 3d d9 5e a1 be 4b 73 3b be f9 b3 92 3e
       0.11392565 -0.31517676 -0.183057 0.28652933
0000f0 b9 25 16 be 74 56 00 3e b7 06 9b 3e dc 61 e6 3d
       -0.14662828 0.12532979 0.3027856 0.11249134
000100 47 b4 46 be 64 4d 5b 3e 4b 2d 40 bd 69 2c 07 be
       -0.19404708 0.21416241 -0.046918195 -0.13200535
000110 96 d1 16 3d cd 2e 9f 3e c2 1f 9b 3d 7f e7 2e 3e
       0.03682097 0.31090394 0.07574417 0.17080496
000120 50 cc 55 3e e7 38 df 3d 6f 55 8c be 55 9c 71 bd
       0.2087872 0.10899525 -0.2740893 -0.05898698
000130 f1 c5 92 be e6 55 07 be 7e 60 95 be be 3d ce 3d
       -0.28666642 -0.13216361 -0.2917518 0.1007037
000140 f5 11 f8 3d 85 bc 4e 3e 31 7b 83 3e ba 54 03 be
       0.121128 0.20189102 0.25679925 -0.1282529
000150 a0 ab 65 be 64 61 91 be 38 70 83 3e 2e 48 00 be
       -0.22428751 -0.28394616 0.25671554 -0.12527534
000160 07 e0 23 be 29 64 76 3e da fb 5b be 6a 5e 38 3e
       -0.16003428 0.24061646 -0.21482792 0.18004766
000170 c3 79 42 3d f6 11 76 be 7f b8 99 3e 36 43 33 be
       0.047479402 -0.24030289 0.30023572 -0.17506108
000180 95 fc 7b be 5a 0a 52 3e 01 37 26 3e 9b 2a 5e 3e
       -0.24608071 0.20511761 0.1623192 0.2169594
000190 e4 1e c3 3d d9 27 e4 bd 6f 1a cf 3c 3c 31 75 be
       0.09527376 -0.11140413 0.02528116 -0.23944563
0001a0 fd 1a a6 bd ad cd c5 bc de 1d 31 3e 8d c3 62 3d
       -0.08110616 -0.024145925 0.1729655 0.055362273
0001b0 67 94 ee 3c cd 4c 35 3e 0a d8 1e 3e ec a3 a5 bd
       0.029123498 0.17705078 0.155121 -0.08087906
0001c0 42 8c 1d be aa b6 8b be a6 90 71 3e 50 ef ef bd
       -0.15385535 -0.272878 0.23590335 -0.11715567
0001d0 45 29 06 be 05 91 bb bb ff bd a7 be 54 3c 57 3e
       -0.1310168 -0.005724075 -0.32762143 0.21019107
0001e0 3b 44 55 3e 64 91 9d 3c cb bd c4 bd 53 0f 62 be
       0.20826809 0.019234367 -0.09606513 -0.22076158
0001f0 88 61 94 be d4 5e 3a 3e d1 44 08 be c0 91 58 3e
       -0.2898066 0.18200237 -0.13307501 0.21149349
000200 1c cd 9f bd ab 42 50 be 72 70 6a bd 84 a8 e4 3d
       -0.078027934 -0.20337932 -0.057236142 0.11164954
000210 71 45 34 be c7 ff c7 bd 3c ae 47 be a7 91 43 be
       -0.17604615 -0.097655825 -0.19500059 -0.1909853
000220 b8 15 4b 3e 0b 20 8a 3d aa 6f 49 3d e4 1d 8a be
       0.19832504 0.06744393 0.049178757 -0.2697593
000230 92 22 03 be 2a 29 7a 3e 6f 06 12 3e 51 f6 c5 3d
       -0.12806156 0.24429765 0.14260267 0.09666122
000240 6c 88 85 3e 23 de 4a bd 66 c9 6b 3e f2 06 a4 3e
       0.26080644 -0.049528252 0.23026046 0.3203655
000250 f9 21 05 3e 3d d4 93 be 70 33 4d 3e c5 d2 3c be
       0.13001241 -0.28872862 0.20039153 -0.18439777
000260 37 dc 09 be df b6 1b bd 98 81 47 be 37 f0 59 3e
       -0.13462912 -0.038016196 -0.1948303 0.21283041
000270 a9 81 6a 3e 91 5f 77 bb 5a f1 9e be 4c f8 0f 3e
       0.22901024 -0.003774617 -0.31043512 0.14059561
000280 a2 7b 9f 3e 9f 8c a7 bd 41 de 90 bd b1 9e 82 3e
       0.31149012 -0.08181118 -0.070736416 0.25511697
000290 45 57 8d 3e 16 66 a5 3e 0a 2e 68 3e 4c 55 8e 3e
       0.27605644 0.32304448 0.22673813 0.2779945
0002a0 ee 58 31 3d 57 64 10 3e 39 3d 11 3c 12 29 2b 3e
       0.0432977 0.14100777 0.008864694 0.16714886
0002b0 14 d9 1c 3e 5a 15 b0 be 1a aa 61 3d cd e5 3b bc
       0.15317184 -0.3439129 0.055093862 -0.011468363
0002c0 18 72 87 3e 71 8a 21 3e 4a 6f 68 3d db 8a eb 3d
       0.26454234 0.15775467 0.05674676 0.11501094
0002d0 c5 7b 11 3e 82 14 2a be 81 af f8 3d c0 fc fe bd
       0.1420737 -0.16609386 0.1214285 -0.12450552
0002e0 a0 e1 12 3e fc 34 0b 3e ea 5b 3a be 22 ff 45 3e
       0.14343882 0.1359443 -0.18199125 0.19335607
0002f0 0b 46 80 3d 23 11 21 be db f6 d1 bc 49 be 72 be
       0.0626336 -0.15729193 -0.025630405 -0.237054
000300 55 14 7f 3e 37 b4 26 be 59 2e ea bd 3c 4a 14 be
       0.249101 -0.16279684 -0.11434621 -0.14481443
000310 bc 8e b4 3d 27 df fb 3d c7 93 a3 3e fe b3 2b be
       0.08816287 0.12298422 0.31948683 -0.1676788
000320 21 06 93 3e 65 95 a4 be 83 b6 a9 3d 59 67 70 3e
       0.28715613 -0.3214523 0.082867645 0.23476924
000330 d5 2d 9a 3e c4 2d f9 bd 5d 2d 75 be 0f c7 b7 3d
       0.30113092 -0.12166932 -0.23943086 0.08973514
000340 83 cc 0b 3e e9 20 8c be 04 af 0e 3c 21 a3 64 3e
       0.13652234 -0.27368858 0.008708719 0.22327854
000350 d9 27 ec 3c c8 a3 6b 3d f0 41 45 3e 9d ff ce 3d
       0.028827595 0.05752924 0.19263434 0.10107348
000360 bf 26 a6 bd 7b 47 8f 3e 42 38 a4 bd 81 80 94 3e
       -0.08112859 0.27984223 -0.08018543 0.2900429
000370 f9 91 87 3d 16 16 8d 3e 9a 88 ae 3b e4 37 89 bd
       0.06619639 0.27555913 0.005326343 -0.067001134
000380 30 50 a7 bd 58 fc 6b be ac 2a 57 3e c8 51 99 3d
       -0.081695914 -0.2304548 0.21012372 0.07486302
000390 3d 5a 53 3e 45 2b 00 be ad 36 71 be d2 cc 62 be
       0.20639892 -0.12516506 -0.23556013 -0.22148445
0003a0 9c 72 5d 3e b6 9f 9d 3e d7 bf 74 3e db 97 39 3e
       0.21625751 0.30785912 0.23901306 0.18124335
0003b0 55 21 4a 3e 78 c8 a2 be 27 bf 54 3e 81 2c 93 3e
       0.19739278 -0.3179357 0.20776044 0.2874489
0003c0 76 7c 5f 3d 70 11 e0 bd 05 74 67 3c 4d 09 81 3e
       0.054562055 -0.10940826 0.014126782 0.25202408
0003d0 c8 ed f4 3b ec 53 9d bd 87 74 43 be 05 d0 fc 3c
       0.007474635 -0.076820225 -0.1908742 0.03086091
0003e0 0b b6 f3 3c 62 60 e8 3b 47 15 13 bd b4 49 4e be
       0.02974989 0.007091568 -0.035908964 -0.20145303
0003f0 00 a0 d5 bc 71 8d 50 3d 0d 48 00 3e 74 6e 0b 3e
       -0.02607727 0.05091614 0.12527485 0.13616353

conv.net.6.bias f4 [6]
000000 94 69 4f 3c 59 fd 37 bc 43 9c fa 3b cb 3c 42 bc
       0.012659449 -0.011229836 0.0076480224 -0.0118553145
000010 35 77 1d 3c 08 c6 fd b9
       0.009610941 -0.00048403465

head.0.weight f4 [128, 294]
000000 79 5b c3 bc 1d a9 0f 3d 33 41 d1 bb 80 1e 04 bd
       -0.023847328 0.03507339 -0.006385946 -0.03225565
000010 e5 7c a0 bc 05 d3 9f 3c 1f 22 90 3c 12 af 33 bd
       -0.019590804 0.019509802 0.017594395 -0.043868132
000020 b8 b2 50 3c 90 a4 c9 3c d0 de 27 bd ee 39 25 bc
       0.012737922 0.024614602 -0.040983975 -0.010084612
000030 1c b8 b9 3a 09 fe 34 bd 00 7d 25 bd 26 1a 0a bd
       0.0014169249 -0.04418758 -0.040402412 -0.033716343
000040 3f b5 8b bc fa 22 51 3b da 97 f9 3c 32 c9 20 bd
       -0.017054198 0.0031911717 0.030467916 -0.039254375
000050 73 a1 59 3c 08 3c 29 bc 79 8a 24 bd b7 c4 c6 3c
       0.013283121 -0.010329254 -0.04017112 0.024263723
000060 ff d9 6f bc 97 e0 04 3d a0 6d bf 3c 74 fa b4 3c
       -0.014639377 0.032440748 0.023367703 0.022092082
000070 c6 ab 65 bd 81 41 bc bc 81 f3 37 3d 1e ff b4 3c
       -0.05607202 -0.022980453 0.044909958 0.022094306
000080 c6 1a 42 3d 0d 39 28 bd 4a f3 03 bd cc 57 93 3a
       0.047388814 -0.041070033 -0.03221444 0.0011241375
000090 c8 06 3d bc a4 ed 2c bd 92 36 24 3d 0d 6e b4 bc
       -0.011537261 -0.04221882 0.040091105 -0.022025133
0000a0 83 7f 7a bc 4a 7d ac bc 57 cf d8 bc 95 42 90 3c
       -0.01528919 -0.021055836 -0.026466055 0.017609874
0000b0 04 98 fc 3b 25 2d 5f 3d 17 8b 41 bd 9a b2 eb 3c
       0.0077085514 0.054486413 -0.047251787 0.028771687
0000c0 02 3a af 3b 80 f0 23 bd 25 1f d7 bb 1b 6f 26 bd
       0.0053474912 -0.04002428 -0.006564992 -0.040633302
0000d0 b7 8a 16 bd 0c d0 25 bc b3 a3 78 3c 5d 03 3b 3d
       -0.036753383 -0.010120403 0.015175748 0.045657504
0000e0 6f 47 1b 3c 67 2e 39 3d 49 89 3f 3d 46 b7 31 3d
       0.00947748 0.04521027 0.046761785 0.043387674
0000f0 a9 88 19 bd 09 b0 52 3c 67 73 46 3d 2e 22 d8 bc
       -0.037483845 0.012859353 0.0484499 -0.026383486
000100 4c f8 5c bd 30 c1 4a bd 87 88 73 bd b1 80 7a 3b
       -0.05394773 -0.049500644 -0.059456374 0.0038223679
000110 0a bb 00 bd 7c de 20 bd 9a dd 0b 3c 0a 66 41 3d
       -0.031428374 -0.039274678 0.008536721 0.047216453
000120 c6 ac 78 3c 8c 2c 8b 3c ff 1b 28 bd 15 55 3b 3c
       0.015177911 0.016989015 -0.041042324 0.011433859
000130 53 19 74 bc 7f 90 1c bd 76 cb 32 3c 33 ed 26 3d
       -0.014898616 -0.03822374 0.010912767 0.040753555
000140 8d 89 26 3d 65 7b 13 bd 4a 20 93 bc bd ea 21 bd
       0.040658522 -0.03600635 -0.017959733 -0.039530504
000150 dc d3 32 bd 75 17 a7 bb 87 ae b8 3c 27 5c 00 3d
       -0.043659076 -0.005099232 0.022544159 0.031337883
000160 6f b5 03 3d 3e a4 25 bd 29 e9 17 bd 4f e9 e9 3b
       0.03215545 -0.040439837 -0.037087593 0.0071384083
000170 31 a4 42 bd d3 00 cc 3c 2c a5 d4 bc 43 4a 7a bd
       -0.047519866 0.024902737 -0.025957666 -0.061105978
000180 51 d1 68 bd b3 09 f4 3c e8 c4 62 bd f5 a8 64 3d
       -0.056840245 0.029789781 -0.055363566 0.055825192
000190 b2 e9 00 3d 60 b3 89 bc b3 a8 3a 3d 3a 49 33 ba
       0.03147287 -0.016809165 0.04557104 -0.000683922
0001a0 65 25 c4 bc c5 f9 0a bd 84 ef c6 bc 84 62 3a bd
       -0.023943612 -0.033929605 -0.024284132 -0.045504108
0001b0 24 65 5d 3d 55 3d c5 bb 99 51 18 bd 20 d4 96 3c
       0.054051533 -0.0060192742 -0.037187193 0.018411696
0001c0 16 92 2c 3c c7 7e 33 bd d9 37 4f 3c 53 b9 db bc
       0.0105328765 -0.043822076 0.012647592 -0.026821768
0001d0 75 15 05 3d 40 ac 56 bd 0c 4a 50 3d 56 9b bf bb
       0.032491166 -0.052410364 0.050851867 -0.005847375
0001e0 05 32 57 3d b9 35 11 bd 4c af e4 3b 32 b4 3f 3d
       0.052537937 -0.035451625 0.006978905 0.046802707
0001f0 ea 5c 7d bd 69 05 b8 3a 93 97 43 bd b5 26 3f 3d
       -0.061856188 0.0014039698 -0.047751974 0.046667773
000200 e8 87 50 3d ef b8 da 3c 6d e3 4b 3d 1c c0 88 3c
       0.05091086 0.026699511 0.049777437 0.016693167
000210 e4 c0 22 b9 fd e1 34 3d 37 be 3d bc e9 61 4c 3b
       -0.00015521381 0.04416083 -0.011580995 0.0031186289
000220 2e c4 2a bd 77 dd f0 3c 3a 01 01 3d d4 93 1c bd
       -0.041690998 0.029402478 0.03149531 -0.038226917
000230 87 f3 45 3d 45 3f 14 3c 4e b0 96 3c 6a 2e 02 3c
       0.04832795 0.009048288 0.018394616 0.007945636
000240 1b 3d 21 bd 79 93 71 bc 4c 0f 5a bc 80 ac b8 3c
       -0.039364915 -0.014744633 -0.013309311 0.022543192
000250 d6 53 0f 3b 21 34 68 bd c3 8c f8 bc bd 73 59 3d
       0.0021870038 -0.05669034 -0.030340558 0.053088892
000260 5a 5e 77 bc d5 2c 48 bd fe 08 5e bd b2 32 6b 3d
       -0.015098179 -0.04887088 -0.054207794 0.057421394
000270 c1 1d 1c bb 10 72 b1 bb 36 3f 8c 3c d5 aa 38 3d
       -0.0023821446 -0.0054152086 0.017119985 0.045084793
000280 60 47 1a bd b4 56 60 bd 99 b2 4b 3d 2a 06 2a 3d
       -0.037665725 -0.054770187 0.04973087 0.041509785
000290 aa ad b4 bc 20 f3 3f 3c ba 68 22 3d 60 64 4b 3d
       -0.022055466 0.01171568 0.039650656 0.049656272
0002a0 da 0c 84 bc 9e 3d 2d 3d bb ae 48 3d 99 b3 2b 3d
       -0.01611941 0.04229509 0.04899476 0.041919325
0002b0 d5 cd eb 3c a8 76 22 3c 27 1c 03 3d c6 d0 05 3c
       0.028784672 0.009915985 0.03200927 0.008167451
0002c0 cc b5 70 3b e7 f9 31 bc 6f 5b 8a bc 6f 91 7d 3b
       0.0036729453 -0.010862804 -0.016889302 0.0038691422
0002d0 db f3 d5 3c 37 a9 8d bc be 62 89 3c b7 98 60 bd
       0.026117256 -0.017292602 0.016770717 -0.05483314
0002e0 06 9f 79 3c cd 4f 68 bd 39 f3 2b bd 33 5f 0d 3d
       0.015235668 -0.05671673 -0.041980002 0.034514617
0002f0 31 f7 ad bb c2 97 47 3c 80 2c 4e 3b 17 75 07 3c
       -0.0053090085 0.012182178 0.003145963 0.0082676625
000300 dc c0 96 3c 8a 6d 96 3b 06 b5 56 bd 09 18 e5 bc
       0.01840251 0.004590695 -0.05241873 -0.027965562
000310 9a 09 cb bc b4 a6 7e bd 19 4e 47 3d 17 64 fa 3c
       -0.024784852 -0.0621707 0.048658464 0.030565305
000320 c9 ab 27 bc 44 ab ac bc 29 f4 29 bd 3e cc 08 3c
       -0.010233828 -0.02107776 -0.041492615 0.008349476
000330 ec 9a f7 bc c5 34 62 3d 9d f4 84 ba 87 b0 4d bd
       -0.03022524 0.055226106 -0.0010143701 -0.050217178
000340 e9 08 f9 3c 4a 31 79 3c ea 85 bc 3c 09 e8 21 3d
       0.030399757 0.015209505 0.023013074 0.039527927
000350 82 6a 89 3b 2f 0b 57 bd a3 50 51 bd e5 f0 5a bd
       0.004193605 -0.0525009 -0.05110229 -0.05345239
000360 51 f4 62 3d 12 d7 18 3d 3c 8e 4c 3d f4 54 ed 3c
       0.05540878 0.037314482 0.049940333 0.028971173
000370 01 ac c6 3c 4c 4b 1e bd 3e 7c e9 bc 0c 4d 37 3d
       0.02425194 -0.038646027 -0.028501626 0.044751212
000380 58 55 62 3d 9d 0a 09 3d 11 39 e1 3b 62 6d 77 bc
       0.05525717 0.033457387 0.006873258 -0.0151017625
000390 6c 74 6b bc 24 7b 92 bb d1 db e3 bb ce c2 7c bc
       -0.014371019 -0.004470246 -0.0069536944 -0.015427304
0003a0 49 65 5a 3d 27 f5 ae bc 47 ad 01 bd 8f 26 1b bc
       0.05331925 -0.021357132 -0.03165939 -0.009469642
0003b0 e2 32 c7 3c af 3f 77 3c 81 68 98 3b b3 b8 97 3b
       0.024316255 0.015090867 0.0046511297 0.004630172
0003c0 24 e9 92 3c f7 54 95 bc 3a 54 41 bc ca 08 24 bd
       0.017933436 -0.018228991 -0.011799866 -0.040047444
0003d0 1d 8b 1e bd 4f 39 3c 3d e1 48 28 bd 8d 8e f5 3c
       -0.038706888 0.04595309 -0.041085128 0.0299752
0003e0 2e 16 6b bd c8 bf 2f bd e6 30 1e 3c 5b fb 67 bd
       -0.0573942 -0.042907506 0.009655213 -0.056636196
0003f0 20 16 17 ba d9 df 4f bd 46 d6 23 bc 82 de 20 bd
       -0.000576349 -0.050750587 -0.009999817 -0.0392747

head.0.bias f4 [128]
000000 cb e8 34 bd 2c 0d ab 3c 69 a4 7a 3c 03 ff 7d bd
       -0.04416732 0.020880304 0.0152979875 -0.062010776
000010 bb 71 42 bb 98 3e 33 bd d8 cb 4c 3d 68 d1 48 3d
       -0.002966984 -0.043760866 0.049999088 0.04902783
000020 1a cb 11 3d 5f 37 03 3d be f4 48 bc 93 30 27 bc
       0.035594083 0.032035228 -0.012265382 -0.010204452
000030 73 33 35 3d 29 82 36 bd 34 bf 28 3c f2 94 33 bc
       0.04423852 -0.044557724 0.010299493 -0.010960804
000040 29 28 bb bc 77 7c 1b 3d c6 1f 3d 3d 0d a3 c5 bb
       -0.022846298 0.037960496 0.04617288 -0.0060314
000050 22 12 e8 3a 2b cf 22 3d 7f 53 39 bd 1d 42 54 3d
       0.0017705599 0.039748352 -0.045245644 0.051820863
000060 66 ce e6 3b 64 9b da 3c 53 96 6e bd 50 af 77 3a
       0.0070436476 0.026685424 -0.05824883 0.0009448426
000070 be 24 34 bd fb b5 09 bd 25 11 ba bc c0 08 e6 3a
       -0.043980353 -0.033620816 -0.022713253 0.0017550215
000080 3a 58 f4 bc a8 23 1f 3b ed 80 4b 3d 98 0d a9 bc
       -0.029827226 0.0024282727 0.0496835 -0.020636365
000090 50 38 fa bc 9e 0d 19 3b e5 3a 8d bc 29 a6 c7 3c
       -0.03054443 0.0023354064 -0.017239997 0.024371224
0000a0 17 1c 8c 3d 58 15 46 3c a1 46 ca bc 25 5b 3d bd
       0.06841295 0.01209005 -0.024691882 -0.0462295
0000b0 55 a0 2b bd 4c 6b 56 3c 4a 75 99 3d 3d 41 aa 3c
       -0.04190095 0.013087105 0.07493074 0.020783061
0000c0 91 59 ae bc 13 fc 1c 3c 7b ec 9d 3d ed a3 88 3d
       -0.021282943 0.009581584 0.07711121 0.06671891
0000d0 33 b0 a9 3d 3b 41 9a 3c 6c 28 3d 3d 73 44 5b bc
       0.082855605 0.018829932 0.046181127 -0.013383019
0000e0 59 c7 b0 bc 14 f4 d9 bc 3f d1 64 bc ed e8 a7 3b
       -0.021579431 -0.026605643 -0.013965904 0.0051242025
0000f0 07 c5 4a 3b b8 24 8f bc a8 a5 2b bd 35 41 8a 3c
       0.0030940191 -0.017473564 -0.04190603 0.016876796
000100 34 3c 12 3d fe 3f a4 bc 5f 24 8f 3d e7 9c 39 3d
       0.035701945 -0.020050045 0.06989359 0.04531565
000110 a6 20 2b bc ca 59 99 3d c9 7c 50 3c 53 8e 13 bd
       -0.010444796 0.07487829 0.012725064 -0.036024403
000120 b3 d4 1d 3c 4d 11 97 bc 62 f1 08 3d 3c 41 45 bd
       0.009633231 -0.018440867 0.033433326 -0.048157915
000130 07 67 a0 3d 8c d7 5f bd d6 13 d8 3c d3 4c 56 3c
       0.07832151 -0.05464892 0.026376646 0.01307984
000140 c0 55 63 bd c9 e5 cd bc 92 d3 e5 bc a0 c6 ca 3c
       -0.0555017 -0.025133984 -0.028054986 0.024752915
000150 52 af 23 3d 77 b7 0c 3d 00 87 4a 3d 1a ad 6b bd
       0.03996212 0.034354653 0.049445152 -0.05753813
000160 51 9d 0a 3d 88 8c 57 bd ae 3c 39 bb b4 45 81 bc
       0.033841435 -0.052624255 -0.0028264928 -0.015780307
000170 68 a7 e2 3c 88 a4 91 3d d9 d0 2b bd cb 50 49 3c
       0.027667716 0.0711146 -0.04194722 0.012287329
000180 22 44 60 bd f1 ad 86 3c 8b 93 a5 bc cc 61 ac bc
       -0.054752477 0.016440364 -0.020211956 -0.021042727
000190 ae 99 04 bd b1 d6 15 bd ae c4 80 3d f5 70 90 3d
       -0.032373123 -0.0365817 0.06287514 0.07052795
0001a0 db 8e ae 3c c1 fe 83 bc f4 33 2c 3c 38 0b 49 39
       0.021308353 -0.016112687 0.010510433 0.00019173033
0001b0 2b 6a f7 bc ba 34 b1 3d 5f e2 cb 3b 1d fd 81 3b
       -0.030201992 0.08652635 0.006222054 0.003966941
0001c0 0e b4 07 bd da d8 93 bc 6f c6 4c bd 49 e7 ec 3c
       -0.033130698 -0.018047739 -0.04999393 0.02891888
0001d0 c0 6e 3b 3d ee 51 42 bd b7 b7 f5 bc 3e 60 bb 3c
       0.045759916 -0.047441415 -0.029994829 0.02287304
0001e0 68 6b 72 bd 4a 7e bb 3d 90 fb 6a bd 96 7f 02 bd
       -0.05918446 0.09154947 -0.057368815 -0.031859957
0001f0 6f 7a 34 bd aa 0f 1b bc 00 ea ec 3c b6 c3 5e 3d
       -0.044062074 -0.009464184 0.028920174 0.054385863

head.2.weight f4 [6, 128]
000000 82 4f c7 3c ea 26 23 3d 99 3a 78 3d 91 c3 9b 3d
       0.024329904 0.039832033 0.060602758 0.07605661
000010 ac c6 9a 3d d5 02 aa 3d 59 a7 c1 3c a9 d0 91 3c
       0.07557425 0.083013214 0.023639368 0.017799692
000020 2e 32 e9 bc db b3 0b bd e5 d4 a6 b9 7b b4 e6 bb
       -0.02846631 -0.03410707 -0.00031820606 -0.007040558
000030 4e 11 0a 3d d1 d8 7e bd 5a 39 54 3d c9 76 06 3d
       0.03370791 -0.06221849 0.051812507 0.032828126
000040 52 50 67 3c a2 0f 51 3d f9 24 1e bc 5f 17 08 3d
       0.014118271 0.0510403 -0.00965237 0.033225413
000050 dc 6b 64 3d 1d 81 70 3c 97 52 8b 3d d1 af 31 bd
       0.055766925 0.0146792205 0.06802862 -0.043380562
000060 3f 48 34 bd 98 96 38 bd 78 c5 8f 3c be 64 52 3d
       -0.04401421 -0.045065492 0.017550215 0.051365606
000070 fe bb 2a bd 90 66 c4 3b 42 1c df bb ce c1 9a 3d
       -0.04168319 0.0059936717 -0.0068087885 0.075564966
000080 8d 34 e2 bc 0b 66 7b bc d5 6a 67 3d ad 4e 9a 3d
       -0.027612949 -0.015344153 0.056498367 0.075345375
000090 76 06 09 bd 6e 36 f0 3c 80 01 c6 3d 7e 91 26 3d
       -0.033453427 0.02932283 0.09668255 0.040666096
0000a0 75 64 1f bc ce 26 0f 3d 6d ea 19 3b 2d 2c 4c bc
       -0.009728541 0.034949116 0.0023485676 -0.012461704
0000b0 8e 94 9f bd 0b 7d b0 bd be b5 94 bc 60 ca e2 3c
       -0.077920064 -0.086176 -0.018153068 0.02768439
0000c0 06 5a 88 3c e7 ba 91 bd 52 80 80 bd 51 73 bc bd
       0.016644489 -0.07115727 -0.06274475 -0.09201682
0000d0 3b 36 19 3d 2b 84 49 bd d6 a4 cf 3c 8c fa 93 bc
       0.037405234 -0.04919831 0.025347155 -0.018063806
0000e0 28 b1 a1 bd e2 71 ad 3d 01 5f 63 3d 81 3b 37 bd
       -0.07895118 0.08468987 0.055510525 -0.04473448
0000f0 d9 ff 93 bd 33 6c 68 3d 7e d3 90 3d 0c 3c 20 bd
       -0.072265334 0.05674381 0.07071589 -0.039119765
000100 a1 ee 43 3d 0a 1e 62 3c ec 26 67 bd 14 ba 6f 3d
       0.047834996 0.013801107 -0.056433603 0.058527067
000110 ca 9a 8a bd 54 81 53 bc f4 38 02 bd 88 2a 51 bd
       -0.06767805 -0.012909252 -0.031792596 -0.05106595
000120 3a 0f 2d 3d c0 ba bf 3c 42 a7 95 bd 19 4b 88 bc
       0.04225085 0.023404479 -0.073072925 -0.016637372
000130 d2 df 5c bd 0b cb 8f bd ab 97 8a bd c0 db 02 3d
       -0.05392439 -0.07021149 -0.067672096 0.03194785
000140 ae 3c 28 3d c0 00 a0 bd 9b e3 ab bd e2 68 be bc
       0.041073494 -0.07812643 -0.08393022 -0.023243371
000150 02 54 f5 bd ad 58 0c bd 02 77 86 bd ee 95 58 3d
       -0.11978914 -0.034264255 -0.06565668 0.05287736
000160 0d b3 6e 3c 6d 25 9b bd 35 8f 0e bd 15 4a da bc
       0.014569056 -0.07575498 -0.03480454 -0.026646653
000170 02 19 88 3d 5b a5 ef bc e8 8d 98 3d 9c 6c 58 ba
       0.06645395 -0.029253652 0.074489415 -0.000825593
000180 eb 71 95 3d 24 45 5e 3d 2d c6 90 3d 2b 90 48 3d
       0.07297119 0.054265156 0.07069049 0.048965614
000190 6c 1e 8f 3d 36 68 8f ba 1d 3d 1b bd 9f 3c b1 bd
       0.069882244 -0.0010941091 -0.03790008 -0.08654141
0001a0 36 5b a9 bc 3e 60 6e 3d f6 f8 2d bd 64 a6 e9 bc
       -0.020673376 0.058197252 -0.042473756 -0.028521724
0001b0 c8 56 d3 3c 8c 3c f4 bd c9 dd ac 3d f8 f7 96 bb
       0.025798216 -0.11925611 0.0844074 -0.004607197
0001c0 94 a7 1f 3d 2d 6d fb bc 9c ff 35 3d 1f 2a a9 3c
       0.038978174 -0.030691708 0.04443322 0.020649968
0001d0 ba 8a 8f 3d 5c c8 f0 bb 60 9c 2b bb ca 3f ff 3c
       0.07008882 -0.0073481034 -0.0026185736 0.031158347
0001e0 96 3c 1b bd 00 8d 57 bd bf 37 a2 bd 59 5a a7 3c
       -0.037899576 -0.052624702 -0.07920789 0.020428823
0001f0 c0 72 2d 3d f3 75 82 bd b0 4b 37 3d ba ef 5b bd
       0.042345762 -0.06370153 0.044749916 -0.053695418
000200 41 69 14 3d f4 35 87 3c e5 c5 10 3d 1f 31 07 bb
       0.03623319 0.016505219 0.035344977 -0.0020628644
000210 8f 2f 3d bd 48 fc e4 bc 12 81 dc bd d8 ef b9 bd
       -0.046187934 -0.027952328 -0.10766806 -0.0907895
000220 88 80 95 3d ad 02 02 bd 3f 65 75 3d 89 9e 4b 3d
       0.07299906 -0.031740833 0.05991101 0.049711738
000230 b6 a4 35 bd 64 dc b0 bd 3c 01 06 bd cb dd 99 bd
       -0.044346534 -0.08635786 -0.03271602 -0.07513007
000240 12 0e aa 3d a7 bd d9 bd 04 27 7c bd 6c 45 22 b9
       0.08303465 -0.106318764 -0.061560646 -0.00015475386
000250 33 3c b2 bd 2d 9e b9 bc b3 3a a5 3d e0 45 9d bd
       -0.08702888 -0.022658432 0.080678366 -0.07679343
000260 79 45 50 3d 0c da 02 3d 9d 03 61 3d ae f9 2a bd
       0.050847504 0.031946227 0.054935087 -0.04174202
000270 3c 99 56 3d e3 f1 35 bd 6a 1b 68 bd f1 89 2f bd
       0.05239223 -0.044420134 -0.05666677 -0.04285616
000280 9a f0 9d bd 7d 70 4a bd a1 d0 24 bd 55 08 17 3d
       -0.07711907 -0.049423683 -0.040238027 0.03687318
000290 c0 36 2f bd a2 fb a0 bc b4 0d 51 3d 22 05 f2 3c
       -0.042776823 -0.019651238 0.05103846 0.029543463
0002a0 07 7e 9e bd 4d 38 75 bd 21 a9 86 bd 84 ae f3 bb
       -0.077388816 -0.059868146 -0.065752275 -0.0074365754
0002b0 24 62 06 3d fb 41 26 bd 1b e0 9b bc 52 7a 03 bd
       0.032808438 -0.040590268 -0.01902776 -0.032099076
0002c0 fa 51 70 3d d3 c6 9f bd 07 dc 17 3d 89 72 bb bd
       0.05867193 -0.078015946 0.03707507 -0.09152705
0002d0 5e 03 3b 3c cf 15 3a 3d 54 e8 82 3c 75 ae 97 3d
       0.011414377 0.045430955 0.015979923 0.07406322
0002e0 08 8f 16 3d 10 b8 49 bd 5d aa 94 3d 3f 78 b6 3d
       0.0367575 -0.0492478 0.07259057 0.08909654
0002f0 93 e8 82 3d 0b 38 2f bd 14 18 9e bb 6d 1d 1d bb
       0.06392016 -0.042778056 -0.0048246477 -0.0023973838
000300 a1 1e 20 3c b4 42 89 bd e9 1d f8 bc 32 bb 8b bd
       0.0097729275 -0.06702176 -0.0302877 -0.06822814
000310 8c e9 5f bd 2c 01 8f bd 95 1c 24 3d 1e cc 90 bd
       -0.054666087 -0.069826454 0.04006632 -0.07070182
000320 7f 85 34 3c 7c 26 34 3d da a6 56 3d eb d5 d9 bc
       0.011018156 0.043982014 0.052405216 -0.026591262
000330 84 81 cf bd 74 d2 52 bc 15 60 c6 3b 78 8e 0e 3d
       -0.10132125 -0.012867559 0.0060539343 0.034803838
000340 a8 55 73 bd 2b 26 96 bd dc ad f9 bb 96 7b 10 bd
       -0.05940786 -0.07331499 -0.0076196026 -0.03527411
000350 4f 08 c9 bd 5f b5 71 3d 26 e8 95 3d 7e 96 11 3c
       -0.09816038 0.05901086 0.073196694 0.008885978
000360 46 60 85 bc 78 fd c3 b9 1a dc dd 3c 9f a8 91 3d
       -0.016281258 -0.00037382147 0.027082492 0.0711224
000370 90 be 4c 3d 8e 86 83 bd 19 f7 4e 3c 07 b2 cf bd
       0.049986422 -0.06422149 0.012632155 -0.10141378
000380 f0 c2 99 3d 3e 4d 71 3d 6c 8d 8f 3d d0 46 b0 bd
       0.075078845 0.058911555 0.07009396 -0.086072564
000390 94 2f 0a bd f4 f4 ea 3c 05 ec bd bc 03 6d 8c 3d
       -0.03373678 0.028681256 -0.023183832 0.0685673
0003a0 7c d6 82 3d e0 6e 63 bd 1f 51 01 3a 3d 24 51 bd
       0.06388566 -0.05552566 0.00049330475 -0.05105995
0003b0 56 61 8c bd 29 4b 45 bd b9 02 ad 3c 42 37 0f bc
       -0.06854503 -0.04816738 0.021119462 -0.008741202
0003c0 7e 3e 1d bd b7 2d 8b 3d b1 27 61 3d 43 c6 3b bd
       -0.038389675 0.06795829 0.054969493 -0.045843374
0003d0 7e 56 06 3b 39 0d 91 3c 4d c8 cb 39 fa 19 a5 3c
       0.002049833 0.0177065 0.00038868413 0.020153988
0003e0 4f f8 b4 bc fc 63 8d bd dd 6b 40 3d bb 37 59 3d
       -0.022091059 -0.06903836 0.046977866 0.053031664
0003f0 a1 2e 1f 3c c8 2d 51 3d fa 1b a0 3d 6f 2c 96 bd
       0.009715707 0.05106905 0.07817836 -0.07332694

head.2.bias f4 [6]
000000 1e be 1c 3d 14 50 01 3d bd 79 ab 3d 2f 89 55 3d
       0.038267247 0.03157051 0.08372829 0.05213278
000010 e7 f2 b9 bc c3 52 79 3d
       -0.022698833 0.060869943
