models_decentralized/final/policy_4_3000.pth (torch, 163209 bytes, 10 tensors)

conv.net.0.weight f4 [3, 31, 3, 3]
00000000: f8c4 0ebe 5de2 bfbb 40ba eebd c580 833d
00000010: 908b 06be 71e1 c83d b389 163e c5e6 e23d
00000020: 70ce b23d 8607 103e 51f8 0cbe 2ade 81bd
00000030: d9fd 2c3c 1a6b 0bbe ba63 b63d aaec 443c
00000040: 2594 65bc a964 cdbd 0ea9 103e 50b8 0abe
00000050: d32d e93d 2219 4dbc 0211 343d fc03 fa3d
00000060: 5d70 52bd e0bc b2bd 7d76 b03d 057e df3d
00000070: 2fac ec3d 008b 5fbd 9029 f23d 1d80 0cbe
00000080: e3c4 eabd 3c22 4cbd 8aa2 dcbd 17b3 7abd
00000090: 4e2c e73c 5369 65bd 650a 2cbd 1670 84bd
000000a0: aace 0abe cb7b fa3d d90a ef3c 7cbb b43d
000000b0: 584b aebd c863 b93d dc13 16bd d98b 8b3d
000000c0: 5d41 323d d1e0 013d c1e3 c33d 9e0a 083e
000000d0: 2f1e 47bd a739 233c 881c 01be 158f a2bc
000000e0: b6f4 94bd 7d5a c9bd 5e39 f73d a9a3 debd
000000f0: 3d49 d33d a0a0 9a3d 222c e0bd d7e2 dabd
00000100: 8415 533d 3614 2b3d cb16 9ebd 6a9b 983d
00000110: 1e6f 2cbd 0e26 46bc c878 0ebe 0721 823d
00000120: 486b 3c3d 6bfe e33d 4a14 efbd 5989 86bc
00000130: 408b 06be 8c7c c13c 78fa c2bd 3b4b edbd
00000140: 345b 073d fbcb acbc 2984 33bd e3fd 1cbd
00000150: 22ca eb3d beec 863d 02fc bdbc 1caa 063d
00000160: d21f 82bd fb06 a33d 9c46 643d d80e a03c
00000170: f6e8 4d3b 7c2f 27bd bedd debc f43d 873d
00000180: 51ab b03d 0927 72bd 42e2 acbc 0919 0fbe
00000190: 900a b9bd b155 22bd 198e 89bd f6c0 783d
000001a0: 1267 09be 0696 b9bd 92f9 5e3d 6ce6 0ebc
000001b0: c4d0 4a3c 8215 eabd cadd f43d b843 a63d
000001c0: 9ee8 653d 70db 043e b176 913c dddc 8cbc
000001d0: f89d ffbd 9f8d 8c3c ecaa 413b e77f 953c
000001e0: f2bd afbc 23a3 523c b063 08be 551a 7bbd
000001f0: 4089 fcbd 15d8 edbc ba7b 503d f5af fe3d
00000200: d4a9 e13c 0822 2ebc 42be b8bd bb8c bdbd
00000210: 958f 533d b4b3 80bd 8cc5 6c3c 6eb5 2ebd
00000220: c603 febd 599f 08be ad09 433c 8ff3 febc
00000230: 47e2 8e3d a9f0 913d 0871 22bd 85a2 8e3d
00000240: 9dca dd3d 6471 0e3e 2802 cf3d 6491 3abd
00000250: 8540 babd e8a2 96bd 3fa1 023d 0bac d5bd
00000260: 7cf1 26bd 15f3 a4bd e876 f33d 8a8b f33d
00000270: 64b7 d83c 5654 9dbd 36ae 4dbd cf40 02be
00000280: 4e44 11bd 01de e03d f12e c83d e25a 0abe
00000290: 29d4 e7bc 51c4 c03d 2e12 793c d6e7 cebd
000002a0: bfe9 f23d 3102 8cbc dbb8 f2bd fb26 0cbe
000002b0: 659f 893d 6d69 c43b 9119 babd 9898 193d
000002c0: 0a70 cfbb 187a 003d 4f45 97bc b67e 0cbe
000002d0: d0b6 59bd 9732 083e 2805 bf3c 3bf5 3cbd
000002e0: df34 c8bc d130 8e3d 02d2 043e f7db aebd
000002f0: a277 debd 71d5 a8bd 2f86 efbc 2861 f5bd
00000300: 27ad c0bd 25c3 e3bd 5178 a1bd c875 7b3d
00000310: dc26 c5bd 630f 1f3d 5b7b 1abd 6f64 18be
00000320: fbf1 b2bd 7450 db3b f687 e9bd 3280 0cbe
00000330: 68ec 64bd b18e 24bb f594 e73c 2842 16bd
00000340: 0401 e73d e2b0 79bd 8f8b a63c c7b4 c23d
00000350: 5f75 003e c8d0 9fbd 515d 76bd 6cbb 9f3c
00000360: 682b 613c f50d 0dbc bdc5 01bd 1e9e 18bd
00000370: 9a49 ffbd 998d 78bd c354 c93d 4124 533d
00000380: 40b2 4fbc 802f b7bd 4406 2f3c 396a b93c
00000390: 44a9 80bc 962c 393d 846b bc3d 18fb d3bc
000003a0: 674f 823d a03e 3cbd 5843 b73d 9962 033e
000003b0: 2c8e bb3d 9ce4 963d e738 9c3d 3cc8 07be
000003c0: 37c0 9d3d 27bd 89bd 3b17 d3bd f2e9 3cbc
000003d0: 9184 2f3d 69c6 0cbe 08ea 713c 7195 dc3d
000003e0: 828a 15be 3a5e 283d 6e5b e03d 9475 0c3b
000003f0: 13f8 073e 39b4 83bc 8c96 92bd 21a5 dabd
-0.13942325 -0.005855842 -0.11656618 0.06421045 -0.13139176 0.098086245 0.14700966 0.11079172
0.08730781 0.1406537 -0.137666 -0.063412026 0.010558569 -0.13615075 0.0890574 0.012019316
-0.014012371 -0.10028965 0.14126989 -0.13546872 0.113856934 -0.012518199 0.043961532 0.12207791
-0.05137669 -0.08727431 0.0861635 0.10912708 0.11556279 -0.05457592 0.11824334 -0.13720746
-0.114633344 -0.049837336 -0.10773189 -0.06120595 0.028219368 -0.056008648 -0.0420021 -0.06466691
-0.13555399 0.12230643 0.029179977 0.08824822 -0.085104644 0.09052235 -0.036640033 0.06813783
0.043519367 0.031708542 0.09564925 0.132853 -0.04861277 0.009962476 -0.1260854 -0.019843617
-0.072732374 -0.098317124 0.12071489 -0.108710594 0.103167035 0.07550168 -0.10945918 -0.106877975
0.05153419 0.04176732 -0.07719191 0.07451518 -0.042098157 -0.012094034 -0.13913262 0.06353956
0.04600075 0.11132511 -0.11673792 -0.016422914 -0.13139057 0.023618959 -0.095204294 -0.11586615
0.033045962 -0.02109336 -0.04382721 -0.038328063 0.11513163 0.06588124 -0.023191456 0.032877073
-0.063537255 0.07960316 0.0557314 0.019538328 0.0031419373 -0.04081677 -0.027205344 0.066036135
0.08626426 -0.059119258 -0.021103982 -0.13974394 -0.09035218 -0.039632503 -0.06716556 0.060730897
-0.13418224 -0.09061818 0.054437228 -0.008721929 0.012378875 -0.114298835 0.119563654 0.08118385
0.056130044 0.12974334 0.017756792 -0.01719516 -0.12481302 0.017157374 0.002955134 0.018249465
-0.021452878 0.012856278 -0.13319278 -0.06130441 -0.12330866 -0.0290337 0.050899245 0.12435905
0.0275468 -0.010628231 -0.09020664 -0.09255358 0.051650602 -0.06284276 0.014451396 -0.042653494
-0.124030635 -0.13342036 0.011904162 -0.031121997 0.06976753 0.071259804 -0.039658576 0.06964592
0.10829661 0.13910443 0.10107833 -0.04554881 -0.090943374 -0.07355291 0.031892058 -0.10433205
-0.04075764 -0.08054177 0.11887914 0.11891849 0.026454635 -0.076821014 -0.05021497 -0.12720035
-0.03546553 0.10979844 0.09774578 -0.13511232 -0.028299408 0.094124444 0.015202088 -0.10102813
0.1186099 -0.017090889 -0.11851665 -0.13686745 0.06719855 0.005994013 -0.09086908 0.03749904
-0.006330495 0.031366438 -0.018465666 -0.13720211 -0.05315286 0.13300548 0.023317888 -0.046132307
-0.024439273 0.06942905 0.12970737 -0.08538049 -0.10862662 -0.08243836 -0.029238788 -0.11981422
-0.09408026 -0.11121205 -0.07884277 0.06139162 -0.096265525 0.038833033 -0.037715297 -0.14882062
-0.0873756 0.0066929404 -0.114028856 -0.13720778 -0.055889517 -0.0025109465 0.02826927 -0.036684185
0.112794906 -0.060959704 0.020330219 0.09507137 0.12544774 -0.07803494 -0.060147587 0.01949855
0.013743259 -0.008609285 -0.03168272 -0.037260167 -0.1246521 -0.060681913 0.0983062 0.051548246
-0.012676775 -0.08944607 0.010682646 0.022633659 -0.015705712 0.045208536 0.092001945 -0.025876567
0.06362801 -0.04595816 0.08948392 0.12830581 0.091579765 0.073678225 0.07628041 -0.13259977
0.07702678 -0.06725531 -0.10307165 -0.011530386 0.042851035 -0.13747562 0.01476527 0.10770691
-0.14603618 0.041105486 0.10954939 0.0021432387 0.13278227 -0.016077148 -0.07157621 -0.10676027

conv.net.0.bias f4 [3]
00000000: 03e5 c8bb 6890 bebb b73d 023a
-0.006130816 -0.0058155544 0.00049683027

conv.net.3.weight f4 [6, 3, 3, 3]
00000000: 141f 8fbe 3d66 62be 39c4 8ebe 8d92 f6bb
00000010: 939a 503d 6d83 d23d ba2c 1d3d b1fa af3c
00000020: 9677 52be fb8f 88be e7ce a13e 143f 703e
00000030: 7958 dd3b 1818 d43e 5e61 c23e c11b 5b3e
00000040: 954c 883e 169d 8b3e 7c79 af3e 17f7 973d
00000050: 42df 093e f046 1d3e eb85 84be 2042 2c3e
00000060: f0ba ed3b 185d 893e 095e 69be c8cd f03d
00000070: da2c 8ebe 57a7 65be 06ed dbbe 32e3 1bbe
00000080: 76a3 6f3e 1b23 e33e 94e5 083e 8d31 a2be
00000090: b1a9 1f3d 503e 84bd 8e09 aabe 622c 7c3e
000000a0: 9b2b b73e f363 6cbe ae39 973d 5233 e53e
000000b0: e0d6 b5be 59e9 e6bd e011 b53e b184 a13e
000000c0: 6b30 923e 12db 5cbe 71f9 97bd 40d4 ea3d
000000d0: 74a3 9fbd 90e7 d0bd 87da c63e b61e a93e
000000e0: 5430 4a3e 55e1 f83d 2acf f0be 0cfb e43b
000000f0: 0b5c b5be 8f07 0ebe 5d5e 243e 47c8 2fbe
00000100: 2680 c53c d506 8b3e aded 6b3e e0fd 28be
00000110: 680f 0f3e f1a6 cc3e 296b 983e 7e07 07be
00000120: e0ad b33d 6a42 773e b26f 9dbe bcb0 dc3e
00000130: f63d d73d d172 adbe 3bf2 bebe 80c2 d4be
00000140: 65b3 4c3e be87 683d 91cb e43e 10c3 933e
00000150: 0570 463e d8bb eb3e 2b2f ecbe 7e0c b03d
00000160: bcb7 bbbe 997c c8be bab6 103e 8834 a7bd
00000170: 116f aa3e ac39 8abd 1363 ea3e 1451 49be
00000180: 42d4 a33e 7c57 343e b73f 923d 6be7 a9be
00000190: 1a76 a03e 16bd 933e fe80 bfbe 718d 1f3e
000001a0: 52df 11be 72ec 813e 6d27 28be 0533 e33e
000001b0: ec28 00be 7f87 a53d 0a31 30be 2678 dc3e
000001c0: b458 4a3e 52a5 58be 6ad2 c6be fed6 4dbe
000001d0: eaee 59be 23ee 96bd 4bbe d9be 4e0e b3be
000001e0: 514b 49be e7da 943e dd51 093d 5c33 adbe
000001f0: c2c3 63be 78df 8bbd 9e1f e53e 7875 05bd
00000200: a04a e6be e5da 423e 2126 283d 5d7b 533e
00000210: 75d9 733e 52b7 e1be b333 c73e f865 8dbe
00000220: cca8 57bd 8722 3f3e d096 5cbd eb7d e53e
00000230: b94e 80be 20ab 4e3e 54b8 be3e bc64 353e
00000240: 7c13 c63e 8f87 9f3e 42fe 8ebe 1ff6 ae3e
00000250: 4fc5 abbe 5b5b c1be 72aa acbe 8fa1 903e
00000260: e30e ac3e c017 16bd 1cbc aabd 12d2 a2be
00000270: 5586 55be 2bb2 a6be f309 ca3e fee0 0a3e
00000280: 8a5e 6b3e efb1 c23e
-0.27953398 -0.22109313 -0.2788408 -0.0075247944 0.050928663 0.10278974 0.038372733 0.021481844
-0.20553431 -0.26672348 0.31603166 0.23461562 0.0067549315 0.41424632 0.3796491 0.21397306
0.26620927 0.27268285 0.34272373 0.074201755 0.13464072 0.15359092 -0.2588342 0.168221
0.0072549507 0.26828837 -0.22789778 0.11758 -0.27768594 -0.22427116 -0.42954272 -0.15223387
0.23402199 0.4436272 0.13368827 -0.3167843 0.03898019 -0.06457198 -0.33210415 0.24626306
0.35775456 -0.23085003 0.073840484 0.44765717 -0.355155 -0.11274976 0.353652 0.31546548
0.28552565 -0.21567944 -0.07420624 0.11466265 -0.07794848 -0.10200417 0.38838598 0.33031243
0.19744998 0.12152354 -0.47033054 0.006987935 -0.35421786 -0.13870071 0.16051622 -0.17166243
0.024108957 0.2715365 0.23039885 -0.16503096 0.13970721 0.39971116 0.29769257 -0.13186452
0.087733984 0.24146429 -0.3074928 0.43103588 0.10509865 -0.3387666 -0.37294182 -0.41554642
0.19990309 0.05677008 0.4468656 0.28859758 0.1937867 0.4604175 -0.46129736 0.08596133
-0.36663616 -0.3915756 0.14132205 -0.081643164 0.33287862 -0.06749281 0.45778713 -0.19659835
0.31997877 0.17611498 0.07141059 -0.3318437 0.31340104 0.288552 -0.374031 0.155813
-0.14245346 0.25375706 -0.1642129 0.44374862 -0.1251561 0.080824845 -0.17206207 0.43060416
0.197604 -0.21156815 -0.38832408 -0.20101544 -0.21282545 -0.0736964 -0.42527995 -0.3497185
-0.19657637 0.2907326 0.033525337 -0.33828247 -0.22242644 -0.06829733 0.44750684 -0.03258273
-0.4497881 0.19028814 0.041051988 0.20652528 0.23813422 -0.44085175 0.3890663 -0.27616858
-0.05265121 0.18665515 -0.053854764 0.4482263 -0.2506006 0.20182467 0.37250006 0.17714208
0.3868674 0.3115811 -0.27928358 0.3417215 -0.33548972 -0.3776501 -0.3372379 0.2824826
0.33605108 -0.036643744 -0.0833666 -0.31800896 -0.20852025 -0.32557806 0.39460716 0.1356239
0.22985283 0.38026378

conv.net.3.bias f4 [6]
00000000: 57ef 8abb 1528 883b fcae 15bb 7526 95bb
00000010: a4c5 16bb 7fbe daba
-0.0042399573 0.004155169 -0.0022839895 -0.0045517036 -0.0023005987 -0.0016688852

conv.net.6.weight f4 [6, 6, 3, 3]
00000000: 2528 9abe 1d21 a73e 0a0d 6ebb fad6 33be
00000010: ce31 d9bd 8c4b e0bd a750 da3d 9bec 073e
00000020: a3a4 09be e093 9abb 4e40 a0bb 0feb 6dbe
00000030: 9035 143c 1c82 873c b000 9dbd 6044 113d
00000040: 1636 81be d17e 91be 51a6 e4bc 71f7 dd3d
00000050: 2534 29be 962d 5c3e 60c6 a4be bb4e edbd
00000060: f2c0 ec3c 9a83 5fbd e42d a4be 4a14 893d
00000070: bcc7 853e 91c8 93be 8e3c 46be 0010 76bc
00000080: ec2e 8d3e 702e f2bc 5455 05be ee4a 6ebe
00000090: bb3b be3d f3cb bbbd 968f a7bd b8a1 96be
000000a0: 36cb cdbd 503a b73d b1af 423d 1086 a33e
000000b0: 34cf a13e 7e2a 96be 954b 95be 6b48 37bd
000000c0: db88 87be ae7c 453e cd10 f8bb 5fe1 19be
000000d0: 9a5c 2ebe 5db6 7b3d 6aed 21bd a06a 26be
000000e0: 87c1 1c3d f15e 043e 692a 853e e00a 30be
000000f0: 3cb0 923c 1256 9a3e f64f 81be 745b 6a3e
00000100: 0cbd ddbd 3b82 963e a79a 2e3e 8665 363e
00000110: 9e1b 68bd b8ef 84be 7199 6e3e fa19 bf3d
00000120: 3d0f 9cbe a945 bc3d a435 5fbe 6fea 42be
00000130: c6f0 8f3e 2489 7a3e 8f44 50be a9d0 76bd
00000140: ae49 acbd 527f 43be acc1 48be 6c01 093e
00000150: 7cd8 03be 0f51 b93c 7749 9cbe 3329 8cbe
00000160: 7d9e a83e 5776 f73c 009b 913c 96ee b03d
00000170: a5f7 63bd b266 183e c6aa 39bd cf75 6abd
00000180: 7075 aebd 8f68 53bd 1d46 8d3e d03d 343c
00000190: 8073 babd a1dd a93d 3739 8fbe b9a8 7f3e
000001a0: 4ce0 4d3e ae87 5a3c 8564 9fbe 9f36 9f3e
000001b0: 9a0b 27bc 17aa 68be 6d05 1b3e df65 a7bd
000001c0: 839a c83d 3f91 a63d 3312 4b3d a789 b93d
000001d0: e0df 0ebe 3ff8 85be 2fb6 3f3e 82c9 e1bd
000001e0: b3d5 0cbe 65ad 8ebd 2343 593e a40f 423c
000001f0: 7aad a93e 8099 223e ac9a 08be 395d 6ebe
00000200: 8cbb b43d 5c8f b93d 50b2 92be ec86 60be
00000210: 12e1 15bd 718a 7bbc f589 323e bd59 aa3e
00000220: dc03 10be ea06 7f3e b792 623d 6552 a33e
00000230: 4f67 a3be a8ec 4c3e ba89 0c3e b269 7ebe
00000240: 5029 b7bd e8e0 17bd 11f5 05bc 686d 063e
00000250: 516d 9b3e 688c 78be d70a 18be 62f1 f43d
00000260: 1cfc a6be c091 7f3d 693c ce39 115c 7cbe
00000270: 90ea 7b3e 0f42 a3be 91e8 ffbc abdf 30be
00000280: d8c9 633e 94fa d9bc 508b 2d3e 96cf c43d
00000290: dd94 a13e 761d 073e 9b57 783e b300 d13d
000002a0: 0aac 823e f37b 683d 15d6 79be fbf2 7ebc
000002b0: 8946 983e 490f 85be c9bf d0bd e95e 44be
000002c0: 6963 04bd 511e 71be 5bac 9bbb e471 3fbe
000002d0: e495 5bbe ecbd 82bd 129a cd3d f7e8 a3be
000002e0: a138 3dbe 4a27 a13e 88db 57bd 1eff 16be
000002f0: 62c0 e83d 22c1 343e e467 a6be 2fdf bfbd
00000300: 4fdf 9f3e 4800 993e 6b30 2a3e 4875 4e3e
00000310: a501 2dbe 4e83 3b3e b3c8 d03d b592 7fbd
00000320: 8bcd 6cbd 8f01 76bc 1f19 08be 4d05 81bc
00000330: f409 29be 096a 83bd 5753 a83e 6ec7 1fbe
00000340: a958 39be 373e 8e3e 04b6 9cbd 4a54 09bc
00000350: 60db 42be a5b4 88be 099a 443e b769 c8bd
00000360: f38e 133d 0eb4 7abe 99bd 9bbe d6a8 6abe
00000370: cc07 2ebc 2191 a3be 9d3e e03d c4f1 103e
00000380: 7f45 523e f601 10bd f3a5 89be a63a 423d
00000390: d77f db3d cd8b d4bd 92a5 d53d 09e5 973e
000003a0: ce76 573d 73e2 3bbe 4690 9d3e 1bac 233e
000003b0: e088 c83d c29d 1a3e 8ef6 88be 39ef 8bbe
000003c0: 6248 a13d 2d2f 9dbe 9265 8b3e 0a4b 863e
000003d0: 4427 88be 0c3b 59be d977 26bd 0501 39be
000003e0: ce35 423e e17a 8ebe 4b76 9f3e 94fb a5be
000003f0: 0a0d 51bb 1843 793d 784d 983e c6cd 043e
-0.30108753 0.3264245 -0.003632369 -0.17562476 -0.106052026 -0.109519094 0.106599145 0.13273852
-0.1344171 -0.004717335 -0.004890478 -0.23234199 0.009045973 0.016541533 -0.07666147 0.035465598
-0.25236577 -0.28417066 -0.027911337 0.10838211 -0.16523798 0.21501765 -0.32182598 -0.11587282
0.028900597 -0.054568864 -0.32066262 0.06693323 0.26128948 -0.28863958 -0.19359037 -0.015018463
0.2757486 -0.029563159 -0.13020831 -0.23270771 0.092887364 -0.091697596 -0.08181684 -0.29420257
-0.10048525 0.08946669 0.047530834 0.3193822 0.31603396 -0.29329294 -0.29159227 -0.044746798
-0.264716 0.19285843 -0.007570362 -0.15027378 -0.17027512 0.061453212 -0.039533056 -0.16251612
0.0382705 0.12926842 0.2600892 -0.17191648 0.0179063 0.3014379 -0.25256318 0.22886449
-0.108270735 0.29396233 0.17051183 0.17812166 -0.056666963 -0.2596414 0.23300721 0.093311265
-0.30480376 0.09192974 -0.21797806 -0.19034742 0.28113383 0.24466377 -0.20338653 -0.060257588
-0.08412491 -0.19091538 -0.1960513 0.13379449 -0.12875551 0.02262166 -0.305248 -0.27375183
0.32933417 0.030207796 0.017774105 0.08639257 -0.055656094 0.14882925 -0.045328878 -0.057241257
-0.08518493 -0.051613387 0.27592555 0.011001065 -0.09104061 0.082942255 -0.2797334 0.24966706
0.20105094 0.013338013 -0.31131378 0.3109636 -0.010195637 -0.22721134 0.15138789 -0.08173727
0.09795096 0.08133172 0.049577903 0.09059458 -0.13952589 -0.2616596 0.18721841 -0.11024763
-0.13753395 -0.06966666 0.21217017 0.011844549 0.33140165 0.15878868 -0.13340253 -0.23277749
0.08824834 0.09060547 -0.28651667 -0.21926469 -0.036591597 -0.015352831 0.17435439 0.3327159
-0.14063972 0.24904981 0.0553157 0.318988 -0.31914756 0.20012152 0.13724414 -0.24845007
-0.089434266 -0.03707972 -0.008176104 0.13127673 0.3035684 -0.2427231 -0.14847885 0.119601026
-0.3261422 0.062394857 0.0003933639 -0.24644496 0.24601197 -0.31886336 -0.031238826 -0.17272823
0.22244966 -0.026608743 0.16947675 0.096099064 0.31558886 0.13194832 0.24252169 0.102052115
0.2552188 0.056758832 -0.24398072 -0.015560861 0.29741314 -0.25988224 -0.1019283 -0.1917683
-0.032321367 -0.23546721 -0.004750771 -0.1869579 -0.21443897 -0.06383881 0.10039152 -0.32013676
-0.18478633 0.31475288 -0.052699596 -0.14745757 0.11364819 0.176518 -0.32501137 -0.09368741
0.31225058 0.29883027 0.16620032 0.20161927 -0.16895159 0.18311808 0.1019453 -0.06239577
-0.05781321 -0.01501502 -0.13290833 -0.015749598 -0.16507703 -0.06416709 0.32876083 -0.1560342
-0.18100227 0.2778184 -0.07651904 -0.0083819125 -0.19028997 -0.2670032 0.19199385 -0.097857885
0.036025 -0.24482748 -0.3041809 -0.22915968 -0.010621976 -0.31946662 0.109494425 0.14154726
0.20534323 -0.03515812 -0.26884422 0.047419213 0.10717743 -0.103782274 0.10431971 0.29666927
0.052603535 -0.18348102 0.30774134 0.15983622 0.09791732 0.15099242 -0.26750606 -0.2733095
0.07875134 -0.30700055 0.2722593 0.26229125 -0.26592457 -0.21213931 -0.04064164 -0.18066795
0.18965837 -0.27828124 0.31144938 -0.324185 -0.003189864 0.060855 0.29746604 0.12969121

conv.net.6.bias f4 [6]
00000000: 2261 6ebb 0cf6 453b ad9a cf3b ee29 dfba
00000010: b298 b93b 8d0c 80ba
-0.0036373814 0.003020647 0.0063355775 -0.0017026046 0.0056639547 -0.0009769365

head.0.weight f4 [128, 294]
00000000: 9ed8 023d 1fe5 63ba 3f57 213d 5220 7ebc
00000010: 54f3 93bc dd36 353d 1e68 15bd 758c ecbc
00000020: 9ba6 da3a 0158 00bc a254 823b b7e1 7cbc
00000030: 8b38 2e3b 1fd6 303d 3442 bb3c 2ba2 14bd
00000040: 8158 723d e232 36ba 2c8e a7bc 8e11 30bd
00000050: 9372 a33c 22a6 773c 71f9 ad3b 1030 81bc
00000060: aa6f 82bc 0d07 463c 2608 973b 2603 f1bc
00000070: 1268 08bd 2156 afbc fac6 ab3c 32b6 4e3b
00000080: 8df0 b4ba 39da 45bd 2db9 a1bc 1f5d 32bd
00000090: 9a9e 10bd f79c 46bc dfd2 97bb e746 203d
000000a0: 862c 5dbd 5c15 993c 21d0 0fbd 9e70 f339
000000b0: 6182 62bd 18e3 473d 133e ea3c 2ad4 e9bb
000000c0: 3521 92bc eb5d 10bd 9b4d 323d dde9 0a3d
000000d0: f3bd a0bc a7e6 d93b 22c1 36bd 7870 a43b
000000e0: de44 173d c9be 88bb db2e 353d 5e35 1d3c
000000f0: 1554 f2bc 03e9 553d 8e91 39bb d2ba 09bc
00000100: cd92 673d ce76 463c b850 883c 20be 63bd
00000110: 43e6 263c cf60 dd3c d85a d03c f4f1 48bd
00000120: 470d fe3b 44cb ed3c 6680 28bd 4e59 11bd
00000130: 945d 2bbc 01ab 353d b299 f9bc f25f 5bbb
00000140: 423f 323d 1e59 113d 7a9e 503d 4f6e c7bc
00000150: 805f 953c 77e1 16bd 323e 82bc e3a4 f4bc
00000160: 37e2 be38 c622 b53c 4f91 ef3c 2b6b d3bc
00000170: 1967 693d 165b 1f3b 556b 4e3d 20e3 fabc
00000180: 992a 94bc fb3c d8bc 7ea1 24bb ae78 39bd
00000190: 36e3 6f3d d079 a9bb 1da7 573d 9318 6e3d
000001a0: e7e4 d7bc 68ca 6c3d d622 07bd da3f 63bd
000001b0: fb0c cc3b 4544 9b3c a7bc 40bd fd4b bd3c
000001c0: 0068 553d 3778 053a dc0c 42bb 54cc 3fbd
000001d0: f855 60bd 2d7a 5f3d 2e74 173d b3d5 11bd
000001e0: 19f9 4e3d 161a d7bc 7830 00bd df64 f33c
000001f0: d392 e53a 6acc 4abd db70 053d 3594 be3c
00000200: 2cc0 03bd 22a9 b03c 57c8 7a3b 1c7a 60bd
00000210: b4f8 413d 8cd6 c8bb 4a0a 57bd 71ae 29bd
00000220: f8b1 80bd 41a2 aabb 7ea1 75bd cfeb 81bc
00000230: 9edb c73c 6a64 69bd eace 6e3d 32a8 cebb
00000240: 83d9 2f3d 2472 7abc dff5 43bc 9b80 583d
00000250: dc98 c43b f3a6 293d 6ee4 1b3d a9bb d0bc
00000260: 5ac4 3e3d 30b7 723d bf5a 1b3c e24c 9dbc
00000270: 0780 39bd 6c10 49bd c9c8 473d a78d 083d
00000280: 538e acbc c166 d33c 6a45 933c 629b cc3c
00000290: 7f27 02bd 0a4a 40bd 1f1c d23b e4c5 22bd
000002a0: 03ab 503d 95e0 15bd 50af eebc 10b4 473d
000002b0: 193c 1b3d ad5a 283c b939 183b d63b a7bc
000002c0: 2be1 9e3c 1760 80bc e223 ca3a b7ef f53c
000002d0: 3579 9eba 740a 5dbd 34b5 313d 47f1 343d
000002e0: a821 33bd 57fb 133c 5878 e63c c143 733d
000002f0: 3adb 253d 1bc4 e33c 85a6 25bd 67b1 52bd
00000300: b536 623d 10e4 44bd 8e37 cb3c 9061 4fbd
00000310: 1bae e03c eb0f 293d 9fa9 503d f6fd c03c
00000320: 1888 eb3c d02f e7bc 66c3 133c a92e 463d
00000330: 1312 ae3c ddf8 313d 57a7 db3c c10c 03bc
00000340: 0c47 2c3d 5318 be3c a9de 6b3d 690f 8dbc
00000350: 1383 81bb 066b 28bd 51be fcbc c869 25bd
00000360: 03a3 53bd c702 e4bb 7393 30bd 80f7 2ebc
00000370: 9cb0 df3c 0c40 5fbc 43ba bd3a 974c c33c
00000380: 7047 e63c 5a39 5dbd 7776 013c a126 e33c
00000390: dde5 0d3d 7bf2 143d 6470 18bd ab8a 17bc
000003a0: 5e16 8d3b 9d77 ffbc 2051 ab3b c6b2 533d
000003b0: bf91 f4bc 7f14 493c c200 ae3c e7a4 cdbb
000003c0: 636a 943c a83f 503d 98a5 e83a a5a7 15bd
000003d0: e1b8 bd3c 7f82 933c 4397 cebc b704 1bbd
000003e0: 901d f23c 914a 08bd 7002 6f3d 9989 013d
000003f0: e7ac aebb b4e1 5cbd cf5c 233d 2e9d 463d
0.031944863 -0.00086935045 0.039389845 -0.015510635 -0.018060364 0.044241775 -0.036476247 -0.028875569
0.0016681732 -0.007833482 0.003977374 -0.015434674 0.0026583995 0.04317295 0.022858717 -0.036287468
0.059166435 -0.0006950331 -0.020453535 -0.04298549 0.019952094 0.015115293 0.0053092767 -0.015769988
-0.015922386 0.012086642 0.0046091257 -0.029420447 -0.033302374 -0.021403374 0.020968903 0.0031541702
-0.00138046 -0.048303816 -0.019741619 -0.04354584 -0.035307504 -0.012122384 -0.004633292 0.039130118
-0.05399754 0.018686943 -0.035110597 0.00046432478 -0.05530012 0.048800558 0.028594052 -0.0071358876
-0.0178381 -0.035245817 0.04353104 0.033914436 -0.019621825 0.0066498104 -0.04461778 0.00501829
0.03693091 -0.004173134 0.044234138 0.009595243 -0.029581109 0.05222417 -0.0028315517 -0.008406358
0.056536485 0.012113286 0.016640052 -0.05560124 0.010186735 0.027023701 0.025433943 -0.04905887
0.0077530476 0.029027589 -0.041138075 -0.03548556 -0.0104593225 0.044352535 -0.030468795 -0.0033473936
0.04351736 0.03548538 0.050932385 -0.024344591 0.018234015 -0.036836114 -0.015898798 -0.02986378
9.102042e-05 0.022111308 0.029244093 -0.025807938 0.056983087 0.0024315766 0.05039533 -0.03062588
-0.018086718 -0.026396265 -0.002512067 -0.045281105 0.058566295 -0.005171992 0.052649606 0.058128905
-0.026354266 0.057810217 -0.032992207 -0.055480815 0.0062271333 0.018953452 -0.047054913 0.023107523
0.052101135 0.0005091461 -0.0029609716 -0.04682572 -0.054769486 0.054559875 0.036976032 -0.03560419
0.050530527 -0.026257556 -0.031296223 0.029711185 0.001751507 -0.04951135 0.03257833 0.02326403
-0.03216569 0.021565024 0.0038266385 -0.054803953 0.047356322 -0.0061290916 -0.052500047 -0.041426126
-0.06283945 -0.0052073305 -0.059968464 -0.015859513 0.024396714 -0.056980528 0.058302797 -0.0063066715
0.042932045 -0.015286002 -0.011960476 0.052857023 0.0059996676 0.04141898 0.038059644 -0.025480108
0.046573974 0.059256732 0.009482085 -0.0192017 -0.045288112 -0.049087927 0.048775468 0.033338215
-0.02106396 0.025805833 0.017977435 0.024976436 -0.031775948 -0.04694561 0.0064120437 -0.039739504
0.05094434 -0.03659113 -0.02913633 0.048755705 0.03789911 0.010275525 0.0023227765 -0.020414274
0.019394478 -0.01567082 0.0015422071 0.030021532 -0.0012090566 -0.053965047 0.0433857 0.044175413
-0.04373327 0.009032092 0.028133556 0.059390787 0.040492274 0.027803471 -0.04044201 -0.051438715
0.055227954 -0.04806906 0.024806764 -0.050630152 0.02742677 0.041274946 0.050943013 0.023558598
0.028751418 -0.028221041 0.009018755 0.048384342 0.021248853 0.043450225 0.026813192 -0.007998646
0.042059943 0.023204958 0.057585392 -0.017219262 -0.003952393 -0.04111769 -0.030852469 -0.040384084
-0.051669132 -0.006958339 -0.04310937 -0.010679126 0.027305894 -0.01362611 0.0014475066 0.023840232
0.028110236 -0.054009773 0.007901779 0.02772838 0.034643043 0.03636406 -0.03721656 -0.00924937
0.004305645 -0.031184966 0.0052281767 0.051684164 -0.029854653 0.012272953 0.021240596 -0.0062757614
0.018117135 0.050841957 0.0017749546 -0.03653683 0.023159446 0.018006561 -0.025218612 -0.037846293
0.029555112 -0.033274237 0.058351934 0.031625364 -0.00533067 -0.053926185 0.03988343 0.048489742

head.0.bias f4 [128]
00000000: ba14 693d e0b9 5b3d f80e fe3c 1da7 4c3d
00000010: 8623 c6bc 20bc bbbc c2d6 f8bc e8f0 5b3b
00000020: c302 983b f0a5 033c 9c74 013d 078f 3d3d
00000030: 2785 0fbd 83ad 20bc df1d babc c189 343d
00000040: 8144 a23c c4b7 533c 2529 103c feb3 bcbc
00000050: 65a5 ef3c 4680 4dbc c369 a73a 3f46 66bd
00000060: 22b8 103d 986e d2bc 6aba 01b9 76fb 5a3d
00000070: c6c0 46bc 68b7 c0bc aa39 d33c 2cfa 323d
00000080: f3e3 30bd cb99 afbb f053 b23b eb02 44bd
00000090: 16f9 063d aa85 46bc 7bbf 53bd 28ad 45bd
000000a0: 70dd 71bd 746b 08bc 49d4 31bd 29cf b33c
000000b0: 3326 3ebd 92ca a93c 74fd f73c 6481 d7bc
000000c0: acb1 85bb dc84 433d 314e ffbc 186c 52bc
000000d0: 686d 4b3c 8cc5 ddbc 510d aeba 2be3 18bd
000000e0: 106b 6a3d 99fa 7d3b 2af3 303d 95ec db3c
000000f0: 10f0 4dbd 709e 8cbc 03f3 053d 9f22 1fbd
00000100: 17e7 923c 7748 d03c fdea 3c3d 6012 5bbd
00000110: fa2d ff3c ddc2 7c3c a2ae 643d caa6 003d
00000120: e880 1d3d 2d70 943c c4d5 c9b9 61f3 8e3b
00000130: 4d23 e4bb 84c6 3b3d 0a17 fa3c f99d 613c
00000140: 8337 003d 2043 773d c845 aebc d696 04bd
00000150: 5b25 593d b298 24bb f5b9 35bd 0748 8c3b
00000160: bfbd 5b3d a4c0 153d 246a 07bc 171f 293b
00000170: b7df 0e3d 0ea6 d43b c2aa f6bc 2c87 5ebd
00000180: 2b12 37bd 340b 1e3d 8a40 963c 4b2d 9ebc
00000190: f66a acbc 3230 58bd da79 22bc 7e9e 92bc
000001a0: 02ad 043c b0d6 5fbd 84c0 e73c 7069 233c
000001b0: f6aa 1d3d 9356 113d a003 50bd 6f14 0a3d
000001c0: 38f5 42bd c1b7 a0bc 9e18 a0bc dabc 34bd
000001d0: 26a3 37bd 126f 65bd d3bf 37bd 7707 ad3c
000001e0: 16f6 2ebd ef73 193d d5f1 91bb 4772 dabc
000001f0: f4ea b3bc fb71 323d 7c0d 5dbc cd4d 47bd
0.056904532 0.05364406 0.031012997 0.04996406 -0.02418686 -0.022916853 -0.030375842 0.003356034
0.004639001 0.008035168 0.031605348 0.04627898 -0.035039093 -0.009806993 -0.022719322 0.044076685
0.019808056 0.012922231 0.008798872 -0.023035046 0.029253671 -0.01254279 0.0012772608 -0.056219336
0.035331853 -0.0256875 -0.00012371843 0.053462468 -0.012130922 -0.023524955 0.025784332 0.043695614
-0.04318614 -0.0053589097 0.005442135 -0.047854345 0.03295239 -0.012116829 -0.051696282 -0.048260838
-0.05904907 -0.0083264 -0.04341534 0.021949368 -0.04642315 0.020726476 0.030272223 -0.026306815
-0.004080018 0.047734126 -0.031165214 -0.012843154 0.012416221 -0.027071737 -0.0013279115 -0.03732602
0.05723101 0.0038754104 0.04320065 0.02684621 -0.05027777 -0.017165393 0.032702457 -0.038851377
0.017932458 0.025425179 0.04612254 -0.05348432 0.031149853 0.015427318 0.055830605 0.031409062
0.038453013 0.018119896 -0.00038496975 0.004362509 -0.006962216 0.045843616 0.030528564 0.013770574
0.03130294 0.06036675 -0.021273509 -0.03237041 0.05301414 -0.0025115428 -0.044366796 0.0042810473
0.053647753 0.03656067 -0.008265052 0.0025805885 0.03488132 0.006489522 -0.03011072 -0.05432813
-0.04469506 0.038584903 0.018341321 -0.019308707 -0.021047097 -0.052780338 -0.009916747 -0.01789784
0.008097889 -0.0546481 0.02829004 0.009973869 0.03849312 0.035482954 -0.050784707 0.033710893
-0.04759714 -0.01961887 -0.019542988 -0.044125415 -0.044833325 -0.056014128 -0.044860672 0.021121724
-0.042715155 0.03746408 -0.0044538775 -0.02666582 -0.02196262 0.04356573 -0.013491984 -0.04865818

head.2.weight f4 [6, 128]
00000000: b0de b73d 32c2 6e3d e259 2dbd 95e3 1c3d
00000010: d2be 373c 7084 afbb 2b09 0b3d d081 993d
00000020: 6468 0a3d 27a6 8fbd f129 a3ba 091d c4bc
00000030: 1208 46ba 2c17 b93c 2a1f 81bc 84e8 91bc
00000040: f494 9a3d 224a 40bd 3643 62bd 0c89 cabb
00000050: 4a0b 7f3d ffca 7cbd eba7 b23d 8b27 703d
00000060: 6934 94bd 3bad 353d c944 27bd fdd0 6dbd
00000070: 986a 873d e6f0 603d 7e56 16bd fcd9 53bd
00000080: 4efa 663d 4879 84bc 5b37 d33d 6918 ad3b
00000090: 1251 2bbd 5f21 b43d 441e 7c3d 3941 85bd
000000a0: f704 c03c 259a a53c 7730 513d 6de9 0c3d
000000b0: 07a6 a63c 7215 903d 5a76 4c3d 36d4 133d
000000c0: 0de3 aebd e845 7c3d 9cff 0d3c 2080 14bd
000000d0: 5d3b 6cbd 8f9a dd3c 73bf eb3d b08b bebc
000000e0: 7d31 7c3d 3c7f 143d 34ed 663c ca5d bcbc
000000f0: 5609 02bd eca7 85bd 13f1 aa3d d4b1 67bc
00000100: 0c53 533d 03e2 67bc a3fe bf3c a4de a53d
00000110: d31a 71bd 9af1 b13d bd80 1e3d 998e dabc
00000120: b7cc ab3b c8d1 673d ed99 1cbd e45a cdbc
00000130: 0a58 a1bd bded a23d 412e 753d 3703 643d
00000140: 0bdd 3cbd ec13 2a3d a1b2 573d 47d3 4bbd
00000150: e119 43bd 8803 973b e506 c93c fb93 ec3c
00000160: 7a02 85bd fbda c03d 1182 c93c d676 b43c
00000170: b600 efbc f3bf d33c 6e68 93bd 3869 41bd
00000180: 903e 1f3d c973 d33d c700 1bbd 727b bb3d
00000190: 8bca d4bc 042d 99bd d6d8 9a3d 2558 b73d
000001a0: 235b fa3c 2255 08bd d8f7 0fbc 0f03 a13d
000001b0: 4708 ed3c b79f aa3d 66aa a03d 498e d6bb
000001c0: 7c5a cb3d 32e4 85bd 7829 873d 1202 1ebd
000001d0: 8d5a e2bc 3aad e6bb 3850 61bd 6cf5 333d
000001e0: 655e 0cbd 0b4f 09bd 928b a93d 5cca 223d
000001f0: 5885 053d 3785 cd3c 51c4 51bd 4a42 d13d
00000200: b2f0 99bd b948 7fbd 1010 9c3d b74a 62bc
00000210: a3a9 e1bc f3c1 713b c8f2 bdbc 2f39 e83c
00000220: 592f b43d a4c3 993d 1baa 0cbc b627 f03c
00000230: cb1f a3bc 427c 273d f2c0 f13c a9c8 e03c
00000240: 583e 273c bd13 38bd 3b7b 9f3d 5b34 663c
00000250: 3dfc 09bd 015b b2bd c98f 9e3d fbad 8ebd
00000260: be9f 543d 29a1 a3bd 7640 173a d252 2c3d
00000270: 0615 16bd 70bd 42bd ef66 b2bc 2cfd debc
00000280: 115f c8bb ebd3 25bd d02c 0bbb 2beb c03c
00000290: 56fa a9bc 7e9c b33d 53fb e93c db96 7e3d
000002a0: f6d0 243c c448 a63d 302c 0a3d 24a8 9bbd
000002b0: 3648 9b3d 2511 15bd f87a 853d c496 1cbd
000002c0: 5de5 a9bd c47e a0bd 4183 f93c aad4 593d
000002d0: ba97 663d a890 943d b93f 22bd 457c 623d
000002e0: bbaf e9bc 8b9e 13bd 2a04 573b 60d9 353d
000002f0: 5294 90bd 2d9a a83d 67f7 9b3b bb17 abbd
00000300: 3e90 563d b264 093d 040b 6c3c f1b5 dc3c
00000310: e25d d3bb 1e5c 603d b2c3 9abd 2d83 40bc
00000320: 7082 85bd 0457 81bd 33f1 84bd 071d 30bd
00000330: 3b93 293c c285 96bd b512 9abd 467a 42bd
00000340: 926c ea3c 2f0e 51bd 4e0d 7cbc eb07 2bbc
00000350: 002d a6bc 033d b33d 9d41 303c 2228 8abc
00000360: 9690 1e3c e524 52bc 81d6 7c3d 2f65 83bd
00000370: 6fd2 2cbc d1a2 67bd 8ef9 45bd 7d3d 843d
00000380: f6d9 a0bd dae5 acbc 5bd2 0d3d 7372 8d3c
00000390: 05a7 04bd e616 4d3c dc3b c6bc 1d0a 36bc
000003a0: 1de3 9bbd a992 3dbc 6ed4 28bd 831c 68bd
000003b0: 6f6f 313d 5501 533c c9c2 b6bc b65c b2ba
000003c0: 48fb 973d 3942 c33a d517 4abd 831b 57bd
000003d0: 303f 1fbd 9db2 083d 74c0 4fbd bbd3 a9bc
000003e0: 4eb1 203c 13af 61bd 2e65 573d 0b39 113c
000003f0: b986 aa3d 94d2 83bd 3fec 0ebd 069b 96bd
0.08978021 0.058290668 -0.042322047 0.038302977 0.011214929 -0.005356364 0.03394429 0.07495463
0.03379096 -0.07014113 -0.0012448413 -0.023939626 -0.0007554303 0.022594057 -0.01576193 -0.017811067
0.07547942 -0.0469457 -0.05523988 -0.006180888 0.062266625 -0.06171703 0.08723434 0.05863146
-0.07236559 0.04435466 -0.040837083 -0.058060635 0.06612128 0.05491724 -0.03670358 -0.051721558
0.056391053 -0.016171113 0.103132926 0.005282451 -0.04182536 0.087954275 0.0615523 -0.06506581
0.023439867 0.020215103 0.05107161 0.0344023 0.02034284 0.0703534 0.049917556 0.036091052
-0.085394 0.061590105 0.008666899 -0.036255002 -0.0576738 0.027051238 0.115111254 -0.023259968
0.061570633 0.036254153 0.01409464 -0.02299394 -0.031747185 -0.06526169 0.083467625 -0.014141519
0.05159287 -0.0141530065 0.02343685 0.08099106 -0.058863472 0.0868866 0.038696993 -0.026679324
0.00524291 0.056596547 -0.038232733 -0.025067754 -0.0787812 0.07955501 0.059858564 0.05566713
-0.04610924 0.041522905 0.05266059 -0.049762037 -0.047632102 0.0046085753 0.02453942 0.028879156
-0.06494613 0.09416767 0.024598153 0.022029322 -0.029175144 0.025848364 -0.07197653 -0.047219485
0.038878024 0.10324819 -0.03784254 0.09154405 -0.025975486 -0.07479289 0.075608894 0.08952359
0.030561035 -0.033284314 -0.008787118 0.078619115 0.028934611 0.083312444 0.07845001 -0.0065477234
0.09929368 -0.065376654 0.065997064 -0.038576193 -0.027631069 -0.007039693 -0.055008143 0.043935224
-0.03426971 -0.033522647 0.08278574 0.039743766 0.03259787 0.025087936 -0.051212613 0.10217722
-0.07516612 -0.062325213 0.07620251 -0.013811759 -0.02754671 0.0036889284 -0.023187056 0.02834758
0.08798093 0.075080186 -0.008585478 0.02931581 -0.019912621 0.040889986 0.029510949 0.027439432
0.010207735 -0.0449407 0.07787176 0.014050568 -0.03368782 -0.08708764 0.077422686 -0.06966778
0.051910155 -0.07989723 0.00057697983 0.04207117 -0.036641143 -0.047543943 -0.021777598 -0.027220331
-0.0061148484 -0.040485304 -0.0021236427 0.023549637 -0.020749252 0.08770083 0.028562224 0.062155586
0.010059586 0.08119348 0.033733547 -0.0760043 0.075821325 -0.036393303 0.06517595 -0.03822972
-0.08295701 -0.078366786 0.030458095 0.053181328 0.05629704 0.072541535 -0.039611552 0.055294294
-0.028526178 -0.03603987 0.0032808878 0.044396758 -0.0705954 0.08232532 0.0047597173 -0.083541356
0.052383654 0.033543296 0.014406923 0.026942225 -0.0064504007 0.05477535 -0.07556857 -0.011750025
-0.065190196 -0.06315425 -0.064913176 -0.042996433 0.010350044 -0.07349731 -0.07523099 -0.04747989
0.028616223 -0.051038917 -0.015384031 -0.0104388995 -0.02028513 0.087518714 0.010757831 -0.01686484
0.009678027 -0.012826179 0.061728004 -0.064157836 -0.010548218 -0.05655176 -0.048333697 0.064570405
-0.07854073 -0.021105696 0.03462444 0.017266488 -0.032385845 0.012517666 -0.024198465 -0.01111081
-0.07611678 -0.011570611 -0.041218214 -0.056667816 0.043319162 0.012878736 -0.022309678 -0.0013607952
0.07420975 0.0014897055 -0.049339134 -0.05251647 -0.03887862 0.033373464 -0.050720647 -0.020730844
0.009807898 -0.055098604 0.052586727 0.008863698 0.083264776 -0.06436649 -0.03489327 -0.07353787

head.2.bias f4 [6]
00000000: 7421 b93d b683 9ebd 1aa9 b4bd bc99 cb3c
00000010: 66dd 283d 46a6 99bd
0.09039584 -0.077399656 -0.08821316 0.02485358 0.041226767 -0.07502417
