models_decentralized/final/policy_2_2800.pth (torch, 163209 bytes, 10 tensors)

conv.net.0.weight f4 [3, 31, 3, 3]
-0.1711224 0.13944611 -0.13713513 -0.03542496 -0.052393105 0.06880137 0.052994736 -0.008955928
0.04823308 -0.0024180182 0.017589271 -0.04607747 -0.07671202 -0.018996011 0.0542755 -0.08647627
-0.09821774 -0.13394004 -0.15448524 -0.033505306 0.07713434 0.09425981 -0.0707629 -0.0932862
0.0461355 -0.030106373 -0.16062102 -0.053846095 -0.020501304 0.0683379 0.10557095 -0.083835624
-0.14100695 0.095227905 0.10539447 -0.063229345 -0.156036 -0.10351005 0.055367447 -0.02725085
0.009806078 -0.04096222 -0.039647344 -0.13111189 -0.025565965 0.12506178 -0.054807726 -0.07326101
0.08866077 -0.044919908 -0.04471456 -0.08486005 -0.054615177 0.10022188 -0.052058768 0.048504364
-0.055347838 0.07245228 0.061562393 -0.07127525 -0.123099945 -0.046618704 -0.050415605 0.008157077
-0.1173835 0.13711618 0.044158254 0.11153562 -0.0167246 0.008248459 0.11249341 -0.018348824
-0.027183454 -0.083539605 -0.0018983062 0.07353964 0.01252695 0.136722 0.11643699 -0.086132616
-0.05998596 -0.035966665 -0.040141612 -0.14177048 -0.035259955 -0.01729736 0.119874895 -0.0715838
-0.1388732 -0.058803592 -0.014973838 -0.084904745 -0.033260945 -0.10944773 -0.1059281 -0.0080948565
0.111845486 0.08422438 0.12594256 0.0436928 -0.009191558 -0.04618504 0.057341058 0.099335395
-0.15217984 0.0420817 -0.03395761 0.06709251 -0.09946254 -0.12556739 0.109813474 -0.024371902
0.029519957 -0.012620188 0.13049483 -0.07989865 0.030096553 0.12582754 0.14173533 0.072852924
0.122209884 0.11147882 0.018600494 -0.1418382 -0.15061072 -0.04787711 0.080750145 -0.12830248
-0.0287006 0.084979534 -0.009154707 -0.022575902 -0.06440913 -0.04112922 -0.059119754 0.05562099
-0.061650172 0.011666165 -0.06417064 0.00584092 0.14950435 0.00040263537 0.12780923 0.07110605
-0.0041316207 0.104213126 -0.026163442 0.043257244 -0.11243998 0.050805215 0.088962525 0.1181108
-0.0899897 0.062017206 -0.019985965 -0.097533554 -0.14184265 -0.13410111 -0.052161153 -0.011972586
-0.10870881 0.011599929 0.1020305 0.13129807 0.09206736 -0.063831896 -0.09578499 0.041642588
0.081464455 0.08673677 0.09716352 0.13346836 0.11471052 -0.13172258 0.07121442 0.034740973
-0.13893645 -0.08622345 -0.009051033 0.08457189 0.06430562 0.005463983 0.045613457 0.068723455
-0.050894685 0.08473538 -0.09224958 -0.045703266 -0.12598051 0.008433266 -0.07059156 -0.026107218
-0.1318885 0.031651232 0.049778104 -0.13639548 0.10198608 0.14205882 0.1371247 -0.14965206
-0.027739888 0.12945783 -0.14039125 0.076252766 -0.10960808 -0.11920533 0.10109467 0.05534978
-0.009880516 -0.117718436 -0.119190656 -0.047593657 0.109645136 0.064445876 -0.09486451 0.015537192
0.13077721 0.10702336 -0.013019597 -0.061953526 0.1269675 -0.14345635 0.023406152 -0.102313325
-0.12481609 -0.057813585 -0.09077929 0.13563725 0.12414879 0.02653776 -0.023584524 -0.08206145
0.1370829 -0.14252241 0.012581194 -0.107825525 0.046625942 -0.037356973 -0.026562374 0.12982234
-0.075223066 0.004433219 -0.045859337 -0.09037143 0.032182932 -0.07695003 -0.021026427 -0.10925918
-0.09105748 -0.13428746 0.10134233 0.05535985 -0.034913886 -0.0075129694 0.03073536 0.09694407
00000000: b63a 2fbe f6ca 0e3e 276d 0cbe c319 11bd
00000010: 279a 56bd bce7 8c3d 0211 593d e2bb 12bc
00000020: 0d90 453d 9d77 1ebb 6017 903c bbbb 3cbd
00000030: 311b 9dbd 869d 9bbc fd4f 5e3d 781a b1bd
00000040: 6226 c9bd 9427 09be 6131 1ebe dc3c 09bd
00000050: 9cf8 9d3d 4a0b c13d 24ec 90bd d60c bfbd
00000060: 94f8 3c3d a4a1 f6bc d679 24be b98d 5cbd
00000070: 5af2 a7bc bef4 8b3d 9535 d83d 03b2 abbd
00000080: 2064 10be d906 c33d 0ed9 d73d 637e 81bd
00000090: e7c7 1fbe 14fd d3bd fac8 623d 2d3d dfbc
000000a0: aca9 203c 00c8 27bd 4165 22bd 3242 06be
000000b0: b76f d1bc 3210 003e 117e 60bd de09 96bd
000000c0: c793 b53d f0fd 37bd 9d26 37bd 1bcb adbd
000000d0: 2ab4 5fbd 2141 cd3d 933b 55bd 83ac 463d
000000e0: 6ab4 62bd dc61 943d d928 7c3d c2f8 91bd
000000f0: d31b fcbd 41f3 3ebd 9880 4ebd 43a5 053c
00000100: c366 f0bd 2f68 0c3e 49df 343d ca6c e43d
00000110: 0702 89bc 8b24 073c f262 e63d 4650 96bc
00000120: d6af debc d016 abbd 96d0 f8ba f39b 963d
00000130: d63d 4d3c da00 0c3e 8476 ee3d 4c66 b0bd
00000140: d7b3 75bd c851 13bd 886b 24bd 482c 11be
00000150: be6c 10bd 31b3 8dbc f880 f53d 879a 92bd
00000160: c734 0ebe 09dc 70bd d454 75bc 8ae2 adbd
00000170: a13c 08bd 2226 e0bd d5f0 d8bd 4aa0 04bc
00000180: 3f0f e53d d57d ac3d 16f7 003e 39f7 323d
00000190: 3098 16bc 862c 3dbd 75de 6a3d 5b70 cb3d
000001a0: 08d5 1bbe dc5d 2c3d 2317 0bbd cc67 893d
000001b0: 04b3 cbbd bd94 00be e3e5 e03d 95a7 c7bc
000001c0: d6d3 f13c e8c4 4ebc 70a0 053e e7a1 a3bd
000001d0: 0c8d f63c efd8 003e 1123 113e ea33 953d
000001e0: 2d49 fa3d 024f e43d 1060 983c 083e 11be
000001f0: b239 1abe ca1a 44bd 5560 a53d ba61 03be
00000200: 851d ebbc c009 ae3d a0fd 15bc 19f1 b8bc
00000210: efe8 83bd 1d77 28bd 8e27 72bd d6d2 633d
00000220: e484 7cbd 7123 3f3c e66b 83bd 3065 bf3b
00000230: ab17 193e ce18 d339 6ce0 023e 0ca0 913d
00000240: 8c62 87bb b16d d53d b754 d6bc 822e 313d
00000250: ef46 e6bd 2119 503d fc31 b63d 13e4 f13d
00000260: 854c b8bd c105 7e3d 9bb9 a3bc acbf c7bd
00000270: 333f 11be cd51 09be efa6 55bd aa28 44bc
00000280: b9a2 debd a10d 3e3c 5ef5 d03d 0073 063e
00000290: d08d bc3d 4cba 82bd ec2a c4bd 6b91 2a3d
000002a0: d6d6 a63d 0ca3 b13d abfd c63d eeab 083e
000002b0: 59ed ea3d 49e2 06be ded8 913d 8d4c 0e3d
000002c0: 5b45 0ebe ec95 b0bd c94a 14bc 0734 ad3d
000002d0: aab2 833d 360b b33b 2dd5 3a3d e2be 8c3d
000002e0: f276 50bd be89 ad3d 59ed bcbd 5933 3bbd
000002f0: 0901 01be ae2b 0a3c 4f92 90bd cede d5bc
00000300: c70d 07be b9a4 013d 20e4 4b3d 42ab 0bbe
00000310: 14de d03d de77 113e 6b6a 0c3e 643e 19be
00000320: c33e e3bc 9890 043e b9c2 0fbe 692a 9c3d
00000330: 337a e0bd ed21 f4bd b90a cf3d 73b6 623d
00000340: e3e1 21bc 5d16 f1bd 3b1a f4bd 91f1 42bd
00000350: a18d e03d 33fc 833d 5348 c2bd b58f 7e3c
00000360: 76ea 053e 102f db3d 2650 55bc fbc2 7dbd
00000370: c503 023e 39e6 12be 42be bf3c a689 d1bd
00000380: 949f ffbd f0cd 6cbd 7eea b9bd 7ee4 0a3e
00000390: b941 fe3d b765 d93c 5534 c1bc d50f a8bd
000003a0: 765f 0c3e 65f1 11be 5a21 4e3c a1d3 dcbd
000003b0: d8fa 3e3d a003 19bd 5699 d9bc 26f0 043e
000003c0: 8d0e 9abd 8944 913b 00d7 3bbd a814 b9bd
000003d0: 40d2 033d fa97 9dbd 9d3f acbc 47c3 dfbd
000003e0: 587c babd a782 09be 918c cf3d 03c1 623d
000003f0: dd01 0fbd 5b2f f6bb b9c8 fb3c 9d8a c63d

conv.net.0.bias f4 [3]
-0.017184302 0.021570522 0.0032822615
00000000: 18c6 8cbc aab4 b03c 361b 573b

conv.net.3.weight f4 [6, 3, 3, 3]
0.11850646 -0.1340304 0.083821535 -0.20835719 0.13829385 -0.10345414 -0.28707814 0.11348129
0.15661256 -0.22788233 0.34956717 0.049018066 0.29482475 -0.43895668 -0.019972086 -0.27879936
0.31613907 -0.18017255 0.14133763 0.19227278 0.09199077 0.428477 0.45758328 -0.003950812
0.16781692 -0.45774823 -0.30790663 0.113991156 -0.30874667 -0.28903988 0.35046807 -0.46148357
0.2464941 -0.1805895 0.44894353 -0.29330763 -0.40069363 0.00031381723 0.132255 0.054716546
-0.46759295 0.24133103 0.34803075 -0.40271968 0.047627546 0.22580339 0.44853154 -0.16061717
-0.1410586 0.03160864 -0.43100616 0.316978 -0.22595212 0.41277525 0.34301418 -0.30379352
-0.23755512 0.20133378 0.06256475 0.3517192 -0.22273572 -0.0069831754 -0.40405068 -0.027971342
0.35857373 0.35729396 0.024382541 -0.2618324 0.12661955 0.115615256 -0.17011893 0.18536638
-0.411626 0.43796176 -0.38610107 0.115384854 0.4096113 0.40955058 0.41416493 -0.009893691
0.33658305 -0.37953377 -0.48222542 -0.087183565 -0.33493415 0.44354466 -0.19725378 0.15994881
0.12729895 0.18997008 -0.4378698 0.32683352 0.12502968 -0.3660247 -0.08775848 0.23437992
-0.32089886 0.06439027 0.040986173 -0.17176068 -0.18136449 0.09426564 0.33078152 -0.36031002
-0.15938275 -0.24801748 -0.3426523 0.44358504 -0.45212996 0.33887145 -0.048351888 -0.35455984
0.28565025 0.3817275 0.40512237 -0.30455625 -0.32502386 -0.30868703 -0.28367034 -0.05379515
0.45631534 0.37788042 0.29882386 -0.45204335 0.4652579 -0.3650816 0.090383165 0.02538392
0.42019618 -0.306363 0.25001124 -0.03988611 0.021681117 -0.025458332 0.3418769 -0.22433409
0.12508136 0.29038602 -0.44370893 -0.09011806 -0.1162598 -0.12357761 0.17452551 0.082290545
-0.3365684 -0.4337789 -0.11793042 0.20631428 0.16167599 -0.100526765 0.025895827 0.4208385
-0.13153054 0.23095201 0.093063645 0.2941133 -0.44108903 0.15589792 0.3582454 -0.4052646
0.36823893 -0.20625705
00000000: 84b3 f23d 443f 09be a0aa ab3d 965b 55be
00000010: e79c 0d3e c4df d3bd e8fb 92be e168 e83d
00000020: 0b5f 203e fc59 69be 78fa b23e 2bc7 483d
00000030: 45f3 963e eebe e0be 809c a3bc cabe 8ebe
00000040: fbdc a13e 277f 38be d0ba 103e 28e3 443e
00000050: a865 bc3d 5661 db3e 5b48 ea3e d075 81bb
00000060: 33d8 2b3e fa5d eabe f0a5 9dbe 3274 e93d
00000070: 0b14 9ebe 09fd 93be 8d70 b33e 9347 ecbe
00000080: f368 7c3e 74ec 38be eddb e53e 6b2c 96be
00000090: b727 cdbe d687 a439 db6d 073e 751e 603d
000000a0: 5868 efbe 7b1f 773e 1631 b23e 4631 cebe
000000b0: 1a15 433d 0139 673e eda5 e53e d478 24be
000000c0: aa71 10be 1078 013d d7ac dcbe f14a a23e
000000d0: fe5f 67be 4757 d33e 8e9f af3e d38a 9bbe
000000e0: a641 73be 712a 4e3e f321 803d 8a14 b43e
000000f0: d514 64be 1fd3 e4bb bbdf cebe 2824 e5bc
00000100: fa96 b73e 3cef b63e e5bd c73c e50e 86be
00000110: 8ea8 013e b1c7 ec3d a833 2ebe afd0 3d3e
00000120: a5c0 d2be 863c e03e 0aaf c5be e54e ec3d
00000130: 93b8 d13e 9db0 d13e 6d0d d43e 2619 22bc
00000140: 9d54 ac3e 4052 c2be 40e6 f6be 4c8d b2bd
00000150: 7d7c abbe 4918 e33e e5fc 49be 9fc9 233e
00000160: a85a 023e 8487 423e 7830 e0be b956 a73e
00000170: c807 003e 9767 bbbe b8ba b3bd 4a01 703e
00000180: db4c a4be 0cdf 833d 1ee1 273d 08e2 2fbe
00000190: 9db7 39be 580e c13d 325c a93e 8e7a b8be
000001a0: 3b35 23be 4bf8 7dbe 1f70 afbe 941d e33e
000001b0: 947d e7be 8f80 ad3e a10c 46bd de88 b5be
000001c0: c040 923e c971 c33e 336c cf3e ccee 9bbe
000001d0: 8769 a6be 3a0c 9ebe 3d3d 91be 4e58 5cbd
000001e0: 2aa2 e93e 8b79 c13e 71ff 983e 3a72 e7be
000001f0: 4936 ee3e faeb babe cf1a b93d f0f1 cf3c
00000200: f423 d73e 9cdb 9cbe 7901 803e 9e5f 23bd
00000210: 999c b13c fe8d d0bc 7d0a af3e d6b7 65be
00000220: 5415 003e 7aad 943e d12d e3be d18f b8bd
00000230: 9e19 eebd 4216 fdbd d1b6 323e f287 a83d
00000240: b152 acbe 4518 debe 8185 f1bd 0d44 533e
00000250: 648e 253e fae0 cdbd 7c23 d43c 2578 d73e
00000260: f1af 06be af7e 6c3e 2798 be3d 0596 963e
00000270: 6cd6 e1be b4a3 1f3e f16b b73e d77e cfbe
00000280: d089 bc3e 0c35 53be

conv.net.3.bias f4 [6]
-0.0063819424 -0.026722379 0.017249512 0.0013546427 0.008659324 -0.0052325455
00000000: 9d1f d1bb e4e8 dabc d94e 8d3c 448e b13a
00000010: d6df 0d3c c675 abbb

conv.net.6.weight f4 [6, 6, 3, 3]
0.11339884 -0.25308138 0.15802698 0.12738939 -0.1314444 -0.2958664 0.0030610708 -0.13139947
-0.07799881 0.113299504 -0.09244512 -0.2075214 -0.27224436 -0.31392735 -0.31845504 -0.1549669
0.23336037 -0.07582142 -0.3296725 -0.32206658 0.24048464 -0.31782955 0.21717039 -0.16406262
0.08143937 0.22191615 -0.12636039 -0.22732565 0.03637636 -0.27533743 0.12436777 -0.0630186
0.13931584 0.0073076156 0.1787203 0.20160174 -0.223786 0.13303375 -0.28114992 -0.14277379
-0.3027896 0.05898904 0.07724633 -0.20046116 0.23599547 0.17279083 0.1525908 -0.115403324
0.056058247 -0.2694625 0.088445164 0.06998109 0.2730008 0.111914694 -0.31553248 0.12956358
0.26326343 -0.11267724 0.015787479 -0.14114986 0.23796852 -0.038597792 -0.00754697 -0.3310949
-0.03624199 -0.002870301 0.13126436 0.006339694 0.09168152 -0.13055034 -0.19070727 -0.21414725
0.30370733 -0.29896224 -0.10828279 0.17260948 0.22580297 0.2869624 -0.28857696 -0.2511684
0.15991893 0.22240151 -0.076794304 -0.082772285 -0.06727222 0.21459147 -0.3343514 -0.22119111
0.07931545 -0.1540589 -0.016972637 -0.21544191 0.00699886 0.09031829 -0.14949252 -0.09607499
-0.31860143 0.059596892 0.22080332 0.26654693 0.26362303 -0.082359485 0.19010305 0.17122442
0.22702272 0.29992956 0.22342023 -0.31281158 0.20560287 0.21173991 -0.17360315 -0.28559992
0.17549162 0.13583218 0.07748535 -0.009258393 0.03693282 -0.18137969 0.30821437 0.049763754
0.13488077 0.085563995 0.08396576 0.08261103 -0.032376904 0.30854845 0.2102313 -0.102385394
-0.19680287 -0.25654295 0.18354338 -0.006060181 0.16640928 -0.30056602 -0.19842952 -0.32213005
0.122474335 -0.2765532 -0.09715929 -0.11575225 0.20476356 0.09826995 0.098402 -0.15238112
-0.15300478 -0.32323328 0.10978208 0.095008016 -0.0066081616 -0.24407265 0.023075687 -0.19110705
-0.30325356 -0.0056051807 0.31998268 -0.008858492 -0.06334821 0.1266341 0.10933782 -0.1415131
0.056851767 -0.15979029 0.10175432 0.17558353 -0.26665 -0.12704961 0.011158837 -0.0137490155
-0.100504674 0.08333591 -0.061364263 0.09695293 0.105504334 0.28057474 -0.044829037 0.0030655554
0.1262672 0.22674386 -0.31463522 -0.3299302 0.29825848 0.122351855 0.22573617 -0.34140962
-0.34283555 -0.19250838 -0.34210467 0.12491598 -0.1788927 -0.12588257 0.13426319 0.09075992
-0.091518864 0.096945204 -0.09871792 -0.12342295 0.013876311 0.25808075 -0.052457184 0.16146874
0.31022155 0.26637304 0.16557652 0.1752866 0.25530422 -0.17150065 0.17805785 0.24013236
-0.04809811 0.21632797 -0.043197997 -0.307827 0.14408574 -0.23537056 -0.03147583 -0.044936046
0.16348901 0.11013273 -0.09065255 -0.07541831 -0.27605224 -0.014038115 -0.27018738 0.24315059
0.18752944 0.09678238 0.199991 -0.25180188 -0.2742798 -0.29696295 -0.008131731 0.029524578
-0.12770501 -0.22003125 -0.01446903 0.2894254 -0.2809735 -0.021467635 0.050413396 -0.29114497
-0.21992663 -0.26685727 -0.09090544 -0.05322233 -0.012094674 -0.15728137 0.01117448 -0.056048237
0.3277166 0.30148968 -0.15050104 0.3169735 0.30148178 -0.33067396 -0.011711923 -0.3152137
00000000: a73d e83d e293 81be d3d1 213e 5d72 023e
00000010: 5c99 06be cd7b 97be 3f9c 483b 958d 06be
00000020: d7bd 9fbd 9209 e83d de53 bdbd 7d80 54be
00000030: 9d63 8bbe 16bb a0be 8a0c a3be a5af 1ebe
00000040: 05f6 6e3e 4348 9bbd d5ca a8be e9e5 a4be
00000050: 9b41 763e 8eba a2be ea61 5e3e 0800 28be
00000060: afc9 a63d fd3d 633e 9e64 01be 0ec8 68be
00000070: 61ff 143d 07f9 8cbe 88b4 fe3d e50f 81bd
00000080: d0a8 0e3e b974 ef3b 7402 373e b070 4e3e
00000090: 2828 65be 003a 083e e2f2 8fbe 4b33 12be
000000a0: 3d07 9bbe 7e9e 713d 5333 9e3d b145 4dbe
000000b0: cca8 713e 14f0 303e c340 1c3e 9458 ecbd
000000c0: 559d 653d fdf6 89be bd22 b53d 3f52 8f3d
000000d0: c3c6 8b3e 8833 e53d 798d a1be 51ac 043e
000000e0: 77ca 863e 53c3 e6bd be54 813c 9789 10be
000000f0: 05ae 733e b818 1ebd 934c f7bb 4585 a9be
00000100: 7b72 14bd a91b 3cbb 2a6a 063e 35bd cf3b
00000110: 85c3 bb3d fdae 05be c448 43be 6b49 5bbe
00000120: 877f 9b3e 9411 99be 5ec3 ddbd 8ac0 303e
00000130: e538 673e bcec 923e 5cc0 93be 2599 80be
00000140: cac1 233e 39bd 633e 5546 9dbd 8484 a9bd
00000150: 05c6 89bd debd 5b3e 1b30 abbe ec7f 62be
00000160: 2370 a23d 9ec1 1dbe 330a 8bbc ce9c 5cbe
00000170: b156 e53b ccf8 b83d 9114 19be f7c2 c4bd
00000180: ba1f a3be df1b 743d 441a 623e d778 883e
00000190: 99f9 863e 17ac a8bd 60aa 423e 7455 2f3e
000001a0: a578 683e 5e90 993e 46c8 643e d728 a0be
000001b0: 8f89 523e 59d2 583e 06c5 31be 273a 92be
000001c0: 13b4 333e 9717 0b3e a4b0 9e3d 84b0 17bc
000001d0: de46 173d 99bb 39be 46ce 9d3e 14d5 4b3d
000001e0: 2f1e 0a3e 2d3c af3d 3ef6 ab3d f92f a93d
000001f0: a59d 04bd 10fa 9d3e e046 573e 6faf d1bd
00000200: b186 49be 9959 83be ccf2 3b3e 7c94 c6bb
00000210: 3267 2a3e cae3 99be 1c31 4bbe 3bee a4be
00000220: d3d3 fa3d 6298 8dbe 73fb c6bd 840f edbd
00000230: 8aad 513e c141 c93d fd86 c93d cc09 1cbe
00000240: 49ad 1cbe d57e a5be 6dd5 e03d 9093 c23d
00000250: 4789 d8bb 2eee 79be 3909 bd3c 91b1 43be
00000260: 0d44 9bbe aaab b7bb c5d4 a33e 3523 11bc
00000270: b5bc 81bd 5fac 013e 82ec df3d cfe8 10be
00000280: 66dd 683d 11a0 23be 9264 d03d 2bcc 333e
00000290: 5986 88be 4b19 02be 8ed3 363c 8d43 61bc
000002a0: 65d5 cdbd 05ac aa3d 1859 7bbd 428f c63d
000002b0: a812 d83d 7ea7 8f3e a79e 37bd 7ce7 483b
000002c0: 304c 013e 8b2f 683e de17 a1be 9cec a8be
000002d0: 56b5 983e 9c93 fa3d 6227 673e 3ecd aebe
000002e0: 2488 afbe eb20 45be 5828 afbe f3d3 ff3d
000002f0: a62f 37be 5ce7 00be 4a7c 093e 56e0 b93d
00000300: 3e6e bbbd 358b c63d 9f2c cabd 2cc5 fcbd
00000310: 7759 633c 2923 843e 58dd 56bd 1058 253e
00000320: 5cd5 9e3e 0c62 883e e48c 293e 557e 333e
00000330: 3cb7 823e de9d 2fbe cc54 363e 42e5 753e
00000340: 8602 45bd 1485 5d3e 62f0 30bd 809b 9dbe
00000350: 368b 133e fb04 71be cdec 00bd dc0e 38bd
00000360: aa69 273e 458d e13d 0ba8 b9bd ea74 9abd
00000370: b856 8dbe 1f00 66bc 0056 8abe 78fc 783e
00000380: b807 403e d735 c63d 71ca 4c3e 2dec 80be
00000390: 676e 8cbe 870b 98be f43a 05bc 87dd f13c
000003a0: 1ac5 02be df4f 61be 830f 6dbc 912f 943e
000003b0: c2db 8fbe e5dc afbc 477e 4e3d f410 95be
000003c0: 7234 61be 84a1 88be a22c babd a8ff 59bd
000003d0: bd28 46bc 5e0e 21be 2b15 373c d692 65bd
000003e0: 78ca a73e db5c 9a3e f21c 1abe 5a4a a23e
000003f0: d25b 9a3e 194e a9be 5ee3 3fbc b163 a1be

conv.net.6.bias f4 [6]
0.0011600516 -0.01274404 0.0022470532 -0.0039553093 0.0019757363 -0.007042525
00000000: df0c 983a 61cc 50bc 4c43 133b 8a9b 81bb
00000010: 5b7b 013b fbc4 e6bb

head.0.weight f4 [128, 294]
0.013397487 0.024582468 0.0045745866 0.0043447586 -0.025132814 -0.022041582 0.038476814 0.011254914
0.03623516 -0.059523664 0.00044838234 -0.013549504 0.02798183 0.0022193205 0.026406499 -0.0033397572
-0.039507024 -0.023508448 0.04191129 0.00076196203 -0.005716578 -0.028894661 -0.02765783 -0.019886535
0.0066692447 -0.031759914 0.028051717 -0.016655402 0.0033717107 0.023618981 0.04926716 0.05363498
0.0019660834 -0.058101848 -0.01885367 -0.022543687 -0.023151638 0.005072376 -0.00243071 -0.04913789
0.02923123 0.025725285 0.035536975 -0.029923663 0.006467235 -0.048088633 -0.012133072 -0.051682048
-0.018041575 0.012135618 -0.03655625 0.03660945 0.017135726 -0.015893156 0.026456933 0.0349468
0.010985734 -0.06047593 -0.057836857 -0.024356296 0.031303365 -0.042214964 -0.03280807 -0.025537523
0.041481126 -0.02571731 0.009897634 0.04305942 0.050235197 -0.02018319 0.04833853 0.0024193346
0.013174324 -0.041187156 -0.022483831 0.03722853 0.012256161 0.010916283 0.032141842 -0.017042335
0.027933197 -0.024930226 0.026663339 -0.055272873 0.018816797 -0.028119458 -0.06408428 -0.05824053
-0.0030983707 -0.03989164 -0.019995363 0.0050730538 -0.0020437676 -0.03269782 -0.023210192 0.03549886
-0.027990712 -0.016292598 -0.060318712 0.04821772 -0.005841502 -0.060402002 -0.027685573 0.04988579
-0.031175004 -0.04365454 -0.01037485 -0.027414925 -0.00021553169 -0.0072381 -0.031244768 0.04120596
0.018890204 -0.06063393 -0.043520287 -0.05418004 0.00061732 -0.037192043 0.035107013 -0.045232102
-0.025838796 0.0009491802 -0.048866495 -0.040745143 0.029768439 0.051542778 -0.0037436127 0.039267994
-0.05388897 0.037483577 0.043802146 0.028794365 -0.030662922 0.04944058 -0.04630882 -0.056050148
0.023035234 -0.052488655 0.033131678 0.041432116 0.028596582 -0.058439147 0.030834768 0.034309566
-0.061102454 -0.055445563 0.027107172 0.028515574 -0.055474315 -0.044428103 -0.058573086 0.026005344
-0.06456546 -0.018415244 0.04111852 0.005086606 0.050312243 0.04228003 0.010884183 -0.054642893
-0.017626865 -0.038011625 -0.052616343 -0.035134014 0.0062054438 0.04053698 0.011431454 -0.056518495
0.048024073 -0.05450095 0.029583052 -0.013817201 0.049549658 0.046531368 0.0131971715 0.035467893
-0.03284818 0.037588518 -0.022335807 -0.050063156 0.0023252326 -0.035906646 -0.0044635064 0.020718848
-0.05850321 -0.015853127 0.005249255 0.013078047 -0.02116313 -0.007131802 0.03046732 -0.04816177
-0.06304116 0.020047573 0.03778364 -0.020975858 -0.0133743975 -0.01511111 0.004803996 -0.056869194
0.0013421901 0.03417374 0.048564896 -0.02834281 -0.063225865 0.04197004 -0.052076135 -0.02672817
-0.06293007 0.020365128 -0.046562433 -0.0086845085 0.011391269 -0.02942745 0.041999083 0.017763065
0.011905089 -0.030751962 0.044200562 -0.04842119 -0.014057314 -0.030689284 0.025010029 0.033754904
-0.0374116 0.012285304 0.041584097 0.011207595 -0.04017991 -0.039504595 0.007485604 -0.03871477
-0.045606676 -0.060338967 -0.02200776 0.020821476 -0.055253033 -0.036247484 -0.004234798 0.0328594
0.0058719357 0.024527365 0.019416826 -0.022416968 0.04134942 -0.029249972 0.04701731 0.030993769
-0.054270815 -0.027397724 -0.042126764 0.010415243 -0.0011725003 -0.02139033 -0.053806186 0.0013992911
00000000: 2281 5b3c 2c61 c93c 6ae6 953b 7a5e 8e3b
00000010: 55e3 cdbc 8c90 b4bc dd99 1d3d 8866 383c
00000020: 526b 143d 16cf 73bd dc14 eb39 bdfe 5dbc
00000030: 273a e53c 0572 113b 7152 d83c d4df 5abb
00000040: 1ed2 21bd ca94 c0bc 2cab 2b3d 68be 473a
00000050: 2252 bbbb 7fb4 ecbc ac92 e2bc 16e9 a2bc
00000060: ae89 da3b af16 02bd b7cc e53c e970 88bc
00000070: ebf7 5c3b 987c c13c 5dcc 493d 5ab0 5b3d
00000080: 68d9 003b 34fc 6dbd 0373 9abc 8aad b8bc
00000090: 81a8 bdbc 2d36 a63b 8c4c 1fbb d044 49bd
000000a0: 5576 ef3c d5bd d23c 388f 113d 7822 f5bc
000000b0: 19eb d33b 96f8 44bd cbc9 46bc 8eb0 53bd
000000c0: edcb 93bc 79d4 463c 02bc 15bd caf3 153d
000000d0: 3960 8c3c 5d32 82bc 36bc d83c 6024 0f3d
000000e0: 82fd 333c 9cb5 77bd 57e6 6cbd db86 c7bc
000000f0: f537 003d 99e9 2cbd c161 06bd 1134 d1bc
00000100: 1de8 293d 1cad d2bc b029 223c 135f 303d
00000110: 6cc3 4d3d 3857 a5bc 9ffe 453d b38d 1e3b
00000120: 1fd9 573c ddb3 28bd 0330 b8bc f17c 183d
00000130: 11ce 483c 36da 323c 2aa7 033d 5e9c 8bbc
00000140: 29d4 e43c 793a ccbc 136d da3c cf65 62bd
00000150: af25 9a3c c75a e6bc 9e3e 83bd 9f8d 6ebd
00000160: 090e 4bbb 6b65 23bd 51cd a3bc dc3b a63b
00000170: bbf0 05bb 26ee 05bd 4d23 bebc 4167 113d
00000180: c74c e5bc 0e78 85bc c110 77bd f27f 453d
00000190: 126a bfbb 1768 77bd dbcc e2bc 0b55 4c3d
000001a0: b962 ffbc 1acf 32bd 46fb 29bc 4495 e0bc
000001b0: 5900 62b9 952d edbb 07f5 ffbc 95c7 283d
000001c0: a1bf 9a3c 495b 78bd 5442 32bd e4eb 5dbd
000001d0: a5d3 213a af56 18bd 5fcc 0f3d 4c45 39bd
000001e0: e2ab d3bc 68d2 783a 3c28 48bd 61e4 26bd
000001f0: f1dc f33c 851e 533d 6657 75bb 7ad7 203d
00000200: aeba 5cbd 6188 193d e169 333d 29e2 eb3c
00000210: cf30 fbbc 3582 4a3d 51ae 3dbd d794 65bd
00000220: 63b4 bc3c 58fe 56bd 15b5 073d b9b4 293d
00000230: 6143 ea3c e35d 6fbd 3299 fc3c 3088 0c3d
00000240: 9146 7abd e31a 63bd dc0f de3c 7e99 e93c
00000250: 0939 63bd 3efa 35bd 55ea 6fbd 2909 d53c
00000260: e53a 84bd 91db 96bc e56b 283d 8bad a63b
00000270: 3614 4e3d d32d 2d3d 9353 323c 3ad1 5fbd
00000280: 3766 90bc 14b2 1bbd 3c84 57bd afe8 0fbd
00000290: 0957 cb3b 1b0a 263d fe4a 3b3c f07f 67bd
000002a0: e4b4 443d 633c 5fbd 2858 f23c 8b61 62bc
000002b0: 95f4 4a3d ad97 3e3d f338 583c c846 113d
000002c0: d08b 06bd 6bf6 193d 95f9 b6bc 060f 4dbd
000002d0: ee62 183b d912 13bd 9b42 92bb 93ba a93c
000002e0: 10a1 6fbd 6bde 81bc f101 ac3b 4e45 563c
000002f0: 4d5e adbc e4b1 e9bb 9a96 f93c 4745 45bd
00000300: b91b 81bd cf3a a43c 05c3 1a3d 90d5 abbc
00000310: 4a20 5bbc 9794 77bc d76a 9d3b acef 68bd
00000320: 6dec af3a c3f9 0b3d fceb 463d 2e2f e8bc
00000330: 907c 81bd c7e8 2b3d c94d 55bd 09f5 dabc
00000340: 7be1 80bd c5d4 a63c 40b8 3ebd 7849 0ebc
00000350: 72a2 3a3c d611 f1bc 3b07 2c3d d983 913c
00000360: 900d 433c 8aeb fbbc a60b 353d 4c55 46bd
00000370: a650 66bc 1868 fbbc d5e1 cc3c 9542 0a3d
00000380: e83c 19bd 4d48 493c 1654 2a3d 0fa0 373c
00000390: b093 24bd 92cf 21bd cc49 f53b 6193 1ebd
000003a0: 11ce 3abd fe25 77bd 9e49 b4bc cd91 aa3c
000003b0: 0151 62bd 3e78 14bd 0fc4 8abb 9497 063d
000003c0: 5e69 c03b 9ded c83c 0910 9f3c caa3 b7bc
000003d0: 025e 293d a39d efbc 3995 403d a5e6 fd3c
000003e0: 134b 5ebd 3171 e0bc 1d8d 2cbd b2a4 2a3c
000003f0: 95ae 99ba c63a afbc e063 5cbd 6b68 b73a

head.0.bias f4 [128]
-0.022054423 0.00020363009 -0.023385989 -0.035188 0.063774385 0.010783065 -0.034729324 -0.017454147
0.084329806 0.0023598329 -0.010243358 -0.027937328 -0.010107544 0.05483751 -0.010312464 0.09028744
0.060316022 -0.0626212 -0.010776356 -0.022835786 0.10883407 -0.04191395 0.06806033 -0.024912283
0.0009213577 0.09351988 -0.009188072 -0.026078174 0.10085645 -0.055772636 0.020437665 0.0005302978
-0.023866817 0.09831681 -0.013854234 0.09951676 0.0786401 -0.018446464 -0.0057261493 0.06636489
-0.052745167 -0.012417276 0.010160733 0.02038228 -0.021189991 -0.04260423 -0.030588236 -0.017636215
-0.053842884 0.011002426 0.06904617 -0.009002702 0.053537723 0.0856312 -0.004861219 -0.0388776
0.012627344 -0.03867774 -0.015302638 -0.051235385 -0.003909187 -0.0023375934 0.07628531 0.029873712
0.02346289 0.028432984 0.057022456 -0.03131986 0.055060674 0.033272706 -0.03367753 -0.027253008
0.052655846 -0.031878207 -0.0216157 -0.015782565 -0.026103282 0.07543819 -0.039612565 0.08267325
0.093141116 0.00019436178 0.06286367 0.048353367 -0.034840524 -0.050209545 0.010069933 0.09008792
-0.017873116 -0.034733627 0.11817618 0.09326568 -0.057784952 -0.0307565 -0.02748192 0.0376381
0.048042513 0.017653055 0.036362957 -0.0030359025 -0.014026165 0.020834079 -0.05159629 0.04027494
0.05154568 -0.012348001 0.02618228 -0.0016978472 -0.03925354 -0.0067904764 -0.004452554 0.06091245
0.07463078 -0.0068065613 0.041135293 -0.035290554 0.018792165 0.040791232 0.096461475 0.042705733
0.073228545 -0.04234118 0.06069073 0.036515273 -0.046594407 -0.035625 -0.0050026476 -0.012982126
00000000: 7aab b4bc 8985 5539 f993 bfbc 4b21 10bd
00000010: 259c 823d 74ab 303c 5640 0ebd 00fc 8ebc
00000020: 1bb5 ac3d 6da7 1a3b c2d3 27bc d3dc e4bc
00000030: 1d9a 25bc 4c9d 603d 9cf5 28bc 9fe8 b83d
00000040: ef0d 773d 8b3f 80bd 508f 30bc 1d12 bbbc
00000050: 66e4 de3d f6ad 2bbd 3763 8b3d d814 ccbc
00000060: 4587 713a 5a87 bf3d 9189 16bc e5a1 d5bc
00000070: d48d ce3d d971 64bd e46c a73c af03 0b3a
00000080: 5884 c3bc 535a c93d defc 62bc 71cf cb3d
00000090: 100e a13d 0a1d 97bc 6ca2 bbbb 51ea 873d
000000a0: 510b 58bd d571 4bbc 3479 263c bdf8 a63c
000000b0: a296 adbc c681 2ebd 2e94 fabc d379 90bc
000000c0: 5b8a 5cbd 8543 343c 1468 8d3d 1280 13bc
000000d0: 5f4a 5b3d 695f af3d dc4a 9fbb 1e3e 1fbd
000000e0: ebe2 4e3c 8d6c 1ebd eab7 7abc 32dc 51bd
000000f0: a318 80bb 4f32 19bb 793b 9c3d b7b9 f43c
00000100: 3f35 c03c 4aec e83c 6190 693d 4149 00bd
00000110: 4d87 613d f648 083d 73f1 09bd b341 dfbc
00000120: a8ad 573d b992 02bd 6913 b1bc 704a 81bc
00000130: 8dd6 d5bc 567f 9a3d c940 22bd 9850 a93d
00000140: c5c0 be3d 98cd 4b39 abbe 803d 2e0e 463d
00000150: f0b4 0ebd 86a8 4dbd 5cfc 243c 0480 b83d
00000160: a46a 92bc d944 0ebd 5a06 f23d 1402 bf3d
00000170: eaaf 6cbd 0ef5 fbbc c321 e1bc 692a 1a3d
00000180: 3ac8 443d 249d 903c 53f1 143d fef5 46bb
00000190: 00ce 65bc 3bac aa3c a256 53bd 56f7 243d
000001a0: 9021 533d 454f 4abc 397c d63c 4c8a deba
000001b0: 52c8 20bd a582 debb bbe6 91bb 557f 793d
000001c0: 06d8 983d 9309 dfbb 7b7d 283d d48c 10bd
000001d0: 07f2 993c b514 273d 988d c53d 35ec 2e3d
000001e0: d9f8 953d f26d 2dbd d896 783d 0a91 153d
000001f0: c7d9 3ebd 85eb 11bd 40ed a3bb fcb2 54bc

head.2.weight f4 [6, 128]
-0.036835205 -0.0025239587 0.054274943 0.0051114243 0.011111519 0.068982884 -0.0065198997 0.035043906
-0.032378368 -0.028631309 -0.000352679 0.08173454 -0.079232566 0.026098937 0.09222491 0.025065415
-0.030426417 -0.0033510881 0.014905629 0.005158171 0.0049362932 0.08436412 -0.031964738 0.050388724
0.029325025 -0.085493974 0.035861764 0.08157633 0.036926124 0.030067213 0.056107007 0.04223477
0.003973684 0.045918643 -0.05412447 0.06811987 -0.040063567 0.048999146 0.0759463 0.0755691
-0.029551568 -0.06505233 -0.009247835 0.074170105 -0.02191863 -0.059934378 0.046396963 0.088063225
-0.065121464 -0.07125269 0.06140192 0.00887335 -0.07039172 0.03219759 -0.05068961 0.017839387
0.030484956 -0.03961972 0.016384695 -0.067423835 -0.022530366 0.054196846 -0.0828886 0.026913434
-0.06994721 -0.06777403 -0.06712009 -0.05790414 -0.033106785 -0.03185042 -0.07131676 -0.061666455
0.04974572 0.055595398 -0.03386646 -0.01860034 0.037072662 -0.03304782 0.014606672 0.009726502
0.00023894044 0.08060697 0.020669287 -0.08821919 0.0012165906 0.02233234 0.054816015 -0.08824776
0.070761524 0.03282895 -0.0010028915 0.021673767 -0.067537926 -0.05393785 -0.072749116 0.035625882
-0.023609923 -0.059050027 0.008126137 0.034951042 -0.0013570356 -0.030225614 -0.053519238 -0.06614054
-0.013101357 -0.046196893 -0.066395454 -0.053597286 0.07895744 -0.043213636 -0.08924896 0.06677715
-0.017448992 0.020247508 -0.027697429 -0.08139541 -0.0509019 -0.0023030636 0.02722525 0.054155037
0.04644531 -0.002294776 -0.033363607 0.007164713 -0.0075375093 0.05012809 0.07352001 0.072721235
-0.00024022447 0.0011647402 -0.026390312 -0.063732296 -0.060519878 -0.06703153 -0.021552335 0.030305475
0.019317819 0.057599366 0.019004298 -0.020145345 0.022268048 -0.060169693 0.051390238 -0.0056498772
0.08101144 -0.0035782189 0.06413264 0.0006365163 0.041110013 -0.071255945 0.06343353 -0.038555004
0.0071650525 -0.05323832 0.055180896 -0.076987356 0.03618931 0.0857216 -0.056494724 0.059045754
0.042968296 0.026037171 -0.05213256 0.099968426 -0.033441085 0.027595043 -0.08189653 0.03989478
0.06990313 -0.052244898 -0.03456414 -0.028661966 0.084152885 -0.018621404 -0.059516184 0.056945853
0.019386085 0.07244655 -0.05245235 -0.034006495 0.057831198 -0.0029126748 -0.029330295 0.014958681
-0.014132351 -0.045514807 0.051341254 -0.0006573633 0.01741053 0.0031344402 0.011172712 -0.022758638
0.037471183 0.06886923 -0.05253776 -0.045029067 -0.03053427 0.037068717 0.014081914 0.024353808
0.03459666 -0.04592558 -0.059795994 -0.029422602 0.04633733 0.08209493 0.01051432 -0.06624987
-0.057593882 -0.056149416 0.07686703 -0.065301366 -0.06567915 0.07017723 0.036278136 0.04811155
-0.0017136355 0.017326077 -0.040932454 0.09218403 0.058634922 0.065068446 -0.07794368 -0.073072545
0.08257048 -0.023816498 -0.053506404 0.04501149 0.06299438 0.04998969 -0.07066656 -0.0014888577
0.03168833 0.01018432 0.04562402 0.018172694 0.072865926 -0.016234076 -0.08393699 0.019027798
0.04928736 0.01707376 0.07971479 -0.03016706 -0.014860304 0.02149134 -0.010317144 0.0057622944
-0.0026442895 -0.04083752 0.07881248 0.03362453 0.0031885759 -0.047707736 -0.075638756 -0.06642093
00000000: 83e0 16bd 0069 25bb 674f 5e3d bc7d a73b
00000010: 170d 363c e646 8d3d e2a4 d5bb 338a 0f3d
00000020: 2e9f 04bd 358c eabc c6e7 b8b9 7064 a73d
00000030: af44 a2bd 70cd d53c 6ae0 bc3d fc55 cd3c
00000040: d240 f9bc ee9d 5bbb bd36 743c e005 a93b
00000050: a1c0 a13b 19c7 ac3d 75ed 02bd 6864 4e3d
00000060: 093b f03c 7717 afbd c9e3 123d 7e11 a73d
00000070: d93f 173d 844f f63c 76d0 653d 5efe 2c3d
00000080: ad35 823b 3015 3c3d 9fb1 5dbd 6e82 8b3d
00000090: b219 24bd 54b3 483d bc89 9b3d f9c3 9a3d
000000a0: 2116 f2bc 283a 85bd 3b84 17bc 7fe6 973d
000000b0: b38e b3bc c07d 75bd be0a 3e3d 7e5a b43d
000000c0: 675e 85bd eeec 91bd 9480 7b3d 8761 113c
000000d0: 8929 90bd 9fe1 033d e99f 4fbd e823 923c
000000e0: 96bb f93c 4a48 22bd 3239 863c 8215 8abd
000000f0: 9a91 b8bc 83fd 5d3d 80c1 a9bd 9079 dc3c
00000100: 7c40 8fbd 1ccd 8abd 4276 89bd e42c 6dbd
00000110: fb9a 07bd 9675 02bd 850e 92bd f795 7cbd
00000120: 2bc2 4b3d 00b8 633d 8fb7 0abd bd5f 98bc
00000130: 81d9 173d 275d 07bd d350 6f3c e85b 1f3c
00000140: 168c 7a39 4415 a53d a352 a93c 43ac b4bd
00000150: 0276 9f3a 50f2 b63c c286 603d 3ebb b4bd
00000160: 6beb 903d a677 063d 7473 83ba 2f8d b13c
00000170: 5351 8abd efed 5cbd 7dfd 94bd 72ec 113d
00000180: 9969 c1bc 71de 71bd 7d23 053c d328 0f3d
00000190: 8fde b1ba b59b f7bc fd36 5bbd b174 87bd
000001a0: 13a7 56bc f438 3dbd 57fa 87bd d488 5bbd
000001b0: 70b4 a13d c800 31bd 29c8 b6bd 75c2 883d
000001c0: 30f1 8ebc 1ade a53c b8e5 e2bc a3b2 a6bd
000001d0: 837e 50bd ffee 16bb 7d07 df3c acd1 5d3d
000001e0: 703d 3e3d f463 16bb 47a8 08bd f8c5 ea3b
000001f0: 36fd f6bb 1d53 4d3d a991 963d dfee 943d
00000200: c4e4 7bb9 32aa 983a 7f30 d8bc 1486 82bd
00000210: b1e3 77bd d447 89bd 868e b0bc 3043 f83c
00000220: 6740 9e3c 50ed 6b3d e7ae 9b3c da07 a5bc
00000230: 7b6b b63c 7f74 76bd 927e 523d 9b22 b9bb
00000240: 53e9 a53d 8d80 6abb f957 833d e3db 263a
00000250: f962 283d a3ee 91bd 70e9 813d daeb 1dbd
00000260: d1c8 ea3b 6d10 5abd 5d05 623d 8cab 9dbd
00000270: 3e3b 143d ce8e af3d 0367 67bd f6d9 713d
00000280: 86ff 2f3d e84b d53c f488 55bd 3fbc cc3d
00000290: 85f9 08bd 000f e23c 5eb9 a7bd b568 233d
000002a0: 5f29 8f3d bffe 55bd 2193 0dbd 80cc eabc
000002b0: 5958 ac3d ea8b 98bc 3ec7 73bd 0e40 693d
000002c0: 91cf 9e3c db5e 943d 46d8 56bd 654a 0bbd
000002d0: 68e0 6c3d 93e2 3ebb 1646 f0bc 4115 753c
000002e0: 608b 67bc bc6d 3abd 354b 523d e852 2cba
000002f0: 87a0 8e3c 2e6b 4d3b c00d 373c 5370 babc
00000300: 627b 193d 500b 8d3d d631 57bd 6670 38bd
00000310: 0123 fabc 5ed5 173d d4b7 663c a381 c73c
00000320: 3ab5 0d3d 761c 3cbd a5ec 74bd ab07 f1bc
00000330: 36cc 3d3d 6321 a83d 4144 2c3c 03ae 87bd
00000340: 90e7 6bbd eefc 65bd 766c 9d3d b9bc 85bd
00000350: ca82 86bd 14b9 8f3d 6298 143d 9e10 453d
00000360: 119c e0ba 6bef 8d3c caa8 27bd fbca bc3d
00000370: 2c2b 703d 9b42 853d f0a0 9fbd 0fa7 95bd
00000380: b61a a93d d11a c3bc 8829 5bbd f85d 383d
00000390: 3303 813d fdc1 4c3d a1b9 90bd c625 c3ba
000003a0: 9fcb 013d 22dc 263c 41e0 3a3d e7de 943c
000003b0: bb3a 953d 53fd 84bc 28e7 abbd 2fe0 9b3c
000003c0: 8be1 493d 45de 8b3c 8241 a33d e920 f7bc
000003d0: a278 73bc 9b0e b03c 3d09 29bc a1d1 bc3b
000003e0: d14b 2dbb 3e45 27bd 7068 a13d e0b9 093d
000003f0: 6df7 503b 3069 43bd 7ee8 9abd b207 88bd

head.2.bias f4 [6]
-0.034128174 -0.016593983 -0.013944949 0.06821742 0.07588616 -0.005488384
00000000: fcc9 0bbd 1bf0 87bc 5b79 64bc 93b5 8b3d
00000010: 346a 9b3d e7d7 b3bb
