models_decentralized/final/policy_2_3050.pth (torch, 163209 bytes, 10 tensors)

conv.net.0.weight f4 [3, 31, 3, 3]
0	0xbe2dfc7a	-0.16990843
1	0x3e09c673	0.13454609
2	0xbe08d9b6	-0.133643
3	0xbd1e2fc6	-0.03861978
4	0xbd65a6fd	-0.056067456
5	0x3d853977	0.06505101
6	0x3d45f5a0	0.04832995
7	0xbc59df3f	-0.013297855
8	0x3d3233af	0.04350632
9	0xbbcbad7c	-0.0062157493
10	0x3c7ff5dc	0.015622582
11	0xbd337e07	-0.04382136
12	0xbda520de	-0.080629095
13	0xbcbd2666	-0.023089599
14	0x3d4a46e6	0.04938402
15	0xbdb8520d	-0.09000025
16	0xbdcd015e	-0.100100264
17	0xbe0b5882	-0.13607982
18	0xbe1f824b	-0.15577047
19	0xbd14551c	-0.03621398
20	0x3daba93d	0.08381889
21	0x3db5741f	0.08860039
22	0xbd974318	-0.07385844
23	0xbdc3fa4a	-0.09569223
24	0x3d2af719	0.041739557
25	0xbd083294	-0.03325136
26	0xbe2566bb	-0.1615247
27	0xbd655f3f	-0.055999037
28	0xbcc25f6e	-0.023727145
29	0x3d8c0dfb	0.06838604
30	0x3dc8407d	0.09777925
31	0xbdb353bd	-0.08756206
32	0xbe1260e1	-0.14294769
33	0x3dba6d50	0.09102881
34	0x3dcd01ab	0.10010084
35	0xbd856fe7	-0.06515484
36	0xbe2062f7	-0.15662752
37	0xbdd5072c	-0.104017586
38	0x3d6392fc	0.055560097
39	0xbd08c84e	-0.03339415
40	0x3b926221	0.0044672643
41	0xbd2fd298	-0.042925447
42	0xbd3471bc	-0.044053778
43	0xbe07bf8e	-0.13256666
44	0xbcf41229	-0.029793816
45	0x3df86ab1	0.12129725
46	0xbd68bc1f	-0.05682003
47	0xbd9c2975	-0.07625095
48	0x3dac64f1	0.084176905
49	0xbd49f47b	-0.04930542
50	0xbd418f5e	-0.047255866
51	0xbdb5c694	-0.088757664
52	0xbd6b29a0	-0.057412744
53	0x3dc44d5c	0.09585068
54	0xbd5a1891	-0.053246085
55	0x3d36d4d2	0.044636555
56	0xbd66c370	-0.056338727
57	0x3d8b3a51	0.06798232
58	0x3d67a521	0.056553964
59	0xbd974fbd	-0.07388256
60	0xbdfee495	-0.12445942
61	0xbd4e7cb9	-0.050411914
62	0xbd56c000	-0.0524292
63	0x3b9cd98a	0.004786675
64	0xbdf67594	-0.12034145
65	0x3e08bf63	0.13354258
66	0x3d24677b	0.04013775
67	0x3dd86b20	0.105673075
68	0xbca1ff9e	-0.019775208
69	0x3ba9eb6c	0.005185535
70	0x3dda5667	0.10661011
71	0xbcb167b8	-0.021655902
72	0xbcf76f5a	-0.030204464
73	0xbdaf15a0	-0.085490465
74	0xbb742f8a	-0.003725978
75	0x3d8d6b7f	0.06905269
76	0x3bfe042d	0.0077519626
77	0x3e07c391	0.13258196
78	0x3de3cbdc	0.111228675
79	0xbdb547b2	-0.088515654
80	0xbd816085	-0.06317238
81	0xbd1aafcf	-0.03776532
82	0xbd2b54d4	-0.041828945
83	0xbe112451	-0.1417401
84	0xbd20532d	-0.039141823
85	0xbcb49ab3	-0.022046423
86	0x3dec87a6	0.115493104
87	0xbd98e47c	-0.07465455
88	0xbe1062e1	-0.1410022
89	0xbd74e5f3	-0.05978961
90	0xbca6329c	-0.020287804
91	0xbdb42358	-0.08795804
92	0xbd1de26c	-0.03854601
93	0xbde8b108	-0.11361891
94	0xbde33d2c	-0.11095652
95	0xbc40f841	-0.011777938
96	0x3dd78b9a	0.10524674
97	0x3da3dc13	0.0800096
98	0x3df44234	0.1192669
99	0x3d209467	0.039204028
100	0xbc478050	-0.012176588
101	0xbd4f1534	-0.05055733
102	0x3d4f3be8	0.05059424
103	0x3dbe661b	0.09296819
104	0xbe1ea00a	-0.15490738
105	0x3d16c56d	0.036809374
106	0xbd1a0991	-0.03760678
107	0x3d7c5f9d	0.06161462
108	0xbdd421fa	-0.10358043
109	0xbe025bc9	-0.12730326
110	0x3dd70395	0.1049873
111	0xbd020e6e	-0.031752042
112	0x3cbc6909	0.022999303
113	0xbc8113f5	-0.015756587
114	0x3e007c1c	0.12547344
115	0xbda8351d	-0.082132556
116	0x3ccb262b	0.024798473
117	0x3df9bfc9	0.12194783
118	0x3e0c9aa5	0.13730867
119	0x3d9033e2	0.07041146
120	0x3dea1b98	0.11431044
121	0x3dd64c22	0.1046374
122	0x3c849b8b	0.01618745
123	0xbe1596db	-0.14608328
124	0xbe1d24d6	-0.15346083
125	0xbd5710d3	-0.05250628
126	0x3d9c16f5	0.07621566
127	0xbe057f45	-0.1303683
128	0xbd0015c4	-0.031270757
129	0x3d9dee96	0.07711522
130	0xbc757c94	-0.014983315
131	0xbccebd93	-0.02523688
132	0xbd8c501d	-0.06851218
133	0xbd35b2e2	-0.04436005
134	0xbd7facb1	-0.06242055
135	0x3d4d7485	0.05015995
136	0xbd87d25d	-0.066319205
137	0x3bf8f476	0.0075975014
138	0xbd85f50c	-0.065408796
139	0x3b575598	0.0032857414
140	0x3e12e2ff	0.14344405
141	0xbb9c1bcf	-0.004764057
142	0x3dfa519b	0.12222596
143	0x3d88f5ba	0.066874936
144	0xbc1b4275	-0.009476294
145	0x3dcaf2a8	0.09909564
146	0xbcf11659	-0.029429602
147	0x3d242a71	0.040079538
148	0xbde6a41b	-0.112617694
149	0x3d39c890	0.045357287
150	0x3dab1de8	0.083553135
151	0x3de65f48	0.11248642
152	0xbdbea716	-0.09309213
153	0x3d63c4c0	0.055607557
154	0xbcc2d8da	-0.023785044
155	0xbdd13619	-0.102153964
156	0xbe10ab65	-0.14127882
157	0xbe0b40ab	-0.13598888
158	0xbd6816d5	-0.0566624
159	0xbc8f89e9	-0.017521815
160	0xbde7fee3	-0.11327913
161	0x3bf63294	0.0075133536
162	0x3dc3f9a7	0.09569102
163	0x3e0095cf	0.12557147
164	0x3db171cd	0.08664284
165	0xbd84e3a5	-0.06488732
166	0xbdc74248	-0.09729439
167	0x3d12683a	0.03574393
168	0x3d9aca1b	0.0755808
169	0x3da61f6e	0.081114635
170	0x3dbbf4fe	0.09177588
171	0x3e026a79	0.12735929
172	0x3de0cc51	0.1097647
173	0xbe0b682a	-0.13613954
174	0x3d8b73c3	0.06809189
175	0x3cf79378	0.030221686
176	0xbe107301	-0.1410637
177	0xbdbbeeb3	-0.09176388
178	0xbc689a5c	-0.014196958
179	0x3da33eda	0.07970972
180	0x3d779cc6	0.060452245
181	0x3a9db2de	0.0012031456
182	0x3d2ccbe7	0.042186644
183	0x3d7d9846	0.061912797
184	0xbd6048c4	-0.054756895
185	0x3d9f3d56	0.07775371
186	0xbdc3ea35	-0.09566156
187	0xbd4cc994	-0.049996927
188	0xbe046dda	-0.1293253
189	0x3b96a6cb	0.00459752
190	0xbd990af7	-0.074727945
191	0xbcfb9e25	-0.030715058
192	0xbe0b07bc	-0.13577169
193	0x3cd64015	0.026153604
194	0x3d33fe83	0.043943893
195	0xbe0e11f9	-0.13874044
196	0x3dc813bc	0.09769389
197	0x3e0c0c66	0.13676605
198	0x3e079215	0.1323932
199	0xbe1baec0	-0.1520338
200	0xbd014b33	-0.031565856
201	0x3dfc9028	0.12332183
202	0xbe127368	-0.14301836
203	0x3d8d3c1b	0.0689623
204	0xbde8afa6	-0.11361627
205	0xbdf817f9	-0.121139474
206	0x3dc5cc06	0.09658055
207	0x3d4ab225	0.049486298
208	0xbc6b2102	-0.014351131
209	0xbdf5a9b8	-0.11995262
210	0xbdfbcc62	-0.12294842
211	0xbd566b98	-0.052348703
212	0x3dd1ecb2	0.10250224
213	0x3d736050	0.059418023
214	0xbdc96b73	-0.098349474
215	0x3c4a20fe	0.0123369675
216	0x3dfefef5	0.12450973
217	0x3dd04838	0.10170025
218	0xbc7cb3f8	-0.015423767
219	0xbd8395fe	-0.06425093
220	0x3df47f3e	0.11938332
221	0xbe180b01	-0.14847948
222	0x3c917cd3	0.017759716
223	0xbdd89baf	-0.10576569
224	0xbe011e38	-0.12609184
225	0xbd6ccdf0	-0.057813585
226	0xbdb9ea7e	-0.09077929
227	0x3e0ae47e	0.13563725
228	0x3dfe41b9	0.12414879
229	0x3cd965b7	0.02653776
230	0xbcc13455	-0.023584524
231	0xbda80fd5	-0.08206145
232	0x3e0c5f76	0.1370829
233	0xbe11f165	-0.14252241
234	0x3c4e215a	0.012581194
235	0xbddcd3a1	-0.107825525
236	0x3d3efad8	0.046625942
237	0xbd1903a0	-0.037356973
238	0xbcd99956	-0.026562374
239	0x3e04f026	0.12982234
240	0xbd9a0e8d	-0.075223066
241	0x3b914489	0.004433219
242	0xbd3bd700	-0.045859337
243	0xbdb914a8	-0.09037143
244	0x3d03d240	0.032182932
245	0xbd9d97fa	-0.07695003
246	0xbcac3f9d	-0.021026427
247	0xbddfc347	-0.10925918
248	0xbdba7c58	-0.09105748
249	0xbe0982a7	-0.13428746
250	0x3dcf8c91	0.10134233
251	0x3d62c103	0.05535985
252	0xbd0f01dd	-0.034913886
253	0xbbf62f5b	-0.0075129694
254	0x3cfbc8b9	0.03073536
255	0x3dc68a9d	0.09694407

conv.net.0.bias f4 [3]
0	0xbcaf5a21	-0.021405281
1	0x3cb1c568	0.021700576
2	0x3ae7d6a9	0.0017687875

conv.net.3.weight f4 [6, 3, 3, 3]
0	0x3df2e681	0.118603714
1	0xbe0a299c	-0.13492435
2	0x3da88c1c	0.08229849
3	0xbe557967	-0.20847093
4	0x3e0c6b02	0.13712695
5	0xbdd769c5	-0.10518221
6	0xbe9303a9	-0.2871373
7	0x3de72d8b	0.112879835
8	0x3e1f9b24	0.15586525
9	0xbe699455	-0.2281049
10	0x3eb2c55c	0.34916198
11	0x3d467424	0.048450604
12	0x3e969f79	0.29418543
13	0xbee13c00	-0.4399109
14	0xbcab4475	-0.020906666
15	0xbe8ef12b	-0.27918372
16	0x3ea19418	0.315583
17	0xbe38e4ac	-0.18055981
18	0x3e0fe6f2	0.14052942
19	0x3e43a87f	0.19107245
20	0x3db9f2cc	0.09079513
21	0x3edaf19d	0.4276246
22	0x3ee9a5cf	0.45634314
23	0xbba7523e	-0.0051062396
24	0x3e2bdd00	0.16783524
25	0xbeea6182	-0.45777518
26	0xbe9da87b	-0.30792603
27	0x3de7afa2	0.11312796
28	0xbe9e69b5	-0.30940023
29	0xbe942314	-0.28933012
30	0x3eb2e42f	0.34939715
31	0xbeec99bc	-0.4621104
32	0x3e7bb351	0.24580123
33	0xbe39458c	-0.18092936
34	0x3ee5b365	0.4486343
35	0xbe963731	-0.29338983
36	0xbecd800e	-0.4013676
37	0xb9b5e7ee	-0.0003469581
38	0x3e06ce95	0.13164742
39	0x3d5c56b6	0.05379363
40	0xbeefcfc3	-0.46838197
41	0x3e763226	0.24042568
42	0x3eb1e807	0.34747335
43	0xbece590c	-0.40302312
44	0x3d416c2d	0.047222305
45	0x3e663e37	0.2248467
46	0x3ee55294	0.44789565
47	0xbe24b340	-0.16084003
48	0xbe116e40	-0.14202213
49	0x3cfcc493	0.030855453
50	0xbedceea2	-0.43150812
51	0x3ea1b6ea	0.31584865
52	0xbe67fa0c	-0.22653979
53	0x3ed2ed66	0.41196746
54	0x3ea96291	0.33083013
55	0xbea0c059	-0.3139675
56	0xbe7d94dd	-0.24763818
57	0x3e4155a5	0.18880327
58	0x3d4f811a	0.05066023
59	0x3ead27cf	0.33819434
60	0xbe740b7c	-0.23832506
61	0xbcb55a1e	-0.022137698
62	0xbed7221b	-0.42018208
63	0xbce95fb9	-0.028488027
64	0x3eb74120	0.35791874
65	0x3eb6c7ec	0.35699403
66	0x3caf02e3	0.021363681
67	0xbe8798d2	-0.2648378
68	0x3dfe332d	0.12412105
69	0x3dec1609	0.1152764
70	0xbe2eeae2	-0.17081788
71	0x3e3d0220	0.18457842
72	0xbed5e71f	-0.41777894
73	0x3edd18d8	0.43183017
74	0xbec7c80b	-0.39019808
75	0x3dc871a2	0.09787299
76	0x3ec959fa	0.3932646
77	0x3ec888f6	0.39166993
78	0x3ecb2d9e	0.3968324
79	0xbce747fe	-0.02823257
80	0x3ea2ad13	0.3177267
81	0xbec0ed69	-0.3768113
82	0xbef76f5b	-0.48327145
83	0xbdb4feab	-0.088376366
84	0xbeab0624	-0.33403122
85	0x3ee2c768	0.4429276
86	0xbe4b5da9	-0.19859947
87	0x3e23e6dd	0.16006036
88	0x3e01b663	0.12667231
89	0x3e416a2f	0.18888162
90	0xbee1d557	-0.44108078
91	0x3ea5c64c	0.3237785
92	0x3df9ee31	0.122036345
93	0xbebb8e01	-0.36631778
94	0xbdb4e210	-0.088321805
95	0x3e6f02e6	0.2334095
96	0xbea46af7	-0.32112858
97	0x3d82fa18	0.06395358
98	0x3d24a3d9	0.04019532
99	0xbe306ddf	-0.17229412
100	0xbe3a1258	-0.1817106
101	0x3dbff51c	0.09372923
102	0x3ea9d272	0.3316837
103	0xbeb86f14	-0.36022246
104	0xbe23b583	-0.1598721
105	0xbe7df3c7	-0.24800025
106	0xbeaf92c9	-0.34291676
107	0x3ee2b0a4	0.4427539
108	0xbee9de24	-0.45677292
109	0x3eaa70e7	0.33289263
110	0xbd5fe86f	-0.054665025
111	0xbeb7d69a	-0.35905915
112	0x3e8f5b8d	0.27999535
113	0x3ec0649d	0.37576762
114	0x3ecdf78f	0.40227935
115	0xbe9dc738	-0.30816054
116	0xbea86cf5	-0.32895628
117	0xbe9fdb85	-0.31222168
118	0xbe933c71	-0.2875705
119	0xbd6d584a	-0.057945527
120	0x3ee7bf9d	0.45263377
121	0x3ebf6ce2	0.37387758
122	0x3e96f56c	0.29484117
123	0xbee8e8b3	-0.45490035
124	0x3eeca114	0.46216643
125	0xbebc7278	-0.36806083
126	0x3db37c78	0.08763975
127	0x3cb2331a	0.021752883
128	0x3ed5122f	0.41615435
129	0xbe9e197a	-0.30878812
130	0x3e7c996a	0.24667898
131	0xbd32230b	-0.04349045
132	0x3ca5fa9c	0.020261101
133	0xbce0ad51	-0.027426394
134	0x3eade2a3	0.33961973
135	0xbe669625	-0.22518213
136	0x3dfe3d88	0.1241408
137	0x3e94204c	0.2893089
138	0xbee40c6c	-0.44540727
139	0xbdbce724	-0.09223774
140	0xbdf2c43a	-0.118538335
141	0xbe0075fb	-0.12545006
142	0x3e303f56	0.1721166
143	0x3da33ad1	0.07970203
144	0xbeacebf7	-0.33773777
145	0xbedea021	-0.43481544
146	0xbdf37a94	-0.11888614
147	0x3e512814	0.20425445
148	0x3e235538	0.15950477
149	0xbdd23508	-0.10264021
150	0x3cc46038	0.023971662
151	0x3ed65d2e	0.41867965
152	0xbe08a8aa	-0.1334559
153	0x3e6b8cbf	0.23002909
154	0x3dbc5385	0.091956176
155	0x3e95f1d7	0.29286072
156	0xbee2ac71	-0.44272187
157	0x3e1d2ffe	0.15350339
158	0x3eb604ba	0.3555048
159	0xbed01fdc	-0.40649307
160	0x3ebb7a5d	0.36616793
161	0xbe557d09	-0.20848478

conv.net.3.bias f4 [6]
0	0xbbd47f0c	-0.0064848717
1	0xbce29852	-0.027660523
2	0x3ca2646e	0.01982328
3	0x3942a1ea	0.000185616
4	0x3bb570a1	0.005537108
5	0xbbbf8d37	-0.0058456915

conv.net.6.weight f4 [6, 6, 3, 3]
0	0x3de83471	0.113381274
1	0xbe8196fe	-0.2531051
2	0x3e21c4d9	0.15797748
3	0x3e026f82	0.1273785
4	0xbe069a88	-0.13144886
5	0xbe977cf6	-0.29587525
6	0x3b40631d	0.002935595
7	0xbe06c8a1	-0.13162471
8	0xbda00b1f	-0.07814621
9	0x3de7f94c	0.113268465
10	0xbdbd5e3d	-0.0924649
11	0xbe549107	-0.20758449
12	0xbe8b6abe	-0.27229875
13	0xbea0c539	-0.3140047
14	0xbea312b5	-0.3185021
15	0xbe1ed1e3	-0.15509753
16	0x3e6eb481	0.23311044
17	0xbd9b99b6	-0.075976774
18	0xbea916c2	-0.33025175
19	0xbea5334a	-0.32265693
20	0x3e75c2b9	0.24000062
21	0xbea30be6	-0.31845015
22	0x3e5db92d	0.2165267
23	0xbe288be7	-0.16459619
24	0x3da540dc	0.080690116
25	0x3e62732e	0.2211425
26	0xbe01ff9b	-0.12695162
27	0xbe68ca44	-0.22733408
28	0x3d14f421	0.036365632
29	0xbe8cfa98	-0.27534938
30	0x3dfe96a9	0.1243108
31	0xbd812047	-0.063049845
32	0x3e0e98d8	0.13925493
33	0x3bea1c6e	0.0071445024
34	0x3e36db20	0.17857027
35	0x3e4e56e5	0.20150335
36	0xbe656e85	-0.22405441
37	0x3e07f4f0	0.1327703
38	0xbe900f7a	-0.28136808
39	0xbe129af9	-0.1431693
40	0xbe9b382f	-0.30316302
41	0x3d707231	0.05870265
42	0x3d9d819d	0.076907374
43	0xbe4d8ed7	-0.2007402
44	0x3e71557b	0.23567764
45	0x3e30ea7a	0.17276946
46	0x3e1c36be	0.15255257
47	0xbdec6426	-0.11542539
48	0x3d655e2f	0.055998024
49	0xbe89fcd7	-0.26950714
50	0x3db50154	0.08838144
51	0x3d8ef3d7	0.069801025
52	0x3e8bb546	0.27286738
53	0x3de4e1ca	0.11175878
54	0xbea2b171	-0.31776002
55	0x3e01c2ba	0.12671939
56	0x3e85e315	0.26149812
57	0xbdf0086c	-0.11720356
58	0x3c384af0	0.011248335
59	0xbe140e1b	-0.14458506
60	0x3e70cd40	0.23515797
61	0xbd2abfd6	-0.041686855
62	0xbc3ee1c6	-0.011650508
63	0xbeaa5ec5	-0.33275428
64	0xbd1d1e74	-0.03835912
65	0xbb98ec38	-0.0046668313
66	0x3e0409d1	0.1289437
67	0x3b7e349c	0.0038788682
68	0x3db7cc60	0.08974528
69	0xbe07cebd	-0.13262458
70	0xbe458858	-0.19290292
71	0xbe5dd7b1	-0.21664311
72	0x3e95bd33	0.2924591
73	0xbe9e5a57	-0.309283
74	0xbdf198cd	-0.117967226
75	0x3e25544b	0.16145436
76	0x3e5ba936	0.21451268
77	0x3e8d444b	0.27591166
78	0xbe96ded1	-0.2946687
79	0xbe848e00	-0.25889587
80	0x3e1acf6e	0.1511819
81	0x3e61c3e9	0.2204739
82	0xbd9fc32c	-0.07800898
83	0xbdab8874	-0.08375636
84	0xbd8d2d10	-0.068933606
85	0x3e5998c0	0.21249676
86	0xbeac07bd	-0.33599654
87	0xbe631cfc	-0.22179025
88	0x3d9fdde7	0.078059964
89	0xbe1edc8a	-0.15513816
90	0xbcb59c98	-0.022169396
91	0xbe617a6b	-0.22019355
92	0x3b2d62ee	0.0026456672
93	0x3db18411	0.08667768
94	0xbe1c969e	-0.15291831
95	0xbdcbb833	-0.099472426
96	0xbea55f3b	-0.32299218
97	0x3d5b1410	0.05348593
98	0x3e5b633d	0.21424575
99	0x3e870f6b	0.2637895
100	0x3e85f479	0.2616308
101	0xbdab7f73	-0.083739184
102	0x3e40b55e	0.18819186
103	0x3e2dd1ea	0.16974607
104	0x3e66eadc	0.22550529
105	0x3e987591	0.29777196
106	0x3e61b18a	0.22040382
107	0xbea1b456	-0.31582898
108	0x3e5286e5	0.2055927
109	0x3e58cf6c	0.21172875
110	0xbe31c669	-0.17360844
111	0xbe923bfd	-0.28561392
112	0x3e33ad3e	0.17546555
113	0x3e0b0ca7	0.13579045
114	0x3d9eb482	0.07749273
115	0xbc17dc4f	-0.009268834
116	0x3d1734ed	0.03691571
117	0xbe39bed7	-0.18139206
118	0x3e9dcd80	0.30820847
119	0x3d4bcaee	0.049754076
120	0x3e0a1c76	0.1348742
121	0x3daf3132	0.08554305
122	0x3dabe26c	0.08392796
123	0x3da93041	0.08261157
124	0xbd04b51f	-0.032399293
125	0x3e9df43d	0.30850402
126	0x3e573b1f	0.21018647
127	0xbdd1c9cb	-0.10243567
128	0xbe49933a	-0.19685069
129	0xbe835f38	-0.25658584
130	0x3e3bdc84	0.18345839
131	0xbbc91a54	-0.0061371718
132	0x3e2a6f3e	0.16643998
133	0xbe99e09c	-0.30054176
134	0xbe4b28ff	-0.19839858
135	0xbea4ef03	-0.322136
136	0x3dfacd73	0.122462176
137	0xbe8d988c	-0.27655447
138	0xbdc70134	-0.09717026
139	0xbded179a	-0.11576767
140	0x3e51ad31	0.20476224
141	0x3dc93d05	0.09826092
142	0x3dc98312	0.09839453
143	0xbe1c0a72	-0.1523836
144	0xbe1cb7a7	-0.15304433
145	0xbea58580	-0.32328415
146	0x3de0bf95	0.109740414
147	0x3dc274e1	0.09494949
148	0xbbdb8308	-0.0066989698
149	0xbe7a042d	-0.24415655
150	0x3cbd4c1f	0.023107586
151	0xbe43a5a9	-0.19106163
152	0xbe9b3ad0	-0.30318308
153	0xbbb80781	-0.005616129
154	0x3ea3d3fb	0.31997666
155	0xbc113859	-0.008863532
156	0xbd81bf96	-0.0633537
157	0x3e01a92d	0.12662192
158	0x3ddfe9b6	0.10933249
159	0xbe10e95d	-0.14151521
160	0x3d68d747	0.05684593
161	0xbe23a190	-0.159796
162	0x3dc8def0	0.09808147
163	0x3e2f9fac	0.17150754
164	0xbe8a911e	-0.2706384
165	0xbe03fc44	-0.128892
166	0x3c150fb4	0.009097982
167	0xbc84f692	-0.016230855
168	0xbdce848f	-0.10083877
169	0x3da9f76b	0.08299144
170	0xbd7d8112	-0.06189067
171	0x3dc2f03f	0.095184796
172	0x3dd3cbc5	0.103416
173	0x3e8e89c8	0.27839494
174	0xbd3ca940	-0.046059847
175	0x3ad587c7	0.0016291075
176	0x3dff7b90	0.124747396
177	0x3e67dec1	0.22643568
178	0xbea13d94	-0.31492293
179	0xbea91bc9	-0.3302901
180	0x3e955cfd	0.29172507
181	0x3decc642	0.11561252
182	0x3e602f05	0.21892937
183	0xbeb0fb7f	-0.34566876
184	0xbeb1ced4	-0.3472811
185	0xbe4a0520	-0.19728518
186	0xbeb15a37	-0.3463914
187	0x3df6d70e	0.12052737
188	0xbe3ba50f	-0.18324684
189	0xbe02d1c3	-0.1277533
190	0x3e072cf3	0.1320074
191	0x3db51f35	0.08843843
192	0xbdbc8256	-0.09204547
193	0x3dc52474	0.096260935
194	0xbdcbe299	-0.099553294
195	0xbdfda035	-0.12384073
196	0x3c5ad45c	0.0133562945
197	0x3e83c0b8	0.2573297
198	0xbd620fac	-0.055190727
199	0x3e2278f0	0.15866446
200	0x3e9d5786	0.30730838
201	0x3e877e65	0.2646362
202	0x3e27b4e3	0.16377597
203	0x3e316c2c	0.1732642
204	0x3e820c0b	0.25399813
205	0xbe30e963	-0.1727653
206	0x3e34d977	0.17661081
207	0x3e727f47	0.23681365
208	0xbd5280d4	-0.05139239
209	0x3e59ded4	0.21276408
210	0xbd39e0dc	-0.04538046
211	0xbe9ec0c0	-0.31006432
212	0x3e10ad65	0.14128645
213	0xbe71b0cf	-0.23602603
214	0xbd0398c6	-0.032128118
215	0xbd3c6e33	-0.04600353
216	0x3e26cf5b	0.16290037
217	0x3de024a8	0.109444916
218	0xbdba07ab	-0.09083494
219	0xbd9adc8c	-0.07561597
220	0xbe8d6771	-0.27617982
221	0xbc667b94	-0.014067549
222	0xbe8a585e	-0.27020544
223	0x3e78f956	0.24313864
224	0x3e40039a	0.18751374
225	0x3dc5b9ef	0.09654605
226	0x3e4c50be	0.19952676
227	0xbe80f937	-0.25190136
228	0xbe8c89b1	-0.274488
229	0xbe982eaa	-0.29723102
230	0xbc05cb65	-0.008166169
231	0x3cf1a501	0.029497625
232	0xbe02cb91	-0.12772967
233	0xbe615684	-0.2200566
234	0xbc81acf7	-0.015829546
235	0x3e937d6a	0.2880662
236	0xbe906809	-0.28204373
237	0xbcb93c5a	-0.022611786
238	0x3d49d8d0	0.049279034
239	0xbe959e5f	-0.2922239
240	0xbe625bd8	-0.22105348
241	0xbe8933c6	-0.26797312
242	0xbdbbbc7c	-0.0916681
243	0xbd5a67c5	-0.05332162
244	0xbc467c1c	-0.012114551
245	0xbe21132d	-0.15729971
246	0x3c36974a	0.011144469
247	0xbd65996c	-0.056054518
248	0x3ea7c8ac	0.32770288
249	0x3e9a5b30	0.30147696
250	0xbe1a20e2	-0.15051606
251	0x3ea24690	0.3169446
252	0x3e99bbac	0.30025995
253	0xbea9a8a3	-0.33136472
254	0xbc471239	-0.012150341
255	0xbea1bf49	-0.31591251

conv.net.6.bias f4 [6]
0	0x3a82babd	0.0009973865
1	0xbc92cf5e	-0.017921146
2	0x3b12dd49	0.0022409728
3	0xbc017259	-0.007900798
4	0x3ae380d3	0.0017357118
5	0xbc6f0c3c	-0.014590319

head.0.weight f4 [128, 294]
0	0x3c5b8122	0.013397487
1	0x3cc9612c	0.024582468
2	0x3b95e66a	0.0045745866
3	0x3b8fef25	0.004392522
4	0xbccd666d	-0.025073254
5	0xbcb445f7	-0.022006018
6	0x3d1dcc5b	0.038524967
7	0x3c386688	0.011254914
8	0x3d146b52	0.03623516
9	0xbd73ce40	-0.059522867
10	0x39eb14dc	0.00044838234
11	0xbc5dfebd	-0.013549504
12	0x3ce545de	0.027987417
13	0x3b14b69e	0.0022691856
14	0x3cd84912	0.02640203
15	0xbb5adfd4	-0.0033397572
16	0xbd21d21e	-0.039507024
17	0xbcc094ca	-0.023508448
18	0x3d2bab2c	0.04191129
19	0x3a47be68	0.00076196203
20	0xbbbb5222	-0.005716578
21	0xbcecb47f	-0.028894661
22	0xbce292ac	-0.02765783
23	0xbca2e916	-0.019886535
24	0x3bda89ae	0.0066692447
25	0xbd0216af	-0.031759914
26	0x3ce5ccb7	0.028051717
27	0xbc8870e9	-0.016655402
28	0x3b5cf7eb	0.0033717107
29	0x3cc17c98	0.023618981
30	0x3d49cc5d	0.04926716
31	0x3d5bb05a	0.05363498
32	0x3b00d968	0.0019660834
33	0xbd6dfc34	-0.058101848
34	0xbc9a7303	-0.01885367
35	0xbcb8ad8a	-0.022543687
36	0xbcbdadb3	-0.023154115
37	0x3ba6362d	0.005072376
38	0xbb1f506b	-0.0024309407
39	0xbd4944d0	-0.04913789
40	0x3cef7655	0.02923123
41	0x3cd2bdd5	0.025725285
42	0x3d118f38	0.035536975
43	0xbcf52278	-0.029923663
44	0x3bd3ec8c	0.0064674076
45	0xbd44f896	-0.048088633
46	0xbc46ca16	-0.012133142
47	0xbd53b08e	-0.051682048
48	0xbc93cbed	-0.018041575
49	0x3c46dce9	0.01213763
50	0xbd15bebd	-0.036558855
51	0x3d15f35f	0.03660905
52	0x3c8ca600	0.017168999
53	0xbc821064	-0.015876956
54	0x3cd8bd04	0.026457317
55	0x3d0f24f1	0.03494734
56	0x3c3409c0	0.010988653
57	0xbd77b44f	-0.06047469
58	0xbd6cd6e9	-0.05782214
59	0xbcc5a9db	-0.024128845
60	0x3d0088c0	0.031380415
61	0xbd2ce663	-0.0422119
62	0xbd064af6	-0.032786332
63	0xbcd0be80	-0.025481462
64	0x3d29f419	0.041492555
65	0xbcd2a637	-0.025714023
66	0x3c23bd2e	0.009993834
67	0x3d310758	0.043219894
68	0x3d4ee3a0	0.05051005
69	0xbca38678	-0.01996158
70	0x3d4629ee	0.04837983
71	0x3b21abff	0.0024669168
72	0x3c57e9c4	0.013178293
73	0xbd28b5b3	-0.041188907
74	0xbcb83115	-0.022484342
75	0x3d18c017	0.037292566
76	0x3c496fd7	0.012294731
77	0x3c32d77e	0.010915635
78	0x3d03a72a	0.032141842
79	0xbc8b5314	-0.017007388
80	0x3ce4ed2c	0.027945124
81	0xbccc0229	-0.024903374
82	0x3cdaacda	0.02669375
83	0xbd62573e	-0.055258982
84	0x3c9a2a6a	0.018819053
85	0xbce65341	-0.02811587
86	0xbd833577	-0.06406682
87	0xbd6e8d9f	-0.05824053
88	0xbb4b0e09	-0.0030983707
89	0xbd2360fd	-0.039887417
90	0xbca3cd51	-0.019995363
91	0x3ba63d56	0.00507323
92	0xbb063b8b	-0.0020482268
93	0xbd05ee88	-0.032698184
94	0xbcbe227e	-0.023209807
95	0x3d11730c	0.035510108
96	0xbce53adc	-0.027982168
97	0xbc85024d	-0.016236449
98	0xbd7710c1	-0.060318712
99	0x3d457ff2	0.04821772
100	0xbbbf6a12	-0.005841502
101	0xbd776817	-0.060402002
102	0xbce2ccdb	-0.027685573
103	0x3d4c550b	0.04988579
104	0xbcff62b9	-0.031175004
105	0xbd32cf84	-0.043654934
106	0xbc29fb46	-0.01037485
107	0xbce09544	-0.027414925
108	0xb9620059	-0.00021553169
109	0xbbed2d95	-0.0072381
110	0xbcfff507	-0.031244768
111	0x3d28d1a7	0.041215565
112	0x3c9abf0c	0.018889926
113	0xbd785b49	-0.06063393
114	0xbd324254	-0.043520287
115	0xbd5deba7	-0.054179814
116	0x3a26e627	0.0006366693
117	0xbd1855d0	-0.037191212
118	0x3d0fcc5f	0.035107013
119	0xbd39454c	-0.045232102
120	0xbcd3a482	-0.02583528
121	0x3a78d268	0.0009491802
122	0xbd48283c	-0.048866495
123	0xbd26e461	-0.040745143
124	0x3cf48a7c	0.02985119
125	0x3d539b72	0.051661916
126	0xbb754e31	-0.003743064
127	0x3d20d304	0.03926374
128	0xbd5cbaae	-0.05388897
129	0x3d198861	0.037483577
130	0x3d336b3c	0.04380344
131	0x3cebe3f4	0.02879522
132	0xbcfb0039	-0.030639755
133	0x3d4a8164	0.049439803
134	0xbd3dae51	-0.04630882
135	0xbd6594d7	-0.056050148
136	0x3cbcb463	0.023035234
137	0xbd56fe58	-0.052488655
138	0x3d07b515	0.033131678
139	0x3d29b4b9	0.041432116
140	0x3cea4361	0.028596582
141	0xbd6f5de3	-0.058439147
142	0x3cfc9932	0.030834768
143	0x3d0c8830	0.034309566
144	0xbd7a4691	-0.061102454
145	0xbd63185d	-0.055443157
146	0x3cde0fdc	0.027107172
147	0x3ce9d18d	0.028542304
148	0xbd633456	-0.055469833
149	0xbd35b454	-0.044361427
150	0xbd6fce47	-0.05854633
151	0x3cd509ff	0.026005743
152	0xbd843ae5	-0.06456546
153	0xbc9698c3	-0.01838339
154	0x3d2877fd	0.041130055
155	0x3ba69fc6	0.0050849644
156	0x3d4e105d	0.050308574
157	0x3d2d2df3	0.04228015
158	0x3c324fb0	0.010883257
159	0xbd5fd13a	-0.054642893
160	0xbc9065f7	-0.017626746
161	0xbd1bb2f6	-0.038012467
162	0xbd5784dc	-0.05261694
163	0xbd0f9a00	-0.035058975
164	0x3bceb773	0.00630849
165	0x3d264155	0.04058965
166	0x3c3b531b	0.011433388
167	0xbd677ff0	-0.056518495
168	0x3d450ba1	0.048106793
169	0xbd5f0fb1	-0.054458324
170	0x3cf36863	0.029712861
171	0xbc5cbed8	-0.013473235
172	0x3d4cb4ac	0.04997699
173	0x3d4082d5	0.04699977
174	0x3c5ebccf	0.01359482
175	0x3d119424	0.03554167
176	0xbd067223	-0.032823693
177	0x3d1a46b1	0.037665073
178	0xbcb662e5	-0.022263953
179	0xbd4cb74a	-0.049979486
180	0x3b1ee08e	0.0024242732
181	0xbd12cf3e	-0.035842173
182	0xbb903439	-0.0044007567
183	0x3caa055f	0.020754514
184	0xbd6f7dd8	-0.058469623
185	0xbc81e1b9	-0.015854703
186	0x3bacac56	0.0052695675
187	0x3c564a1c	0.0130791925
188	0xbcad5d85	-0.021162758
189	0xbbe9b028	-0.007131595
190	0x3cf99f31	0.030471416
191	0xbd454186	-0.04815819
192	0xbd811bb9	-0.06304116
193	0x3ca46f13	0.020072496
194	0x3d1ac305	0.03778364
195	0xbcabd590	-0.020975858
196	0xbc5b204a	-0.0133743975
197	0xbc779497	-0.01511111
198	0x3b9d6ad7	0.004803996
199	0xbd68efac	-0.056869194
200	0x3aafec6d	0.0013421901
201	0x3d0bf9c3	0.03417374
202	0x3d46ebfc	0.048564896
203	0xbce831bf	-0.028344033
204	0xbd817c90	-0.063225865
205	0x3d2be933	0.041970443
206	0xbd554dc9	-0.052076135
207	0xbcdaf9a3	-0.026730364
208	0xbd80e17b	-0.06293007
209	0x3ca6d4c5	0.020365128
210	0xbd3eb840	-0.046562433
211	0xbc0e4978	-0.0086845085
212	0x3c3aa272	0.011391269
213	0xbcf111d6	-0.02942745
214	0x3d2c073b	0.041999083
215	0x3c9183d9	0.017763065
216	0x3c430d90	0.011905089
217	0xbcfbc04d	-0.030731345
218	0x3d350ba6	0.044200562
219	0xbd46554c	-0.04842119
220	0xbc6650a6	-0.014057314
221	0xbcfb5c5a	-0.030683685
222	0x3ccef823	0.025264805
223	0x3d0aa381	0.033847336
224	0xbd193b37	-0.037409987
225	0x3c494933	0.012285518
226	0x3d2a5416	0.041584097
227	0x3c37a00f	0.011207595
228	0xbd248cda	-0.04017339
229	0xbd21ce52	-0.039503403
230	0x3bf8735b	0.007582111
231	0xbd1e9361	-0.03871477
232	0xbd3ace11	-0.045606676
233	0xbd76e6ba	-0.06027863
234	0xbcb4499e	-0.02200776
235	0x3caa91cd	0.020821476
236	0xbd625101	-0.055253033
237	0xbd14783e	-0.036247484
238	0xbb8ac40f	-0.004234798
239	0x3d069794	0.0328594
240	0x3bc0695e	0.0058719357
241	0x3cc8ed9d	0.024527365
242	0x3c9f1009	0.019416826
243	0xbcb7a3ca	-0.022416968
244	0x3d295e02	0.04134942
245	0xbcef28e9	-0.029194312
246	0x3d409146	0.047013544
247	0x3cfdef18	0.030997798
248	0xbd5e494d	-0.054269124
249	0xbce00067	-0.027343942
250	0xbd2c154e	-0.042012505
251	0x3c2b96d7	0.010472975
252	0xba959590	-0.0011412371
253	0xbcaf051b	-0.02136474
254	0xbd5c61da	-0.053804256
255	0x3ab69776	0.0013930637

head.0.bias f4 [128]
0	0xbcb270c2	-0.021782283
1	0x39a80966	0.0003205046
2	0xbcc95c70	-0.02458021
3	0xbd10214b	-0.035188
4	0x3d6d371e	0.057913892
5	0x3c2fa208	0.010719784
6	0xbd0e4056	-0.034729324
7	0xbc8efaf1	-0.017453643
8	0x3dabb63a	0.08384366
9	0x3b0bba0c	0.002132061
10	0xbc22937f	-0.009922861
11	0xbce4f0fd	-0.027946943
12	0xbc1b335e	-0.009472696
13	0x3d451673	0.048117112
14	0xbc1fd45c	-0.00975522
15	0x3d9541f2	0.07287969
16	0x3d653f68	0.055968672
17	0xbd803f8b	-0.0626212
18	0xbc30a4e3	-0.0107815
19	0xbcbb619a	-0.022873688
20	0x3dc47541	0.09592677
21	0xbd2badf6	-0.04191395
22	0x3d75f6e8	0.06004992
23	0xbccc14d8	-0.024912283
24	0x3abb0e83	0.0014271293
25	0x3daabcc5	0.08336786
26	0xbc2e9342	-0.010655226
27	0xbcd5a1e5	-0.026078174
28	0x3dae0265	0.084965505
29	0xbd6471d9	-0.055772636
30	0x3caa5726	0.020793509
31	0x3a85b1b7	0.0010200058
32	0xbcc38458	-0.023866817
33	0x3da7ef09	0.08199889
34	0xbc635c41	-0.0138769755
35	0x3db2f2fe	0.08737753
36	0x3d5576a4	0.052115098
37	0xbc97d384	-0.018533476
38	0xbbd024b4	-0.0063520316
39	0x3d498ffa	0.049209572
40	0xbd580b51	-0.052745167
41	0xbc42610f	-0.011863961
42	0x3bef870c	0.0073098
43	0x3c6df790	0.0145243555
44	0xbcad5a73	-0.021161294
45	0xbd2e81c6	-0.04260423
46	0xbcfa942e	-0.030588236
47	0xbc907cbc	-0.017637603
48	0xbd5c8a5b	-0.053842884
49	0x3c511fd3	0.012763935
50	0x3d775733	0.060385894
51	0xbc0d707d	-0.008632776
52	0x3d5fb431	0.054615203
53	0x3d76293a	0.06009791
54	0xbba0e4ce	-0.004910088
55	0xbd1f3e1e	-0.0388776
56	0x3b1e41d0	0.0024148114
57	0xbd1e6c8d	-0.03867774
58	0xbc7b206a	-0.015327552
59	0xbd51dc32	-0.051235385
60	0xbb44c796	-0.003002619
61	0xbb14bb6a	-0.0022694715
62	0x3d711a54	0.058863
63	0x3cf20320	0.029542506
64	0x3cd22e2d	0.025656784
65	0x3d07dfb5	0.033172328
66	0x3d496e64	0.049177542
67	0xbd01eef8	-0.03172204
68	0x3d5d1874	0.0539784
69	0x3cdcc3e3	0.026948875
70	0xbd09f173	-0.03367753
71	0xbcdf41b3	-0.027253008
72	0x3d3c9b29	0.04604641
73	0xbd0292b9	-0.031878207
74	0xbcb0a618	-0.021563575
75	0xbc814a70	-0.015782565
76	0xbcd5d68d	-0.026103282
77	0x3d84b9bd	0.06480739
78	0xbd2240c9	-0.039612565
79	0x3d93d176	0.07217686
80	0x3dab7a7b	0.08372971
81	0xbbd3a917	-0.006459366
82	0x3d852630	0.06501424
83	0x3d181c8f	0.03713661
84	0xbd0eb4f0	-0.034840524
85	0xbd4da886	-0.050209545
86	0x3c4af8e6	0.012388444
87	0x3db3d41d	0.08780692
88	0xbc926aa4	-0.017873116
89	0xbd0e44d9	-0.034733627
90	0x3dc12ee5	0.094327725
91	0x3db133b8	0.08652443
92	0xbd6cafea	-0.057784952
93	0xbcfbf50e	-0.0307565
94	0xbce121c3	-0.02748192
95	0x3d1e2491	0.03860909
96	0x3d25c19d	0.040467847
97	0x3cb157d6	0.021648329
98	0x3d1bf919	0.038079355
99	0xbbbe3d15	-0.0058056214
100	0xbc648768	-0.013948299
101	0x3cae848e	0.021303441
102	0xbd5356a2	-0.05159629
103	0x3d14f378	0.036365002
104	0x3d42448c	0.047428653
105	0xbc483c0e	-0.012221349
106	0x3d040c62	0.03223837
107	0x3b61a3a8	0.0034429822
108	0xbd20c852	-0.03925354
109	0xbbf3e461	-0.0074429964
110	0xbb9db39a	-0.00481267
111	0x3d55d691	0.05220658
112	0x3d8a3df1	0.06750096
113	0xbbbe89fe	-0.00581479
114	0x3d37bd41	0.04485822
115	0xbd108cd4	-0.035290554
116	0x3c1f4af8	0.009722464
117	0x3d2af76a	0.04173986
118	0x3da1e4ea	0.0790499
119	0x3d486aed	0.048930097
120	0x3d5c9588	0.05385354
121	0xbd2d6df2	-0.04234118
122	0x3d40b1ec	0.04704468
123	0x3d06d752	0.03292019
124	0xbd3ed9c7	-0.046594407
125	0xbd11eb85	-0.035625
126	0xbba47f56	-0.0050200624
127	0xbc54b2fc	-0.012982126

head.2.weight f4 [6, 128]
0	0xbd16a4e1	-0.036778335
1	0xbb23aaa6	-0.002497354
2	0x3d5e79a9	0.054315243
3	0x3ba77dbc	0.0051114243
4	0x3c2ccfb0	0.010547563
5	0x3d8d52fd	0.069005944
6	0xbbd5a4e2	-0.0065198997
7	0x3d0f8af2	0.035044618
8	0xbd093600	-0.033498764
9	0xbcf9d626	-0.030497622
10	0xb9a7e2bd	-0.00032021655
11	0x3da7646e	0.08173452
12	0xbda243df	-0.07923102
13	0x3ccb3152	0.024803791
14	0x3dbce0b2	0.09222545
15	0x3cc2ad7a	0.02376436
16	0xbd0b1dd8	-0.033964008
17	0xbb5b9dee	-0.0033510881
18	0x3c74369e	0.0149056
19	0x3ba90704	0.005158307
20	0x3b1205f5	0.0022281383
21	0x3dacc719	0.08436412
22	0xbd0e6e72	-0.034773298
23	0x3d4e6468	0.050388724
24	0x3cf0b550	0.029383332
25	0xbdb197e4	-0.08671549
26	0x3d132cb7	0.035931315
27	0x3da7117e	0.08157633
28	0x3d180318	0.037112325
29	0x3cf64f84	0.030067213
30	0x3d64ef03	0.055892
31	0x3d2cdbb5	0.042201716
32	0x3b8235ad	0.003973684
33	0x3d35214e	0.044221215
34	0xbd5db074	-0.054123357
35	0x3d85f5b7	0.06541007
36	0xbd1fb478	-0.038990468
37	0x3d48b532	0.049000926
38	0x3d9b8980	0.075945854
39	0x3d972258	0.073795974
40	0xbcf21621	-0.029551568
41	0xbd84e947	-0.064898066
42	0xbc11ebda	-0.008906329
43	0x3d97d8e4	0.074144155
44	0xbcb38ec0	-0.021918654
45	0xbd757dc0	-0.059934378
46	0x3d3e0abe	0.046396963
47	0x3db45d00	0.08806801
48	0xbd855e67	-0.065121464
49	0xbd92bcb1	-0.07164896
50	0x3d78a9b8	0.06070873
51	0x3c11a80b	0.008890162
52	0xbd9307b3	-0.07179203
53	0x3d05ffad	0.032714535
54	0xbd4f5ec9	-0.050627504
55	0x3c9223e8	0.017839387
56	0x3d001d4f	0.03127795
57	0xbd22484a	-0.03961972
58	0x3c8636a3	0.016383475
59	0xbd8a1582	-0.067423835
60	0xbcb89a02	-0.022534374
61	0x3d5df8ce	0.054192357
62	0xbdac3bb4	-0.08409825
63	0x3cd9e364	0.026597686
64	0xbd8fd59e	-0.07023166
65	0xbd8bf5ed	-0.06834016
66	0xbd8a2cfb	-0.067468606
67	0xbd6d23cd	-0.05789547
68	0xbd11feab	-0.03564326
69	0xbd03abd8	-0.032146305
70	0xbd920e85	-0.07131676
71	0xbd7c95f7	-0.061666455
72	0x3d49b91c	0.0492488
73	0x3d63b800	0.055595398
74	0xbd0ab5df	-0.033864852
75	0xbc985fbd	-0.01860034
76	0x3d17d981	0.037072662
77	0xbd10c566	-0.035344504
78	0x3c6f50d3	0.014606672
79	0x3c015749	0.007894346
80	0xba1a98a3	-0.00058973784
81	0x3da5dec1	0.080991276
82	0x3c9e7b09	0.019345777
83	0xbdb52f77	-0.08846944
84	0x3a9f7602	0.0012165906
85	0x3cb6f250	0.02233234
86	0x3d5dc28e	0.05414062
87	0xbdb7ebde	-0.08980535
88	0x3d90eb6b	0.070761524
89	0x3d0677a6	0.03282895
90	0xbb0399c2	-0.002008066
91	0x3c96888c	0.018375657
92	0xbd8a5153	-0.067537926
93	0xbd5cedef	-0.05393785
94	0xbd94fd7d	-0.072749116
95	0x3d0e9ed7	0.03481945
96	0xbcd2bf00	-0.025725842
97	0xbd73caca	-0.059519567
98	0x3bf7e3d0	0.007564999
99	0x3d0422a3	0.032259595
100	0xbab1c7ce	-0.0013563575
101	0xbcf9fe6a	-0.030516822
102	0xbd5b36fd	-0.053519238
103	0xbd8895ba	-0.06669183
104	0xbc6cdc89	-0.014456877
105	0xbd3d31fe	-0.046190254
106	0xbd8a013d	-0.067385174
107	0xbd5c9582	-0.05385352
108	0x3da1b470	0.07895744
109	0xbd30e74a	-0.043189324
110	0xbdb6b277	-0.08920758
111	0x3d86bcb3	0.0657896
112	0xbca5c4d7	-0.020235462
113	0x3ca5e152	0.020249043
114	0xbcef915e	-0.029244121
115	0xbda6b2a3	-0.08139541
116	0xbd4d2451	-0.050083462
117	0xbb49ca5a	-0.0030790777
118	0x3cda15e3	0.026621765
119	0x3d59a082	0.053131588
120	0x3d37e6e0	0.044897914
121	0xbb1663f4	-0.002294776
122	0xbd034da9	-0.032056484
123	0x3bdfdf50	0.006832041
124	0xbbf6fd36	-0.0075375093
125	0x3d4d531d	0.05012809
126	0x3d9691a3	0.07351997
127	0x3d94eedf	0.072721235
128	0x364b0f90	3.0258416e-06
129	0x3aa77009	0.0012774478
130	0xbcd6ed2e	-0.026236143
131	0xbd828614	-0.063732296
132	0xbd6b3dc2	-0.057431944
133	0xbd87c069	-0.06628496
134	0xbcb08e86	-0.021552335
135	0x3cf83e1f	0.03030306
136	0x3cbaddb3	0.022810793
137	0x3d6f7fed	0.05847161
138	0x3ca23d21	0.01980454
139	0xbca5041d	-0.020143563
140	0x3cb6743c	0.022272222
141	0xbd61d03e	-0.055130236
142	0x3d52b31b	0.05144034
143	0x3c079d51	0.008277253
144	0x3dc14fd6	0.094390556
145	0xbb6a808d	-0.0035782189
146	0x3d8357f9	0.06413264
147	0x3a26eee6	0.0006367996
148	0x3d772ca8	0.060345322
149	0xbd91eea3	-0.071255945
150	0x3da9f7a0	0.08299184
151	0xbd1debda	-0.038555004
152	0x3bf73366	0.007543969
153	0xbd450e6d	-0.04810946
154	0x3d6388c3	0.055550348
155	0xbd9dab8c	-0.076987356
156	0x3d8365fe	0.06415938
157	0x3daf8ece	0.0857216
158	0xbd61fde3	-0.055173766
159	0x3d71fc28	0.059078366
160	0x3d2fff86	0.042968296
161	0x3d3fc692	0.04682023
162	0xbd558547	-0.052129056
163	0x3df4af72	0.11947526
164	0xbc1855b4	-0.009297777
165	0x3ce21bdd	0.027601177
166	0xbda7b798	-0.081893146
167	0x3d78e0a4	0.06076111
168	0x3d8f295f	0.06990313
169	0xbd54be7b	-0.05193947
170	0xbd09bf0a	-0.033629455
171	0xbcd8644a	-0.026415009
172	0x3dac5875	0.08415309
173	0xbc988bea	-0.018621404
174	0xbd73c73e	-0.059516184
175	0x3d695d44	0.05697371
176	0x3c9ecf91	0.019386085
177	0x3d951e84	0.07281211
178	0xbd46ed75	-0.0485663
179	0xbd0adb6e	-0.03390067
180	0x3d7ac651	0.061224286
181	0x3cb49c35	0.022047142
182	0xbceec5b0	-0.029147
183	0x3c751541	0.014958681
184	0xbc3593e9	-0.011082628
185	0xbd3a6dbc	-0.045514807
186	0x3d524c40	0.05134225
187	0xba2c52e8	-0.0006573633
188	0x3c8f3c0b	0.017484685
189	0x3b512c0f	0.003191713
190	0x3d06540b	0.032794993
191	0xbcad3acd	-0.021146202
192	0x3d1f8481	0.038944725
193	0x3d8fd2d3	0.070226334
194	0xbd4a26fb	-0.04935358
195	0xbd384ad3	-0.044993233
196	0xbccaeff4	-0.024772622
197	0x3d23c438	0.03998205
198	0x3c66b7d4	0.014081914
199	0x3cc781a3	0.024353808
200	0x3d1a6af7	0.037699666
201	0xbd3c1c76	-0.04592558
202	0xbd74e82e	-0.059791736
203	0xbcf107ab	-0.029422602
204	0x3d3dcc36	0.04633733
205	0x3dc4cd3b	0.09609457
206	0x3c2c4441	0.01051432
207	0xbd6a155c	-0.057149276
208	0xbd59c92f	-0.05317038
209	0xbd615651	-0.05501396
210	0x3da3e3a5	0.08002404
211	0xbd7ac2b4	-0.06122084
212	0xbd8682ca	-0.06567915
213	0x3d8fb914	0.07017723
214	0x3d14db7d	0.036342133
215	0x3d59006d	0.05297892
216	0xbae09c11	-0.0017136355
217	0x3c8def6b	0.017326077
218	0xbc911931	-0.017712208
219	0x3de7764d	0.11301861
220	0x3d702b2c	0.058634922
221	0x3d85429b	0.065068446
222	0xbd9fa0f0	-0.07794368
223	0xbd90537e	-0.07047175
224	0x3dbc9146	0.09207396
225	0xbcbc9135	-0.023018459
226	0xbd53c0d8	-0.051697582
227	0x3d34a3ee	0.044101648
228	0x3d81067e	0.063000664
229	0x3d53853f	0.051640745
230	0xbd90b9a1	-0.07066656
231	0x3a986f95	0.0011629934
232	0x3d136bc2	0.035991438
233	0x3c27309e	0.010204462
234	0x3d3f8ea2	0.046766885
235	0x3c964cb8	0.01834713
236	0x3d953abb	0.072865926
237	0xbc8421ab	-0.016129335
238	0xbdab9bc2	-0.08379318
239	0x3cbfb26f	0.023400513
240	0x3d6fd61f	0.05855381
241	0x3c8c41a8	0.017121151
242	0x3da86191	0.08221734
243	0xbcf720e9	-0.03016706
244	0xbc3b16cc	-0.011419009
245	0x3cc2bc57	0.023771448
246	0x3c7ab2c0	0.015301406
247	0x3bfb4274	0.007667834
248	0x3c6c48fa	0.014421696
249	0xbd27453e	-0.04083752
250	0x3ddc23bb	0.107490025
251	0x3d132124	0.035920277
252	0x3b50f76d	0.0031885759
253	0xbd436930	-0.047707736
254	0xbd9ae867	-0.075638585
255	0xbd8807b2	-0.06642093

head.2.bias f4 [6]
0	0xbd114f48	-0.035476
1	0xbc44dbf1	-0.012015329
2	0xbc41cd73	-0.011828768
3	0x3d85ea8f	0.06538879
4	0x3d863486	0.06552987
5	0x393b9c84	0.00017892016
