models_decentralized/final/policy_1_350.pth (torch, 163209 bytes, 10 tensors)

conv.net.0.weight f4 [3, 31, 3, 3]
0	0x3c759df7	0.014991275
1	0xbde33d35	-0.11095659
2	0x3d1fc577	0.039006677
3	0x3dc2101c	0.09475729
4	0x3cfbc0cc	0.030731581
5	0xbc7c6d3e	-0.015406905
6	0xbe0b6104	-0.13611227
7	0x3d1bee3b	0.03806899
8	0x3d781805	0.06056978
9	0x3de688d5	0.112565674
10	0xbda9d9be	-0.08293484
11	0xbddfd76b	-0.109297596
12	0xbd22b8fa	-0.03972719
13	0x3d0f79df	0.035028335
14	0xbcee73b1	-0.0291079
15	0x3dbf25e9	0.09333403
16	0xbc4487e1	-0.011995287
17	0x3d528b07	0.051402118
18	0x3e13bc7d	0.14427371
19	0x3c7e89f9	0.015535825
20	0x3d993a8d	0.07481871
21	0xbda0da07	-0.078540854
22	0xbe0d9f9e	-0.1383042
23	0x3a7734e2	0.00094301824
24	0x3da504c5	0.0805755
25	0xbcdc6e93	-0.026908195
26	0x3dbb47ad	0.091445304
27	0x3be4302f	0.0069637517
28	0xbcfc49f8	-0.03079699
29	0x3de59820	0.11210656
30	0xbc7665a7	-0.015038884
31	0xbdbac230	-0.091190696
32	0xbd76e061	-0.06027258
33	0xbc7257d9	-0.014791452
34	0x3c988e4d	0.018622542
35	0xbd9ad7a6	-0.07560663
36	0x3d490a58	0.04908213
37	0xbcaab50e	-0.020838287
38	0x3d8f68c4	0.07002404
39	0xbe0870b9	-0.1332425
40	0x3d65b4f7	0.056080785
41	0xbe103461	-0.14082481
42	0xbe049019	-0.12945594
43	0xbd173365	-0.036914248
44	0xbc57755a	-0.013150537
45	0xbdf7f74b	-0.12107714
46	0xbd80525c	-0.06265709
47	0x3d4d4a32	0.050119586
48	0x3ca7c9b5	0.020481924
49	0x3a8aed41	0.0010599272
50	0xbe081155	-0.13287862
51	0xbe06fa73	-0.13181476
52	0xbdfee855	-0.124466576
53	0xbd9876b1	-0.074445136
54	0x3d64affe	0.0558319
55	0x3d42b74e	0.047538094
56	0x3d9d459a	0.07679291
57	0x3de12ddf	0.10995077
58	0xbd22e3fd	-0.039768208
59	0xbe12a78b	-0.14321725
60	0x3dbf9aa7	0.093556695
61	0xbe0a3f9a	-0.13500825
62	0x3d14c6f7	0.03632256
63	0xbd353032	-0.044235416
64	0xbc9974f9	-0.018732535
65	0x3d9dc49f	0.07703518
66	0xbd5e97b8	-0.05434391
67	0x3c0c5e70	0.0085674375
68	0x3c8fe074	0.017563082
69	0xbdb8857c	-0.09009835
70	0x3dc761e5	0.09735469
71	0x3cc518bf	0.024059651
72	0xbe041959	-0.12900294
73	0x3d265af3	0.04061408
74	0x3dd1370b	0.10215577
75	0x3d93c3fa	0.07215114
76	0x3c2a831d	0.010407236
77	0xba8264f3	-0.0009948298
78	0x3d588ff1	0.05287165
79	0x3bac8373	0.0052646934
80	0xbdcadbcb	-0.099052034
81	0xbc8e3144	-0.017357476
82	0x3d2dd78d	0.042441893
83	0x3e0d42ce	0.13795015
84	0x3e0624c1	0.13099958
85	0xba91e0f7	-0.0011129667
86	0xbc247c1d	-0.010039357
87	0xbcd569c9	-0.026051419
88	0x3c74666a	0.014916996
89	0x3d6d6a8f	0.05796295
90	0xbd9f1597	-0.0776779
91	0xbde4e4a7	-0.111764245
92	0x3dee3325	0.11630849
93	0x3dbcdc49	0.092217036
94	0x3dd9fbe1	0.10643745
95	0x3dc64467	0.096810155
96	0xbdeada5c	-0.1146743
97	0x3d9779ea	0.073963
98	0x3ca6f01e	0.020378169
99	0xbc17af4d	-0.009258104
100	0x3ce8a79e	0.028400239
101	0x3d65b5aa	0.05608145
102	0x3d255354	0.04036267
103	0xbde73e85	-0.112912215
104	0xbd7431ee	-0.05961793
105	0x3d8ab7b0	0.06773317
106	0x3d4d5c8e	0.050137095
107	0xbcd096a3	-0.025462454
108	0x3c050197	0.008118055
109	0x3d1d1411	0.038349215
110	0x3ca81924	0.0205198
111	0x3d46dd6f	0.04855102
112	0xbdbe7975	-0.0930051
113	0x3e03bcbe	0.12864968
114	0x3dfa2d7e	0.12215708
115	0x3dad81ef	0.084720485
116	0xbdaa42aa	-0.083134964
117	0xbe0777a7	-0.13229237
118	0x3deb54e3	0.114908
119	0xbd79cc5a	-0.0609859
120	0x3d2b7a1b	0.041864496
121	0xbd2ff027	-0.042953636
122	0x3d3eee58	0.04661402
123	0xbe0e4704	-0.13894278
124	0x3dda4e7d	0.10659502
125	0x3dccfa8e	0.10008727
126	0x3dd7b453	0.10532441
127	0x3d73178b	0.059348624
128	0x3d6e38f0	0.05815977
129	0xbd659e5f	-0.056059238
130	0x3df50135	0.11963121
131	0x3dffa3e1	0.12482429
132	0xbd157c95	-0.036495764
133	0x3e156958	0.14590967
134	0x3e055855	0.13021977
135	0x3dba1689	0.090863295
136	0xbdb5a16d	-0.0886868
137	0xbe12a665	-0.14321287
138	0xbdc1c6d0	-0.094617486
139	0xbe0b7be4	-0.1362148
140	0x3d157730	0.03649062
141	0xbd5dfe9d	-0.054197896
142	0xbcf3266f	-0.029681413
143	0xbda853c6	-0.082191035
144	0x3e01a53f	0.12660693
145	0xbd88fd1b	-0.06688901
146	0xbe131366	-0.14362869
147	0x3de4a98e	0.111651525
148	0xbd422585	-0.047399063
149	0x3d1bfc23	0.038082253
150	0x3de34bbc	0.110984296
151	0x3d293818	0.04131326
152	0x3dee3b09	0.11632354
153	0x3d5060fa	0.050873734
154	0x3da401dc	0.08008167
155	0xbcba8087	-0.022766365
156	0xbc354c86	-0.011065608
157	0x3d8815a8	0.066447556
158	0x3dac1011	0.08401502
159	0xbdb9db60	-0.090750456
160	0x3b0c897f	0.0021444259
161	0xbc81e476	-0.015856009
162	0x3da18604	0.078868896
163	0x3d8cd1bb	0.068759404
164	0x3dc0a0f5	0.094057
165	0xbd76df39	-0.060271475
166	0xbde8575f	-0.1134479
167	0x3c8bbaf1	0.017056914
168	0x3dad4d65	0.084620275
169	0x3dbda226	0.09259443
170	0xbdf20455	-0.118172325
171	0xbba25d32	-0.0049549574
172	0xbd40b4d2	-0.047047444
173	0xbd32794e	-0.043572716
174	0xbd8cdc35	-0.06877939
175	0xbd9d64c6	-0.07685237
176	0xbc87234b	-0.016496321
177	0xbd1107c5	-0.0354078
178	0xbe123750	-0.14278913
179	0x3e027d44	0.12743098
180	0xbcb70bf0	-0.02234456
181	0x3e13e06e	0.14441082
182	0x3d3588ca	0.044319905
183	0xbdc852c9	-0.09781415
184	0xbdf2474b	-0.11830004
185	0x3da82db1	0.0821184
186	0x3dbf5edf	0.09344267
187	0xbdefc5de	-0.11707662
188	0x3db6e698	0.08930701
189	0x3ba8a576	0.0051466776
190	0xbdc5d738	-0.0966019
191	0x3c4ba94e	0.012430502
192	0xbcb2a05f	-0.021804987
193	0xbd80a0c7	-0.06280666
194	0x3c22a600	0.009927273
195	0xbdd2a45e	-0.10285257
196	0x3e0564ed	0.13026781
197	0xbdcc5a59	-0.0997817
198	0x3c99f815	0.018795053
199	0xbdaf586c	-0.08561787
200	0xbde0d740	-0.10978556
201	0xbe146036	-0.14489827
202	0x3ca8881c	0.020572715
203	0x3d3a9dab	0.04556052
204	0xbde836d3	-0.11338582
205	0x3d637052	0.05552704
206	0xbd7d475e	-0.06183564
207	0x3d89e014	0.06732193
208	0xbe12da78	-0.14341152
209	0x3d8efd2c	0.069818825
210	0xbdf4200b	-0.11920174
211	0x3d7a32f7	0.06108376
212	0x3d9f1430	0.07767522
213	0x3cd0dc03	0.025495535
214	0xbd8b896f	-0.06813323
215	0xbe09ae0f	-0.13445304
216	0x3b997aa0	0.0046838075
217	0xbd108bd9	-0.03528962
218	0xba4ea757	-0.0007883212
219	0xbd18058e	-0.037114672
220	0x3e0c666e	0.13710949
221	0xbb227dd0	-0.0024794228
222	0xbaa7ff90	-0.0012817252
223	0x3dc25fef	0.09490954
224	0x3dc304dd	0.09522412
225	0xbdeda397	-0.11603468
226	0xbdbd6c5e	-0.09249185
227	0xbdd00f9d	-0.10159228
228	0xbd1ba902	-0.038002975
229	0xbe10db84	-0.14146239
230	0xbd7c6977	-0.061624017
231	0x3e0599ee	0.13047001
232	0xbe1098c3	-0.14120774
233	0xbe0f097a	-0.13968459
234	0x3cbf8527	0.023378922
235	0xbdd56610	-0.104198575
236	0x3b0cb9ea	0.0021473118
237	0x3e113475	0.14180167
238	0xbd5bab30	-0.053630054
239	0xbda50082	-0.080567375
240	0x3dd51668	0.10404664
241	0xbdad5e91	-0.08465303
242	0x3d8d37ec	0.06895432
243	0x3d3e20fc	0.046418175
244	0xbd855291	-0.06509889
245	0x3d4d6249	0.05014256
246	0x3e00aed7	0.12566696
247	0xbcb4c58a	-0.02206685
248	0xbd13927f	-0.03602838
249	0x3d6a7ce5	0.057248015
250	0x3d0db222	0.03459371
251	0x3db6146f	0.08890616
252	0xbe08ee10	-0.13372064
253	0xbca0a7ce	-0.019611266
254	0xbdd3587d	-0.10319612
255	0xbdcb43cd	-0.09925041

conv.net.0.bias f4 [3]
0	0x3b887da0	0.0041653663
1	0xbb255d49	-0.0025232604
2	0xbc03c4c1	-0.008042515

conv.net.3.weight f4 [6, 3, 3, 3]
0	0xbeba43c9	-0.3637984
1	0xbe8a27e7	-0.26983568
2	0x3ea8174f	0.32830283
3	0xbe6f2b76	-0.23356423
4	0xbd31b8d7	-0.043389168
5	0xbdc71025	-0.09719876
6	0x3cb20b09	0.021733778
7	0x3e28525a	0.16437665
8	0xbe2dbf56	-0.1696752
9	0x3d9518ae	0.07280098
10	0x3e5c378a	0.21505561
11	0x3ea1bbf9	0.31588724
12	0xbd574f30	-0.052565753
13	0x3ec9f7fd	0.39447013
14	0xbe0cd9a2	-0.13754895
15	0xbe9b33ee	-0.30313057
16	0x3eaeb2f7	0.34120914
17	0x3e16309d	0.14666982
18	0xbd8fa545	-0.070139445
19	0x3e0d07f3	0.13772564
20	0x3ec9fdbc	0.39451396
21	0x3ed53082	0.4163857
22	0x3da002ab	0.07813009
23	0x3d5b72dd	0.05357634
24	0x3dc581c1	0.09643889
25	0x3eda72f9	0.42665842
26	0xbeafa423	-0.34304914
27	0x3e6060f1	0.2191198
28	0xbda65a9e	-0.081227526
29	0x3eb6551f	0.35611817
30	0xbea65a37	-0.32490703
31	0x3d165c13	0.036708903
32	0xbbb97e5b	-0.0056608147
33	0x3e1b9087	0.15191852
34	0xbee0a772	-0.4387775
35	0x3d87e49c	0.06635401
36	0x3ccdb2fa	0.025109757
37	0x3dbfc083	0.093628906
38	0x3d61ebe6	0.05515661
39	0x3e4b1ab8	0.19834411
40	0x3ebb82c7	0.36623213
41	0xbd19fc20	-0.03759396
42	0xbd461ec6	-0.04836919
43	0xbe93c77b	-0.2886313
44	0xbe7e472c	-0.24831837
45	0x3cb792bb	0.022408834
46	0x3ed26f34	0.41100466
47	0xbe874330	-0.26418447
48	0x39aa855c	0.00032524287
49	0xbe59a1dd	-0.21253152
50	0xbe24833f	-0.16065691
51	0x3e9cdcf2	0.30637318
52	0xbef0a5eb	-0.47001585
53	0x3d6b2a05	0.05741312
54	0xbe50688a	-0.20352378
55	0x3e0024b2	0.12513998
56	0x3e1b19fe	0.15146634
57	0x3e8ee539	0.27909258
58	0x3e3a2cd2	0.1818116
59	0xbea739e3	-0.32661352
60	0xbdcb2cb7	-0.09920638
61	0xbeada8e9	-0.3391793
62	0x3e54c7e5	0.20779379
63	0xbecaf5f2	-0.39640766
64	0x3e08cd2b	0.13359515
65	0xbe8d7c96	-0.27634114
66	0x3bb3c687	0.005486313
67	0xbd346fda	-0.044051982
68	0xbccede62	-0.025252525
69	0x3e0a6b8f	0.13517593
70	0xbe07ca74	-0.13260823
71	0xbdd1c23a	-0.10242124
72	0x3ec57474	0.3856541
73	0xbebba085	-0.36645904
74	0x3e1c04de	0.15236232
75	0x3ebb79bf	0.36616322
76	0x3c83a5b0	0.016070217
77	0x3c5f2cb8	0.013621502
78	0x3ec114c5	0.37711158
79	0xbee5b8f9	-0.44867685
80	0xbeb05079	-0.34436396
81	0xbeaa84b6	-0.33304375
82	0xbe9e5c0b	-0.30929598
83	0x3ece89d4	0.4033953
84	0x3eab23ba	0.33425695
85	0x3eef076f	0.4668536
86	0x3e0b7617	0.13619266
87	0xbee431b7	-0.4456918
88	0xbe496053	-0.19665651
89	0x3e667c98	0.22508466
90	0xbdd15de7	-0.102229886
91	0x3ecd535a	0.40102655
92	0xbe5102c6	-0.20411214
93	0x3e395bd9	0.18101443
94	0xbedfe6ae	-0.43730682
95	0xbdbb7cb2	-0.09154643
96	0x3dd7857e	0.105235085
97	0xbda1abfe	-0.07894133
98	0xbee12db6	-0.43980187
99	0x3e44aa4d	0.1920559
100	0xbdd51faa	-0.1040643
101	0x3ee0e375	0.43923536
102	0xbecf0d37	-0.4043977
103	0xbee81ffa	-0.45336896
104	0xbd8a2c1c	-0.067466944
105	0x3db41e66	0.087948605
106	0xbe7c9737	-0.24667059
107	0x3e724035	0.23657306
108	0xbd976ed4	-0.07394186
109	0x3e9bdbd1	0.30441144
110	0xbd849c38	-0.06475109
111	0x3eefd1c8	0.46839738
112	0x3eb74400	0.35794067
113	0xbead2523	-0.33817396
114	0xbd7ce52c	-0.061741993
115	0x3ec3d8c3	0.38251314
116	0xbecf0bfb	-0.40438828
117	0x3e91e9dc	0.28498733
118	0xbedbc5b8	-0.42924285
119	0x3ec683a6	0.38772315
120	0xbe4952ec	-0.19660538
121	0xbe12bd1a	-0.14329949
122	0x3d62f772	0.055411763
123	0x3e33d913	0.17563276
124	0x3de30fca	0.11086996
125	0xbe1a2a6c	-0.15055245
126	0xbe0dd0a3	-0.1384912
127	0xbee1d5bf	-0.44108388
128	0x3e1d6966	0.15372238
129	0xbdead185	-0.11465744
130	0x3d10355b	0.035207134
131	0xbe7aebfe	-0.24504086
132	0xbe2c839e	-0.16847083
133	0xbe6c1c93	-0.23057775
134	0xbe278b74	-0.16361791
135	0x3db91527	0.090372376
136	0xbd901e40	-0.0703702
137	0x3e806be8	0.25082326
138	0xbd924220	-0.071415186
139	0x3d3ff5ad	0.046865154
140	0x3e63e1c5	0.22254093
141	0xbe20e470	-0.15712142
142	0x3dbff05b	0.09372016
143	0xbebb00cc	-0.36524045
144	0x3d77b016	0.060470663
145	0xbc375663	-0.01119003
146	0xbd451316	-0.048113905
147	0x3eeaa2fd	0.45827475
148	0xbe812195	-0.25220934
149	0xbe50ac8c	-0.20378321
150	0x3ea78edd	0.32726184
151	0x3e1aeb43	0.15128808
152	0x3e996f2f	0.2996764
153	0x3e66416f	0.22485898
154	0xbeb5f45f	-0.35538003
155	0x3e788299	0.24268569
156	0xbddb3dae	-0.10705124
157	0x3e863ab5	0.26216665
158	0x3e8836cf	0.26604316
159	0xbeb33316	-0.34999913
160	0x3e7a0efd	0.2441978
161	0x3e52f56b	0.20601432

conv.net.3.bias f4 [6]
0	0xbb2253fb	-0.0024769295
1	0xbb28d9ca	-0.0025764578
2	0xbaba9cac	-0.0014237366
3	0x3ba34afe	0.004983305
4	0xbb8b77a4	-0.0042562056
5	0xbaddabb3	-0.0016912132

conv.net.6.weight f4 [6, 6, 3, 3]
0	0xbdb1499f	-0.0865662
1	0xbe75cfad	-0.24005003
2	0xbe80fa95	-0.2519118
3	0x3e54cfde	0.2078242
4	0x3e339e51	0.17540862
5	0x3e30ac53	0.17253236
6	0xbe0fce70	-0.14043593
7	0xbc33537b	-0.010945196
8	0xbdad7794	-0.08470073
9	0xbe8ed138	-0.27893996
10	0x3ac06d9a	0.0014681101
11	0x3e12472d	0.14284964
12	0xbea82ffe	-0.32849115
13	0xbda1a311	-0.078924306
14	0xbe40735c	-0.18794006
15	0x3e5f9ff4	0.21838361
16	0x3e61f884	0.22067457
17	0xbd2fb2c9	-0.042895112
18	0x3e89ca14	0.26911986
19	0x3e7d59b2	0.24741247
20	0xbd400bac	-0.04688613
21	0x3da0924b	0.07840403
22	0x3bf0adaf	0.0073449234
23	0x3e60fe39	0.21971978
24	0x3d5547ab	0.0520703
25	0xbc7739a7	-0.015089429
26	0xbe65b392	-0.22431782
27	0xbded2d5d	-0.11580918
28	0xbe470fb8	-0.1943959
29	0x3e09c450	0.13453794
30	0xbe0212aa	-0.12702432
31	0x3e9c0c3f	0.30478093
32	0x3e1abee0	0.15111876
33	0xbe343f37	-0.1760224
34	0x3e6bd10d	0.23028965
35	0xbe3b7b54	-0.18308765
36	0xbe68ab24	-0.22721535
37	0x3e728880	0.23684883
38	0xbe9d46b9	-0.3071802
39	0x3e8e3b16	0.27779454
40	0x3e36fdac	0.17870206
41	0xbd8643fd	-0.065559365
42	0x3e9f19c4	0.31074345
43	0xbe28d247	-0.16486464
44	0xbe2b7aeb	-0.16746108
45	0xbe28f850	-0.16500974
46	0x3e6e9985	0.2330075
47	0x3e33fd45	0.17577083
48	0xbb95402d	-0.0045547695
49	0xbe81a9f3	-0.25324973
50	0xbdaa4520	-0.08313966
51	0x3e41e53c	0.18935102
52	0xbe84b63d	-0.25920287
53	0xbda994e1	-0.082803495
54	0xbdd55b94	-0.10417858
55	0x3d5f9444	0.054584756
56	0x3defe39f	0.11713337
57	0xbe9f102b	-0.31067023
58	0xbe38f43d	-0.1806192
59	0x3e93b5d9	0.28849676
60	0xbe16181f	-0.14657639
61	0x3e0017d3	0.12509088
62	0x3e9ae6b4	0.30254138
63	0x3dec869b	0.115491115
64	0xbe44c7e2	-0.19216874
65	0x3e5e61a1	0.2171693
66	0xbd085b6b	-0.033290308
67	0xbdfa0182	-0.12207319
68	0x3d3484ca	0.04407195
69	0x3ea5720c	0.32313573
70	0x3db02a1d	0.086017825
71	0x3e39132b	0.18073718
72	0x3e62199c	0.22080082
73	0x3df32d7d	0.118739106
74	0xbe89ce1d	-0.26915064
75	0xbd2c69f2	-0.042093225
76	0xbe8bd411	-0.2731023
77	0xbe003347	-0.12519561
78	0xbe94bdd5	-0.2905108
79	0x3dcf4a4b	0.10121592
80	0x3df852e5	0.12125186
81	0x3e59ae31	0.21257855
82	0x3e8a78b0	0.27045202
83	0xbdea4adc	-0.114400595
84	0xbe5e4406	-0.21705636
85	0xbe8e0d8d	-0.27744713
86	0x3e867ac4	0.26265538
87	0xbdf5fa03	-0.120105766
88	0xbe1a8c91	-0.15092684
89	0x3e80026a	0.25001842
90	0xbe53716b	-0.20648734
91	0x3e3d69fc	0.18497461
92	0x3d610ddd	0.05494486
93	0xbe680529	-0.22658218
94	0x3e9e8c0b	0.3096622
95	0xbe2c830e	-0.16846868
96	0xbe6fce9e	-0.23418662
97	0x3e54b8ca	0.20773616
98	0x3e26cf6a	0.1629006
99	0x3e644141	0.22290517
100	0x3dc8e88c	0.0980998
101	0xbddd767a	-0.10813613
102	0x3ccff364	0.025384612
103	0xbe74cca6	-0.23906192
104	0xbda3add4	-0.079921395
105	0xbcc8a30b	-0.024491807
106	0x3e30e7f8	0.17275989
107	0x3d618aef	0.055064138
108	0x3d104d7f	0.035230156
109	0x3e3c2b0e	0.18375799
110	0x3e25e6a9	0.16201271
111	0xbd99b6c8	-0.07505566
112	0xbe1773b8	-0.14790237
113	0xbe88cd0e	-0.26718944
114	0x3e73d5eb	0.23812072
115	0xbdeb4d72	-0.11489381
116	0xbe03c834	-0.1286934
117	0xbbd71227	-0.006563443
118	0xbea93539	-0.33048418
119	0x3e521160	0.2051444
120	0x3e6094d5	0.21931775
121	0x3d01c0f6	0.031678163
122	0xbdaaf0ed	-0.08346734
123	0xbe5b143b	-0.21394436
124	0xbe95bdc1	-0.29246333
125	0x3e3b4e84	0.1829167
126	0xbdff3986	-0.124621436
127	0x3e638727	0.22219525
128	0xbd884766	-0.06654243
129	0xbe41d179	-0.18927564
130	0xbd22443e	-0.039615862
131	0x3e0594b9	0.13045014
132	0xbe30cb07	-0.17264949
133	0xbdc0df9a	-0.094176486
134	0xbe441d61	-0.19151832
135	0xbe353241	-0.17694952
136	0x3e518e3a	0.20464411
137	0x3d89801f	0.0671389
138	0x3d6f0335	0.058352668
139	0xbe84e2d3	-0.25954303
140	0xbdf0d78b	-0.117598616
141	0x3e837d31	0.2568145
142	0x3e1f2d8d	0.1554472
143	0x3de1009a	0.10986443
144	0x3e83f6b8	0.2577417
145	0xbd56cc82	-0.052441128
146	0x3e6884de	0.22706935
147	0x3ea62520	0.324502
148	0x3e029f85	0.12756164
149	0xbe9299b4	-0.2863289
150	0x3e4ae1d9	0.19812717
151	0xbe3ce313	-0.18445997
152	0xbe07b167	-0.13251267
153	0xbd0304ce	-0.031987004
154	0xbe406ff5	-0.18792708
155	0x3e60dce5	0.21959265
156	0x3e6e8a4c	0.23294944
157	0x3a14ebae	0.0005680871
158	0xbe9caf61	-0.30602553
159	0x3e124bb8	0.14286697
160	0x3ea0bddf	0.3139486
161	0xbda2c653	-0.079479836
162	0xbd8cbd08	-0.06871992
163	0x3e83aa5a	0.25715905
164	0x3e8e7790	0.27825594
165	0x3ea675ce	0.32511753
166	0x3e69be3b	0.22826473
167	0x3e8f1363	0.27944478
168	0x3d4367f0	0.047706544
169	0x3e17e23f	0.148324
170	0x3c80ec8b	0.015737792
171	0x3e322934	0.1739853
172	0x3e21e4ef	0.15809987
173	0xbeacd2a2	-0.3375445
174	0x3d6e4b85	0.05817749
175	0xbc0d71f1	-0.008633123
176	0x3e88fb1e	0.26754087
177	0x3e23acea	0.1598393
178	0x3d6f19ee	0.058374338
179	0x3deeacb1	0.11654032
180	0x3e143d65	0.14476545
181	0xbe27cce6	-0.16386756
182	0x3dfdba46	0.123890445
183	0xbdf9b445	-0.12192587
184	0x3e14fc51	0.14549376
185	0x3e0d1711	0.1377833
186	0xbe369864	-0.1783157
187	0x3e4fa739	0.20278634
188	0x3d916101	0.0709858
189	0xbe1af23f	-0.15131472
190	0xbcab1728	-0.020885065
191	0xbe6de12e	-0.2323043
192	0x3e80e988	0.2517817
193	0xbe240f41	-0.16021444
194	0xbde4ccbe	-0.11171864
195	0xbe129189	-0.1431333
196	0x3db77083	0.08957007
197	0x3dfe9d71	0.12432373
198	0x3ea76cf8	0.32700324
199	0xbe24282f	-0.16030954
200	0x3e9658c5	0.293646
201	0xbe9d4954	-0.30720007
202	0x3db6a6a9	0.08918507
203	0x3e768015	0.24072297
204	0x3ea07171	0.3133655
205	0xbdeaa4ef	-0.1145724
206	0xbe6f1b43	-0.23350243
207	0x3dbbf1f6	0.0917701
208	0x3e0e19dc	0.13877052
209	0xbe8b0539	-0.27152422
210	0x3c1fd85f	0.009756177
211	0x3e65c65e	0.22438952
212	0x3cf4e7d5	0.029895702
213	0x3d808a42	0.062763706
214	0x3e4a12ad	0.19733687
215	0x3dd801ee	0.10547243
216	0xbda1edf0	-0.07906711
217	0x3e9078b5	0.28217092
218	0xbd9f181e	-0.07768272
219	0x3e9554ff	0.2916641
220	0x3d8ae9ba	0.06782861
221	0x3e8dde76	0.27708787
222	0x3bec2e59	0.0072076735
223	0xbd85d65e	-0.06535028
224	0xbda3e264	-0.08002165
225	0xbe69a887	-0.22818194
226	0x3e4f32f0	0.20234275
227	0x3d8aab42	0.06770946
228	0x3e574b38	0.21024787
229	0xbdf7a6c6	-0.120923564
230	0xbe6ca42a	-0.23109499
231	0xbe5fec2e	-0.21867439
232	0x3e601bbc	0.2188558
233	0x3e9edcbc	0.31027782
234	0x3e77ffc4	0.2421866
235	0x3e3d2119	0.18469657
236	0x3e4dfacc	0.20115203
237	0xbea1a481	-0.3157082
238	0x3e570c0d	0.21000691
239	0x3e943e75	0.289539
240	0x3d709186	0.058732532
241	0xbdd78219	-0.10522861
242	0x3c91cc09	0.017797487
243	0x3e847b6e	0.2587542
244	0x3c637fcd	0.013885451
245	0xbd9012cd	-0.07034836
246	0xbe40246f	-0.18763898
247	0x3d0d64c1	0.034519915
248	0x3d098ba6	0.033580445
249	0x3c193d33	0.00935297
250	0xbd0a87de	-0.03382098
251	0xbe4c34f8	-0.19942081
252	0xbd06a3f6	-0.03287121
253	0x3d356f07	0.044295337
254	0x3df4d8d0	0.11955416
255	0x3e1889d5	0.14896329

conv.net.6.bias f4 [6]
0	0x3acd0222	0.0015640894
1	0xbbadd51b	-0.005304945
2	0xbaa2ac26	-0.0012410923
3	0xbbba160b	-0.0056788973
4	0x3a1c83df	0.0005970578
5	0x39b952d7	0.0003534767

head.0.weight f4 [128, 294]
0	0xbcaed532	-0.021341894
1	0x3d1f3af7	0.038874593
2	0xbb3d9dc6	-0.0028933152
3	0xbceaed9f	-0.02867776
4	0xbc844332	-0.016145322
5	0x3cb1d168	0.021706298
6	0x3cacfa27	0.021115376
7	0xbd1eef98	-0.038802713
8	0x3c909139	0.017647373
9	0x3cdf4944	0.027256615
10	0xbd20d2ea	-0.039263643
11	0xbbfea15b	-0.0077707
12	0x3b829fe9	0.003986348
13	0xbd27f649	-0.04100636
14	0xbd17e7c9	-0.037086282
15	0xbcfa5c9f	-0.030561743
16	0xbc774f4b	-0.0150945885
17	0x3b68fa47	0.0035549568
18	0x3d009b63	0.03139819
19	0xbd14e35a	-0.03634963
20	0x3c8b3e12	0.01699737
21	0xbc169bab	-0.009192388
22	0xbd18ea98	-0.0373331
23	0x3ce1c9c3	0.027562028
24	0xbc419162	-0.011814447
25	0x3d07142f	0.032978233
26	0x3cd2861d	0.025698716
27	0x3cc77ce0	0.024351537
28	0xbd580709	-0.052741084
29	0xbca440d8	-0.020050451
30	0x3d444ebf	0.04792666
31	0x3ccf8a22	0.025334422
32	0x3d4cf117	0.05003461
33	0xbd163293	-0.036669325
34	0xbce3517e	-0.02774882
35	0x3b93f93e	0.004515796
36	0xbc0cf661	-0.008603663
37	0xbd19cbef	-0.037548
38	0x3d37905a	0.0448154
39	0xbc8ea980	-0.017414808
40	0xbc44a076	-0.0120011475
41	0xbc8ff3ba	-0.017572273
42	0xbcc6bc6a	-0.024259765
43	0x3ca0daf5	0.019635657
44	0x3c20fbd9	0.00982567
45	0x3d694a13	0.05695541
46	0xbd3615b6	-0.0444543
47	0x3d016d69	0.031598482
48	0x3c03e699	0.008050584
49	0xbd0c948e	-0.03432136
50	0xba8ec963	-0.0010893758
51	0xbd163547	-0.036671903
52	0xbd0137ad	-0.031547237
53	0xbbcc2e21	-0.006231085
54	0x3c982bb9	0.018575536
55	0x3d49cd6e	0.04926818
56	0x3c2557b5	0.010091712
57	0x3d356834	0.04428883
58	0x3d44d83f	0.04805779
59	0x3d48d619	0.049032304
60	0xbd0c5ad8	-0.034266323
61	0x3c619135	0.01376753
62	0x3d4ed602	0.050497063
63	0xbcd71141	-0.026253344
64	0xbd55a0f5	-0.052155454
65	0xbd3d636c	-0.046237394
66	0xbd688e37	-0.05677625
67	0x3ba50049	0.0050354344
68	0xbcfdd909	-0.03098728
69	0xbd100a67	-0.03516617
70	0x3c2e719c	0.010647204
71	0x3d417af5	0.0472364
72	0x3c8da699	0.017291354
73	0x3c9ef457	0.01940362
74	0xbd217f2b	-0.039427917
75	0x3c684086	0.01417554
76	0xbc32cf47	-0.010913677
77	0xbd0ea280	-0.03482294
78	0x3c3cbbcf	0.011519386
79	0x3d351f6a	0.044219412
80	0x3d33a68e	0.04386001
81	0xbd0c10d6	-0.034195744
82	0xbc787126	-0.015163695
83	0xbd0b9006	-0.0340729
84	0xbd1fdcd2	-0.03902895
85	0xbae90324	-0.0017777425
86	0x3cd47d83	0.025938755
87	0x3d09420a	0.033510245
88	0x3d1227ac	0.035682365
89	0xbd1c4190	-0.038148463
90	0xbd0baebf	-0.034102198
91	0x3c56f94d	0.013120961
92	0xbd2867b8	-0.04111454
93	0x3d0015aa	0.03127066
94	0xbc9c1515	-0.019053021
95	0xbd5ada3f	-0.053430792
96	0xbd4b8044	-0.04968287
97	0x3d12ced2	0.03584177
98	0xbd543f53	-0.051818203
99	0x3d6e42d9	0.05816922
100	0x3d0defd4	0.034652546
101	0xbc625841	-0.013814987
102	0x3d432d75	0.047650773
103	0x3afa90ac	0.0019116602
104	0xbcacc103	-0.021088129
105	0xbcec7a39	-0.028866874
106	0xbc9fd748	-0.019511834
107	0xbd2d797e	-0.042352192
108	0x3d68e52e	0.056859188
109	0xbb2d750d	-0.0026467473
110	0xbd0e9990	-0.034814417
111	0x3cb2cc3b	0.0218259
112	0x3c8685ee	0.016421285
113	0xbd1e70d7	-0.03868183
114	0x3c8ad24e	0.016945984
115	0xbccb7dc8	-0.02484025
116	0x3d143acc	0.036188886
117	0xbd498b96	-0.049205385
118	0x3d57b497	0.05266246
119	0xbb38650d	-0.0028136403
120	0x3d682fc2	0.05668617
121	0xbd0461c5	-0.032319803
122	0x3c065e03	0.008201125
123	0x3d49635a	0.049167015
124	0xbd6e899b	-0.0582367
125	0x3b85e1ba	0.0040857466
126	0xbd3d71bc	-0.046251044
127	0x3d469afb	0.048487645
128	0x3d60bf31	0.054869834
129	0x3cf2db37	0.029645545
130	0x3d504b6b	0.050853174
131	0x3c945b08	0.018109813
132	0x3a9c251b	0.0011912914
133	0x3d3fc8b1	0.046822254
134	0xbc22bc8b	-0.009932647
135	0x3b9efbca	0.004851793
136	0xbd20ae39	-0.03922865
137	0x3cfe65a6	0.03105433
138	0x3d0a15d5	0.033712227
139	0xbd0c259c	-0.034215555
140	0x3d54d58e	0.051961474
141	0x3c4fffc4	0.012695257
142	0x3cb7245f	0.02235621
143	0x3c3f546f	0.011677845
144	0xbd12a88e	-0.035805278
145	0xbc3837e2	-0.011243792
146	0xbc08eda1	-0.008357436
147	0x3cdb1f41	0.026748301
148	0x3bced1e6	0.006311643
149	0xbd584fc3	-0.05281044
150	0xbcd5f45f	-0.026117502
151	0x3d6a01c0	0.057130575
152	0xbc2c8a4f	-0.010531022
153	0xbd32eabf	-0.043680903
154	0xbd572660	-0.05252683
155	0x3d6d5e15	0.05795105
156	0xbb00d448	-0.001965778
157	0xbb8f9814	-0.004382143
158	0x3c997390	0.018731862
159	0x3d3ef4d9	0.046620224
160	0xbd11c657	-0.035589542
161	0xbd601fa9	-0.054717693
162	0x3d4897c4	0.04897286
163	0x3d25908b	0.04042105
164	0xbcb48b7f	-0.022039173
165	0x3c498410	0.012299553
166	0x3d1d9452	0.038471527
167	0x3d4597d5	0.0482405
168	0xbc6e0236	-0.014526894
169	0x3d2b34c7	0.04179838
170	0x3d4172e3	0.047228705
171	0x3d286543	0.041112196
172	0x3ce630a9	0.028099375
173	0x3c12095e	0.008913366
174	0x3cfbe9a8	0.030751064
175	0x3c26d148	0.0101817325
176	0x3ba08c0c	0.0048995074
177	0xbc23683e	-0.009973584
178	0xbc8617b4	-0.016368724
179	0x3b983507	0.004644993
180	0x3cd78390	0.026307851
181	0xbc8a055a	-0.016848255
182	0x3ca0b154	0.019615807
183	0xbd4d4bf4	-0.050121263
184	0x3c935fdc	0.017990045
185	0xbd5ae806	-0.05344393
186	0xbd20d2bf	-0.039263483
187	0x3d1ad1a6	0.037797593
188	0xbb51386d	-0.0031924502
189	0x3c87669d	0.016528422
190	0x3c08000e	0.008300794
191	0x3c6fdcf2	0.01464008
192	0x3ccad49b	0.024759581
193	0x3c2f8dc8	0.010714956
194	0xbd3d72ae	-0.046251945
195	0xbcb0f209	-0.021599786
196	0xbcaed014	-0.021339454
197	0xbd6e3dae	-0.05816429
198	0x3d545f2d	0.05184858
199	0x3d092bc7	0.033489015
200	0xbbca523a	-0.006174353
201	0xbc955c51	-0.018232496
202	0xbd1d42a2	-0.038393624
203	0x3c46236c	0.012093406
204	0xbcdc02bd	-0.026856774
205	0x3d6b0986	0.05738213
206	0x3aaf0345	0.0013352415
207	0xbd3c602a	-0.045990147
208	0x3d13d5b6	0.036092483
209	0x3c94a5b3	0.018145418
210	0x3cd7bb07	0.026334299
211	0x3d27c9ba	0.040963866
212	0x3bc6a448	0.0060620643
213	0xbd495783	-0.049155723
214	0xbd417b8c	-0.047236964
215	0xbd507f28	-0.050902516
216	0x3d687ce1	0.05675972
217	0x3d239464	0.03993644
218	0x3d50dae7	0.05099001
219	0x3ce7f915	0.028317014
220	0x3cc7bfcc	0.024383448
221	0xbd103225	-0.03520407
222	0xbcdeafa2	-0.027183358
223	0x3d37a5c2	0.044835813
224	0x3d6b28d7	0.057411995
225	0x3d0da0d6	0.034577213
226	0x3c017ae0	0.007902831
227	0xbc5863a6	-0.013207352
228	0xbc3dcc41	-0.011584342
229	0xbb4a93c8	-0.0030910838
230	0xbbdae978	-0.0066806637
231	0xbc537249	-0.012905666
232	0x3d651a56	0.05593332
233	0xbca2b22d	-0.019860351
234	0xbcf19a19	-0.029492425
235	0xbbe11ccc	-0.006869888
236	0x3cd32d4e	0.025778439
237	0x3c89e1f3	0.016831374
238	0x3be017fc	0.0068387967
239	0x3bf067d7	0.0073365974
240	0x3cab1d38	0.020887956
241	0xbc7afe94	-0.015319485
242	0xbc12879a	-0.008943463
243	0xbd19022a	-0.03735558
244	0xbd13caab	-0.03608195
245	0x3d52b793	0.0514446
246	0xbd144ad6	-0.03620418
247	0x3d1014d7	0.035176124
248	0xbd54755e	-0.051869743
249	0xbd198b99	-0.037486646
250	0x3c6a50c5	0.0143014835
251	0xbd517084	-0.051132694
252	0x3b95eea1	0.004575566
253	0xbd3d3cb4	-0.04620047
254	0xbbb2ccaf	-0.005456529
255	0xbd0be2ee	-0.034151964

head.0.bias f4 [128]
0	0xbd3740c6	-0.044739507
1	0x3d0cc69c	0.034369096
2	0x3d1821f6	0.037141763
3	0xbd5b78e8	-0.053582102
4	0xbb24fa38	-0.0025173556
5	0xbd31ebcc	-0.043437764
6	0x3d29f45d	0.04149281
7	0x3cd406b6	0.025882106
8	0x3cada78e	0.02119806
9	0x3d3a9cef	0.04555982
10	0xbac1b3e2	-0.0014778341
11	0xbbf552a8	-0.00748666
12	0x3cb11347	0.021615637
13	0xbd1a43d4	-0.037662342
14	0x3cb27a79	0.021786915
15	0xbc817636	-0.015803438
16	0xbc8b3b14	-0.016995944
17	0x3ba3e4ba	0.0050016316
18	0x3c4e5366	0.012593126
19	0xbb97b1e5	-0.004629361
20	0x3b65a4b0	0.0035040788
21	0x3d0c323b	0.03422759
22	0xbd2c89ce	-0.04212361
23	0x3c75b348	0.014996357
24	0x3c2816ab	0.010259311
25	0x3d2416af	0.040060695
26	0xbd5d5814	-0.054039076
27	0xbc44e6ea	-0.012017945
28	0xbd3424be	-0.043980353
29	0xbd1cdce2	-0.038296588
30	0xbcbbaee0	-0.022910535
31	0x3c94e37d	0.018174881
32	0xbd0f8c57	-0.035045948
33	0xbb22d0fc	-0.0024843803
34	0x3d43fda5	0.047849316
35	0xbc8d4fb8	-0.017249927
36	0xbd01e8b1	-0.031716052
37	0x3c05b971	0.008161888
38	0xbc14c9a7	-0.009081281
39	0x3d202c80	0.03910494
40	0x3d5ee785	0.054420013
41	0x3c8439e1	0.01614088
42	0xbc5b8d26	-0.013400352
43	0xbd35a7c8	-0.04434946
44	0xbd1ac941	-0.037789587
45	0x3c96487c	0.01834511
46	0x3d45e8ad	0.0483176
47	0x3cdb60e2	0.026779596
48	0xbcc55bb4	-0.024091579
49	0x3c8732ae	0.016503658
50	0x3d65fc5e	0.05614888
51	0x3d571fa3	0.052520406
52	0x3d3b3202	0.045701988
53	0x3cdb6b06	0.026784431
54	0x3c39c0e8	0.011337496
55	0xba9dd86b	-0.0012042647
56	0xbc56d81d	-0.013113049
57	0xbcc451e4	-0.02396483
58	0xbc658628	-0.014009036
59	0x3c6f3114	0.0145991035
60	0xbbe9f284	-0.007139506
61	0xbc659350	-0.014012173
62	0xbd381b68	-0.04494801
63	0xbc6fcdfd	-0.014636514
64	0x3caec454	0.02133385
65	0xbc8bf3ea	-0.01708408
66	0x3d0ce9b3	0.03440256
67	0x3d009169	0.031388674
68	0xbcbf38dd	-0.023342544
69	0x3d621e20	0.05520451
70	0x3cc73be4	0.02432055
71	0xbd231111	-0.039811198
72	0x3cd3321c	0.02578073
73	0xbc80c76c	-0.015720092
74	0x3d4417fb	0.047874432
75	0xbd2f9198	-0.04286346
76	0x3d5a6f89	0.053329024
77	0xbd5fd78c	-0.05464892
78	0x3d3f9ffa	0.046783425
79	0x3cfbce1a	0.030737925
80	0xbd601058	-0.054703087
81	0xbccd8e78	-0.025092348
82	0xbd03f17b	-0.032212716
83	0xbc07db24	-0.008291993
84	0x39ecd6b4	0.00045173394
85	0x3d51a1dc	0.05117975
86	0x3cc043c4	0.023469813
87	0xbd5971d1	-0.05308706
88	0x3c8a82cc	0.016908072
89	0xbd578c88	-0.052624255
90	0x3c7159d0	0.014730886
91	0xbbc30713	-0.005951771
92	0x3d47c172	0.04876847
93	0x3d28584d	0.041099835
94	0xbd1722c0	-0.036898375
95	0xba1abf7b	-0.00059031666
96	0xbd4f49b2	-0.05060739
97	0x3d2e7768	0.042594343
98	0xbc6c70f7	-0.01443123
99	0xbca43586	-0.020045053
100	0xbcd4ef8e	-0.025993135
101	0xbd3dc9ef	-0.046335157
102	0x3d045448	0.03230694
103	0x3cfeb803	0.031093603
104	0x3d21b046	0.039474748
105	0xbc86a554	-0.016436256
106	0xbc54f982	-0.01299894
107	0x3c115b02	0.008871796
108	0xbcfabde8	-0.030608132
109	0x3d368955	0.044564564
110	0x3c5f817c	0.013641711
111	0x3c538f5b	0.012912597
112	0xbcfa8c5c	-0.030584507
113	0xbbbda02a	-0.0057869153
114	0xbd3828c8	-0.044960767
115	0x3d4cc95c	0.04999672
116	0x3cf532ce	0.029931452
117	0xbd3da9f2	-0.04630465
118	0xbcfbfaef	-0.030759303
119	0x3d394945	0.04523589
120	0xbd68330e	-0.056689315
121	0x3d5b254e	0.053502373
122	0xbd606e8e	-0.054792933
123	0xbcef3d3d	-0.029204005
124	0xbd176886	-0.036964916
125	0x3a8e75df	0.0010868869
126	0x3d483969	0.048882876
127	0x3d469e5d	0.04849087

head.2.weight f4 [6, 128]
0	0x3d03b0e8	0.032151133
1	0x3d23627e	0.03988885
2	0x3d64c281	0.055849556
3	0x3d9b9f11	0.07598699
4	0x3d9ad8fb	0.07560917
5	0x3da42483	0.080147766
6	0x3d5adc4a	0.05343274
7	0x3cbf494f	0.023350386
8	0xbce6ee5d	-0.028189832
9	0xbd0ab1f7	-0.033861127
10	0xbc32aed0	-0.010905936
11	0xbbe18b93	-0.0068830936
12	0x3d7e559e	0.06209337
13	0xbd7bd37a	-0.061480977
14	0x3d54268c	0.051794574
15	0x3d736944	0.05942656
16	0x3c39bbfb	0.011336322
17	0x3dac2c42	0.08406879
18	0x3ca08095	0.019592563
19	0x3d085619	0.033285234
20	0x3d8d041d	0.0688555
21	0x3cb1e66d	0.02171632
22	0x3d8be7fe	0.068313584
23	0xbcf2a8e0	-0.029621542
24	0xbd349fb5	-0.04409762
25	0xbd38da53	-0.045130085
26	0x3cbad36c	0.022805892
27	0x3da79ccb	0.08184203
28	0xbd2abbfe	-0.04168319
29	0x3bbdd3cf	0.005793072
30	0xbbe3dc68	-0.0069537647
31	0x3d972c01	0.0738144
32	0xbc1747ee	-0.009233458
33	0x3c157274	0.009121526
34	0x3d691d92	0.056912966
35	0x3d9a21b7	0.07525962
36	0xbd09ea90	-0.03367096
37	0x3d0c3df0	0.034238756
38	0x3db31e4b	0.08746012
39	0x3d267529	0.040639076
40	0x3c9307a0	0.017947972
41	0x3d34d28f	0.044146117
42	0xbb9893df	-0.0046562995
43	0xbc51e0bb	-0.012809928
44	0xbd9fb205	-0.077976264
45	0xbdb0872a	-0.086195305
46	0xbc84cabf	-0.016209958
47	0x3d20efa2	0.03929103
48	0x3c87a7d3	0.016559517
49	0xbd990749	-0.07472093
50	0xbd1781b1	-0.036988918
51	0xbd8baccc	-0.06820068
52	0x3d457af9	0.04821298
53	0xbd52279a	-0.0513073
54	0x3d68d39c	0.05684243
55	0xbcefb270	-0.02925989
56	0xbd996351	-0.07489646
57	0x3dad5cc7	0.084649615
58	0x3d9127d3	0.07087674
59	0xbd378be3	-0.04481114
60	0xbd93c731	-0.07215727
61	0x3d6818af	0.056664165
62	0x3d906270	0.070500255
63	0xbbaf6191	-0.005352207
64	0x3d455d66	0.048184775
65	0x3cba3c1f	0.022733746
66	0xbd211f9a	-0.03933678
67	0x3d781457	0.060566273
68	0xbd36bf52	-0.04461605
69	0xbc3e15fa	-0.011601919
70	0xbd1d7cc1	-0.038449053
71	0xbd09fe6a	-0.033689894
72	0x3d2cf13c	0.042222247
73	0x3ca8fd64	0.020628639
74	0xbd95bbe2	-0.073112264
75	0xbc1a6d8b	-0.009425531
76	0xbc8a7ae9	-0.016904311
77	0xbd8fcb0b	-0.07021149
78	0xbd7d63db	-0.061862808
79	0x3ce24a90	0.027623445
80	0x3d29b7ac	0.04143493
81	0xbda0158f	-0.07816612
82	0xbd8ac4c0	-0.06775808
83	0x3c42d5b8	0.011891775
84	0xbdb4e281	-0.08832265
85	0xbd0cc459	-0.03436694
86	0xbd856031	-0.06512488
87	0x3d64c23d	0.055849303
88	0x3c8e1222	0.01734263
89	0xbd9b256d	-0.07575498
90	0xbd36efb1	-0.04466218
91	0xbd102d13	-0.035199236
92	0x3d7c595a	0.06160865
93	0xbb63c708	-0.0034756083
94	0x3d9d331c	0.07675764
95	0x3d02132f	0.031756576
96	0x3d8e1486	0.06937508
97	0x3d5a9597	0.053365316
98	0x3d8972d6	0.06711356
99	0x3d4a2069	0.049347315
100	0x3d8ee6e9	0.06977636
101	0xbaacfbe1	-0.0013197624
102	0xbd13b11d	-0.03605758
103	0xbda45f5c	-0.08026001
104	0xbcd02731	-0.025409313
105	0x3d6e1de3	0.05813397
106	0xbd24d2f5	-0.040240247
107	0xbcea520a	-0.028603572
108	0x3cd0e088	0.02549769
109	0xbdacd001	-0.08438111
110	0x3d9e8fa8	0.07742244
111	0xbc173cbf	-0.009230792
112	0x3d1f1d8b	0.038846534
113	0xbd14560e	-0.03621488
114	0x3d35fffa	0.04443357
115	0x3c8dcf59	0.017310785
116	0x3d9281c1	0.07153655
117	0xbbf79301	-0.007555366
118	0x3c4f85ba	0.01266616
119	0x3cff2df3	0.03114984
120	0xbd1bca2c	-0.038034603
121	0xbd3d4ffe	-0.046218865
122	0xbda1065d	-0.07862542
123	0x3ca432de	0.020043787
124	0x3d2da512	0.04239375
125	0xbd9a1976	-0.075243875
126	0x3d3918fc	0.045189843
127	0xbd421bda	-0.047389843
128	0x3cbfc3c0	0.02340877
129	0x3c7b651e	0.015343932
130	0x3d55dffc	0.05221556
131	0xbb59793b	-0.0033183831
132	0xbd3ce30e	-0.046114974
133	0xbd085574	-0.03328462
134	0xbdb3e095	-0.0878307
135	0xbdb0d7ee	-0.08634935
136	0x3d91ac24	0.07112911
137	0xbd03d7fd	-0.032188404
138	0x3d94ce0a	0.07265861
139	0x3d4972ce	0.049181752
140	0xbca109f0	-0.019658059
141	0xbda743a5	-0.08167199
142	0xbd03d2bd	-0.032183398
143	0xbd7e981c	-0.06215678
144	0x3db36adb	0.087606154
145	0xbdacfc10	-0.084465146
146	0xbd1d9e19	-0.03848085
147	0xb8149409	-3.542382e-05
148	0xbd705d40	-0.05868268
149	0xbc7fcb6f	-0.015612467
150	0x3da47bfe	0.08031462
151	0xbd9a408e	-0.07531844
152	0x3d494e79	0.049147103
153	0x3cf92385	0.030412445
154	0x3d537818	0.051628202
155	0xbce43ff7	-0.027862532
156	0x3d56993c	0.05239223
157	0xbd3e5086	-0.046463512
158	0xbd7844e5	-0.060612578
159	0xbcbf12a4	-0.023324318
160	0xbdac70d2	-0.08419956
161	0xbd14acf9	-0.036297772
162	0xbd2d9e5e	-0.04238736
163	0x3d0fde7b	0.035124283
164	0xbd3797fc	-0.044822678
165	0xbca2746c	-0.019830905
166	0x3d83c78e	0.064345464
167	0x3d36509e	0.044510476
168	0xbd348814	-0.044075087
169	0xbce517ec	-0.027965508
170	0xbd803855	-0.062607445
171	0xbc1e381d	-0.009656933
172	0x3cffad71	0.031210633
173	0xbd2d624d	-0.042330075
174	0xbca87a8c	-0.020566247
175	0x3c4e6250	0.012596682
176	0x3d67d80f	0.056602534
177	0xbd5cb6cd	-0.05388527
178	0x3d8a5cb9	0.06755967
179	0xbd8b3eaf	-0.06799065
180	0x3cb12c37	0.021627529
181	0x3d89ba6c	0.0672501
182	0x3d23ac68	0.03995934
183	0x3daf8634	0.08570519
184	0x3d36df21	0.044646386
185	0xbd519421	-0.051166657
186	0x3dafae09	0.085781164
187	0x3db27be7	0.08715039
188	0x3d7c103f	0.06153893
189	0xbd33c76d	-0.04389136
190	0xbbe5cc19	-0.0070128557
191	0x3c2b74ba	0.0104648415
192	0x3c01f47e	0.007931827
193	0xbd3299ae	-0.04360359
194	0xbcefe098	-0.0292819
195	0xbd8f0fc8	-0.06985432
196	0xbda648b3	-0.08119335
197	0xbd971c97	-0.073785
198	0x3d661300	0.056170464
199	0xbd9eb03d	-0.077484585
200	0x3c38a418	0.011269592
201	0x3d491661	0.049093608
202	0x3d4fcf25	0.050734658
203	0xbce8e84e	-0.028431084
204	0xbd6bb667	-0.057547
205	0xbc52d274	-0.012867559
206	0x3cd9989d	0.02656203
207	0x3d55fd57	0.052243557
208	0xbd7136ef	-0.05889028
209	0xbd963aca	-0.07335432
210	0xbc4e4c4d	-0.012591434
211	0xbc796057	-0.015220723
212	0xbd98c2b6	-0.07459013
213	0x3d6a356c	0.057179853
214	0x3d92750a	0.0715123
215	0x3ba6c1e4	0.0050890315
216	0xbc9e1a6c	-0.019299708
217	0xb9c3fd78	-0.00037382147
218	0x3d25e70e	0.040503554
219	0x3da3a998	0.07991332
220	0x3d8c8d41	0.068628795
221	0xbd2120b8	-0.039337844
222	0x3c8b4650	0.017001301
223	0xbda28ec9	-0.0793739
224	0x3d98ff76	0.074706
225	0x3da21212	0.07913603
226	0x3d97c2d5	0.07410208
227	0xbdaf122b	-0.08548387
228	0xbd0da280	-0.0345788
229	0x3cc7a66a	0.024371345
230	0xbcda87bc	-0.026676051
231	0x3d9801c4	0.07422212
232	0x3daa3f99	0.083129115
233	0xbd6c6e53	-0.0577224
234	0xbbf9f5bf	-0.007628172
235	0xbd58636b	-0.052829187
236	0xbd900b20	-0.07033372
237	0xbc4cf605	-0.0125098275
238	0x3d209440	0.039203882
239	0x3c37d27c	0.011219617
240	0xbd2573bb	-0.040393572
241	0x3da09d30	0.07842481
242	0x3d5c4569	0.053777132
243	0xbcd65848	-0.026165143
244	0xb916f1d2	-0.000143952
245	0x3c7ef811	0.015562073
246	0xbba37bb5	-0.0049891123
247	0x3d2b278d	0.041785765
248	0xbcc371cd	-0.023857975
249	0xbd825b54	-0.06365076
250	0x3d3c2683	0.045935165
251	0x3d54b3b3	0.051929187
252	0x3c0fc137	0.008774093
253	0x3d7cc160	0.061707854
254	0x3da01fe8	0.07818586
255	0xbd84fdee	-0.06493746

head.2.bias f4 [6]
0	0x3d848074	0.06469813
1	0x3d454540	0.048161745
2	0x3d998b77	0.07497304
3	0x3d8603f5	0.065437235
4	0xbd1283bc	-0.035770163
5	0x3cf8a62e	0.030352678
