models_decentralized/final/target_critic_5_550.pth (torch, 631787 bytes, 26 tensors)

Q1.conv.net.0.weight f4 [3, 31, 3, 3]
0	0xbd8d1ddd	-0.068904616
1	0xbcd85cc4	-0.026411422
2	0x3cc7b247	0.024377001
3	0xbd9d9f9b	-0.07696458
4	0x3dce4dfb	0.10073467
5	0xbcc38ecd	-0.023871804
6	0xbe10edac	-0.14153165
7	0xbda2677b	-0.079298936
8	0x3dc044c9	0.0938812
9	0xbd15cee0	-0.036574244
10	0xbcdb4bbc	-0.026769511
11	0xbd0f1720	-0.034934163
12	0x3d9aae58	0.07552785
13	0xbdef32b8	-0.11679596
14	0xbdde54ca	-0.10856016
15	0xbe10222e	-0.14075539
16	0x3de09d88	0.10967547
17	0x3c30838a	0.010773549
18	0x3dacb3a1	0.08432699
19	0xbdeb3a23	-0.11485698
20	0xbd4d6d56	-0.0501531
21	0x3e0d2035	0.13781817
22	0xbcf21c91	-0.029554637
23	0xbdd4b0db	-0.10385295
24	0xbda4a533	-0.08039322
25	0xbc59fc00	-0.01330471
26	0x3e0834d5	0.13301404
27	0xbdbc14c5	-0.09183649
28	0xbd7efe77	-0.062254395
29	0x3dba7e29	0.091060944
30	0xbdcff80f	-0.10154735
31	0xbd49957f	-0.049214836
32	0x3ddf57c2	0.1090541
33	0xbd206fde	-0.039169185
34	0x3dbf102b	0.09329256
35	0x3d73367a	0.059378125
36	0xbcfd5018	-0.03092198
37	0xbdc728a0	-0.097245455
38	0xbcca48e4	-0.02469296
39	0xbcb0294d	-0.021504069
40	0x3e13fa58	0.14450967
41	0xbd0fe14c	-0.03512697
42	0x3d8987b5	0.06715337
43	0xbcc6838c	-0.024232648
44	0xbcd13338	-0.025537118
45	0xbddae17d	-0.1068754
46	0xbd0f2e3f	-0.034956213
47	0xbe0910f7	-0.13385378
48	0x3df2b901	0.11851693
49	0xbd4804fe	-0.048832886
50	0x3e031939	0.1280259
51	0xbd9135ed	-0.07090364
52	0x3d34d3b1	0.044147197
53	0xbd0707f0	-0.032966554
54	0xbc52ac84	-0.012858514
55	0x3e03cbf4	0.1287077
56	0x3d52b813	0.051445078
57	0x3d461fac	0.04837005
58	0x3e097dbf	0.13426875
59	0x3da7cb53	0.08193078
60	0xbd81a9f2	-0.063312426
61	0x3e132b4e	0.14371988
62	0xbdfbf04e	-0.12301694
63	0x3dc01462	0.09378888
64	0x3e0c6230	0.1370933
65	0x3da6234d	0.08112202
66	0xbd1c6df6	-0.038190804
67	0x3d5aa6ea	0.053381838
68	0x3ad6e715	0.0016395772
69	0x3ca8808d	0.02056911
70	0x3ce5f246	0.028069627
71	0x3c9505fd	0.018191332
72	0xbd8a22aa	-0.06744893
73	0x3df273ae	0.118384704
74	0x3d90bb56	0.070669815
75	0x3e02c828	0.12771666
76	0x3d5c5a0b	0.05379681
77	0x3de3f653	0.11130967
78	0xbd50c0d0	-0.05096513
79	0x3de91b72	0.11382188
80	0xbdf45859	-0.119309135
81	0x3d90f1b3	0.070773505
82	0x3db1026b	0.08643039
83	0xbdd69ddb	-0.10479327
84	0xbe046013	-0.12927274
85	0x3d8f7110	0.07003987
86	0xbd192a69	-0.03739396
87	0xbd5392d7	-0.05165371
88	0x3e078c2e	0.13237068
89	0x3da32894	0.07966724
90	0xbcfc4dd3	-0.030798828
91	0xbd836f43	-0.06417706
92	0x3d0f221a	0.03494463
93	0x3b91bd65	0.0044476264
94	0xbcdb1bf5	-0.02674673
95	0x3e0cefea	0.13763395
96	0x3d8bdd96	0.068293735
97	0x3d7e0c01	0.062023167
98	0xbdd79fbf	-0.10528516
99	0x3cff29a6	0.03114779
100	0x3defa6b0	0.11701715
101	0xbe148b29	-0.1450621
102	0x3c7ea46c	0.015542131
103	0xbdf2aab5	-0.11848966
104	0x3db32a8e	0.08748351
105	0x3cd2620b	0.025681516
106	0xbbd743a9	-0.006569345
107	0x3caf0df5	0.02136896
108	0x3e0259d5	0.1272958
109	0x3da2c8eb	0.07948478
110	0x3e071fde	0.1319575
111	0x3e052bb7	0.13004957
112	0xbdf14110	-0.11779988
113	0xbdec7ac1	-0.11546851
114	0xbdf853c7	-0.12125354
115	0xbe0e75f2	-0.1391218
116	0x3d82c689	0.06385524
117	0xbd099637	-0.03359052
118	0x3dafdf5b	0.085875235
119	0x3e084b34	0.13309938
120	0xbdd7e7ca	-0.10542257
121	0x3dd96743	0.10615399
122	0x3d0da817	0.03458413
123	0xbd146bb3	-0.036235522
124	0xbd910adb	-0.07082149
125	0xbabaf54a	-0.0014263776
126	0xbc44945f	-0.011998265
127	0x3e067ce2	0.13133577
128	0xbd90e99d	-0.07075808
129	0xbd2ec5e8	-0.042669207
130	0x3e0f9f75	0.14025672
131	0x3dcb8774	0.09937945
132	0xbd6835ce	-0.056691937
133	0xbe12907a	-0.14312926
134	0xbddd1c7a	-0.10796447
135	0xbdd526c8	-0.104077876
136	0x3e0a09c7	0.13480292
137	0xbd8cac5d	-0.06868813
138	0xbdacb01e	-0.08432029
139	0xbdfe7b13	-0.12425818
140	0xbe01d49b	-0.12678759
141	0xbd7503b3	-0.05981798
142	0xbdd36cb2	-0.10323466
143	0x3e091848	0.13388169
144	0xbdae19e7	-0.08501034
145	0xbda369f3	-0.079791926
146	0x3c133307	0.008984334
147	0x3de5e8fc	0.11226079
148	0x3df321c2	0.11871673
149	0x3dee17e0	0.116256475
150	0xbcd4345f	-0.025903879
151	0xbde87aef	-0.11351573
152	0xbde04479	-0.1095056
153	0x3e119206	0.1421586
154	0xbdcfa2c7	-0.10138469
155	0x3d485135	0.04890557
156	0x3e096254	0.13416415
157	0x3d93ed47	0.072229914
158	0x3be248a9	0.0069056344
159	0x3d605552	0.054768868
160	0x3d742bb2	0.059611984
161	0xbd6d97dd	-0.058006156
162	0xbdc5fb41	-0.096670635
163	0xbd003f12	-0.03131015
164	0xbc07658f	-0.00826396
165	0x3e033b4b	0.12815587
166	0xbd8644a3	-0.0655606
167	0xbdeced96	-0.115687534
168	0x3d789462	0.060688384
169	0xbc3ec1c7	-0.01164288
170	0xbdb0ac0c	-0.08626565
171	0x3d1aaf66	0.03776493
172	0xbbe53ee8	-0.0069960244
173	0xbdcad982	-0.099047676
174	0x3df13a90	0.11778748
175	0xbd5c7b4f	-0.053828534
176	0xbdaf121a	-0.085483745
177	0xbd848887	-0.06471353
178	0xbdade70e	-0.08491336
179	0x3dd05a64	0.10173491
180	0x3d71374d	0.05889063
181	0x3e0a286a	0.13491979
182	0xbdee1602	-0.116252914
183	0xbd2a4bbb	-0.04157613
184	0xbe074972	-0.13211611
185	0xbdbe1d04	-0.09282878
186	0xbdb24c6d	-0.08705983
187	0xbdd903f5	-0.10596458
188	0xbd888116	-0.06665246
189	0xbda00756	-0.07813899
190	0x3e159e33	0.1461113
191	0xbdd0524f	-0.10171949
192	0xbc2e9905	-0.0106566
193	0x3e13578b	0.14388864
194	0x3b8a1202	0.0042135725
195	0xbd92ed91	-0.071742184
196	0x3de46d20	0.111536264
197	0x3dbc67cf	0.091994874
198	0xbd788d88	-0.06068185
199	0x3d93b1a5	0.072116174
200	0x3d96bcd2	0.07360233
201	0xbd7ba22f	-0.061433967
202	0x3cd94147	0.026520384
203	0xbe0ebfc1	-0.13940336
204	0x3c10fe68	0.008849718
205	0x3dd17b5d	0.10228608
206	0xbded171e	-0.11576675
207	0x3dc357b2	0.09538211
208	0x3e063855	0.13107426
209	0xbc94c189	-0.018158691
210	0x3d8653f6	0.06558983
211	0x3e0eceb3	0.13946037
212	0xbd8e5fa7	-0.06951838
213	0x3c0ad547	0.008473701
214	0xbdf7086d	-0.12062154
215	0xbcc29983	-0.02375484
216	0x3dacd611	0.084392674
217	0xbde92b9e	-0.113852724
218	0xbd9c6cd1	-0.076379426
219	0xbb967239	-0.004591253
220	0xbe0f7050	-0.14007688
221	0x3e0072ed	0.1254384
222	0x3e0ccf0f	0.13750862
223	0x3ddf9e02	0.109188095
224	0xbd74af42	-0.05973745
225	0xbd22a130	-0.0397045
226	0xbce872d5	-0.028375069
227	0x3d5838d0	0.052788556
228	0xbcd44734	-0.025912859
229	0xbc91b05b	-0.017784288
230	0xbd6258e9	-0.055260573
231	0x3c66904a	0.014072487
232	0xbd7db712	-0.061942168
233	0x3d127434	0.03575535
234	0x3e11922d	0.14215918
235	0x3e02892f	0.12747644
236	0x3e0f4c2c	0.13993901
237	0x3d2e1ad3	0.04250605
238	0x3d38e03b	0.045135718
239	0xbc970e26	-0.018439364
240	0xbd509f4d	-0.05093317
241	0xbdce736f	-0.10080611
242	0x3e145ac5	0.14487751
243	0xbc98f928	-0.018673494
244	0xbde22725	-0.110426225
245	0xbc0e37a3	-0.008680257
246	0xbdf608df	-0.12013411
247	0xbd456953	-0.048196148
248	0xbdbd1202	-0.0923195
249	0x3dc903e0	0.09815192
250	0x3c57eeff	0.01317954
251	0x3dd65249	0.104649134
252	0x3dc89e8f	0.09795868
253	0xbdc64c58	-0.0968253
254	0x3d97adf9	0.074062295
255	0xbd203168	-0.039109617

Q1.conv.net.0.bias f4 [3]
0	0xbb4e257e	-0.0031455453
1	0xbab2764b	-0.0013615576
2	0xbb342d68	-0.0027492885

Q1.conv.net.3.weight f4 [6, 3, 3, 3]
0	0xbdbc3ff2	-0.09191884
1	0x3de6826c	0.11255345
2	0xbea60b78	-0.32430625
3	0xbd6d5846	-0.057945512
4	0x3ec5d23c	0.3863696
5	0x3eec7654	0.46184027
6	0x3e088ebd	0.133357
7	0xbeee47d2	-0.4653917
8	0xbe277960	-0.16354895
9	0x3d99df7e	0.07513331
10	0xbdd0f62d	-0.10203204
11	0x3ee37f4c	0.44433057
12	0x3eea409f	0.45752427
13	0xbe72c2d7	-0.23707138
14	0x3d9e1308	0.07718474
15	0x3e9486ec	0.29009187
16	0xbc2f86f9	-0.010713332
17	0xbea083f8	-0.31350684
18	0x3e765f22	0.24059728
19	0xbe7712c9	-0.2412826
20	0x3e1f8a7e	0.15580174
21	0xbed3a136	-0.41333932
22	0x3e2f1613	0.17098264
23	0xbd15c9d4	-0.03656943
24	0xbe94102a	-0.28918582
25	0xbeee6e0b	-0.4656833
26	0x3e8c5037	0.2740495
27	0x3d3aba55	0.045587856
28	0x3dfbddc5	0.122981586
29	0xbb522dca	-0.003207075
30	0xbeb39b56	-0.3507945
31	0x3e037acb	0.1283981
32	0xbe4aef8c	-0.19817942
33	0xbd92af4c	-0.071623415
34	0x3d3d9879	0.046287987
35	0x3eeea426	0.4660961
36	0x3e0d1fff	0.13781737
37	0x3e84ec16	0.2596137
38	0x3e88cdbe	0.2671947
39	0x3ce5b114	0.028038539
40	0x3d2ffa3f	0.042963263
41	0x3e904855	0.28180185
42	0xbe7d0531	-0.24709012
43	0x3e9345ae	0.287641
44	0x3e135fbb	0.14391987
45	0xbe092c48	-0.13395798
46	0xbdac62a2	-0.0841725
47	0x3ed6a7e7	0.41924974
48	0x3ee3e97c	0.44514072
49	0x3e367a93	0.17820196
50	0xbe18fcc8	-0.14940178
51	0x3eb12355	0.3459727
52	0xbc49d93a	-0.012319857
53	0xbe8c0fbd	-0.27355757
54	0x3e9f8df0	0.31162977
55	0x3c86b9c1	0.016445996
56	0xbd677812	-0.056510992
57	0x3e381ef3	0.17980556
58	0x3eabc045	0.33545128
59	0xbe1e25c7	-0.15444098
60	0x3e22987b	0.15878479
61	0x3e55e08f	0.20886444
62	0xbe1c1a8c	-0.15244502
63	0xbeec8f8f	-0.46203277
64	0xbd8feac9	-0.070272036
65	0x3d9abc99	0.075555034
66	0x3e35581e	0.17709395
67	0x3bf6c234	0.007530475
68	0xbeef0080	-0.4668007
69	0x3ee098fc	0.43866718
70	0xbbe6e0b6	-0.0070458306
71	0x3d8bcedb	0.06826564
72	0x3e856752	0.2605539
73	0xbeac9e7d	-0.33714667
74	0xbddfdb44	-0.109304935
75	0x3eb71bad	0.35763302
76	0xbc90312e	-0.017601576
77	0x3e9304a7	0.28714487
78	0x3ebff0d9	0.3748844
79	0xbc988f3e	-0.01862299
80	0x3e2e9829	0.17050232
81	0xbec823fd	-0.39089957
82	0x3d7bf1dd	0.061509956
83	0xbeba3e7c	-0.36375797
84	0xbeb0f60c	-0.3456272
85	0xbe453c8e	-0.19261381
86	0xbec3d221	-0.38246253
87	0x3e71ef05	0.23626335
88	0x3e5acdb0	0.21367526
89	0x3e9599a5	0.29218784
90	0x3e00ed34	0.12590486
91	0x3eb4d091	0.35315374
92	0x3e3093de	0.17243907
93	0x3ea00ba2	0.31258875
94	0x3ea54111	0.32276204
95	0xbee7ae7a	-0.45250303
96	0xbdb53605	-0.08848194
97	0x3e197df2	0.1498945
98	0xbe620f75	-0.22076209
99	0x3eb2a17f	0.34888837
100	0xbed1f09b	-0.4100388
101	0x3e91cb9e	0.2847566
102	0x3ea43077	0.32068226
103	0xbe66c47f	-0.22535895
104	0x3e9d2067	0.30688784
105	0xbee5a3b0	-0.44851446
106	0x3ced482e	0.028965082
107	0xbd065209	-0.03279308
108	0xbe9ba279	-0.30397394
109	0xbe1ca62e	-0.15297768
110	0xbeb32fb5	-0.34997335
111	0x3e099a0d	0.13437672
112	0x3ee2a34e	0.44265217
113	0x3e84e6e4	0.25957406
114	0xbe63f909	-0.22262968
115	0xbe2fed0f	-0.17180274
116	0xbeb98be8	-0.36239552
117	0xbe2a239c	-0.16615146
118	0x3ce44532	0.027865026
119	0xbc2947e4	-0.0103320815
120	0x3e36c823	0.17849784
121	0xbe076fd7	-0.13226257
122	0xbeb183e2	-0.3467093
123	0x3ee19fd6	0.44067258
124	0x3ea704fe	0.32620996
125	0xbd19d586	-0.037557147
126	0x3eb47763	0.35247335
127	0xbdb83e31	-0.08996237
128	0xbe6ae6ca	-0.22939602
129	0xbd9b8766	-0.075941846
130	0x3b93ff84	0.004516544
131	0x3e99f59a	0.30070192
132	0x3ca47be8	0.020078614
133	0x3d8edeab	0.06976064
134	0x3e61e648	0.22060502
135	0x3ee89bab	0.45431265
136	0x3ed307d7	0.4121692
137	0xbe2ecc48	-0.17070115
138	0xbe1c816b	-0.15283744
139	0x3ea8afcf	0.3294663
140	0xbe9b1980	-0.30292892
141	0xbdf1ff67	-0.11816292
142	0xbeb7f9d2	-0.35932785
143	0xbea78856	-0.32721204
144	0xbeeb3ade	-0.4594335
145	0xbee71614	-0.45134032
146	0x3e4098cd	0.18808289
147	0x3ed01319	0.4063957
148	0x3e78f8c8	0.24313653
149	0x3c8fcf6c	0.017554961
150	0xbead5709	-0.33855465
151	0x3e69460a	0.22780624
152	0xbe410106	-0.18848047
153	0xbd9e948d	-0.077431776
154	0xbea1c227	-0.3159344
155	0x3e3e0b45	0.18558986
156	0xbe895b1f	-0.26827332
157	0x3ee1bb95	0.44088426
158	0x3e86030f	0.2617421
159	0xbe92d5a5	-0.28678623
160	0xbeab1eef	-0.33422038
161	0x3e745d21	0.23863651

Q1.conv.net.3.bias f4 [6]
0	0xba6b085d	-0.0008965785
1	0x3baa34e6	0.0051942943
2	0xbb915592	-0.0044352496
3	0x399245ca	0.00027899287
4	0xbbe42909	-0.0069628996
5	0x3b7a03fc	0.0038149348

Q1.conv.net.6.weight f4 [6, 6, 3, 3]
0	0x3e611f2b	0.21984546
1	0xbeab0f53	-0.3341013
2	0xbe939791	-0.28826573
3	0x3e68efaa	0.22747675
4	0xbd9e6ead	-0.077359535
5	0x3de35610	0.111003995
6	0xbe5d675e	-0.21621463
7	0x3d01b4c8	0.031666547
8	0xbc07ca8c	-0.008288037
9	0xbd63e3f0	-0.0556373
10	0xbe830a23	-0.2559367
11	0x3e00f925	0.12595041
12	0x3e080fd5	0.1328729
13	0xbe491666	-0.1963745
14	0xbdd383a8	-0.10327846
15	0xbe4ee5e8	-0.2020489
16	0xbcdb4704	-0.026767261
17	0x3dee7f2d	0.116453506
18	0xbe90cd66	-0.28281707
19	0x3e31feed	0.17382403
20	0x3dc3d710	0.09562504
21	0xbde4980b	-0.111618124
22	0x3d4c6e0b	0.049909633
23	0x3d01eb34	0.031718448
24	0xbdb54824	-0.0885165
25	0xbe0318a2	-0.12802365
26	0xbe6b300d	-0.22967549
27	0xbe9031ea	-0.2816308
28	0x3e6f0e1f	0.2334523
29	0x3e48a17a	0.19592848
30	0x3d5fb4c7	0.054615762
31	0x3de4d4a9	0.11173374
32	0xbe2a6768	-0.16641009
33	0xbdd754a0	-0.10514188
34	0xbe8a381b	-0.2699593
35	0x3e61776c	0.22018212
36	0x3d3c7cfb	0.04601763
37	0x3d98bc79	0.07457823
38	0x3e9f3426	0.31094474
39	0xbde867b4	-0.11347905
40	0xbe819aad	-0.2531332
41	0xbe80bb9c	-0.25143135
42	0x3d1e8d4d	0.038708974
43	0x3d51c561	0.051213626
44	0xbaa47291	-0.001254635
45	0x3e05aeba	0.13054934
46	0xbde7c232	-0.11316337
47	0xbe938211	-0.2881017
48	0x3cb99319	0.02265315
49	0x3e6215cf	0.22078632
50	0xbc85dad8	-0.016339704
51	0x3e6b817b	0.22998612
52	0x3ea73a4d	0.32661667
53	0x3e8bd202	0.2730866
54	0xbe63ebc7	-0.2225791
55	0xbe674978	-0.2258662
56	0x3e0cb4cb	0.13740842
57	0x3e87129e	0.2638139
58	0xbe8abcb4	-0.27097094
59	0x3e122584	0.14272124
60	0x3e2b8e70	0.16753554
61	0xbe09e714	-0.13467056
62	0x3dabf6bc	0.0839667
63	0xbc687927	-0.014189041
64	0xbe2720d9	-0.16321124
65	0xbe3fd2c4	-0.18732744
66	0xbe01e187	-0.12683688
67	0xbe64b4bd	-0.22334571
68	0xbce56de9	-0.02800651
69	0xbdbbb1ad	-0.09164748
70	0xbe48b1eb	-0.1959912
71	0x3d9ec1a4	0.07751778
72	0x3ea43e30	0.32078695
73	0x3e9906b4	0.29887927
74	0xbe740d4f	-0.23833202
75	0x3e161902	0.14657977
76	0x3d27adcd	0.040937234
77	0xbe1aced6	-0.15117964
78	0x3e477630	0.19478679
79	0x3e8b7a34	0.2724167
80	0xbe9ef249	-0.31044224
81	0xbe542c92	-0.20720127
82	0x3ce6a00a	0.028152484
83	0xbca7f71e	-0.020503577
84	0xbe338873	-0.1753252
85	0xbe0dce87	-0.13848315
86	0x3e117859	0.14206065
87	0x3e63d907	0.22250758
88	0x3e957df3	0.29197654
89	0xbe9c5db1	-0.3054023
90	0x3e7a5535	0.24446566
91	0x3ca74bf1	0.020421954
92	0x3da8b8a5	0.08238343
93	0xbca9d4f9	-0.020731436
94	0xbe1993ec	-0.14997834
95	0x3ccd1856	0.025036018
96	0x3e103223	0.14081626
97	0x3e129306	0.14313897
98	0x3ea1564b	0.3151115
99	0xbe6ef0e1	-0.23334076
100	0xbe24e9e6	-0.1610485
101	0xbe573f02	-0.2102013
102	0x3dc32609	0.09528739
103	0xbe80fbcb	-0.25192103
104	0xbe1c666a	-0.15273443
105	0xbe9d40aa	-0.30713397
106	0x3db3f589	0.087870665
107	0x3e5efd75	0.21776374
108	0x3ea28ca4	0.31747925
109	0x3e81f7f1	0.25384477
110	0x3e7758a7	0.24154912
111	0xbc9b8fc7	-0.018989457
112	0xbe1c5320	-0.15266085
113	0xb8a631cb	-7.9247715e-05
114	0x3e1c4b62	0.15263131
115	0xbdc3ea25	-0.09566144
116	0x3da805af	0.08204209
117	0x3e9a2857	0.30108902
118	0x3e8e1ca5	0.2775623
119	0xbe1ff4ff	-0.15620802
120	0xbe06f27c	-0.13178438
121	0xbe6a8561	-0.22902443
122	0xbd2bf686	-0.04198315
123	0x3e13b147	0.14423095
124	0xbd9b17e4	-0.07572916
125	0x3ea9a2b3	0.33131942
126	0x3ddacf01	0.10684014
127	0x3c38c884	0.011278275
128	0x3db50038	0.08837932
129	0xbe80a538	-0.25126052
130	0x3d32a622	0.043615468
131	0x3e7f512e	0.24933311
132	0xbdc74253	-0.09729447
133	0xbeaa4ea1	-0.33263114
134	0x3da9822e	0.08276783
135	0xbe94e88b	-0.29083666
136	0x3da16242	0.07880069
137	0x3e1ed539	0.15511025
138	0x3e784979	0.24246778
139	0xbe64d052	-0.22345093
140	0x3e52f1bb	0.20600025
141	0xbe5a8890	-0.21341157
142	0x3e64df35	0.22350772
143	0xbb9cde05	-0.004787209
144	0xbdd16bff	-0.10225677
145	0xbe0f8f6e	-0.14019558
146	0x3e967605	0.29386917
147	0xbe1d5b5c	-0.15366882
148	0x3eaa40cd	0.33252564
149	0xbe371ef5	-0.17882903
150	0xbe87ed38	-0.2654817
151	0xbdcd60e3	-0.10028245
152	0x3cfd5007	0.03092195
153	0xbd95e5d3	-0.07319226
154	0xbea7a1ff	-0.3274078
155	0xbdf8babe	-0.12144993
156	0xbdeb59a2	-0.114917055
157	0xbea3806c	-0.31933916
158	0xbe50a71f	-0.20376252
159	0x3ea54623	0.32280073
160	0x3c362593	0.011117357
161	0x3e5c553d	0.21516891
162	0x3e5ff17e	0.21869466
163	0x3dfb8096	0.12280385
164	0x3e053a3e	0.13010499
165	0xbe82f381	-0.25576404
166	0xbde97580	-0.113993645
167	0xbb920455	-0.004456083
168	0x3a8b4082	0.0010624083
169	0x3d633068	0.055466086
170	0xbe193d1a	-0.14964715
171	0x3ea2d3f2	0.31802326
172	0xbe44a9c8	-0.19205391
173	0xbe5f69e9	-0.21817745
174	0xbe766cf8	-0.24065006
175	0xbe6c0bbd	-0.23051353
176	0x3e900d27	0.28135034
177	0xbbd25932	-0.0064193243
178	0x3db25d71	0.08709229
179	0x3dae7b8b	0.08519658
180	0xbdadbb6c	-0.084830135
181	0xbeaa46e1	-0.332572
182	0x3e7626cc	0.24038237
183	0x3d99e5f7	0.075145654
184	0xbea818ee	-0.3283152
185	0x3eaaa188	0.33326364
186	0xbe8e0419	-0.277375
187	0x3c85c256	0.016328018
188	0x3e580e3b	0.21099178
189	0x3dce550e	0.10074817
190	0xbd08fceb	-0.033444326
191	0x3d5b1b5b	0.053492885
192	0x3c218854	0.009859163
193	0x3da02c93	0.07821002
194	0xbea2985d	-0.3175687
195	0xbe40291d	-0.18765683
196	0x3e9c3ebd	0.30516616
197	0xbe499f85	-0.19689758
198	0x3e187a93	0.14890508
199	0xbd26d056	-0.04072603
200	0xbe872c42	-0.26400954
201	0xbe8ae1f4	-0.27125514
202	0x3e813881	0.25238422
203	0xbe65c89d	-0.22439809
204	0xbe2401db	-0.16016333
205	0x3e40d07d	0.18829532
206	0x3e6564ba	0.22401705
207	0x3e184dc0	0.1487341
208	0xbd68872d	-0.05676954
209	0xbd9d93f9	-0.07694239
210	0xbdd5d4a0	-0.104409456
211	0x3e84e097	0.25952598
212	0xbe0113e9	-0.12605251
213	0xbd23adc4	-0.039960638
214	0xbe2dba36	-0.16965565
215	0xbea03884	-0.31293118
216	0x3ccbe8d1	0.024891289
217	0x3e8431d5	0.2581927
218	0x3e688343	0.22706322
219	0xbe882a23	-0.26594648
220	0x3dd8729c	0.10568735
221	0xbde2c3e3	-0.11072519
222	0x3e974d5b	0.29551205
223	0xbe22aa2d	-0.1588523
224	0xbd5828b0	-0.052773178
225	0x3e70cdf7	0.2351607
226	0x3e0b083d	0.13577361
227	0x3d72a3c0	0.059238195
228	0xbe56264c	-0.20913047
229	0xbe49162f	-0.19637369
230	0xbe4349a8	-0.19071066
231	0xbe8a976b	-0.27068648
232	0x3e91aa6c	0.28450334
233	0xbea528fe	-0.32257837
234	0xbe9f43b2	-0.31106335
235	0x3e01f27f	0.12690161
236	0xbe18aee6	-0.14910468
237	0xbe7afdbe	-0.24510857
238	0xbe5970d1	-0.21234442
239	0x3e88b179	0.266979
240	0x3e048fbe	0.12945458
241	0x3e84d7cc	0.2594589
242	0xbdf1511a	-0.11783047
243	0x3d4b8197	0.049684133
244	0xbe992482	-0.29910666
245	0xbe43de5c	-0.19127792
246	0xbe136b15	-0.14396317
247	0x3dbd5323	0.09244373
248	0x3e816faa	0.25280505
249	0x3e45171a	0.19247094
250	0xbe147077	-0.14496027
251	0xbe40c09d	-0.18823476
252	0x3d429a0f	0.047510203
253	0x3e96363b	0.2933825
254	0x3e690508	0.22755826
255	0x3e7f3257	0.24921547

Q1.conv.net.6.bias f4 [6]
0	0xb7d5f0a8	-2.5503643e-05
1	0xbbd5d4a4	-0.006525593
2	0xba8d5113	-0.0010781608
3	0xba5cbf11	-0.0008420805
4	0xba83a7b0	-0.0010044482
5	0xbb9065d9	-0.0044066724

Q1.a_head.0.weight f4 [128, 294]
0	0x3d42c3ee	0.047550134
1	0x3bf8b81a	0.007590306
2	0x3d593caa	0.05303637
3	0xbca35d9e	-0.019942101
4	0x3d1652ea	0.036700167
5	0xbc4d1d82	-0.012519242
6	0x3d0882e5	0.033327956
7	0xbcfd1db3	-0.03089795
8	0x3d33c5a4	0.043889657
9	0x3c1ea94c	0.009683918
10	0x3bf0d4d6	0.007349591
11	0x3d297b9f	0.04137766
12	0xbd328fb9	-0.043594096
13	0xbd51f3a2	-0.051257737
14	0xbd7067fd	-0.05869292
15	0x3d00a8d2	0.031411
16	0x3c0e8333	0.0086982725
17	0xbce38bb9	-0.027776586
18	0x3d6c4241	0.057680372
19	0xbd50723f	-0.050890204
20	0xbc632dac	-0.0138658695
21	0x3d162c8a	0.03666357
22	0xbca00ead	-0.019538248
23	0x3d282846	0.041054033
24	0xbd1c5894	-0.038170412
25	0x3d4d7c25	0.05016722
26	0x3d5e5f56	0.05429014
27	0xbd46802b	-0.048462074
28	0xbd3a1d41	-0.045438055
29	0xbcd869df	-0.02641767
30	0xbbb0f23e	-0.0053999713
31	0xbd069cfc	-0.032864556
32	0x3ca99098	0.02069883
33	0xbc24e95d	-0.010065404
34	0x3d487069	0.048935328
35	0x3b68e263	0.0035535328
36	0xbd03cc58	-0.0321773
37	0x3d6df6a2	0.058096536
38	0x3c25bbb0	0.010115549
39	0x3c8dba7a	0.017300833
40	0xbcf169ee	-0.029469457
41	0xbc93e058	-0.018051311
42	0xbc393287	-0.011303551
43	0x3d1c2e4f	0.0381301
44	0x3c706f5c	0.014674988
45	0x3d0b4736	0.03400346
46	0xbd3bb930	-0.045830905
47	0x3cbbe7a1	0.022937598
48	0x3c3672c3	0.01113576
49	0xbbbfc5ba	-0.0058524283
50	0x3c18025b	0.009277905
51	0x3aad6007	0.0013227471
52	0x3d4e519c	0.050370798
53	0xbb457b0a	-0.0030133151
54	0x39033731	0.00012513694
55	0x3d053a8e	0.032526545
56	0x3d15a91a	0.03653822
57	0xbcc74290	-0.024323732
58	0xbbd6d791	-0.0065564592
59	0xbd6f2ae8	-0.058390528
60	0x3c3eec0b	0.011652957
61	0xbce4083c	-0.027835958
62	0x3d0e761c	0.034780607
63	0xbd0907e2	-0.033454783
64	0x3b9d831a	0.0048068883
65	0xbd58b87f	-0.052910324
66	0x3baf1e19	0.005344164
67	0xbd44c28b	-0.048037093
68	0xbd21cb1b	-0.039500337
69	0xba230af5	-0.0006219589
70	0x3b883882	0.004157127
71	0x3d6abe65	0.05731048
72	0x3bdb173b	0.006686119
73	0x3d19b7f0	0.037528932
74	0xbcb645c9	-0.022250073
75	0x3d0f4c1d	0.034984697
76	0xbd369324	-0.044573918
77	0x3d231122	0.03981126
78	0xbcc163a0	-0.023607075
79	0x3d68ffa8	0.056884438
80	0x3cc0ce78	0.023535952
81	0x3c66d004	0.014087681
82	0x3cc663c4	0.024217494
83	0x3d58abc8	0.0528982
84	0xbd2e4eab	-0.042555492
85	0xbd3378c7	-0.043816354
86	0x3cc189e0	0.023625314
87	0xbc43b267	-0.01194439
88	0x3ca7a293	0.020463264
89	0x3d4cb32e	0.049975567
90	0x3d6b6901	0.057473186
91	0xbb136e13	-0.002249603
92	0x3cc0bc76	0.023527365
93	0x3d45c16c	0.048280165
94	0xbcca7527	-0.024714066
95	0xbcee0891	-0.02905682
96	0x3ce75c67	0.028242303
97	0xbcd71bc4	-0.026258357
98	0xbd698131	-0.057007972
99	0xbd58397b	-0.052789193
100	0xbcdfe961	-0.027332963
101	0xbd5ee92c	-0.05442159
102	0x3bc7d14b	0.0060979477
103	0x3c212dc5	0.009837572
104	0x3d169e47	0.03677204
105	0x3ca11d8a	0.019667406
106	0xbd25820c	-0.040407225
107	0x3ca852cb	0.020547291
108	0xbd2ed00e	-0.042678885
109	0xbbdf2cd6	-0.006810765
110	0x3d113787	0.035453346
111	0x3d063b93	0.03277166
112	0x3d354fc0	0.04426551
113	0xbcd462b8	-0.025925979
114	0xbd0f7f75	-0.035033662
115	0x3ce3745f	0.027765451
116	0x3d236f0c	0.039900824
117	0x3c82347d	0.015894169
118	0xbd2f5783	-0.042808067
119	0x3d3d0dd5	0.04615577
120	0x3d691a2f	0.056909736
121	0x3cf82394	0.030290402
122	0xbc71cbf7	-0.014758102
123	0x3d3b7eae	0.045775108
124	0xbd000b28	-0.03126064
125	0xbbb8fdc2	-0.0056454847
126	0x3d32ff1b	0.04370032
127	0xb95bf5bd	-0.00020977012
128	0xbc4ce56c	-0.01250587
129	0x3d02538d	0.03181796
130	0x3d46b57d	0.048512924
131	0x3c45b70e	0.012067569
132	0x3c04f66f	0.008115395
133	0xbd34cec1	-0.04414249
134	0x3ce076b4	0.027400352
135	0xbd5b233a	-0.05350039
136	0x3d263bfb	0.040584546
137	0xbcc21feb	-0.02369686
138	0x3d4b6f3d	0.049666632
139	0x3d08b396	0.03337439
140	0x3c951399	0.018197821
141	0x3c3dc305	0.011582141
142	0xbcd933e2	-0.026513997
143	0x3d23bbf8	0.039974183
144	0x3d4fdbf9	0.05074689
145	0x3d72654f	0.059178647
146	0x3d4828fb	0.048867207
147	0xbb8e00c2	-0.0043335864
148	0x3d516fe4	0.051132098
149	0x3cf45bde	0.029828962
150	0xbce8d31d	-0.02842098
151	0x3d0a4884	0.033760563
152	0x3c259289	0.0101057375
153	0x392c021a	0.00016403981
154	0x3d4ddbd8	0.050258487
155	0x3d0e621b	0.03476153
156	0x3b3f1b3f	0.0029160527
157	0x3b5cf4cb	0.0033715244
158	0xbbec8970	-0.0072185323
159	0xbd562d12	-0.052289076
160	0xbd443b31	-0.04790801
161	0xbd584ba7	-0.052806523
162	0xbc3cad0f	-0.01151587
163	0xbb7a4015	-0.0038185169
164	0x3d7501a0	0.059816003
165	0x3d2aca6c	0.04169695
166	0xbd20e413	-0.03928001
167	0x3d04471e	0.032294385
168	0xbc15cac3	-0.00914258
169	0xbd202666	-0.03909912
170	0x3d6ca694	0.05777605
171	0x3ca40866	0.020023536
172	0xbc943593	-0.018091952
173	0xbd30bd7a	-0.04314945
174	0xbcfefaba	-0.031125415
175	0x3cfe4ccf	0.031042485
176	0x3c64209b	0.013923789
177	0x3c6414f4	0.013921011
178	0xbd3ba102	-0.045807846
179	0x3d0997eb	0.033592146
180	0xbd07237d	-0.03299283
181	0xbc46351a	-0.012097621
182	0x3d206797	0.03916129
183	0xbd404b6b	-0.046946924
184	0xbd17f618	-0.037099928
185	0x3c6edde4	0.01457927
186	0xbd048850	-0.03235656
187	0x3b2be5fa	0.0026229606
188	0x3982d79b	0.0002495617
189	0xbd301a1a	-0.042993642
190	0xbd37563b	-0.04475997
191	0x3d373aa9	0.044733677
192	0xbd1b4ef8	-0.037917107
193	0x3cc701de	0.024292883
194	0xbca99395	-0.020700255
195	0x3d4c0a4f	0.04981452
196	0x3d6f4c0c	0.058422133
197	0x3d29514a	0.04133729
198	0xbcbc12a6	-0.022958111
199	0xbd60f959	-0.054925296
200	0x3cd9018d	0.026489997
201	0x3d77a0e9	0.06045619
202	0x3d72ade1	0.059247855
203	0x3d07c810	0.03314978
204	0x3d0cf0e1	0.034409408
205	0xbd31bd84	-0.043393627
206	0x3ccfe9fb	0.025380125
207	0x3ceb2941	0.028706195
208	0x3d56eaac	0.052469894
209	0x3c072900	0.008249521
210	0xbcc2d8b0	-0.023784965
211	0x3d41dc85	0.047329444
212	0x3d17430c	0.036929175
213	0x3c2e6ed5	0.010646542
214	0x3d22a25e	0.039705627
215	0xbc26eac2	-0.010187807
216	0x3b82126a	0.0039694803
217	0x3d47c51b	0.04877196
218	0x3af5b0f7	0.0018744756
219	0xbcdf1075	-0.027229527
220	0x3d2401ae	0.040040664
221	0x3cfc3ecb	0.03079166
222	0xbd1482b2	-0.036257453
223	0xbd1c44cc	-0.038151547
224	0xbc975510	-0.018473178
225	0x3cda3aa8	0.026639298
226	0xbd3645f4	-0.044500306
227	0xbd073304	-0.033007637
228	0x3c8fd5b8	0.017557964
229	0xbc90acc2	-0.017660502
230	0xbd1b0bee	-0.037853174
231	0xbca69e29	-0.020339089
232	0x3d3b8c88	0.045788318
233	0x3d3af1fe	0.045640938
234	0xbd6320e2	-0.05545128
235	0x3d10e27c	0.035372242
236	0x3cb30997	0.021855159
237	0xbd44906e	-0.0479893
238	0x3cc40991	0.023930343
239	0x3d578a59	0.052622173
240	0xbc34810b	-0.011017094
241	0xbd18229f	-0.037142392
242	0xbcae7c9e	-0.021299656
243	0xbd2e127b	-0.042498093
244	0xbc065f28	-0.008201398
245	0x3d3e00ed	0.0463876
246	0x3c2a4258	0.010391794
247	0xbbe03ac4	-0.006842943
248	0x3b71637c	0.003683298
249	0xbd451013	-0.048111033
250	0xbd407a8b	-0.046991866
251	0xbd511401	-0.051044468
252	0xbb2776a6	-0.0025552898
253	0xbc308627	-0.010774172
254	0x3d512643	0.05106188
255	0xbd1fb8ac	-0.038994476

Q1.a_head.0.bias f4 [128]
0	0x3bfd2e6b	0.0077264807
1	0x3b876a73	0.004132563
2	0x3c566c4a	0.013087342
3	0x3cff5b9b	0.03117161
4	0x3c22d932	0.009939479
5	0x3d1154bc	0.0354812
6	0xbd28e9a1	-0.04123843
7	0x3d4853d6	0.048908077
8	0xbd20db02	-0.039271362
9	0x3b0885b3	0.0020831644
10	0xbd2f3803	-0.042778026
11	0x3d3cf5a2	0.04613269
12	0x3d2fc30e	0.042910628
13	0x3ce7dbed	0.028303111
14	0xbb5405a7	-0.0032352002
15	0xbcffaed8	-0.031211302
16	0xba8c046b	-0.0010682469
17	0xbc4bced2	-0.0124394465
18	0x3c6d0ac0	0.014467895
19	0xbd6e7002	-0.058212288
20	0x3d1e6786	0.038672946
21	0x3d50e20f	0.050996836
22	0xbd30912b	-0.043107193
23	0xbc683faf	-0.01417534
24	0x39a8842c	0.00032141933
25	0x3c1e6530	0.00966768
26	0xbd649ada	-0.05581174
27	0xbd10de44	-0.03536822
28	0xbcc03df2	-0.023467038
29	0xbd6942a9	-0.056948338
30	0xbd1da7dd	-0.038490165
31	0xbd61ae08	-0.05509761
32	0x3ce9e01a	0.028549243
33	0xbb5f40ce	-0.0034065726
34	0x3d3dc2a4	0.046328202
35	0x3d3711ea	0.04469482
36	0x3c44b567	0.01200614
37	0xbd298a52	-0.04139168
38	0xbc000ac9	-0.007815071
39	0xbd0792f7	-0.03309914
40	0xbd2c3c73	-0.042049836
41	0xbca452df	-0.020059047
42	0x3d02df47	0.031951215
43	0xbce0b924	-0.027432032
44	0x3d2a1c8c	0.04153113
45	0xbc462224	-0.012093101
46	0x3abb22da	0.0014277354
47	0xbca111c1	-0.019661786
48	0x3d6df825	0.058097977
49	0xbd487860	-0.048942924
50	0xbcfea81f	-0.031086026
51	0x3d275c6c	0.040859625
52	0x3cf6e743	0.030139571
53	0x3d486cfc	0.04893206
54	0x3d213748	0.03935936
55	0xbcbf4bab	-0.023351511
56	0xbcc4c81f	-0.024021206
57	0xbd528a19	-0.05140123
58	0x3cea8772	0.028629038
59	0x3d412676	0.04715582
60	0xbcc570cd	-0.02410164
61	0xbc3385bf	-0.0109571805
62	0x3d3c10d1	0.045914475
63	0x3bee694f	0.0072757374
64	0xbc3c3724	-0.011487756
65	0x3d20724f	0.039171513
66	0x3c4a0bc0	0.012331903
67	0xbc5ab460	-0.013348669
68	0x3c1ff111	0.009762065
69	0xbd223f3f	-0.039611097
70	0x3c7016f0	0.014653906
71	0xbd1adbac	-0.03780715
72	0x3ccbf2d5	0.024896065
73	0xba4cffce	-0.00078201
74	0x3b123802	0.0022311215
75	0x3c62d2bb	0.013844187
76	0x3d216e61	0.039411906
77	0xbd594152	-0.05304081
78	0x3cf5a222	0.029984538
79	0x3a662a9b	0.00087801524
80	0x3d3ea387	0.04654267
81	0xbaca4f54	-0.0015435019
82	0xbd090963	-0.033456217
83	0xbd576083	-0.052582275
84	0xbd509cd0	-0.050930798
85	0x3a81b322	0.0009895305
86	0x3d0ce24b	0.034395497
87	0xbca77623	-0.020442074
88	0xbd0039b8	-0.031305045
89	0xbc4ce76c	-0.012506347
90	0x3c579da9	0.013160148
91	0xbd0ff6c3	-0.03514744
92	0x3c41e73b	0.011834915
93	0x3cded4c9	0.027201073
94	0x3d709459	0.058735225
95	0x3cd85148	0.026405945
96	0x3d3628b8	0.044472426
97	0x3d0013d3	0.031268906
98	0x3d2948aa	0.041329063
99	0xbd39c14b	-0.045350354
100	0x3d78d488	0.06074956
101	0x3c8bf06c	0.017082416
102	0x3b6f1aad	0.0036484406
103	0x3d16bb2b	0.03679959
104	0xbcdb0cfd	-0.026739592
105	0xbd6cb66c	-0.05779116
106	0xbd3dc745	-0.046332616
107	0xbd1727c0	-0.036903143
108	0x3d253d4d	0.040341664
109	0x3d09992d	0.033593345
110	0x3d635847	0.05550411
111	0x3d351d07	0.044217136
112	0xbd5c2a51	-0.053751294
113	0x3d25ae3e	0.040449373
114	0xbbff65d2	-0.0077941203
115	0x3d5092f5	0.0509214
116	0x3d529a7d	0.051416863
117	0xbc5cb034	-0.0134697445
118	0x3c8cbf1e	0.017180976
119	0xbd62e520	-0.055394292
120	0x3bf1dbc5	0.007380935
121	0x3c425a21	0.011862309
122	0x3cecf3ce	0.028924849
123	0x3d43d05f	0.04780614
124	0xbc506151	-0.012718515
125	0x3c2d2efa	0.010570282
126	0xbcc8a58e	-0.024493005
127	0xbccb8b3f	-0.024846671

Q1.a_head.2.weight f4 [6, 128]
0	0xbd9eee29	-0.07760269
1	0xbaa04767	-0.0012228311
2	0x3d5c9f15	0.05386265
3	0x3d971b40	0.073782444
4	0xbd7211c4	-0.059098974
5	0x3b720b68	0.0036933068
6	0x3d1c7e5c	0.038206443
7	0xbd987300	-0.074438095
8	0x3d2b323f	0.041795965
9	0x3a98282d	0.0011608653
10	0xbda10c8d	-0.07863722
11	0x3c705bfc	0.014670368
12	0xbb8afbcf	-0.0042414437
13	0xbd812d4d	-0.063074686
14	0xbd80d440	-0.062904835
15	0xbd26d923	-0.04073442
16	0xbd6d2166	-0.05789318
17	0xbccffec4	-0.025390036
18	0xbd5d6cca	-0.054058827
19	0x3da9feea	0.08300574
20	0x3cdfb9f2	0.027310345
21	0x3d0f93c0	0.035053015
22	0xbd8491b4	-0.06473103
23	0x3ca923d2	0.020646963
24	0x3d6696b0	0.05629605
25	0x3d514064	0.0510868
26	0xbd4f5e9b	-0.050627332
27	0x3b847b4f	0.00404302
28	0x3d6838d6	0.056694828
29	0x3d817244	0.063206226
30	0xbd64cf91	-0.055862013
31	0x3c527775	0.012845864
32	0x3d269bc9	0.040675912
33	0x3d714968	0.058907896
34	0xbd7222c9	-0.059115205
35	0x3da5e90b	0.0810109
36	0xbd0a51ab	-0.03376929
37	0xbcb09945	-0.02155746
38	0x3d4263b5	0.04745837
39	0x3d3813af	0.044940647
40	0xbd9aa388	-0.07550722
41	0x3d3d5778	0.046225995
42	0x3d06685d	0.032814372
43	0x3d56818f	0.05236965
44	0xbd81c554	-0.063364655
45	0xbcc458b8	-0.023968086
46	0xbb6f7925	-0.0036540714
47	0xbdb88b85	-0.09010986
48	0xbceae264	-0.028672405
49	0x3d850392	0.064948216
50	0xbd4f364a	-0.050588883
51	0x3d0f0503	0.03491689
52	0x3d0d561c	0.03450595
53	0x3c8803aa	0.01660331
54	0x3cb8fead	0.022582376
55	0xbd08646e	-0.033298902
56	0xbb5b9073	-0.0033502846
57	0x3daa27b4	0.08308354
58	0xbcd9f32d	-0.026605213
59	0xbd509bff	-0.05093002
60	0xbbc8a683	-0.0061233654
61	0x3ce868ee	0.028370347
62	0x3d094afc	0.033518776
63	0x3d67c638	0.05658552
64	0xbda20bd4	-0.07912412
65	0xbd979009	-0.074005194
66	0x3cb3ed95	0.021963874
67	0xbdb0e4b8	-0.08637375
68	0xbd2b73ae	-0.041858368
69	0xbc86e17d	-0.016464943
70	0x3d77cd8d	0.060498763
71	0x3cdbea79	0.026845204
72	0xb9bd748d	-0.00036135726
73	0x3cf1293d	0.02943861
74	0x3ba522d5	0.0050395527
75	0xbda0c9e3	-0.07851007
76	0xbcbe2f81	-0.023216011
77	0xbd746dc2	-0.059674986
78	0xbbf44882	-0.0074549327
79	0xbd7de700	-0.061987877
80	0xbd6475c1	-0.05577636
81	0x3caffa2e	0.0214816
82	0x3d81bee5	0.06335238
83	0x3cbde1e6	0.023179006
84	0x3abcdcc7	0.0014409058
85	0x3db10cea	0.08645041
86	0x3d8118c6	0.06303553
87	0xbc55abcd	-0.013041449
88	0xbd7bf644	-0.061514154
89	0x3da07333	0.078344725
90	0xbceb5395	-0.028726378
91	0x3d8c8dad	0.0686296
92	0xbd18be50	-0.03729087
93	0x3db3f3b6	0.087867185
94	0xbd85643b	-0.06513258
95	0xbd833ceb	-0.064081036
96	0x3d8e9e9f	0.06963848
97	0xbaa1ac93	-0.0012334756
98	0x3d01af77	0.031661477
99	0x3d20401d	0.039123643
100	0xbbc1b13a	-0.0059110196
101	0x3d210707	0.039313342
102	0xbd753db6	-0.059873305
103	0xb9f56125	-0.0004680242
104	0xbcce8444	-0.025209554
105	0xbd45d91e	-0.048302762
106	0x3da9c835	0.082901396
107	0xbc7ced0e	-0.015437378
108	0x3c269d16	0.010169288
109	0x3cce3bff	0.025175093
110	0xbd5c42f8	-0.053774804
111	0x3d2d4bc0	0.04230857
112	0x3d2c20c0	0.04202342
113	0x3cf00588	0.029299513
114	0x3cc445c8	0.023959056
115	0x3d939408	0.07205969
116	0x3db0c034	0.0863041
117	0x3d7a091e	0.06104385
118	0xbb94ffc7	-0.0045470926
119	0xbd8c3f93	-0.06848063
120	0x3daaa4f6	0.08332245
121	0xbdb8ce9d	-0.09023783
122	0xbd2a7e47	-0.041624334
123	0xbdb1602d	-0.08660922
124	0x3d945d0e	0.07244311
125	0x3d6a17a6	0.05715146
126	0xbdb49d50	-0.088190675
127	0x3d24fcc2	0.04028011
128	0xbdaf823f	-0.08569764
129	0x3cb09512	0.021555457
130	0x3b39d2e2	0.0028354456
131	0xbb9e06bd	-0.0048225806
132	0x3beccf05	0.007226827
133	0x3c129e46	0.008948868
134	0xbcca5f65	-0.02470369
135	0xbc583d12	-0.013198154
136	0x3d9bcdf4	0.07607642
137	0xbb416e54	-0.0029515224
138	0x3d00c8fa	0.031441666
139	0x3c94deda	0.01817267
140	0xbae3ea54	-0.0017388561
141	0x3d8c8f44	0.06863263
142	0xbc8c2d98	-0.017111585
143	0xbda955d1	-0.08268321
144	0xbd2aa36f	-0.04165977
145	0x3d05929a	0.032610513
146	0xbc34e43a	-0.011040742
147	0xbd6fd8db	-0.05855642
148	0xbd1ac052	-0.037781067
149	0x3da42da2	0.08016516
150	0x3d6c303f	0.0576632
151	0xbb870f4f	-0.004121698
152	0xbd393a0f	-0.045221385
153	0xbcc71736	-0.02430306
154	0x3d91fc3f	0.0712819
155	0xbb08dd3d	-0.0020883821
156	0x3d341a26	0.04397025
157	0xbd08b3dd	-0.033374656
158	0x3d7473d8	0.05968079
159	0x3d112df6	0.035444222
160	0xbcaccf49	-0.021094935
161	0x3bed52a1	0.007242516
162	0x3d99d464	0.075112134
163	0xbcd6523f	-0.026162265
164	0xbc8ff9dd	-0.017575199
165	0xbdae2e64	-0.08504942
166	0xbd146aef	-0.036234792
167	0x3d973223	0.0738261
168	0x3da2338f	0.0791999
169	0x3cdbeb92	0.026845727
170	0x3d5eef0c	0.05442719
171	0xbd31c890	-0.043404162
172	0xbd8850b0	-0.06656015
173	0xbd2888d7	-0.041146126
174	0x3da0d938	0.07853931
175	0xbda07ca6	-0.07836275
176	0xbd21e8fe	-0.03952884
177	0x3cf4fa51	0.029904516
178	0xbdaf7c2b	-0.08568605
179	0xbd0783fb	-0.03308485
180	0xbd2f6934	-0.04282494
181	0xbd2e26f9	-0.042517636
182	0x3c9d2e03	0.01918698
183	0xbd1ed450	-0.038776696
184	0xbcdc069a	-0.026858617
185	0xbd92e498	-0.07172507
186	0x3d968bb8	0.07350868
187	0x3da67fc3	0.08129837
188	0x3c04e29d	0.008110669
189	0xbd138a92	-0.036020823
190	0x3d86baa8	0.065785706
191	0xbd2ca930	-0.042153537
192	0xbd4156e6	-0.047202013
193	0x3cd1c435	0.025606254
194	0x3ce48dd2	0.027899656
195	0xbd25c570	-0.040471494
196	0x3c151ca8	0.00910107
197	0x3d85cd13	0.065332554
198	0xbb3c70b1	-0.0028753693
199	0x3d9a2000	0.07525635
200	0x3c8f6ce6	0.017507982
201	0xbd60338a	-0.05473665
202	0xbdaf3039	-0.085541196
203	0x3b91f4c3	0.0044542267
204	0x3da5d99e	0.08098148
205	0xbd431b8c	-0.047633693
206	0x3d627989	0.055291686
207	0xbd9817cb	-0.07426413
208	0x3ccafada	0.024777818
209	0xbd84daab	-0.0648702
210	0xbd25b08d	-0.040451575
211	0x3da81eb0	0.08208978
212	0x3d0ac464	0.0338787
213	0x3d9e76d2	0.07737507
214	0xbcad8abb	-0.021184316
215	0xbcc42846	-0.023944985
216	0x3d56b734	0.05242081
217	0x3c1210d1	0.008915142
218	0xbdb903ba	-0.09033914
219	0x3d30b380	0.043139935
220	0xbce58567	-0.028017713
221	0x3ce87747	0.028377188
222	0xbc161670	-0.009160623
223	0x3d98d615	0.07462708
224	0xbdb36417	-0.08759325
225	0xbcd20cdb	-0.025640896
226	0x3da4a5ed	0.0803946
227	0xbccb57fc	-0.024822228
228	0x3d5d82ed	0.05407994
229	0x3d31c13a	0.043397166
230	0x3d0a2c6e	0.033733778
231	0xbd84aedf	-0.064786665
232	0x3da0aef7	0.07845872
233	0xbc9a5c38	-0.018842801
234	0xbd382951	-0.044961277
235	0xbd3e7e3f	-0.046507116
236	0xbda7b882	-0.08189489
237	0x3d9a7759	0.07542295
238	0xbd502956	-0.05082067
239	0x3d0855e9	0.033285055
240	0xbca77c0f	-0.020444898
241	0xbd5bf807	-0.053703334
242	0x3cd92ec4	0.026511557
243	0xbd1c20b5	-0.03811713
244	0xbd49c22e	-0.04925745
245	0xbda9e533	-0.082956694
246	0x3c9fcda2	0.019507233
247	0x3d046028	0.032318264
248	0x3cb5f621	0.02221209
249	0xbd901d16	-0.07036798
250	0x3d4abe36	0.049497806
251	0x3dabad55	0.0838267
252	0xbd72b119	-0.059250925
253	0xbd1eecd3	-0.038800072
254	0x3c93176d	0.017955506
255	0x3daea7ef	0.085281245

Q1.a_head.2.bias f4 [6]
0	0x3c803a26	0.015652727
1	0xbb837dbd	-0.004012792
2	0x3d98c93d	0.07460258
3	0x3ce286cc	0.027652167
4	0x3d1e0ddc	0.038587436
5	0x3d475ac9	0.048670564

Q1.v_head.0.weight f4 [128, 294]
0	0xbb96d3c6	-0.004602882
1	0xbb8debc4	-0.004331084
2	0xbcfc42f2	-0.03079364
3	0x3cc568a6	0.024097752
4	0x3cd13989	0.02554013
5	0xbb112ecf	-0.0022153144
6	0x3d5daefb	0.054121953
7	0x3cc569b7	0.02409826
8	0xbd25a42f	-0.04043978
9	0xbd6db0bd	-0.05802988
10	0x3d1401f1	0.036134664
11	0xbd6a7304	-0.057238594
12	0x3ca76f9b	0.02043896
13	0xbce8cace	-0.028417017
14	0x3cb2ea4f	0.021840243
15	0xbd66bc1d	-0.056331743
16	0x3d568875	0.05237623
17	0xbd3582a2	-0.044314034
18	0x3d53d8f5	0.05172058
19	0x3d3ad6ef	0.045615133
20	0xbd2d26ae	-0.042273216
21	0x3cf4cff2	0.029884312
22	0x3ca934dd	0.02065509
23	0x3ca79867	0.020458413
24	0xbd1f9d4c	-0.03896837
25	0xbce34b53	-0.027745878
26	0x3d078543	0.033086073
27	0x3d13fb76	0.036128484
28	0x3ba73a15	0.0051033595
29	0xbd081492	-0.033222742
30	0x3c21d978	0.009878509
31	0xbd1c57cc	-0.038169667
32	0x3cd13dc3	0.025542146
33	0x3d4121cd	0.047151376
34	0x3d529f50	0.051421463
35	0xbd076a4a	-0.03306035
36	0xbc6ec17a	-0.014572496
37	0x3cf49e6b	0.029860696
38	0x3c71b730	0.014753148
39	0xbc553f75	-0.013015618
40	0xbb4ec520	-0.00315506
41	0x3d47671f	0.04868233
42	0xbd50a055	-0.050934155
43	0x3bdcbc81	0.0067363386
44	0x3ce3f28c	0.027825616
45	0x3b15f823	0.0022883497
46	0xbd386dc9	-0.045026574
47	0x3d0f0675	0.034918267
48	0xbd39f5ee	-0.045400552
49	0x3c787cd7	0.015166483
50	0xbcaff17f	-0.021477459
51	0x3c701ce5	0.0146553265
52	0xbc9ecdb0	-0.019385189
53	0xbd6b5798	-0.057456583
54	0xbd43d725	-0.0478126
55	0xbd62028c	-0.05517821
56	0x3cb261cb	0.021775147
57	0x3c974243	0.018464213
58	0x3cf4a607	0.029864324
59	0xbd48f045	-0.049057264
60	0x3d19ce1b	0.037550073
61	0xbb8ff635	-0.004393364
62	0x3ce85c9f	0.028364478
63	0x3c4ff2bb	0.012692149
64	0xbd6b0564	-0.057378188
65	0x3d4d474c	0.050116822
66	0xbc6fe1ac	-0.014641207
67	0x3ccdf2ec	0.025140248
68	0x3c9d8774	0.019229628
69	0xbc9c63c6	-0.019090544
70	0x3c955101	0.018227102
71	0x3d620eff	0.055190083
72	0xbc4b1168	-0.012394287
73	0x3d39e1f0	0.045381486
74	0xbc8b1b1f	-0.016980706
75	0xbbf6f015	-0.007535944
76	0x3cc2a368	0.023759559
77	0x3d14b2f7	0.036303487
78	0xbd256b1f	-0.04038536
79	0x3d12adce	0.035810284
80	0xbd6d2ff7	-0.05790707
81	0xba378626	-0.00070008857
82	0xbc83206f	-0.016006676
83	0x3cfcb0f4	0.030846097
84	0xbd36f373	-0.044665765
85	0x3d6ddbf6	0.0580711
86	0xbc80e633	-0.015734768
87	0x3ce5bb76	0.02804349
88	0xbc157dc0	-0.009124219
89	0xbd69838d	-0.057010222
90	0x3cca5326	0.024697851
91	0x3bbf91e0	0.005846247
92	0xbc1f0d9b	-0.009707834
93	0x3d50f8f2	0.051018663
94	0x3cd2df3e	0.025741216
95	0x3b8cc696	0.004296134
96	0x3d6ba73f	0.057532545
97	0x3b9bea9c	0.004758192
98	0xbd549298	-0.051897615
99	0x3c9d5071	0.019203397
100	0xbd3ce9fc	-0.046121582
101	0x3d0d1575	0.03444429
102	0xbd4e3468	-0.050342947
103	0x3cb3b8cc	0.021938704
104	0x3c2e0026	0.010620153
105	0xbbebdcbd	-0.007197945
106	0xbb2c5ea0	-0.0026301518
107	0x3c553e16	0.013015291
108	0x3d5e4d48	0.05427292
109	0x3cfa6e61	0.03057021
110	0xbd3b95cf	-0.045797165
111	0xbd268a6f	-0.040659364
112	0xbd238f0c	-0.039931342
113	0xbbf667f6	-0.0075197173
114	0x3d2a599f	0.041589376
115	0x3c085340	0.00832063
116	0x3d69577b	0.056968194
117	0xbc9e1423	-0.019296711
118	0xbd3c5c68	-0.045986563
119	0x3d2dd1b0	0.0424363
120	0xbad4e959	-0.001624386
121	0x3a8f6805	0.0010941034
122	0xbd452752	-0.048133202
123	0x3cf19ff9	0.029495226
124	0xbcd9edf5	-0.026602725
125	0xbc932bd2	-0.017965231
126	0xbcea73dd	-0.028619701
127	0x3cd1a550	0.025591522
128	0xbd4ecb36	-0.050486766
129	0x3d53ffa0	0.051757455
130	0xbd3640bb	-0.044495326
131	0xbd33421f	-0.04376423
132	0x3b4d888f	0.0031361913
133	0x3abad445	0.0014253935
134	0x3d55bad4	0.052180126
135	0xbc0dd885	-0.008657579
136	0x3cb6d979	0.022320496
137	0x3c729d9d	0.014808086
138	0x3ca9fd11	0.020750554
139	0x3ce12536	0.027483564
140	0xbd2ddf14	-0.042449072
141	0x3cc2c1b0	0.023773998
142	0xbd5807b6	-0.05274173
143	0xba1eddee	-0.0006060292
144	0x3cdba62e	0.02681264
145	0x3c97cf06	0.018531334
146	0x3d534ea2	0.051588662
147	0x3d650f45	0.055922765
148	0xbd6c2bcf	-0.057658967
149	0xbd6bdc12	-0.057582922
150	0x3d42b5e4	0.047536746
151	0xbd2270a5	-0.039658207
152	0x3cb863e2	0.022508565
153	0xbd50a668	-0.050939947
154	0x3ac60f81	0.0015110822
155	0xbd194e8e	-0.03742843
156	0x3d2a6b71	0.04160637
157	0x3d08b3e6	0.03337469
158	0x3a32ec0f	0.00068253366
159	0x3a83323d	0.0010009479
160	0xbcc26755	-0.023730913
161	0x3c709a3b	0.014685209
162	0xbd244ff2	-0.040115304
163	0xbd4ca6a1	-0.049963597
164	0x3d40c7b3	0.047065448
165	0xbd66d99e	-0.05635988
166	0x3c80c335	0.015718082
167	0x3d67fd8b	0.05663828
168	0x3d1658bd	0.03670572
169	0xbd1317c0	-0.03591132
170	0x3d5bcada	0.05366025
171	0xbcba5193	-0.022743976
172	0x3d564262	0.0523094
173	0x3ca785fd	0.020449633
174	0x3ce7bb1a	0.02828746
175	0xbd5ad34b	-0.05342416
176	0x3d03fceb	0.032223623
177	0xbd298142	-0.041383035
178	0x3ba8c9d1	0.0051510115
179	0xbc83d6ff	-0.016093729
180	0x3cc85a21	0.02445704
181	0x3d31cb9a	0.04340706
182	0x3d2d1923	0.0422603
183	0xbc2a5782	-0.01039684
184	0x3d420f1c	0.04737769
185	0x3c82e201	0.015976908
186	0xbd2a8497	-0.041630354
187	0xbccbf7e4	-0.024898477
188	0xbc9f2b0b	-0.019429704
189	0xbd142a3f	-0.0361731
190	0xbd0a93b5	-0.03383227
191	0x3d6499cf	0.055810746
192	0xbc7a5ff9	-0.015281671
193	0xbd68689f	-0.0567404
194	0x3cb729e6	0.022358846
195	0xbaf7c7fd	-0.0018904206
196	0xbd2519b1	-0.040307704
197	0xbd38ef1b	-0.045149904
198	0x3c0a9b83	0.008459928
199	0x3d282f87	0.04106095
200	0x3d30e8bc	0.043190703
201	0xbcaee374	-0.021348692
202	0x3c635407	0.013875014
203	0x3d6a4cc4	0.057202116
204	0xbcd05bea	-0.025434453
205	0xbd3b0f69	-0.045668993
206	0x3d1425d8	0.036168903
207	0x3d02263d	0.031774748
208	0x3d5af7b5	0.053458888
209	0x3ce27944	0.027645715
210	0x3d008d50	0.031384766
211	0xbcd4ba3d	-0.025967712
212	0xbcfdd883	-0.03098703
213	0xbb5ccb25	-0.003369042
214	0xbd62caa3	-0.05536903
215	0xbd3274cf	-0.04356843
216	0xbd141215	-0.036150057
217	0xbcf261c7	-0.02958764
218	0xba2d6bf4	-0.00066155125
219	0x3d57d660	0.05269468
220	0xbd56c3b0	-0.052432716
221	0xbd32122a	-0.043474354
222	0x3c2edb8d	0.010672462
223	0xbcab111e	-0.020882186
224	0xbd5cc53f	-0.053899046
225	0xbd57f561	-0.052724246
226	0xbd1b4e2a	-0.03791634
227	0x3cef8479	0.029237973
228	0xbd371493	-0.044697355
229	0x3d503301	0.05082989
230	0xbd64a7b3	-0.055823993
231	0xbd0a7cfb	-0.033810597
232	0xbd47d95d	-0.04879128
233	0xbd641896	-0.05568751
234	0xbd1e1f79	-0.038604233
235	0xbd69972f	-0.057028946
236	0xbc860794	-0.016361035
237	0xbc69cd0d	-0.014270079
238	0x3c805fea	0.015670735
239	0xbb50ddcc	-0.0031870482
240	0x3d1d0109	0.038331065
241	0x3b5caeea	0.0033673593
242	0x3cb42ea6	0.0219949
243	0x3d40a3a1	0.04703105
244	0xbd0637c6	-0.032768033
245	0x3b8e1f52	0.0043372298
246	0x3d6c1826	0.057640217
247	0xbcad4714	-0.021152057
248	0x3c021d9f	0.0079416325
249	0x3cf6d10e	0.030128982
250	0x3aed45fb	0.0018102521
251	0x3cf06ae7	0.02934785
252	0xbd6b0f5e	-0.057387702
253	0xbd44b0a7	-0.04802003
254	0xbd39e109	-0.045380626
255	0x3bef278a	0.0072984146

Q1.v_head.0.bias f4 [128]
0	0xbd286286	-0.041109584
1	0x3d459a82	0.048243053
2	0xbd18e0a8	-0.037323624
3	0x3d46fa48	0.04857853
4	0xbcfd66e5	-0.030932853
5	0x3d1b6b9e	0.03794443
6	0xbd168257	-0.036745396
7	0xbd19258f	-0.037389334
8	0xbc5ab5ea	-0.013349036
9	0xbd373cbc	-0.044735655
10	0xbd391032	-0.04518146
11	0x3d0ba502	0.03409291
12	0xbd50d07c	-0.050980076
13	0x3d179e2b	0.037016075
14	0x3d554e9b	0.052076917
15	0x3c0778af	0.008268519
16	0x3d7428f1	0.059609357
17	0xbd0b43db	-0.03400026
18	0xbd4b58ac	-0.04964511
19	0xbd5dd2e7	-0.05415621
20	0x3d639c45	0.055568952
21	0x3d15bd85	0.036557693
22	0xbd513dcf	-0.051084336
23	0x3d19d0da	0.037552692
24	0x3d402109	0.046906505
25	0xbd5c21ad	-0.053743053
26	0x3d580545	0.0527394
27	0x3d0c5c34	0.03426762
28	0xbca9d753	-0.020732557
29	0x3bbccffb	0.005762098
30	0x3c53e958	0.012934051
31	0x3c341330	0.010990903
32	0xbd2aa863	-0.041664492
33	0x3cb165a5	0.021654913
34	0xbd2c9375	-0.042132813
35	0x3d2882a7	0.041140225
36	0x3c6049bd	0.013689456
37	0xbcd78fe9	-0.026313739
38	0xbc7e3b3d	-0.015517053
39	0x3cec9868	0.028881267
40	0xbd5a1a77	-0.053247895
41	0xbd459c43	-0.048244726
42	0x3d2ba36c	0.041903898
43	0x3c856764	0.016284652
44	0x3d14d2ba	0.036333777
45	0x3d4796e3	0.04872788
46	0x3d39a434	0.045322612
47	0xbccb8cd0	-0.024847418
48	0x3d6f5ebe	0.058439963
49	0xbd3f32a3	-0.04667915
50	0xbd1f599d	-0.03890382
51	0xbd2613b1	-0.040546123
52	0xbd053f03	-0.032530796
53	0xbb72f239	-0.0037070645
54	0x3cf6df9d	0.030135924
55	0x3b7bf064	0.0038442845
56	0xbd5b02cb	-0.05346946
57	0xbd58da64	-0.05294265
58	0xbd48a3b4	-0.048984244
59	0xbd12a798	-0.03580436
60	0xbcf8d893	-0.030376708
61	0x3bcce30f	0.0062526534
62	0x3ca654cb	0.020304104
63	0x3d5d9a74	0.054102376
64	0x3d4bf927	0.049798157
65	0xbd56b7df	-0.052421447
66	0xbd0bc94c	-0.03412752
67	0x3d774a27	0.06037345
68	0xbc2d74c1	-0.010586918
69	0xbcd65821	-0.02616507
70	0x3cf75d96	0.030195992
71	0x3cebd527	0.028788162
72	0x3d38555b	0.045003276
73	0xbd1cff89	-0.038329635
74	0x3ab5b555	0.0013863245
75	0x3d236e4f	0.03990012
76	0xbcd15920	-0.025555193
77	0xbb9bafaa	-0.0047511654
78	0xbccdc981	-0.025120499
79	0xbd466cc1	-0.04844356
80	0xbca810fe	-0.020515915
81	0x3c698982	0.014253976
82	0xbceeeaaa	-0.02916463
83	0x3c4619fc	0.012091156
84	0xbd341e5e	-0.043974273
85	0x3d264efb	0.040602665
86	0x3d316245	0.043306608
87	0xbd1c0723	-0.038092744
88	0xbcfdf8cf	-0.03100243
89	0x3d6867d4	0.056739643
90	0xbcaf2a8f	-0.021382598
91	0xbcabf898	-0.020992562
92	0x3c901926	0.017590117
93	0x3ca6454f	0.02029672
94	0xbd5a8c53	-0.05335648
95	0x3c21d32b	0.0098770065
96	0x39bc9957	0.000359724
97	0x3cb73f42	0.02236903
98	0x3bdb6c22	0.00669624
99	0xbcf9bd1c	-0.030485682
100	0x3d285020	0.04109204
101	0xbc9a9c0d	-0.018873239
102	0x3c60b3e8	0.013714768
103	0x3a38b495	0.0007045952
104	0xbd364e30	-0.04450816
105	0xbca49e28	-0.020094946
106	0xbc269840	-0.010168135
107	0xbd59fb83	-0.053218376
108	0xbd426ac8	-0.047465116
109	0x3d331a53	0.043726277
110	0xbd11f1ff	-0.035631176
111	0x3d0e6785	0.034766693
112	0xbd46f05f	-0.04856908
113	0x3cb9bfef	0.022674529
114	0xbcecac12	-0.028890643
115	0x3c34e0b5	0.011039902
116	0xbb0c0f2d	-0.002137135
117	0x3d53bafa	0.051691987
118	0x3c99fa53	0.018796122
119	0xbd42b0d0	-0.047531903
120	0x3ce48871	0.027897092
121	0x3d45024a	0.048097886
122	0x3d69d16f	0.057084497
123	0xbd1358f1	-0.035973493
124	0x3c027223	0.007961783
125	0x3d3fcdbc	0.046827063
126	0x3d58700a	0.052841224
127	0x3d71d86f	0.059044298

Q1.v_head.2.weight f4 [1, 128]
0	0x3d3116c2	0.043234594
1	0xbc0eb7fd	-0.008710858
2	0xbd03c7fa	-0.032173134
3	0x3d130fad	0.03590362
4	0xbd9d5b84	-0.07683471
5	0xbcb20e13	-0.021735227
6	0xbd16f8dd	-0.03685843
7	0xbd936b2f	-0.07198178
8	0xbd344b4b	-0.044017117
9	0xbd1fec50	-0.039043725
10	0xbd268db8	-0.040662497
11	0xbd0f52f6	-0.034991227
12	0xbd882200	-0.0664711
13	0x3d09f527	0.03368106
14	0x3dae819d	0.085208155
15	0x3c93139b	0.017953685
16	0xbd99de91	-0.07513154
17	0xbdaf6602	-0.08564378
18	0xbd084aed	-0.03327458
19	0xbc2c1789	-0.010503658
20	0xbdb209ce	-0.08693276
21	0x3c969f71	0.018386574
22	0xbd56d86b	-0.052452486
23	0x3cc48151	0.023987444
24	0xbd097522	-0.033558972
25	0xbd071a54	-0.032984093
26	0xbccf3f29	-0.025298672
27	0x3d90b194	0.0706512
28	0xbdadac6e	-0.08480154
29	0x3d9a5fc2	0.075377956
30	0xbcb19917	-0.021679444
31	0xbc9f69dc	-0.019459657
32	0xbcfc5ad2	-0.030805025
33	0x3d02d60f	0.031942423
34	0xbbe5faaa	-0.007018407
35	0x3d92c1e6	0.071658894
36	0xbc08e6f2	-0.008355843
37	0xbd06ee37	-0.032942023
38	0x3d4bebca	0.049785413
39	0x3cb4eb09	0.02208473
40	0xbd972465	-0.073799886
41	0x3cb25b08	0.021771923
42	0x3d94ad47	0.072596125
43	0xbd90e584	-0.07075027
44	0xbda27b20	-0.079336405
45	0xbcc27274	-0.023736216
46	0x3c1405eb	0.009034614
47	0xbcc78892	-0.024357114
48	0xbd6b2535	-0.05740853
49	0xbc386317	-0.011254094
50	0xbd91ab3d	-0.07112739
51	0x3ba6074e	0.0050667888
52	0x3db3420f	0.08752834
53	0xbd2a3e02	-0.04156304
54	0x3d8284d3	0.063729905
55	0xbb8c8801	-0.004288674
56	0xbd910edc	-0.07082912
57	0xbc389a06	-0.011267191
58	0x3d96778f	0.07347023
59	0x3d96e7e9	0.07368452
60	0x3da914ba	0.082559064
61	0xbca533b0	-0.020166248
62	0x3badc4ba	0.0053029926
63	0xbc0dcfea	-0.008655528
64	0x3bea0beb	0.007142534
65	0x3cbec4fe	0.023287293
66	0xbc8b9ae8	-0.017041638
67	0xbdb52a21	-0.08845926
68	0xbd404580	-0.04694128
69	0xbd355e4a	-0.044279374
70	0xbdaf75b8	-0.08567375
71	0x3da1a1b8	0.078921735
72	0x3d23c44d	0.03998213
73	0xbda1b17c	-0.078951806
74	0x3c360f6e	0.011112077
75	0xbca6910d	-0.020332837
76	0x3d774e3e	0.060377352
77	0x3d835b40	0.06413889
78	0xbae78fd2	-0.0017666763
79	0x3d21108e	0.03932243
80	0xbc014c1f	-0.007891684
81	0xbd26cca1	-0.040722493
82	0x3ccebc5f	0.025236307
83	0xbd78ff46	-0.060790323
84	0x3d56e7c1	0.05246711
85	0x3d2d902d	0.042373825
86	0xbbc557a0	-0.0060224086
87	0xbccbf6b5	-0.024897913
88	0xbd70c073	-0.058777284
89	0xbd8e5353	-0.069494866
90	0xbd8bc82b	-0.068252884
91	0xbd0e1582	-0.03468848
92	0xbd951b93	-0.0728065
93	0xbca0f4aa	-0.019647915
94	0xbd99d29f	-0.07510876
95	0xbc30f35c	-0.010800209
96	0xbd643145	-0.05571105
97	0xbd75c94d	-0.06000643
98	0x3b1db4e3	0.0024064116
99	0x3d03ce8c	0.0321794
100	0x3d2b994b	0.04189424
101	0xbcc23721	-0.023707928
102	0xbdb5eed3	-0.08883443
103	0xbd44500c	-0.0479279
104	0x3c43d558	0.011952721
105	0x3d684f82	0.05671645
106	0x3c24a05c	0.010047998
107	0x3d6b26c0	0.05741
108	0x3d33efb8	0.043929785
109	0xbcde1081	-0.027107479
110	0xbda57efd	-0.08080862
111	0xbd7e1115	-0.06202801
112	0x3d5a478e	0.053290896
113	0x3d04d6aa	0.032431282
114	0x3d75a2d7	0.05996975
115	0x3d291266	0.04127731
116	0x3d83c0f8	0.0643329
117	0xbd2c6ad0	-0.04209405
118	0x3d33323f	0.04374909
119	0x3ce97625	0.028498719
120	0x3c149d09	0.009070643
121	0xbd92741c	-0.07151052
122	0xbd7ef6a9	-0.062246952
123	0x3d7e3334	0.06206055
124	0xbdad7902	-0.08470346
125	0x3c706fd4	0.014675099
126	0xbdb67b97	-0.08910292
127	0xbdaf2ba4	-0.08553246
