models_decentralized/final/target_critic_2_2200.pth (torch, 631787 bytes, 26 tensors)

Q1.conv.net.0.weight f4 [3, 31, 3, 3]
0	0x3e1f9c0e	0.15586874
1	0xbdde87ca	-0.108657435
2	0x3d730a5e	0.05933606
3	0xbc796790	-0.015222445
4	0x3d82a4c8	0.06379086
5	0x3e2cfa73	0.16892414
6	0x3dcdf70a	0.100568846
7	0xbdc681ec	-0.096927494
8	0xbd9e17f7	-0.07719415
9	0x3e2138ef	0.15744375
10	0x3be82ab4	0.0070851687
11	0x3d5c4895	0.053780157
12	0x3d548d56	0.0518926
13	0xbddc6fff	-0.10763549
14	0x3da171a8	0.07883006
15	0x3e1d046d	0.1533372
16	0xbd80e38c	-0.06293401
17	0xbe14493c	-0.14481062
18	0x3d7d3626	0.061819218
19	0x3d0dc8e2	0.034615405
20	0x3d815d43	0.063166164
21	0x3e3f6ba9	0.18693413
22	0xbd9768e4	-0.07393053
23	0xbd8e0401	-0.069343574
24	0x3d36986d	0.04457896
25	0xbdb8c991	-0.09022821
26	0xbe0e1a64	-0.13877255
27	0xbdcd123d	-0.10013244
28	0x3d92fd1d	0.07177184
29	0xbdb68634	-0.08912316
30	0x3d5703fb	0.05249403
31	0xbdb2fe32	-0.0873989
32	0x3d821791	0.06352151
33	0x3ddb238a	0.10700138
34	0x3e06ca62	0.1316314
35	0xbe0ce6fa	-0.13759986
36	0xbe0dbac4	-0.13840777
37	0xbc16e243	-0.009209218
38	0xbe1aa2ea	-0.1510121
39	0x3dc1e981	0.094683655
40	0xbda8bb4e	-0.082388505
41	0xbc2e029f	-0.010620742
42	0xbc9812e5	-0.018563697
43	0x3e0e09f7	0.13870989
44	0x3dd32cc4	0.10311273
45	0x3e60066b	0.21877448
46	0xbdc7a5f1	-0.09748448
47	0x3e1ce8f6	0.15323243
48	0xbda27eb3	-0.07934322
49	0xbcfa5138	-0.030556306
50	0xbddcd0da	-0.10782023
51	0x3e248d62	0.16069558
52	0xbd8be274	-0.06830302
53	0x3e215f1a	0.15758935
54	0x3d800c7b	0.062523805
55	0xbd89b9f3	-0.0672492
56	0x3e56e917	0.20987354
57	0x3c905c5c	0.017622165
58	0x3dbe9564	0.09305838
59	0xbab5dccf	-0.001387501
60	0x3e109d02	0.14122394
61	0x3dfa50cc	0.12222442
62	0x3e55319b	0.20819704
63	0x3d75dc98	0.060024828
64	0xbd803574	-0.062601954
65	0xbd62b9a0	-0.055352807
66	0xbd37510c	-0.044755027
67	0x3e297700	0.16549301
68	0x3e1af763	0.15133433
69	0x3e237cf9	0.15965642
70	0x3d2dc5c4	0.042424932
71	0x3c8bd899	0.017071055
72	0xbda495a8	-0.08036357
73	0xbcd9b05c	-0.026573353
74	0x3e64924d	0.22321434
75	0xbdd8e70f	-0.10590946
76	0xbd630079	-0.055420373
77	0xbdda81f9	-0.106693216
78	0x3dc49890	0.095994115
79	0x3b586452	0.003301878
80	0x3e18f673	0.14937763
81	0x3e5fd47c	0.218584
82	0xbd1ab7ff	-0.03777313
83	0xbd304416	-0.04303368
84	0xbe0fda12	-0.14048031
85	0xbdf87e05	-0.12133411
86	0xbe0f4b93	-0.13993673
87	0x3db82af6	0.08992569
88	0x3e4a2a21	0.19742633
89	0x3e4c31d0	0.19940877
90	0x3dd2c0ce	0.10290681
91	0x3e3819c0	0.17978573
92	0xbce2adf8	-0.027670845
93	0x3ded8c35	0.11599008
94	0x3da695cb	0.081340395
95	0x3dd722bc	0.10504672
96	0x3e26f188	0.16303074
97	0x3e048612	0.12941769
98	0x3cc4fe11	0.02404693
99	0xbb220def	-0.0024727543
100	0x3e18eafe	0.14933392
101	0x3e088009	0.13330092
102	0xbdcf424a	-0.101200655
103	0x3d3821ec	0.044954225
104	0xbcc0e7e7	-0.02354808
105	0x3dcf4b3d	0.101217724
106	0x3d97a918	0.07405299
107	0x3d0477b8	0.032340735
108	0xbd9e9b9a	-0.077445224
109	0x3cebd312	0.02878717
110	0xbc57b5ec	-0.013165932
111	0x3dd8db0a	0.105886534
112	0x3e0fed83	0.14055447
113	0xbd6054c5	-0.054768343
114	0x3cf9d998	0.030499265
115	0x3e3cd163	0.1843925
116	0x3e062c2b	0.13102786
117	0x3dd011e7	0.101596646
118	0x3d8741cb	0.06604346
119	0x3dbcd1a8	0.09219676
120	0x3e14b01f	0.1452031
121	0x3df0a5ab	0.11750349
122	0xbd82ee5b	-0.06393119
123	0x3dff59e2	0.12468316
124	0x3e0fffa2	0.1406236
125	0x3d367060	0.044540763
126	0x3e27dca8	0.16392767
127	0x3df169cf	0.117877595
128	0xbdbee749	-0.09321458
129	0x3db17aa3	0.08665969
130	0xbdb66c31	-0.089073546
131	0x3cb6c515	0.022310773
132	0x3e09de56	0.1346372
133	0xbd717401	-0.05894852
134	0x3de8549a	0.113442615
135	0x3ddca621	0.10773874
136	0xbd862fec	-0.06552109
137	0xbda2d2ae	-0.0795034
138	0x3e2ddbe2	0.1697841
139	0xbdd3fb76	-0.10350697
140	0xbd04e4bd	-0.032444704
141	0x3db16b94	0.08663097
142	0xbdeac8d3	-0.114640854
143	0x3d0615ea	0.032735743
144	0xbc53f677	-0.01293718
145	0x3e17bd44	0.14818293
146	0x3e2ab208	0.16669476
147	0x3cb6bca3	0.022306746
148	0x3df04024	0.11730984
149	0xbd997913	-0.07493796
150	0x3dbe4a5c	0.09291527
151	0x3ac06cbd	0.0014680844
152	0x3db396c9	0.08768994
153	0xbdc4d193	-0.096102856
154	0xbcb2bd67	-0.02181883
155	0x3d664425	0.05621733
156	0x3c07a974	0.008280147
157	0xbdf5cfe2	-0.12002541
158	0xbd173453	-0.036915135
159	0x3dcb8050	0.09936583
160	0xbdec637b	-0.11542412
161	0xbc8ab4ce	-0.016931918
162	0xbcd3704a	-0.02581038
163	0x3e0bd0fc	0.1365394
164	0x3d84d6dc	0.06486294
165	0xbc2306f4	-0.009950388
166	0x3d1b6d6b	0.037946146
167	0xbd1822a2	-0.037142403
168	0xbdd6f10b	-0.10495194
169	0x3dac4d6d	0.08413205
170	0x3e309896	0.17245707
171	0x3e20b215	0.15692933
172	0xbce9ebea	-0.028554875
173	0x3de17f07	0.11010557
174	0xbd89d524	-0.067301065
175	0xbbabba53	-0.0052407174
176	0x3dae6f7e	0.08517359
177	0x3de24813	0.11048903
178	0x3bab91d8	0.005235892
179	0x3e2dd28b	0.16974847
180	0xbe22e836	-0.15908894
181	0xbd929c08	-0.07158667
182	0x3d303775	0.043021638
183	0xbda372b7	-0.079808645
184	0x3da394f6	0.079873964
185	0x3ddff772	0.10935868
186	0xbe1c46da	-0.15261403
187	0x3dc6d073	0.09707727
188	0xbd6ac048	-0.05731228
189	0xbe29d105	-0.16583641
190	0xbdf6ba6f	-0.12047278
191	0x3c79c727	0.0152452355
192	0xbcfeecb7	-0.031118734
193	0xbdfd7881	-0.123765
194	0x3da01ad9	0.07817621
195	0x3db6ea5a	0.08931418
196	0xbd039968	-0.03212872
197	0x3df0321d	0.11728308
198	0xbd85ca93	-0.065327786
199	0xbcbb092e	-0.022831526
200	0x3cb324af	0.021868078
201	0xbd89b201	-0.06723405
202	0x3d613af2	0.054987855
203	0xbd2eaa48	-0.04264286
204	0xbc2670fb	-0.010158773
205	0xba8a8419	-0.0010567933
206	0x3bd402c2	0.0064700553
207	0xbdb4c472	-0.088265315
208	0xbe047a37	-0.12937246
209	0xbd69f731	-0.057120506
210	0xbdebaa30	-0.1150707
211	0xbd8ea85f	-0.06965708
212	0xbd45c17f	-0.048280235
213	0xbd643114	-0.055710867
214	0xbddb675c	-0.107130736
215	0x3e2c6320	0.16834688
216	0xbe23d5bd	-0.15999503
217	0xbe3e60cd	-0.18591614
218	0xbd39c236	-0.04535123
219	0xbdedcb7c	-0.11611077
220	0xbdb7af68	-0.08969003
221	0x3c88e963	0.01671285
222	0xbe0685ca	-0.13136974
223	0xbdafb6db	-0.08579799
224	0x3de58d2e	0.112085685
225	0xbcdcf72e	-0.026973333
226	0x3db9c0cb	0.090699755
227	0xbc8c86eb	-0.017154178
228	0xbde9de0a	-0.11419304
229	0x3d9c56a8	0.07633716
230	0xbe00b9c1	-0.1257086
231	0xbd449559	-0.04799399
232	0x3db3716d	0.087618686
233	0x3db35da8	0.08758098
234	0xbddee81f	-0.10884117
235	0xbe0ad46c	-0.13557595
236	0xbdec9ff9	-0.1155395
237	0xbd28e76f	-0.041236337
238	0x3da3eeee	0.080045566
239	0x3e0a8ea6	0.13530979
240	0x3defafee	0.11703478
241	0xbde82e36	-0.11336939
242	0x3d1ae406	0.037815116
243	0xbd2323de	-0.039829127
244	0x3de875cd	0.11350594
245	0x3ba67888	0.0050802864
246	0xbd6809fa	-0.05665014
247	0xbcd6ed85	-0.026236305
248	0xbd9db991	-0.077014096
249	0x3e082920	0.13296938
250	0xbdf61094	-0.12014881
251	0xbd102fec	-0.03520195
252	0xbe15177a	-0.14559737
253	0xbdfaa1d3	-0.12237897
254	0xbd27581d	-0.040855516
255	0xbce078fd	-0.027401442

Q1.conv.net.0.bias f4 [3]
0	0x3c2c5cb0	0.010520145
1	0x3c54e390	0.012993708
2	0xba283406	-0.00064164435

Q1.conv.net.3.weight f4 [6, 3, 3, 3]
0	0xbec4cbb5	-0.38436666
1	0xbddae0c4	-0.10687402
2	0x3e0fe953	0.1405385
3	0x3ed22166	0.41041106
4	0x3ef494dc	0.4776982
5	0x3e349a28	0.17636931
6	0xbe4e7472	-0.20161608
7	0xbe8103cb	-0.25198206
8	0x3f031f59	0.5121971
9	0x3cabfb8c	0.02099397
10	0x3e823e96	0.25438374
11	0x3e5178e8	0.20456278
12	0x3e6d4780	0.23171806
13	0xbdbf6210	-0.09344876
14	0xbebe8543	-0.37211046
15	0x3f0a556d	0.540366
16	0x3ef1827e	0.4716987
17	0xbdd4d68d	-0.10392485
18	0x3eec8bf5	0.4620053
19	0xbe82f881	-0.25580218
20	0xbed8bd2c	-0.42331827
21	0x3d086a96	0.033304773
22	0x3e46c886	0.19412431
23	0xbe8a7e45	-0.2704946
24	0x3eef7c00	0.46774292
25	0x3e94cae1	0.29061034
26	0x3e97dc56	0.2966029
27	0xbe3de268	-0.18543398
28	0x3da4a5b2	0.080394164
29	0xbc943b8b	-0.018094799
30	0x3eeb83eb	0.45999083
31	0x3efb328c	0.49062002
32	0xbe461f53	-0.19347887
33	0xbe38e994	-0.18057853
34	0xbdccd1d0	-0.10000956
35	0x3d64eb88	0.055888683
36	0x3efbc4f1	0.49173692
37	0x3d216d93	0.03941114
38	0xbed6e9cb	-0.41975245
39	0x3e1f3152	0.15546158
40	0xbe78d60e	-0.24300405
41	0xbc4087e2	-0.011751147
42	0x3ea7a818	0.32745433
43	0xbdad0420	-0.084480524
44	0x3e5e206c	0.21692055
45	0x3e697e8a	0.22802177
46	0xbdf56c5d	-0.11983559
47	0x3ee739b1	0.45161203
48	0x3d0ce33f	0.034396406
49	0x3ecd1358	0.4005382
50	0xbd93b219	-0.07211704
51	0x3c7fb4c5	0.015607064
52	0xbe43c74e	-0.19118997
53	0xbe5296c9	-0.20565332
54	0x3ebdf821	0.3710337
55	0xbe3bd21a	-0.18341866
56	0x3de5b366	0.11215858
57	0x3d553407	0.05205157
58	0xbd40b87e	-0.047050945
59	0xbdc6f7ab	-0.09715208
60	0xbe955e4e	-0.2917351
61	0x3e5bd1c5	0.2146674
62	0x3d788e67	0.06068268
63	0xbeb7487d	-0.35797492
64	0x3e58ad35	0.21159823
65	0x3ea8646d	0.3288912
66	0xbcc94bed	-0.024572337
67	0xbd2bcbdd	-0.041942466
68	0xbe7096b4	-0.23494989
69	0x3d377652	0.044790573
70	0x3e964f98	0.293576
71	0x3e55a165	0.20862348
72	0xbdd258a1	-0.10270811
73	0x3ef3ee33	0.4764267
74	0x3aa6fa37	0.0012739365
75	0xbdb97f28	-0.09057456
76	0xbdab7036	-0.08371012
77	0x3e40f231	0.18842389
78	0x3c9410d1	0.018074425
79	0xbeba03b0	-0.36330938
80	0xbe9965d8	-0.29960513
81	0xbede0602	-0.4336396
82	0xbd1765e6	-0.036962412
83	0x3ebf26b7	0.37334225
84	0x3e64a172	0.22327211
85	0x3d408a90	0.047007143
86	0x3e8f0848	0.27936006
87	0xbe4f2bf0	-0.20231605
88	0xbd850aec	-0.06496224
89	0x3eae90ad	0.34094754
90	0x3dee58b6	0.11638014
91	0x3e430839	0.19046105
92	0x3d27f120	0.04100144
93	0x3d46d39d	0.048541654
94	0x3ed9568c	0.42448843
95	0x3e840321	0.25783637
96	0x3ec7d123	0.39026746
97	0x3bdd5d9f	0.0067555453
98	0x3e9d0ed4	0.30675375
99	0xbe8bbb12	-0.2729116
100	0x3ecdc4cf	0.40189216
101	0x3d7d6fa7	0.061874058
102	0xbe67d50d	-0.22639866
103	0xbe850c4c	-0.25985944
104	0xbde4d200	-0.11172867
105	0x3ee36234	0.4441086
106	0xbdb47412	-0.08811201
107	0xbebcb4c6	-0.3685667
108	0x3e4f7e1c	0.2026295
109	0x3e4af44a	0.19819751
110	0x3eaac595	0.33353868
111	0x3f011871	0.5042792
112	0xbe3decc2	-0.18547347
113	0x3ef879ab	0.48530325
114	0x3e473797	0.194548
115	0x3e748a5d	0.23880906
116	0x3e8d9031	0.27649072
117	0xbeb79f70	-0.3586383
118	0x3d88f28f	0.066868894
119	0xbeb25607	-0.3483126
120	0x3edb23e9	0.42800835
121	0x3de7b66b	0.1131409
122	0x3e98bb24	0.29830277
123	0xbe0dacdb	-0.1383547
124	0xbe83d147	-0.25745603
125	0x3e684c89	0.22685446
126	0xbdb075c2	-0.086162105
127	0xbe90a0c6	-0.2824766
128	0xbd9ce221	-0.07660318
129	0x3e90e557	0.28299972
130	0xbe79c82d	-0.24392767
131	0xbeaaddeb	-0.33372435
132	0xbe77f113	-0.24213056
133	0x3ea273d2	0.3172899
134	0x3e4f201a	0.2022709
135	0x3eb7d594	0.35905135
136	0xbe8c9a46	-0.2746145
137	0x3e8b853d	0.2725009
138	0xbed39562	-0.41324908
139	0x3e3c3895	0.1838096
140	0xbe4157cf	-0.18881153
141	0x3e61da8d	0.22056027
142	0x3dc7cc6c	0.09755787
143	0xbdfbea1b	-0.123005114
144	0xbd70ce67	-0.05879059
145	0xbe932841	-0.2874165
146	0x3c23cbb1	0.009997294
147	0xbaf4677a	-0.0018646561
148	0x3e7e5c5c	0.2483992
149	0x3d930d29	0.071802445
150	0xbe4d62b1	-0.20057179
151	0x3e31a022	0.17346242
152	0xbe9f667e	-0.31132883
153	0xbe6ab664	-0.22921139
154	0xbe5fcbe9	-0.2185513
155	0xbdb41be2	-0.08794381
156	0x3eb21919	0.34784773
157	0x3e98810b	0.29785952
158	0x3b4a898e	0.0030904743
159	0x3ee6a965	0.45051113
160	0xbe7b74ca	-0.2455627
161	0xbeebad72	-0.46030766

Q1.conv.net.3.bias f4 [6]
0	0xb9e056a7	-0.0004278917
1	0x3c3d4cd0	0.011553958
2	0xbc2f6c45	-0.010706966
3	0x3c585cdb	0.013205732
4	0x3c5ef871	0.013609038
5	0xbcea2461	-0.0285818

Q1.conv.net.6.weight f4 [6, 6, 3, 3]
0	0x3e79d217	0.24396549
1	0x3e5cdbac	0.21568173
2	0xbe25fc3e	-0.16209504
3	0xbe547dc2	-0.20751098
4	0xbe31dbe8	-0.17369044
5	0xbe6adf80	-0.22936821
6	0x3deca6bc	0.115552396
7	0xbe0ed8b0	-0.13949847
8	0x3ea4d538	0.32193923
9	0x3e38f52c	0.18062276
10	0xbd5403c8	-0.05176142
11	0xbe6106ff	-0.21975325
12	0x3e46b51a	0.19405022
13	0xbe7aabc8	-0.24479592
14	0x3e84cf78	0.25939536
15	0xbe75032b	-0.2392699
16	0x3e8cb63a	0.27482778
17	0xbe358adb	-0.1772875
18	0xbd818b07	-0.063253455
19	0x3e8ef714	0.2792288
20	0xbe7c7e00	-0.2465744
21	0xbe639534	-0.22224885
22	0xbdc3bf81	-0.09558011
23	0xbd967520	-0.073465586
24	0xbe5d2fc8	-0.21600258
25	0x3cce2b7c	0.02516722
26	0x3e931eb3	0.2873436
27	0xbe8c73d2	-0.27432114
28	0x3e274112	0.16333416
29	0x3d839111	0.064241536
30	0xbe345cb6	-0.17613491
31	0xbe12b466	-0.14326629
32	0x3e0631d3	0.13104944
33	0x3dde6e82	0.108609214
34	0x3cb2644e	0.021776345
35	0xbe7637e6	-0.24044761
36	0x3e0bcb0f	0.1365168
37	0xbe83d0c6	-0.2574522
38	0xbe7300f5	-0.23730834
39	0xbdfeefd6	-0.12448089
40	0xbe9835e4	-0.29728615
41	0x3e8e5d69	0.2780564
42	0x3ea8cc5d	0.32968417
43	0xbe945e4c	-0.28978193
44	0x3e0570a4	0.1303125
45	0xbe66dad1	-0.2254441
46	0xbe4e02b8	-0.20118225
47	0x3d849ef0	0.064756274
48	0x3dee3f5e	0.1163318
49	0x3e069e1d	0.13146253
50	0x3d4db84d	0.05022459
51	0x3e9afa39	0.3026903
52	0xbc61e9d9	-0.013788664
53	0x3e00dc43	0.12584023
54	0xbe7bcaee	-0.2458913
55	0x3e63885f	0.2221999
56	0x3eaf904f	0.34289786
57	0xbe9d1fe9	-0.30688408
58	0x3e306362	0.17225412
59	0x3e849991	0.25898412
60	0xbe63424f	-0.22193263
61	0xbe842823	-0.25811872
62	0xbe1f66e3	-0.15566592
63	0x3e2ff0dd	0.17181726
64	0x3ea55170	0.32288694
65	0xbd27b316	-0.040942274
66	0x3ea2c90c	0.31794012
67	0x3e73cc95	0.2380851
68	0x3c3a1d81	0.011359573
69	0x3e924306	0.2856676
70	0x3dee53e1	0.116370924
71	0x3e9cd734	0.30632937
72	0x3bc33897	0.005957674
73	0x3d804895	0.06263844
74	0xbe9406f7	-0.28911564
75	0xbe827977	-0.25483295
76	0xbe769ba7	-0.24082814
77	0x3e5bca02	0.21463779
78	0x3d569a76	0.0523934
79	0x3e3ac72f	0.18240045
80	0x3e240c71	0.16020371
81	0xbe0e1c46	-0.13877973
82	0x3ea91830	0.33026266
83	0x3dd64345	0.104620494
84	0x3e81fcd0	0.25388193
85	0xbe896d5d	-0.2684125
86	0xbe0bdff8	-0.13659656
87	0xbcd05cd4	-0.025434889
88	0x3e3ac9e3	0.18241076
89	0x3e066ad1	0.13126685
90	0x3e4abdff	0.1979904
91	0xbdc514f7	-0.09623139
92	0xbcdf510e	-0.02726033
93	0x3e8fa4d9	0.28055456
94	0xbe5d00ac	-0.21582288
95	0x3df5f0bc	0.12008807
96	0xbe3f40b5	-0.18677028
97	0xbe9234ed	-0.28556004
98	0x3e2fe3ee	0.17176792
99	0x3df37fac	0.11889586
100	0xbdc71fe1	-0.09722877
101	0x3e9ddfce	0.30834812
102	0xbe93bf58	-0.2885692
103	0xbe030c1d	-0.1279759
104	0xbe4f3f2e	-0.20238945
105	0x3d8182b3	0.06323757
106	0x3e1a64f9	0.1507758
107	0xbe99ab4d	-0.30013505
108	0xbe305bd1	-0.17222525
109	0xbd61bee1	-0.055113677
110	0x3e123472	0.14277819
111	0x3dfd9a45	0.1238294
112	0x3e74a2f5	0.23890288
113	0x3e6f2329	0.23353256
114	0x3d0430c6	0.032273076
115	0xbd453cd3	-0.04815371
116	0xbd93514c	-0.071932405
117	0xbd9bd5ac	-0.07609114
118	0x3e1644c9	0.14674677
119	0x3dba82af	0.09106957
120	0xbe0f29e2	-0.13980821
121	0xbd7e9b4d	-0.062159825
122	0x3ea05fc9	0.31323078
123	0x3e6ee48a	0.23329368
124	0x3e9b1ec2	0.30296904
125	0xbe50f8ee	-0.20407459
126	0x3e936acf	0.28792426
127	0xbe623ddf	-0.22093914
128	0xbd1eb92f	-0.038750824
129	0xbe9a6e21	-0.30162147
130	0xbe446c87	-0.19182025
131	0x3e163359	0.14668025
132	0xbe61378f	-0.2199385
133	0xbd952da7	-0.07284098
134	0x3e640d2c	0.2227065
135	0xbcb17fdd	-0.021667415
136	0xbe97e0c1	-0.2966366
137	0x3da660ee	0.081239566
138	0x3e7d64f2	0.24745539
139	0xbe7ce6f2	-0.24697474
140	0x3e9328c3	0.28742036
141	0x3e7a1e9e	0.24425742
142	0x3e7abe2d	0.24486609
143	0x3dac601a	0.084167674
144	0x3df57264	0.11984709
145	0x3e6b4527	0.22975598
146	0x3c9cc39d	0.019136244
147	0x3da2e440	0.079536915
148	0xbe054276	-0.13013634
149	0x3e96cb0d	0.2945179
150	0xbe862707	-0.2620165
151	0xbd561bfc	-0.05227278
152	0x3e9eac6f	0.3099093
153	0xbe0bbe26	-0.13646755
154	0x3e8ca8b7	0.2747247
155	0x3e779692	0.24178532
156	0xbe50705b	-0.2035536
157	0xbe0dfa0f	-0.13864921
158	0x3db70695	0.08936802
159	0x3de17cb1	0.11010111
160	0xbe69d59a	-0.22835389
161	0x3ca44f72	0.020057414
162	0x3e0c878b	0.1372358
163	0xbe4c50c5	-0.19952686
164	0x3db58fb8	0.08865303
165	0xbdf296a6	-0.1184514
166	0xbc8cd8eb	-0.017193278
167	0x3ea2c2d0	0.31789255
168	0xbe98d9c9	-0.29853657
169	0xbd887e04	-0.066646606
170	0xbe39c778	-0.18142498
171	0x3e37a074	0.17932302
172	0x3e641394	0.22273093
173	0x3e636570	0.22206664
174	0x3e86bb47	0.26314756
175	0x3e90bbae	0.28268188
176	0xbe4a5147	-0.19757567
177	0xbe60968e	-0.21932432
178	0xbea1ba40	-0.3158741
179	0x3df2110f	0.1181966
180	0xbe94013e	-0.28907198
181	0x3d7b38e6	0.06133356
182	0x3ead63cf	0.3386521
183	0xbe5f1957	-0.2178701
184	0x3e968442	0.2939778
185	0x3e73467b	0.23757355
186	0xbe4cc980	-0.19998741
187	0xbc5fe3bf	-0.013665139
188	0x3db92b26	0.09041433
189	0xbe354bc4	-0.17704684
190	0x3ea315bc	0.3185252
191	0x3eb0a394	0.344998
192	0x3e389a6d	0.18027659
193	0x3ddca39e	0.10773395
194	0xbd7eafbf	-0.062179323
195	0x3e0689f4	0.13138562
196	0xbe74965d	-0.23885484
197	0x3cb7e716	0.022449058
198	0x3e94d80e	0.29071087
199	0xbe350624	-0.17678124
200	0x3d079631	0.033102218
201	0x3d7fa70f	0.06241518
202	0xbe8da7f9	-0.27667215
203	0x3e1c523f	0.1526575
204	0x3eaa2234	0.3322922
205	0x3e1b1280	0.15143776
206	0x3e84735f	0.2586927
207	0x3d44b79c	0.048026666
208	0xbd9e9c24	-0.07744625
209	0x3c2e026d	0.010620696
210	0x3ea78cf8	0.32724738
211	0x3e18fbf2	0.1493986
212	0x3ce4b99c	0.027920537
213	0xbe675115	-0.22589524
214	0x3e9ca894	0.30597365
215	0x3ca00aa5	0.019536326
216	0x3dfcb88a	0.123398855
217	0xbdad0fea	-0.08450301
218	0xbe17851b	-0.1479687
219	0xbe5f06b3	-0.217799
220	0x3dc34394	0.09534374
221	0xbe87a4c0	-0.26492882
222	0xbce44d7d	-0.02786898
223	0xbc648e38	-0.013949923
224	0xbe680d32	-0.22661284
225	0x3db562f2	0.08856763
226	0x3e90b2f6	0.28261536
227	0xbe0857e4	-0.13314778
228	0xbde0949c	-0.10965845
229	0xbe71fc81	-0.23631479
230	0x3c806a40	0.015675664
231	0x3e87a705	0.26494613
232	0x3ea433a7	0.32070658
233	0x3e042c7d	0.12907596
234	0x3d4db75d	0.050223697
235	0xbe1d9e14	-0.15392333
236	0x3e0c5ca5	0.13707216
237	0xbda88a65	-0.08229522
238	0x3e2c2ff9	0.16815175
239	0xbd002bf7	-0.03129193
240	0x3e4980be	0.19678017
241	0xbe3738f2	-0.17892817
242	0xbe8c60e6	-0.27417678
243	0xbdb6645a	-0.08905859
244	0x3dff7e57	0.12475269
245	0xbe4a6856	-0.19766364
246	0x3e79f04f	0.24408077
247	0xbea1b013	-0.31579646
248	0xbe7c2470	-0.24623275
249	0xbe7362fe	-0.23768231
250	0x3d87526b	0.06607517
251	0xbdc7b490	-0.097512364
252	0x3e035534	0.12825471
253	0x3eb395ba	0.3507517
254	0xbe6edee5	-0.23327215
255	0x3eb16362	0.34646136

Q1.conv.net.6.bias f4 [6]
0	0x3caaeecf	0.020865826
1	0x3c39988b	0.011327873
2	0x3c862992	0.016377244
3	0x3c605971	0.0136931995
4	0x3c9b71fb	0.018975249
5	0x3c2b264a	0.010446141

Q1.a_head.0.weight f4 [128, 294]
0	0xbca27cbd	-0.01983487
1	0xbd0dbf62	-0.034606345
2	0x3c935537	0.01798497
3	0x3b24f623	0.0025171123
4	0x3c8c53bc	0.017129771
5	0x3d14078e	0.036140017
6	0xbd21dc16	-0.03951653
7	0x3caaf08f	0.02086666
8	0xbc917249	-0.01775469
9	0xbb9bb54e	-0.004751838
10	0xbcc691c8	-0.024239436
11	0x3c3f3e30	0.0116725415
12	0xbd242c67	-0.040081408
13	0x3d091c85	0.033474464
14	0x3d49f3b4	0.04930468
15	0xbccb18b6	-0.024792057
16	0x3b9210dc	0.004457576
17	0x3d5201e2	0.051271327
18	0xbd4eb025	-0.050460953
19	0xbc30b5ca	-0.010785529
20	0x3b218cd6	0.0024650595
21	0xbcceb724	-0.025233813
22	0xbba00b91	-0.0048841913
23	0x3d06f964	0.03295268
24	0xba8fcf99	-0.0010971903
25	0xbd36cf4a	-0.04463128
26	0x3cbb7912	0.02288488
27	0x3d0e1059	0.03468356
28	0x3c20f79f	0.0098246625
29	0x3d1c3793	0.038138937
30	0xbd33965a	-0.04384456
31	0x3b0b8b5c	0.0021292781
32	0xbd2b46c4	-0.041815534
33	0xbd598e55	-0.053114254
34	0xbc9ca1d4	-0.019120134
35	0xbc5113eb	-0.0127610965
36	0xbd4d5f57	-0.05013975
37	0xbd695b06	-0.056971572
38	0xbcf5d2d9	-0.030007767
39	0x3d255479	0.040363763
40	0xbd1085e0	-0.035283923
41	0xbd035c69	-0.03207055
42	0xbc58af95	-0.013225456
43	0xbccbdb93	-0.024884975
44	0xbcefa9a7	-0.029255701
45	0xbc00be9d	-0.007857946
46	0x3cd5690b	0.026051065
47	0x3cba6deb	0.022757491
48	0xbd2dce50	-0.042433083
49	0xbc1de839	-0.009637886
50	0xbd2a9090	-0.04164177
51	0xbca6fb51	-0.020383509
52	0x3d69336d	0.05693381
53	0xbd136efe	-0.035994522
54	0xbca40e35	-0.020026306
55	0xbc3fdac0	-0.011709869
56	0x3d342a6d	0.043985773
57	0xbd108041	-0.035278562
58	0xbd62cd0d	-0.055371333
59	0x3c9222e9	0.017838912
60	0xbcf31957	-0.029675169
61	0x3cc2a13f	0.023758529
62	0x3d140598	0.036138147
63	0xbc3cf523	-0.0115330545
64	0x3d015ce8	0.031582743
65	0xb9a9d5be	-0.00032393442
66	0x3d2988b4	0.041390136
67	0xbd29848a	-0.041386165
68	0xba846c79	-0.0010103128
69	0xbd3fb4c8	-0.046803266
70	0xbbcc652f	-0.006237648
71	0x3d4339c7	0.047662523
72	0x3cc36467	0.023851587
73	0x3cb73974	0.022366263
74	0x3d210ed0	0.039320767
75	0xbd0e40b6	-0.034729682
76	0x3c9a55f3	0.018839812
77	0x3d5bae84	0.053633228
78	0x3c9ac741	0.01889384
79	0x3b1f276a	0.0024284967
80	0xbd29d3f1	-0.04146189
81	0xbd2a4e9f	-0.041578885
82	0xbd21027f	-0.03930902
83	0x3ce2a705	0.027667532
84	0xbd296c8c	-0.041363284
85	0xbd4367a2	-0.047706254
86	0x3bdf8db4	0.0068223123
87	0xbca02018	-0.019546553
88	0x3d57a6ac	0.052649185
89	0xbd3c84fa	-0.046025254
90	0xbd0e503d	-0.03474449
91	0xbd673fb9	-0.056457255
92	0xbd6395cd	-0.055562783
93	0xbd622dab	-0.055219334
94	0x3d30e79c	0.04318963
95	0x3d0c2372	0.03421349
96	0xbd04054a	-0.032231607
97	0xbbcc495d	-0.0062343315
98	0xbcc5bfc8	-0.0241393
99	0x3d574a17	0.052560892
100	0xbd69e02e	-0.05709856
101	0xbc8304e1	-0.015993537
102	0x3c46b9fa	0.012129301
103	0x3cf293fa	0.029611576
104	0xbcc7b5a2	-0.024378601
105	0xbd57e827	-0.052711632
106	0x3d18c343	0.03729559
107	0x3d0252aa	0.031817116
108	0xbca9116c	-0.02063819
109	0xbd288fdc	-0.04115282
110	0xbcb182bb	-0.021668782
111	0x3c8f38e2	0.017483179
112	0xbb010830	-0.0019688718
113	0x3cba769f	0.022761641
114	0x3ca5b9b0	0.020230144
115	0x3c2fa1d8	0.010719739
116	0xbc1a5a78	-0.0094209835
117	0xb9f64f00	-0.00046979636
118	0xbd4c5b79	-0.049891923
119	0xbccf6b1b	-0.025319627
120	0x3c381580	0.011235595
121	0x3c266a85	0.010157232
122	0xbd6e93df	-0.05824649
123	0x3cae5b21	0.021283688
124	0xbd5d802a	-0.054077305
125	0xbcb22e3d	-0.021750564
126	0x3c515818	0.012777351
127	0x3d11efb1	0.03562898
128	0xbd4c92d2	-0.049944706
129	0x3bda0480	0.0066533685
130	0x3d514e8a	0.05110029
131	0x3c5be8d4	0.01342221
132	0x3c91f61f	0.017817555
133	0xbd3b5ad5	-0.04574092
134	0x3d10c0b6	0.035340033
135	0xbc8183cc	-0.015809916
136	0x3c56aa28	0.013102092
137	0xbd1c4631	-0.038152877
138	0x3cb8a259	0.02253835
139	0xbd0233b6	-0.031787597
140	0xbba8a5a8	-0.005146701
141	0xbca6d8bb	-0.020367017
142	0x3d56b185	0.05241539
143	0xbd6ad31a	-0.05733023
144	0x3d4ab3b1	0.049487773
145	0xbd18e323	-0.03732599
146	0xbcd5779f	-0.026058016
147	0x3d1b550e	0.03792291
148	0xbd18ea60	-0.037332892
149	0x3d0eafa7	0.034835484
150	0xbd473554	-0.048634842
151	0xbd09b80c	-0.033622786
152	0xbabda8da	-0.0014469877
153	0xbd21701b	-0.039413553
154	0xbd2c2e90	-0.042036593
155	0xbbca9e39	-0.0061834124
156	0xbca9df96	-0.020736497
157	0x3c37891f	0.011202126
158	0x3d1d8995	0.038461287
159	0x3c630961	0.013857217
160	0x3c41f444	0.011838023
161	0xbc5f9674	-0.013646711
162	0x3c9d17ed	0.019176448
163	0xbcbb366d	-0.0228531
164	0x3d29ab9f	0.041423436
165	0x3d6ed07f	0.058304306
166	0xbccced95	-0.025015632
167	0xbd095855	-0.033531506
168	0x3d2ec0d3	0.04266436
169	0x3d233c5b	0.03985248
170	0xbc844252	-0.016144905
171	0xbd220dc5	-0.039563913
172	0xbcdeb35d	-0.027185136
173	0x3beaf8ff	0.007170796
174	0xbd1d07cd	-0.038337518
175	0x3d1be117	0.03805646
176	0x3cd3bf9a	0.025848199
177	0xbc294434	-0.010331202
178	0x3d330eef	0.043715414
179	0x3d17f302	0.037096985
180	0x3bb728b7	0.0055895704
181	0xbca7b337	-0.020471198
182	0xbcc4b4f2	-0.024012063
183	0x3cdc2835	0.026874641
184	0x3d53ce6e	0.05171054
185	0x3bff5d26	0.0077930866
186	0x3d341107	0.04396155
187	0x3b35f5f3	0.0027765005
188	0xbd3e02b8	-0.04638931
189	0xbd28825f	-0.041139957
190	0x3b52df5f	0.0032176597
191	0xbb3a573b	-0.002843334
192	0xbc70cae6	-0.014696812
193	0x3d621a6e	0.055200987
194	0x3d4f3a32	0.05059261
195	0x3d37d6a1	0.04488242
196	0xbd57e811	-0.05271155
197	0xbd65c1ec	-0.05609314
198	0xbb552ce2	-0.0032527973
199	0xbcde5383	-0.02713943
200	0x3ca2b7a5	0.01986296
201	0xbc1c6967	-0.009546614
202	0xbcefd4bd	-0.029276246
203	0xbb67b83a	-0.003535761
204	0xbd65eabf	-0.056132074
205	0x3d1563a5	0.03647198
206	0xbc655311	-0.013996855
207	0x3d1fce20	0.039014935
208	0x3c725526	0.014790809
209	0xbca5ab1c	-0.020223193
210	0x3d5bd171	0.053666536
211	0x3d15d08b	0.036575835
212	0xbc004362	-0.007828565
213	0x3d4a2a06	0.049356483
214	0xbbb8273b	-0.005619911
215	0x3cfa49f9	0.030552851
216	0xbd170e86	-0.036879085
217	0x3ca80662	0.020510856
218	0x3d33077a	0.043708302
219	0x3d5f503e	0.054519884
220	0xbc97b9fb	-0.0185213
221	0xbd0386d7	-0.032111015
222	0x3b04fedc	0.002029351
223	0x3d6ddaf8	0.058070153
224	0x3cfc4ded	0.030798877
225	0x3ce8e7ce	0.028430846
226	0x3cb1cd87	0.021704448
227	0x3d285257	0.04109415
228	0x3d5588a3	0.05213226
229	0x3d442280	0.047884464
230	0xbd696a66	-0.056986235
231	0xbc99969d	-0.018748576
232	0xbcaa512e	-0.020790663
233	0xbc4ee8b3	-0.012628722
234	0xbd1d344d	-0.038379956
235	0xbd11844b	-0.035526555
236	0xbcd47830	-0.025936216
237	0xbca34ae0	-0.019933164
238	0x3d0ee43c	0.03488563
239	0xbd0da5a8	-0.03458181
240	0x3d40264a	0.046911515
241	0xbcc25ff9	-0.023727404
242	0xbd4b4b25	-0.04963221
243	0x3cbe6696	0.023242276
244	0x3d51aceb	0.051190298
245	0xbcdfe6d9	-0.027331756
246	0xbc87cf36	-0.016578298
247	0x3d5a5b23	0.05330957
248	0xbd34d6bb	-0.044150095
249	0xbbbbb4ed	-0.005728355
250	0xbd04b3df	-0.0323981
251	0x3d1b9e0d	0.037992526
252	0x3b64498f	0.0034833883
253	0x3bd8aa03	0.006612064
254	0xba0cfc6a	-0.0005378189
255	0x3d089f98	0.033355325

Q1.a_head.0.bias f4 [128]
0	0xbca9cfa2	-0.02072889
1	0xbd5dbd31	-0.054135505
2	0xbd028b2d	-0.03187101
3	0xbb34d433	-0.00275923
4	0xbbd2ec57	-0.0064368653
5	0x3cfb741d	0.030695016
6	0x3ce8a57f	0.028399227
7	0xbce92dc9	-0.028464215
8	0xbd44bbcf	-0.04803067
9	0xbcea4f19	-0.02860217
10	0x3d1822b7	0.03714248
11	0x3cf9e252	0.030503426
12	0xbd35b0b3	-0.044357967
13	0xbcb487f0	-0.022037476
14	0x3d159330	0.036517322
15	0x3d2053bb	0.03914235
16	0x3cc4a09f	0.024002371
17	0x3cf4f01b	0.029899647
18	0xbbb6c802	-0.005578042
19	0x3bba271d	0.005680932
20	0xbd00e516	-0.031468473
21	0x3ca0c84b	0.019626757
22	0xbd40054b	-0.046880048
23	0xbb9220d7	-0.004459481
24	0xbb71250c	-0.0036795763
25	0xbd1ee17b	-0.038789254
26	0xbd2a2365	-0.04153766
27	0x3d6098dc	0.054833278
28	0xbad4b2fe	-0.001622766
29	0xbccd5931	-0.025066944
30	0x3d19915f	0.037492152
31	0xbc9b7590	-0.018976957
32	0x3ac5b587	0.0015084007
33	0xbcee14bb	-0.02906262
34	0xbd020f7c	-0.03175305
35	0x3d18eb61	0.03733385
36	0x3c941efe	0.018081184
37	0x3d68e928	0.05686298
38	0xbd06aae4	-0.032877818
39	0x3ca8b441	0.020593764
40	0x3d3de42f	0.04636019
41	0xbcb06ec1	-0.021537187
42	0xbd6bbb40	-0.057551622
43	0xbc899af9	-0.01679753
44	0xbc738b46	-0.014864748
45	0xbd0e3bee	-0.034725122
46	0x3c5bd2bd	0.013416943
47	0xbcdaad81	-0.026694061
48	0xbd17b115	-0.037034113
49	0x3d1e165b	0.03859554
50	0x3c937fa1	0.018005194
51	0xbd61519d	-0.055009473
52	0x3d556f0a	0.05210785
53	0x3d5a9293	0.05336244
54	0xbd273eb6	-0.04083129
55	0x3cf37689	0.029719608
56	0xbc462525	-0.012093817
57	0x3c7c44db	0.015397276
58	0xbcaf24b3	-0.021379804
59	0xbca44f44	-0.020057328
60	0xbd03c89b	-0.032173734
61	0xb9ab4bcb	-0.00032672132
62	0xbc8287a1	-0.015933814
63	0xbbf06083	-0.007335724
64	0xbd562c2b	-0.052288216
65	0xbccd5207	-0.025063528
66	0x3d1a1178	0.037614316
67	0xbd58656c	-0.0528311
68	0x3d553c60	0.05205953
69	0xbcf83127	-0.030296875
70	0xbc822242	-0.015885476
71	0x3c30e9ee	0.010797961
72	0xbd052b4e	-0.032512
73	0xbb3cc752	-0.0028805328
74	0x3b720921	0.003693171
75	0xbd67fe67	-0.0566391
76	0xbd243d5d	-0.040097583
77	0x3bf4ec59	0.007474464
78	0x3d2d400e	0.042297415
79	0x3d419769	0.047263537
80	0x3c3bacf9	0.011454814
81	0x3d395d8f	0.04525524
82	0xbd02d62c	-0.03194253
83	0xbd0b759d	-0.03404771
84	0xbd3ad6c6	-0.04561498
85	0xbd4964b0	-0.04916829
86	0xbbb9a0dc	-0.005664928
87	0xbc78eb37	-0.015192798
88	0x3d0f1c69	0.034939203
89	0x3c7f3816	0.015577337
90	0xbc0341de	-0.008011309
91	0xbd173b7f	-0.036921974
92	0x3c77e118	0.01512935
93	0x3c291f28	0.01032237
94	0xbd39352c	-0.045216724
95	0x3c3326ee	0.0109345745
96	0x3d67cd4d	0.056592274
97	0x3c13b204	0.00901461
98	0xbccd6551	-0.025072725
99	0xbd1ab5ff	-0.03777122
100	0xbd07f9eb	-0.033197325
101	0xbd069f87	-0.03286698
102	0xbd5bfefc	-0.05370997
103	0x3d54134f	0.051776227
104	0xbd3d4322	-0.0462066
105	0x3d070566	0.032964133
106	0x3b44a229	0.0030003882
107	0x3ce41737	0.027843101
108	0xbcf35035	-0.029701332
109	0xbc8960ea	-0.016769845
110	0x3c7fb3ba	0.015606815
111	0xbba953fb	-0.005167482
112	0xbd16e7e7	-0.036842253
113	0x3d1e4df8	0.038648576
114	0xbc3dfe27	-0.011596239
115	0x3c935361	0.017984094
116	0xbcb15075	-0.02164481
117	0xbd016a73	-0.03159566
118	0x3cfb30d3	0.03066293
119	0x3d4056df	0.046957847
120	0x3d2e842c	0.042606518
121	0xbd18d6d7	-0.037314262
122	0x3d520774	0.05127664
123	0x3cc95374	0.024575926
124	0xbba27a52	-0.0049584294
125	0xbd283486	-0.041065715
126	0x3cf2c762	0.029636089
127	0x3cfeec14	0.03111843

Q1.a_head.2.weight f4 [6, 128]
0	0xbd51b7b6	-0.05120059
1	0x3d1cbde1	0.03826702
2	0x3dac6d3a	0.08419271
3	0xbd8efbac	-0.06981596
4	0x3d07f8ca	0.033196248
5	0xbd6617d1	-0.056175057
6	0x3d01ec0c	0.031719252
7	0xbd9cda68	-0.07658845
8	0xbd4c29f7	-0.04984471
9	0x3d81872b	0.06324609
10	0x3d757516	0.059926115
11	0xbd954949	-0.07289369
12	0x3bf9eb3c	0.007626919
13	0x3d385adc	0.045008525
14	0x3da5fcdf	0.08104872
15	0x3cb40cff	0.021978853
16	0xbd841886	-0.0644999
17	0x3ca609c7	0.020268334
18	0xbc25563d	-0.010091362
19	0x3d9c95e6	0.07645778
20	0x3d70297c	0.058633313
21	0x39b27b37	0.00034042608
22	0xbd6d2a6b	-0.05790178
23	0x3d9ee216	0.07757966
24	0x3d9a12a3	0.07523086
25	0x3bc8e577	0.00613087
26	0xbd9f2f58	-0.07772702
27	0xbd254dcf	-0.040357407
28	0x3d2dd6e7	0.042441275
29	0xbda3c7cc	-0.079970926
30	0xbd95ca6f	-0.07314002
31	0xbcd01e3f	-0.025405047
32	0x3d97adf9	0.074062295
33	0xbbe00a23	-0.006837146
34	0xbc66e977	-0.014093748
35	0xbce6003f	-0.02807629
36	0x3d0a4ac8	0.033762723
37	0x3ca55c59	0.020185636
38	0x3d8bfc2e	0.06835209
39	0xbc6b3a7e	-0.014357207
40	0x3d1bcf5f	0.03803956
41	0xbd1c27de	-0.038123958
42	0x3c861d15	0.01637129
43	0xbd746126	-0.05966296
44	0x3a6b0702	0.0008965583
45	0x3d6638ee	0.056206636
46	0xbc082912	-0.008310573
47	0x3d7216fe	0.05910396
48	0xbd8bf4f2	-0.06833829
49	0xbc5eeefc	-0.013606783
50	0xbd4e6dd0	-0.050397694
51	0x3d8c0608	0.06837088
52	0xbd4adae5	-0.04952516
53	0xbd912df6	-0.070888445
54	0xbcba51ca	-0.022744078
55	0x3d3f9e2a	0.046781696
56	0x3d5c72b9	0.053820346
57	0xbd53fdfb	-0.051755887
58	0xbd70f3da	-0.058826305
59	0x3d0f331e	0.03496086
60	0x3d99030c	0.07471284
61	0x3d0886da	0.03333173
62	0xbda32ea2	-0.07967879
63	0x3d4c5d3d	0.049893606
64	0x3d258751	0.04041225
65	0x3ab03d4d	0.0013446003
66	0xbb81d570	-0.0039622113
67	0x3d5dfc56	0.054195724
68	0x3d56f9b7	0.05248424
69	0xbd6b8d60	-0.057507873
70	0x3d1443d6	0.036197506
71	0xbd631f6c	-0.055449888
72	0xbd2aa82c	-0.041664287
73	0x3ca83a46	0.0205356
74	0xbb59f4d7	-0.0033257508
75	0x3d37ec53	0.04490311
76	0xbccbe314	-0.024888553
77	0x3c961555	0.018320719
78	0xbd9b2972	-0.075762644
79	0xbb1ad664	-0.0023626322
80	0xbcc32763	-0.023822492
81	0x3da9af2f	0.08285367
82	0x3c846f5d	0.016166383
83	0xbd40d827	-0.04708114
84	0xbd1b02da	-0.037844516
85	0x3d8dc928	0.06923133
86	0x3d837e21	0.064205416
87	0xbcced103	-0.025246149
88	0xbc95c2f2	-0.018281434
89	0x3d510808	0.05103305
90	0x3cb97808	0.022640243
91	0xbcfdc8af	-0.030979482
92	0xbd13a6ab	-0.03604762
93	0x3d255c6e	0.04037135
94	0x3da4d14c	0.08047733
95	0x3d188f3b	0.03724597
96	0xbd96aada	-0.07356806
97	0xbd21ba6a	-0.03948442
98	0x3cfe9c6b	0.031080445
99	0xb94cedaa	-0.00019543493
100	0xbce8518f	-0.028359203
101	0x3cfc2b17	0.030782266
102	0xbcc82f0e	-0.0244365
103	0xbb6a9f90	-0.0035800673
104	0xbd9cba1b	-0.07652684
105	0x3960c859	0.0002143694
106	0x3c33c998	0.010973357
107	0xbc4f39ab	-0.012648026
108	0xbdb31805	-0.08744816
109	0x3cc1e05b	0.023666551
110	0xbd9827e3	-0.07429483
111	0xbda55c88	-0.080742896
112	0xbc878a2c	-0.016545378
113	0x3d8467e9	0.06465132
114	0x3c26d758	0.010183178
115	0xbd10e96b	-0.035378855
116	0x3d2cbf16	0.04217442
117	0xbccccaff	-0.02499914
118	0xbb0809e4	-0.0020757848
119	0xbcaf2b19	-0.021382855
120	0xbcfb6b23	-0.030690735
121	0xbda0beeb	-0.07848915
122	0x3d54eab8	0.051981658
123	0x3da6f9e7	0.08153134
124	0x3d9c4292	0.07629885
125	0x3cadab4f	0.02119985
126	0xbd76d2fc	-0.060259804
127	0x3cde6e1d	0.027152115
128	0x3d9957db	0.0748746
129	0x3d8ca81f	0.06868004
130	0xbd552272	-0.052034803
131	0x3d8b7a5b	0.06810447
132	0xbda4b2a4	-0.080418855
133	0xbd2a8d82	-0.04163886
134	0xbcda0dd2	-0.026617918
135	0x3d41327b	0.047167283
136	0xba151c03	-0.0005688073
137	0x3d59062a	0.052984394
138	0x3d01cb63	0.031688105
139	0xbc8b9a91	-0.017041476
140	0xbcdf5f5f	-0.027267156
141	0x3da64b24	0.08119801
142	0x3d11ea24	0.035623685
143	0x3d28e24f	0.04123145
144	0xbd3d8d02	-0.046277054
145	0x3d2d711f	0.04234421
146	0xbc645fdb	-0.013938869
147	0x3d2baf19	0.041915033
148	0x3d89061a	0.06690617
149	0xbd51e2ed	-0.051241804
150	0x3cb102a6	0.021607708
151	0x3d1f57e2	0.03890217
152	0x3c958850	0.018253475
153	0xbd9560c8	-0.0729385
154	0x3d806cc4	0.062707454
155	0xbd92391f	-0.07139801
156	0xbda8a878	-0.08235258
157	0xbd09592b	-0.033532303
158	0x3d829076	0.0637521
159	0x3db4a27b	0.08820053
160	0xbc98bd56	-0.01864497
161	0x3c887ddc	0.016661577
162	0x3d15ee6e	0.036604337
163	0xbc960106	-0.018311035
164	0xbd5d3c53	-0.054012608
165	0x3d716f99	0.05894432
166	0xbd6fc55b	-0.058537822
167	0xbcd6dba6	-0.026227783
168	0xbd823eef	-0.0635966
169	0x3c456991	0.012049095
170	0x3d43960d	0.04775052
171	0x3cc47e40	0.023985982
172	0xbcb0f92c	-0.02160319
173	0xbc01800a	-0.007904062
174	0xbd0e0106	-0.034668945
175	0xbd5e5d2d	-0.054288078
176	0x3d029e87	0.031889465
177	0x3d25a2ee	0.040438585
178	0xbd22251a	-0.039586164
179	0x3d702462	0.058628447
180	0xbd72bb57	-0.059260692
181	0xbda15430	-0.078773856
182	0x3d2ff35c	0.042956695
183	0xbd837e1f	-0.0642054
184	0x3d397a96	0.045282923
185	0xbd61022d	-0.054933716
186	0x3d8d2c9a	0.06893273
187	0xbd0ce357	-0.034396496
188	0x3cc8b80d	0.024501825
189	0x3d11c394	0.03558691
190	0xbbdca82e	-0.006733916
191	0x3d161c5b	0.036648136
192	0xbce80b0c	-0.02832558
193	0xbd3e7336	-0.046496592
194	0xb92b0519	-0.0001630973
195	0xbdabc8a6	-0.0838788
196	0x3d990b84	0.074728996
197	0x3c8f0272	0.01745722
198	0x3ceaafd0	0.028648287
199	0x3cf68065	0.03009052
200	0x3ca62512	0.020281348
201	0x3d8fdce2	0.07024552
202	0x3c11d8a9	0.008901753
203	0x3d65f946	0.05614593
204	0xbd61d701	-0.055136684
205	0x3baf88a3	0.0053568645
206	0xbda5fc96	-0.081048176
207	0xbb7e2906	-0.0038781776
208	0xbd35cdd0	-0.04438573
209	0xbd3daddf	-0.046308395
210	0x3c03f56e	0.0080541205
211	0xbd8af065	-0.06784133
212	0x3c21b409	0.009869584
213	0xbd908d17	-0.07058161
214	0x3cdf0527	0.027224137
215	0xbcadbc79	-0.021208035
216	0xbc227e18	-0.009917758
217	0xbd517748	-0.051139146
218	0xbca5a0e8	-0.020218328
219	0x3c568679	0.013093584
220	0x3da3d08c	0.079987615
221	0xbcfdf45f	-0.031000314
222	0xbd9b62e8	-0.07587224
223	0xbccbc034	-0.024871923
224	0x3d4a198b	0.049340766
225	0x3d7db089	0.061935935
226	0xbd017b19	-0.031611536
227	0x3d56cb43	0.05243994
228	0xbd8dbcb0	-0.06920755
229	0xbcb52804	-0.022113807
230	0xbd1b2438	-0.037876338
231	0x38c75c42	9.506244e-05
232	0x3d426c05	0.047466297
233	0xbb825f16	-0.0039786203
234	0x3cce5203	0.02518559
235	0xbd3aa3ef	-0.045566496
236	0xbd6c4e25	-0.057691712
237	0x3d9012de	0.07034849
238	0x3d4caeca	0.04997138
239	0x3ced88c6	0.028995883
240	0x3d920463	0.07129743
241	0x3da941e3	0.0826452
242	0x3d2a2471	0.04153866
243	0x3d20449c	0.03912793
244	0xbd725b67	-0.0591692
245	0x3d84ab18	0.06477946
246	0xbd3016eb	-0.042990606
247	0x3c86043f	0.016359447
248	0xbd576c38	-0.05259344
249	0x3cd95e98	0.026534364
250	0xbd883fcf	-0.066527955
251	0x3d9dbbc6	0.077018306
252	0xbd7a740b	-0.061145823
253	0xbd9f65b9	-0.07783074
254	0xbd1d12fc	-0.038348183
255	0xbb777d1f	-0.0037763787

Q1.a_head.2.bias f4 [6]
0	0x3da6fc83	0.081536315
1	0x3cdf8acb	0.027287861
2	0xbbd9ef08	-0.006650809
3	0xbd8028ff	-0.062578194
4	0x3cebbb6c	0.028775893
5	0xbd996cd5	-0.07491461

Q1.v_head.0.weight f4 [128, 294]
0	0xbbe1780f	-0.006880767
1	0xbcd624c5	-0.02614058
2	0x3d202d15	0.039105494
3	0xbd7cdf08	-0.061736137
4	0xbd5273b3	-0.05137987
5	0x3c97027b	0.0184338
6	0xbbf743a4	-0.007545905
7	0xbd6250fd	-0.055253018
8	0xbc9204bc	-0.017824523
9	0x3cf364c0	0.029711127
10	0x3cbea8eb	0.023273906
11	0xbc3d7a8a	-0.01156486
12	0xbaca64b5	-0.001544139
13	0xbd155bcc	-0.036464497
14	0x3d34f022	0.04417432
15	0xbc0f1fa6	-0.008735573
16	0x3d2c63a0	0.042087197
17	0xbceb387e	-0.028713461
18	0xbc8391e8	-0.016060784
19	0x3d1bcb74	0.038035825
20	0xbb885e95	-0.0041616657
21	0x3cdd32e2	0.027001802
22	0xbc907804	-0.017635353
23	0xbc928c7c	-0.017889254
24	0xbc56b561	-0.013104768
25	0xbd7f631b	-0.062350374
26	0xbc7b03f8	-0.01532077
27	0xbd25677f	-0.040381905
28	0x3c70f066	0.014705753
29	0x3caa2946	0.020771634
30	0x3d31e94f	0.04343539
31	0x3b5052fe	0.0031787748
32	0xbcab73c4	-0.020929225
33	0x3d3f72ec	0.046740457
34	0xbcdd2e77	-0.026999695
35	0xbc4b367f	-0.01240313
36	0xbcf23ee3	-0.029571002
37	0x3cb477a7	0.022029711
38	0xbd2e201d	-0.042511094
39	0x3b1173dc	0.0022194302
40	0xbc8c0207	-0.01709081
41	0x3d052ff1	0.032516424
42	0x3c96550f	0.018351106
43	0xbabf0d14	-0.0014576041
44	0xbc27fc4b	-0.010253022
45	0xbcd8baa6	-0.026456188
46	0x3aab8aeb	0.0013087665
47	0xbc3de024	-0.011589084
48	0x3d0b0297	0.033938017
49	0xbc169d11	-0.009192721
50	0xbd1bdab9	-0.038050387
51	0x3d503d5d	0.05083977
52	0x3b44b2c1	0.0030013772
53	0x3c7b15e5	0.015325044
54	0x3d1e8f42	0.03871084
55	0xbd46fce4	-0.04858102
56	0x3d375610	0.04475981
57	0xbc4c9b5a	-0.012488211
58	0xbd2ac44b	-0.041691106
59	0x3d113c5e	0.03545796
60	0xbc4f2f43	-0.012645545
61	0x3d2fdc2f	0.042934593
62	0x3beaa37d	0.0071606026
63	0x3d1c961a	0.038229086
64	0xbd07c85e	-0.03315007
65	0x3c075adb	0.008261408
66	0x3bca3f23	0.0061720773
67	0xbd6e8ce9	-0.05823985
68	0xbce1bc43	-0.02755559
69	0xbd1b95eb	-0.03798477
70	0x3d2e323f	0.042528387
71	0x3bb6e0dd	0.005581005
72	0xbd35a226	-0.04434409
73	0x3d605709	0.054770503
74	0xbd0c95a4	-0.034322396
75	0xbcd863ae	-0.026414718
76	0x3d173405	0.036914844
77	0xbd1ca7e5	-0.038246054
78	0xbd2c3a95	-0.042048056
79	0xbb3f0c11	-0.002915148
80	0xbcc9bd6a	-0.024626452
81	0xbcaf34bf	-0.021387456
82	0x3cf0b5dc	0.029383592
83	0xbd036e18	-0.032087415
84	0xbd523b42	-0.051326044
85	0x3c281e70	0.010261163
86	0x3ccc5621	0.024943413
87	0xbd7fe553	-0.06247456
88	0xbd3f407c	-0.046692356
89	0x3d4e0ff2	0.050308175
90	0x3d3ed416	0.04658898
91	0x3d1f1f28	0.038848072
92	0x3c37f07d	0.0112267705
93	0xbce4df06	-0.027938377
94	0x3d248f69	0.04017583
95	0xbd3e7d1a	-0.046506025
96	0xbcf5862f	-0.02997121
97	0x3d2caf8a	0.042159595
98	0xbc9d3f0f	-0.019195108
99	0xbcda8bbe	-0.026677962
100	0x3ca9e426	0.020738672
101	0xbd509ba6	-0.050929688
102	0xb9578e51	-0.00020557015
103	0xbcc498f8	-0.023998722
104	0x3be71d4b	0.0070530525
105	0x3d3fd403	0.04683305
106	0xbb7a7e6f	-0.0038222333
107	0x3c87e2e5	0.016587684
108	0xbc63e433	-0.013909387
109	0xbd022e9a	-0.031782724
110	0xbcfdd9db	-0.03098767
111	0xbd2e9a27	-0.04262748
112	0xbc600d0a	-0.013674984
113	0xbd7b2081	-0.061310295
114	0xbc45ec21	-0.012080223
115	0x3af33e78	0.0018558046
116	0xbc82613a	-0.015915502
117	0xbd2b6669	-0.041845713
118	0xbd53caba	-0.051707007
119	0x3d4c88b9	0.049935076
120	0xbd4c9c49	-0.049953733
121	0x3d51859f	0.05115282
122	0xbc008567	-0.007844306
123	0x3ca2589c	0.019817643
124	0xba8bd336	-0.0010667804
125	0xbc7d6f60	-0.015468448
126	0xbc97088f	-0.018436698
127	0xbd190669	-0.03735963
128	0xbc9e8366	-0.019349765
129	0x3d2c79a9	0.04210821
130	0xbd1a87fb	-0.037727337
131	0x3d007672	0.03136296
132	0x3d3617ee	0.044456415
133	0x3bbc5195	0.00574703
134	0xbc67c639	-0.014146381
135	0xbd0a4c64	-0.033764258
136	0x3cb480b5	0.022034029
137	0xbc9dfab8	-0.019284591
138	0x3c46ecb7	0.012141398
139	0x3d3be9a3	0.04587711
140	0xbc82bdbe	-0.015959617
141	0x3d0a81a8	0.033815056
142	0x3d549b1a	0.05190573
143	0xbbd113cb	-0.0063805333
144	0xbb9a8a23	-0.004716174
145	0x3c1a59b6	0.009420803
146	0xbba5bfca	-0.0050582634
147	0xbd279586	-0.04091408
148	0x3ca7e1ee	0.020493474
149	0x3d046128	0.032319218
150	0x3c44949e	0.011998324
151	0xbd1cb220	-0.03825581
152	0xbd066f5b	-0.03282104
153	0xbd43450b	-0.047673266
154	0xbc6f33c5	-0.014599745
155	0x3d5297a8	0.051414162
156	0x3cdf1e4a	0.027236123
157	0xbc9f5b99	-0.019452857
158	0x3d1f92de	0.038958423
159	0xbcbb519b	-0.022866061
160	0xbd5218ed	-0.051293302
161	0x3cd78f22	0.026313368
162	0x3c9cd10e	0.019142654
163	0x3d351a54	0.04421456
164	0x3d30a70d	0.043128062
165	0xbd3303ac	-0.043704674
166	0xbca03e2f	-0.019560901
167	0x3d33cda4	0.043897286
168	0xbd6adfda	-0.057342388
169	0x3c4f4168	0.012649871
170	0x3ca543fb	0.020174017
171	0x3d6d1a1c	0.057886228
172	0x3d20cd26	0.039258145
173	0x3c9a7fd3	0.01885978
174	0x3d3b6c3a	0.04575751
175	0xbb949a27	-0.004534978
176	0xbd4fce98	-0.050734133
177	0x3cb45d91	0.022017272
178	0x3d4f179d	0.05055963
179	0x3d1aa799	0.03775749
180	0xbd335e1b	-0.043790918
181	0xbd460682	-0.04834605
182	0x3d149591	0.03627545
183	0xbd1a3cae	-0.037655525
184	0x3c195b18	0.009360097
185	0xbcd6731b	-0.026177933
186	0x3d44a9e0	0.048013568
187	0xbd6ae8e3	-0.057351004
188	0x3c9ad88e	0.01890209
189	0xbcd86b01	-0.026418211
190	0xbd09a557	-0.033604946
191	0x3d211070	0.039322317
192	0xbd251cd7	-0.040310707
193	0xbc851f8c	-0.016250394
194	0x3d4b1bce	0.049587063
195	0x3aaea331	0.0013323781
196	0x3d2866f3	0.041113805
197	0x3c8e8433	0.017397022
198	0xbd4567e6	-0.04819479
199	0xbd7c938d	-0.061664153
200	0xbd1c4ef0	-0.03816122
201	0x3d4c63a8	0.049899727
202	0x3d05fef1	0.032713834
203	0x3c1a8850	0.0094319135
204	0x3ccc00fe	0.024902817
205	0xbccee120	-0.025253832
206	0x3d4d540c	0.05012898
207	0xbc27c423	-0.010239634
208	0x3d332ed9	0.04374585
209	0xbd41dbbe	-0.047328703
210	0xbd75434a	-0.059878625
211	0xbb712ad8	-0.0036799219
212	0xbcf2b8c3	-0.029629117
213	0xbd00bc30	-0.03142947
214	0xbcdbb397	-0.026819034
215	0xbd1cb97d	-0.038262833
216	0xbb198360	-0.0023424253
217	0xbd5e48d9	-0.05426869
218	0x3d1c04a9	0.03809038
219	0xbd21f3a4	-0.039538994
220	0xbd6c5c91	-0.057705466
221	0x3d2c48a2	0.042061456
222	0xbd4f0112	-0.05053813
223	0x3cba7872	0.02276251
224	0x3d26a4b3	0.040684413
225	0xbd1c5f00	-0.038176537
226	0xbafeadf4	-0.0019430504
227	0xbd156370	-0.036471784
228	0x3d523aa7	0.051325466
229	0x3d2919ec	0.041284487
230	0x3cae2244	0.021256573
231	0x3d09274d	0.033484746
232	0x3cbc2a8b	0.022969505
233	0x3d4edac9	0.05050162
234	0x3badaf32	0.005300426
235	0x3ce1aa7d	0.027547115
236	0x3d038f3d	0.032119025
237	0x3d1a4d01	0.037671093
238	0xbd46820c	-0.048463866
239	0x3cea442f	0.028596966
240	0x3d2aaf4c	0.041671082
241	0x3d092d99	0.03349075
242	0x3d04de24	0.032438412
243	0xbce1386d	-0.027492726
244	0x3cd9e33e	0.026597615
245	0xbcc88008	-0.024475113
246	0xbcfa1790	-0.030528814
247	0x3cee04f6	0.0290551
248	0x3c4473e3	0.01199052
249	0xbca7d8e1	-0.020489158
250	0xbc10e9a3	-0.008844766
251	0xbb40dfff	-0.0029430387
252	0x3d4ea77c	0.050452694
253	0x3be89e21	0.0070989286
254	0x3cdccc7f	0.02695298
255	0x3d32dcb4	0.04366751

Q1.v_head.0.bias f4 [128]
0	0x3c4b16f1	0.012395606
1	0x3ab47ca2	0.0013770054
2	0xbc8b7417	-0.01702313
3	0x3d117016	0.035507284
4	0x3d01c2cc	0.031679913
5	0x3d7a0368	0.061038405
6	0x3c86edf6	0.01647089
7	0x3d1a5f95	0.03768881
8	0xbce887dd	-0.028385097
9	0xbd28ab34	-0.041178897
10	0x3d5c258a	0.053746738
11	0x3c46bbda	0.012129748
12	0x3d052062	0.032501586
13	0xbcfff56c	-0.031244956
14	0x3c17a04e	0.009254528
15	0x3d0ce160	0.03439462
16	0xbcccde42	-0.025008325
17	0xbc0c040c	-0.008545887
18	0x3c9f67e3	0.019458717
19	0x3d278d27	0.040906098
20	0xbcd77d9e	-0.026305016
21	0x3d60d14f	0.054887112
22	0x3d1313a6	0.03590741
23	0xbd2daed0	-0.042403042
24	0x3d078c03	0.03309251
25	0x3ce8e1dd	0.028428013
26	0xbcea226b	-0.028580865
27	0xbd34076c	-0.04395239
28	0x3a4df255	0.00078562397
29	0xbcd4b897	-0.025966926
30	0x3a9dde7b	0.0012044454
31	0x3d1d6b86	0.03843262
32	0x3c7eee32	0.01555972
33	0x3cb5c8a9	0.022190409
34	0xbd164120	-0.0366832
35	0x3a0a4f06	0.00052760576
36	0x3d2860b8	0.041107863
37	0x3d07830a	0.033083953
38	0xbd1df13d	-0.03856014
39	0x3d4c740d	0.049915362
40	0xbd3ae006	-0.0456238
41	0xbd196bd5	-0.037456352
42	0xbcd73cbf	-0.026274083
43	0xbbaee68d	-0.0053375424
44	0xbc509ad8	-0.01273223
45	0x3d2c002e	0.04199236
46	0x3ccd99d6	0.025097769
47	0xbcff6a04	-0.031178482
48	0xbcae0c6f	-0.021246163
49	0x3cee3839	0.029079543
50	0x3c6bd380	0.014393687
51	0xbc3160c2	-0.0108262915
52	0xbd2265d0	-0.039647877
53	0x3caed34d	0.02134099
54	0xbcf68de9	-0.030096965
55	0xbd718ed0	-0.058974087
56	0xbd3cd463	-0.046100985
57	0xbbef9d1d	-0.0073124305
58	0x3d893b7f	0.06700801
59	0x3d160cc8	0.036633283
60	0xbc75f767	-0.015012599
61	0x3d2efc6b	0.042721193
62	0x3d6cee4d	0.05784445
63	0xbd3273e7	-0.043567564
64	0xbd31dcad	-0.043423343
65	0xbb3e82be	-0.0029069628
66	0x3d15330b	0.03642563
67	0x3d1d2dcc	0.038373753
68	0x3d296664	0.041357413
69	0xbb85190b	-0.0040618232
70	0xbba14466	-0.004921484
71	0x3be75e02	0.007060767
72	0xbd45577d	-0.04817914
73	0xbd539c41	-0.051662687
74	0x3cdbabfe	0.02681541
75	0xbd031de0	-0.032010913
76	0xbc9892a2	-0.018624607
77	0xbc09341b	-0.008374239
78	0x3d5c6c8a	0.05381445
79	0xbd356538	-0.044285983
80	0x3d0b7869	0.03405038
81	0x3c0c5970	0.008566245
82	0xbc6c0d0f	-0.01440741
83	0x3d194a30	0.037424266
84	0x3d38cf1a	0.045119382
85	0xbc8c84cd	-0.017153168
86	0x3d28d7c2	0.041221388
87	0x3d166841	0.036720518
88	0x3c1ccbf1	0.009570108
89	0xbc9bc634	-0.019015409
90	0xbd0c59c4	-0.034265295
91	0xbcb0829c	-0.021546654
92	0x3d310d51	0.04322559
93	0x3a82ff9d	0.0009994392
94	0xbbd90f7e	-0.0066241613
95	0xbd0a44bb	-0.033756953
96	0x3c5bf6a0	0.013425499
97	0x3d6b137b	0.057391625
98	0x3d0a912e	0.03382986
99	0xbb02dd39	-0.0019968285
100	0xbd7177ff	-0.058952328
101	0x3bcb1e5a	0.0061986865
102	0x3cb133b8	0.021631107
103	0x3d473d94	0.04864271
104	0x3d4250e8	0.04744044
105	0x3cb05f82	0.021529917
106	0xbd278e4d	-0.040907193
107	0x3d702f3c	0.058638796
108	0x3b8b0f23	0.004243748
109	0x3d398950	0.045296967
110	0xbc962ef5	-0.018332938
111	0x3d7cde95	0.06173571
112	0xbcd42892	-0.025898252
113	0xbd147d1b	-0.036252122
114	0xbd2f0d88	-0.042737514
115	0xbd218a32	-0.039438434
116	0x3d5907d1	0.05298597
117	0x3d3bbf1f	0.045836564
118	0x3c6ead44	0.014567677
119	0x3cb862bf	0.022508023
120	0x3cdc1103	0.02686358
121	0xbd35090c	-0.04419808
122	0xbd00c294	-0.031435564
123	0xbd5394bf	-0.051655527
124	0x3d4d7e0d	0.05016904
125	0xbbb4fca0	-0.0055232793
126	0x3bbe3264	0.005804347
127	0xbc940a76	-0.018071394

Q1.v_head.2.weight f4 [1, 128]
0	0xbc95c49a	-0.018282223
1	0xbd266842	-0.04062677
2	0xbd8ca74a	-0.06867845
3	0xbc745579	-0.014912956
4	0x3da586b9	0.08082337
5	0x3d31b89c	0.043388948
6	0x3d252d9a	0.040326692
7	0xbc9cae4e	-0.019126084
8	0x3c274f44	0.0102117695
9	0xbd7b0b52	-0.061290093
10	0x3db993db	0.09061404
11	0xbd894128	-0.06701881
12	0xbd02850c	-0.031865165
13	0xbcbe24a2	-0.023210827
14	0x3b772aeb	0.003771479
15	0xbd867885	-0.06565956
16	0x3d021630	0.03175944
17	0xbd035829	-0.032066498
18	0xbd49178d	-0.049094725
19	0x3d1b1044	0.03785731
20	0x3db09058	0.086212814
21	0x3dbc98b6	0.09208815
22	0x3d0024a2	0.031284936
23	0x3c9d071c	0.01916843
24	0xbd807454	-0.06272188
25	0xbd774da8	-0.060376793
26	0xbd306b98	-0.04307136
27	0xbc9abf8c	-0.018890165
28	0x3d6f34b9	0.05839989
29	0xbcdb86ae	-0.026797619
30	0x3d699520	0.057026982
31	0x3db09cd4	0.086236626
32	0xbd043996	-0.03228148
33	0xbd89aaa9	-0.06722004
34	0x3d80612c	0.06268534
35	0x3d998097	0.0749523
36	0xbd46f97a	-0.048577763
37	0xbc6c584c	-0.0144253485
38	0xbd95680f	-0.07295238
39	0x3cb267b1	0.02177796
40	0x3d9e5ea4	0.07732895
41	0xbc63f432	-0.013913201
42	0x3ce6b3f7	0.028161986
43	0xbc029bbe	-0.007971702
44	0xbd623fa0	-0.05523646
45	0x3dab96b4	0.08378354
46	0x3d94f0cb	0.0727249
47	0x3dbb0f5e	0.091337904
48	0x3d95534a	0.07291277
49	0x3d88e18f	0.06683647
50	0xbd98936a	-0.07449992
51	0xbbb38d63	-0.005479501
52	0xbd13a4a5	-0.03604569
53	0xbc3cff4b	-0.011535476
54	0xbd0099c4	-0.031396642
55	0xbd7ceca0	-0.0617491
56	0xbd8bde3f	-0.068294995
57	0xbd92f9c2	-0.07176544
58	0x3dad2784	0.08454803
59	0xbd16a23c	-0.036775813
60	0x3d9df6fc	0.07713124
61	0xbd570128	-0.052491337
62	0x3dbfdf43	0.09368756
63	0x3d30c6d5	0.04315837
64	0x3c7009b3	0.01465075
65	0xbd773063	-0.06034888
66	0xbd948971	-0.07252777
67	0xbd4a5b8f	-0.049403723
68	0xbd1781b9	-0.036988948
69	0xbc3e49de	-0.011614291
70	0xbd7679a8	-0.060174614
71	0x38d001b1	9.918528e-05
72	0xbd439674	-0.047750905
73	0xbd3fe49c	-0.04684888
74	0x3a6ea89c	0.0009104104
75	0x3da4d7d1	0.08048976
76	0xbd07e459	-0.033176754
77	0x3d0a0c44	0.033703104
78	0xbcbfc950	-0.023411423
79	0xbd94deb7	-0.07269042
80	0xbd7dd64d	-0.06197195
81	0xbcfc87ae	-0.030826416
82	0xbcf9ea52	-0.03050724
83	0xbcb46622	-0.022021357
84	0x3dd64b43	0.10463574
85	0x3d9b6d7a	0.0758924
86	0xbc1e213f	-0.009651481
87	0x3dbd6bae	0.09249054
88	0x3d9bc71a	0.07606335
89	0xbda0c947	-0.078508906
90	0x3dcaaa16	0.098957226
91	0xbd74c918	-0.05976209
92	0x3d20849b	0.039188962
93	0x3d76a133	0.060212325
94	0xbd5a2d3a	-0.053265788
95	0xbd8efadb	-0.06981441
96	0xbc91109f	-0.01770812
97	0x3be0ca62	0.0068600634
98	0x3d7beb03	0.06150342
99	0xbcc6f06c	-0.024284564
100	0xbd99c16e	-0.07507597
101	0x3cf506f5	0.029910544
102	0x3d37b6fc	0.044852242
103	0xbd6e45bd	-0.058171976
104	0xbcedb378	-0.029016241
105	0xbc23287e	-0.009958385
106	0xbcdf226b	-0.027238091
107	0x3db35cb9	0.0875792
108	0xbcf6d501	-0.030130865
109	0x3ccecb5d	0.025243456
110	0x3d57049e	0.052494638
111	0x3d562534	0.052281573
112	0x3cccd412	0.025003467
113	0x3dacfd9e	0.08446811
114	0x3d22db64	0.03976001
115	0xbd2cb94b	-0.042168897
116	0xbcb1e84e	-0.021717217
117	0x3d9038f0	0.0704211
118	0x3d195137	0.037430968
119	0x3da2b440	0.07944536
120	0xbd8024b7	-0.06257003
121	0xbd4138d0	-0.04717332
122	0x3b9ce74a	0.004788314
123	0x3b15cb53	0.0022856786
124	0x3d11f533	0.03563423
125	0x3db265a4	0.08710793
126	0xbda31bf3	-0.07964315
127	0xbdab4c59	-0.083641715
