models_decentralized/final/target_critic_4_2450.pth (torch, 631787 bytes, 26 tensors)

Q1.conv.net.0.weight f4 [3, 31, 3, 3]
000000 00 65 a7 3c 3a 5b 4c bd 38 7d ea bd 62 26 83 bd
       0.020433903 -0.049891688 -0.11449665 -0.06403805
000010 13 23 0d be 52 fe a7 3c 49 85 29 3e 6a 9c 03 3e
       -0.13782911 0.020507012 0.1655475 0.12852636
000020 19 76 96 bd f8 83 76 3b 27 8e 11 3e c4 5b bf bd
       -0.07346744 0.003761528 0.14214383 -0.09343675
000030 81 df d4 3d ca 66 6d 3c 5e 2c 40 bd 57 1e 85 bd
       0.103941925 0.014489839 -0.04691731 -0.064999275
000040 3b ee d4 bd 4c bc e2 3d 72 0d 2f 3d 53 a8 ec bd
       -0.10397001 0.11071071 0.04273743 -0.11555543
000050 2c 84 07 3e 3f bb ed bd 1a 01 02 3e 30 36 f3 3d
       0.13234013 -0.1160798 0.12695733 0.1187557
000060 af 03 1b 3e b0 38 c0 bd 7e b6 04 bb d3 38 c1 3d
       0.15138124 -0.09385812 -0.0020250375 0.094346665
000070 c7 b4 9a bd f4 f9 01 3e 48 44 21 3b 42 73 a1 3b
       -0.07554012 0.12693006 0.002460735 0.00492707
000080 8c ae 1b 3d b6 cd 21 3e 2f db 20 3e 3f fe f5 bd
       0.038008258 0.15801129 0.15708612 -0.12011384
000090 2d bc 89 bd a0 1c 2d 3e 62 17 20 3e 00 08 db bc
       -0.06725345 0.16905451 0.1563392 -0.026737213
0000a0 b4 0e d2 bc 07 8a 9e bc 78 35 00 3e b0 b7 12 3d
       -0.025641777 -0.019352926 0.12520397 0.03581971
0000b0 3a fc e2 3d 67 74 f8 3d fe 99 10 bd 05 78 5b 3d
       0.11083265 0.12131577 -0.03530311 0.053581256
0000c0 82 5a f0 bd e3 01 dd bd 38 bb 7e bb 50 57 39 bd
       -0.11736013 -0.107913755 -0.0038868915 -0.045249283
0000d0 8a aa 21 bd 87 93 ce bd 89 b3 ef 3b 8b 0d 15 be
       -0.03946928 -0.10086732 0.0073151034 -0.14555947
0000e0 9b a2 f5 3d f6 7e ac bd 89 78 0a be c6 78 2e bd
       0.11993905 -0.084226534 -0.13522543 -0.042595647
0000f0 b4 a0 14 bd 22 96 c1 bd 9a 2c 65 3c 6f 2d a5 3c
       -0.03628607 -0.09452464 0.013987685 0.020163266
000100 f1 d0 e6 bd 94 08 0a be 6f 22 83 3b b8 57 d2 3d
       -0.11270321 -0.13479835 0.0040019075 0.10270637
000110 e0 5c ad bd 5c 4a 0e be 83 ff 6f 3d 00 e8 de 3d
       -0.0846498 -0.13895553 0.058593284 0.10884094
000120 b2 55 97 bd 00 12 c5 3d 6e 3e 4f 3d 0f 8c cf bb
       -0.07389392 0.09622574 0.050596647 -0.006333835
000130 de 38 51 bb 02 2a bc 3d b0 1f 66 bd 6e b3 a0 bd
       -0.0031924765 0.091877 -0.056182563 -0.078467235
000140 57 16 00 bd b2 1f 69 3d 78 72 ad bb fc 6e 1d be
       -0.031271305 0.056914993 -0.0052931868 -0.15374368
000150 19 8b 36 bb 22 7d f7 3d f6 60 bd 3c 24 21 25 be
       -0.0027853905 0.12084414 0.023117524 -0.16125923
000160 d2 10 b0 3d 32 55 fb bd 05 0b 0c 3e 58 d7 56 bc
       0.08596958 -0.12272109 0.13676079 -0.013112865
000170 0b 44 d7 bd f4 a5 f7 bc 85 81 58 3d a7 68 8c bd
       -0.10511025 -0.0302305 0.052857894 -0.06855898
000180 85 50 02 3d 59 b4 11 3d f3 bd 51 3d fb 3c 9a 3d
       0.03181507 0.035572384 0.05120654 0.07531162
000190 0c 9e 93 bc f8 4b 62 3d 3f 4e ce bc 42 db b2 3b
       -0.018019699 0.05524823 -0.025183795 0.0054582665
0001a0 3d 15 62 bd 1e d2 b1 3b 65 7e e2 bc c3 69 b4 3d
       -0.055196036 0.0054266592 -0.02764816 0.08809235
0001b0 1d 23 2b be 4d 6d 45 bb 2e 0b a1 3d 3d dc ba bd
       -0.16712613 -0.0030124963 0.078634605 -0.09124038
0001c0 b7 83 d2 bd 30 6d 2a 3e 86 ce d5 bd ad 45 bd bb
       -0.10279029 0.16643214 -0.10439782 -0.0057761283
0001d0 bb 7c cf 3d b5 80 70 3d f9 a5 08 3c b6 e3 f2 3d
       0.10131212 0.058716495 0.008340352 0.11859839
0001e0 1e 87 f7 3d 07 58 4c bd a9 8b 93 bd b4 21 99 bd
       0.120863184 -0.049888637 -0.072043724 -0.074771315
0001f0 77 10 12 3e c1 4b fc bd 3e 4e 7f bd 94 34 ca 3d
       0.14264093 -0.123191364 -0.062330477 0.0987331
000200 29 e3 1b be 21 09 80 3d 4e 85 ce 3d 27 5d a1 bb
       -0.15223373 0.06251741 0.100840196 -0.0049244347
000210 85 fd ca 3d f5 d6 14 3e 77 10 6f 3d c5 a5 3d bc
       0.09911636 0.14535125 0.05836531 -0.011575167
000220 aa 20 a4 3d 1b 76 bd bd 4c 5d eb bd 36 7c a5 3d
       0.08014043 -0.092510425 -0.11492404 0.08080332
000230 dd 8f c2 bd df 59 d0 3d e1 f1 3d 3d 6f 0b 87 3b
       -0.09500096 0.101733916 0.04637325 0.004121236
000240 38 2f 33 3d ad 20 8c 3d b9 7b 66 bd 8a 22 b7 bd
       0.043746203 0.0684217 -0.056270335 -0.08942135
000250 d4 da 35 bd 58 7a b4 ba 44 a4 1b 3c c8 6b b7 bd
       -0.044398144 -0.0013769371 0.009499613 -0.089561045
000260 10 e2 5d 3d 60 db 0f bd 07 e5 9a bd 80 98 86 bc
       0.054170668 -0.03512132 -0.07563215 -0.01643014
000270 aa 36 b9 bd 7b 10 b5 3d 7c bc b3 3d 7e 3e a3 bd
       -0.090436295 0.08841034 0.08776185 -0.07970904
000280 50 a5 bd 3d 2f 92 d7 3c 1d a9 39 bd 13 14 72 bd
       0.092600465 0.026314823 -0.045327295 -0.059101176
000290 d1 28 fc bd 56 5f 87 3d d9 07 e1 bc 02 8e fd bd
       -0.123124726 0.06609981 -0.027469562 -0.123806015
0002a0 3b 1f 1e be 9a 96 a6 bb 8d 8f 47 3a 10 21 f4 bd
       -0.15441601 -0.005083871 0.00076126383 -0.11920369
0002b0 1e 12 09 3d 21 1e c0 bd 1c ce 1e 3c b9 73 2c 3d
       0.033464544 -0.09380747 0.009692695 0.04210255
0002c0 92 76 42 bd f3 31 0c be d0 70 85 3d fa e4 02 bd
       -0.04747636 -0.13690929 0.06515658 -0.03195665
0002d0 43 86 f5 bc 84 a1 af bd 17 33 d1 bd 18 ab 46 bc
       -0.029971248 -0.085757285 -0.10214823 -0.012125753
0002e0 fd c8 f3 bd 9f e7 e1 bd 0e a6 5f 3d ea 16 1f 3e
       -0.1190357 -0.11030506 0.05460172 0.15536085
0002f0 9b 5f 3c 3d 88 79 d8 3d 99 ef 2f 3e 91 42 d9 bb
       0.045989614 0.10570055 0.17181243 -0.00663025
000300 00 2d a8 3d 38 ec 77 bd 55 8e 3e 3d 81 2e b1 3d
       0.08211708 -0.06052801 0.046522457 0.08651448
000310 bd 22 de 3d 4b 2e 02 bd 00 44 6c bc 23 58 0a 3e
       0.108464696 -0.03178243 -0.014420509 0.13510184
000320 44 c6 9c bd ff 46 9a 3d c9 bc a1 bd db 3c 78 3d
       -0.07655004 0.07533073 -0.07897336 0.06060491
000330 4d b8 69 bb 74 fc 42 3e fc 24 17 3e e1 0b 2c 3e
       -0.003566283 0.19041616 0.14760202 0.16801406
000340 5b a0 62 bd 70 51 30 3e 85 8c b8 bd d7 b6 cf 3d
       -0.05532871 0.17218566 -0.09011177 0.10142296
000350 c2 54 6d bd ee 50 d7 bd 8a 9b 02 bd 6f 6b 5f bd
       -0.05794216 -0.10513483 -0.031886615 -0.054545816
000360 05 3e 1f bb ff 4c 7b bd 74 cf 6d bb d1 96 4a ba
       -0.002429844 -0.061352726 -0.0036286982 -0.0007728162
000370 39 27 a1 3d 70 e1 16 be c8 37 22 3d e1 37 6d 3c
       0.07868809 -0.14734435 0.03960398 0.014478655
000380 74 82 ce 3d 69 5b 25 bd c9 d7 a0 bd 90 88 08 3e
       0.10083476 -0.04037038 -0.07853658 0.13333344
000390 ec c8 24 bd b0 cd dc 3c df 0a 87 3d ac f0 e4 bd
       -0.040230677 0.026953548 0.0659387 -0.11178717
0003a0 84 ca f0 bd 3c 66 02 bd 91 83 9d bd 1b 42 34 3c
       -0.11757377 -0.03183578 -0.0769111 0.011002089
0003b0 3d 66 cd bd 4e 3a d2 bc a1 55 80 3c 25 06 fb bd
       -0.10029266 -0.025662567 0.015665831 -0.12257031
0003c0 23 64 59 bd 04 07 0d be 09 4b 0e be b4 22 16 3d
       -0.053074013 -0.13772207 -0.13895811 0.03665419
0003d0 e3 5d ef bc f2 7f 9f bd ed 5a 58 3c 7c d4 a1 bd
       -0.029219573 -0.077880755 0.013205272 -0.07901856
0003e0 dd 72 bc 3d f1 38 16 bd 95 1d 67 bd b8 62 09 be
       0.09201596 -0.036675397 -0.056424696 -0.13416564
0003f0 fc 9b b2 3b c8 63 50 3d 60 34 b6 3d 94 8b 00 be
       0.0054507237 0.05087641 0.088967085 -0.12553245

Q1.conv.net.0.bias f4 [3]
000000 4e a2 cf 3b e3 bc 03 3c ad dd a9 ba
       0.006336487 0.00804064 -0.0012959741

Q1.conv.net.3.weight f4 [6, 3, 3, 3]
000000 1b 18 b4 bc 6a 13 be 3d da 46 99 be 98 62 2b 3e
       -0.02198415 0.09281047 -0.29936868 0.1673683
000010 6d 74 79 3e 19 47 56 3e 96 82 9a be 05 0f 40 bc
       0.24360819 0.20925559 -0.30177754 -0.011722331
000020 47 5f e8 3d 5f 13 f1 3d 04 4f 4b be 99 9b 46 3e
       0.11346298 0.11771273 -0.19854361 0.19395293
000030 52 b4 86 bc 92 ee 96 be 17 10 16 3e 4e bb 10 bd
       -0.016443405 -0.2947889 0.14654575 -0.035334878
000040 f4 86 49 be d3 ed a1 3c 58 e2 61 3e 76 51 88 be
       -0.19680387 0.019766724 0.22059 -0.2662465
000050 60 28 6d be 4c 46 cf 3c 24 40 c8 3e 13 89 66 3e
       -0.23159933 0.025302075 0.39111435 0.22513227
000060 75 71 8f 3e 82 eb b1 be f5 57 2d 3d d8 1b a2 3d
       0.28016248 -0.3474999 0.04232021 0.07915467
000070 f2 aa 67 3e 98 84 e7 3e 41 a0 30 be ad 60 b3 be
       0.22623804 0.45218349 -0.17248632 -0.35034695
000080 9f 45 e8 3e fb d8 44 be 18 e4 ba be 6c 82 a1 3e
       0.45365617 -0.19223396 -0.36502147 0.31544816
000090 65 07 f2 be d1 ed b6 3d 3f db f7 be 2b b4 d0 3e
       -0.47271267 0.08932079 -0.4840946 0.40762457
0000a0 5a 84 2c bd 06 33 13 3d 84 df e4 3e be 76 d6 be
       -0.042118408 0.03593733 0.4470178 -0.41887468
0000b0 e1 84 a2 3e e3 62 0a be 31 79 c6 3e 55 26 97 3e
       0.31742004 -0.13514285 0.38764337 0.29521433
0000c0 c9 8b 05 3e 6c 48 66 3e 62 91 e5 3d b5 80 5c 3e
       0.13041605 0.22488564 0.1120937 0.21533473
0000d0 6e ca e2 be 36 22 db 3e cb 46 b7 3e 96 44 4f be
       -0.44295067 0.42799538 0.35796198 -0.20241007
0000e0 04 10 cd be cd 62 08 bd 13 10 e1 be 95 6e 30 3d
       -0.4005128 -0.03329735 -0.43957576 0.04307421
0000f0 8f d4 ac 3e 38 59 46 bd 92 c8 de 3c c5 9d dd 3e
       0.3375592 -0.04842493 0.027195249 0.4328443
000100 6a 1e 4a be ce 18 21 3c 63 95 d8 be 58 44 91 3d
       -0.19738165 0.009832574 -0.42301473 0.07093114
000110 d8 99 5b 3e 8d 00 86 bd b4 75 2b 3e d2 ee d6 be
       0.21445405 -0.06543074 0.16744119 -0.4197908
000120 a6 50 16 bd ab ed af be fc 87 06 bc 8a aa 5a be
       -0.036698006 -0.34361014 -0.008211132 -0.21354118
000130 92 e7 1a be fd f4 34 3e 9f ea 56 be d2 0a 8e be
       -0.151274 0.1767158 -0.20987938 -0.2774263
000140 49 e0 2e 3e 60 da 5a be f7 2d ac bd 98 d5 80 3e
       0.17077745 -0.21372366 -0.084072046 0.2516296
000150 dd 1b a9 bd 76 d3 e2 be 77 88 8b be d0 cc 74 3e
       -0.082572676 -0.44301957 -0.27252552 0.23906255
000160 12 18 4a 3d 06 f2 48 3e ba fa 47 be 69 ad 84 be
       0.04933936 0.19623575 -0.19529238 -0.2591355
000170 26 03 9a 3c 1f ae 4c 3e 79 7c f2 3d 3c ed 8c bd
       0.01880033 0.19988297 0.118401475 -0.06881186
000180 f7 ef 33 3e ae a9 cb 3e ff 71 9e 3e 50 fc 8e 3e
       0.17572008 0.39777893 0.30946347 0.27926874
000190 cf 9c 47 3e 64 85 2b be 96 cf 91 3d da 9a 83 be
       0.19493411 -0.16750103 0.07119672 -0.2570408
0001a0 c9 56 45 3e 6e 8a 29 3e c2 e4 f0 3e f5 3e 90 be
       0.19271387 0.16556713 0.47049528 -0.28173032
0001b0 ec 5b 89 3e 54 ac 98 bd 20 60 c5 3e 81 62 92 be
       0.26827943 -0.07454744 0.385499 -0.28590778
0001c0 20 be e3 be 1d c8 36 bd ac c0 97 3e d0 57 65 be
       -0.4448099 -0.044624437 0.29639184 -0.22396779
0001d0 96 f7 e5 be 02 93 c8 3e 01 f4 d5 bd 7d 40 18 3e
       -0.44915456 0.39174658 -0.10446931 0.1486835
0001e0 00 c1 95 be 49 cd 3a be 53 c7 94 be 22 1e 77 3d
       -0.2924881 -0.18242373 -0.29058322 0.06033147
0001f0 8b d8 cc 3c 46 f9 a2 3e a2 05 c7 3e 4a fe 30 be
       0.0250056 0.31830806 0.38871485 -0.17284504
000200 55 d9 82 3d 32 59 67 bd dd 6f 2a bd 8d 70 b1 3e
       0.06389109 -0.056481548 -0.041610587 0.34656182
000210 87 c2 a6 3d 75 f3 45 3e 83 a2 6f bd a5 80 dc 3e
       0.08142572 0.19331153 -0.058504593 0.43066898
000220 2f a9 b9 3e e5 cf da 3e 4a 06 47 3e 4c 8a aa 3e
       0.3626189 0.42736736 0.19435993 0.33308637
000230 43 95 5e 3e 7b d0 d7 be cf 0e 4e be bf 5c 97 bc
       0.21736626 -0.42151245 -0.20122837 -0.018476842
000240 40 66 ea 3e 54 b9 e5 3e a5 1c 45 3e 82 25 67 bd
       0.45781136 0.44867957 0.19249208 -0.056432255
000250 e9 48 de be f1 59 0d 3d ae fb 1b be 1e a4 cb 3e
       -0.43415 0.034509603 -0.15232727 0.3977365
000260 c7 96 95 bb 03 3e 80 be 2b e0 b5 be 41 7b b0 3e
       -0.004565093 -0.2504731 -0.3552259 0.34469035
000270 6f c4 b4 be 0b 33 2f bd 50 91 ec bd 57 e7 cc 3d
       -0.35306117 -0.042773288 -0.11551154 0.10005062
000280 39 f1 e7 3e 06 58 10 be
       0.45301226 -0.14096078

Q1.conv.net.3.bias f4 [6]
000000 8a d9 b9 3b fb 9a 89 b9 49 60 1f bc fe ff fd 3b
       0.0056716846 -0.00026246146 -0.009727546 0.007751464
000010 82 ad 13 3b 69 b4 c0 3b
       0.0022533839 0.0058808816

Q1.conv.net.6.weight f4 [6, 6, 3, 3]
000000 15 4a 88 3e 88 63 9c 3e 8f e1 d2 3a b9 5e 96 3e
       0.2661902 0.30544686 0.001608895 0.29369143
000010 77 96 27 3e 32 3c 96 3e fb 8d 8c be fc 71 97 3e
       0.16365992 0.293428 -0.27452073 0.2957915
000020 87 5e 04 3e b6 ef 3f be 25 9c 38 3e aa ad 17 3e
       0.12926684 -0.18743786 0.18028314 0.14812341
000030 20 c7 1f 3e 51 d1 a1 bd 51 23 92 be 46 b3 2e be
       0.15603304 -0.07901252 -0.2854257 -0.17060575
000040 bc 58 60 3e 54 8f 7f 3d 1a ae 0d be 16 f4 18 be
       0.2190885 0.062392548 -0.13835946 -0.14936861
000050 ed c7 d8 bb c7 5c 46 3e 0d 77 04 3e c9 d6 87 3e
       -0.00661563 0.19371329 0.1293604 0.26531056
000060 68 02 89 be 84 d5 7f be 24 b5 8c 3e f5 4b f5 bd
       -0.26759648 -0.24983793 0.2748195 -0.11977378
000070 ac db 9d be 01 b7 37 be fe b2 9b 3d 10 64 7e be
       -0.3083166 -0.17940904 0.076024994 -0.24842858
000080 66 db 7f be 52 02 8a 3e 08 a8 a5 be 24 4c 51 3e
       -0.24986038 0.26954895 -0.3235476 0.20439202
000090 e9 11 30 bd 5b 60 11 3c 08 5d 51 be e1 97 1c be
       -0.04298583 0.008873071 -0.20445645 -0.15292312
0000a0 82 0c 97 be 02 cd 2e bd 72 27 9b be 76 5b 8b be
       -0.2950173 -0.04267598 -0.30303532 -0.27218217
0000b0 7c cb 69 3e 77 27 c1 3c d7 15 74 be bf f8 81 bd
       0.2283153 0.023578389 -0.23836456 -0.06346273
0000c0 0d 87 1d 3e 2f 7b 05 39 3a ff 95 be 4b d4 65 bd
       0.15383549 0.00012729758 -0.29296285 -0.05611066
0000d0 e1 d6 63 3e 9e 22 a3 be e4 82 99 3d e6 1e 96 3c
       0.22249939 -0.31862348 0.074956685 0.01832528
0000e0 84 38 05 3c e9 4c a6 bc 27 c1 07 3e 74 e0 fb bd
       0.00813115 -0.020300345 0.13257276 -0.122986704
0000f0 e3 3e 1b 3e cd ee e4 bd 65 c6 7a be 86 6c 64 be
       0.15160708 -0.1117836 -0.24489744 -0.22307023
000100 12 8c c3 3d 5d a7 16 3e 7b 49 9e be f8 7d b4 bd
       0.09548201 0.14712282 -0.30915436 -0.08813089
000110 d7 2a 56 3e 3a 0a a4 3d f0 0a 43 3e 49 e3 5a be
       0.2091478 0.08009763 0.19047141 -0.21375765
000120 4a aa 47 be aa 3f 83 3d 0a af 0f bd 0f a0 66 3e
       -0.19498554 0.06408627 -0.03507904 0.22521995
000130 27 fb 59 3e 2b 49 9f be ed 74 14 3d cf 9b 92 3d
       0.21287213 -0.3111051 0.03624432 0.071586244
000140 3c 71 f2 bc 5b 2a 28 be 0d e3 06 be 21 6e 91 be
       -0.02959501 -0.16422407 -0.1317255 -0.28404334
000150 96 f5 9c be c3 7c a7 bd 54 10 21 3e 9e 22 92 3d
       -0.30656117 -0.08178093 0.15728885 0.07135509
000160 6b d7 81 bc 54 c9 5e 3e 8e 1a 25 3d cf 5d 84 3d
       -0.01584979 0.21756488 0.040308528 0.06463205
000170 93 5e 0c be 92 51 b0 3d ff bb c1 bd 9c 15 c5 3d
       -0.13707952 0.08609308 -0.094596855 0.09623262
000180 e1 09 60 3e aa 81 94 3e cf 01 06 bd 59 7b 17 3d
       0.21878769 0.29005176 -0.03271657 0.036982868
000190 ea bc a7 3a 44 17 ce bd 67 b3 48 be bd a4 fa 3c
       0.001279739 -0.10063031 -0.19599687 0.030596131
0001a0 fd 20 5f be 0a 4f 7d be 07 a8 35 3e 12 0c 98 be
       -0.21789928 -0.24737182 0.17739879 -0.2969671
0001b0 4a f9 56 3e 9c 4c 8a 3e 85 72 89 3d 5d 0d 7b 3e
       0.20993534 0.27011573 0.06711296 0.24516816
0001c0 f8 a1 6c be ac 39 74 3e db c2 0b 3e 28 db d1 3c
       -0.23108661 0.23850125 0.1364855 0.025617197
0001d0 65 2e 72 bd db 0f 9e 3e 1e 22 a2 be e6 89 19 be
       -0.059126277 0.30871472 -0.31666654 -0.1499401
0001e0 cc f8 82 3e b7 48 a7 3e 0d 8f 86 be d5 8b 86 be
       0.25580442 0.32672665 -0.26281014 -0.26278558
0001f0 36 43 63 be e7 a1 23 3e 3c 00 0c 3e ec da ae 3d
       -0.22193608 0.1597973 0.13671964 0.0853785
000200 41 fd 13 bc 7f 5c 74 3e b4 5b 9f 3e b0 93 d4 bd
       -0.009032548 0.2386341 0.3112465 -0.10379732
000210 3f da 71 3e 4e 1c 0c be ba af 54 be e4 24 57 3e
       0.2361841 -0.13682672 -0.2077016 0.21010166
000220 05 13 16 be 2a 07 e3 3c 8e 5b 34 3e 92 de 63 be
       -0.14655693 0.027713377 0.1761305 -0.22252873
000230 36 4e 7f be d0 74 62 be a3 8a 05 3e 4a 90 07 be
       -0.24932179 -0.22114873 0.13041167 -0.13238636
000240 94 fe 2d 3e d8 cf e8 3c 59 a2 4c bd 23 4a 45 3d
       0.16991645 0.02841942 -0.049959514 0.048166405
000250 60 6a 9d 3e 3c 10 4d be 6e 92 06 3d 74 56 8a 3e
       0.3074522 -0.20025724 0.03285449 0.27019083
000260 57 28 91 be ea a6 83 3e ee 06 f5 3c e6 9d 19 3a
       -0.2835109 0.25713283 0.02991053 0.00058600155
000270 df f6 3a be 4d 3f b9 3d 17 cf b0 3b 32 c8 a2 3e
       -0.18258236 0.09045277 0.005395781 0.31793362
000280 91 cc af bd 49 74 91 be e0 5a a9 3e 7a 30 55 3e
       -0.0858394 -0.2840903 0.33077145 0.20819274
000290 dc 46 8f 3d a9 cf 42 be 43 a5 4b 3e 44 de 76 bc
       0.06995937 -0.19024529 0.19887261 -0.015067641
0002a0 06 80 96 3e d5 e8 24 3e 7c 0a 8a be 93 30 a2 3d
       0.2939455 0.16104443 -0.26961124 0.07919421
0002b0 07 93 3f bd 01 e2 47 be 5b cf 22 be f8 39 6a be
       -0.046771076 -0.19519807 -0.15899412 -0.22873676
0002c0 bf c8 8b be 1a cd d3 bd b1 59 1f 3e fc be 49 bd
       -0.27301595 -0.103418544 0.15561558 -0.049254403
0002d0 cc f1 6d 3d df 15 27 3e 41 2a 73 3e 49 cb d4 3b
       0.058091924 0.16316937 0.23746587 0.00649396
0002e0 00 c3 c2 bd c1 d2 87 3e 71 0e 77 be 34 5d a0 be
       -0.095098495 0.2652798 -0.24126603 -0.31321108
0002f0 fa 87 02 be 98 16 02 3e 33 39 a1 3e a3 89 1a 3e
       -0.12747183 0.12703931 0.31488952 0.15091567
000300 5a 9f 9b 3d 52 2a c6 bd 78 34 81 3e 47 6c cc bc
       0.07598753 -0.09676041 0.25235343 -0.024953974
000310 c1 c4 a7 bc 77 70 34 3e 40 3f 27 bc b1 de f9 bd
       -0.020479562 0.17621027 -0.010207951 -0.12200678
000320 bc dd 35 3e 22 59 8b bd 85 89 b5 3d 55 0b 8d be
       0.17760366 -0.0680411 0.088641204 -0.27547708
000330 fd 8c 2c be 0b c0 47 bd 74 8d 84 be 69 d3 93 3e
       -0.16850658 -0.04876713 -0.2588917 0.2887223
000340 31 02 6c 3e 95 cb 85 be 9a 2e 29 3e 58 fb 04 3e
       0.23047711 -0.26131883 0.16521683 0.12986505
000350 98 f1 cc 3d d9 58 8b 3e 0a 32 a5 3e 4f d1 7d 3e
       0.10007018 0.27216223 0.3226474 0.24786876
000360 c0 44 78 3c f6 2e a2 3d 41 f6 90 be 03 b1 53 be
       0.01515311 0.07919113 -0.28312877 -0.20672993
000370 c0 2b d5 3d 6f 9e 36 be a8 13 1c 3d 93 4e 84 3e
       0.10408735 -0.17833875 0.038104683 0.25841197
000380 09 bf 85 bd d0 95 3b 3e bd 4b 80 3e 25 69 2e 3d
       -0.06530578 0.18318868 0.25057784 0.042580742
000390 1c 6e e6 bd c6 2b 87 bd 9b 92 0b bd 18 dc 99 3d
       -0.112514704 -0.06600146 -0.03407536 0.07512683
0003a0 0e d6 95 3e 92 d5 01 be 54 c7 70 3e cb 9b 79 be
       0.29264873 -0.12679127 0.23513538 -0.24375837
0003b0 a2 52 98 be 97 d5 f7 3d 24 79 70 3e ca 43 67 be
       -0.29750544 0.12101286 0.23483711 -0.22584453
0003c0 95 52 1e be dd 72 57 3e 42 12 48 3e 13 95 42 3e
       -0.1546119 0.2103991 0.19538215 0.1900218
0003d0 e5 76 d2 bd 8b ae 52 be 3d af 81 3e 45 84 61 3e
       -0.102765836 -0.20574395 0.2532901 0.22023113
0003e0 9e be e8 bd fe 2c 32 3e a8 b2 e8 bc 9a fe 39 3e
       -0.11364482 0.17399976 -0.028405502 0.18163529
0003f0 f0 0f 29 3d 69 0a a3 3d b0 ba 7e bd a0 cd df 3d
       0.041274965 0.0796097 -0.062189758 0.10927892

Q1.conv.net.6.bias f4 [6]
000000 6a 6e ba bb 83 bb 83 39 76 52 bc 3a a9 2b 9d 3b
       -0.005689432 0.00025125974 0.0014367837 0.0047964645
000010 be 43 ae 3b 08 27 d1 3b
       0.005318134 0.0063828267

Q1.a_head.0.weight f4 [128, 294]
000000 52 53 7a bb 68 cb ee bc ad 29 11 3b a2 5e 44 bd
       -0.0038196635 -0.029149726 0.0022150085 -0.04794181
000010 bc 33 4a 3d 63 61 80 3b 86 7c 26 bd 4a c4 ec bc
       0.049365744 0.0039178594 -0.0406461 -0.028902192
000020 a0 e4 10 3b 5a 9e 0e 3d eb 37 63 3d 32 82 1b bd
       0.0022108927 0.034818985 0.05547325 -0.03796596
000030 9e 48 a3 3c 87 9a 4e bd 09 8a 67 bb 58 f2 20 3d
       0.019932088 -0.050440338 -0.0035330078 0.039293617
000040 e5 9b 6a bd b8 b7 59 bc fc 8d 28 bd e9 bc a4 bc
       -0.05727758 -0.013288431 -0.04115103 -0.02010961
000050 bd b6 21 3c d6 e4 ad 3c a0 9e fa 3c f4 c2 6b 3d
       0.009870228 0.021227282 0.030593216 0.05755897
000060 18 f6 81 3c 49 a3 d2 3c 67 87 0b 3d 56 f9 4c bd
       0.015864417 0.025712626 0.034064677 -0.050042473
000070 30 29 23 3d bd a6 12 bd 75 b3 75 3c 9d 0c 30 3d
       0.0398342 -0.035803545 0.014996399 0.04298078
000080 26 76 4b 3d b7 a3 61 bd 81 02 28 3d d0 8c dd 3c
       0.049673222 -0.05508777 0.041018013 0.027044684
000090 2d 79 3f 3d b2 6d 1a 3d 1e 32 e5 3c 6c 5c 19 3c
       0.04674642 0.03770227 0.027978 0.009360414
0000a0 58 a7 00 3c 09 e5 7c bc 58 b3 34 bc 50 2a 2c bc
       0.007852398 -0.015435466 -0.011029087 -0.010508135
0000b0 cf 5d 1a 3d 5a 09 61 bd 77 dc 28 bd 98 dd 6b 3d
       0.03768712 -0.05494056 -0.041225877 0.057584375
0000c0 7c a0 3e bc 44 15 a5 3c 88 d6 39 3d f1 54 4d bd
       -0.011634942 0.020151742 0.04537061 -0.050129835
0000d0 ed 02 37 3b 84 28 89 bc 78 bc 8f bb eb 71 5a bd
       0.0027925328 -0.016742952 -0.004386481 -0.053331297
0000e0 2e 32 17 3d d1 38 a8 3c 5a 44 e2 bc 72 3f 90 3c
       0.03691309 0.020534905 -0.027620483 0.017608378
0000f0 f3 c1 9f 3c e3 fc 11 bc 31 ea e4 3c 14 22 d5 3c
       0.019501662 -0.008910391 0.027943702 0.026017226
000100 b7 7b 1c 3c 8d 2e 15 bd 32 3a c3 bc d0 c6 ca 3b
       0.00955098 -0.036421347 -0.02383146 0.006188251
000110 e3 bf 6e bd b8 b0 d5 bc 8f 6b 56 3d 38 b0 af bc
       -0.058288466 -0.026085243 0.05234867 -0.021446332
000120 59 ae 27 bd 76 8d 6d 3d 75 b6 00 bd e0 f2 99 3c
       -0.040937755 0.057996236 -0.031424005 0.01879257
000130 bb 3a 8a ba 7c 53 ac bc 59 92 81 bc 3e 56 9b 3c
       -0.0010546067 -0.021035902 -0.015816854 0.018962022
000140 54 3e 28 3d b0 64 40 bd 58 bd f6 bc 7e c3 08 3b
       0.041075066 -0.046971023 -0.030119583 0.0020868476
000150 ca 82 53 3d 9f 0f d8 bc 8d 04 5b 3d 6e c2 1b ba
       0.051638402 -0.026374636 0.053471137 -0.0005941753
000160 f3 87 0e 3b 18 96 0f 3d c9 88 82 3c ca a7 60 3d
       0.0021748513 0.03505525 0.015934365 0.054847516
000170 3e a1 8a 3c d3 71 3a 3b f3 7b 1e bd 9c 7e 6b 3c
       0.01692259 0.0028449192 -0.038692426 0.014373448
000180 c4 d2 2c bd bf 4c 54 bd 27 b6 27 bd 03 48 c0 b9
       -0.04219319 -0.051831003 -0.0409452 -0.00036674747
000190 32 65 0c bd ae 32 2d 3c 72 aa 37 bd 43 89 4a bd
       -0.034276195 0.010571165 -0.044840284 -0.04944731
0001a0 dc ea 2d 3b a2 92 bf 3c 9d 9c c4 3c f1 10 73 3c
       0.0026537692 0.02338535 0.02400046 0.014835582
0001b0 1c c8 85 bc 3a 01 f5 3c 47 27 08 bc 06 6b 1a bd
       -0.016330771 0.029907811 -0.008310146 -0.03769972
0001c0 f9 93 7f ba f8 af 61 bc f9 ba 03 3d 36 a5 64 bc
       -0.00097495277 -0.013774864 0.032160733 -0.013955405
0001d0 0f 04 f6 bc 4d ef fe 3c bf 89 f7 bc 97 93 47 bd
       -0.030031232 0.031119967 -0.03021705 -0.048724737
0001e0 8f 7c 44 bd 8a cb 13 bd 89 5d 41 bd 9d a4 61 3d
       -0.04797035 -0.03608278 -0.047208343 0.055088628
0001f0 76 e5 da bc a1 91 9e bc d5 68 0b bb cf b0 b7 3c
       -0.026720744 -0.01935655 -0.0021272202 0.022423176
000200 74 86 49 ba fd 90 50 bc 7d b1 ae 3c 3e 54 cd bb
       -0.00076875766 -0.01272988 0.021324867 -0.006266146
000210 99 7d 1f 3d 31 f7 ca bc 6e da c1 3b 1d 81 c2 3c
       0.03893814 -0.024776073 0.0059159314 0.023743207
000220 4e da 7b 3c 6d b0 8e 3c 9c de 2a bc 40 e5 11 bd
       0.015371872 0.01741811 -0.010429051 -0.03561902
000230 da cd 7c 3b 1e 17 d6 3c d0 73 58 3d ff 2e 4d bd
       0.0038574846 0.02613407 0.052844822 -0.050093647
000240 43 94 64 3d 14 48 b5 bc 06 b6 d4 bc 0a a4 3b 3c
       0.055805456 -0.022129096 -0.025965702 0.011452684
000250 75 2c 15 3d d4 af c1 3c af 4a 33 bc ad f2 d2 bc
       0.03641935 0.023643412 -0.010943099 -0.025750482
000260 84 07 50 bd 1b c3 d8 bc 4c a5 1d 3d d5 e5 d1 3c
       -0.050788417 -0.026460221 0.038487718 0.025622288
000270 89 09 4d 3b 23 3b 50 bd 6d bf 46 3d 0d 84 ba bc
       0.00312862 -0.050837647 0.0485224 -0.022768045
000280 7a 36 12 bc 74 6c d6 3c df f0 92 bb 13 48 1f 3c
       -0.008924121 0.026174761 -0.0044842805 0.009721774
000290 f6 c8 1e 3c 93 d6 42 3d b6 fb 2a 3d 48 32 35 bd
       0.0096914675 0.047567915 0.041743957 -0.044237405
0002a0 b4 e6 59 3d 03 a5 c5 bb 67 71 29 3d 4c b3 32 3d
       0.05319853 -0.006031634 0.041367915 0.043628022
0002b0 c1 11 83 3b f7 da 2c 3c 9f 2c 34 3c 63 d3 0d 3b
       0.003999919 0.010550252 0.010996967 0.002164089
0002c0 93 b8 8d 3c a2 4a 97 3c fe a3 3f 3d 44 e7 c5 bc
       0.017299926 0.018468205 0.046787255 -0.024158128
0002d0 e9 f4 0e 3d 86 9f bf bc ba 35 3a 3d 71 5e c3 bb
       0.034901533 -0.023391496 0.045461394 -0.005962186
0002e0 11 2a 42 3d b1 5f 9c bc 90 0b 25 3d 7c 7c f0 bc
       0.0474034 -0.019088598 0.04029423 -0.029356234
0002f0 3a 03 64 3d 8b 2b 78 bc 26 97 20 bd 48 bb 3d bc
       0.05566714 -0.0151471 -0.039206646 -0.011580296
000300 d5 bb 05 3d dd 6d 23 bd 32 83 2d bd c8 f7 4a bd
       0.032649834 -0.039899696 -0.042361446 -0.04955271
000310 47 97 fc bc a0 7b 58 3d f3 5b 92 bc 87 9d 1f 3d
       -0.030833853 0.052852273 -0.01786611 0.03896859
000320 3c 72 98 3c 57 ee 37 3d 9b 1c 2c bd 51 6a 99 bc
       0.018609159 0.044905033 -0.042019468 -0.018727453
000330 42 f0 f6 bc 3b 7b dc bc fa af da bc 06 e5 0f bd
       -0.03014386 -0.02691423 -0.02669524 -0.035130523
000340 28 c1 52 bd 5d 1e 0b 3d a4 dc 99 bc 78 4d d6 3c
       -0.05145374 0.033964504 -0.018781967 0.026159987
000350 ae d3 c2 3c 11 8d 2e 3d 03 d2 ef 3c 5b 31 9c bc
       0.023782577 0.042615 0.029274946 -0.019066503
000360 a0 34 21 bc 6d 20 68 bd 2d 8a ba 3c ab 50 5c 3b
       -0.009839207 -0.05667155 0.022770965 0.0033617418
000370 69 64 7c ba 26 28 42 bd ab da a5 3c 8f 24 60 bd
       -0.00096279994 -0.04740157 0.02024587 -0.054722365
000380 bc eb ab 3a 3f bf 41 3d b5 15 18 3b 4e c7 68 3b
       0.0013116519 0.047301527 0.0023206298 0.0035519185
000390 0f 06 47 bc 35 51 63 bd 20 e3 49 3c 3d 5f 6b 3d
       -0.012147441 -0.055497367 0.012322217 0.057463873
0003a0 32 c8 b6 bb 4c 80 e6 bc aa 7f 59 bd 85 3b 5d bd
       -0.0055780644 -0.028137349 -0.053100266 -0.05401184
0003b0 3e cc 62 bd 35 09 c6 ba 72 ae 2b 3d b3 af 78 3c
       -0.05537056 -0.0015108945 0.04191441 0.015178609
0003c0 c4 ed 9f bb 1e db 4b bd f3 8a ac bc 96 5d fe 3b
       -0.004880639 -0.049769513 -0.02106235 0.007762621
0003d0 0f c3 18 bd 3d 80 07 bd 0a 9f 08 bc eb 28 2c 3d
       -0.037295397 -0.033081282 -0.008338699 0.04203121
0003e0 82 9c 2f bc 4b cf 32 bd 4f 29 39 bd ab ff 8f bc
       -0.010718467 -0.04365472 -0.04520541 -0.017577967
0003f0 e7 25 fd 3c 79 e5 1c bd 2f 46 26 3d 94 c3 9b bc
       0.030901862 -0.03830478 0.040594276 -0.019014157

Q1.a_head.0.bias f4 [128]
000000 ac 54 53 3d 9a 3c c5 3c 11 8f 5a 3c 4f 24 f6 3b
       0.05159442 0.024076749 0.013339774 0.0075116525
000010 55 32 e0 bc 1d dd 2a bd 34 9d 08 bc 35 a9 29 bd
       -0.02736775 -0.041714776 -0.008338261 -0.041421134
000020 43 eb 0a bd e2 7d ed 3c cf 0b c6 bc 17 37 1a 3d
       -0.03391577 0.02899069 -0.024175553 0.037650194
000030 61 68 ab 3c 47 bc 5b bd 11 20 3e 3d 38 8d 49 bc
       0.020923795 -0.053646352 0.0464173 -0.012301736
000040 d4 95 75 bc f4 01 24 bd 85 f7 09 3d d6 27 d5 3c
       -0.014989335 -0.040040925 0.03368332 0.026019972
000050 d4 34 56 bd 04 1d e8 bc 75 2d 48 3d 5c 9e 41 bd
       -0.052296475 -0.028334148 0.048871476 -0.047270164
000060 d9 1a 2b 3d 37 47 8e 39 c3 96 39 bd 5c 2a 8e 3c
       0.04177365 0.0002713741 -0.045309793 0.017354183
000070 b9 09 60 bd 0a e0 8a 3c 1e b1 e6 3b d9 2d 35 bd
       -0.054696772 0.016952533 0.007040157 -0.044233177
000080 70 9f 17 3d a0 b1 b7 bc 3f 6e 11 bd 0c 64 06 3d
       0.037017286 -0.022423565 -0.03550553 0.032810256
000090 f2 fd f1 3c cd 7c 69 bd 8f 0b de bc 5d bf bd 3c
       0.029540036 -0.057003785 -0.027105121 0.023162538
0000a0 be c1 89 bc 8b 55 81 bc 3a 4d 51 bd 34 b7 e4 3c
       -0.016816016 -0.01578786 -0.05109904 0.02791939
0000b0 34 c6 c5 bb d4 33 80 3b 37 cd 33 3d 91 9a 63 3d
       -0.0060355905 0.0039124284 0.04389688 0.055567328
0000c0 ce 12 5b bd 51 ab 02 bd 9c 42 b3 bc 27 f0 00 3d
       -0.05348473 -0.03190166 -0.021882348 0.031479027
0000d0 2b 7f 1a 3d ef d7 44 3b 41 2a 89 bc 45 f2 84 bc
       0.037718933 0.0030035933 -0.016743781 -0.016228804
0000e0 c5 b3 92 3c 4f 2e f2 bc f6 70 af 3c 22 e7 65 3b
       0.017907986 -0.029563097 0.021416169 0.0035080393
0000f0 9f fb 46 3d f2 2b 50 3c cf 24 12 bd fd aa d0 bb
       0.04857981 0.01270579 -0.035679635 -0.0063680396
000100 3a 19 7b 3c d3 87 62 bd 44 ab a3 bc 2d 1e 07 bd
       0.015325839 -0.055305313 -0.019979127 -0.032987762
000110 cd 0a b8 3b c6 d7 1a bd f7 29 55 3a 89 e3 5c bd
       0.005616522 -0.037803434 0.00081315584 -0.053927932
000120 b3 29 37 bd a0 91 4f 3d 76 fa 7a bc 17 19 56 3d
       -0.0447175 0.05067599 -0.015318504 0.05227002
000130 f3 82 14 bd 2a 59 b3 bc 21 0f 5c 3d 4c 57 e7 3c
       -0.036257695 -0.021893103 0.053725366 0.028239869
000140 bd 38 a1 bc 71 60 a7 bc f0 20 5a bd 3c d3 3f bd
       -0.019680375 -0.020431729 -0.053254068 -0.04683231
000150 d9 b9 a4 bc 52 70 0b 3d 6d 90 03 bc 35 72 a0 ba
       -0.02010815 0.034042664 -0.008030039 -0.0012241068
000160 02 c9 a2 3c c5 ed 87 bc 27 d0 13 bd 2a 04 ea bb
       0.019871239 -0.01659287 -0.03608718 -0.0071416097
000170 46 15 1d 3d 30 e6 2a bd 7d 87 23 bd 54 b8 70 3d
       0.038350366 -0.04172343 -0.039924134 0.05876954
000180 10 d3 9a 3c ea ca d5 bc 3f 6c 4f bd 5b 0c 60 3d
       0.01889947 -0.026097734 -0.05064034 0.054699283
000190 d3 00 5a 3d e0 b3 cb bc 5b 57 c6 bc 19 c7 c4 3c
       0.053223442 -0.024866045 -0.024211576 0.024020718
0001a0 e2 64 52 3b f5 bd a1 3c ea d5 02 bc 53 6b 28 3d
       0.0032103588 0.019743899 -0.007985571 0.041117977
0001b0 f9 a0 47 3d f0 52 fd bb 92 20 2b bd ad 45 10 3d
       0.0487375 -0.007730834 -0.04177911 0.035222698
0001c0 c0 57 b5 3c 55 55 24 3d 27 75 3f bd ce 90 ce 3c
       0.022136569 0.04012044 -0.046742585 0.025215533
0001d0 79 18 80 3c 40 7c 16 bd 54 80 2c 3d c6 2b 15 3d
       0.01563667 -0.036739588 0.04211457 0.0364187
0001e0 2e d5 be bc de 77 1a bd de 1f cb bb ff 72 ad 3c
       -0.023295011 -0.03771197 -0.006198867 0.021172998
0001f0 52 53 2e bd de c2 c1 3a 8d cb 00 3d 09 65 48 bd
       -0.04255993 0.0014782806 0.03144412 -0.04892448

Q1.a_head.2.weight f4 [6, 128]
000000 96 94 8c 3d 89 c6 99 3c b7 24 ba bc b4 21 73 bc
       0.06864278 0.018771427 -0.022722585 -0.014839578
000010 4e 64 66 bc 18 21 82 3d 40 9d 2d 3d ed 20 4a bd
       -0.014062 0.063539684 0.042386293 -0.049347807
000020 fa f1 fe 3c 23 8a bc 3c 01 8f 64 bd 70 04 a2 bd
       0.031121243 0.023015087 -0.05580044 -0.07911003
000030 17 88 77 3d b4 1a 61 bd 8c 1d d8 bc 99 67 6a bc
       0.06043252 -0.054957107 -0.026381277 -0.014306926
000040 2a d8 2f bd 81 2a 8f 3d fd 02 0f 3c 58 c9 99 3d
       -0.04293076 0.06990529 0.00872874 0.075091064
000050 6b c0 98 3c aa 36 53 3c 27 3d b8 bd cc f9 d0 bc
       0.01864644 0.012891451 -0.08996039 -0.025509737
000060 8b 16 5a bc 21 e2 ac 3d 3b ce a0 3c a7 19 9f 3d
       -0.013311039 0.08441568 0.019629588 0.07768565
000070 e4 12 c6 bc 13 89 49 bc 90 ed 1a bc dd 38 45 3d
       -0.02417893 -0.012300747 -0.009456053 0.048149932
000080 51 d5 1b bd a8 00 8a 3d 65 db a8 3d 0b 54 59 3b
       -0.03804523 0.067384064 0.08244971 0.0033161666
000090 8d b2 9f bd 42 df b3 bc d1 44 cd 3b 13 c1 d6 bc
       -0.07797728 -0.021957044 0.006264307 -0.026215112
0000a0 ed ac 4f 3c fd 6a d1 3c 49 e9 88 3d 07 19 b2 bd
       0.012675506 0.025563711 0.066851206 -0.0869618
0000b0 90 fd 9a bd b2 1b 3c bd 15 5b 9e 3d e6 1e 27 bd
       -0.075678945 -0.04592485 0.07732216 -0.04080095
0000c0 50 26 79 3c 6b dc bb bc 35 28 cd bc 53 ef 61 3d
       0.015206888 -0.022932252 -0.025043586 0.055159878
0000d0 06 2a 12 bc 96 3d a2 3d 89 d9 e1 bc 6f b4 0a 3d
       -0.008921152 0.07921903 -0.02756955 0.03386348
0000e0 a5 d2 50 bc 33 d6 2c 3d 17 7a ae bc f3 e7 02 3d
       -0.012745534 0.042196464 -0.021298451 0.031959485
0000f0 22 cb 84 bd 4d 5c 0f bc 13 96 e5 3c 90 6f 45 bd
       -0.06484057 -0.008750034 0.028025663 -0.048202097
000100 13 b4 29 bd a3 38 82 3d a8 a5 36 3c af a9 92 3d
       -0.041431498 0.06358459 0.011147894 0.07161271
000110 56 6d 6f 3d 55 b2 dd bb 14 b1 13 bd 1b c6 a7 bd
       0.05845388 -0.0067656436 -0.036057547 -0.081920825
000120 33 8c fe 3c cd b8 7f 3d 25 13 7d 3d 9c e4 b2 3d
       0.031072712 0.0624321 0.061785836 0.0873501
000130 69 75 18 3d f3 30 32 3d cf a2 fc 3c 46 ae 47 3d
       0.037221346 0.043503713 0.030839352 0.048750184
000140 7e c9 c4 3c 9f d1 77 3d f6 c6 41 bd bc 77 d0 3b
       0.02402186 0.060502645 -0.047308885 0.0063619297
000150 d3 d7 05 bd bd b5 44 3d a6 b0 a3 3b 0b 33 66 3c
       -0.03267653 0.04802488 0.0049954234 0.0140502555
000160 6f aa 46 3d a8 ed 8b 3d ca 5f 8d bd 50 cc 69 bd
       0.048502382 0.06832439 -0.06903036 -0.057079613
000170 f5 07 99 3d ff c1 65 3d f9 6a 50 bd 00 69 b8 bc
       0.07472221 0.056093212 -0.050883267 -0.022511005
000180 b7 d7 aa 3d 0b 76 5e 3d 2a 73 1b 3b be f9 94 3d
       0.083419256 0.054311793 0.0023719766 0.07274197
000190 c0 34 4c 3d 46 48 cf bc 96 31 72 3d 00 ee 3d 3d
       0.049854994 -0.025303017 0.05912932 0.046369553
0001a0 be c7 42 3d 02 27 3e 3d 0a 7b db 3c e0 2b 03 bd
       0.04755377 0.04642392 0.026792068 -0.032024264
0001b0 fa 75 b9 b9 c2 43 02 bd 4e a3 da 3c ef 31 a6 3d
       -0.0003537385 -0.0318029 0.026689198 0.08114993
0001c0 5a 14 0b bd df 1f 9a 3d e2 a7 68 bd c8 81 82 bd
       -0.033954956 0.0752561 -0.05680073 -0.0637241
0001d0 77 c7 a1 bc 92 68 b8 3c 51 70 31 3c 4e 85 95 bd
       -0.019748433 0.0225108 0.010830001 -0.073008165
0001e0 5f 81 65 3d ff e2 62 3c 37 b9 44 bd 2b 26 17 bc
       0.05603158 0.013848065 -0.048028197 -0.009225409
0001f0 4b 77 3d 3d c0 1f 3e 3d 98 82 86 bb 8b 8e e0 bb
       0.046256345 0.046416998 -0.0041049235 -0.00685293
000200 7c d1 54 3d d4 94 9a 3d ec 57 cf bc 77 b5 97 3d
       0.051957592 0.07547918 -0.02531048 0.074076585
000210 96 53 62 bb 8e 67 37 3c aa a5 69 3d 5d 11 cb 3c
       -0.0034534684 0.011194123 0.057042755 0.024788553
000220 13 3f 88 3d c5 35 d5 3c 78 43 13 bd 6a c4 89 bd
       0.066526555 0.026026616 -0.035953015 -0.06726916
000230 0f dc 10 bd 48 fb 69 3d 3f 52 37 bc a1 21 ac bd
       -0.035366114 0.057124406 -0.011189043 -0.08404852
000240 0f f2 0e bd 6b e1 a4 bd ad 67 c7 3c 16 d2 8e bb
       -0.034898814 -0.080508076 0.024341429 -0.0043585403
000250 83 96 16 3d 42 05 b7 3d b0 f4 a8 bd 85 37 bb 3c
       0.036764633 0.0893655 -0.082497954 0.022853622
000260 e7 60 90 3d 11 7f 3a bd 41 3f 65 bd 6f c5 7d 3b
       0.07049733 -0.045531336 -0.055968527 0.0038722416
000270 5f 00 a1 3d 90 8d b1 3d 6b e0 0f 3d 3a b6 30 3b
       0.07861399 0.08669579 0.03512613 0.0026964084
000280 c6 f6 8b 3d d1 e9 12 bc 0a 20 58 bd bd a8 06 3d
       0.06834178 -0.008966879 -0.05276493 0.032875765
000290 14 24 32 bd a4 58 83 3d 19 49 ce bc 70 1d 11 bd
       -0.043491438 0.06413391 -0.02518134 -0.035428464
0002a0 1e 8c 9c bd c6 1f cc bc b9 54 9c 3d eb fe 89 3d
       -0.07643913 -0.024917495 0.07633347 0.06738075
0002b0 10 66 8b bd 3d a5 57 3c ff 84 9f bd b7 c3 43 bd
       -0.06806576 0.0131619545 -0.07789039 -0.04779407
0002c0 f3 06 74 3d 48 57 d1 3b 2d a0 a6 3d b0 20 92 3c
       0.05957694 0.0063885786 0.0813602 0.017837852
0002d0 8b 44 00 3d a4 a5 16 bd c0 70 9e bd e4 9c 2c 3d
       0.031315368 -0.03677906 -0.07736349 0.04214181
0002e0 0b c9 0b 3c 06 82 4d bc 20 00 50 3b 32 ce 79 3d
       0.008531819 -0.012543207 0.0031738356 0.06098766
0002f0 42 20 a1 bd f4 23 a8 3c 64 5e 28 bd d6 ce 7d 3a
       -0.07867481 0.020524956 -0.041105643 0.0009682005
000300 6a 2c 1e 3d ab 3d 47 bc 88 c7 8b bd ee b6 e3 bc
       0.038616575 -0.012160699 -0.06825167 -0.027797189
000310 8b 1c 43 3d 45 02 04 3d 2e b7 9f 3d 4c 00 9b 3d
       0.047634643 0.032228727 0.07798611 0.07568416
000320 2b fa bc bc 2f dc 4f bd b8 e7 23 3d a1 3e cd bc
       -0.023068508 -0.050747093 0.040015906 -0.025054278
000330 ba 3d 8f 3c c2 d4 77 3c 12 f2 8c bd 5a 03 7e bc
       0.017485488 0.015126409 -0.06882109 -0.015503729
000340 d1 dc 31 3d 38 9d 80 bd 49 5f 98 3d 5a d3 58 bd
       0.043423478 -0.06279987 0.07440049 -0.052935936
000350 c4 7d a9 bd f4 f6 f9 bc 1b dd 2e 3d 03 b6 b8 bc
       -0.08275941 -0.030513264 0.04269133 -0.022547727
000360 9a 27 86 3c 78 b5 77 3d 6d 99 83 bd 58 e3 c0 bc
       0.016376305 0.060475796 -0.06425748 -0.023545906
000370 33 e7 9f bd cd b4 a1 bd b7 f4 1e 3d 97 84 4c bb
       -0.078077696 -0.07895813 0.038807597 -0.003120696
000380 cb c0 7d bc a7 2f 5c 3d 78 58 17 3c 35 aa 54 bd
       -0.01548786 0.053756382 0.009237401 -0.051920135
000390 39 65 89 bb 16 e0 9e bd ec f1 ae 3d 0e 78 63 bc
       -0.004192975 -0.07757585 0.08542237 -0.013883604
0003a0 95 25 9c bd 4e 2a 50 bc 47 0f b7 3d fc 9b ea bc
       -0.07624356 -0.012705399 0.08938461 -0.028638832
0003b0 dc d9 a1 3d 61 50 57 bd 3e 60 5d 3b 2a b5 f2 3c
       0.079028815 -0.05256689 0.0033779289 0.029627401
0003c0 16 b2 51 3d 1c 15 83 3d 79 bf 9e bc b1 4b 8f 3d
       0.051195227 0.06400511 -0.01937841 0.06996859
0003d0 11 30 93 3d 7f bf 7c bd 26 4f 51 bd 21 f6 41 3c
       0.07186902 -0.061706062 -0.051100872 0.011838467
0003e0 1b 7d 91 3d 31 61 90 3d 2c c8 66 3d b8 a0 3c 3d
       0.0710394 0.07049788 0.056343243 0.04605171
0003f0 dc 8b de bb 09 3c 7d 3d b6 20 57 3c 22 94 08 bb
       -0.006791575 0.061824832 0.0131303575 -0.0020840247

Q1.a_head.2.bias f4 [6]
000000 c7 e5 5a bd 24 e2 35 3d 0e 5c 7b bd 6c 77 86 3d
       -0.05344179 0.044405118 -0.061367087 0.06565747
000010 82 db 08 3d 72 26 33 bd
       0.033412464 -0.043737836

Q1.v_head.0.weight f4 [128, 294]
000000 ad 9a c8 3c a0 ac b1 bc 65 db d1 bc cd 6b ca bc
       0.024487818 -0.02168876 -0.02561731 -0.024709607
000010 72 aa d4 bc 9d 5e 29 bd 79 31 0b bd 05 0b 80 bd
       -0.02596018 -0.041349996 -0.033982728 -0.06252102
000020 45 69 16 3d a0 25 38 bc bf e5 94 3c ed 2c 37 3d
       0.036721487 -0.011239439 0.018175958 0.04472058
000030 fa d3 68 bb 56 28 2b 3d 5c 9f 98 3c 32 0c 2d bb
       -0.0035526739 0.041786514 0.018630676 -0.0026404974
000040 ba 5c 7f bc f9 13 b1 bc 6d e2 fb bc 96 d1 1c 3d
       -0.015586073 -0.021615969 -0.030747617 0.038285814
000050 f9 31 54 3d 4e fd 3e 3c e7 00 5f 3c d9 79 4e bd
       0.05180547 0.011657072 0.013611055 -0.05040917
000060 48 10 44 bc c0 31 37 3c 2a 22 73 3d 8b 08 58 3d
       -0.011966772 0.011181295 0.059358753 0.052742522
000070 ec 2a e0 3c 1c 06 1a 3d 83 05 6c bd 5b 56 17 bc
       0.027364217 0.037603483 -0.057622444 -0.009236897
000080 a5 b6 cc bc 58 b6 8c 3c c9 f9 6d 3c 52 47 36 bd
       -0.024989435 0.017176792 0.014524885 -0.04450161
000090 42 ff 57 3d cd 0e 06 3d 1d 05 ba bc 16 a1 30 bd
       0.052733667 0.03272896 -0.022707516 -0.043122374
0000a0 3b 79 6c 3d b6 cb 0c bd a0 4e fc 3c 9a f6 c3 bb
       0.057732802 -0.03437396 0.03079921 -0.005980325
0000b0 79 6a 93 3a 8a e3 44 3d 41 15 aa bb 2c fb 97 bb
       0.0011246941 0.04806856 -0.005190522 -0.0046380963
0000c0 fd 11 28 3d 02 20 0d bd d6 81 52 3d 25 a9 8f bc
       0.04103278 -0.034454353 0.051393352 -0.01753671
0000d0 c4 df 1d bd 8b 71 1e bd b4 ff 0c 3d eb aa 45 bd
       -0.038543478 -0.0386825 0.034423545 -0.048258703
0000e0 ed 51 fa bc 44 63 d5 3c 3b 01 ef 3a 67 d5 43 bc
       -0.030556643 0.02604831 0.001823462 -0.011952735
0000f0 72 32 45 bb cf bf 2e 3d 18 77 74 3d 24 56 2f bd
       -0.0030089882 0.04266339 0.05968389 -0.04280676
000100 39 34 0e bd 4d 08 5f 3c 26 4d cc 3c ae c5 c8 3a
       -0.034717772 0.013612819 0.024939131 0.0015317702
000110 f9 99 00 3d 89 9d 85 3c f8 93 a5 bc 51 9a c5 bb
       0.03139684 0.01631047 -0.020212159 -0.006030359
000120 23 bd 3d 3d a1 56 e2 bc 22 64 15 3c 82 3f cd 3b
       0.046322953 -0.027629199 0.009118112 0.0062636742
000130 2d 86 03 3d 18 ae 65 3d 00 70 84 3c 78 48 f6 ba
       0.032110382 0.056074232 0.016166687 -0.0018789908
000140 b4 f1 81 3a 61 77 06 bd da 6d 65 3d 61 d2 60 bb
       0.0009913952 -0.032828692 0.056012966 -0.0034305083
000150 40 02 a2 3c 45 28 3b bd b0 e7 4e 3d 3f 51 92 3c
       0.019776464 -0.0456927 0.050513923 0.017861007
000160 4f 6f b0 3b 75 8c a0 bb b1 b8 51 3d 71 a1 e9 3c
       0.005384363 -0.0048995563 0.051201526 0.028519364
000170 c0 62 ee bc 5b 20 1f bd f5 13 38 bc 17 f0 3b 3c
       -0.029099822 -0.038849216 -0.011235227 0.011470816
000180 71 7b a0 3c af d3 7c 3b db 62 54 3d 3a 69 48 3d
       0.019590111 0.0038578322 0.05185209 0.048928477
000190 11 3c dd 3c 84 cc 28 bd d9 cd 17 3d 0f 3e 32 bc
       0.027006181 -0.041210666 0.037061546 -0.010879054
0001a0 41 f0 39 bd 26 3a 83 3d c8 b6 84 bd 4e 3b 6a bd
       -0.04539514 0.06407575 -0.06480175 -0.057185464
0001b0 fd f4 d3 bb cc 7d e8 3c 79 01 94 bc f1 ec 58 ba
       -0.006468414 0.028380297 -0.018067108 -0.0008275053
0001c0 2c 5c 29 bc ea 51 45 bd 25 c4 eb 3c ba 51 75 bd
       -0.010336917 -0.048173822 0.028780052 -0.059892394
0001d0 c3 d7 36 bc e2 47 bb bb b9 68 b9 3c 19 8d 31 3d
       -0.01115984 -0.005715356 0.022632943 0.04334745
0001e0 07 9e 22 3d ce d4 a1 3b 89 cd 9a 3c e4 d7 13 bd
       0.039701488 0.0049386984 0.018896835 -0.03609456
0001f0 61 30 e4 bc 88 0b 07 bd a5 96 8c 3c 7f 04 4b 3d
       -0.0278551 -0.03296998 0.017161677 0.049564835
000200 46 b1 e9 3c 68 86 76 3b 23 68 0e 3d b3 8e 64 bc
       0.028526913 0.0037616733 0.03476728 -0.013950038
000210 05 d2 f7 bb 2e b2 38 3c d7 bd a0 3c 8b fa 15 bd
       -0.007562878 0.01127295 0.019621773 -0.03661589
000220 10 33 8f bc c7 bb 8d 3b c5 5c 2f 3d 0c ee e6 bc
       -0.017480403 0.0043253633 0.04281308 -0.028189681
000230 4f 0c 01 bd 15 1f 4c 3c 1f 25 f1 bc 92 8b bb 3b
       -0.03150588 0.012458582 -0.029436646 0.005723425
000240 49 3d 51 3d 1c 37 a4 bb cf 45 52 bd ba 5c 8d 3c
       0.051083837 -0.0050114524 -0.051336106 0.01725613
000250 93 0b 3f 3c f5 aa 4e 3c a2 04 57 bd 0f 05 1e 3d
       0.011660474 0.0126140015 -0.052494653 0.038579043
000260 ce cb 08 bd 9c 84 dc bc bd 27 53 bd 7c 75 e3 bc
       -0.03339749 -0.026918702 -0.05155157 -0.027765982
000270 8d ca 22 bd 38 3b 58 3c 48 26 ac 3c ac 19 6f 3d
       -0.03974395 0.013197713 0.021014348 0.058374092
000280 7a 47 5d 3c b1 7a e2 3c 8c cc eb 3c 76 0f 0e bd
       0.013505811 0.027646394 0.028784059 -0.034682713
000290 25 01 74 3b 45 8a 18 3c dc cb 82 ba de 19 ab bb
       0.0037232128 0.00931031 -0.0009978968 -0.0052215895
0002a0 2a 2f 19 3d 61 21 7b 3d 3d 7f 5a 3d 11 1f 09 bd
       0.037398495 0.06131113 0.053344 -0.033476893
0002b0 14 64 81 3d 24 fc f7 3c 88 de a0 3b 41 b6 c8 3c
       0.063179165 0.030271597 0.0049093403 0.024500968
0002c0 56 ab 89 bc 2f d5 5e bd fb ec 45 3d 7f f2 a4 ba
       -0.016805332 -0.054402526 0.048321705 -0.0012584476
0002d0 46 5f 38 3d 5c 31 35 bc 4f 56 2d 3d db d2 0d 3a
       0.045012735 -0.0110591315 0.04231864 0.0005410143
0002e0 84 9f 8a bc 66 df 45 3d af 62 18 bd 74 b6 61 3d
       -0.016921766 0.048308752 -0.037203487 0.05510564
0002f0 16 9f 2f bc 5e 32 06 3d 38 97 a8 3c e8 1a 0c 3d
       -0.010719081 0.032762878 0.02057992 0.034205347
000300 d1 0d 01 3d dd ee 33 bd fa 34 7e 3c 65 53 77 3d
       0.031507317 -0.04392897 0.01551556 0.060382266
000310 e9 52 65 3d bb 17 83 3c 19 6c d3 3c 9b 44 10 3d
       0.055987272 0.016002527 0.02580838 0.035221677
000320 01 fd eb 3c 16 fb 5f bb 8c fb 0e bd c5 f4 7a 3d
       0.028807165 -0.0034176758 -0.034907863 0.061268587
000330 4f d6 16 3d a2 ea 42 3d d4 3f 10 39 f2 7b cb 3c
       0.036825474 0.047587045 0.00013756688 0.024839375
000340 9d dd 32 bd 1a 07 8c 3d 55 ab 27 3b 03 c1 81 bc
       -0.04366838 0.06837292 0.00255843 -0.015839105
000350 e8 52 1f bd 1b 99 bc bb b1 5e 9f bc f3 a2 08 3d
       -0.038897425 -0.0057555563 -0.019454332 0.033358525
000360 79 72 80 bc d7 e8 06 3c ff d4 e9 bc 02 48 6c 3d
       -0.015679585 0.008234224 -0.028543947 0.05768586
000370 4c 63 3c bd a4 77 4a 3d 03 6d 23 bd 72 77 0b 3d
       -0.045993134 0.049430504 -0.039898884 0.03404946
000380 03 e9 8e ba c0 a2 cf bc 04 32 63 3d 0f d1 55 bd
       -0.0010903183 -0.02534616 0.05546762 -0.052201327
000390 b5 f3 57 3d b3 b9 2e bd 86 77 8e 3b bd 7e 92 bb
       0.05272265 -0.042657565 0.0043477444 -0.004470675
0003a0 9a 10 64 3d ee 3e 99 3c 19 ca 84 3c 73 4e 8a 3c
       0.055679895 0.018706765 0.016209649 0.01688311
0003b0 3d 10 4b 3d 5d d4 74 3d 57 a9 5d 3d f1 e3 5b bc
       0.049576033 0.059772838 0.054116573 -0.013421045
0003c0 8d 2f f2 bc 57 ad 8b bc 00 35 4e 3c f2 a1 2b 3d
       -0.02956369 -0.017050428 0.012585878 0.04190249
0003d0 db db 3e 3d c0 6b 25 bc fd 5f 67 bd 7b 3f 0f bd
       0.04659639 -0.01009649 -0.056488026 -0.03497265
0003e0 95 28 41 bd 98 39 92 bb 4c f4 01 bd 73 2c 47 bd
       -0.047157843 -0.004462432 -0.03172712 -0.048626374
0003f0 68 ec c1 3c 46 9e e8 bc 5a eb f5 3c cf 2d 45 3b
       0.023672298 -0.028395783 0.030019451 0.0030087119

Q1.v_head.0.bias f4 [128]
000000 fa 0a 33 3d cb 84 24 3d c4 f8 fe bc 49 f4 4b bb
       0.04371164 0.040165704 -0.03112448 -0.0031120947
000010 c7 b5 a3 3c b4 4e 28 3d 23 7d 69 3d 41 e4 39 3c
       0.01998414 0.041090682 0.057004105 0.011345924
000020 1d 92 fe bc f7 52 19 3d b1 8c 07 bd 95 cb e5 3c
       -0.031075532 0.037432637 -0.03309316 0.028051177
000030 70 e8 be 3c 56 e7 c3 3c c8 82 04 3d ef d4 85 bc
       0.023304194 0.02391402 0.032351285 -0.016336886
000040 be 5c 18 bb 5f fc 9f bc 23 69 5f 3d 03 a2 73 3c
       -0.0023248638 -0.01952952 0.054543626 0.01487017
000050 88 0f dd 3c b4 3f c3 3c c5 a0 e9 bb 0d aa 57 3c
       0.026984945 0.023834087 -0.007129761 0.013163102
000060 f1 a0 65 3d 79 5a 49 bd ec 77 89 3c dc 2b e8 bc
       0.05606169 -0.049158547 0.016780816 -0.028341226
000070 f2 60 62 bd 62 ea 00 bd df a5 48 bd 00 91 d7 bc
       -0.055268236 -0.031473525 -0.048986312 -0.026314259
000080 12 4c 6f 3c 68 7d 01 3d 3b 32 24 3d 48 b2 ea bc
       0.014605539 0.031613737 0.040086966 -0.028649464
000090 0f bb df bc e1 44 04 3d 52 25 48 bc 00 9c 2d 3d
       -0.027310876 0.03229225 -0.012215929 0.0423851
0000a0 da 77 0c 3c 14 d2 31 3c a1 92 15 bd 9e ed 0e 3d
       0.008573497 0.010853309 -0.03651679 0.03489458
0000b0 3d bb 04 bd 05 fd c9 3b a5 02 67 bd aa 0a d0 3c
       -0.032405127 0.0061641955 -0.056399006 0.02539571
0000c0 de 1d 69 3b 77 95 41 bd 47 98 40 3d 90 67 60 bd
       0.003557078 -0.04726168 0.047020223 -0.054786265
0000d0 ba ec 88 bc 1a 97 a3 bc a3 17 41 3a 43 a7 4a bb
       -0.016714443 -0.019969512 0.0007365888 -0.003092245
0000e0 8b 27 00 3d 15 e8 fa 3c 78 94 ef 3c ea f3 bd bb
       0.03128771 0.030628243 0.0292456 -0.005796899
0000f0 14 f3 4a 3d 7a 7e b4 3a e6 2f 83 3c de 41 08 ba
       0.049548224 0.0013770603 0.01601405 -0.0005197803
000100 93 f7 0c 3d be 93 68 bd 91 81 2c bd f1 c1 2d 3d
       0.034415793 -0.056781523 -0.04211575 0.042421285
000110 da 9f c3 bc e9 50 f8 3c 79 1a 08 3d ab ba 16 bd
       -0.023879934 0.030312018 0.03322837 -0.036799114
000120 53 d1 d1 bb ee b1 46 bd 8d 5f c7 bb b1 49 4e 3c
       -0.006403127 -0.04850953 -0.0060843886 0.012590812
000130 1a f1 07 bd 46 c3 b0 3c 3c 7f 02 3d 34 1b a8 bc
       -0.033188917 0.021577489 0.03185962 -0.020520784
000140 f3 0d a9 bc 72 be aa 3c 0a c7 6e 3c d6 26 1f bd
       -0.020636534 0.020842765 0.014573822 -0.038855396
000150 3b 69 3a bd d7 3a a4 bc 8c 42 5a 3d 35 f2 2f 3d
       -0.04551051 -0.020047588 0.05328612 0.042955596
000160 55 ea 88 3b 18 50 17 3b 49 4b d4 bc 78 a7 e0 bc
       0.004178325 0.002308851 -0.025914805 -0.027423605
000170 60 10 fd 3b 8c 9a 4f 3c 5b d5 09 3d f9 e5 eb 3b
       0.0077228993 0.012671124 0.033650737 0.0071990457
000180 d8 80 16 3d 24 d5 34 3d 10 64 24 3d 6f 2b 9d 3c
       0.03674397 0.04414858 0.04013449 0.01918575
000190 90 e0 5d bd 84 36 f6 3c ad 3f 4b bd 18 2c 19 bd
       -0.054169238 0.030055292 -0.049621273 -0.037395567
0001a0 2d 78 10 3c 1e cc 93 bc 4f c0 31 3d 11 4d 63 bd
       0.008817715 -0.018041667 0.04339629 -0.055493418
0001b0 1d c0 f9 3b b5 8e 37 bd a5 cc 2d bc 6a d3 06 3d
       0.0076217786 -0.04481383 -0.010607873 0.032916464
0001c0 0e 06 3c 3d 9b 2f 59 3d 8d fe 88 3c fe 7b c9 3c
       0.04590421 0.053023916 0.016722942 0.024595257
0001d0 08 d5 7f 3d ce 1e fd ba 53 b2 04 3d f3 22 2d bd
       0.06245902 -0.0019311549 0.032396626 -0.04226966
0001e0 4b bd aa bc 4d 81 62 bc 45 6b 5e 3d 6d 3e 15 bd
       -0.020842215 -0.013824773 0.05430152 -0.036436487
0001f0 a3 ad 40 bd 81 e1 70 bb 68 97 83 3c ec 18 b1 bc
       -0.047040593 -0.0036755505 0.016063407 -0.021618329
