models_decentralized/final/target_critic_5_3700.pth (torch, 631787 bytes, 26 tensors)

Q1.conv.net.0.weight f4 [3, 31, 3, 3]
00000000: 2c51 0dbe 1eb2 b0bd abb3 64bd 5088 fabd
00000010: 1698 343d a072 cfbd 1693 5bbe 8d84 e4bd
00000020: 84b5 2c3c afe9 89bd e448 a1bd f411 c5bd
00000030: 3472 bfbb c46d 1abe 7cc9 16be 4524 48be
00000040: 1fb9 963d b1c8 08bd 83bb 903c dc60 23be
00000050: 1e49 f8bd 913f 113d 332d 89bd 907a 1dbe
00000060: c332 10be 4cb9 37bd 64c1 643d bfa1 08be
00000070: 32fd 0dbe acf4 d83c c519 0fbe b07f d0bd
00000080: b160 4a3d 82b0 cdbd c69d a83c ee7a 073c
00000090: 4cc4 d2bd ee64 28be 7e50 d7bd 814c b4bd
000000a0: 7a6e ec3d dc12 d0bd 6371 b73c c832 a0bd
000000b0: 3396 cabd 41dd 11be e8b4 12bc 6957 0abe
000000c0: 67dd 1e3e f853 96bc c580 213e 1516 07be
000000d0: bd2f 893d c0d2 a1bd 605d 1bbd 0206 083e
000000e0: 9965 393c 1676 943d 945a 2a3e 8ca1 c83d
000000f0: 4e5f debd bfb0 163e 42b8 20be 52ed 993d
00000100: 68bd f93d 823e 983d 1561 903c 4400 993d
00000110: be74 313d 04a5 54bc f37b a13c 8601 90bb
00000120: 39c2 04be 139a f93d e374 af3c afa1 2b3e
00000130: e87a 943d da54 113e 923b 00be 8058 f03d
00000140: 8f27 28be 312e 1f3d 0a7c 933d 6b77 09be
00000150: f6c4 d8bd 9080 da3d 4a55 07bd 82fb 9fbd
00000160: 35bc e73d 369f 4f3d 909b cdbd 80df 1cbd
00000170: b087 38bd 2929 3a3d 975c 9cbd dc75 0c3e
00000180: 1718 85bc 7739 9a3c 6cb1 1ebe b161 05bd
00000190: fb70 a63d aa3a 26be 8064 243d 4ffe 2cbe
000001a0: 5c05 d83d c550 e1bc ba09 82bd 30ee 3cbd
000001b0: 7ffd 523d 2028 6a3d e480 6a3d 07cc 103e
000001c0: 95ac 45be 6ace 8dbd c654 35be 7229 2cbe
000001d0: 3184 b8bc a816 97bd 1e3a 403d 1820 e13d
000001e0: 645b 8bbd 7af7 673d 76a0 833d ecb8 b9bd
000001f0: 026f edbd 4613 2bbd ed0c bdbd 0c53 d13d
00000200: f4a3 f1bd d10b 10bd 8aa4 c83d a03b ce3d
00000210: d826 07be 18b6 35be e77e 37be a312 09be
00000220: dbc1 5a3d dfdf 13be a147 13bd 075a 02be
00000230: ae08 14be 770f d8bd 0cb9 17be 102f 2e3c
00000240: 0da7 07be a46d 0bbe b442 3dbd 2fbe 0e3e
00000250: 08fd e93d 6ca4 b43d 7ad8 8fbd 285c 1bbe
00000260: 6e1e 31be 0b22 613d 0fc0 18be b2eb 7ebc
00000270: f7f7 123e 4490 a23d 22d6 13bc f308 c4bc
00000280: 3ff9 bfbc ce05 b5bd 3323 2bbe 697e b9bd
00000290: 7ff1 46bd 42f9 2e3e 61f8 c8bd 6fed b3bd
000002a0: e837 4abc 933b 76bd a924 d8bd cecf 01bc
000002b0: 26f7 a7bd 7a17 1dbe 4085 0b3e c98e 3cbd
000002c0: ba4d d4bd bfbf f4bd a591 02be b0f8 e33c
000002d0: 4868 b13c a070 1e3e 6814 a4bd bd84 673d
000002e0: 88e3 083b c99d 03bd 3b36 ffbd eb95 94bd
000002f0: ac34 d8bc d585 15be 49d5 3b3e f3ad 59bd
00000300: d6af ea3d b057 8d3e 9573 ec3d 07cc 0ebe
00000310: ba3b 183e 892d 0a3e c8ec 11be 07a6 023e
00000320: 8580 c53d 43d6 483d f300 2e3e c507 b8bd
00000330: 737e b1bd e029 223e ec77 6dbd 7dd5 a83d
00000340: 680c 153e f392 983d 725b 1e3e c7ce 9e3e
00000350: 33ca 0dbd 404c 7cbc e899 febd 1c42 983d
00000360: 4b88 bb3d 6770 0bbe 456d a2bd ccec e03d
00000370: e618 7cbd 1af9 6d3e bd2d 0e3e 2e90 053e
00000380: 6e37 babd 30a1 22bd d572 e8bc d038 583d
00000390: 3447 d4bc 5bb0 91bc e958 62bd 4a90 663c
000003a0: 12b7 7dbd 3474 123d 2d92 113e 2f89 023e
000003b0: 2c4c 0f3e d31a 2e3d 3be0 383d 260e 97bc
000003c0: 4d9f 50bd 6f73 cebd c55a 143e 28f9 98bc
000003d0: 2527 e2bd a337 0ebc df08 f6bd 5369 45bd
000003e0: 0212 bdbd e003 c93d ffee 573c 4952 d63d
000003f0: 8f9e c83d 584c c6bd f9ad 973d 6831 20bd
-0.13800496 -0.08627723 -0.055835407 -0.12233031 0.044090353 -0.10129285 -0.21442828 -0.111580946
0.010541324 -0.06734025 -0.07875231 -0.09622565 -0.0058424715 -0.15080935 -0.14725298 -0.19545086
0.07359528 -0.03339452 0.017667538 -0.15954918 -0.12123321 0.035461012 -0.06698074 -0.15378785
-0.14081864 -0.044854447 0.055848494 -0.13342951 -0.13866118 0.026483856 -0.13974674 -0.101806045
0.04940862 -0.10043432 0.020583045 0.008269055 -0.10291347 -0.16444752 -0.105133995 -0.088036545
0.11544509 -0.10159847 0.022392934 -0.07822186 -0.098919295 -0.14244558 -0.008954264 -0.13509907
0.15514146 -0.018350586 0.15771778 -0.13192017 0.066985585 -0.079015255 -0.037930846 0.13283542
0.011315727 0.072490856 0.16636115 0.097964376 -0.10858022 0.14715861 -0.15695289 0.075159684
0.121943295 0.074337974 0.017624417 0.07470754 0.043324225 -0.012978796 0.019712424 -0.004394713
-0.12964715 0.121875905 0.02141804 0.16760896 0.07250005 0.14192525 -0.12522724 0.1173563
-0.1642134 0.03886241 0.07201393 -0.1342446 -0.10584442 0.106690526 -0.033040322 -0.07811643
0.113151945 0.050688945 -0.10039437 -0.038299084 -0.045051277 0.04544941 -0.076348476 0.13716835
-0.016246838 0.01882623 -0.15497369 -0.03256387 0.08127018 -0.16233316 0.040134907 -0.16893886
0.10547897 -0.027504334 -0.063495114 -0.04612559 0.051511284 0.057167172 0.057251826 0.1414033
-0.19304116 -0.06924136 -0.1770812 -0.16812685 -0.022523971 -0.07377368 0.046930425 0.109924495
-0.06804541 0.056632496 0.0642709 -0.09068474 -0.11593439 -0.041766427 -0.09230981 0.10220918
-0.1179885 -0.03516752 0.09797008 0.10069966 -0.13198411 -0.17745245 -0.17919503 -0.13386016
0.05340753 -0.14440869 -0.035956983 -0.12729655 -0.14456436 -0.10549825 -0.14816684 0.010631338
-0.13247319 -0.13616043 -0.04620619 0.13939737 0.11425215 0.088204235 -0.070237115 -0.15171874
-0.17296764 0.054964107 -0.14917015 -0.015559124 0.14352404 0.07937673 -0.009023221 -0.023930049
-0.02343428 -0.08838998 -0.16712646 -0.09057314 -0.048570152 0.17087272 -0.098129995 -0.08785521
-0.012342431 -0.06011541 -0.10553867 -0.00792308 -0.08201437 -0.15340987 0.1362505 -0.046034608
-0.10366388 -0.11950635 -0.12750871 0.027828544 0.02165617 0.1547265 -0.08011705 0.056523073
0.0020887572 -0.032132898 -0.124615155 -0.07255157 -0.026392303 -0.14601834 0.1834308 -0.053144407
0.11459319 0.27605963 0.11545483 -0.13945018 0.14866534 0.13493933 -0.14250481 0.12758647
0.09643654 0.04903246 0.1699255 -0.08985857 -0.086666964 0.15836287 -0.057975695 0.08243845
0.14555514 0.07449903 0.15464571 0.31017134 -0.03461666 -0.015399039 -0.12431699 0.07434484
0.09156855 -0.13617097 -0.07930998 0.109826654 -0.061547183 0.23239556 0.13884635 0.13043281
-0.090926036 -0.0397045 -0.028375069 0.052788556 -0.025912859 -0.017784288 -0.055260573 0.014072487
-0.061942168 0.03575535 0.14215918 0.12747644 0.13993901 0.04250605 0.045135718 -0.018439364
-0.05093317 -0.10080611 0.14487751 -0.018673494 -0.110426225 -0.008680257 -0.12013411 -0.048196148
-0.0923195 0.09815192 0.01317954 0.104649134 0.09795868 -0.0968253 0.074062295 -0.039109617

Q1.conv.net.0.bias f4 [3]
00000000: e3ee 27bb 0b56 733d 9508 763d
-0.0025624565 0.05940823 0.06006678

Q1.conv.net.3.weight f4 [6, 3, 3, 3]
00000000: 95bf 18bd 9388 233e f8b0 8fbe 78ee 753c
00000010: 36af e73e 12ed 053f fed0 653e 9aa8 c5be
00000020: 9725 aebd f784 ea3d 5cc9 7abd 87ce f83e
00000030: 7663 fe3e bc16 48be b956 f63d 468f a83e
00000040: 02e6 053d dc03 89be a987 8c3e 4146 52be
00000050: 7375 443e 183c c0be c95b 553e 7102 d23a
00000060: f4f5 80be 0407 dabe 7acf 9e3e 9608 d03c
00000070: 142e c73d 02e5 d7bc 7469 b3be 2cfb 023e
00000080: 24f4 46be b1b1 84bd ea3e 463d a75a ee3e
00000090: f826 fe3d f58b 7a3e 46df 813e 1f0d 3c3c
000000a0: 34a2 f83c 9992 8a3e 7f72 8bbe 305a 853e
000000b0: 5a82 ee3d 08c3 20be bb63 dabd c89f cc3e
000000c0: 58c1 d63e b4b5 1f3e b338 2cbe b03e 9f3e
000000d0: 1648 4fbd d6aa 9dbe 7df9 563e 9ac5 90bd
000000e0: 30f8 f4bd 2ecd 523d e129 5e3e 5445 81be
000000f0: e5ba 163d f52f d53d 7904 6ebe c985 08bf
00000100: 1251 19be 8987 74bb 4820 ef3d 3bd9 67bd
00000110: 5bdc 08bf d0a8 c83e b424 32bd 0914 193d
00000120: f27c 423e 28bf d1be f79d 3cbe 6213 9c3e
00000130: 5154 91bd 3df8 6e3e d304 b03e af73 30bd
00000140: 75e4 1b3e af6f 8fbe d8bd 283e 0dfa 86be
00000150: c17c 5cbe e1b3 81bd 0369 86be 7395 ba3e
00000160: 7b17 ab3e 1d6b d13e 7799 693e 4108 eb3e
00000170: f534 8f3e 7cad d43e 930b dc3e f212 afbe
00000180: 471f 833c 5fec 803e 7cd5 f1bd d16f e33e
00000190: df77 9dbe 2a96 c33e d05f d73e 6773 fbbd
000001a0: fded ce3e 8685 b3be abec fa3d c8b1 6c3d
000001b0: 10e2 59be 0d09 8dbd ea01 8bbe 7fbe 733e
000001c0: 071b 0a3f 0f02 b53e 3cab e4bd ec21 84bd
000001d0: 0972 83be cddc b4bd 4318 da3d 5c56 8c3d
000001e0: 84d0 823e 6d35 61bd cc35 89be b4e6 043f
000001f0: 67e7 cf3e 4cc6 373d dcbb d93e 3a30 8cbc
00000200: 9f5a 1ebe 4b3c 74bb c1c0 9e3d 21ed bf3e
00000210: 7b61 bd3d 9f48 123e 6edc 963e 0e49 143f
00000220: a4c4 073f be70 54bd 1286 6fbc 02da eb3e
00000230: d61f 2ebe adb4 253d 561a 56be 7e51 35be
00000240: 5660 b0be c749 abbe 20bd 9d3e 0b73 043f
00000250: c763 b53e 763f 093e 5f23 63be e1ae af3e
00000260: 8c9d 90bd 882e f53c 4ed5 53be 6380 983e
00000270: 3935 27be 3a5f 0b3f dae7 bc3e be9c 37be
00000280: ae6d 69be bdd6 b03e
-0.037292082 0.15970068 -0.28064704 0.015010469 0.45250863 0.52314866 0.22443005 -0.38605195
-0.085032634 0.11451142 -0.061227188 0.48595068 0.49685258 -0.19539922 0.1202826 0.3292181
0.032690056 -0.26760757 0.2744725 -0.20534612 0.19185428 -0.37545848 0.20835795 0.0016022456
-0.25187647 -0.42583477 0.31017667 0.02539472 0.097255856 -0.026354317 -0.35041392 0.12791127
-0.1942907 -0.064792044 0.048399843 0.46553537 0.124097764 0.24467452 0.25365657 0.011477738
0.030350782 0.2706497 -0.2723579 0.2604537 0.11645956 -0.15699399 -0.10663553 0.39965653
0.41944385 0.15596658 -0.16818504 0.31102514 -0.050605856 -0.307944 0.2099361 -0.070689395
-0.119614005 0.051465206 0.21695663 -0.25248206 0.03679933 0.10409538 -0.23243894 -0.5332914
-0.14972332 -0.003731223 0.11676079 -0.05660365 -0.53461236 0.39191294 -0.043492034 0.037372623
0.18992975 -0.40966153 -0.18419634 0.30483538 -0.0709616 0.23336883 0.3437868 -0.043079074
0.15223868 -0.28014895 0.1647867 -0.2636265 -0.21531965 -0.06333137 -0.26251993 0.36442146
0.33416352 0.40902033 0.22812448 0.45904735 0.2797009 0.41538608 0.4297758 -0.34194142
0.016006125 0.25180337 -0.11808297 0.44421247 -0.30755517 0.38200504 0.42065287 -0.122778706
0.40415946 -0.35062808 0.12252172 0.057786733 -0.21277642 -0.06886492 -0.27149898 0.23803137
0.5394749 0.35353133 -0.11165473 -0.064517826 -0.2567294 -0.08831177 0.10649159 0.06852409
0.2554971 -0.05498259 -0.26798856 0.51914525 0.40606233 0.044866845 0.42526138 -0.01711284
-0.15464257 -0.0037267383 0.07751609 0.37485602 0.092471085 0.14285515 0.2946505 0.5792397
0.53034425 -0.05186533 -0.014619367 0.46064764 -0.17004332 0.04045551 -0.20908484 -0.17706868
-0.34448498 -0.33454725 0.30808353 0.5173804 0.35427687 0.13403115 -0.22181462 0.3431311
-0.070613 0.029929414 -0.20686838 0.2978545 -0.16328897 0.5444218 0.3689564 -0.17930886
-0.22795746 0.34538832

Q1.conv.net.3.bias f4 [6]
00000000: 1538 0f3d e13f 83bb f1ea 88bd 0fe7 e23d
00000010: 1a42 8c3d 92a3 0a3e
0.034965593 -0.0040054177 -0.066854365 0.11079227 0.06848545 0.1353896

Q1.conv.net.6.weight f4 [6, 6, 3, 3]
00000000: 0717 a63e 0e64 68be 8e3d 34be 6340 a93e
00000010: ff43 d63c 42e5 5d3e ac3f d3bd 4037 153e
00000020: fedb d83d 16d1 313d 4e84 21be 0b25 683e
00000030: 84db 6c3e 0912 c8bd c72d 1fba 1e1c cdbd
00000040: 8b95 9c3d f9ff 613e f53f 56be 2be1 6a3e
00000050: 597a 1f3e 5734 3fbd 8e7a dc3d 0d5e ca3d
00000060: f592 0cbd 316e 83bd 2bcb 1abe 1f49 28be
00000070: c77c b23e cfec 9f3e 83b0 2f3e 73f4 683e
00000080: 8ca1 42bd 4fad 8e3c 3ee6 17be 5fef ae3e
00000090: 2188 1f3e 722f 353e 1ce3 d53e 6df7 d2ba
000000a0: 3d68 13be 6dc6 11be db13 1d3e ee7f 2a3e
000000b0: e887 ea3d bdda 813e d0c3 293c eb0d 26be
000000c0: 8be8 153e ca3c af3e 9c9c d93d d4db b33e
000000d0: c8b4 e53e bcba ca3e d4cc 58be 45e1 58be
000000e0: 566d 183e 44f8 883e 81ac 83be 098f 1d3e
000000f0: 2492 493e 9720 dbbd d5aa df3d d475 42bc
00000100: a656 1dbe 032a 36be 7ee1 d7bd b814 45be
00000110: b10f b0bb 4150 26bd 9734 11be c481 fd3d
00000120: 8f8e 933e 6384 8e3e e081 71be 87f2 3f3e
00000130: 6a10 d33d d284 8ebd 24d3 923e bed2 b63e
00000140: 34f8 64be 2402 40be 5989 683d c9bb 523c
00000150: 5f38 11be 0b25 d0bd a4a3 383e c9c5 8d3e
00000160: 1366 af3e e129 81be 5367 863e 6479 513d
00000170: 1d15 f63d eaa4 bc3c c72c d0bd 5352 993d
00000180: 4988 523e f7f4 4c3e 0e86 bd3e e113 57be
00000190: d206 0dbe 6805 4bbe 3fa2 e33d 063d 6bbe
000001a0: 02ac 06be 8fb4 83be f4ab 063e 5f1b 843e
000001b0: 3cf8 b03e f7ab 903e ff97 8b3e 6baf 5d3c
000001c0: 2a21 f5bd 7207 143d 831a 453e 7c69 63bd
000001d0: 2954 fc3d 5ad0 a33e d180 983e e922 07be
000001e0: 2422 e3bd 8d2f 54be bc43 66bc 970f 2a3e
000001f0: 0d1b 4abd 6a0d b93e be4b ca3d a0fd ecba
00000200: 519c ad3d 2c56 88be 9eae 023d 47fb 813e
00000210: d027 00be aa85 afbe 9435 b63d 83e5 75be
00000220: 04e9 043e dc15 553e 5bc3 983e 4c91 2abe
00000230: 0afb 853e 00a7 1abe 0b04 913e b070 603d
00000240: 4b2f 80bd 2d52 cdbd 799c ac3e d769 dcbd
00000250: 83f5 c13e b0ef 07be 2acb 5fbe a16c 5cbd
00000260: bb02 9f3d 6fd7 78bc 943c 89be 028e 75bd
00000270: ef71 52bd de62 85be 5050 17be d20c c93e
00000280: 6454 a03d 3cc8 8e3e 153b 883e 13a8 243e
00000290: 5134 213e 2a5d 59be 22ed adbd fcd0 673c
000002a0: f81f c03c a8e7 913d 79e2 12be f284 bd3e
000002b0: 694f 20be 6013 4cbe 8e1f 46be a8fd 64be
000002c0: baf5 983e 1310 0d3c fe6e b63d 9c48 b03d
000002d0: be07 3ebd 50a6 94be 4ae5 7d3e 0a25 bd3d
000002e0: 9bc5 a6be b301 a43e bfc3 89be b045 a63c
000002f0: 411d 4f3e cf38 2c3e dd75 b73c 9c73 c93d
00000300: e5d5 823d f5b2 ee3d 94b0 90be 9f3c 1bbe
00000310: b1fd a83e 9bcf 36be ff23 683e 980c b23c
00000320: 1f84 5ebe da2b 6fbe 3229 893e 3848 58be
00000330: e978 03be 459e 553e 4cec 6e3e db00 5d3e
00000340: b4d3 10bc 79a7 1cbd 779f 82bd 797b 8e3e
00000350: 3539 cbbd 63f0 e3bb e9cd 15be a80b 96be
00000360: b0f1 e33c 4369 883e e9df 6f3e 4464 70be
00000370: 6be7 093e 4f5c b0bd 0940 a03e e0bc 0ebe
00000380: 9705 15bd 9a92 803e 9f34 1c3e f65d 9b3d
00000390: e77a 35be 6854 24be d99d 23be 452c 80be
000003a0: 1d2d 9a3e 1ed1 9ebe b562 7ebe 17c3 343e
000003b0: 2d8f cfbd 48c3 30be 5f95 13be 80fb a93e
000003c0: 1182 233e e43e 8f3e b0be e3bd 7258 a83d
000003d0: 89f8 86be 6c13 1dbe b60a d4bd 9e8c 0c3e
000003e0: 3179 973e 95ca 603e a681 ecbd 2927 21be
000003f0: aba0 ba3d 987c ab3e 9508 8a3e fe40 953e
0.32439443 -0.22694418 -0.17601606 0.33056936 0.02615547 0.21669486 -0.10314879 0.14571857
0.10588835 0.04341229 -0.15773126 0.22670381 0.23130614 -0.09769065 -0.000607219 -0.100151286
0.076457106 0.22070302 -0.20922835 0.22937457 0.15574016 -0.046680775 0.10765563 0.0988122
-0.034319837 -0.06417502 -0.15116565 -0.16434143 0.34860823 0.31235358 0.17157178 0.227495
-0.047517344 0.017416624 -0.14833924 0.34167 0.15579273 0.1769388 0.41774833 -0.0016095467
-0.14395232 -0.1423585 0.15339606 0.16650364 0.11451703 0.25362197 0.010361627 -0.16216247
0.1463949 0.34226066 0.10625574 0.35128653 0.44864488 0.39595592 -0.21171886 -0.21179684
0.14885458 0.26751912 -0.25717548 0.15386595 0.19684654 -0.106995754 0.109212555 -0.011868913
-0.15365085 -0.17789464 -0.10541056 -0.19246185 -0.0053729643 -0.04060388 -0.14180218 0.123782665
0.288197 0.27835378 -0.235847 0.1874486 0.10305865 -0.06958927 0.28676713 0.3570766
-0.22360307 -0.18750817 0.05677161 0.012862154 -0.1418166 -0.101633154 0.18031174 0.2768996
0.34257564 -0.25227264 0.26250705 0.051141158 0.12015746 0.023027856 -0.101647906 0.07486405
0.20559801 0.20015322 0.37016338 -0.21003677 -0.13772133 -0.19826281 0.1111493 -0.22972497
-0.13151553 -0.25723693 0.13151532 0.25802132 0.34564388 0.282562 0.272644 0.013530592
-0.11969216 0.036139913 0.19248395 -0.05552052 0.1232074 0.31994897 0.2978578 -0.13196911
-0.11090496 -0.20721264 -0.014054235 0.1660751 -0.049342204 0.36143047 0.09877728 -0.0018080957
0.084770806 -0.26628244 0.03190481 0.25387022 -0.12515187 -0.34281665 0.08896938 -0.24013333
0.12979513 0.2080912 0.29836544 -0.16656989 0.2616809 -0.15102768 0.28323397 0.054794967
-0.062590204 -0.100254394 0.3371313 -0.10762375 0.37882623 -0.13275027 -0.21854845 -0.053814534
0.07764193 -0.015188082 -0.2680403 -0.059949882 -0.051378187 -0.26051992 -0.1477673 0.39267594
0.07828596 0.27887142 0.26607576 0.1607974 0.15742613 -0.21226946 -0.08492495 0.014148947
0.023452744 0.07124263 -0.14344205 0.37015492 -0.15655293 -0.19929266 -0.19347975 -0.22362387
0.29874974 0.008609789 0.08907889 0.08607599 -0.046394102 -0.29033136 0.24794498 0.0923558
-0.32572636 0.32032546 -0.26907155 0.020296901 0.20226003 0.16818546 0.022395069 0.09836504
0.063884534 0.11655227 -0.28259718 -0.15159844 0.3300605 -0.17852633 0.22669981 0.02173452
-0.21730088 -0.23356572 0.26789242 -0.211213 -0.12839092 0.20861156 0.23332328 0.21582358
-0.008839536 -0.038245652 -0.06378072 0.27828577 -0.09923021 -0.0069561466 -0.1462933 -0.29305768
0.027825207 0.26642808 0.23425259 -0.23475748 0.13467185 -0.086113565 0.31298855 -0.13939238
-0.036382284 0.25111848 0.15254448 0.07586281 -0.17722665 -0.16047823 -0.15978183 -0.25033775
0.30112544 -0.3101892 -0.24842341 0.17652546 -0.101347305 -0.17261994 -0.1441245 0.33199692
0.15967585 0.2797767 -0.11120355 0.082199946 -0.26361492 -0.1533944 -0.103536054 0.13725516
0.2958465 0.21952279 -0.11548166 -0.15737595 0.09112676 0.33493495 0.26959673 0.29151148

Q1.conv.net.6.bias f4 [6]
00000000: 482b d13d b6c8 eaba 0834 af3c 4133 a8ba
00000010: 66df 8ebb d2bd 983d
0.10213333 -0.00179126 0.021387115 -0.0012832658 -0.0043601273 0.0745808

Q1.a_head.0.weight f4 [128, 294]
00000000: 6b9c 213d ec28 a43b b304 643d 3133 b0bc
00000010: 56ff 0c3d 4970 5ebc ae4a 073d 76a4 07bd
00000020: 0e81 2b3d ff39 053c 289c 0c3c 184a 113d
00000030: 4477 41bd 4a95 55bd 4443 7dbd 9e48 e33c
00000040: 0267 173c cd89 e8bc f6a7 6a3d 2c90 5ebd
00000050: b62f 5dbc 1587 063d 4eba bfbc 5833 1a3d
00000060: 00ca 2dbd f9b4 3a3d d257 443d 60fb 40bd
00000070: e399 3cbd ed7e e5bc 4d61 0bbc 7786 0bbd
00000080: 350a 873c f9c3 7cbc 319b 2b3d 598f bf3b
00000090: 8542 0cbd 897e 623d 7a36 fa3b 294f 863c
000000a0: af83 0cbd 78da b9bc 2e16 3ebc 8ba5 1b3d
000000b0: f18c 6f3c 21c4 033d f8a2 45bd b760 ba3c
000000c0: 3036 193c b857 ddbb 3c33 163c a9ac 823a
000000d0: de48 523d d5a1 2fbb ccdf 163a 58f6 013d
000000e0: cc80 183d 981e bcbc 7fbc c8bb 872c 6ebd
000000f0: bce0 533c 53de dfbc 14bc 0c3d f2bc 0dbd
00000100: e0ba 9a3b 939d 58bd b5ec a83b cf9a 43bd
00000110: 3cf6 20bd 2fb2 9eba 99f1 733b 654b 6d3d
00000120: 4a31 063c bad3 1c3d c413 b5bc fd22 113d
00000130: f20b 3abd c526 233d 3f13 bebc 6888 6a3d
00000140: 4aa2 be3c e1f3 523c 61b6 c23c 5e4f 583d
00000150: dda1 31bd e52d 34bd b052 c03c 2f5a 35bc
00000160: ff70 ad3c 2953 4e3d ea3b 6b3d fea6 41bb
00000170: 4dff ba3c 8c43 453d ea28 dabc c0f0 f4bc
00000180: f42c e43c 2813 d3bc f850 7cbd 9244 5fbd
00000190: 9f50 d9bc a0fa 58bd fef3 f93b 65e6 313c
000001a0: 988f 123d de15 9f3c 7f09 23bd d684 a93c
000001b0: 1772 31bd c26e 1bbc 5887 063d 4bad 043d
000001c0: f69e 373d f64f e2bc 4a08 1bbd 6e21 d33c
000001d0: 6f1e 183d b392 8f3c a2ca 2abd 134f 373d
000001e0: c1fe 643d d012 ef3c 75e5 7abc 51ad 3b3d
000001f0: 9b65 08bd 7495 17bc 1cc5 343d 3eed 4e3a
00000200: e677 31bc ef1d fb3c de3a 3f3d c3c8 4f3c
00000210: ff99 0f3c d7e3 2fbd 461b f23c b206 62bd
00000220: 691c 1e3d 13e3 babc 905e 433d 0c64 043d
00000230: 5a89 7e3c 834c 1e3c dc96 cfbc c485 2b3d
00000240: 7b9a 593d 2750 803d 8a15 563d 16ce c7bb
00000250: 362f 4b3d 0362 043d 9608 e5bc a778 073d
00000260: 44ae 243c dfde 1dbb 874c 4b3d 1ad0 0c3d
00000270: a51c 653b f4a0 603b a9b2 03bc 4a99 55bd
00000280: 1caf 3abd 0829 54bd 327f 2ebc 7e1a 89bb
00000290: fcc1 753d 88f1 213d f11b 2cbd 7809 0c3d
000002a0: 0f58 20bc e91e 27bd 48f4 683d 63a6 b03c
000002b0: f250 96bc 9546 2ebd 5e1b 03bd c1a7 f83c
000002c0: 74a7 633c 8d20 813c e4fc 35bd 74f4 093d
000002d0: 3106 0dbd 47ca 33bc d196 1e3d 6606 3fbd
000002e0: fc5a 13bd 8c63 753c 6433 05bd 333b 783b
000002f0: c4ab 503b c4ee 28bd 8f14 38bd 1f6b 3e3d
00000300: 9c0f 21bd dfa2 d13c 8d22 a6bc f120 543d
00000310: 6f14 6d3d 8a7d 2d3d e364 bbbc 6872 5fbd
00000320: c944 d73c 1f0a 7c3d e357 743d b41e 053d
00000330: c485 0e3d 587b 34bd 59a3 cc3c f168 ea3c
00000340: 9a06 533d 9c72 e63b 81ed bfbc 522b 423d
00000350: 7feb 143d c79a 293c 3944 263d 710e 1dbc
00000360: 032c 973b 1982 493d 3c33 533a 064c ddbc
00000370: 99fa 273d da9a f43c 71dc 18bd d212 1ebd
00000380: 33b4 92bc 8ee9 dd3c 35b2 34bd 14cd 06bd
00000390: 7c3c 8f3c 4c32 93bc 8501 17bd 48cd a8bc
000003a0: c900 343d 2d9b 373d 80c2 64bd a48d 103d
000003b0: b84a b23c e320 4cbd 5504 c53c b217 563d
000003c0: 08bb 37bc 25ac 19bd b7d6 c2bc 4130 2dbd
000003d0: a538 11bc f520 323d 2a1d 013c ace3 13bc
000003e0: 57c2 1e39 c33f 49bd 6c1a 40bd 59db 5bbd
000003f0: a6cd acbb 42c6 16bc 413d 553d 22cd 1fbd
0.039455812 0.005009761 0.055668544 -0.021508785 0.034423195 -0.013576576 0.033030204 -0.033115827
0.041871123 0.008131503 0.008582152 0.035471052 -0.04723288 -0.052144326 -0.061831728 0.027744588
0.009240868 -0.028386021 0.057289086 -0.05433671 -0.013500145 0.032843668 -0.023404267 0.03764662
-0.04242897 0.045582745 0.047935314 -0.04711473 -0.046045195 -0.028014624 -0.008507085 -0.034063783
0.01648436 -0.015427583 0.04189605 0.005845946 -0.034243125 0.055296455 0.0076358886 0.016395168
-0.03430527 -0.022687182 -0.011601968 0.03799967 0.014621005 0.032169465 -0.048251122 0.022751195
0.009351298 -0.0067548417 0.009167489 0.000996967 0.051339023 -0.002679934 0.0005755394 0.031729072
0.037232205 -0.022963807 -0.006125986 -0.058147933 0.012931999 -0.027327692 0.034359053 -0.03460402
0.0047219843 -0.05288465 0.005155171 -0.04775506 -0.039297327 -0.0012107546 0.003722286 0.05793323
0.008190462 0.038287856 -0.022104152 0.035433758 -0.04542155 0.039831895 -0.023202537 0.057258993
0.023270745 0.012875528 0.023768606 0.052810065 -0.043367255 -0.04398908 0.023476928 -0.011068865
0.021172045 0.050372276 0.057430185 -0.0029548998 0.022826815 0.04816012 -0.026630837 -0.029899955
0.027853467 -0.02576597 -0.061600655 -0.054508753 -0.026527701 -0.05297339 0.007627963 0.010858153
0.035781473 0.019419607 -0.039803978 0.020693224 -0.043321695 -0.009486856 0.032843918 0.032391828
0.04482933 -0.027626019 -0.037849702 0.025772776 0.0371384 0.017526006 -0.041697152 0.044753145
0.055907015 0.029183775 -0.015313496 0.045819584 -0.033300024 -0.009251941 0.04413329 0.0007893628
-0.010831809 0.030653922 0.046687 0.012682143 0.008764743 -0.042941894 0.02955402 -0.055182166
0.038601313 -0.022813356 0.047697604 0.032321975 0.015535677 0.0096617965 -0.02534049 0.041875616
0.05312584 0.06265288 0.052266635 -0.0060975654 0.04960557 0.032320034 -0.027958196 0.033074047
0.010051314 -0.002408914 0.04963353 0.03437815 0.00349597 0.0034275623 -0.008038201 -0.05214814
-0.045577154 -0.051796943 -0.010650443 -0.0041840663 0.05999945 0.039536983 -0.042018835 0.034188718
-0.00978662 -0.040800963 0.05687359 0.021563714 -0.018349145 -0.04254778 -0.03200852 0.030353429
0.013894904 0.015762592 -0.04443063 0.033680394 -0.034429733 -0.01097352 0.03871805 -0.04663696
-0.03597544 0.014977347 -0.032519713 0.0037877082 0.0031840662 -0.04124333 -0.04494148 0.046488877
-0.039321527 0.025590358 -0.020280147 0.051789228 0.057880815 0.04235605 -0.022875255 -0.054552466
0.026277917 0.06153309 0.059654128 0.032499984 0.034795538 -0.044062942 0.024980234 0.028614493
0.051519968 0.0070327055 -0.02342868 0.047404595 0.0363574 0.010351843 0.040592406 -0.009585963
0.004613401 0.049196336 0.0008056646 -0.02701379 0.041010473 0.029858995 -0.037319604 -0.038592167
-0.017908191 0.027088907 -0.044115264 -0.03291042 0.017484896 -0.01796832 -0.036866684 -0.020605698
0.04394606 0.04482572 -0.055849552 0.03529133 0.021764144 -0.04983605 0.024049917 0.05226869
-0.011214025 -0.037517685 -0.023784025 -0.042282347 -0.008863603 0.04348846 0.007880488 -0.009026449
0.00015140451 -0.049133074 -0.046900198 -0.053675983 -0.0052735386 -0.009202542 0.05206037 -0.03901399

Q1.a_head.0.bias f4 [128]
00000000: f48e 003c 246e 9d3b d6a0 073c 52c3 a33c
00000010: 3b54 253c a63a ef3c a1e9 28bd 80aa 733d
00000020: 02db 20bd 9b9a 933b 797d 40bd 105f 593d
00000030: 8132 1e3d c5c2 ba3c 7e5a 8abb d8ae ffbc
00000040: 03ca 87bb 5dc7 88bc 2336 993c 96d5 80bd
00000050: 6239 2f3d 3160 363d 8f95 30bd dfa4 8cbc
00000060: fa1d 81bb 4e72 743c da9a 64bd 822f 11bd
00000070: 5d1e c6bc 4062 65bd dda7 1dbd 6460 7cbd
00000080: 3b0a 1a3d 3043 9fbb cbc7 353d 4cfb 1c3d
00000090: 15cc 8d3b 528a 29bd 410c 5fbc 41ec 1fbd
000000a0: 733c 2cbd 583d acbc e1ee 153d 9a74 f0bc
000000b0: 302a 413d 4bcb 5bbc 414b 00ba 694b b7bc
000000c0: ee40 8f3d 599b 5dbd 1fa8 febc 1692 273d
000000d0: d99c d93c b56c 303d 2845 f63c f6ea c4bc
000000e0: 1fc8 c4bc 7944 66bd 389c c43c 22f9 603d
000000f0: 5fcb c9bc c6d7 36bc cae1 5e3d 4022 deba
00000100: a3c1 3cbc f21e 0a3d 68c4 963c 3961 6ebc
00000110: 0bb2 0239 95de 44bd 1799 573c 05cf 2bbd
00000120: 4787 c83c d835 d73b 7748 953a 2171 d83b
00000130: 9a2b 0a3d 5241 59bd 6829 ad3c 1403 4b3c
00000140: 3d09 513d cb2e 81bb 7040 1abd 8360 57bd
00000150: f391 61bd b88e 0e39 650a 083d ab8b afbc
00000160: e0f3 08bd 776f 6bbc 3be9 863c 8fbb 22bd
00000170: 6ab5 4c3c daac 063d 2859 843d 65c7 c53c
00000180: 47ac 483d 4812 ef3c da0f 133d dee1 4cbd
00000190: dc0a 8d3d 13a9 343c b4b6 213c 8468 313d
000001a0: d74f c9bc c373 82bd ae3c 52bd 7ea6 42bd
000001b0: b1e1 353d 2f55 123d f91e 863d 8db8 153d
000001c0: 5a59 6fbd c142 1e3d 0b37 eabb 4bcd 543d
000001d0: 4883 653d a54e 6ebc 092e 673c 20e5 62bd
000001e0: 0bfd cf3a f466 9a3c d7d0 e63c 52aa 3d3d
000001f0: b668 71bc 81e2 9c3c 81e7 e4bc 2ca3 c9bc
0.007846583 0.0048043896 0.008278092 0.019990597 0.010090883 0.02920277 -0.04123843 0.059488773
-0.039271362 0.0045045144 -0.04699466 0.053069174 0.038622383 0.022797951 -0.0042222133 -0.031211302
-0.0041439547 -0.016696626 0.018702572 -0.06290738 0.042779334 0.04452533 -0.04311138 -0.01716846
-0.003940341 0.0149198305 -0.05581174 -0.035445698 -0.0241844 -0.0560019 -0.038490165 -0.061615363
0.037607413 -0.0048603043 0.04437999 0.038325593 0.004327307 -0.04139168 -0.013613761 -0.03904367
-0.042049836 -0.021025345 0.036604766 -0.029352475 0.047159374 -0.013415168 -0.0004894026 -0.022374826
0.06994806 -0.05410323 -0.031086026 0.040910803 0.026564049 0.04307242 0.030062273 -0.02403782
-0.024021206 -0.056217644 0.024000272 0.05492509 -0.024633108 -0.011159843 0.054414548 -0.0016947463
-0.011520776 0.033720918 0.0184042 -0.014549547 0.00012464092 -0.048063833 0.013159058 -0.041945476
0.024478568 0.006567698 0.0011389394 0.006605283 0.033732988 -0.05304081 0.021137908 0.012390871
0.0510342 -0.0039423457 -0.03765911 -0.052582275 -0.05507083 0.00013595342 0.033213038 -0.021428904
-0.033435702 -0.014369837 0.016468635 -0.03972965 0.012494424 0.032879688 0.06462318 0.02414293
0.04899242 0.029183522 0.03590379 -0.05002009 0.06886837 0.011026639 0.00987022 0.043312564
-0.024574203 -0.06369736 -0.0513274 -0.04752206 0.04440469 0.03572577 0.06548876 0.036552954
-0.05843482 0.03863788 -0.007147675 0.051953595 0.056033403 -0.0145451175 0.014110097 -0.055394292
0.0015868259 0.01884792 0.028175754 0.04630501 -0.014734438 0.019150974 -0.02794242 -0.02461394

Q1.a_head.2.weight f4 [6, 128]
00000000: a8d1 a0bd def4 cdbb a4f0 523d 8225 943d
00000010: f8e7 78bd da9d 3939 5c7e 1c3d fad6 95bd
00000020: 3f32 2b3d 6c08 40ba 4286 98bd 4249 3e3c
00000030: 81b3 e9bb ead3 84bd 712b 81bd 23d9 26bd
00000040: 902b 73bd 4e0d b8bc 6c3e 6abd b662 a03d
00000050: 86c6 bc3c 26bc 063d 1490 84bd c9e6 ae3c
00000060: 894e 633d e731 423d 9b5e 4fbd 6e4b 823b
00000070: 1492 663d 17d6 6b3d 91cf 64bd 1ef8 093c
00000080: 1d5e 1a3d 5479 6f3d a563 7bbd d4ab a23d
00000090: 332c 0ebd 4599 b0bc f5f1 2e3d e176 123d
000000a0: 88a3 9abd 6c36 313d f27a 023d 06cf 493d
000000b0: 9daa 82bd 0e43 d7bc 173c 89bb 08d4 b5bd
000000c0: 544d d8bc 727e 8f3d 4a36 4fbd 6627 183d
000000d0: 3dec 023d 01a2 783c 391c a33c ea74 07bd
000000e0: 7390 5bbb 1b03 b43d ff43 e7bc a06b 5ebd
000000f0: cb7c d5bb 202c de3c e55f b53c 5739 643d
00000100: 84b6 a2bd 00af 9bbd e37e 7e3c 03a1 b2bd
00000110: 9dac 2ebd 08e2 61bc 95fd 6c3d f460 fd3c
00000120: 21e1 4ebb 82b4 e43c 8e58 49ba a14f a2bd
00000130: 2aae d6bc c26d 74bd 8b1c 0bbc 117a 7fbd
00000140: 43b3 6cbd 7440 b13c ffd1 783d e6e1 bd3c
00000150: 7b11 f73b c3ae 9c3d 4695 6d3d f882 03bc
00000160: 543a 89bd c9b9 9e3d d129 e4bc 3471 833d
00000170: 44f3 1dbd 4c68 ad3d 3eb0 8abd 9fa7 89bd
00000180: a6c9 873d a03e 47bb 5e91 f73c 3bae 263d
00000190: 931a 32bc 1f17 1d3d 5877 7bbd 6ca3 27bb
000001a0: 7e1f 05bd 0a35 47bd a91d 9e3d 6cdb 96bc
000001b0: 59bb ed3b 2931 ac3c 2f30 47bd 6c77 263d
000001c0: ed51 303d 957d ac3c a20f a73c 9a41 8a3d
000001d0: b3b0 a43d faab 793d c7c3 b4bb 933f 8cbd
000001e0: f24e a93d 50fc bbbd 6bee 33bd 3b2e b5bd
000001f0: 639b 903d ef19 503d a52c a9bd 3921 273d
00000200: 67b1 b0bd a9d4 8e3c 87d7 083b 7b50 dbbb
00000210: f775 bc3b d99d c73b 655f cabc 0eda 9ebc
00000220: f4cd 9b3d 3e1c 96bb 89d5 113d a9eb 863c
00000230: 433b 01bb 8689 893d b310 96bc d155 a9bd
00000240: 03b7 2bbd dfb6 043d 6734 8fbc 3aac 5cbd
00000250: a7c7 1bbd 5e59 a03d d82c 6c3d d0c0 27bb
00000260: 16e7 39bd 4c3b c8bc 3ffc 913d c54f 08bb
00000270: 6777 323d ddad 11bd d873 743d 461c fe3c
00000280: a750 babc 70d0 023c 9bdc 953d 7dcf e2bc
00000290: cdb0 97bc 642e aebd 2238 19bd 5e28 9d3d
000002a0: 8f33 a23d 93cf e13c f8cc 4d3d 683a 1cbd
000002b0: 81ff 8fbd 729c 02bd ebdf 9f3d 29e7 a7bd
000002c0: 7c7b 26bd e372 0f3d 2b7c afbd 7204 e9bc
000002d0: fe71 33bd e845 37bd d96c 963c 767e 1ebd
000002e0: 9a06 dcbc 3109 89bd 515a 933d 50c1 9d3d
000002f0: f2f5 f53b 4d70 12bd f964 7d3d acd6 2ebd
00000300: baff 36bd 3ecd ab3c 4611 cd3c 3dea 1ebd
00000310: 5422 f33b 1a2f 6b3d dd9d 7bbb d1ab 913d
00000320: 1151 5e3c 171b 4dbd d5ec acbd c5e4 203b
00000330: a1b1 a13d 8c1b 43bd 95bd 5d3d 4f79 a2bd
00000340: 2747 a63c 454f 85bd 585c 30bd b01e a83d
00000350: 9d07 013d 9c69 9c3d b233 c1bc 2a32 b5bc
00000360: 91e4 303d 813c 153c 3ab7 b6bd 927a 1e3d
00000370: 4db0 03bd 5757 d63c 0e42 38bc e87a 913d
00000380: 15ee b3bd 88e7 dfbc fdec a03d bc7b bebc
00000390: 28c9 343d b7b1 263d 0abd b73c 57ac 88bd
000003a0: 4c6f 8e3d 4c9e 68bc 270c 38bd 60a4 28bd
000003b0: edd7 abbd 9466 973d 7353 57bd 9405 003d
000003c0: eaf6 3abc 68fd 65bd 1548 ce3c b6fb 28bd
000003d0: afe7 36bd a263 a8bd e293 913c 2860 043d
000003e0: a249 ac3c e8fc 97bd 4093 373d c841 a13d
000003f0: b9f0 61bd 72e4 2bbd ab53 be3c 2dba af3d
-0.07852489 -0.006285294 0.051499024 0.072337165 -0.060768098 0.00017701779 0.038206443 -0.07316394
0.041795965 -0.00073254737 -0.07447483 0.011614146 -0.0071319942 -0.06485732 -0.06307114 -0.04073442
-0.059367716 -0.022467282 -0.057188436 0.078313276 0.023043882 0.032894276 -0.06472793 0.021350281
0.05549482 0.04741087 -0.050627332 0.003976277 0.056291655 0.05757722 -0.055862013 0.008420972
0.03768741 0.058465317 -0.061374325 0.0794293 -0.03471012 -0.02155746 0.042711217 0.035757903
-0.07550722 0.04326479 0.03185553 0.0492697 -0.06380198 -0.026277091 -0.0041880715 -0.088783324
-0.02640406 0.070065394 -0.050588883 0.03714695 0.031963576 0.0151753435 0.019910919 -0.033070482
-0.0033502846 0.08789655 -0.028230665 -0.054301858 -0.0065151206 0.02712065 0.022140453 0.055718746
-0.07944968 -0.07601738 0.015533182 -0.08722117 -0.042645086 -0.0137868 0.057859022 0.03093002
-0.0031567293 0.027918104 -0.0007680737 -0.07925344 -0.026206095 -0.059674986 -0.008490692 -0.06237227
-0.057788145 0.021637179 0.060747143 0.023179006 0.0075399256 0.07650521 0.058003686 -0.008026831
-0.06700578 0.077502795 -0.02785197 0.06418076 -0.038562074 0.08467159 -0.06771897 -0.06721424
0.06630258 -0.0030402318 0.030220684 0.040693503 -0.010870594 0.038352128 -0.061393112 -0.0025579585
-0.032500736 -0.048634566 0.07720501 -0.018415175 0.0072549996 0.021019535 -0.048629936 0.040641233
0.04304688 0.021055976 0.020393196 0.06750794 0.08041515 0.060955025 -0.0055165025 -0.06848063
0.08267011 -0.09178984 -0.043928545 -0.088467084 0.07060888 0.050805982 -0.082604684 0.040803168
-0.08627587 0.017435389 0.0020880417 -0.0066929436 0.005751367 0.006091815 -0.02470369 -0.019391086
0.07607642 -0.0045810034 0.035604034 0.016469793 -0.001971916 0.06715684 -0.01831851 -0.08268321
-0.04192258 0.032400962 -0.017481042 -0.053875186 -0.0380322 0.078295454 0.057659954 -0.0025597103
-0.045386396 -0.024442337 0.0712819 -0.00207995 0.043570902 -0.0355662 0.05968079 0.031019341
-0.022743536 0.007984266 0.07317468 -0.027686829 -0.018516922 -0.08504942 -0.037407048 0.07673715
0.0791999 0.0275648 0.0502443 -0.038141638 -0.070311554 -0.03188748 0.07806381 -0.08198387
-0.040645108 0.035021674 -0.08568605 -0.028444503 -0.043809883 -0.044744402 0.01836245 -0.03869482
-0.026858617 -0.06691206 0.07194961 0.07702887 0.0075061256 -0.03575163 0.061863873 -0.042685196
-0.044677474 0.02097189 0.02503265 -0.038797606 0.0074198637 0.057417966 -0.0038393654 0.071128495
0.013569132 -0.050074663 -0.084436096 0.002455042 0.07895208 -0.047633693 0.054135878 -0.07933294
0.0202976 -0.0650926 -0.043056816 0.08208978 0.0315014 0.07637331 -0.02358422 -0.022118647
0.043186728 0.009108664 -0.089216664 0.03869111 -0.032150555 0.026164694 -0.011246217 0.07103521
-0.08785645 -0.027332082 0.07857702 -0.02325236 0.04413715 0.040696826 0.022429008 -0.06673496
0.06954822 -0.014197897 -0.044933464 -0.041172385 -0.08390794 0.07392612 -0.052569818 0.03125532
-0.011411408 -0.05614987 0.025180856 -0.041255675 -0.044654544 -0.082221285 0.017770711 0.032318264
0.021031205 -0.07421285 0.044818163 0.07873875 -0.05516121 -0.04196591 0.023233255 0.08580432

Q1.a_head.2.bias f4 [6]
00000000: 022e 553c 9967 08bc fa88 893d 194d be3c
00000010: 02d2 3d3d 89f8 6f3d
0.013011457 -0.008325481 0.06715579 0.023230122 0.046342857 0.05858663

Q1.v_head.0.weight f4 [128, 294]
00000000: cde3 12bc 6a74 0ebc cbfc 0fbd 89b5 a13c
00000010: 6182 ad3c 1697 d7bb a0c6 4b3d 51b8 a13c
00000020: ad80 37bd 5d92 7fbd 931f 023d a04d 7cbd
00000030: e3b9 833c 333d 06bd e33e 8f3c b294 78bd
00000040: baa9 443d 3d63 47bd a5fa 413d 9d08 293d
00000050: cbc0 3ebd e11e d13c cc83 853c 56e7 833c
00000060: 227a 31bd 197a 03bd 273c eb3c 050b 023d
00000070: f9ad 433a 1aed 19bd 9cee b43b d930 2ebd
00000080: 546b ad3c 5c33 2f3d 8db3 403d d242 19bd
00000090: cd11 9bbc 5aed d03c 3c53 2a3c 7546 8ebc
000000a0: ae43 f5bb fb88 353d dd78 62bd 5ef0 1b3b
000000b0: 7b41 c03c 8190 07bb c645 4abd ee5c fa3c
000000c0: 53ce 4bbd d77c 783c 7ff1 afbc e51c 703c
000000d0: b0cd 9ebc 9857 6bbd 25d7 43bd 8c02 62bd
000000e0: cb61 b23c 4342 973c 07a6 f43c 45f0 48bd
000000f0: 1bce 193d 35f6 8fbb 9f5c e83c bbf2 4f3c
00000100: 6405 6bbd 4c47 4d3d ace1 6fbc ecf2 cd3c
00000110: 7487 9d3c c663 9cbc 0151 953c ff0e 623d
00000120: 6811 4bbc f0e1 393d 1f1b 8bbc 15f0 f6bb
00000130: 68a3 c23c f7b2 143d 1f6b 25bd cead 123d
00000140: f72f 6dbd 2686 37ba 6f20 83bc f4b0 fc3c
00000150: 73f3 36bd f6db 6d3d 33e6 80bc 76bb e53c
00000160: c07d 15bc 8d83 69bd 2653 ca3c e091 bf3b
00000170: 9b0d 1fbc f2f8 503d 3edf d23c 96c6 8c3b
00000180: 3fa7 6b3d 9cea 9b3b 9892 54bd 7150 9d3c
00000190: fce9 3cbd 7515 0d3d 6834 4ebd ccb8 b33c
000001a0: 2600 2e3c bddc ebbb a05e 2cbb 163e 553c
000001b0: 484d 5e3d 616e fa3c cf95 3bbd 6f8a 26bd
000001c0: 0c8f 23bd f667 f6bb 9f59 2a3d 4053 083c
000001d0: 7b57 693d 2314 9ebc 685c 3cbd b0d1 2d3d
000001e0: 59e9 d4ba 0568 8f3a 5227 45bd f99f f13c
000001f0: 6b6a fcbc d22b 93bc dd73 eabc 50a5 d13c
00000200: 36cb 4ebd a0ff 533d bb40 36bd 1f42 33bd
00000210: 8f88 4d3b 45d4 ba3a d4ba 553d 85d8 0dbc
00000220: 79d9 b63c 9d9d 723c 11fd a93c 3625 e13c
00000230: 14df 2dbd b0c1 c23c b607 58bd eedd 1eba
00000240: 2ea6 db3c 06cf 973c a24e 533d 450f 653d
00000250: cf2b 6cbd 12dc 6bbd e4b5 423d a570 22bd
00000260: e263 b83c 68a6 50bd 810f c63a 8e4e 19bd
00000270: 716b 2a3d e6b3 083d 0fec 323a 3d32 833a
00000280: 5567 c2bc 3b9a 703c f24f 24bd a1a6 4cbd
00000290: b3c7 403d 9ed9 66bd 7154 563c 8bfd 673d
000002a0: bd58 163d c017 13bd daca 5b3d 9351 babc
000002b0: 6242 563d fd85 a73c 1abb e73c 4bd3 5abd
000002c0: ebfc 033d 4281 29bd d1c9 a83b ffd6 83bc
000002d0: 215a c83c 9acb 313d 2319 2d3d 8257 2abc
000002e0: 1c0f 423d 01e2 823c 9784 2abd e4f7 cbbc
000002f0: 0b2b 9fbc 3f2a 14bd b593 0abd cf99 643d
00000300: f95f 7abc 9f68 68bd e629 b73c fdc7 f7ba
00000310: b119 25bd 1bef 38bd 839b 0a3c 872f 283d
00000320: bce8 303d 74e3 aebc 0754 633c c44c 6a3d
00000330: ea5b d0bc 690f 3bbd d825 143d 3d26 023d
00000340: b5f7 5a3d 4479 e23c 508d 003d 3dba d4bc
00000350: 83d8 fdbc 25cb 5cbb a3ca 62bd cf74 32bd
00000360: 1512 14bd c761 f2bc f46b 2dba 60d6 573d
00000370: b0c3 56bd 2a12 32bd 8ddb 2e3c 1e11 abbc
00000380: 3fc5 5cbd 61f5 57bd 2a4e 1bbd 7984 ef3c
00000390: 9314 37bd 0133 503d b3a7 64bd fb7c 0abd
000003a0: 5dd9 47bd 9618 64bd 791f 1ebd 2f97 69bd
000003b0: 9407 86bc 21f0 78bc ea5f 803c ccdd 50bb
000003c0: 0901 1d3d eaae 5c3b a62e b43c a1a3 403d
000003d0: c637 06bd 2ee4 b238 6986 5a3d a261 d0bc
000003e0: 4573 733b c64b d33c 0b7e 24bb 1c01 cd3c
000003f0: 7f94 7cbd 5f57 56bd ae7c 4bbd 9f09 433b
-0.008965445 -0.008694747 -0.03515319 0.019739883 0.021180334 -0.00657929 0.04974997 0.01974121
-0.04480045 -0.062395442 0.031768393 -0.061597466 0.016079849 -0.032773208 0.017486041 -0.060688682
0.048013426 -0.048678625 0.047358174 0.04126798 -0.04657058 0.02552742 0.016298197 0.01610152
-0.043329366 -0.032098863 0.028715206 0.03174879 0.00074645836 -0.037579633 0.0055216085 -0.042527054
0.021169342 0.04277359 0.047046233 -0.03741724 -0.018929387 0.025503803 0.010395821 -0.01736758
-0.0074848747 0.044320088 -0.055291045 0.0023794393 0.023468724 -0.0020685496 -0.049382947 0.03056189
-0.049757313 0.015166483 -0.021477459 0.0146553265 -0.019385189 -0.057456583 -0.0478126 -0.05517821
0.021775147 0.018464213 0.029864324 -0.049057264 0.037550073 -0.004393364 0.028364478 0.012692149
-0.057378188 0.050116822 -0.014641207 0.025140248 0.019229628 -0.019090544 0.018227102 0.055190083
-0.012394287 0.045381486 -0.016980706 -0.007535944 0.023759559 0.036303487 -0.04038536 0.035810284
-0.05790707 -0.00070008857 -0.016006676 0.030846097 -0.044665765 0.0580711 -0.015734768 0.02804349
-0.009124219 -0.057010222 0.024697851 0.005846247 -0.009707834 0.051018663 0.025741216 0.004296134
0.057532545 0.004758192 -0.051897615 0.019203397 -0.046121582 0.03444429 -0.050342947 0.021938704
0.010620153 -0.007197945 -0.0026301518 0.013015291 0.05427292 0.03057021 -0.045797165 -0.040659364
-0.039931342 -0.0075197173 0.041589376 0.00832063 0.056968194 -0.019296711 -0.045986563 0.0424363
-0.001624386 0.0010941034 -0.048133202 0.029495226 -0.030812463 -0.017965231 -0.028619701 0.025591522
-0.050486766 0.051757455 -0.044495326 -0.04376423 0.0031361913 0.0014253935 0.052180126 -0.008657579
0.022320496 0.014808086 0.020750554 0.027483564 -0.042449072 0.023773998 -0.05274173 -0.0006060292
0.02681264 0.018531334 0.051588662 0.055922765 -0.057658967 -0.057582922 0.047536746 -0.039658207
0.022508565 -0.050939947 0.0015110822 -0.03742843 0.04160637 0.03337469 0.00068253366 0.0010009479
-0.023730913 0.014685209 -0.040115304 -0.049963597 0.047065448 -0.05635988 0.013081656 0.05663828
0.03670572 -0.03591132 0.05366025 -0.022743976 0.0523094 0.020449633 0.02828746 -0.05342416
0.032223623 -0.041383035 0.0051510115 -0.016093729 0.02445704 0.04340706 0.0422603 -0.01039684
0.04737769 0.015976908 -0.041630354 -0.024898477 -0.019429704 -0.0361731 -0.03383227 0.055810746
-0.015281671 -0.0567404 0.022358846 -0.0018904206 -0.040307704 -0.045149904 0.008459928 0.04106095
0.043190703 -0.021348692 0.013875014 0.057202116 -0.025434453 -0.045668993 0.036168903 0.031774748
0.053458888 0.027645715 0.031384766 -0.025967712 -0.03098703 -0.003369042 -0.05536903 -0.04356843
-0.036150057 -0.02958764 -0.00066155125 0.05269468 -0.052432716 -0.043474354 0.010672462 -0.020882186
-0.053899046 -0.052724246 -0.03791634 0.029237973 -0.044697355 0.05082989 -0.055823993 -0.033810597
-0.04879128 -0.05568751 -0.038604233 -0.057028946 -0.016361035 -0.01519397 0.015670735 -0.0031870482
0.038331065 0.0033673593 0.0219949 0.04703105 -0.032768033 8.530203e-05 0.05335084 -0.02543718
0.0037147563 0.025792968 -0.0025099542 0.025024943 -0.061665054 -0.052329417 -0.04967945 0.0029760373

Q1.v_head.0.bias f4 [128]
00000000: 8c70 3abd ece6 2a3d e257 45bd 5eda 913d
00000010: ddd9 fabc 7818 f63c 20ab 16bd b574 35bd
00000020: 42c0 67bc bc3c 37bd 8d2f 48bd 8a87 d73c
00000030: 9bc5 70bd a61d 7e3d fdd2 923d 294a 343d
00000040: 0408 533d b990 15bd ac58 4bbd 9685 70bd
00000050: 2b83 423d c02f 863d ce66 51bd 0933 823d
00000060: a905 203d 3366 6abd a542 373d 55a2 5f3d
00000070: 2986 b4bc d0db e83c 0ab5 d43b 81c4 9e3b
00000080: 63a8 2abd 94cb 453d a1b0 2cbd b91d 7b3d
00000090: ad7b f13b 71f8 ddbc b410 7a3d af68 653d
000000a0: be2b 71bd 439c 45bd d17b 7d3d af6f 083c
000000b0: b063 e83c f9bc 283d b82c a73d 6261 05bd
000000c0: 356e 4d3d a332 3fbd 9d59 1fbd b113 26bd
000000d0: 033f 05bd 325c c3bb ac04 533d b240 cc38
000000e0: cb02 5bbd 64da 58bd 52cb 073c 3098 f73c
000000f0: cbe6 f8bc 3ce0 2d38 ae53 883d 96f8 423d
00000100: 5d67 b33d dfb7 56bd e7ad 0ebd 9e7b 543d
00000110: bd85 36bc 4b2f 07bd f13f bb3c 25f6 483d
00000120: 432f 8b3d 89ff 1cbd 0f4b 363d 94f3 043d
00000130: 91d0 dbbc c9f1 cb3c 712c d6bc 4a4c 60bd
00000140: d6fe a9bc 49fb e23b 0ed5 583d d330 9b3b
00000150: daa2 36bd b046 813d c9be 853d 2307 1cbd
00000160: 6248 2cbd e0c1 473d 0a2b b3bc 06cf f1bc
00000170: ddce 2e3c 9fdf 5b3c 6d48 61bd 85c4 813b
00000180: 1a62 65bb 2ddc 6f3c e025 743d 672a 493c
00000190: 1157 813d 0d9c 9abc b895 d43b ae5b 36bb
000001a0: 972f 013d 4fc5 803d 9f9b 26bc efe5 74bd
000001b0: d40b 55bd 616f 143d f4a1 25bd 007e db3c
000001c0: 5ff0 46bd 930d 483d 12ac ecbc 60cb 103d
000001d0: 48b8 ab3c 919c 343d b38e 2c3d d0b0 42bd
000001e0: d69e 893d 044a 243d 4f39 493d f158 13bd
000001f0: fa3e d53a 2e4a 9e3d 9eca 373d 131c 503d
-0.04551749 0.04172413 -0.048179515 0.07121728 -0.030621463 0.030040964 -0.03678429 -0.044300754
-0.014144959 -0.044735655 -0.048873473 0.026309747 -0.0587822 0.062039994 0.07169149 0.044016037
0.051521316 -0.03651497 -0.04964511 -0.058721147 0.047488373 0.06552076 -0.051123433 0.063573904
0.039067898 -0.05722637 0.04474129 0.05459817 -0.022036629 0.028425127 0.006491308 0.0048452024
-0.041664492 0.04828985 -0.042160634 0.061307643 0.0073694796 -0.027096005 0.061051086 0.056008037
-0.058879606 -0.048244726 0.06188566 0.008327409 0.028367847 0.041195843 0.08162826 -0.032563575
0.05015393 -0.04667915 -0.03890382 -0.040546123 -0.032530796 -0.0059619183 0.051518127 9.7395285e-05
-0.05346946 -0.05294265 0.008288221 0.030223936 -0.030383488 4.145525e-05 0.06656586 0.04760035
0.08759949 -0.052421447 -0.034833815 0.051875703 -0.011140284 -0.033004086 0.022857638 0.049062867
0.06796124 -0.038329635 0.044505175 0.032458857 -0.02683285 0.024895566 -0.026144238 -0.054760255
-0.020751398 0.006926928 0.05293756 0.004736045 -0.0445889 0.06312311 0.0653053 -0.038092744
-0.042061217 0.048768878 -0.021871109 -0.029517662 0.010669437 0.013420015 -0.05500071 0.0039601945
-0.00350011 0.014639896 0.059606433 0.012278176 0.06315435 -0.018873239 0.0064875744 -0.0027825641
0.031539526 0.06287634 -0.010168939 -0.059789594 -0.052013233 0.03623903 -0.040437654 0.02679348
-0.04856908 0.04884107 -0.028890643 0.035350204 0.020961896 0.044094626 0.042128276 -0.047531903
0.06719749 0.04010965 0.04912692 -0.035973493 0.0016269379 0.077289924 0.044870965 0.050808024

Q1.v_head.2.weight f4 [1, 128]
00000000: ddc8 213d 8603 adba 8bcd bebc e99b e73d
00000010: 43e1 9dbd 22f7 64bc 7b05 17bd 1cb8 8ebd
00000020: c4ee 33bd 50ec 1fbd cfc9 17bd b2f0 ebbc
00000030: 8409 6cbd fb72 fe3d bd5b 293e 7a69 fb3d
00000040: 405b 8abd 2fd2 acbd ed4a 08bd 46b1 e7bb
00000050: c4c6 a3bd 3716 d43d 0ab0 56bd 4465 d93d
00000060: c10c d7bc 9084 1cbd 13d4 91bc 5612 1e3e
00000070: 5904 acbd 706d 323e af52 86bc 8f0b 7abc
00000080: d25a fcbc ba05 043e 563e e5bb d335 1d3e
00000090: 8439 c4ba 8832 06bd c7fd 1a3e 2f7b dc3d
000000a0: 78fa 88bd 085b b23c 8152 1c3e 1420 7abd
000000b0: 8969 94bd fd94 8abc 7dc0 ba3d 9b7a dbbc
000000c0: 1f54 4cbd 1763 38bc 3dab 91bd 4e07 a63b
000000d0: 0f42 b33d 5a41 25bd 5fe4 1e3e f2a0 bcba
000000e0: dc0e 91bd 069a 38bc 1c22 153e e7da 263e
000000f0: 8912 a93d ab94 85bc 4628 d03d 7e89 09bb
00000100: 5517 b03d fec4 be3c 384d 8fbc 40b0 a4bd
00000110: cf05 40bd bc14 1bbd 7e29 a3bd 9811 2b3e
00000120: 7935 fe3d 7cb1 a1bd 70b9 ee3d a943 5cbc
00000130: 8e8c 663d 05d3 2b3e 678a b5b9 4919 f93c
00000140: cc89 00bc e76c 0ebd b4aa 013e 374f 5fbd
00000150: 46ed 4c3d 02a4 013e 030e 803d b5f6 cbbc
00000160: 3ae1 5dbd f11b 80bd ccb3 8abd 1af8 e8bc
00000170: 9955 8abd b23f 62bc 3188 96bd e45a b9bb
00000180: 473b 59bd fff4 5dbd 4231 c63d 6f6a 9e3d
00000190: 33a4 f83d 2137 c2bc 4ac9 a5bd d322 3dbd
000001a0: 2afd d33d 8e1e 2e3e f49c 243c 9d21 553d
000001b0: fb8b 213d f459 a4bc f5cc a7bd d6e8 60bd
000001c0: 8e47 5a3d 835d 023e d7a2 753d b1b8 0b3e
000001d0: 3d71 273e cc1c 11bd 3b02 0d3e 2576 e93c
000001e0: 841e ce3d d820 84bd 9627 62bd 3433 7e3d
000001f0: cb74 a4bd 8447 c43d 7b80 a6bd c7ab 9fbd
0.0394982 -0.0013199903 -0.02329137 0.113090344 -0.07708981 -0.013974937 -0.03687046 -0.0696871
-0.043928877 -0.039043725 -0.037057694 -0.028801296 -0.057626262 0.124242745 0.16538902 0.122759774
-0.06755686 -0.08438527 -0.03327458 -0.007070693 -0.07996896 0.103558 -0.052413978 0.10615018
-0.026251199 -0.03821236 -0.01780132 0.15436682 -0.08399267 0.1742456 -0.016396848 -0.015261545
-0.030805025 0.1289281 -0.0069959564 0.15352564 -0.0014970754 -0.032763034 0.15135871 0.10765683
-0.06688398 0.021771923 0.15265848 -0.06106575 -0.07246692 -0.016916746 0.091187455 -0.026791861
-0.04988491 -0.011254094 -0.07112739 0.0050667888 0.08752834 -0.040345527 0.15516804 -0.0014391227
-0.07082912 -0.011267191 0.14563793 0.16294442 0.082554884 -0.016306242 0.101639315 -0.0020986493
0.085982 0.023287293 -0.017492875 -0.080414295 -0.04688054 -0.03786157 -0.079668984 0.1670593
0.12412543 -0.078951806 0.11656463 -0.013443866 0.056286387 0.16779716 -0.00034626128 0.030407565
-0.007845353 -0.034771826 0.12662774 -0.054518905 0.05003097 0.1266022 0.062526725 -0.024897913
-0.05416987 -0.062553294 -0.06772575 -0.028438617 -0.06754608 -0.013809131 -0.07350195 -0.005656587
-0.053035047 -0.054188725 0.09677364 0.07735144 0.121406935 -0.023707928 -0.080950335 -0.04617579
0.103510216 0.17003843 0.010047186 0.05203401 0.039440136 -0.020062424 -0.08193389 -0.05490955
0.053290896 0.12730984 0.05996975 0.13644673 0.1635179 -0.035427853 0.13770382 0.028498719
0.10064414 -0.06451577 -0.055213533 0.06206055 -0.08030089 0.09583953 -0.081299745 -0.07796436
