models_decentralized/final/target_critic_3_2500.pth (torch, 631787 bytes, 26 tensors)

Q1.conv.net.0.weight f4 [3, 31, 3, 3]
-0.07737763 0.08654134 -0.080411404 -0.07270032 0.11797925 -0.067061596 0.014162632 -0.11849443
-0.11037939 -0.12761076 0.1026912 0.1458263 0.025934136 0.05773418 -0.08400345 -0.03492592
0.12111354 0.08294019 -0.009152869 -0.12285574 0.022611005 -0.060224213 0.13235557 0.11043473
0.10578395 0.08413426 0.01961919 0.13086213 0.08978585 -0.06744382 -0.13182585 0.09758579
0.09715485 -0.11049598 0.10574804 0.00873885 0.04291272 -0.029091736 -0.06523643 -0.07336793
0.060165532 -0.06052283 0.010300142 -0.10139033 0.09034023 0.12358433 -0.13485989 0.022901956
0.027073355 0.07093447 -0.07081283 0.11020762 -0.02925173 -0.044092905 0.12382967 -0.10144046
-0.069303215 0.015367736 -0.14525779 0.037573013 -0.04983123 -0.07771086 0.11080778 0.107965134
-0.09085737 0.04186901 -0.06297362 -0.016302021 -0.053612098 0.016733367 -0.05653153 -0.062148485
0.12239636 -0.069869675 0.027390495 0.058826923 -0.044188596 0.004617715 0.05266087 -0.08794595
-0.011263474 -0.08090988 0.023366671 0.081311256 -0.017544903 0.13124646 0.024945166 0.17463674
0.027644757 0.07001981 -0.043194123 -0.09320096 0.11300892 0.09616879 0.08528729 0.058247086
-0.032737985 0.06296968 0.109043084 -0.10082017 0.016669838 -0.0046298243 0.12769152 0.12477035
0.060774557 -0.010679544 -0.049462885 0.07934536 -0.07231099 0.011968813 0.13383521 -0.036763698
0.007847076 -0.00925601 0.07258334 0.1834912 0.053061776 -0.07891606 0.11170292 0.1624256
0.14789493 0.12353443 0.034490906 0.11868502 0.07443292 0.0759112 0.114520214 0.17825508
0.019704169 0.14993443 -0.091279306 0.17388237 -0.038039017 -0.02064591 0.09445258 0.009977792
0.032667793 0.022342045 -0.032339312 0.116848245 -0.04854341 -0.027589316 -0.040479098 0.018770056
0.1007972 0.0787199 0.031182803 0.06530561 0.059908815 -0.05739689 -0.034845047 0.09611263
-0.027785335 -0.051219597 0.0723985 0.056656074 -0.09242382 0.07991499 0.16250713 -0.07859644
-0.07006121 0.14720446 0.13921396 0.18240137 0.03536069 -0.015052629 0.12444341 0.073497884
0.17767529 0.14892106 -0.017111547 0.11123761 0.049864758 -0.051502172 0.094629996 0.12191869
0.04157598 0.096669234 -0.05943808 0.10473787 -0.009451756 0.14327803 -0.11251586 -0.018942801
0.06460484 -0.018891877 0.05473437 0.008842023 0.09461627 0.11415626 -0.08843231 -0.0671442
0.14489882 -0.08488218 0.08915189 0.0012545825 -0.08987814 -0.017781688 0.029243719 -0.09679386
0.08079315 -0.07507964 0.009092194 -0.034631085 0.010174065 0.026695678 0.06594859 -0.013192954
0.044278957 -0.085622184 0.06020703 -0.11595884 -0.009315423 0.07528815 -0.114407346 0.13410261
0.003358449 0.10168833 -0.0391408 -0.09025959 0.13314135 0.018767837 -0.082079954 0.047011945
0.10404106 -0.088016555 0.08208279 -0.10107294 -0.010362451 -0.062141597 0.06725204 0.05165314
-0.04046293 -0.03610628 0.053315334 0.11015594 -0.043188516 0.07797419 -0.079919316 -0.13120127
0.0728858 -0.03312745 -0.12068125 0.12494239 -0.115516126 -0.036748663 -0.03185384 0.040565353
0.060078844 0.041376747 -0.06840496 0.029738728 0.12257149 -0.047841813 -0.11586301 -0.023709273
00000000: 2a78 9ebd 963c b13d bcae a4bd e8e3 94bd
00000010: 1b9f f13d 9757 89bd 620a 683c 35ad f2bd
00000020: 970e e2bd 65ac 02be c44f d23d 7d53 153e
00000030: d373 d43c ad7a 6c3d 000a acbd 7b0e 0fbd
00000040: 600a f83d 8cdc a93d eaf5 15bc ca9b fbbd
00000050: b73a b93c aaad 76bd 3888 073e 9b2b e23d
00000060: 41a5 d83d 954e ac3d 6cb8 a03c b900 063e
00000070: a5e1 b73d fc1f 8abd 5bfd 06be 0fdb c73d
00000080: 1ff9 c63d b74b e2bd 6e92 d83d 652d 0f3c
00000090: 40c5 2f3d cb51 eebc ad9a 85bd ed41 96bd
000000a0: 2270 763d c9e6 77bd edc1 283c bca5 cfbd
000000b0: 4c04 b93d c819 fd3d b618 0abe e29c bb3c
000000c0: f1c8 dd3c 1746 913d 5106 91bd 88b4 e13d
000000d0: 53a1 efbc c39a 34bd 699a fd3d 04c0 cfbd
000000e0: d8ee 8dbd f5c8 7b3c 75be 14be 29e6 193d
000000f0: d51b 4cbd df26 9fbd 30ef e23d d31c dd3d
00000100: 6e13 babd d77e 2b3d 50f8 80bd d18b 85bc
00000110: 5c98 5bbd 6a14 893c 9b8d 67bd 698f 7ebd
00000120: f1aa fa3d d517 8fbd 0862 e03c 80f4 703d
00000130: 1aff 34bd 3350 973b edb2 573d 021d b4bd
00000140: 6f8a 38bc 14b4 a5bd 766b bf3c 8486 a63d
00000150: 54ba 8fbc 7965 063e ce59 cc3c f9d3 323e
00000160: 4277 e23c 8c66 8f3d 52ec 30bd 25e0 bebd
00000170: 3871 e73d 24f4 c43d 1aab ae3d 7f94 6e3d
00000180: 4418 06bd 3ff6 803d fb51 df3d ce7a cebd
00000190: 2f8f 883c c8b5 97bb 91c1 023e 9987 ff3d
000001a0: beee 783d 41f9 2ebc 9899 4abd d27f a23d
000001b0: c917 94bd d718 443c 190c 093e 8895 16bd
000001c0: 0691 003c 85a6 17bc 93a6 943d 1ee5 3b3e
000001d0: 4e57 593d be9e a1bd 80c4 e43d e652 263e
000001e0: c571 173e 9fff fc3d 5646 0d3d 2211 f33d
000001f0: 4970 983d 5577 9b3d 9389 ea3d 8088 363e
00000200: a36a a13c 6988 193e a5f0 babd 380e 323e
00000210: cdce 1bbd 9d21 a9bc 5b70 c13d e579 233c
00000220: aace 053d aa06 b73c 3a76 04bd 224e ef3d
00000230: 74d5 46bd fd02 e2bc 69cd 25bd a9c3 993c
00000240: c36e ce3d e637 a13d 1473 ff3c f3be 853d
00000250: f262 753d 0019 6bbd aeb9 0ebd b3d6 c43d
00000260: 129e e3bc a4cb 51bd aa45 943d 3310 683d
00000270: b348 bdbd 78aa a33d 4568 263e 2cf7 a0bd
00000280: 407c 8fbd c4bc 163e 1b8e 0e3e 6dc7 3a3e
00000290: 5fd6 103d 4d9f 76bc 30dc fe3d 0f86 963d
000002a0: 83f0 353e c37e 183e 842d 8cbc 8bd0 e33d
000002b0: fd3e 4c3d f1f3 52bd 5fcd c13d 82b0 f93d
000002c0: 934b 2a3d 85fa c53d 5875 73bd cf80 d63d
000002d0: 8adb 1abc 7ab7 123e b76e e6bd ef2d 9bbc
000002e0: 8b4f 843d 23c3 9abc 2631 603d 22de 103c
000002f0: 2dc6 c13d c2ca e93d 001c b5bd e682 89bd
00000300: 5b60 143e b5d6 adbd 4495 b63d ce70 a43a
00000310: 0812 b8bd e7aa 91bc 8690 ef3c dc3b c6bd
00000320: e176 a53d 5bc3 99bd 6df7 143c 53d9 0dbd
00000330: 1fb1 263c e5b0 da3c 0e10 873d 4227 58bc
00000340: da5d 353d af5a afbd a69b 763d d47b edbd
00000350: b79f 18bc ac30 9a3d 664e eabd 3252 093e
00000360: 6d19 5c3b f941 d03d 1a52 20bd 05da b8bd
00000370: 3556 083e 02bf 993c 8919 a8bd 998f 403d
00000380: 7b13 d53d 0642 b4bd 061b a83d 54ff cebd
00000390: 45c7 29bc 3088 7ebd 70bb 893d 3e92 533d
000003a0: 75bc 25bd 2ee4 13bd 2e61 5a3d 7099 e13d
000003b0: 71e6 30bd efb0 9f3d bdac a3bd a059 06be
000003c0: 2645 953d a6b0 07bd bb27 f7bd cce1 ff3d
000003d0: b893 ecbd c485 16bd 2c79 02bd db27 263d
000003e0: 3c15 763d aa7a 293d e617 8cbd a29e f33c
000003f0: c306 fb3d c7f5 43bd 9649 edbd f339 c2bc

Q1.conv.net.0.bias f4 [3]
0.05216288 0.017245408 0.039540138
00000000: bea8 553d 3e46 8d3c d7f4 213d

Q1.conv.net.3.weight f4 [6, 3, 3, 3]
0.34432253 0.3256364 0.4747441 0.49119732 0.211463 0.20083718 0.37422144 -0.23593013
0.39259762 0.27227446 0.11547165 0.48877737 -0.088259295 0.09603347 -0.20552625 -0.3788807
-0.07890731 0.30375206 -0.26794127 -0.26854253 -0.2377586 0.10515194 0.06744429 0.319814
0.49752787 0.4595072 -0.40745404 -0.19041494 0.3022348 0.34181225 0.35730717 0.37392303
0.18247315 0.053846028 0.39319322 -0.0069561237 0.26500666 0.2947419 0.24946316 -0.21690416
-0.34032962 -0.13016224 0.39345506 -0.39400986 0.51013803 -0.2266962 -0.29804224 -0.07944837
0.17378834 0.3703226 -0.08213448 -0.28143048 -0.22358802 -0.2766253 -0.097833045 0.09242522
0.21449009 0.20623836 -0.35067618 0.15847892 0.24621016 0.23627755 0.18382357 0.1824841
-0.24995764 -0.2986275 -0.22232004 -0.3401233 0.523209 -0.16165961 0.10000472 0.062033232
0.09917592 0.529821 -0.093085706 0.37293985 0.34862363 0.027186133 0.16053262 0.018990604
0.3332084 0.115558125 0.07655894 -0.2877507 0.46363956 0.30186498 0.31145757 0.14907917
0.14426655 0.084857784 -0.39978024 -0.22874287 0.023256268 -0.04228604 -0.19927289 0.23965755
-0.42455217 0.503104 0.05524471 -0.32434332 0.13538855 -0.35852847 0.5101666 0.0896475
-0.30368325 -0.1838033 0.5124247 -0.019518264 0.39591777 0.34326002 0.43776262 -0.046559826
0.38668028 0.43029538 -0.368373 -0.2689623 0.04894092 -0.15744041 0.017774282 0.27515227
0.14077055 0.13945514 0.09805258 -0.25608805 0.37386003 0.17242028 0.04151426 -0.11075118
0.116685905 -0.22000812 0.3538951 -0.004453049 -0.13368085 0.2541648 0.14381988 -0.20021868
-0.026426287 -0.17592725 0.27434808 0.02338324 0.48877078 -0.14522336 0.48252344 0.33582813
-0.13671504 0.10970127 0.12493829 0.21384212 -0.15458806 0.14900212 -0.16412438 0.43287385
0.07645186 0.46829385 0.47691542 0.47074476 0.1740547 0.3231776 0.26111987 0.017826587
-0.37846807 -0.03745073
00000000: 0b4b b03e d0b9 a63e a911 f33e 377e fb3e
00000010: c289 583e 43a8 4d3e f499 bf3e ab97 71be
00000020: 8e02 c93e 8f67 8b3e 677c ec3d 0741 fa3e
00000030: 4ac1 b4bd 32ad c43d 7975 52be a7fc c1be
00000040: 289a a1bd 6485 9b3e 992f 89be 687e 89be
00000050: fe76 73be e659 d73d 3b20 8a3d a9be a33e
00000060: f9bb fe3e 8744 eb3e d19d d0be 22fc 42be
00000070: 85be 9a3e 0402 af3e f7f0 b63e d772 bf3e
00000080: 3eda 3a3e a78d 5c3d 9f50 c93e 32f0 e3bb
00000090: f4ae 873e 69e8 963e 4573 7f3e 201c 5ebe
000000a0: af3f aebe 4049 05be f172 c93e a9bb c9be
000000b0: 6898 023f 0c23 68be fe98 98be d4b5 a2bd
000000c0: 92f5 313e ec9a bd3e 1f36 a8bd a817 90be
000000d0: 42f4 64be d5a1 8dbe b15c c8bd 6f49 bd3d
000000e0: 4aa3 5b3e 2630 533e d48b b3be 4c48 223e
000000f0: 841e 7c3e bef2 713e 3f3c 3c3e 1ddd 3a3e
00000100: e5f4 7fbe b4e5 98be dda7 63be a424 aebe
00000110: 06f1 053f 198a 25be 46cf cc3d 8f16 7e3d
00000120: bf1c cb3d 59a2 073f b8a3 bebd f9f1 be3e
00000130: cc7e b23e 74b5 de3c aa62 243e 2f92 9b3c
00000140: 4b9a aa3e bda9 ec3d efca 9c3d 0f54 93be
00000150: 2a62 ed3e 0c8e 9a3e 5e77 9f3e 36a8 183e
00000160: 9cba 133e ebc9 ad3d ffaf ccbe 923b 6abe
00000170: ee83 be3c 2034 2dbd 310e 4cbe ca68 753e
00000180: e75e d9be 6ccb 003f 4748 623d 5410 a6be
00000190: 4ca3 0a3e 0b91 b7be 479a 023f 1c99 b73d
000001a0: 5f7c 9bbe ef36 3cbe 442e 033f c4e4 9fbc
000001b0: bcb5 ca3e c7bf af3e 6c22 e03e 84b5 3ebd
000001c0: f5fa c53e ad4f dc3e 639b bcbe 6db5 89be
000001d0: 4676 483d 0f38 21be 5f9b 913c c2e0 8c3e
000001e0: 2826 103e 54cd 0e3e cbcf c83d f91d 83be
000001f0: 956a bf3e f18e 303e db0a 2a3d 84d1 e2bd
00000200: 05f9 ee3d cf49 61be bd31 b53e e2ea 91bb
00000210: a2e3 08be e321 823e 8545 133e 2006 4dbe
00000220: f17b d8bc 4626 34be 5a77 8c3e 358e bf3c
00000230: 2a40 fa3e 6fb5 14be 500d f73e aaf1 ab3e
00000240: 07ff 0bbe 0fab e03d a5df ff3d 6ef9 5a3e
00000250: 554c 1ebe 0394 183e 3910 28be a4a1 dd3e
00000260: cb92 9c3d 36c4 ef3e 422e f43e 7505 f13e
00000270: 653b 323e 8977 a53e 81b1 853e 1009 923c
00000280: 91c6 c1be f065 19bd

Q1.conv.net.3.bias f4 [6]
0.047368445 0.07092418 0.10351785 0.050535865 0.03985289 0.036476444
00000000: 6a05 423d b240 913d 2b01 d43d b2fe 4e3d
00000010: c93c 233d 5368 153d

Q1.conv.net.6.weight f4 [6, 6, 3, 3]
0.32974193 0.035395592 0.06707988 0.2038961 0.26242766 0.014764629 -0.044030707 0.1735458
0.22435232 0.23410942 -0.2312587 -0.21967252 0.33775413 -0.28059244 -0.26792818 0.26822993
-0.038705032 0.008712352 -0.15399723 -0.18340576 -0.06216454 0.19619812 0.13143952 -0.14585738
-0.24278885 0.33283088 0.0009972007 0.20630567 0.20678891 -0.2960108 0.3193495 -0.18899488
-0.11647328 0.2375447 0.24272262 -0.19738999 0.3236708 0.13707384 0.29098144 0.20874235
-0.23931815 -0.08692722 0.3644561 -0.24071664 0.16921364 0.10386314 0.22084056 0.025066877
-0.22381698 -0.26539478 -0.031258784 0.21596521 -0.19015129 -0.19908102 0.35242277 0.3143052
0.03516443 0.23972444 -0.13648409 0.037609406 -0.12556882 0.18228555 0.36273482 0.15270992
0.04739489 0.056781605 -0.10847869 0.10787064 0.35774252 0.20361596 0.26893717 -0.13484506
0.2534652 0.049344867 0.42778134 0.09980748 0.104342684 0.34790796 0.30098796 -0.17840666
0.005727663 -0.22703128 0.04284691 0.2856082 0.2906263 0.27269256 0.093617514 -0.07733837
0.19145562 0.13537188 -0.24535087 0.07414042 0.17819287 -0.08884292 -0.050645865 0.27607083
0.097396515 0.19930904 0.04280994 0.22061819 0.18661956 -0.20163476 0.16820258 -0.09386894
0.39043382 -0.2383102 0.29906744 0.04171977 0.27979887 0.34888804 -0.070652284 -0.16310355
-0.21035971 -0.23138203 -0.089422904 -0.22813334 0.25291386 0.36302593 0.054784555 -0.15311195
0.3073921 0.09040577 0.32307795 -0.21564627 -0.13767806 0.025884302 0.3854601 -0.10602001
-0.16904594 0.3007133 -0.08054205 -0.1479801 0.22184466 -0.24441755 0.0011448589 0.16992791
0.310724 0.12678725 0.30783716 -0.0038611216 -0.09820868 0.2821139 0.030971099 -0.25712973
0.017952777 -0.00576892 0.25878516 0.34759676 0.06180126 0.07990556 0.29462275 -0.099296086
0.13825125 0.18562822 0.14418188 -0.030542035 0.3289464 0.055006254 -0.12903972 -0.050047275
-0.08025708 0.20144269 0.14077145 0.29891065 0.13536453 0.2609313 0.0064252815 0.056623686
-0.062611885 0.3246925 0.3474976 -0.09375837 0.06396728 -0.04368081 0.21883589 0.34936243
0.35696247 0.3478779 0.28937483 0.06693821 0.3363389 0.16680184 -0.15659742 0.0341443
0.05593541 0.42048624 0.24860336 0.15774143 -0.19116472 -0.16031128 0.024117254 0.295551
0.31489086 0.3556552 0.111717 0.3790056 0.064196564 0.07059022 -0.033785336 -0.22573052
-0.26861912 0.17857334 0.2915108 0.17006934 -0.14793321 0.3026227 -0.027370404 -0.03860165
-0.08920802 0.2292176 -0.24502453 -0.22592743 -0.097438335 0.26225978 0.07728779 0.3607324
-0.17808528 -0.0919622 0.2832279 0.27680677 0.28082335 0.3257121 0.19174255 -0.038837753
-0.22177474 0.093481004 -0.08772314 -0.1618341 0.23304595 -0.13642848 -0.024354182 -0.17362593
-0.18347801 0.042869493 0.10491116 0.3729806 0.35820815 -0.2194442 0.093912706 -0.22655812
-0.12796748 0.15021768 0.15755017 -0.011635192 0.27037278 -0.037127387 0.27485564 0.07448152
-0.19835502 0.055203572 0.025768075 0.3126407 0.045380343 -0.19181797 0.344149 0.07358044
00000000: efd3 a83e f8fa 103d 2d61 893d 24ca 503e
00000010: eb5c 863e 58e7 713c 8b59 34bd fdb5 313e
00000020: 9dbc 653e 61ba 6f3e 15cf 6cbe d5f1 60be
00000030: 1cee ac3e d0a9 8fbe e22d 89be 6f55 893e
00000040: 2b89 1ebd 41be 0e3c 73b1 1dbe b8ce 3bbe
00000050: 3fa0 7ebd 29e8 483e 1598 063e a35b 15be
00000060: a49d 78be cf68 aa3e 81b4 823a cb41 533e
00000070: 79c0 533e ba8e 97be c781 a33e e087 41be
00000080: 8b89 eebd eb3e 733e 478c 783e 9a20 4abe
00000090: 2eb8 a53e 165d 0c3e 85fb 943e 8ec0 553e
000000a0: d10f 75be e606 b2bd fd99 ba3e 6c7e 76be
000000b0: 5746 2d3e 33b6 d43d 0724 623e 0d59 cd3c
000000c0: 4730 65be d3e1 87be 3609 00bd fc25 5d3e
000000d0: 05b7 42be e5db 4bbe c270 b43e 9cec a03e
000000e0: 9408 103d 537a 753e 7cc2 0bbe 520c 1a3d
000000f0: 1d95 00be 10a9 3a3e 61b8 b93e fd5f 1c3e
00000100: 2521 423d d493 683d 132a debd 48eb dc3d
00000110: 072a b73e b480 503e 22b2 893e d314 0abe
00000120: 31c6 813e d81d 4a3d 2806 db3e dd67 cc3d
00000130: 9eb1 d53d fe20 b23e 181b 9a3e 3cb0 36be
00000140: 1faf bb3b e37a 68be 3e80 2f3d 3d3b 923e
00000150: f8cc 943e 5c9e 8b3e 8aba bf3d 9463 9ebd
00000160: f10c 443e ed9e 0a3e 423d 7bbe efd6 973d
00000170: 3178 363e 47f3 b5bd 0a72 4fbd 2859 8d3e
00000180: d377 c73d ab17 4c3e 7a59 2f3d bce9 613e
00000190: 3319 3f3e 5879 4ebe 4c3d 2c3e 5c3e c0bd
000001a0: f1e6 c73e 9707 74be 5e1f 993e 59e2 2a3d
000001b0: cc41 8f3e 74a1 b23e 25b2 90bd 9e04 27be
000001c0: 8968 57be 69ef 6cbe 5b23 b7bd c99b 69be
000001d0: ed7d 813e 89de b93e c565 603d 61c9 1cbe
000001e0: 7f62 9d3e a926 b93d 796a a53e 60d2 5cbe
000001f0: 7afb 0cbe 510b d43c 075b c53e 0521 d9bd
00000200: 611a 2dbe 18f7 993e 3bf3 a4bd 1888 17be
00000210: 3f2b 633e 9848 7abe 170f 963a 9501 2e3e
00000220: 3717 9f3e 84d4 013e d59c 9d3e df0a 7dbb
00000230: a221 c9bd 3c71 903e 1ab7 fd3c 82a6 83be
00000240: b411 933c 3509 bdbb 7d7f 843e 34f8 b13e
00000250: 5123 7d3d 87a5 a33d cbd8 963e bf5b cbbd
00000260: bc91 0d3e 5315 3e3e 6aa4 133e 4a33 fabc
00000270: aa6b a83e 3d4e 613d fd22 04be 5ffe 4cbd
00000280: d35d a4bd fe46 4e3e 6426 103e d10a 993e
00000290: 009d 0a3e ca98 853e 2b8b d23b 3dee 673d
000002a0: a93a 80bd 183e a63e 35eb b13e 6304 c0bd
000002b0: 4701 833d a6ea 32bd 8416 603e a2df b23e
000002c0: c9c3 b63e 0d1d b23e f028 943e e616 893d
000002d0: 9d34 ac3e 1ace 2a3e 135b 20be e5da 0b3d
000002e0: 871c 653d f949 d73e e191 7e3e f886 213e
000002f0: afc0 43be a428 24be 8c91 c53c 7652 973e
00000300: 6039 a13e 7018 b63e e2cb e43d 060d c23e
00000310: 7d79 833d 9b91 903d 7e62 0abd e725 67be
00000320: 7288 89be eedb 363e e740 953e a826 2e3e
00000330: ce7b 17be 5df1 9a3e e637 e0bc c41c 1ebd
00000340: b2b2 b6bd 05b8 6a3e b6e7 7abe 8559 67be
00000350: c08d c7bd ea46 863e 1049 9e3d ebb1 b83e
00000360: fd5b 36be ae56 bcbd 3f03 913e 9eb9 8d3e
00000370: 14c8 8f3e bdc3 a63e 2958 443e 5614 1fbd
00000380: eb18 63be f872 bf3d 31a8 b3bd d7b7 25be
00000390: 99a3 6e3e e8b3 0bbe 6c82 c7bc ffca 31be
000003a0: a9e1 3bbe ec97 2f3d aadb d63d 50f7 be3e
000003b0: 0f67 b73e fbb5 60be 4e55 c03d dafe 67be
000003c0: e809 03be aad2 193e d554 213e 88a1 3ebc
000003d0: 4d6e 8a3e e312 18bd e1b9 8c3e c489 983d
000003e0: 941d 4bbe 241d 623d 9217 d33c 7112 a03e
000003f0: bde0 393d ee6b 44be 4c34 b03e 57b1 963d

Q1.conv.net.6.bias f4 [6]
0.029149327 0.057429302 0.03889443 0.048622645 0.04459708 0.027046613
00000000: 92ca ee3c fd3a 6b3d c44f 1f3d 8a28 473d
00000010: 6eab 363d dc90 dd3c

Q1.a_head.0.weight f4 [128, 294]
0.04545706 -0.0017755404 0.048964467 -0.023375252 0.008134796 0.05070793 -0.05837831 0.04078535
0.029058235 0.023494322 -0.032838315 0.022225372 0.036646485 -0.040844057 -0.0102842385 -0.013659861
0.045897238 -0.05207379 0.001961936 0.038649797 -0.04113811 -0.009578517 -0.0033258935 -0.015197501
0.03621979 -0.053094618 0.022578606 0.04416574 0.026059236 -0.013861036 -0.04094508 0.052574098
-0.03484896 0.044839352 -0.05713857 0.035015203 -0.031713482 0.003588266 -0.018301874 0.0057132905
-0.00778205 0.020823538 -0.05783628 0.0017327737 0.015538851 -0.046866413 0.06213718 0.03699606
-0.014483046 0.04331695 5.022779e-05 -0.046368424 0.051580947 -0.019452382 -0.032791223 -0.06359915
-0.033877987 -0.043691367 -0.051591516 0.006697654 -0.0022651851 -0.005549109 0.014151404 0.021953661
0.043046597 -0.03448785 0.030682357 -0.05092408 0.029578734 -0.010782883 -0.03598019 0.053618684
0.024105208 -0.017952526 0.03352944 -0.021173662 0.0045397915 -0.034023773 0.03618659 0.02765821
-0.059308413 -0.044090584 -0.050366737 0.034372758 0.0026491575 0.023355814 -0.04834542 0.007841129
-0.008219238 0.023091456 -0.033515085 -0.040996756 0.031537514 -0.05002783 -0.05548804 -0.019835168
0.002484286 -0.04408732 0.015809406 -0.06389015 -0.032516748 -0.05834302 -0.036800392 -0.01645781
0.02264407 0.0074978187 0.028454961 0.031912997 0.017721022 0.041344788 0.03043543 -0.05659892
0.008703569 -0.024644844 0.026121564 -0.02622454 0.02859427 -0.04062952 0.004638776 0.03665028
0.035158392 0.004402076 0.025640093 0.00855904 -0.013610383 0.03618082 0.004058964 0.013920759
-0.0091909915 -0.00021064066 -0.019846348 0.026920691 0.021460056 -0.053555645 0.04114425 -0.060473684
-0.008404227 -0.035909243 -0.04074204 -0.015956925 -0.04004536 -0.06424809 -0.02688672 -0.04653842
0.0006930696 0.039511554 -0.040172264 -0.033097077 -0.03998818 0.021579526 0.013219384 -0.009188441
-0.007339966 0.026261562 0.032865755 0.0010597823 0.016604712 -0.007402937 0.048098437 -0.019062085
0.02648015 0.022956965 0.024533845 -0.00019606727 -0.054432616 0.0437479 0.048346948 0.020373352
0.037545837 -0.007218525 -0.06304296 -0.0015188362 -0.051816106 0.01897975 -0.011160633 0.02084053
0.003944112 -0.0548894 -0.030710142 -0.028087 0.04162454 0.046994675 -0.014525668 -4.8893347e-05
0.032232713 0.06065486 -0.011599126 0.055008087 0.03968372 -0.026639873 0.05059592 -0.026655534
-0.042588968 0.016085217 -0.045036253 -0.0113515565 0.01965702 -0.05395154 -0.026992071 -0.0044386084
-0.02431224 0.039770618 0.042670287 0.01639875 0.026814029 0.023239411 -0.056021642 0.035841845
0.017815946 0.024759676 -0.022895917 -0.032329798 0.032853004 -0.05762769 0.030561509 0.0048467047
0.031969253 0.048797596 -0.0451663 0.010912903 0.029279571 0.011258892 -0.043090053 0.027794296
-0.034929026 -0.05022928 -0.056096915 0.013386481 -0.0071623265 0.019793196 -0.024863228 0.047080982
0.051245682 -0.054008923 -0.049832057 0.0006897812 -0.02701306 -0.053862497 -0.0069556967 -0.011586313
-0.036492687 -0.0051939012 -0.034170333 0.04958303 -0.0051592863 -0.004127361 -0.02337841 -0.001042906
-0.04706525 0.018199926 -0.061506264 -0.027565937 0.015955837 0.046941444 -0.016772132 -0.011525074
00000000: 2f31 3a3d 40b9 e8ba f78e 483d 757d bfbc
00000010: cf47 053c 1eb3 4f3d 181e 6fbd 8a0e 273d
00000020: 890b ee3c 2a77 c03c 7881 06bd fc11 b63c
00000030: a01a 163d 194c 27bd 397f 28bc 9ccd 5fbc
00000040: befe 3b3d 544b 55bd d393 003b 404f 1e3d
00000050: 6f80 28bd 36ef 1cbc 3cf7 59bb f0fe 78bc
00000060: 345b 143d be79 59bd c5f6 b83c 23e7 343d
00000070: 2e7a d53c 6619 63bc 07b6 27bd f057 573d
00000080: c8bd 0ebd 78a9 373d 220a 6abd 1a6c 0f3d
00000090: ffe5 01bd 1d29 6b3b d0ed 95bc 8e36 bb3b
000000a0: 9100 ffbb 2096 aa3c bce5 6cbd 3d1e e33a
000000b0: aa96 7e3c fff6 3fbd 8e83 7e3d 2e89 173d
000000c0: 4c4a 6dbc 1d6d 313d aeab 5238 d1ec 3dbd
000000d0: 8b46 533d 9a5a 9fbc 1750 06bd 4540 82bd
000000e0: a5c3 0abd b8f5 32bd a051 53bd fe77 db3b
000000f0: 8073 14bb 4dd5 b5bb 4adb 673c 2ad8 b33c
00000100: a151 303d 2243 0dbd 9159 fb3c c595 50bd
00000110: 1a4f f23c b0aa 30bc f75f 13bd 449f 5b3d
00000120: 4978 c53c 2d11 93bc 2b56 093d 6374 adbc
00000130: 88c2 943b 835c 0bbd 6438 143d 7893 e23c
00000140: 61ed 72bd 5498 34bd 5a4d 4ebd 73ca 0c3d
00000150: 7d9d 2d3b b154 bf3c d905 46bd 1478 003c
00000160: fca9 06bc 4b2a bd3c 1d47 09bd 37ec 27bd
00000170: 7b2d 013d fbe9 4cbd 6d47 63bd 5d7d a2bc
00000180: 67cf 223b e894 34bd ba82 813c d7d8 82bd
00000190: 4830 05bd 17f9 6ebd 02bc 16bd 87d2 86bc
000001a0: 0f80 b93c 43b0 f53b 611a e93c 34b7 023d
000001b0: ad2b 913c 2759 293d b953 f93c 45d4 67bd
000001c0: 6a99 0e3c fce3 c9bc e4fc d53c d9d4 d6bc
000001d0: 883e ea3c 246b 26bd e000 983b 9b1e 163d
000001e0: 3f02 103d 4a3f 903b 2c0b d23c 373b 0c3c
000001f0: 15fe 5ebc 5732 143d 0f01 853b e513 643c
00000200: d095 16bc 6cdf 5cb9 cf94 a2bc c888 dc3c
00000210: 00cd af3c 2a5d 5bbd e086 283d 41b3 77bd
00000220: e2b1 09bc 9215 13bd 20e1 26bd 19b8 82bc
00000230: 9a06 24bd 8194 83bd 8a41 dcbc 129f 3ebd
00000240: 1daf 353a ded6 213d ac8b 24bd cd90 07bd
00000250: a5ca 23bd 8cc7 b03c 1d96 583c 1d8b 16bc
00000260: 1984 f0bb 7d22 d73c 3e9e 063d 65e8 8a3a
00000270: 9b06 883c 5694 f2bb de02 453d 1728 9cbc
00000280: e6ec d83c 3f10 bc3c 34fb c83c 6897 4db9
00000290: bcf4 5ebd ff30 333d 7307 463d 04e6 a63c
000002a0: aac9 193d 6089 ecbb ab1c 81bd b013 c7ba
000002b0: 203d 54bd 6c7b 9b3c 16db 36bc c2b9 aa3c
000002c0: 9c3d 813b b5d3 60bd d693 fbbc b516 e6bc
000002d0: 7e7e 2a3d 7d7d 403d 11fd 6dbc d512 4db8
000002e0: 7306 043d 3b71 783d 430a 3ebc 2950 613d
000002f0: 658b 223d dd3b dabc ab3d 4f3d b55c dabc
00000300: c571 2ebd 25c5 833c ef77 38bd e1fb 39bc
00000310: c207 a13c 4afc 5cbd 7a1e ddbc bf71 91bb
00000320: 762a c7bc 84e6 223d 0ac7 2e3d ac56 863c
00000330: 18a9 db3c 9460 be3c f376 65bd e6ce 123d
00000340: bff2 913c ced4 ca3c 3890 bbbc 406c 04bd
00000350: df90 063d 030b 6cbd 215c fa3c 1bd1 9e3b
00000360: 31f2 023d fddf 473d 4c00 39bd 08cc 323c
00000370: b6db ef3c 3777 383c 327f 30bd ddb0 e33c
00000380: bd11 0fbd 38bd 4dbd e1c5 65bd f952 5b3c
00000390: f3b1 eabb 5725 a23c f8ad cbbc fdd7 403d
000003a0: fee6 513d 7638 5dbd b31c 4cbd 6fd2 343a
000003b0: 7e4a ddbc ec9e 5cbd 9dec e3bb 85d4 3dbc
000003c0: 5b79 15bd 9a31 aabb 31f6 0bbd 9317 4b3d
000003d0: 3b0f a9bb d03e 87bb 1484 bfbc 1eb2 88ba
000003e0: 7ec7 40bd 0318 953c feed 7bbd f6d1 e1bc
000003f0: d1b5 823c ac45 403d b665 89bc aad3 3cbc

Q1.a_head.0.bias f4 [128]
0.022018438 -0.02459361 -0.03844666 -0.00320588 -0.03442561 -0.032853585 -0.035641693 0.030757627
0.008833584 0.023072278 0.037165076 0.006443628 -0.019236859 0.015980847 -0.031318754 0.059988867
-0.011057685 -0.033515435 0.076606184 -0.017340185 -0.060586132 0.0075825015 -0.036482096 0.048434112
0.0038131347 -0.023256384 -0.016396483 0.0075783166 0.02904582 -0.014544631 -0.032019865 0.029973734
-0.019216515 0.008638771 -0.01718244 0.0104910415 0.011686748 -0.0091166515 0.045954745 0.011866558
-0.00998578 -0.04819858 -0.0011674392 0.022168959 0.023407506 0.015886405 -0.030698078 0.018525757
0.027773472 -0.01824788 0.025902683 -0.048993234 0.030194217 0.0406553 -0.03296602 -0.021345323
-0.048925072 0.015470905 0.011353139 0.01774802 -0.02087173 -0.05493539 0.0061613023 0.016493177
0.017564801 -0.036209743 0.008563053 0.043952413 0.005594309 -0.024868479 0.0008223604 -0.023322258
0.018810807 0.026780743 -0.033584494 -0.038726978 -0.051243734 0.048591804 0.028532892 0.062158823
-0.025612446 0.027930401 -0.009445959 0.015217708 0.0015368098 0.05686743 -0.0122898705 -0.0007462126
0.04908627 -0.03856725 0.037043866 -0.01456691 0.04462966 0.068167105 -0.046700157 -0.016827479
-0.0096489005 -0.04370322 -0.007989158 0.028404558 -0.03572677 0.0068603824 0.04122244 -0.023075413
-0.02721648 0.074667044 -0.01605368 -2.4763396e-05 -0.0040716287 0.04771103 -0.015151595 0.0074572037
0.014583446 -0.033031866 -0.049947195 -0.033678934 0.055281863 -0.06149115 -0.026486332 0.022755567
0.058865815 -0.013836183 0.05540449 -0.0048085544 0.027382342 -0.05849717 -0.044426393 -0.037404567
00000000: 0360 b43c 8a78 c9bc 3f7a 1dbd be19 52bb
00000010: de01 0dbd 7b91 06bd 06fd 11bd 6bf7 fb3c
00000020: bdba 103c 1302 bd3c 683a 183d 1225 d33b
00000030: 9e96 9dbc 44ea 823c 1848 00bd e3b6 753d
00000040: 4b2b 35bc 7b47 09bd b4e3 9c3d 010d 8ebc
00000050: 2a29 78bd a276 f83b 406e 15bd d962 463d
00000060: c9e5 793b 2c84 bebc eb51 86bc 8753 f83b
00000070: 80f1 ed3c 9b4c 6ebc 4327 03bd 7a8b f53c
00000080: f46b 9dbc a289 0d3c 30c2 8cbc 9ee2 2b3c
00000090: c679 3f3c 025e 15bc 0b3b 3c3d f46b 423c
000000a0: 669b 23bc e06b 45bd c204 99ba ad9b b53c
000000b0: 19c1 bf3c 3524 823c 897a fbbc 54c3 973c
000000c0: 3185 e33c 947c 95bc dd31 d43c 21ad 48bd
000000d0: dd59 f73c 2c86 263d 6107 07bd 63dc aebc
000000e0: a865 48bd ae79 7d3c 8402 3a3c 4c64 913c
000000f0: 31fb aabc ee03 61bd c0e4 c93b b31c 873c
00000100: 0fe4 8f3c ab50 14bd 0c4c 0c3c 7207 343d
00000110: 7750 b73b fbb8 cbbc ac93 573a 520e bfbc
00000120: 1f19 9a3c 4a63 db3c e58f 09bd 2ea0 1ebd
00000130: f3e4 51bd 3308 473d d0bd e93c 409a 7e3d
00000140: 31d1 d1bc 4cce e43c 39c3 1abc b253 793c
00000150: c86e c93a d3ed 683d 745b 49bc 7b9d 43ba
00000160: af0e 493d b1f8 1dbd 4fbb 173d 0daa 6ebc
00000170: 97cd 363d 329b 8b3d aa48 3fbd c8d9 89bc
00000180: 6c16 1ebc 2602 33bd f5e4 02bc adb0 e83c
00000190: 3c56 12bd 0fcd e03b dcd8 283d a608 bdbc
000001a0: 18f5 debc 09eb 983d 0283 83bc fdba cfb7
000001b0: 4c6b 85bb a46c 433d 653e 78bc 8f5b f43b
000001c0: 68ef 6e3c 6c4c 07bd 6e95 4cbd ecf2 09bd
000001d0: 3c6f 623d 25de 7bbd ddf9 d8bc e269 ba3c
000001e0: 481d 713d 28b1 62bc d2ef 623d 1491 9dbb
000001f0: ef50 e03c bb9a 6fbd 73f8 35bd 8835 19bd

Q1.a_head.2.weight f4 [6, 128]
-0.026103565 0.012532158 -0.048705146 0.06692346 -0.024388388 -0.06006567 0.009758815 0.0051514134
0.054546665 -0.07130302 -0.016517354 0.05641242 -0.061204247 -0.0007879373 0.07836936 0.05495392
-0.053663265 0.08082774 -0.004325059 -0.053789716 0.011877813 0.069789924 -0.08230974 0.061137047
-0.070694074 0.014497749 -0.0419592 0.015365439 0.058872834 -0.02925037 0.008536084 -0.02648316
0.040659662 -0.07117737 -0.03603384 0.027743408 0.0120152095 0.054909065 0.015280599 -0.018062696
-0.08328178 0.01128963 0.027940819 -0.0067424015 -0.045990083 0.05551139 0.012418848 -0.065221205
-0.028748328 0.079507165 -0.06799232 0.037729453 0.006614721 0.05805522 5.388264e-05 0.07202383
0.0034070122 0.06301346 0.019565482 -0.057928987 0.06441781 -0.03568693 0.057958856 -0.045474082
0.059412695 0.07429675 0.04304024 0.063601464 -0.086972535 0.01363591 0.037440676 0.009536796
0.045745973 -0.059189763 -0.026917936 -0.023570564 0.04065579 -0.03467319 0.033641092 -0.039018292
0.037373625 0.05765108 -0.031865362 -0.031440318 -0.032845043 0.031163296 -0.01031204 -0.036428083
0.010608743 0.07003387 0.045917798 0.008920293 0.0068134503 -0.091449924 0.05561302 -0.043420892
-0.08786869 0.038084496 -0.03280798 0.028448308 0.04519419 -0.07379475 0.023567695 0.08141066
-0.017268362 0.04398593 -0.039917286 0.058506593 0.07111017 -0.009901774 0.033365894 0.008693117
0.0022466602 -0.068234354 -0.03345933 -0.07868254 0.077185646 -0.037236236 0.06997994 -0.057553068
-0.076093175 -0.055806164 -0.017889516 -0.077797435 -0.0788209 0.015614836 0.008103103 0.009197549
0.04456749 0.068343274 -0.052721724 0.04962117 0.067145705 0.06369569 -0.03237599 -0.035869345
0.026746713 0.007046831 0.02727268 0.015659234 -0.007819783 0.026623707 0.05410484 -0.032379344
0.070936136 0.0720408 -0.05123228 0.08628567 -0.050545674 -0.072242476 0.023930527 -0.028062893
-0.07918626 0.030204918 0.0143955555 0.052062176 -0.057296842 0.009960446 0.06459886 -0.06563868
-0.0042283107 0.06960539 -0.07203706 0.06824819 0.004063499 0.010257555 0.049005747 -0.056449402
-0.023617636 0.07015717 -0.023187643 0.05636102 -0.060921595 0.010122575 -0.057813987 0.05690642
-0.0062633543 0.06441597 -0.07045377 0.00031529498 -0.081269726 0.034347147 -0.015624412 -0.03166659
-0.07435821 0.075013585 0.07665993 0.057240244 -0.029364578 0.012874814 -0.013898283 -0.051948946
0.050301388 -0.07445423 -0.030596033 -0.0591347 -0.008777962 0.04612032 0.08208411 -0.033883754
0.02215207 -0.049941093 0.03728785 0.0768643 0.05946458 -0.037242644 0.00060674764 -0.050174452
-0.059077974 -0.08492826 0.06195813 -0.048192397 0.014561211 -0.03703486 -0.041523606 0.05361524
-0.024951423 -0.07321091 -0.026329156 0.070367 -0.08666414 -0.046397086 0.02521448 -0.09663694
0.08107184 0.06503048 0.07739298 0.051932577 0.064205945 0.054447528 0.061278038 -0.026474433
0.042756025 -0.06336553 -0.06106961 0.005603074 -0.017115805 0.06948408 0.06251623 0.06096138
-0.07373244 -0.050179504 0.07943247 0.07841131 0.07411484 -0.01402344 0.005495972 0.01858885
0.033822518 -0.023897376 -0.03459022 0.020477276 -0.016698703 0.0146969445 0.052932046 0.07187438
00000000: 25d7 d5bc ae53 4d3c 0c7f 47bd 2b0f 893d
00000010: 28ca c7bc 6c07 76bd 70e3 1f3c 30cd a83b
00000020: 536c 5f3d 5107 92bd 674f 87bc b610 673d
00000030: 4eb1 7abd 948d 4eba 1d80 a03d 5d17 613d
00000040: 03ce 5bbd 0489 a53d 39b9 8dbb 9b52 5cbd
00000050: 299b 423c 05ee 8e3d 0292 a8bd d76a 7a3d
00000060: 0ec8 90bd f787 6d3c 69dd 2bbd 52bf 7b3c
00000070: a424 713d 799e efbc eeda 0b3c 36f3 d8bc
00000080: bf8a 263d 71c5 91bd 3898 13bd 2546 e33c
00000090: 71db 443c 54e8 603d 7a5b 7a3c 38f8 93bc
000000a0: a38f aabd 24f8 383c 25e4 e43c 5def dcbb
000000b0: 1960 3cbd e95f 633d 6d78 4b3c b292 85bd
000000c0: 9d81 ebbc a7d4 a23d 8f3f 8bbd 338a 1a3d
000000d0: 4dc0 d83b 4fcb 6d3d 0b00 6238 3b81 933d
000000e0: 2e48 5f3b 330d 813d ca47 a03c f246 6dbd
000000f0: 7ced 833d 752c 12bd 4466 6d3d 0843 3abd
00000100: ba5a 733d e528 983d f64a 303d 7c41 823d
00000110: a81e b2bd 2769 5f3c 655b 193d 3940 1c3c
00000120: 2160 3b3d f770 72bd 0183 dcbc 0e17 c1bc
00000130: b086 263d 7a05 0ebd 3ecb 093d a5d1 1fbd
00000140: 1615 193d 8a23 6c3d 4185 02bd 90c7 00bd
00000150: 8688 06bd 2b4a ff3c d5f3 28bc 9d35 15bd
00000160: 4bd0 2d3c eb6d 8f3d 4d14 3c3d 6c26 123c
00000170: 5d43 df3b 194a bbbd 7aca 633d 1bda 31bd
00000180: 80f4 b3bd 7dfe 1b3d a961 06bd 6d0c e93c
00000190: 8b1d 393d b421 97bd 0a11 c13c a2ba a63d
000001a0: 6176 8dbc 972a 343d 4f80 23bd 9ca4 6f3d
000001b0: 35a2 913d 0d3b 22bc adaa 083d 936d 0e3c
000001c0: b43c 133b 74be 8bbd a70c 09bd 5024 a1bd
000001d0: 8213 9e3d 0685 18bd a551 8f3d c4bc 6bbd
000001e0: bdd6 9bbd 0195 64bd 098d 92bc 4354 9fbd
000001f0: da6c a1bd 5ed5 7f3c e1c2 043c 51b1 163c
00000200: 678c 363d 8ff7 8b3d bcf2 57bd 913f 4b3d
00000210: b083 893d e372 823d b09c 04bd bceb 12bd
00000220: ec1b db3c 1ae9 e63b f56a df3c cb47 803c
00000230: 8c1e 00bc f619 da3c 099d 5d3d 34a0 04bd
00000240: f746 913d 208a 933d f0d8 51bd 8bb6 b03d
00000250: fb08 4fbd ddf3 93bd f409 c43c 27e4 e5bc
00000260: 682c a2bd 4e70 f73c 56db 6b3c 263f 553d
00000270: 18b0 6abd 2331 233c 684c 843d 926d 86bd
00000280: a48d 8abb 458d 8e3d 2b88 93bd b5c5 8b3d
00000290: 1a27 853b 4e0f 283c 40ba 483d 7d37 67bd
000002a0: c679 c1bc 90ae 8f3d 03f4 bdbc d0da 663d
000002b0: ec88 79bd 28d9 253c 5cce 6cbd b516 693d
000002c0: d33c cdbb 85ec 833d 114a 90bd 2d4e a539
000002d0: be70 a6bd 98af 0c3d 89fd 7fbc d4b4 01bd
000002e0: 1e49 98bd b9a0 993d e2ff 9c3d bf74 6a3d
000002f0: fc8d f0bc e2f0 523c a0b5 63bc 6bc8 54bd
00000300: d408 4e3d 767b 98bd 88a4 fabc 3a37 72bd
00000310: 71d1 0fbc a9e8 3c3d b71b a83d b1c9 0abd
00000320: 4278 b53c 088f 4cbd 25bb 183d 086b 9d3d
00000330: 2291 733d be8b 18bd 250e 1f3a ba83 4dbd
00000340: bffb 71bd deee adbd cfc7 7d3d 6465 45bd
00000350: 2592 6e3c deb1 17bd a814 2abd a79b 5b3d
00000360: ed66 ccbc 9aef 95bd 3eb0 d7bc 931c 903d
00000370: f87c b1bd df0a 3ebd 998e ce3c 97e9 c5bd
00000380: fe08 a63d b32e 853d 3680 9e3d 41b7 543d
00000390: 687e 833d 5f04 5f3d aefe 7a3d e9e0 d8bc
000003a0: f120 2f3d c9c5 81bd 2124 7abd fe99 b73b
000003b0: 7236 8cbc ab4d 8e3d 8208 803d a4b2 793d
000003c0: 0901 97bd 0689 4dbd 7ead a23d 1c96 a03d
000003d0: 85c9 973d 92c2 65bc 8e17 b43b a547 983c
000003e0: 7b89 0a3d 6ec4 c3bc 79ae 0dbd f6bf a73c
000003f0: b8cb 88bc 74cb 703c 46cf 583d e032 933d

Q1.a_head.2.bias f4 [6]
0.08000289 -0.09666591 -0.054074686 -0.032045674 -0.018173795 0.025297873
00000000: 8ed8 a33d c7f8 c5bd 6b7d 5dbd 5342 03bd
00000010: 36e1 94bc 7c3d cf3c

Q1.v_head.0.weight f4 [128, 294]
0.070561714 0.09426465 0.03095076 0.008627416 0.08508729 0.038591586 0.01661566 0.11078388
0.06109758 0.07136801 0.08997095 0.012042927 -0.034384694 0.053564828 -0.00034184038 0.03822661
0.03647673 0.043812975 -0.0042364434 -0.0053304303 0.06008709 0.09674525 0.0101241 0.07496141
0.028395763 -0.013976429 -0.00905336 -0.046648245 0.06706172 0.08623661 0.029358486 0.045367498
-0.025823513 -0.039413847 0.042655375 0.06880751 0.096460424 0.080427155 0.08257582 0.068516634
0.044526283 0.048101246 0.07171211 0.017736755 0.055602115 0.0073577133 0.06749617 0.033984594
-0.008331896 0.028824428 0.10008912 0.025320083 0.08784217 0.056156285 0.110809274 0.11406093
0.06688333 0.02197479 0.10942246 0.03669451 0.04498829 0.09273147 0.10538757 0.10630929
0.09045049 0.09018907 0.029629918 0.023532407 0.10018177 0.06866497 0.11985957 0.101206645
0.1136926 0.009045222 0.030084018 0.05440507 0.046236858 0.1220373 0.104264386 0.008465065
0.019782681 0.03046208 0.047838658 0.049135324 0.06887082 0.11300467 0.04014782 0.08186141
0.112032324 0.06934987 0.11264899 0.011174174 0.026870511 0.102785274 0.11653312 0.051919453
0.052092746 0.10069512 0.060667645 0.012983446 0.059287418 -0.0017025523 0.00685672 0.07743463
0.095389776 0.06357437 0.04113081 0.102011204 0.059228364 0.067606375 0.08393552 -0.0025722596
0.10885343 0.01920238 0.043264557 0.021090114 0.013505992 0.02565274 0.011805791 0.007629473
-0.0053831735 0.04815353 0.027127739 0.060253065 0.0456625 0.059399758 0.08258824 0.10125394
0.054436784 0.037326295 0.05082313 0.07374117 -0.0043518012 0.09722359 0.0005621025 -0.0068500866
0.07327127 -0.00027460797 0.06266543 0.06770677 0.08388703 0.07558605 0.026743071 0.005116582
-0.0013653511 0.028836075 0.06178657 0.0376705 0.08336758 0.0402096 0.09201713 0.037231512
0.063829035 0.08281507 0.04258887 0.08226801 0.043385115 0.080923766 0.08266156 0.047277488
0.026700038 0.06980744 0.015657606 0.065849036 0.051452912 0.05110084 -0.008100935 0.03400318
0.09399894 0.09987633 0.0582457 0.04076033 0.023810178 0.10601015 0.061593004 0.056365084
0.11230037 0.057962134 0.015228369 0.09995966 0.082045324 0.099977665 0.037472606 0.11643993
0.06478922 0.02503858 0.07408909 0.032065995 0.039482035 0.04524011 0.10126305 0.021336345
0.06956949 0.005316673 0.029158939 0.014161671 0.10454059 0.09291074 0.07301479 0.08357487
0.08945753 0.064860664 0.0037407477 0.08540494 0.056554146 0.07261067 0.06331008 0.0807958
0.046672374 -0.0032608407 0.092621475 0.03820519 0.084188834 0.06715745 0.05903547 0.050026998
0.08184672 0.10333111 0.009636005 -0.007750237 -0.0099022845 0.03161298 0.06401253 0.0036265934
0.06703332 0.048516788 0.028960278 0.0019028 0.08374821 0.10659628 0.0030779624 0.10383959
0.0421286 -0.009921342 0.017269056 0.07114363 0.0660188 0.100108825 0.050843135 0.021410381
0.083603926 0.051111154 0.046886757 0.11499347 0.08519443 0.006874298 0.018395487 0.07395165
0.079171136 0.042968318 0.031497568 0.0034621735 0.09763515 0.0673949 -0.025559686 0.007258757
00000000: a982 903d d30d c13d 738c fd3c 015a 0d3c
00000010: 3f42 ae3d 3612 1e3d 911d 883c a9e2 e23d
00000020: 7541 7a3d 6429 923d b042 b83d b24f 453c
00000030: f7d6 0cbd cb66 5b3d 0a39 b3b9 8193 1c3d
00000040: a068 153d 3c75 333d ddd1 8abb e4aa aebb
00000050: e11d 763d 6022 c63d 8edf 253c 5e85 993d
00000060: 3b9e e83c 64fd 64bc 8b54 14bc 3b12 3fbd
00000070: a857 893d d29c b03d 3581 f03c 45d3 393d
00000080: d58b d3bc 6a70 21bd 67b7 2e3d f4ea 8c3d
00000090: 0b8d c53d feb6 a43d 831d a93d 7352 8c3d
000000a0: 3161 363d d005 453d ccdd 923d ac4c 913c
000000b0: 0bbf 633d f918 f13b 6f3b 8a3d 6e33 0b3d
000000c0: 8182 08bc 3521 ec3c 86fb cc3d 106c cf3c
000000d0: 98e6 b33d 2204 663d f9ef e23d c798 e93d
000000e0: 21fa 883d 7a04 b43c e218 e03d fc4c 163d
000000f0: a445 383d ffe9 bd3d 70d5 d73d afb8 d93d
00000100: 1b3e b93d 0cb5 b83d 71ba f23c 09c7 c03c
00000110: 1a2c cd3d 38a0 8c3d ef78 f53d 6e45 cf3d
00000120: aad7 e83d 6932 143c c272 f63c dad7 5e3d
00000130: dc62 3d3d b1ee f93d 9188 d53d 0eb1 0a3c
00000140: 4a0f a23c 9d8b f93c 78f2 433d 1f42 493d
00000150: 250c 8d3d fe6e e73d 0a72 243d f4a6 a73d
00000160: 3471 e53d 4e07 8e3d 83b4 e63d e213 373c
00000170: 8c1f dc3c 1681 d23d eba8 ee3d 7ea9 543d
00000180: 345f 553d 3e39 ce3d a37e 783d 85b8 543c
00000190: 5dd7 723d 2d28 dfba 56ae e03b 0c96 9e3d
000001a0: b75b c33d 4833 823d c878 283d 40eb d03d
000001b0: 7199 723d 3675 8a3d 63e6 ab3d 5b93 28bb
000001c0: 8cee de3d 4f4e 9d3c 2d36 313d 2dc5 ac3c
000001d0: 3c48 5d3c b225 d23c 146d 413c a900 fa3b
000001e0: 5565 b0bb a33c 453d fe3a de3c ebcb 763d
000001f0: 9a08 3b3d 294d 733d 0624 a93d 3a5e cf3d
00000200: 1bf9 5e3d 75e3 183d ea2b 503d 9c05 973d
00000210: 8e99 8ebb 291d c73d 0f5a 133a b176 e0bb
00000220: 3f0f 963d 42f9 8fb9 bc56 803d d9a9 8a3d
00000230: f7cc ab3d dccc 9a3d 4914 db3c 00a9 a73b
00000240: 95f5 b2ba a239 ec3c ea13 7d3d 624c 1a3d
00000250: 9fbc aa3d d2b2 243d 7a73 bc3d 1280 183d
00000260: ccb8 823d f39a a93d ab71 2e3d 217c a83d
00000270: 97b4 313d 5cbb a53d 774a a93d 0aa6 413d
00000280: 0aba da3c 34f7 8e3d 6144 803c dcdb 863d
00000290: 4ac0 523d 1d4f 513d c9b9 04bc eb46 0b3d
000002a0: 8482 c03d f68b cc3d 0b93 6e3d 4ef4 263d
000002b0: 900d c33c d91b d93d f248 7c3d 13df 663d
000002c0: bdfd e53d b469 6d3d 6980 793c a6b7 cc3d
000002d0: 6107 a83d 17c1 cc3d e07c 193d 0f78 ee3d
000002e0: 36b0 843d b51d cd3c 05bc 973d a257 033d
000002f0: eab7 213d b24d 393d 0163 cf3d 8fc9 ae3c
00000300: 737a 8e3d 7c37 ae3b bade ee3c 5a06 683c
00000310: 6019 d63d fc47 be3d c788 953d 4d29 ab3d
00000320: 8235 b73d abd5 843d 5527 753b c9e8 ae3d
00000330: 52a5 673d e7b4 943d b7a8 813d 4578 a53d
00000340: 882b 3f3d d4b3 55bb 54b0 bd3d 0c7d 1c3d
00000350: 326b ac3d d889 893d 2dcf 713d 1ce9 4c3d
00000360: 419f a73d 439f d33d 56e0 1d3c b3f5 fdbb
00000370: 313d 22bc 9d7c 013d 0019 833d 24ac 6d3b
00000380: c448 893d 8ab9 463d 1b3e ed3c 6067 f93a
00000390: 2e84 ab3d 274f da3d a4b7 493b daa9 d43d
000003a0: 0a8f 2c3d 208d 22bc d677 8d3c c0b3 913d
000003b0: dd34 873d db05 cd3d e440 503d d364 af3c
000003c0: 8938 ab3d ee59 513d 540c 403d b281 eb3d
000003d0: 6b7a ae3d cb41 e13b 22b2 963c f673 973d
000003e0: 7a24 a23d 8cff 2f3d 9803 013d a2e5 623b
000003f0: f0f4 c73d 5606 8a3d 8c62 d1bc deda ed3b

Q1.v_head.0.bias f4 [128]
0.061292548 -0.052111592 0.017622106 0.047194775 -0.003093324 0.04544843 -0.052884888 0.02400031
-0.018645974 0.0375652 -0.047055908 0.01583031 -0.03865132 0.11394245 0.04585117 0.011806409
0.021491304 0.025160467 -0.011174213 -0.009092756 -0.05901406 0.04436305 0.048258793 0.0477004
0.048618685 0.06489614 -0.029979898 -0.013542915 -0.022567421 0.033142228 0.01985778 -0.02213323
0.0038200074 -0.03922189 -0.030438552 0.007915079 -0.029482167 0.042514417 0.051689606 -0.01892208
0.015970534 -0.034039754 -0.0324499 0.07440792 0.025623357 -0.00028469125 0.003974812 -0.03279822
0.008977926 0.014410628 -0.052200083 -0.039725944 0.041623276 0.017344655 0.0696243 0.008498329
-0.0030247606 -0.009255827 -0.03867143 -0.038819116 0.0067953593 0.004831086 0.0041425293 0.058791135
0.018395953 0.07221723 -0.03271493 0.06489988 0.016652605 -0.0027253511 0.048473567 0.03348971
-0.004610879 -0.055194646 -0.031324822 0.013909069 -0.014350435 0.05834671 -0.018954674 0.04249592
-0.0039887363 -0.030590866 -0.034294613 0.0053769206 0.023577143 -0.060564697 0.017777476 0.07873908
-0.027110022 -0.056357056 -0.021995239 -0.010619604 0.0064381603 -0.010269111 -0.016235752 -0.0233863
-0.062079307 0.0076417015 -0.010135497 -0.019214477 -0.003368309 -0.015089246 -0.059249785 0.0016445456
-0.018525362 0.06795557 0.04351649 -0.035670724 0.08006928 0.050437476 -0.054166455 0.038769722
-0.05537851 -0.056823146 0.028848018 -0.056600306 0.028139355 -0.040665034 -0.027087333 0.014242704
-0.021666506 0.07460518 -0.03138573 0.054709524 -0.05272659 0.037655618 0.0031834405 0.060480032
00000000: e50d 7b3d f772 55bd 3c5c 903c 4f4f 413d
00000010: 5db9 4abb 2228 3a3d d39d 58bd 4c9c c43c
00000020: 71bf 98bc f8dd 193d b2bd 40bd 91ae 813c
00000030: d950 1ebd a95a e93d 70ce 3b3d ab6f 413c
00000040: 880e b03c 531d ce3c 0c14 37bc c8f9 14bc
00000050: bab8 71bd 08b6 353d 03ab 453d 7f61 433d
00000060: 6324 473d 44e8 843d 6798 f5bc 1ae3 5dbc
00000070: 50df b8bc 25c0 073d c8ac a23c bf50 b5bc
00000080: 1759 7a3b 22a7 20bd 455a f9bc 3fae 013c
00000090: 9684 f1bc 9923 2e3d 7bb8 533d 7a02 9bbc
000000a0: a3d4 823c 456d 0bbd 30ea 04bd 2e63 983d
000000b0: 13e8 d13c 9d42 95b9 243f 823b 6d57 06bd
000000c0: 2718 133c 8e1a 6c3c c1cf 55bd acb7 22bd
000000d0: 2b7d 2a3d 6116 8e3c 2f97 8e3d 933c 0b3c
000000e0: 103b 46bb c1a5 17bc ef65 1ebd cb00 1fbd
000000f0: 9bab de3b 164e 9e3b 0ebe 873b f9ce 703d
00000100: 1cb3 963c a1e6 933d 1700 06bd 3aea 843d
00000110: 0b6b 883c ce9b 32bb 388c 463d 822c 093d
00000120: db16 97bb c813 62bd 754e 00bd dde2 633c
00000130: 161e 6bbc f6fc 6e3d d546 9bbc 3410 2e3d
00000140: f2b3 82bb b299 fabc 8278 0cbd e130 b03b
00000150: da24 c13c b012 78bd 12a2 913c f441 a13d
00000160: d615 debc a8d6 66bd 5c2f b4bc d9fd 2dbc
00000170: 34f7 d23b c63f 28bc d700 85bc a094 bfbc
00000180: df46 7ebd 3d67 fa3b 5b0f 26bc ae67 9dbc
00000190: d9be 5cbb e338 77bc e7af 72bd cb8d d73a
000001a0: 80c2 97bc 4a2c 8b3d 593e 323d 771b 12bd
000001b0: 5dfb a33d 8797 4e3d a5dd 5dbd 00cd 1e3d
000001c0: 94d4 62bd 63bf 68bd ae52 ec3c b9d5 67bd
000001d0: 8184 e63c 6190 26bd 41e6 ddbc 3b5a 693c
000001e0: f57d b1bc 9aca 983d 538e 00bd 1817 603d
000001f0: d6f7 57bd c73c 1a3d 45a1 503b e9b9 773d

Q1.v_head.2.weight f4 [1, 128]
0.06864858 0.013042936 0.022833133 0.07844486 -0.008086893 -0.047051456 0.030966563 0.044947546
-0.06062125 -0.048977457 0.066051476 -0.07337706 -0.031159852 0.06559459 0.1309933 0.07805099
0.115965314 -0.03158952 0.07637207 -0.0726568 -0.07636731 0.17448092 0.03152918 -0.027173966
0.14755158 0.11226212 0.0021153789 0.022431126 -0.051352948 -0.08303474 0.09737405 0.037694853
-0.0007371342 -0.08314779 0.015937297 -0.0075671133 -0.018038936 -0.068824604 -0.049213085 0.029296938
0.08221609 0.037262157 0.056847878 0.13650087 0.13041806 0.0486344 -0.0264742 -0.0496708
-0.057632215 -0.078993894 -0.0171537 -0.01572593 0.004780901 0.095820844 0.11527519 -0.05880361
0.046345122 -0.06564744 -0.05265121 -0.019811938 0.12168094 -0.05078133 -0.057310496 0.09454992
-0.02921358 0.13562164 0.02255885 0.13855277 0.04305876 0.00217962 -0.012322007 -0.0047985674
0.0115201315 0.088669606 0.0339045 0.101422265 0.023781903 0.101968646 0.062397067 0.035561938
0.12879677 -0.049366467 0.06721181 0.10158634 -0.05324053 0.009787573 -0.048035406 0.046401028
0.06824776 0.013613238 -0.07349726 -0.044431187 0.009875602 0.07012193 -0.02056551 0.056653786
0.07403684 -0.06633415 0.029551322 0.023546454 -0.029970126 -0.06349749 -0.024354177 -0.020266375
0.05840161 0.104610726 -0.024763267 -0.039541434 0.08082514 0.066946246 0.0033678904 0.18734062
-0.088394254 -0.052007332 0.044456813 -0.0019770933 -0.019138413 0.06652045 -0.07344526 0.049167942
0.009883799 0.14399943 0.078386016 0.1915549 -0.084189735 0.02998141 -0.07709772 0.19793254
00000000: a097 8c3d 0ab2 553c 8d0c bb3c b3a7 a03d
00000010: e37e 04bc 07b9 40bd 97ad fd3c eb1a 383d
00000020: fd4d 78bd 969c 48bd ff45 873d b646 96bd
00000030: f242 ffbc 7556 863d 1c23 063e 33d9 9f3d
00000040: 397f ed3d 0364 01bd f668 9c3d 17cd 94bd
00000050: 7766 9cbd 20ab 323e be24 013d f09b debc
00000060: c317 173e afe9 e53d 2ba2 0a3b 7bc1 b73c
00000070: 7857 52bd 1e0e aabd 0c6c c73d eb65 1a3d
00000080: 3d3c 41ba 6349 aabd ef8e 823c 8cf5 f7bb
00000090: 64c6 93bc eaf3 8cbd a993 49bd 2200 f03c
000000a0: e960 a83d 34a0 183d 52d9 683d e2c6 0b3e
000000b0: 508c 053e dd34 473d 6ce0 d8bc 9c73 4bbd
000000c0: c20f 6cbd 8dc7 a1bd eb85 8cbc aad3 80bc
000000d0: 1ba9 9c3b b83d c43d 6615 ec3d 0edc 70bd
000000e0: 62d4 3d3d 2a72 86bd cca8 57bd a54c a2bc
000000f0: db33 f93d 1500 50bd 69be 6abd 63a3 c13d
00000100: 5151 efbc 66e0 0a3e 56cd b83c c7e0 0d3e
00000110: 625e 303d f5d7 0e3b 3ee2 49bc 4d3d 9dbb
00000120: efbe 3c3c 6998 b53d 72df 0a3d 7ab6 cf3d
00000130: 44d2 c23c f0d4 d03d 1194 7f3d 65a9 113d
00000140: 4de3 033e 7e34 4abd 58a6 893d 800c d03d
00000150: be12 5abd 0e5c 203c c6c0 44bd 010f 3e3d
00000160: 7bc5 8b3d 0f0a 5f3c bb85 96bd 7afd 35bd
00000170: 47cd 213c 169c 8f3d 0079 a8bc cd0d 683d
00000180: a0a0 973d 33da 87bd 9d15 f23c 7ee4 c03c
00000190: e983 f5bc f90a 82bd 6982 c7bc ab05 a6bc
000001a0: 8736 6f3d 263e d63d 56dc cabc 33f6 21bd
000001b0: a787 a53d 1d1b 893d d3b7 5c3b 38d6 3f3e
000001c0: 0c08 b5bd a405 55bd 5918 363d 1f92 01bb
000001d0: 29c8 9cbc e03b 883d 786a 96bd 5364 493d
000001e0: a8ef 213c 9674 133e d988 a03d f826 443e
000001f0: ab6b acbd 939b f53c 69e5 9dbd d4ae 4a3e
