models_centralized/final/online_critic_1500.pth (torch, 659563 bytes, 26 tensors)

Q1.conv.net.0.weight f4 [3, 16, 3, 3]
00000000: 7f4c 6f3c 3f36 733d be62 24be 35fb e6bd
00000010: 8974 1fbd 0177 023e 8d7c 18be 9d4a 11be
00000020: 28fb d63d acce b53d 4494 d3bd f957 023e
00000030: 6381 363e c9ed e73d da37 9abd feb2 583e
00000040: b564 583e 86f8 2c3e d14e c33d 766d 58bc
00000050: e4d6 fb3d 9fe3 533e 637b dd3d 64bd 07be
00000060: c1a0 adbd 6a53 223e 6149 19be 0f84 2f3e
00000070: 06b7 fabd 1aac 653e 306d 0a3d 616c 3a3e
00000080: d259 553e 7739 8f3d a098 37be 38a0 6abc
00000090: 9fcf b73d 2a01 e3bc c3f4 353e 6a87 d83d
000000a0: 36d1 763d 7e4e 943b e8f2 49bd d10c 34be
000000b0: e21c 053e 4144 cabd 2e2d e23c 9874 953d
000000c0: a090 84bc 7474 4c3e 267e ba3d 617d 2e3e
000000d0: efa5 0b3d 9755 883d f7b1 23bd 5697 ccba
000000e0: 475b 163b 23c9 7a3d 66d6 ad3d fdd7 9ebd
000000f0: 9581 1e3d 7f4f 243e f968 80bd ccdb 1dbe
00000100: 9f6a de3c 9e37 bfbd bf3c 35bb 0fde 903c
00000110: b0e4 64bd 0e6f 3d3e 2963 ca3d b502 483c
00000120: 5c26 babc 1dfa 22be 8da3 653d d6d3 debd
00000130: a5c7 893c 79bb 433e 7795 023e 0a18 d5bd
00000140: 4908 0fbe 99b5 1b3e b8cb 1b3d c87a 2b3e
00000150: 1572 003e 157b d3bd e988 583e 76c9 763c
00000160: 02d4 47be 8def 093e 1a13 21be 44db 3c3e
00000170: bd15 1b3e 6cb5 fbbb 36fc b6bd 3c56 2d3d
00000180: d667 a83d 92be e2bd 2b43 45bd 9a04 2dbe
00000190: d26f 93bd 94ab 393e 8de6 a0bc 843d 8bbd
000001a0: cbb2 b4bd 524b 80bd 72c2 473e 07be 07be
000001b0: 3a86 a83d 1818 61bd f270 a0bc cada dcbd
000001c0: 9836 f9bc 91e3 5a3e 2242 d8bd d6ca c8bd
000001d0: 20d8 9c3d 77ee 50be 2dfc ebbd 27b4 57bd
000001e0: 850e 113d 6815 cd3d 05de e93d 0066 babc
000001f0: ba7e 3e3e cce7 4dbb 49cc cabd df0a 9b3d
00000200: 77fe 92bd 18c4 383d 8dd3 7f3c 6e4f 413e
00000210: c842 94bd 81d8 35be 60f8 183d 113d 8bbd
00000220: 1cfa 90bd 2af4 49be 12eb 303e 6109 333d
00000230: 5a08 0cbe 7f0b 563c 5d14 233e 10dd a1bd
00000240: 4768 76bd 998a 00bd f14e 38be a928 993c
00000250: 859d a73d 1326 1ebe 70c8 53be 096b 6c3d
00000260: 32d2 36be a5d9 f93c 4fda 2e3d 0fdb 4ebe
00000270: 8d67 2a3c 6fbe 10be 46ed 2a3e 3ffd 023c
00000280: 1339 1abe 6cdc 6cbd cacc 40be e724 173e
00000290: 2080 643c 155e 383e f8f7 143b aaf2 4dbe
000002a0: 8ee4 223d c405 333e 8990 d13d 48f1 c8bd
000002b0: d28a 9dbd 3448 283e f189 19be ae60 133e
000002c0: cfc1 e63d cc1f 2ebe f4f9 873d 4c50 993c
000002d0: 88af 2d3e d51a b6bc 3db8 3ebe 216f 0bbe
000002e0: c4d8 06ba b8f0 d4bd 5b0e 90bd 2990 a03c
000002f0: 00c8 2cbe 6343 01bd c295 7bbc cd06 b4bd
00000300: f504 853d 7365 10be f7be f7bd 7788 2a3e
00000310: 7384 4f3e 1fd4 dabd 888c ba3c 8443 443e
00000320: b30f 94bd 6bea 533d 77fc 5ebe cb8a 763d
00000330: baed 1cbe 185d 46bd 8f7f b7bc b12d 323e
00000340: 19ab 78bd 6a3d 823d 9209 123e 28bc 19be
00000350: d0ec 29be 0b42 e83b 6e97 333e b5c3 173e
00000360: 7dac 22be bdea a3bc d8ce e6bd 89d9 4fbe
00000370: 63a4 1bbd acca d1bd 2039 b1bd db5f a0bd
00000380: 80d6 36be 4caa 123e 7576 52be 5a9f 3f3e
00000390: 8001 0ebe 256d 403c 58d3 42be f223 45be
000003a0: 94d8 00bd e6ba 053e 0a54 4cbb e218 6bbc
000003b0: f0f1 363e 611f 94bd 8103 dcbd 4cf5 5c3d
000003c0: ad21 213e 1eb3 803d 7666 283d 7b0d dc3d
000003d0: 4577 273e 2680 853d 9f1a 06bd d1b0 32be
000003e0: 0012 8f3c b871 46be 4b4e 053a d773 4dbe
000003f0: 5ff8 7fbd 9220 4d3c 5da8 4e3d 1da0 9e3d
0.01460564 0.059377905 -0.16053292 -0.11278383 -0.038929496 0.12740709 -0.14891262 -0.14188619
0.10497123 0.0887731 -0.10331014 0.12728871 0.17822795 0.11324651 -0.07530184 0.2116203
0.21132167 0.16891679 0.095365174 -0.013209691 0.122968465 0.206923 0.1081455 -0.1325584
-0.08477927 0.15852132 -0.14969398 0.1714022 -0.1224194 0.22428933 0.033795536 0.18205406
0.20835045 0.069933824 -0.17929316 -0.014320426 0.089751475 -0.027710516 0.1776915 0.10572703
0.060258113 0.0045259586 -0.04930392 -0.17583014 0.12999299 -0.098763 0.027609434 0.07297629
-0.016182244 0.19966298 0.09106092 0.17040016 0.034093793 0.0665695 -0.039964642 -0.0015609066
0.002294259 0.061226975 0.08488159 -0.0775604 0.038697798 0.1604595 -0.06270022 -0.15415877
0.02715045 -0.0933678 -0.0027654616 0.01768401 -0.055882156 0.18499395 0.098821945 0.012207677
-0.02272337 -0.15915723 0.056064177 -0.10880248 0.01681883 0.19114484 0.12752329 -0.10404976
-0.13968004 0.15205993 0.03803608 0.16746056 0.12543519 -0.103262104 0.21145977 0.0150626805
-0.19514468 0.13470288 -0.15729943 0.18443018 0.15145011 -0.0076815393 -0.08934824 0.042318568
0.0822293 -0.11071505 -0.04815976 -0.16896287 -0.071990624 0.18131858 -0.019641185 -0.067988425
-0.088231646 -0.06264366 0.19507769 -0.13256083 0.08228727 -0.05495462 -0.019585107 -0.10783918
-0.03042154 0.21375872 -0.10559489 -0.09804313 0.0765841 -0.20403467 -0.11522708 -0.05266204
0.035414238 0.100138485 0.114193 -0.022753716 0.1860303 -0.003141868 -0.099022456 0.07570433
-0.071774416 0.045108885 0.0156144025 0.18877956 -0.072393 -0.17758371 0.037346244 -0.06798757
-0.070789546 -0.19722047 0.17277172 0.043710116 -0.13675061 0.013064264 0.15925737 -0.079034925
-0.06015804 -0.031382177 -0.17998864 0.018696146 0.08184341 -0.15444212 -0.2068193 0.057719264
-0.1785362 0.030499289 0.042688664 -0.20200752 0.010400665 -0.14135145 0.16692075 0.007994949
-0.15060835 -0.0578274 -0.18828121 0.14760171 0.013946563 0.1800464 0.0022730809 -0.201121
0.039768748 0.17482668 0.10232646 -0.09811646 -0.076924935 0.16433793 -0.14994027 0.14392349
0.11267435 -0.17004317 0.06639472 0.018715046 0.16961491 -0.022229591 -0.18624969 -0.13616611
-0.0005143995 -0.10397476 -0.07033988 0.01959999 -0.16873169 -0.031558406 -0.015355529 -0.0879036
0.06495086 -0.141012 -0.120969705 0.1665362 0.20265369 -0.1068499 0.022772089 0.1916638
-0.07229557 0.05173723 -0.21775995 0.060190957 -0.1532506 -0.048428625 -0.022399692 0.17400242
-0.060710046 0.0635937 0.14261463 -0.15013182 -0.16594243 0.007087951 0.17538235 0.1482075
-0.15886112 -0.020009393 -0.11269921 -0.20297827 -0.03799857 -0.10243735 -0.08653474 -0.07830783
-0.17855263 0.14322776 -0.20553 0.18713132 -0.1386776 0.011744772 -0.19025934 -0.19251993
-0.031456545 0.13059577 -0.003117802 -0.014349194 0.1786573 -0.072325476 -0.10742856 0.05394487
0.15735503 0.06284164 0.04111334 0.10744759 0.16354091 0.06518583 -0.03274023 -0.17450263
0.017464638 -0.19379318 0.0005085214 -0.2006372 -0.062492725 0.012519972 0.050453532 0.07745383

Q1.conv.net.0.bias f4 [3]
00000000: 68c8 db3c dd42 a0bc 13ad df3c
0.02682896 -0.019563133 0.027304208

Q1.conv.net.3.weight f4 [6, 3, 3, 3]
00000000: fa34 3fbd 9f3e 2d3e 3aec b43e 748c 9abe
00000010: 0356 8f3c 72d6 643e 91e8 f93d ad45 1dbe
00000020: b136 d93e d3d6 b13e 568b b0be df60 77be
00000030: ca0c d0be 0b1b eabe 52b4 3bbe 4dd0 5e3e
00000040: 7acc 4a3d 9aff 8cbe 9df5 d0be 80b7 2ebd
00000050: f1be 36bd d0c3 6ebd 630d d8be 222d 52be
00000060: d2c1 59be dd9f 443d 44d3 c8be 17df c03e
00000070: 49c2 a03e bcc0 ca3e c90e aa3d b7bb 78be
00000080: fc1a f33e 7e6e 05bd 2582 47be 8746 553d
00000090: 72c2 eebd edda 8abd 4743 85be 3c61 3ebd
000000a0: a17b 713d 0381 88be 54c9 8b3d 513d aa3e
000000b0: 0509 04be 01d6 14be 1b08 b13e 5604 b53b
000000c0: 9704 683e bb03 c6bd c77f fc3e 3e78 49bd
000000d0: bc4d 8f3e 2076 41bd 3876 fe3e 7c7d 57be
000000e0: 3fa3 e53e 8ecd ae3e 10b7 4c3c 94a9 9a3e
000000f0: a7e5 11be 4533 56be 4f83 c6be 0af2 473d
00000100: 2360 883d 0aca 09bc 5db2 853d 5ebc 85bd
00000110: b087 133e 41c9 bebe e079 11be c6a9 07bc
00000120: 619a 0ebe 4d55 833e c7cd 2a3e ddd5 56be
00000130: 06b0 b8be 3468 e0be 8146 8c3d 5ab4 e23e
00000140: 619b fa3e c879 983d dd6f d6bd dad0 c73e
00000150: 71bc ff3d 425a 003e 989c 0ebe fc48 023e
00000160: d4cf 0fbe 9707 9d3d f957 71be 164c 2ebd
00000170: c8e6 5d3e 1bde d8be e430 c5be 4f9e fc3d
00000180: d47f 93be f99e ca3c 9853 003e 3d33 9abe
00000190: ccd9 c83e 55a5 a43d cb44 df3e a85d b73e
000001a0: 6e49 1b3e 97d4 c4be c1b2 aa3c dc0a 733e
000001b0: 3a12 dd3e eb66 57be 719d d63d d629 963e
000001c0: 691a 3fbe c966 393e 0945 803e f2bb 173e
000001d0: 97dd 09be e50e 91bc 3d61 533d 7c6f b63e
000001e0: 64c7 a5be 0ede 083e 2de6 cabe 1a0b 553d
000001f0: db38 b8be 0978 fabc 8e77 bf3e 3bd3 953d
00000200: e29f 5ebd a355 cbbe cf74 3c3d c7ed cdbe
00000210: 1766 d8bd 315e 0f3e db58 c13e 96db 39be
00000220: e3ae a63b 425d c9bd ca30 95be b5da 253e
00000230: ab17 643e 665e a3bc 893e d83e 73d2 05be
00000240: 6431 a3be 148b a7be 23be 81be f030 a53e
00000250: cc02 60be 3e0f e1be ac00 21be 8874 db3e
00000260: 93ab d6be 2b22 c43e 9c13 843c 20a0 15be
00000270: 1d1f d83d 1f8b f63e dc8d 893e 6ecf 053e
00000280: 934b 88be 68c2 9e3e
-0.04668138 0.1691842 0.35336477 -0.30185282 0.017497068 0.2234743 0.12202562 -0.1535861
0.4242454 0.3473421 -0.34481305 -0.24158047 -0.40634757 -0.45723757 -0.18330505 0.21759148
0.04951141 -0.2753876 -0.40812388 -0.042655468 -0.04461569 -0.05829221 -0.42197713 -0.2052503
-0.21265343 0.04800402 -0.39223683 0.37670204 0.31398228 0.3960017 0.08303601 -0.24290358
0.47481525 -0.032576077 -0.1948324 0.052069213 -0.11658181 -0.06780038 -0.2602789 -0.04647945
0.058955792 -0.26660928 0.0682551 0.33249906 -0.12894066 -0.14534761 0.34576496 0.0055241985
0.22658001 -0.0966868 0.49316236 -0.049186938 0.27988994 -0.047231793 0.4969957 -0.21043962
0.4485111 0.341412 0.012494817 0.30207503 -0.14247762 -0.20917995 -0.38772056 0.04881481
0.066589616 -0.008409986 0.06528161 -0.06530069 0.1440723 -0.3726292 -0.14206648 -0.008280223
-0.13926078 0.25651017 0.1668006 -0.2098002 -0.36071795 -0.438295 0.06849385 0.44278222
0.4894667 0.07445103 -0.10470555 0.3902653 0.12487114 0.1253443 -0.13926923 0.12723154
-0.14044124 0.07667463 -0.23568715 -0.04255303 0.21670067 -0.42356953 -0.38513863 0.123348825
-0.28808463 0.024734007 0.12531888 -0.30117217 0.39228666 0.08039347 0.43607172 0.35813642
0.1516473 -0.38443443 0.02083719 0.23734611 0.43177968 -0.21035354 0.10479248 0.29328793
-0.18662418 0.18105616 0.2505267 0.14817789 -0.13463436 -0.017707298 0.051606406 0.3563193
-0.32378685 0.13365957 -0.39628735 0.05201254 -0.35980877 -0.030574815 0.373959 0.0731568
-0.054351695 -0.39713773 0.046009835 -0.40220472 -0.10566347 0.14000775 0.37763104 -0.18150172
0.005086766 -0.09832241 -0.29138786 0.16196711 0.22274654 -0.019942474 0.4223521 -0.13068561
-0.3187362 -0.32723296 -0.25340375 0.322639 -0.21876067 -0.4395694 -0.15722913 0.42862344
-0.41927776 0.38307318 0.016122632 -0.14611864 0.105528094 0.48153016 0.26866043 0.1306741
-0.2662016 0.31007695

Q1.conv.net.3.bias f4 [6]
00000000: 95e4 b33c 1014 763c 8367 bf3c 678e d33c
00000010: bac4 d23c 87c4 993c
0.021959582 0.015019432 0.023364788 0.025824739 0.025728572 0.01877047

Q1.conv.net.6.weight f4 [6, 6, 3, 3]
00000000: b5ae 85bd 6bd4 2fbe cb64 4c3e 3bb9 19be
00000010: 3256 ec3d 5223 92be 5e98 103e 1348 40be
00000020: fa72 8cbe 79f5 af3e b0f2 a93e 8eb8 95be
00000030: efe8 86be 6cc4 78be bc67 613e 9c73 88be
00000040: 1d48 913d 86c1 40be 31d8 07be 89c0 c93d
00000050: 15d1 90bd b733 15be 2451 a9bb 25a9 043d
00000060: 55a9 9e3e d274 22be 75ed 5ebe 8c23 d03c
00000070: 2e6c 393e 747b 61be c8ea 383e 932a a83e
00000080: c7e2 063e 5c8a 863e 56af 6bbe 309e 693e
00000090: 343d 67be 2b6b 6dbc 8815 343e bb1a 8a3d
000000a0: b3b3 463e 7413 b93d fda8 bc3c e7f7 533e
000000b0: 67fc 983e 62f1 663e 1096 823e fadc 103e
000000c0: e227 86be 3582 8bbe ef16 cabd 8b9d e9bd
000000d0: f8c9 ddbd f3fd 63be 6a1c 903e a7df b63e
000000e0: 52fe 053e ff37 fcbd 4bea 63be 6aeb 373e
000000f0: 093c 80be 315b 9b3e 0a4f 9b3d 12c5 2f3e
00000100: 165f 94bd 367b a73e 5167 863e b937 40be
00000110: 27c7 e03d ae32 e23d 22af e03d c030 bdbd
00000120: e702 44be 47c0 8bbd 3447 0c3e ee67 113d
00000130: a623 b23e 0696 0dbe ba7e 9bbe 725f d8bd
00000140: f9f1 cabc a5e8 b5bd a875 043d 285d 96bd
00000150: b85b a93e f0ee 2e3e 20e5 2d3e d4c8 64be
00000160: 6302 f33d b5e9 8e3e 8e9e 783d da9c 60be
00000170: af73 03be 0158 6b3e e5d3 fabd d49a d73d
00000180: c4c5 7f3e 4dbf 7e3e dcb5 263d ae49 9a3e
00000190: 3ed7 d23c 5b89 ad3d d95f 91be 8ca8 56be
000001a0: c74b e83d b632 703e 5c1f ac3e 4abc 7b3d
000001b0: fcda 7a3d 554e 953e 53a4 4a3e 47f5 19be
000001c0: 281f f83d 1730 24bd 83fc 483e c1f9 0f3e
000001d0: d924 ac3e 01d6 813e 45ad 1c3e 970c 783e
000001e0: 4d48 b13d 1d9e 753e 4d0f 7ebe 50c3 89be
000001f0: 0ccb 15be 0c47 563d c0eb 30be b688 2ebe
00000200: ef95 ab3e 027c 83be 456e 00be d313 423d
00000210: dada ad3e 7893 7cbd 9e92 9d3e db85 e63d
00000220: 0fb7 e9bd 36e1 ae3e eb99 b83d 427d 943e
00000230: 1414 86be 28af 08be 40a2 38bb 4870 773e
00000240: d41c 0d3c 1a1c aa3e d9d4 3c3e 7be6 ccbd
00000250: 9fcf ca3d 8f06 a23e df2e 2a3d ec68 903c
00000260: 020b cebb 4335 363c 5140 75be 40a9 b4bc
00000270: d7b7 11be 9628 b03e 9205 66be 792f 2f3e
00000280: 7b1d 56be 0c01 953d 884e 283d 8a44 80be
00000290: 5626 57be 6a6b 883e eec7 bcbd b854 363e
000002a0: 4671 e639 0063 2abe 6fa6 2a3e 05d0 8ebe
000002b0: 4df6 223e 1397 713e aaf2 aa3d 7f2a d33d
000002c0: 8d68 993e 8c6a 54bd f91d 88bd 4340 9bbe
000002d0: 4601 903e 6267 5b3e 52d1 a4bc b20f 6a3e
000002e0: 1ee6 acbd 2ee6 97be f7c7 6cbe 6651 783d
000002f0: 9dd8 0dbe f617 293e 7d2a 15be 4732 a6bd
00000300: fe01 06be 54f9 963e 286c 7ebe c89b 863e
00000310: f0c0 9e3d 76b0 86be 10c6 f33d 640b a33e
00000320: a387 57be 54b8 a53e a491 783d e9d3 0e3e
00000330: 4e1d 4e3e 186d 953e 2cea b03e 32e5 bdbd
00000340: 86c0 a53e d3f0 38be c1f4 ba3d 8fe0 2f3e
00000350: 3667 ad3e 9739 893e 4d11 55be 07bb dc3c
00000360: 2be6 8a3e 4153 c5bd bbe0 99bd 1354 46be
00000370: 89fb e0bd 5236 7b3e 18d8 d5bd 1e12 e8bd
00000380: 3dc6 ad3e 7bc5 d7bc d187 1ebd 640b 8f3e
00000390: 50d2 75be 6ad7 99bc 3c9d 5ebe 4101 50be
000003a0: 57fa 6b3c 3dc2 463e 1874 71be 16e1 d5bc
000003b0: d5d8 8bbd 3019 ac3e c847 733e 2f05 4a3e
000003c0: df92 9c3e 436c ac3e 0b00 11be c9d9 aa3e
000003d0: 7fe0 ab3e eda0 513e 0115 783d cf58 2c3c
000003e0: fea5 7c3d e223 84bd 75e8 9c3e e4a3 b13e
000003f0: 9a55 783e 8b9a 1a3e 96f7 193e 90e7 0f3e
-0.06527463 -0.17170875 0.19960324 -0.15012066 0.11539878 -0.28542572 0.14120623 -0.18777494
-0.2743147 0.34366968 0.33192968 -0.29242367 -0.2634959 -0.24293679 0.22012228 -0.26650703
0.07093833 -0.18823823 -0.13266064 0.09851176 -0.07071129 -0.14570509 -0.0051671434 0.03238787
0.30988565 -0.15864876 -0.2177027 0.025407575 0.18107674 -0.2201975 0.18058312 0.32844982
0.13172446 0.26277435 -0.23016104 0.2281425 -0.22581941 -0.014490883 0.17586339 0.0674338
0.19404487 0.090369135 0.023029799 0.20700036 0.29880068 0.22553018 0.25505114 0.14146796
-0.26202303 -0.27247778 -0.098676555 -0.11407002 -0.10829538 -0.22264843 0.28146678 0.35717508
0.13085297 -0.12315368 -0.22257344 0.17960897 -0.25045803 0.3034301 0.07583435 0.1716502
-0.07244699 0.3271119 0.262507 -0.18771257 0.10975485 0.11044823 0.10970904 -0.09237814
-0.19141732 -0.06823783 0.13699037 0.035499506 0.34792823 -0.1382676 -0.30370122 -0.1056508
-0.024773585 -0.08882264 0.03233877 -0.07341987 0.33077788 0.17083335 0.16981936 -0.22342235
0.118656896 0.2791268 0.060698085 -0.21934834 -0.12837099 0.2298279 -0.12247447 0.10527578
0.24977785 0.24877663 0.04070078 0.30134338 0.025737401 0.08473464 -0.28393438 -0.20962733
0.113425784 0.23456845 0.33617675 0.061458863 0.061243996 0.29161325 0.19789247 -0.15034972
0.121153176 -0.040084925 0.19627576 0.14060117 0.33621863 0.25358585 0.15300472 0.24223553
0.086563684 0.23986097 -0.24810524 -0.26906824 -0.14628237 0.05231385 -0.17277431 -0.17044339
0.33512828 -0.25680548 -0.12542064 0.047382187 0.33956033 -0.061664075 0.30775923 0.11256
-0.11411869 0.34156197 0.090137325 0.29001814 -0.26187193 -0.13348067 -0.002817288 0.24163926
0.00861283 0.33224565 0.1844057 -0.10004898 0.09902882 0.3164563 0.041548606 0.017628156
-0.0062879333 0.011121097 -0.23950316 -0.022053361 -0.14230286 0.34405965 -0.22463062 0.17107953
-0.20909683 0.0727559 0.04109052 -0.2505229 -0.21010718 0.2664445 -0.09217821 0.17805755
0.00043953414 -0.16639328 0.16665052 -0.2789308 0.15914269 0.23592786 0.08347066 0.1031084
0.29962578 -0.051859424 -0.06646342 -0.30322465 0.28125972 0.21426156 -0.020119343 0.2285755
-0.08442329 -0.296678 -0.23123156 0.060624503 -0.13852163 0.16513047 -0.14566989 -0.081150584
-0.13086697 0.29487097 -0.24845946 0.26290727 0.07751644 -0.26306504 0.11903012 0.31844628
-0.21047835 0.32367194 0.06068577 0.13948025 0.20128366 0.29184794 0.3455366 -0.09272231
0.32373446 -0.18060617 0.09128714 0.17175506 0.33867806 0.2680175 -0.20807381 0.02694465
0.2712873 -0.0963502 -0.07513567 -0.1936801 -0.109854765 0.2453244 -0.10441607 -0.113315806
0.33940306 -0.026339283 -0.038703743 0.27938378 -0.24006009 -0.018779475 -0.21739668 -0.20312978
0.014402947 0.19410034 -0.23579443 -0.026108306 -0.06828467 0.33612967 0.23757851 0.1972854
0.30580804 0.33676347 -0.14160173 0.33369282 0.33569714 0.20471545 0.060566906 0.0105192205
0.06168174 -0.064521566 0.306461 0.3469535 0.24251404 0.15098016 0.15035853 0.14053178

Q1.conv.net.6.bias f4 [6]
00000000: 16f3 d03c 21fb d23c 51d6 ce3c 3fbc ca3c
00000010: 7ea6 cd3c 0b96 b83c
0.025506537 0.025754513 0.025248678 0.024747966 0.025103804 0.022532484

Q1.a_head.0.weight f4 [128, 294]
00000000: e9b3 413d 9792 f0bc 8b8e 07bd 7389 1e3d
00000010: ffd2 103d 61c0 13bd b940 0c3d e84d 383d
00000020: 944b 243c 6422 0d3d f485 c23b 2247 5bbd
00000030: 0d9e 023d d8e2 e3bc 254d 3d3d 1ebd cabc
00000040: 3736 09bd 9cc2 563d cd15 4b3d 0834 5a3b
00000050: e0d0 bb3c 75fb 453d b9db 07bb a613 05bd
00000060: 9849 693d 5b04 97bb fc2c 4abd 8212 133d
00000070: 0a28 9ebc 1b09 513d 87e7 233d c26c c4bb
00000080: 2d38 5c3b 8752 afbc 0286 233d 5d79 b93c
00000090: d998 41bc a692 353d 9baf dfbc 9589 29bd
000000a0: a95d 5dbd 5db3 873a 51fe 3dbd 54e1 f6bc
000000b0: f336 a6bc a419 59bc 8739 513d 0b50 a8bc
000000c0: 6185 61bd 246d b63c b7b0 8e3b b834 5e3d
000000d0: ed47 163d 5006 3cbc 7a60 00bd 6ecd 813b
000000e0: 1a75 913c c7aa 44bd 8bb2 a6bb ba46 093d
000000f0: 51b7 98bc f603 6a3c 772f 013c 016e cc3c
00000100: 2122 863c eade bb3b d507 483d 932a 14bd
00000110: 08f2 583d d8f9 98bc 9d55 4f3c 4b2d c8bc
00000120: a8b0 163d 55eb 563d be5d 23bd de25 363d
00000130: d50d 53bd c463 4f3d aa0d c0bc f4c7 133d
00000140: 0b2d 20bb 2aa9 5d3d f66a 22bd 9a2e 15bd
00000150: 821c c03c b754 0dbb 146e 853c e454 56bd
00000160: 0734 393d bc2d 6cbd bb26 a23c 795f 2c3c
00000170: a84f 8e3c cff8 52bd 4c2c 27bd 5f12 f339
00000180: 4328 a0bb 0262 993c c477 38bd 9199 57bc
00000190: 3f6d 993c e2c5 103d d9f2 2bbd 1f06 ab3b
000001a0: 827b 6ebd f3f8 c43c c408 e33c 3547 0dbd
000001b0: 1e5b 60bd dbca 3e3d f420 13bd 20d4 1e3d
000001c0: fbc3 58bd d0d1 8dbc 4f33 463d c94a c33b
000001d0: 6533 adbc c5f4 49bd ee32 303d 71f8 b43c
000001e0: 6f44 023d d06e b03c 3c81 b8bc 5e38 4fbb
000001f0: b66a 463d 9c35 003d c847 6e3d 1275 5f3d
00000200: 2942 b7bc 80a4 7aba 1dcd 4cbb ab1b 0b3d
00000210: ac6d ab3c e96f 00bc 009f ae3c 3573 473c
00000220: f302 79bc 0103 513c 32e4 3cbc b361 a83c
00000230: bf28 3f3d b098 3fbd ab72 963c 3769 0ebc
00000240: bc8e 04bd f5f0 383d 6173 3c3d f3ea 20bd
00000250: 487f 14bd df4b 3fbd f8fb 91bc 7497 37bd
00000260: 7234 11bd 1213 19bd e324 193d 90f9 c73c
00000270: 50a1 0e3d 9c73 3f3c 0cdd 6c3d b02d 013d
00000280: 4038 14bd adf7 4fbd 2bb8 a23c 1186 35bd
00000290: b8a2 8d3c d300 da3b bde0 bc3c ac5e c1bb
000002a0: 6f32 37bd ca40 033d 48ae 42bc efa2 be3b
000002b0: f2e6 623d 9708 51bd f9a8 133d 9736 303d
000002c0: 2b6a a63c 308c 57bd c184 9bbc 3abd 5d3d
000002d0: a0b5 dfbc fe6b 403d b6ab ccbc 2042 5d3d
000002e0: dcad 213d 09a4 593d 97be 6cbc c825 8f3c
000002f0: acee c73a 48e5 453b 3a41 24bd 3025 59bc
00000300: 228e 00bd 7c8f e13c b8ac 14bd f4e8 e4bc
00000310: 0038 23bd 6a04 0f3d 1c12 aebc dbcf 09bc
00000320: 8956 b0bc 7ea6 883c 85bb 8b3c 028d 1f3d
00000330: 25ab 61bd 8c52 db3c f9fc 78bb 398f 1abc
00000340: b04b 2cbd efe2 56bc d190 353c aee0 ac3a
00000350: 78a6 b33c d683 f5bc 438c 4ebd e439 a23c
00000360: bf3d 68bd ea37 ad3c a079 17bd 9b2d 08bb
00000370: 888b 673d 0731 363c 09e1 52bd 0ef3 40bd
00000380: 0e25 4dbd 4332 65bb 8bc4 483d f2a1 65bd
00000390: 078b e7bb df3f 023d 2491 b6bc 8628 1fbd
000003a0: f4e6 d33c 8ea2 3dbd 7059 403d c006 13bd
000003b0: f5f0 f53c e9db dabc 9f28 d03c 3c81 37bd
000003c0: 15b4 30bd 38c4 3abd f8fa e03c 02bc 6cbd
000003d0: 4024 8dbc b3fc 69bc b0a9 f3bc b871 503d
000003e0: 48cc 383b bd8a 503d c79a 6a3d d841 2d3d
000003f0: 3bd2 5ebd 1d99 213c d9df 183d 8601 57bd
0.047290716 -0.029366774 -0.033094924 0.0387053 0.03535747 -0.03607214 0.03424141 0.044996172
0.010027785 0.034456626 0.0059363786 -0.053534634 0.03188901 -0.027818128 0.04621615 -0.024748381
-0.03349897 0.052431688 0.049581338 0.0033295173 0.022926748 0.04833551 -0.002073033 -0.03248944
0.05695495 -0.0046086735 -0.049359307 0.035906322 -0.019306201 0.051034074 0.040015724 -0.0059944103
0.003360282 -0.021401657 0.03992272 0.022640878 -0.011816227 0.044329308 -0.027305415 -0.041390974
-0.0540444 0.0010353137 -0.046385113 -0.030136742 -0.020289874 -0.013250742 0.051080253 -0.02054598
-0.05505884 0.02226884 0.004354562 0.054249495 0.036689688 -0.011476114 -0.031342007 0.0039612567
0.017756034 -0.04801443 -0.005087202 0.033514716 -0.0186421 0.014283171 0.007884852 0.024954798
0.016373696 0.0057333605 0.048835594 -0.036173414 0.052965194 -0.018673822 0.012654689 -0.02443566
0.036789566 0.052470524 -0.03988432 0.044469707 -0.051526863 0.050632253 -0.023444016 0.036079362
-0.002444091 0.054116406 -0.039652787 -0.036421396 0.023451094 -0.0021565387 0.01628784 -0.05232705
0.045215633 -0.057660803 0.019793859 0.010520809 0.017371967 -0.051506814 -0.04081373 0.0004636226
-0.004887612 0.018723492 -0.045036092 -0.013159172 0.01872885 0.035344966 -0.041979644 0.0052192356
-0.058223255 0.02404449 0.02771414 -0.034491736 -0.054774396 0.046580177 -0.0359201 0.038776517
-0.052921277 -0.01731196 0.048388775 0.005959843 -0.02114267 -0.049305696 0.04301732 0.022091122
0.031803545 0.021537215 -0.022522561 -0.003161929 0.04844161 0.031301126 0.058173925 0.054555006
-0.022370415 -0.00095612556 -0.0031250187 0.033961933 0.020926319 -0.007839181 0.021316051 0.012173464
-0.015198457 0.012757064 -0.011529015 0.0205544 0.046669718 -0.046776474 0.018365225 -0.008692077
-0.032362685 0.04515167 0.04600847 -0.039286565 -0.036254197 -0.046703216 -0.017820343 -0.04482217
-0.035450406 -0.037371702 0.037388694 0.024410993 0.03482181 0.011685278 0.057827994 0.03153771
-0.036186457 -0.05077331 0.019863209 -0.04431731 0.017289504 0.0066529303 0.023056382 -0.0059011783
-0.04472583 0.03204421 -0.011882372 0.005817763 0.055396028 -0.051033583 0.036049817 0.04302081
0.020314297 -0.052623928 -0.0189842 0.05413554 -0.027308285 0.04697799 -0.024984222 0.05401814
0.039472446 0.05313495 -0.014449737 0.01747407 0.0015253625 0.0030196477 -0.040101267 -0.013253495
-0.03138555 0.027534239 -0.03629753 -0.027943112 -0.039848328 0.03491632 -0.02124887 -0.008411373
-0.021525638 0.016680952 0.01705719 0.038952835 -0.055094857 0.02677276 -0.003799258 -0.009433561
-0.04206437 -0.013115629 0.01108189 0.0013189518 0.021929964 -0.02997009 -0.050426733 0.019802995
-0.05669951 0.021144826 -0.036981225 -0.0020779136 0.05652955 0.0111200875 -0.05148414 -0.047106795
-0.050084166 -0.0034972585 0.049015563 -0.056062646 -0.007066134 0.031799193 -0.022286005 -0.038857006
0.025866963 -0.046297602 0.046960294 -0.03589511 0.030022124 -0.02671619 0.025409995 -0.044800982
-0.04314049 -0.045597285 0.027463421 -0.057796486 -0.0172292 -0.01428144 -0.029744 0.0508897
0.0028197933 0.05091356 0.057276513 0.04229912 -0.05439971 0.009863165 0.037322853 -0.052491687

Q1.a_head.0.bias f4 [128]
00000000: 7509 93bc 520b 133c f96d 26bd 748f 6f3c
00000010: 495f f5ba 3ca6 e8bb 27c7 90bc e3de 3cbd
00000020: 09d3 5dbc 8a84 0bbc 9718 513d f3df 1cbc
00000030: 711e bf3c 01b7 5eba b094 863c 2038 b43c
00000040: fdc9 0c3c e8d3 0a3d 07f6 e13c 7252 613d
00000050: 40b9 dd3c 0f1f 5d3d f182 313c c1a6 1aba
00000060: cb9c aa3c 4c02 a5bc 4f11 1fbc 4f66 adbc
00000070: 9229 04bd 0ed5 133d 6e50 913b a843 56bd
00000080: 9865 623d 62e8 70bd 1740 b93c 142f 32bd
00000090: 4d8a 383d 8a99 35bc 1f0f 293d 6c60 25bd
000000a0: 6b4d 9d3c 5528 e0bb 7c86 493c 4b35 a53c
000000b0: af86 0038 cb04 2fbd d29f 243a deb9 2b3d
000000c0: d1b1 47bd e3d7 d13c a46e 293c 1555 143d
000000d0: e72b 05bd d4f1 3cbc dd7a 1dbd d829 5f3d
000000e0: 0e85 5bbd 3402 1e3d 5823 19bd ca06 143d
000000f0: 1614 1a3d 4132 a73c 327a 30bd dede c9ba
00000100: f60a 97bc ea02 1c3d 1094 113d db1c bcbb
00000110: c100 6dbd d3be 72bd fd19 093d 8d56 36bd
00000120: 0163 153d 86b8 d3bc b31c 253c 877d ddbc
00000130: e8c5 c03b d56c 2c3d 6430 64bd 587b 48bd
00000140: c4c5 a9bc 07a8 b23c 5685 17bc 5eaf f23c
00000150: 7435 4b3d a827 3abd ced5 d7bc 9cbd 37bd
00000160: f848 243d ed3e 66bd 5c8e 983c 2220 8a3b
00000170: 56f8 5f3d 3eff c9bb 0fa6 013d 893c 08ba
00000180: 2125 113b 150f 08bd 13c6 e4bb bd3d 423d
00000190: 029a 19ba 4aca 3c3d 3252 1bbd 7159 70bc
000001a0: 5578 593d e366 5c3c d181 e33c 2c1a 683d
000001b0: e255 28bd 19c8 113d ae73 5f3d e883 b03c
000001c0: 14e5 553d 7b53 da3c b985 223d fcc4 32bd
000001d0: ccda 32bc 98bf 2bbd 6122 0ebd 821a 413d
000001e0: 8ec5 0d3d 23a9 13bd a73d e43c 85ac 69bd
000001f0: db15 d2bc 6995 0cbd 0bd6 873c 2938 d9bc
-0.017948845 0.008974867 -0.04063222 0.014621604 -0.0018720414 -0.007099895 -0.017673088 -0.046111
-0.013539084 -0.0085154865 0.05104884 -0.009574878 0.023329945 -0.00084958976 0.016428322 0.021999419
0.00859308 0.033893496 0.027583135 0.055010267 0.027065873 0.053984698 0.0108344415 -0.0005899482
0.020826718 -0.020142697 -0.0097087165 -0.021166949 -0.032266207 0.036091857 0.004434637 -0.052310616
0.05527267 -0.058815368 0.022613568 -0.04350193 0.04505377 -0.01108397 0.041274186 -0.04037516
0.019201955 -0.0068407455 0.01230013 0.020167014 3.0643012e-05 -0.04272918 0.00062799186 0.041925304
-0.048753563 0.025615638 0.01034132 0.036213953 -0.03251257 -0.011532266 -0.03844725 0.054483265
-0.053593688 0.03857632 -0.037387222 0.036139287 0.03761681 0.020409705 -0.043085285 -0.0015401503
-0.018437844 0.038088717 0.035541594 -0.0057407445 -0.057862047 -0.059264015 0.03347205 -0.044516135
0.03647137 -0.025844824 0.010077643 -0.027037395 0.0058829673 0.042095978 -0.05571021 -0.048945755
-0.020724185 0.021808637 -0.009248098 0.029624637 0.049611524 -0.045447975 -0.026347067 -0.04485856
0.04010865 -0.056212354 0.01862257 0.0042152563 0.05468019 -0.0061644604 0.031652506 -0.0005197009
0.0022147375 -0.03321751 -0.00698162 0.04742216 -0.0005859436 0.046091355 -0.037920184 -0.014669762
0.053093273 0.0134522645 0.027771862 0.056665584 -0.04109753 0.03559122 0.05455368 0.021547273
0.05222042 0.026651135 0.03967831 -0.04364489 -0.010916423 -0.041930765 -0.034700755 0.04714442
0.03461223 -0.036049973 0.02786143 -0.057049293 -0.025645187 -0.034322176 0.016581556 -0.026516037

Q1.a_head.2.weight f4 [36, 128]
00000000: 261e 2b3c 9b2b 6ebc 367b 60bc bc93 adbd
00000010: a62f 983d 9532 06bd 0176 e5bb e401 8dbd
00000020: 8f06 943d d0dc 4bbd a59f ae3c d9d6 fcbc
00000030: f58c a5bd 3645 09bd b24c a0bd a917 5a3d
00000040: 19de 8dbd 342b 91bd 4f72 a0bc 6485 26bc
00000050: a8ef 1d3d f1dd b3bd 8eb0 323d 785f c8bb
00000060: c4da f93b ed0a 03bd 0cda 973d 6fa1 0839
00000070: a7ef 37bc 270b 473d 044d a3bc 6d60 6dbd
00000080: 16fb a2bd aaae 09bd 66e1 7d3d b3b2 0c3d
00000090: dbab 903d aae7 3e3d 2e17 b13d 399d 9cbd
000000a0: b97b 543d ec57 13bd 060e 03bd 7346 e2bc
000000b0: 153a 85ba fca6 023d 4705 adbc d424 c7bc
000000c0: 0a3e 923d c9d1 883d 2845 8ebc 80cf 783d
000000d0: d9ef 683d 1a50 a8ba 1532 bb3d bd87 f7bc
000000e0: f345 2dbc 35de 203c 6677 8d3d 4e7b e43c
000000f0: 895e 293d 19b1 27bc a6e1 8b3d cb1b 253d
00000100: cfd1 31bd d9f3 99bd 8116 0bbd 9367 a6bd
00000110: 20d9 4a3c 9b95 0ebd c508 6c3d ada3 fc3c
00000120: da58 b13d 32fb 093d f40e 06bd a503 093d
00000130: a34f 3fbd 4031 8cbc 5416 89bd 3899 10bd
00000140: 9d91 1d3d bcfd 67bc 3cba 8dbd 0f12 6fbd
00000150: 43e7 ba3b 982f 8dbd fb1f 373d fce5 16bb
00000160: 5b8c 4fbc 4f64 22bd a079 88bd 2ab0 47bd
00000170: cc1e 69bd 013f 3a3b 1ae8 97bd dc27 533d
00000180: 4d09 cb3c dae7 533d bdca adbc d062 98bd
00000190: 6895 f73c 1330 6ebd 0a2b 70bd c4ae 62bd
000001a0: 417a 903c 5658 d23c 28d2 013d 00c9 a6bd
000001b0: f35d 87bd 8cd3 a0bd 0f45 a13d 006d 05bb
000001c0: 9b43 8e3d ce7f 423d f93a 80bc 8192 703d
000001d0: 59b1 a6bd 53de ee3c bc32 4fbd 0309 a5bb
000001e0: b728 af3d 23b8 be3c 854a b93d a440 aabc
000001f0: 55d7 52bd e3f6 8dbd 88e2 893d 7e8c a3bd
00000200: 0c85 9d3d 2465 aa3d 8a7a 633d 380d 253d
00000210: e6bf 94bd fa90 83bc c657 42bd beaf 6bbd
00000220: ccac 8f3d 71cf 833d 3be3 fb3c 9af9 3a3d
00000230: aa1a 8fbc 66a2 61bd cbf8 b03c 2ff2 9c3c
00000240: 0c62 1b3c 88be fcbc fbed cf3c 724f b43c
00000250: 2063 943d c8e0 8cbd f87a afbc 97e3 72bd
00000260: 3e90 983d f7e6 a43d 0593 7bbc 266d 173d
00000270: 9542 c5bc a0ef 23bc 327b dc3c bb20 0a3d
00000280: 5f03 9f3d 60db 1ebd 44ff 353c 093a abbd
00000290: 0b1d 56bc 5190 a4bd cc04 713d 8430 543d
000002a0: 8ae1 763d 4c7d 643d 8527 a83c 99a5 3bbb
000002b0: 5323 b4bc b8a2 abbd d6ed 3cbc e9ad 94bd
000002c0: fe2b a7bd d25d c03c 033b 23bd b5bd ad3d
000002d0: 142d 543d f884 1a3d 9ab1 b4bd 017e 93bd
000002e0: a83f 1d3d ff57 39bd 34f8 19ba 31b5 7abd
000002f0: 2e29 f83c 97ae ab3c ffbb 98bd a4e2 6d3d
00000300: 1701 bcbc 823f 89bd 574b ec3b adfe 653d
00000310: 4a14 5cbd fb4e 653d 1f9a 27bd 825a b0bd
00000320: 0c6d 433d be10 a7bc 50b9 433d 2b4c 91bb
00000330: 944d 87bd 53c7 2b3c 39ba 59bc 124e b0bc
00000340: 3cdb acbd 4810 733c af70 343d 4385 2cbd
00000350: 7a14 073d 8332 ac3d 234d f13c 0f15 a2bc
00000360: 721c a3bc a473 b4bb 94f7 87bd e714 7d3d
00000370: 7062 d83c 5582 94bd 54e1 62bd 6caf 9dbd
00000380: 8441 72bd d6b5 0fbd e6f5 fc3c 58f7 53ba
00000390: bdbc d1bb 6f25 823d 660c 8b3d 3a5f 9abd
000003a0: 5384 83bd 4085 833d 9f1d ec3c 6d01 8ebc
000003b0: 4864 083d da2e 75bd d667 253d 3dc0 f93c
000003c0: 702b 19bd 92f7 ec3b 000e fdbb bfce 453b
000003d0: 10a8 50bd e938 83bd bdf3 473d f5c8 4b3d
000003e0: 14bc 06bd 0ad7 3cbc d8ac 1a3c 8cc2 8bbd
000003f0: 3f72 783d 0508 893d 7651 11bc 817f 3c3c
0.0104442 -0.014536764 -0.013701251 -0.08475444 0.07430963 -0.032763083 -0.0070025926 -0.06885126
0.072278135 -0.04977113 0.021316359 -0.030864166 -0.08083526 -0.03351327 -0.078271285 0.05324522
-0.069271274 -0.070883185 -0.019585757 -0.010163639 0.038558632 -0.08782566 0.043625407 -0.0061148964
0.007624956 -0.03199284 0.07414636 0.0001303011 -0.011226571 0.04859462 -0.019934185 -0.057953287
-0.07958047 -0.03361384 0.061982535 0.03435011 0.07064029 0.04660765 0.08646999 -0.07647175
0.051875804 -0.03597252 -0.031995796 -0.027621483 -0.0010164405 0.03189753 -0.02112068 -0.024309553
0.07140739 0.06680638 -0.01736696 0.060744762 0.05686936 -0.0012841255 0.09140412 -0.030216092
-0.010575759 0.009818603 0.06907539 0.027890828 0.04134992 -0.010235094 0.068301484 0.04030971
-0.04341298 -0.075172134 -0.03395701 -0.08125224 0.012380868 -0.034810644 0.05762555 0.030839765
0.08659525 0.033686824 -0.032729104 0.03345074 -0.046706807 -0.017113328 -0.06693712 -0.03530237
0.038468946 -0.014159616 -0.06920287 -0.05836683 0.005703838 -0.068938434 0.044708233 -0.0023025265
-0.012667741 -0.039646443 -0.06663823 -0.048751988 -0.056914136 0.00284189 -0.07417317 0.051551685
0.024784708 0.051734783 -0.021214837 -0.07440722 0.03022261 -0.058151316 -0.058634795 -0.05534245
0.01763642 0.025676887 0.03169456 -0.081438065 -0.06609716 -0.07852849 0.078745 -0.0020359159
0.069464885 0.047485165 -0.01565312 0.058733467 -0.08139295 0.029158747 -0.050585493 -0.0050364747
0.085526876 0.023281163 0.090474166 -0.020782776 -0.051474888 -0.069318555 0.067326605 -0.07985781
0.07691392 0.08320072 0.055536784 0.04029581 -0.07263164 -0.016060341 -0.04744699 -0.057540648
0.0701538 0.06436051 0.030748 0.045648195 -0.01746877 -0.055086516 0.021603009 0.01915845
0.009483825 -0.030852571 0.025382033 0.022010539 0.07245469 -0.06878811 -0.02142094 -0.059299078
0.07449387 0.080518655 -0.015354876 0.036969326 -0.0240796 -0.0100058615 0.026914213 0.03372262
0.07764315 -0.03878343 0.011108223 -0.08360679 -0.013068448 -0.08035339 0.058842465 0.05180408
0.060273685 0.055783555 0.020526657 -0.002863264 -0.0219895 -0.083806455 -0.011531314 -0.07259733
-0.08162688 0.023482237 -0.0398512 0.08483449 0.051800802 0.037724465 -0.08822937 -0.07201768
0.038390785 -0.045249935 -0.0005873472 -0.061207954 0.030293074 0.020957274 -0.074577324 0.05807747
-0.022949738 -0.06701566 0.0072111296 0.05615108 -0.053730287 0.055983525 -0.040918466 -0.08611013
0.047711417 -0.020393725 0.04778415 -0.0044341288 -0.06606594 0.010484534 -0.013289028 -0.021521602
-0.08440253 0.014835425 0.044052776 -0.042119276 0.032978512 0.08408072 0.029455727 -0.019785432
-0.019911025 -0.0055069495 -0.06639019 0.061787512 0.026414126 -0.07251421 -0.05539067 -0.07699475
-0.05914451 -0.03508552 0.030878972 -0.00080858683 -0.006400673 0.06354796 0.06789474 -0.07537694
-0.06421723 0.064219 0.028822718 -0.017334664 0.03329876 -0.059859134 0.04038223 0.030487174
-0.03739494 0.007231661 -0.007722616 0.0030183045 -0.050941527 -0.06407339 0.04881643 0.049752194
-0.03289421 -0.011525879 0.009440623 -0.06824216 0.06065583 0.06690983 -0.008869519 0.011505009

Q1.a_head.2.bias f4 [36]
00000000: 5f83 673d ab94 66bd caa1 bcbc faac 963d
00000010: 2db3 74bd df4b 62bd beb2 8e3d 360e 7abb
00000020: 1b9a 9bbd 173c a0bc 453f 56bd 9955 733d
00000030: 7958 44bd d950 213d 9332 943d 180e e13c
00000040: a440 433c 5840 2f3d c3b8 253d db19 343d
00000050: 29b7 4cbd df2e bdbd e42b 9c3d ffbb 5cbb
00000060: 4145 6a3d d544 12bd c376 603c d799 b2bb
00000070: b7a6 b8bc 86d3 403d 336c 99bd 858e 9e3c
00000080: aff8 413d fdae d53c 2597 8bbd b90c 8fbc
0.05652177 -0.056294125 -0.023026366 0.073572114 -0.059741188 -0.055248138 0.06967686 -0.0038155443
-0.07597753 -0.019559903 -0.052306432 0.059407804 -0.047935937 0.039383743 0.07236209 0.02747254
0.011917267 0.042785972 0.040459406 0.04396997 -0.049979363 -0.092374556 0.07625559 -0.003368139
0.057194952 -0.035710175 0.01370019 -0.005450468 -0.022540433 0.047076724 -0.074913405 0.019355068
0.047356304 0.026084417 -0.06815938 -0.017462121

Q1.v_head.0.weight f4 [128, 294]
00000000: b1c6 923c f3f9 1b3d 7128 31bd b403 9abc
00000010: f4e8 a2bb 4079 343d 7ad0 b6bc 1f23 0ebd
00000020: 313c 45bd 606f 1e3d 628b 263c 29c8 513c
00000030: 26f4 383d 7db9 5ebd 64ae ee3c 3ae1 203d
00000040: 97ee 44bd f000 223d 91f3 f6bc 9d90 d63c
00000050: aba4 dfbc b329 1c3d a57c 31bd f07d 26bd
00000060: 66bd 14bd 4c70 d1bc fbd8 643d 54ab 593d
00000070: 64d9 cdbc fe25 4abd 61c4 2a3d c679 08bd
00000080: 54dc d43c a1b4 61bd 4daf 1cbc 65e4 28bd
00000090: b69b 0abd 20e1 013d 0e94 193d 783b 52bd
000000a0: 89f8 aebb 5769 5dbd aeb3 c43a af8d a3bc
000000b0: 2535 3ebd 19c8 a93b 72bc 5d3c b8bd 513c
000000c0: 02a3 1e3d c683 87bc c3d3 3dbd 0d09 4bbd
000000d0: 8a25 623d 4060 4b3d 24a8 25bd d0eb 3ebd
000000e0: 781c 94bc e5ab 2c3d 9330 493d 2d83 ecbc
000000f0: 11d2 0d3d ce66 093d 5224 413d be46 8a3b
00000100: 2466 203d 66b6 12bd 4df9 d93c 325a 133d
00000110: 7d3c edbc aec3 a9bc f2d9 2bbd 1a82 47bd
00000120: 4a9b 2dbd 2fab 39bd 6757 303d b4f6 303c
00000130: 2446 c9bc e7c1 353d 8bc2 a9bc fd8f a43c
00000140: 5048 6dbb c3aa 45bd 04d0 47bd 19b8 e9bc
00000150: f656 a03c 982d 48bd 59f6 debc 176c 09bd
00000160: 1b99 223d 069c 263d b1b2 3fbd 0f44 3d3d
00000170: c117 31bd 0132 94bc e9b2 85bc 0c7d 353d
00000180: ea0f f93c 692c 9cbc b3d5 eb3c 2553 e9bc
00000190: 9605 65bd a454 65bc ff05 5dbd ab6c ac3c
000001a0: 0f61 88bc 3aee 09bd 63cd b6bc 26c6 d13c
000001b0: d017 b03c 4063 1dbd affe 483d a8e4 41bd
000001c0: ff95 ebbb 9a19 87bc d78e ee3c 357d 11bd
000001d0: b687 98bc 6c00 bdbb 6084 503d 521d 623c
000001e0: e9d0 33bd 79bb bebc bdb9 1dbd 1c28 2b3d
000001f0: f762 61bd 89b1 683d 3a2f 413d 4f11 63bd
00000200: ab8c 18bd e035 62bd b721 333b 85c0 2fbc
00000210: 1d7e 643d 182a c13c ee0b a1bc afb1 da3c
00000220: 7453 ccbc 921a f73c 534e 67bd c6b5 9b3c
00000230: 5aa3 2f3d f18f 0fbd 0219 6e3d 19f6 ba3b
00000240: 51b9 0d3c 4de3 6b3d 4356 43bd e0b8 de3c
00000250: 86ce ebbc 1e8e e33c 45c3 7c3c 8c57 48bd
00000260: 9741 fb3c 0484 d63c 9b14 e6bc cfc8 0d3d
00000270: 454a 573d 1c76 633d 509e 26bd bf6e edbc
00000280: c048 6bbd d716 2ebd 20ce e43c 9264 a9bc
00000290: 3bdc b9bc 11c4 44bc 6951 63bd 8192 3ebd
000002a0: 0ce6 57bd 4680 433d 143b 243d c1ea 193c
000002b0: 6b59 163c ad73 493d b7fb d23a 9eb8 f2bc
000002c0: 7154 c8bc 2354 a6bc 40f5 28bd c3d9 81bc
000002d0: e012 363c 371a 45bd 440e 3f3d be4e b83c
000002e0: 0dcb 57bc 760a 223d c7fa 043c 4e85 28bd
000002f0: 0e45 25bd 2420 563c d8df 67bd 46c3 993c
00000300: f992 f73c 38e2 4bbd 8a7c 243c c351 bbbc
00000310: ba41 50bc bf99 0fbd 3c0c 16bd cb7e d23b
00000320: 4d4e 0ebc 81b3 803a 3e9c 0bbd 5e62 3e3d
00000330: cc5d 653d 7b0a 563d b603 1ebd aa93 03bc
00000340: e422 f0bc 6800 5d3d a1e8 12bd f88b 2abd
00000350: 8e0a a93a 0939 883b 4095 b33c b483 9c3c
00000360: 1db4 313d 88e4 3e3d b8a0 e1bc 7615 6fbc
00000370: dabb 8a3c 114f 563d 502d ccbc 4454 593d
00000380: 77c6 223d b479 1ebc 235f 1a3b 9d9b 1b3c
00000390: 7974 0fbd 56cd f6bc 9ebc 21bd 2257 01bd
000003a0: 4701 96bc c5d9 2b3c b9c5 623d 906b 1f3c
000003b0: f8e3 343d 6d2d c93c 8c06 23bd 19f6 ba3b
000003c0: c017 9c3c cc7a 49bd ee0f 943c f7f3 c83c
000003d0: f2d2 1abd c813 86bc 94cd 95bc 73da 233d
000003e0: 9530 893c 32a2 0d3d 1012 39bd 087a 37bd
000003f0: cd49 39bd a97d 62bd ce39 d83b a08d 47ba
0.01791701 0.038080167 -0.04325146 -0.018800594 -0.004971618 0.044060946 -0.022316206 -0.034701463
-0.048153106 0.038680434 0.010165067 0.01280407 0.045154713 -0.054376114 0.02913589 0.039277293
-0.0480791 0.039551675 -0.030145438 0.026192004 -0.0273002 0.038125705 -0.04333176 -0.040647447
-0.036313437 -0.025566243 0.05587099 0.053141907 -0.025128074 -0.04935264 0.041691188 -0.033319257
0.025983967 -0.0551039 -0.009563279 -0.04123344 -0.033839904 0.031708837 0.03749471 -0.051326245
-0.0053396863 -0.054055538 0.0015007162 -0.019965021 -0.0464374 0.005181324 0.013533698 0.01280158
0.038729675 -0.016542327 -0.04634453 -0.04956918 0.05521158 0.049652338 -0.040443555 -0.046611607
-0.018079981 0.04215612 0.04911859 -0.028871143 0.034624163 0.033545308 0.04715378 0.004219859
0.03915991 -0.03581848 0.026608134 0.03597469 -0.028959507 -0.02072319 -0.041955896 -0.04870806
-0.042384423 -0.04532927 0.043052103 0.010801006 -0.024569578 0.044374373 -0.020722648 0.02008819
-0.0036206432 -0.048258554 -0.048782364 -0.028530167 0.019572716 -0.048871607 -0.027217077 -0.033550348
0.039696794 0.04067614 -0.046801273 0.046207484 -0.043235544 -0.01809025 -0.016320663 0.044308707
0.030403096 -0.019064145 0.028788423 -0.02848203 -0.05591353 -0.013997231 -0.053960796 0.02104791
-0.016647844 -0.033674456 -0.022314733 0.02560718 0.02149573 -0.03842473 0.04907101 -0.047337204
-0.007189512 -0.0164917 0.029120846 -0.035519797 -0.0186194 -0.0057678726 0.050907493 0.013800936
-0.043900404 -0.023282753 -0.038507212 0.0417863 -0.05502602 0.056809936 0.04716418 -0.05543643
-0.037243526 -0.05522716 0.0027333328 -0.010727053 0.055784333 0.023579642 -0.019659009 0.026696054
-0.024942137 0.030164037 -0.05647118 0.019007575 0.042880394 -0.035049383 0.058129318 0.0057056067
0.00865014 0.057589818 -0.047689687 0.027187765 -0.028785001 0.027777728 0.015427415 -0.048911616
0.030670924 0.026185997 -0.028085997 0.034615334 0.052561063 0.05553256 -0.040678322 -0.028983472
-0.057442427 -0.04250225 0.02793032 -0.020677838 -0.022688022 -0.0120096365 -0.05549756 -0.046526436
-0.052709624 0.047729753 0.040095404 0.009394349 0.009176592 0.049182583 0.0016096745 -0.029629048
-0.024454327 -0.020303791 -0.041249514 -0.015850907 0.011112899 -0.048120704 0.046644464 0.022498485
-0.01317097 0.039560758 0.008116431 -0.041142754 -0.04034906 0.013069186 -0.05660996 0.018769871
0.03022145 -0.049776286 0.010039458 -0.022866135 -0.012710983 -0.035058733 -0.03663276 0.0064238063
-0.008685661 0.0009819121 -0.03408455 0.04648053 0.055997655 0.05225609 -0.038577758 -0.008030811
-0.029313512 0.053955466 -0.035866383 -0.04163739 0.0012896822 0.0041571897 0.021921754 0.01910577
0.04338466 0.046604663 -0.027542457 -0.014592519 0.016935278 0.052321497 -0.02492395 0.053058878
0.039740052 -0.009672571 0.002355524 0.00949755 -0.035023186 -0.030127209 -0.03948652 -0.031577237
-0.018311156 0.010488932 0.055364344 0.009730235 0.04416272 0.024557794 -0.039801165 0.0057056067
0.019054294 -0.049189374 0.018074002 0.024530394 -0.03779883 -0.016366854 -0.018286504 0.04000325
0.016746799 0.03457851 -0.04518324 -0.044794112 -0.045236398 -0.05529562 0.0065986877 -0.00076123513

Q1.v_head.0.bias f4 [128]
00000000: a4bf 4ebb 39dd 81bd 8108 473c dce6 373d
00000010: f6a6 653d b6a3 2e3c b2bd 5fbd 98fa 8a3b
00000020: c9be 8b3c 7c83 dc3a f67d 8b3c c97e 8d3d
00000030: 0318 d73c dea4 82bc 1f1c 8e3d 44e9 dc3c
00000040: 0b1e 1a3d 97cd 993c 26b2 08bd bcd4 48bd
00000050: 994e 5b3c 93a2 7bbd 4a75 363d 7e3c 8b3d
00000060: b644 efbc db30 1abd 5aa4 0cbc 42f0 06bd
00000070: b5cc 023d 507d 48bd 91b9 993d 9e43 75bd
00000080: 4b68 0cbc de8f 1e3c 46d5 333d 8ad5 803c
00000090: f2a1 f03c 1d10 43bd d238 09bd b2e4 2e3d
000000a0: 239a 2a3d 3bdc 2f3d 94ec ac3c 03b9 16bc
000000b0: fa48 35bd d627 3abd 1902 e7ba 42eb 05bd
000000c0: 17a5 27bc 32c2 3d3d e16a 263d 41d5 853d
000000d0: d02e dbbb 1de2 d13c b7ec c73c a218 813c
000000e0: 6217 64bd 55d0 7dbd 95b7 15bd 68dc 9cbc
000000f0: 5f02 96bc 1926 6fbc 24eb ee3c 9e89 163c
00000100: 25d2 c13c 2509 7abb 14f1 413d dc0d 5abd
00000110: 9038 0bbd 84f8 17bc 7418 2abd 65c3 55bd
00000120: 6bfb cabb 302c b63c e170 4f3d c74b 2fbd
00000130: 9d2b bebc f256 043d 82bf 383d 668c 1ebd
00000140: 4a0b 4b3d 4f79 a13c e79e 5f3c fa40 aebc
00000150: 8486 c43c d2f2 b2bc d934 eeba 22da 2bbd
00000160: 6d1f d3bb 6a9a 39bd 5d7f c7bc b3c5 e53b
00000170: b27f 53bc e8ae ad3c a4d0 e63a 2131 2d3d
00000180: 7181 bd3c 7697 153d 9982 063d 51d3 053d
00000190: b3dc 6ebb 7fe7 723d 523f d63c ede9 8abc
000001a0: 8e05 f23c 46f9 18bc e43f 0b3d 591b 95bc
000001b0: 0fce f1bc e6fd 713d 95d6 91bc 31ce ffbc
000001c0: 87ea a83c 2edd 29bc a2c7 ad3a 4d89 963b
000001d0: 424c 20bb cfaa 7d3d 8b23 a83c 1d00 1fbd
000001e0: 4242 683d db71 9b3c fb97 f9bb 3017 3abd
000001f0: 6862 423c 6003 153c 8688 b6b9 1030 81bc
-0.0031547332 -0.06341023 0.012148024 0.0448979 0.05606743 0.010659149 -0.054624267 0.004241299
0.017058747 0.0016823853 0.017027836 0.06908948 0.026256567 -0.015947755 0.069389574 0.026966698
0.037626307 0.01877479 -0.03337302 -0.049031004 0.013385438 -0.06143434 0.04454545 0.06798647
-0.029207569 -0.03764425 -0.008584106 -0.03294397 0.031933505 -0.048947632 0.07506097 -0.059878938
-0.008569787 0.009677855 0.043904565 0.015726823 0.029374097 -0.04762279 -0.033501454 0.04269857
0.041650902 0.042934638 0.021108903 -0.009199384 -0.04425905 -0.045448147 -0.0017624527 -0.032695062
-0.010232232 0.046327777 0.04062927 0.065348156 -0.00668893 0.025620515 0.024404867 0.015758816
-0.055686362 -0.06196626 -0.03655203 -0.019148067 -0.018311678 -0.0145964855 0.029164858 0.009188084
0.023659775 -0.0038152423 0.04734905 -0.053235874 -0.03398949 -0.009275559 -0.041527227 -0.052188296
-0.006194522 0.022237867 0.05064476 -0.042796876 -0.023214156 0.03230948 0.04510451 -0.038708113
0.049571313 0.019711165 0.013648725 -0.021271218 0.023989923 -0.021844301 -0.0018173709 -0.041956075
-0.006442955 -0.045313276 -0.024352724 0.007012093 -0.012908863 0.021201566 0.0017609787 0.04228318
0.023133012 0.036521398 0.03283939 0.03267223 -0.0036447465 0.059302803 0.02615324 -0.016957248
0.029543664 -0.009336775 0.033996478 -0.018201517 -0.029517202 0.059080027 -0.017802516 -0.03122625
0.020619644 -0.010367675 0.0013258348 0.0045940042 -0.0024459516 0.061930474 0.02052476 -0.038818467
0.056703813 0.018975189 -0.0076169944 -0.04543227 0.011864282 0.009095043 -0.00034815463 -0.015769988

Q1.v_head.2.weight f4 [1, 128]
00000000: 8cae c5bc 4ae0 4e3c f91a 103a c4c2 95bd
00000010: e335 a0bd 0e68 63bd aa4f d43c c8d7 1d3b
00000020: 6d1c 09bb 8413 cebd 5119 f5bc 016a b7bd
00000030: 2d59 9dbd b4e8 29bd 80b0 edbc 27e8 723d
00000040: d004 e2bd 5909 c43c 0f61 a1bd d578 383a
00000050: 77a4 abbd c9ec 8b3d 781f 2a3d 4bbd 1fbd
00000060: ee89 50bd f834 6bbd 87c5 7e3d 43d6 423d
00000070: e2dc 09bd 7821 d03b cb2f ccbd 6c8f 003b
00000080: d512 3e3d bac8 25bc fb03 693d c74a 963b
00000090: 37e8 9dbd 6f46 913d 27ba 17bd 249a 17bd
000000a0: e8c7 a23d f79e 6c3c b5c6 793c fbc8 e2bd
000000b0: 001d 2d3b 627d 173d a938 d73c 62d6 d8bd
000000c0: 2d1d c33b 71e3 f03c 687b c1bd fc69 afbd
000000d0: 4a93 a2bc b054 673d 1e8a a0bd 7cc0 14bc
000000e0: 64bb 7d3d 8428 313d 90e1 953d 2124 8dbd
000000f0: 79c5 b23c 1efb 7cbd b20f 67bd 1e12 96bd
00000100: e9d7 02bd c0ce bd3c 915f 0f3d 0835 20bd
00000110: ffff a13d 676a bdbc 7b71 983d 871d 3ebd
00000120: 818d e0bc fbdb 23bd 21c6 febc 1587 94bd
00000130: cca6 a83d 7482 0fbd 4fc9 943d f61d 9e3d
00000140: cc7e 92bd 2f07 a43d dd18 96bd 00df e3bd
00000150: da83 04ba 9ac9 a63c c27d cabd ad34 e43c
00000160: cb48 873d df37 48bb dc5e 17bd 0b27 99bd
00000170: 93be b1bd 2b3f 983d bb2c 3f3d bbf2 aebd
00000180: 955a 8c3d 6fea 95bd 01ba 93bd 5d0e 183d
00000190: 36d0 f8bc 579c dcbd bbb6 2f3d ef03 003d
000001a0: 3014 58bd f5dc bf3c 4ac3 22bb 0e4e b2bd
000001b0: 44f7 783d 05c5 e6bc cc22 d3bd 18fd 5abd
000001c0: 0969 e8bd d8bf ba3a d30c a7bd acda 2fbd
000001d0: 0067 0c3d 9eed ecbd 56f6 b43d 5499 1cbc
000001e0: 0541 853d df4e 51bd 1464 22bd c8ff 9b3d
000001f0: 5192 08ba 1de3 5b3d 2f80 493d 3d1f 2ebd
-0.024131082 0.012626717 0.00054971833 -0.07312539 -0.07822778 -0.055519156 0.025916893 0.0024084914
-0.0020921484 -0.10062316 -0.029919298 -0.089557655 -0.076830246 -0.04148169 -0.029014826 0.05930343
-0.11036074 0.023930239 -0.078798406 0.00070370483 -0.083809786 0.068322726 0.041533917 -0.038998883
-0.05091279 -0.05742356 0.062200096 0.047567617 -0.033657916 0.006351646 -0.09970053 0.0019616736
0.04640468 -0.010118658 0.05688856 0.004586551 -0.07710307 0.07093512 -0.037042763 -0.037012234
0.07948285 0.014442197 0.015245129 -0.1107349 0.002641499 0.03698481 0.026272135 -0.10587765
0.0059544058 0.029405328 -0.09447366 -0.08565137 -0.019845624 0.05647725 -0.07838844 -0.009079095
0.061946288 0.04325153 0.07318413 -0.06891657 0.021822678 -0.06176292 -0.056411453 -0.07327674
-0.03194419 0.023169875 0.03500325 -0.039113075 0.079101555 -0.023122026 0.0744352 -0.04641488
-0.027411224 -0.04000471 -0.031100335 -0.07252327 0.08234939 -0.03503652 0.07264959 0.07720558
-0.07153091 0.08009183 -0.07328961 -0.11126518 -0.0005055048 0.020359803 -0.09887268 0.027857149
0.06605681 -0.003055088 -0.0369557 -0.0747815 -0.08678927 0.07433923 0.046673518 -0.08542391
0.06853215 -0.07320105 -0.07213212 0.037123073 -0.03037272 -0.10772007 0.042898875 0.03125375
-0.052753627 0.02342079 -0.002483564 -0.08706294 0.060782686 -0.028170118 -0.10309371 -0.053464025
-0.11348159 0.0014247848 -0.08156743 -0.04293315 0.034277916 -0.115687594 0.08836047 -0.009558041
0.06506542 -0.051100608 -0.039646223 0.07617146 -0.0005209791 0.05368339 0.04919451 -0.04251026
