models_centralized/final/policy_5500.pth (torch, 177097 bytes, 10 tensors)

conv.net.0.weight f4 [3, 16, 3, 3]
000000 82 37 46 be 5b 12 37 3d 61 58 b7 bd 11 21 b6 3d
       -0.19357112 0.04469524 -0.08952404 0.08893026
000010 2a b6 2a be d8 e0 39 3e 5d 74 83 bd c7 9d 68 bd
       -0.16671053 0.18152177 -0.06418679 -0.056791093
000020 90 90 23 3e d1 e1 ee bd ea 12 36 bd b3 a4 08 be
       0.15973115 -0.11664165 -0.04445163 -0.13344078
000030 4d c5 17 bd 7c 9c a3 3d b6 dc 50 bd ff b4 83 3c
       -0.037053395 0.079888314 -0.050991736 0.016077517
000040 d1 c7 3b 3e c9 bb af 3d 02 16 09 3d f3 72 cb 3d
       0.18337943 0.08580739 0.033468254 0.09934034
000050 20 8f e2 bd f9 7d 08 3e 7a 90 9e bd 8e f7 34 bc
       -0.11062455 0.13329305 -0.077424005 -0.01104535
000060 41 40 2e bd 57 16 30 be a0 f1 01 3d c8 74 1f be
       -0.042541746 -0.17196022 0.031724572 -0.15571892
000070 aa 06 77 3d 06 a8 fc 3d 22 53 51 be 96 23 c2 bd
       0.06030909 0.123367354 -0.20441869 -0.09479444
000080 76 dd 27 3e b8 43 f7 3d c8 e5 e3 bd 6f ad f0 bd
       0.16393074 0.12073463 -0.11127812 -0.1175183
000090 d4 3d 24 3e 94 0f ae bd a5 3f e8 bd 5a 62 88 bd
       0.1603921 -0.08499065 -0.11340264 -0.06659384
0000a0 f8 5c 67 3c 95 e5 00 be 03 13 54 3d 9e 26 f2 bd
       0.014121287 -0.12587579 0.051775943 -0.11823772
0000b0 7f c5 ea bc 62 5f 40 3e 30 14 af bd a2 cf 1f be
       -0.028658627 0.18786386 -0.08548772 -0.1560655
0000c0 63 43 06 bd 08 35 f8 bd 53 b2 85 bd e1 70 36 be
       -0.03277911 -0.1211949 -0.06528153 -0.17816497
0000d0 9e cc e0 bd b2 68 63 bd a2 6c ac ba ad 6b 5c bd
       -0.10976528 -0.055519767 -0.0013154934 -0.053813625
0000e0 f9 57 c0 bd 45 c8 c1 3d 40 45 0a bd 16 d6 4d be
       -0.093917795 0.094620265 -0.03375745 -0.20101199
0000f0 bb b8 8e 3d 43 08 21 3e 23 e5 08 3b 5f 75 ad bd
       0.06968828 0.15725808 0.002088853 -0.084696524
000100 d5 86 c0 3d 37 d2 c8 3d 34 69 b5 3d c3 6d 71 bb
       0.09400717 0.0980572 0.088579565 -0.0036839105
000110 fa 17 b8 bd 2f eb 27 be c1 e5 a6 3c 13 20 c4 3d
       -0.08988948 -0.16398309 0.020373227 0.0957643
000120 99 31 f7 3b d0 11 d5 bd 72 34 a5 bd d2 8d 27 3e
       0.0075437543 -0.10403788 -0.08066644 0.16362694
000130 7e d8 bb 3d 30 3e ec 3d 4b d7 f6 bd 11 67 1d 3e
       0.09172152 0.11535299 -0.120527826 0.15371348
000140 44 8e 18 be 1a e6 21 3e bc 29 f4 bd 9f 38 93 3d
       -0.1489802 0.15810433 -0.11922023 0.07188534
000150 1d 08 0a 3e 61 f6 55 be fe 52 02 3e 64 1c 98 bd
       0.13479657 -0.20894767 0.12726972 -0.0742729
000160 a3 ce 9f bd 3f 7a 21 3e 16 dd 22 3e 3d 2a 72 3c
       -0.07803085 0.1576929 0.1590465 0.014780578
000170 33 74 ba 3d b8 c0 12 3d fa 30 2b 3e 0f ab 01 be
       0.091041945 0.035828322 0.16717902 -0.1266291
000180 0d 85 44 bd 01 5f 98 3c 0d c8 a6 bd 22 ee 53 3d
       -0.04797845 0.018599989 -0.081436254 0.051740773
000190 f9 c6 3d 3e 29 12 39 3d 6a 03 af 3c 3c 40 4e be
       0.18532933 0.045183334 0.021363933 -0.20141691
0001a0 47 4b c2 bd 1e 75 02 3e 3c f1 4e 3e 68 3b 07 3d
       -0.09487014 0.12739989 0.20209211 0.03301564
0001b0 ab c9 9e bd 1f 0e bc bd 55 b3 ca 3d 7c 09 1e 3e
       -0.07753309 -0.09182381 0.09897486 0.15433306
0001c0 c1 00 0d 3d 10 3b d0 bd ce 31 49 3e c4 d5 47 be
       0.034424547 -0.10167515 0.19647905 -0.19515139
0001d0 f2 13 50 3e 4e 01 1a 3d a8 94 18 3e 84 df 3f be
       0.20320109 0.0375989 0.14900458 -0.18737608
0001e0 19 73 ae bc bb ac 70 bd 2c 8a 3b 3e e9 03 2e be
       -0.021295117 -0.05875848 0.18314427 -0.16993679
0001f0 99 bf ed 3c 9c 65 7d bd 0f c0 c7 bc 05 33 84 bc
       0.029022025 -0.06186448 -0.024383573 -0.01613761
000200 7a d7 21 3e 30 e6 69 3c 43 65 18 be 7d 01 06 3e
       0.15804854 0.014276072 -0.14882378 0.13086505
000210 80 81 73 bd af ca b1 3d 64 5b 99 3d 97 76 0b 3e
       -0.059449673 0.08681237 0.074881345 0.13619457
000220 b4 12 bb bd 06 51 8e bd 32 cc b9 bc 7d a5 1d 3e
       -0.09134427 -0.06949048 -0.022680376 0.1539516
000230 3c 12 4a 3e bd ed 1c be 38 08 ec 3c 2e c1 1b bd
       0.19733518 -0.15325065 0.028812513 -0.038026027
000240 87 f7 1b 3d 8b 06 45 be 97 ec 2d be bc ae 17 3e
       0.038077857 -0.19240777 -0.16984783 0.1481275
000250 1c e2 4a bd f6 61 31 be 3e 4e 70 3d 48 df 13 be
       -0.04953204 -0.17322525 0.058668368 -0.14440644
000260 4b 3b f3 3d 48 69 c8 bd 65 00 90 bd c4 23 b3 bd
       0.118765436 -0.09785706 -0.07031325 -0.08747056
000270 5d 30 90 3d 67 ad 53 be 2c f9 59 3d ac 14 52 3d
       0.070404746 -0.20671616 0.053216144 0.051289245
000280 07 57 c1 3c 2f 13 c3 bd a2 4a 22 3e 64 6f 16 be
       0.023601068 -0.09525143 0.15848783 -0.1469093
000290 9e d2 a6 bd 75 47 0c be ee 94 bd 3d dd f6 3c 3e
       -0.08145641 -0.13699134 0.09256922 0.18453546
0002a0 32 0a 23 be e6 0c d5 3d 91 f5 19 3e f1 59 8d 3d
       -0.15921858 0.10402851 0.15035082 0.069019206
0002b0 00 f4 81 3d 0b e0 b4 bd 49 14 cd bd 87 7b db 3d
       0.063453674 -0.08831795 -0.10013635 0.1071692
0002c0 78 7c eb bd 7e a7 ca 3d c9 01 39 3e 05 e0 42 be
       -0.1149835 0.09895228 0.18067087 -0.19030769
0002d0 d7 9f 89 3d 71 53 34 be 66 43 c1 bc e6 7a 0d be
       0.0671994 -0.17609955 -0.023591708 -0.13816413
0002e0 e1 d1 b7 bc bf e4 0f 3e 16 fe d0 3d ab b6 c5 3d
       -0.022438945 0.14052103 0.10204713 0.09653982
0002f0 af e1 3f be 79 21 73 3c 32 bd 9f 3c 10 cb 96 bd
       -0.18738435 0.0148395235 0.019499395 -0.0736295
000300 8d c4 03 be 3f a6 83 bd 9a 92 72 3d cc 2c 8f bd
       -0.12867947 -0.06428193 0.05922184 -0.06990966
000310 c7 fa 81 3d 43 cb 8c 3c 37 24 53 be 3a 2a 9f 3d
       0.0634666 0.017186766 -0.20619284 0.07771726
000320 91 23 c6 3d 8c 26 2e be 71 7e cd bc f3 69 f9 3d
       0.096747525 -0.17006892 -0.025084706 0.12178411
000330 2d c3 24 3e 9c 8f 53 be e4 f7 86 bd 5b 10 64 be
       0.16090079 -0.20660251 -0.0659025 -0.22271864
000340 0a 67 42 3c c3 00 2c 3e f8 14 e8 bc 41 b0 93 bc
       0.011865387 0.16797166 -0.028330311 -0.01802838
000350 90 13 3f be c6 a5 9a 3d b8 c7 ba bd 81 9d 52 be
       -0.18659806 0.0755115 -0.091201246 -0.20567895
000360 a3 3d 9b 3c bb 75 f8 3d 80 2b 19 3e 76 95 df 3d
       0.01895029 0.1213183 0.14958 0.10917179
000370 fa 0a 08 3c ea 59 83 3d af 73 04 3e 25 a7 7e 3d
       0.008303398 0.06413634 0.12934755 0.06217112
000380 b9 d3 3f be 6c 3e 62 3c 39 41 51 3b 35 63 67 bc
       -0.1873311 0.013808828 0.0031929745 -0.014122774
000390 0c 75 f6 3d 4c 86 22 3e 7d 51 2b 3e e7 c1 01 3e
       0.12034044 0.15871543 0.16730304 0.12671624
0003a0 b8 0d a5 3d bc 14 a2 bc a9 8b 0f be 3d 6f e7 3c
       0.08059257 -0.019785278 -0.1401812 0.028251285
0003b0 05 82 14 be 9e 77 42 be 2b 36 30 be f4 bb ad 3d
       -0.14502724 -0.18990943 -0.17208163 0.08483115
0003c0 95 8b a5 bd ac 48 9a 3d 0d f6 a3 3b 5e 74 43 3d
       -0.08083264 0.07533392 0.005003697 0.0477184
0003d0 8d 04 73 bd 3d f1 03 bc a1 72 1d 3e d3 57 46 be
       -0.05933051 -0.008053121 0.15375759 -0.1936944
0003e0 0e 45 18 3e 67 9a aa bd fc 4a 02 be 74 d1 0d 3e
       0.14870092 -0.08330231 -0.12723917 0.13849431
0003f0 4e 8f 17 bc 7c bb fc bd 96 64 cc bd 00 19 81 bd
       -0.009250475 -0.12340447 -0.09980123 -0.063035965

conv.net.0.bias f4 [3]
000000 a9 c7 48 bc f7 b0 2c bd 8d ae 67 bb
       -0.012254634 -0.042160954 -0.0035351843

conv.net.3.weight f4 [6, 3, 3, 3]
000000 13 11 29 be 72 a3 37 be a0 71 e2 3e fc 5d 4c 3e
       -0.1651042 -0.17933443 0.44227314 0.19957727
000010 60 01 41 bc 84 a6 89 be 41 d6 b2 3e a2 5f 34 bd
       -0.011780113 -0.26884854 0.34929088 -0.044036515
000020 cf f2 c3 bd ad 3a 14 3e 66 92 d3 3e d6 4f ce be
       -0.095677964 0.14475508 0.4132263 -0.40295285
000030 df 87 12 3e 46 8d 8a 3e f2 3f 64 be d4 3d 5f 3e
       0.14309643 0.27060908 -0.22290018 0.2180093
000040 ff 86 31 3c d4 18 e4 be 6c 82 97 bd 87 ac f7 3c
       0.010835408 -0.44550192 -0.07397923 0.030233635
000050 43 1f 98 3e 63 87 03 bd f9 8d b0 be 3b 98 10 3d
       0.2971135 -0.032111537 -0.34483317 0.03530143
000060 c8 dc 88 3e fd a2 dd 3e 77 05 49 be 18 43 ce bc
       0.26730943 0.43288413 -0.19630991 -0.025178477
000070 5a 5f b1 3e 23 78 56 be 49 39 13 3d 20 33 be be
       0.3464306 -0.20944266 0.035943303 -0.3714838
000080 19 30 e7 3e af ed 82 3d e4 1b b8 be 00 bb cd 3b
       0.45153883 0.06392991 -0.3595878 0.0062783957
000090 b5 13 a7 3d aa 66 97 be 5b 64 85 be 4e ba 1c be
       0.08158056 -0.29570514 -0.26053128 -0.15305445
0000a0 ed c9 44 3e bf bf b4 be 80 3e 0e be af 0f 64 be
       0.19217654 -0.3530254 -0.1389103 -0.22271608
0000b0 1b af ec 3e 88 c7 e5 3e ff b5 a2 be 26 b4 5a be
       0.46227345 0.44878793 -0.31779477 -0.21357784
0000c0 dc ef b3 be 66 6b c3 3e ab 63 86 be fe 6d 96 be
       -0.35143936 0.38167876 -0.26247916 -0.29380792
0000d0 78 58 c5 be 3c 8e 6f 3e 6f d2 93 be 07 94 91 be
       -0.3854406 0.23394102 -0.28871486 -0.28433248
0000e0 eb fb 3d be f2 67 22 bb 16 84 81 3e 07 88 77 be
       -0.1855313 -0.0024781195 0.25296086 -0.24172984
0000f0 74 90 a1 3d d4 8b f3 3d 2b 3e cf bd f8 77 b4 be
       0.0788888 0.118919045 -0.101192795 -0.3524778
000100 da 56 44 be 5f da e9 be 94 33 bc 3e cf de e7 3d
       -0.19173756 -0.45674416 0.367581 0.11321794
000110 8f e6 1a bd 71 7b 5c 3d 18 80 8f bd 06 5d c7 3d
       -0.037817534 0.05382866 -0.07006854 0.0973454
000120 ab 1a 94 be 58 09 b7 3e a2 0b de 3e 74 f0 79 be
       -0.28926596 0.35749316 0.4336825 -0.24408132
000130 dd 4d ff 3d 43 47 b0 3e 4a 7b c1 3d 66 d0 ce be
       0.12466023 0.34429368 0.09447344 -0.4039337
000140 12 45 a3 3c ea 54 ea bd 12 c2 93 3c b2 00 83 3e
       0.019930396 -0.11441977 0.018036876 0.25586468
000150 29 08 75 3d 88 ca 59 bc 12 1f 62 3e 23 56 b5 bd
       0.059822235 -0.013292916 0.22082165 -0.0885432
000160 a5 d0 83 be e6 33 3c 3e f6 e7 91 be 6b 9e a7 be
       -0.2574512 0.18379173 -0.28497285 -0.3273805
000170 3c 08 0d be 4a 29 c6 3e 89 7d e6 be 5e 7f c3 3e
       -0.13772672 0.38703376 -0.4501765 0.3818311
000180 87 64 d3 3e 2c fc 5b be be 0f 9d 3e 67 79 ca bd
       0.41287634 -0.21482915 0.30676073 -0.09886437
000190 05 94 0e be 2b 24 92 3e 73 11 da 3e 90 36 fc bc
       -0.13923652 0.2854322 0.42591438 -0.030787736
0001a0 a9 77 e1 be 75 75 8a be b5 8e 8d bd ae f0 e9 3e
       -0.44036606 -0.27042738 -0.06911985 0.45691437
0001b0 5b db 49 3e d6 d5 95 be a8 2b 5b be 19 23 6c be
       0.19712584 -0.29264706 -0.21403372 -0.23060264
0001c0 e7 a4 de be 14 38 7d be 2a f5 0b 3d f7 69 c4 3e
       -0.43485186 -0.24728423 0.034169354 0.38362095
0001d0 ed cd 4d be 4c e7 83 3e 20 ec c3 bb b5 5b d8 be
       -0.20098086 0.25762403 -0.005979076 -0.42257467
0001e0 c0 96 c4 be 99 58 2a 3e bf da d6 3e d9 77 c2 be
       -0.38396263 0.1663536 0.41963765 -0.37982062
0001f0 3a 07 b4 3c 4c 35 1e 3e 9b 05 49 3e 62 99 a0 3c
       0.021976102 0.15450019 0.19631045 0.019604389
000200 93 a4 40 3d 07 9f cc be b4 ed f6 bd 69 a4 4b bc
       0.04703195 -0.39965078 -0.12057057 -0.012429335
000210 98 5d b4 be 6d ac 8d 39 ac a4 bd 3e 4d ab c3 3e
       -0.35227656 0.00027022083 0.37039697 0.3821663
000220 c3 a3 a7 be e5 e0 db be 50 be 41 be 59 c4 dd 3d
       -0.32742128 -0.42945018 -0.18920255 0.10828466
000230 d0 e5 a0 be 88 59 dd bd 74 90 35 3e 74 92 36 bd
       -0.31425333 -0.10808092 0.17730886 -0.044573262
000240 e6 98 e9 ba 92 b1 51 be 02 f2 bb 3e c5 b4 53 3e
       -0.0017822057 -0.20477894 0.36708075 0.20674427
000250 1a e7 a5 3e e2 66 89 be 5c a9 38 be a0 3f 23 bd
       0.3240288 -0.26836306 -0.18033355 -0.0398556
000260 cb 31 19 3d db 78 a0 be 3d 6c 91 3e 80 97 21 3d
       0.037401002 -0.31342205 0.28402892 0.039451122
000270 79 31 d0 be 39 62 25 3e b9 bf b3 3e 3d 93 f1 bd
       -0.40662745 0.1615075 0.3510721 -0.117956616
000280 62 d4 00 3d bb a2 69 3c
       0.031452544 0.014259989

conv.net.3.bias f4 [6]
000000 8f aa 14 bc 11 aa 9e 3c 5e d5 34 bb 26 d8 ba bc
       -0.009073867 0.019368203 -0.0027592997 -0.022808146
000010 44 ed 40 bc 57 43 0b bd
       -0.0117753185 -0.033999767

conv.net.6.weight f4 [6, 6, 3, 3]
000000 6c d1 13 be 92 a9 ab be f8 44 1a be c1 2d 33 3d
       -0.14435357 -0.3352781 -0.15065372 0.043744806
000010 44 45 99 3e 64 55 20 bd 59 77 9b be 34 e9 f3 bd
       0.29935658 -0.039143935 -0.30364493 -0.11909714
000020 92 3f 92 3c 98 15 8f 3e 5e 05 96 be 3d 40 8a 3e
       0.017852578 0.27946162 -0.2930097 0.27002135
000030 bc a4 1d be c2 4d 13 3e 6c 93 3a bd 9e 18 a6 be
       -0.15394872 0.14385131 -0.04555075 -0.32440656
000040 2a 6c c5 3a 76 01 16 3e f1 6c a1 bd 39 fa 94 3d
       0.0015062143 0.14648995 -0.07882107 0.07274289
000050 80 20 55 be 5a 05 80 be 46 fe 22 be 9b c7 78 be
       -0.20813179 -0.25004083 -0.1591731 -0.24294893
000060 a9 c9 17 bd 61 fe 7b 3e 8f 7b 2d be f6 ef 34 3e
       -0.037057552 0.24608757 -0.16941665 0.17669663
000070 a4 92 4a 3d 03 97 31 be 28 d6 1b be 81 45 92 be
       0.049456254 -0.17342763 -0.15218413 -0.28568652
000080 15 f6 8c be 2a c8 87 3e 19 7c 80 39 d2 80 7c 3e
       -0.27531496 0.265199 0.00024506522 0.24658516
000090 8c 7b 98 be 1f df 42 3d 65 c6 b6 3d 42 a4 9f 3e
       -0.2978176 0.047576066 0.089245595 0.31180006
0000a0 5f c2 1c 3d de 23 a7 bd 60 37 a0 3e 14 c8 a6 3d
       0.038271304 -0.08161138 0.31292248 0.081436306
0000b0 e9 4b 04 be 46 4a 94 be e9 35 20 be 86 49 3b 3d
       -0.12919582 -0.28962916 -0.15645565 0.045724414
0000c0 86 7a ab bd 61 0e be bd bf 33 8c be bb 28 a0 be
       -0.08372979 -0.09280086 -0.2738323 -0.31281075
0000d0 ca d0 02 be c1 1b 77 be b6 60 86 3c 86 21 62 3d
       -0.12774959 -0.24131681 0.016403537 0.05520775
0000e0 f1 03 eb bb f8 ab ad 3c d5 0c d6 bd 89 f7 35 3c
       -0.0071721007 0.021200165 -0.10451666 0.01110638
0000f0 67 13 ea bd 7a 5a 1b bd bd ea 75 be 04 ea 85 be
       -0.11429482 -0.037928082 -0.24015327 -0.26155102
000100 e7 5f 33 be a7 36 90 3e bd ce 61 bd fb c3 d9 3d
       -0.17517053 0.28166696 -0.0551288 0.106330834
000110 2f a0 aa bd e4 41 63 be 51 f9 f9 bb 7c f1 84 3e
       -0.08331334 -0.22193104 -0.007628598 0.25965488
000120 35 b9 56 be 92 5d 17 3e f5 95 2d 3e 71 a2 25 3e
       -0.20969088 0.14781788 0.16951735 0.16175248
000130 68 6a 68 3e 60 fd a3 3b ac 13 2e be 67 09 6b bd
       0.22696841 0.00500457 -0.16999692 -0.057382014
000140 bc 39 93 3e 65 e0 3d bd 86 8b 5a 3e 75 c1 a0 3e
       0.28754985 -0.046356577 0.21342286 0.31397596
000150 45 51 a4 3b 68 fc 41 be bb a3 78 be 21 bf da 3d
       0.005014571 -0.18943942 -0.24281208 0.10680986
000160 7e 42 74 be 79 83 97 3e 4b 0d 12 3d a1 9e 8a be
       -0.2385349 0.29592493 0.03565721 -0.2707415
000170 9b 86 5e 3e 32 b9 8b be c3 de 95 be fa 92 48 be
       0.21731035 -0.2728973 -0.29271516 -0.19587317
000180 c1 a9 6e bc 06 30 d8 3d 40 0c 97 be fc c3 92 be
       -0.01456684 0.10556035 -0.29501534 -0.2866515
000190 24 e3 66 3d f8 3d 62 bd c4 b5 93 3e 35 d7 8e 3e
       0.056368962 -0.05523488 0.28849614 0.27898565
0001a0 f9 58 31 be e9 fd 01 be 85 c6 22 3e db 2c 82 bd
       -0.17319097 -0.12694515 0.15896042 -0.06356212
0001b0 72 54 25 3e 63 2b 94 3e 9d 03 1b be c5 1b 53 3e
       0.16145495 0.2893935 -0.15138097 0.20616062
0001c0 f5 ca 7b be d4 07 94 be 39 9a 93 3e bc f9 17 3e
       -0.2458914 -0.28912222 0.288286 0.1484136
0001d0 6f 16 a2 3c 78 01 48 3e 4f bd 98 be 51 32 69 be
       0.019786088 0.1953181 -0.2983193 -0.227731
0001e0 56 25 3a 3d cf 1e 1b bd d1 19 e7 3d e4 6b 8e bc
       0.045445763 -0.03787118 0.11284221 -0.01738543
0001f0 ee d3 71 3d 8e 7b e5 3d ae 25 93 3e 03 9c 80 bd
       0.059040003 0.11205207 0.28739685 -0.06279757
000200 e8 0b 84 be 64 23 66 bd e5 51 e9 3c 50 d6 bf bd
       -0.25790334 -0.056186095 0.028481433 -0.09367049
000210 20 12 0b 3e 72 e0 bd bd a0 41 88 be 68 b6 1c be
       0.13581133 -0.09271325 -0.26612568 -0.15303957
000220 60 6b 91 bb 78 c1 2f be d5 f0 7b bd b5 aa 91 3e
       -0.004437849 -0.17163646 -0.061508972 0.28450552
000230 58 3d 8f 3e ba 09 5b be 52 a6 65 3e 9a 18 8e be
       0.2797649 -0.21390429 0.22426727 -0.27753145
000240 42 5d ab be 40 38 8b 3e 6d 8b 2a be c5 44 bc bd
       -0.33469588 0.27191353 -0.16654749 -0.09192804
000250 66 0d 6b be 5c 86 7f be 6e 8e 12 3e ea be 94 3e
       -0.2295433 -0.24953598 0.14312145 0.29051906
000260 7a 3d d5 3a 48 79 16 be 13 05 25 be 1b 1a 1f be
       0.0016268932 -0.14694703 -0.16115217 -0.15537302
000270 ce dc 4d bd d9 84 90 3e a4 8c 79 3e c0 a0 50 3e
       -0.050259404 0.28226355 0.24370056 0.20373821
000280 de b1 c1 3d df 31 33 3e fc 2e 3e be 55 9d 4b be
       0.094577536 0.17499493 -0.1857261 -0.19884236
000290 96 2c 07 3e 8e 01 85 be 9d 8c f5 3c 21 28 95 3e
       0.13200602 -0.2597775 0.029974276 0.29132178
0002a0 5a 22 9a be 09 70 7b 3e 2c b9 cd 3d b4 85 6b be
       -0.30104333 0.24554457 0.10045084 -0.23000222
0002b0 4d 5e 81 be ec 52 58 3e 53 d5 74 be 06 31 4f 3e
       -0.25267258 0.21125382 -0.23909502 0.20233545
0002c0 36 f6 7d bd 02 06 57 3e 72 e1 c8 3d e2 b5 9d 3e
       -0.062002383 0.20998386 0.09808625 0.30802828
0002d0 ee e7 b1 bd 72 31 11 bd 72 76 6b 3e dc 53 67 bd
       -0.08686815 -0.035447545 0.22994402 -0.05647646
0002e0 ee f0 29 3e 04 4b 28 bc 1d 5d a9 be 2b 27 8d bd
       0.16595814 -0.010271791 -0.33078852 -0.06892236
0002f0 8a 92 a3 be 28 99 8c 3e 1b dd 6a 3e c1 2c a1 be
       -0.31947738 0.274606 0.22935908 -0.31479457
000300 d4 38 59 3e 2b bd b4 3c 80 90 8f 3d 80 10 be bd
       0.21213084 0.022062859 0.07009983 -0.09280491
000310 6f b5 96 3e 77 ee 3d 3e c7 1c 0a 3e 7d d0 c9 3d
       0.29435298 0.18547998 0.1348754 0.09854219
000320 9b c2 9a 3d 7a 9d 84 be 10 73 cd 3d 04 ab 97 be
       0.07556649 -0.25901395 0.10031712 -0.29622662
000330 37 ea a7 be c7 49 18 3e 81 c8 c2 bd 2b f1 2d 3e
       -0.3279588 0.14871894 -0.09510899 0.1698653
000340 b9 91 0a 3d df 7c 3f be ce 86 35 3e c4 90 ac bc
       0.03383038 -0.18699978 0.17727205 -0.021065123
000350 e5 ec 75 be 13 59 3e 3d 97 ba 9d be a8 a0 97 be
       -0.2401615 0.046471667 -0.3080642 -0.29614758
000360 ec 71 94 be ab 9b 53 be ec 92 9b be 92 db 1b 3e
       -0.28993165 -0.20664851 -0.3038553 0.15220478
000370 1a 23 20 be 11 3f 5c be 90 ac 49 bd e2 8f c0 3d
       -0.1563839 -0.21508433 -0.049236834 0.094024435
000380 30 ef e5 3c 09 de 32 be ef 6b d2 3c 37 67 08 bd
       0.028068155 -0.17467512 0.025686232 -0.03330156
000390 d6 3d 68 3e ff 4c 72 bd bc f4 a6 3d ad c8 94 be
       0.22679839 -0.05915546 0.08152148 -0.29059353
0003a0 0e 03 3c 3e 52 3c 94 be dd 2c b9 be 1c bf a3 bc
       0.1836054 -0.2895227 -0.3616704 -0.019988589
0003b0 96 38 35 3e aa 63 b2 be c7 67 94 be ec 9b 84 be
       0.17697367 -0.34841663 -0.28985426 -0.2590021
0003c0 05 37 ca 3d 5e 53 52 be 71 44 7b 3e 21 31 99 3e
       0.098737754 -0.20539615 0.24537827 0.29920295
0003d0 f2 c1 a2 be f4 04 5a be 15 85 40 3e c1 1e 83 bd
       -0.31788594 -0.21290952 0.18800767 -0.0640235
0003e0 97 cf 6a 3e c3 16 2d be e0 11 3a 3e 76 62 2f 3d
       0.22930752 -0.16903214 0.18170881 0.04281851
0003f0 83 d0 db 3d fc a6 21 bc 3d c3 7a be 9f c5 2c 3d
       0.1073313 -0.009866472 -0.2448854 0.042180654

conv.net.6.bias f4 [6]
000000 c2 88 79 bb d2 ab 1f bd 04 b0 1d bd 21 9e bc bc
       -0.0038075899 -0.03898222 -0.03849794 -0.02302462
000010 e5 58 19 bd 46 69 db bc
       -0.037438292 -0.026783597

head.0.weight f4 [128, 294]
000000 0c 0e 4b 3d 16 6b 35 3d fa a3 1a bd 94 67 55 bb
       0.049573943 0.04429158 -0.037754036 -0.0032562958
000010 00 37 43 3d 45 5c 0c bc 2e 28 3f bd 74 9a 41 bd
       0.047659874 -0.008566921 -0.046669178 -0.04726644
000020 f0 d9 50 bd e1 3f 90 bc 8c d1 fc 3c 8d 62 de bc
       -0.05098909 -0.017608585 0.030861638 -0.027146602
000030 a2 d0 4f bd 5c 76 b5 3c 04 44 48 3c a4 8e 6d bd
       -0.050736077 0.022151165 0.012223247 -0.05799736
000040 73 b1 72 bd de ab 5b 3d 93 c9 8b 3c 39 6b 7d bd
       -0.05925126 0.053630702 0.017063892 -0.061869834
000050 ba 19 05 bc 9e 88 73 bc a9 2c 19 3d e0 ca e5 3c
       -0.0081238095 -0.014864115 0.037396107 0.02805084
000060 4e 8a 2b bd dc 84 02 3d fe 8a 74 3d c2 19 ac bc
       -0.041879945 0.031864986 0.059702866 -0.021008376
000070 d2 58 c3 3c a1 0b 69 bc 32 8e 53 bd 4d 1f 99 3c
       0.023846064 -0.014223964 -0.05164928 0.018691683
000080 4b 22 ba 3b c9 6a f7 bc fa 02 06 bd 26 a0 1e 3d
       0.0056803576 -0.030202286 -0.032717682 0.03872695
000090 22 4d 32 3d 95 6c eb bb 3f 93 55 3b af 64 75 3d
       0.04353059 -0.007184575 0.0032588986 0.059910472
0000a0 73 26 23 3d 8b 13 11 3c e1 9b e3 bc d6 68 0e bd
       0.03983159 0.008854757 -0.02778429 -0.034767948
0000b0 9e ae af 3b af 89 3c 3d 74 39 87 3c eb c7 6e 3d
       0.005361392 0.046029743 0.016506888 0.058296125
0000c0 de 41 da 3c 45 3d 1b bd 70 88 e8 bb 25 9c 7b 3c
       0.026642736 -0.037900228 -0.0070963427 0.015357052
0000d0 cd 94 6b 3d ba 25 fa bc 14 cb 40 bd 54 0a 70 bd
       0.057514954 -0.030535568 -0.04706867 -0.0586036
0000e0 a0 e4 1c 3c 44 9d 95 bc ed 32 3c 3d bc 9d 41 bd
       0.009575993 -0.018263467 0.045947004 -0.047269568
0000f0 85 11 c6 bc eb d1 1f bd c5 ea f7 3c a7 91 43 bd
       -0.024178276 -0.039018553 0.030263314 -0.047746327
000100 c0 1a 96 bc 51 37 20 3d 62 35 b6 3c 0b 02 6c bb
       -0.018323302 0.039115254 0.022242252 -0.003601196
000110 0e f5 20 3d 74 79 b9 bc 38 ab 0e 3d 8f d0 14 bd
       0.039296202 -0.022640921 0.034831256 -0.03633171
000120 8f 8d 59 3d 6c 2b 09 3d e3 90 ca bc 74 ce 2c 3d
       0.053113516 0.033488676 -0.02472729 0.042189077
000130 ef 56 6e 3d 12 e6 48 bd 5d 39 a0 3c a5 dd 80 3c
       0.058188375 -0.049047537 0.019558603 0.015730688
000140 32 28 30 bd e2 8a d2 3c b0 1b fb 3c cd b0 1d bd
       -0.043007083 0.02570099 0.03065285 -0.03849869
000150 ef e8 16 3d 5e ef 2a 3d 0d 13 8f bc 77 36 d6 bc
       0.036843237 0.041732185 -0.017465139 -0.026149018
000160 36 46 38 bd 91 10 8c bc 84 4b 10 3c cc 59 29 3d
       -0.044988833 -0.017097743 0.008807067 0.041345403
000170 df 62 1d 3c 3e 21 3a bd 70 17 73 bd d2 c1 2c bd
       0.009606092 -0.04544186 -0.059348524 -0.04217703
000180 c2 84 46 3d c6 4d 6d 3c df b8 b1 3c e6 6f 62 3b
       0.04846645 0.014483875 0.021694599 0.003455156
000190 ab c1 04 bd f9 68 b0 bc 81 e6 25 3d ce 81 f8 bc
       -0.03241126 -0.02153443 0.04050303 -0.030335333
0001a0 df 57 0e 3d 04 6a 0c 3d 72 38 a0 38 78 ad 1a bc
       0.03475177 0.034280792 7.639908e-05 -0.009440772
0001b0 e5 0e 1e 3d 49 a7 93 3c f7 59 80 bd c6 29 26 bc
       0.038588423 0.018024104 -0.062671594 -0.0101417955
0001c0 64 d9 f1 3c c4 d2 34 bc a6 46 e3 3c 3c 16 1b bd
       0.029522605 -0.011036579 0.027743649 -0.037863
0001d0 43 29 5b 3c 5c cf b0 bb 08 f8 18 bc 48 e7 43 bd
       0.013376537 -0.005395813 -0.009336479 -0.04782799
0001e0 6d 28 e9 3c 7f ce aa 3c 1e f9 ce bc 6b 87 4b bd
       0.02846166 0.020850418 -0.025265273 -0.04968969
0001f0 3c dd 3f bc df b2 23 3d 19 95 08 3d 8f 14 10 3d
       -0.011710461 0.039965507 0.033345316 0.035175856
000200 c4 4e e1 bc 45 28 17 bc 3e cf d9 bb 75 94 9b 3c
       -0.027503379 -0.00922591 -0.0066470196 0.018991688
000210 02 7d d6 3c 72 e5 c0 bc f4 04 2e bd a9 43 f4 bc
       0.026182655 -0.023546908 -0.042485192 -0.02981742
000220 09 57 2d bb 56 42 7c bd 37 7b 54 bd c5 1f 57 3d
       -0.0026449582 -0.0615867 -0.05187532 0.052520532
000230 7a 38 26 bd 8d 75 15 3c 4e 16 25 bd 20 d0 0f 3a
       -0.040581204 0.009122265 -0.040304475 0.000548603
000240 47 ae 09 b9 ae 02 2b bd b9 a5 60 3d 34 e5 8a 3c
       -0.00013130262 -0.041750602 0.054845545 0.016954996
000250 f7 28 2c bc 80 df 20 3d 58 2e 1d 3d 77 35 13 3a
       -0.010507814 0.039275646 0.038374275 0.0005615572
000260 30 b0 45 3d d2 45 34 3d d5 43 5d 3c ee 2f e1 bb
       0.04826373 0.0440119 0.013504942 -0.0068721687
000270 fb 7e f0 3c 4c e4 99 bc 2e d7 90 3b f9 df 08 bd
       0.029357424 -0.018785618 0.0044201827 -0.033416722
000280 c2 34 31 3d 39 a2 67 bd 20 f2 01 3d 3a 33 ef 3c
       0.043263204 -0.056551192 0.03172505 0.029199231
000290 3b f4 3f bb d8 4c 3a bd 2e ca 7f 3c 61 c0 11 3d
       -0.002928986 -0.04548344 0.015612168 0.035583857
0002a0 af 47 34 3c 81 ca 55 3d bc 69 fa bc 5e 3f 32 3d
       0.011003419 0.052195076 -0.030567996 0.043517463
0002b0 bf d4 e4 3c 7d c5 49 bd 8b 4f cb bc d6 fc 1c bd
       0.027933476 -0.049260605 -0.024818202 -0.03832706
0002c0 9c f3 b1 3c 40 81 90 bc 8b 69 08 bc 2d 51 1b 3c
       0.021722607 -0.017639756 -0.008325945 0.009479803
0002d0 2c dd 38 3d e1 f4 77 3c f1 21 17 3d 68 3e 41 bd
       0.0451328 0.015134067 0.036897603 -0.047178656
0002e0 bc 03 16 3d 9b 29 99 bc 87 ec 55 3d a5 4e 06 bd
       0.036624655 -0.018696597 0.052227523 -0.032789845
0002f0 9e 50 37 bd f3 91 1e 3d 83 92 61 bd ca 37 e9 bc
       -0.044754617 0.038713407 -0.055071365 -0.028468985
000300 cf d0 e0 3c 88 5a 3b bd ad 19 c2 bc 74 80 48 bd
       0.027443318 -0.045740634 -0.023693884 -0.048950627
000310 b0 ea 03 3d c2 38 5c 3d 98 f9 5f bb fb 8b 54 3d
       0.032206237 0.053765066 -0.003417587 0.05189131
000320 02 d3 9d bc 39 f0 21 3d 06 5e 52 bd 74 29 18 3d
       -0.019265655 0.039535735 -0.0513592 0.037148908
000330 5c 34 42 3d 09 55 55 bc be a7 cf 3c 0d 52 3e bd
       0.047413215 -0.013020762 0.02534854 -0.04646497
000340 24 29 8e bc ea a6 3e bd 8b 27 11 3d 03 a4 4c 3b
       -0.017353602 -0.0465459 0.0354381 0.0031225688
000350 ea b9 6d bd f4 06 7b bd 2c fc 59 bd 7a ed 64 3c
       -0.05803863 -0.061285928 -0.053219005 0.013972634
000360 03 a9 6a bd c5 04 01 3d b4 00 e0 bc d4 d8 6a bd
       -0.05729009 0.03149869 -0.027344085 -0.05733569
000370 53 71 ef bc 07 70 73 3c 97 16 24 3b d7 1a 38 bd
       -0.029228842 0.014858252 0.0025037879 -0.04494747
000380 6f c8 f0 3c b3 ad 48 ba d5 2a a1 3c 1d b5 8f 3c
       0.02939245 -0.0007655278 0.019673744 0.017542416
000390 69 cb 52 3d 67 84 42 bd 2c 3c 07 bd bd 94 90 3c
       0.05146352 -0.04748955 -0.03301637 0.017649049
0003a0 b5 06 18 3d b9 c0 1c 3d ed c7 17 bb 79 e5 0f bd
       0.03711577 0.038269732 -0.0023159937 -0.03513095
0003b0 be 7d d9 3c 9c ad 89 bb 0d b2 40 bd a0 80 71 bc
       0.026549216 -0.004201604 -0.047044802 -0.014740139
0003c0 67 e6 3c bc 5a b4 46 bc 3a ff 70 bd e9 2b f9 bc
       -0.011529542 -0.01212796 -0.058837153 -0.030416446
0003d0 26 9d 55 3d 2d ca 51 3d 72 31 5b 3c eb 54 45 bd
       0.05215182 0.0512182 0.013378488 -0.048176687
0003e0 24 96 57 3d 1f 01 33 3c 93 22 db 3c 57 8f 4a 3d
       0.05263342 0.01092556 0.026749885 0.049453106
0003f0 11 38 79 bd 92 b1 f2 bb d6 51 da bc 89 89 bf 3c
       -0.060844485 -0.007406422 -0.02665035 0.023381012

head.0.bias f4 [128]
000000 d8 c3 a9 3c 66 c9 f1 3b bf cc 44 bb c6 e2 25 bd
       0.020723268 0.007378745 -0.0030029265 -0.04049947
000010 8f ab 0c bd 0b f9 d7 3c 7e 77 5d 3d e3 de 0c bd
       -0.0343433 0.02636387 0.054069035 -0.03439225
000020 c1 a8 08 3d 81 d6 d0 bb 40 34 0e bd 81 ea b9 3c
       0.03336406 -0.006373227 -0.0347178 0.022694828
000030 3c 71 33 3d 83 8e d9 3c 39 7d 19 bd 44 80 c8 bc
       0.04380916 0.026557213 -0.037472937 -0.024475224
000040 16 76 1d 3b 4f a5 5e 3d 89 7d 3f bd 9b 19 4a 3d
       0.0024026684 0.05435687 -0.04675058 0.049340826
000050 bd fc 24 3d ea b8 36 bc f2 82 df 3c 56 8e 75 bc
       0.040280093 -0.011152485 0.02728412 -0.014987549
000060 bb 28 58 bd a7 2c ab 3c ef 32 1e bd cd fa 81 3c
       -0.05277322 0.020895315 -0.038622793 0.015866661
000070 36 db ef bc 8d 0c 27 bd 47 66 2b bd a7 aa 76 bc
       -0.029279333 -0.040783454 -0.041845586 -0.015055335
000080 e5 d1 96 bc 0b 7d 32 3d 75 98 af 3c 13 93 b4 bc
       -0.018410632 0.04357628 0.021435002 -0.022042787
000090 87 e6 48 bd c0 44 0f 3d 0b 7e b9 bb 9d 47 1d 3d
       -0.049047973 0.034977674 -0.0056607774 0.038398374
0000a0 d2 b0 44 3d e6 eb 53 bd a6 aa 41 bd 36 33 5c 3d
       0.04802019 -0.051738642 -0.047281884 0.053759776
0000b0 a4 08 ec 3c 77 ab 07 bc 58 f8 1b 3d 90 31 8d bc
       0.028812714 -0.0082806265 0.038078636 -0.017235547
0000c0 28 30 e0 3c 78 ad e6 3c f2 77 4d 3d a6 79 95 bc
       0.027366713 0.028158888 0.050163217 -0.018246483
0000d0 e4 59 3a 3c 49 31 b1 3b 2c cc 5d 3d e9 6e cc 3c
       0.011373971 0.0054074866 0.05414979 0.02495523
0000e0 4a 08 c5 bc 05 6e 14 3c bf bd 18 bd 2f db bc 3c
       -0.024051804 0.009059434 -0.03729033 0.023053734
0000f0 2d 7d 1f bd cd e1 59 bd 0a b4 a8 3c 06 ba e0 bc
       -0.038937736 -0.053193856 0.020593662 -0.027432453
000100 1a 82 00 3d 43 0a 89 3c 44 8f 32 bd 07 9a 0b 3c
       0.031374075 0.016728526 -0.04359366 0.00852061
000110 2f 61 43 3c f7 fe e2 bc 46 64 cd 3c 94 c4 02 3d
       0.011925026 -0.027709467 0.025072228 0.031925753
000120 d2 61 0a 3d f0 bd d9 bc 2e c5 90 bd 60 e9 0f 3c
       0.033784695 -0.026579827 -0.07068859 0.008783668
000130 10 c1 12 bb 2c 40 1a bd a5 96 0c bc 46 44 c2 3c
       -0.0022392906 -0.037658855 -0.008580838 0.023714196
000140 53 71 56 3d 10 5e 21 3b e1 d1 a8 3c ef 95 94 3c
       0.05235417 0.0024622716 0.02060789 0.0181379
000150 b7 51 10 3d a4 cf 37 bd dd 69 3b 3d 01 c5 d1 bb
       0.03523418 -0.044875756 0.045755256 -0.0064016585
000160 1b 55 5f bd 77 e9 84 3d 58 fe 65 bd 1a 06 d6 bc
       -0.054524522 0.064898424 -0.056150764 -0.026125956
000170 0b c4 5b 3d 71 ce 5b bd b1 37 86 bd bc 3e 5a bc
       0.053653758 -0.053663675 -0.06553591 -0.013320621
000180 a2 5e 17 3d be cb 4a 3d 7b d5 df bb 57 1c 3f bc
       0.036955483 0.04951071 -0.006830869 -0.011664472
000190 22 c8 c1 3c ec d9 32 bd b4 bd f8 3c dc 8d a4 3b
       0.023655001 -0.043664858 0.030363895 0.005021794
0001a0 c6 4e 3d 3d 97 cf 07 bd d4 44 5b bd 3e 4a 48 3c
       0.046217702 -0.033156957 -0.053532436 0.012224732
0001b0 99 cc 79 bb e1 d3 56 bd d0 07 0d 3a cd 8e 38 bd
       -0.0038116334 -0.052448157 0.00053798873 -0.04505806
0001c0 0f 4d 8e bc 79 b2 83 3c e0 74 21 3d c9 69 13 bd
       -0.017370729 0.016076313 0.0394181 -0.035989556
0001d0 19 9b d6 bc 25 38 6d bd d1 e8 3f bd cc 2c 0a bd
       -0.026197003 -0.05791487 -0.04685289 -0.033734128
0001e0 9b 58 ad bc 48 3d 87 bc dd 01 26 bd c3 5b 68 bc
       -0.021160414 -0.016508713 -0.04052912 -0.014182034
0001f0 2d f5 0c 3d 44 8c 1e 3d dc b9 04 3d aa 28 61 3d
       0.034413505 0.038707986 0.03240381 0.05497042

head.2.weight f4 [36, 128]
000000 95 9f 53 3d 4e e2 9d bd de b8 49 3b 9e ce 85 bd
       0.05166586 -0.0770918 0.0030780355 -0.0653355
000010 fc 70 8d bd 22 de 1d bd 80 c0 b6 3c 43 ee 0d 3d
       -0.06906316 -0.03854192 0.022308588 0.034651052
000020 de 08 a2 3b 75 40 8b 3d 9a a7 a8 bd 70 37 c9 3c
       0.0049449047 0.067994036 -0.082350925 0.024562567
000030 b3 3a 94 3d 3c c0 ea ba 1c b9 93 3d ac 09 17 3d
       0.072377585 -0.0017910074 0.07213041 0.03687446
000040 b8 6e 19 bd d2 e0 b0 bc 40 46 5e bc 81 77 98 3d
       -0.037459105 -0.021591578 -0.013566554 0.074446686
000050 72 48 73 3c 1e ba 1b 3d d0 28 7d bb 71 aa 96 bc
       0.014848815 0.038019292 -0.0038629062 -0.01839182
000060 e2 64 33 bd 46 f8 f7 38 88 eb cb bc 26 0a f1 3c
       -0.04379738 0.00011824122 -0.024892583 0.029423784
000070 0e bf 7b bd a5 5b 9c bd 17 4a 8f 3d ac 30 0e bc
       -0.0614615 -0.07634667 0.069965534 -0.0086785965
000080 5f bb 70 3d ce 95 58 bd 9b 75 fe bc f6 34 21 3d
       0.05877244 -0.05287724 -0.031061938 0.039357148
000090 cd 61 84 3d 5e 18 7e bd 9c c4 0d bc 48 8d 7a bd
       0.064639665 -0.062034957 -0.008652832 -0.061169893
0000a0 77 36 c4 3d f3 54 43 bd dd d7 7f 3d fe 12 8d bc
       0.09580701 -0.047688436 0.062461723 -0.01722097
0000b0 91 d5 86 3d 6a 54 10 3d 16 4f c6 bb 48 7a ba 3b
       0.06583703 0.035236754 -0.0060519082 0.0056908466
0000c0 a8 b3 3a 3d 59 ff 92 3d 43 01 13 bd 03 8e a1 bc
       0.04558149 0.0717761 -0.035889875 -0.019721037
0000d0 cd 4b 82 bd 46 89 a6 3d 7b 97 73 bd 27 fc 9b bc
       -0.06362114 0.081316516 -0.059470635 -0.019041134
0000e0 1c d6 39 bd 81 2f 22 bd b3 1a 1f bd 0a b1 a0 bd
       -0.045370206 -0.039596085 -0.03884382 -0.078462675
0000f0 2e d3 6f bd f4 b5 37 3c 1b 8c 66 bd 3f 9b 86 bd
       -0.058551006 0.011212815 -0.05628596 -0.065725796
000100 6f d4 14 bb 84 04 09 bd 4b ec bb 3d 47 c0 2f 3d
       -0.0022709628 -0.033451572 0.09175929 0.04290798
000110 1f 91 35 bd 7a a6 14 3d fe a5 8a bd af 76 63 3c
       -0.04432785 0.036291577 -0.06769942 0.013883277
000120 35 9d c5 bc ef 00 6f bd 97 a9 4b bd c2 52 d1 bc
       -0.024122814 -0.0583505 -0.04972228 -0.025552157
000130 9c 45 2c bd d5 c4 8c bd c4 41 ae bd 56 17 ae 3d
       -0.042058572 -0.0687348 -0.085086375 0.08500545
000140 28 2f 74 bd 2a 24 89 3d f3 6c 3b bc 13 38 84 bd
       -0.059615284 0.06696351 -0.01143955 -0.06456008
000150 09 ed a2 bd 5e 1d 2c bb 3c cb ec bc 4a af 88 3c
       -0.07955367 -0.0026262621 -0.028905503 0.016685147
000160 b3 ca 9e 3d 2d 38 ee 3c b8 e1 98 bc a5 22 f9 3b
       0.077535056 0.029079521 -0.018662319 0.007603007
000170 7b 61 0f bd 82 8f a5 3c 63 81 b5 3d 12 5c 9c 3d
       -0.035005074 0.020210031 0.08862569 0.076347485
000180 bb 39 6f 3d 12 0b c8 bd e1 24 91 bd f9 32 23 3d
       0.058404665 -0.097677365 -0.07087112 0.039843533
000190 ee 6c 15 bc c2 a5 7d 3d 66 55 23 3d e0 cf 91 bd
       -0.009120209 0.061925657 0.039876364 -0.07119727
0001a0 24 d2 b6 bd 1e 57 9b 3c 9e a5 e1 b9 4d c7 07 3d
       -0.089268 0.01896244 -0.0004303874 0.033149052
0001b0 77 f5 a6 3d 31 f1 89 bd 83 ef 9b bd a4 eb d7 3c
       0.081522875 -0.06735457 -0.076140426 0.02635748
0001c0 ae 31 4f 3d 93 23 91 bd 01 a8 1f bd c4 f2 1e 3d
       0.050584488 -0.07086863 -0.03897858 0.038805738
0001d0 5f 96 91 bd 40 43 09 bd bc 2c 83 bd 2f 65 a8 3d
       -0.07108759 -0.0335114 -0.06405017 0.08222424
0001e0 f4 07 74 3d e4 76 46 3d 63 83 d9 bc 4a a3 80 3c
       0.059577897 0.048453227 -0.026551908 0.015702862
0001f0 9d 48 eb bc 69 ad 02 bc 84 47 90 3c af a0 ae 3c
       -0.028721148 -0.0079759145 0.017612226 0.021316854
000200 c4 87 69 bd bd 23 4f b8 ba 9a 84 3b 20 78 79 3d
       -0.05701424 -4.938593e-05 0.004046765 0.060905576
000210 6b 2b 6e 3d eb f0 8f 3c 23 3c ef 3b f7 cc 90 bd
       0.058146875 0.017570933 0.00730087 -0.07070344
000220 44 ab 06 3d 63 5f 30 3d e4 e0 5b 3d c8 71 85 3c
       0.032878175 0.043059718 0.05368127 0.016289607
000230 4d 2c 97 3c c4 7b 99 bd dd 48 46 3d 4f 66 6d 3c
       0.018453741 -0.074943095 0.04840933 0.014489724
000240 f2 5a ab 3d 1b 0e a7 3d d1 d4 2f 3d 83 d7 8a bd
       0.08366956 0.08156987 0.042927567 -0.06779387
000250 d5 1c 0e bd b2 4f a4 3d 78 6b 81 3b 85 f3 dd 3c
       -0.034695465 0.08023013 0.003949579 0.027093658
000260 8f 65 82 3d 78 9b 54 3c cf 37 b8 3d 37 7d b4 bd
       0.06367027 0.01297652 0.0899502 -0.08812945
000270 e1 d3 96 3d 07 8b 45 bb 9c c0 59 3d a8 b9 3b 3d
       0.073646314 -0.0030142681 0.053162202 0.045831352
000280 c0 17 72 3d 96 ac cd 3c b5 89 a8 3d 59 79 0b bc
       0.05910468 0.02510671 0.082293905 -0.008512818
000290 92 45 89 3d df ab bb 3d ab ce ba bc 56 f8 9e 3d
       0.067027226 0.09163641 -0.022803625 0.0776221
0002a0 15 3b 8b 3d 7c db 56 3d cc bc 57 bc bb 73 85 3c
       0.067983784 0.05245541 -0.013167571 0.016290536
0002b0 1f 7e 47 3b 1f 71 98 3d 3a 6f e5 3c ae b9 9c bc
       0.0030440164 0.07443451 0.028007139 -0.019131508
0002c0 88 94 32 bc 96 08 23 b9 2c a0 6a bd 75 65 76 3d
       -0.01089967 -0.0001554809 -0.057281658 0.06015535
0002d0 47 71 e9 3b ea 8c 41 bb 76 6c 2b bb 61 af 8c 3d
       0.0071240994 -0.0029533454 -0.0026157177 0.06869388
0002e0 fe 86 11 3d 8a c7 e9 3d ed 5d ae 3c e2 a0 8a bd
       0.03552913 0.11415012 0.021285022 -0.06768967
0002f0 9d ad 5a bd 03 70 9d bc 1a d7 92 bc 41 13 40 bc
       -0.053388227 -0.01921845 -0.017924834 -0.0117233405
000300 6d 65 6a 3c af b3 2a 3c cf e0 d8 3d da 64 8f 3c
       0.014306408 0.0104188165 0.10589754 0.017504144
000310 be c4 76 3b 06 05 c4 3c 42 1d 65 3d 79 a4 a2 3d
       0.0037653889 0.023928177 0.055936106 0.07941527
000320 64 09 a2 bc 8f 27 0c bd 9c bf ff bc 56 20 61 bc
       -0.019779868 -0.034217414 -0.031219296 -0.01374062
000330 4d 50 24 bd 0e 91 62 bc 17 b8 b9 3a 27 2f 3c 3c
       -0.040115643 -0.013828529 0.0014169243 0.011485851
000340 47 a4 ad 3d ec 7a ac 3d df 2b 80 3d aa 9b 9a 3d
       0.08478599 0.08421883 0.06258368 0.07549222
000350 0c 1a 4a 3b 92 51 73 bc f8 15 a4 bd 9b a0 97 3d
       0.003083828 -0.014850991 -0.08012003 0.0740368
000360 77 19 9d bd 1d 08 f3 3d 9a 5b 8f bd 70 b5 3e bd
       -0.07670873 0.11866782 -0.069998935 -0.04655975
000370 37 12 55 3b 33 02 1c bd bb 5e 5a bb 1f 4c 90 bd
       0.0032512078 -0.038088035 -0.0033320624 -0.07045769
000380 f4 65 36 3d f4 f0 82 3d 38 4d 43 bd cd aa 93 bd
       0.044530824 0.063936144 -0.047681063 -0.07210312
000390 3b b4 7b bd 75 32 0d 3d c7 11 a3 bd 80 0e 3a bd
       -0.061451178 0.034471948 -0.07962375 -0.045423985
0003a0 93 0b 6b 3d a7 20 84 3d 0d 1c 2d 3d bc d6 94 bc
       0.057384085 0.064515404 0.04226308 -0.0181688
0003b0 95 02 07 3c ad a7 73 bc af 9e 8e bd 23 5e 06 bc
       0.008240362 -0.01487152 -0.0696386 -0.008201155
0003c0 48 49 90 3d 43 e7 a6 3d 38 79 44 bc 8d 4a 9e 3d
       0.07045227 0.081495784 -0.011991791 0.07729063
0003d0 46 56 8f bd 23 86 4f bd c4 4e 09 3d 41 08 b3 bd
       -0.06998877 -0.050665032 0.033522382 -0.08741809
0003e0 ba 53 2c bc d4 87 79 3b 5f 96 82 bd ee 4e a3 3d
       -0.010518009 0.0038075345 -0.06376337 0.07974039
0003f0 5a 87 99 bd 11 5c 4b 3d 51 d8 8b bb ff 9c 84 3d
       -0.074965194 0.04964835 -0.0042677303 0.06475257

head.2.bias f4 [36]
000000 09 d3 ed 3c 09 12 e8 bb 77 98 66 bd ca 2f ca bc
       0.029031293 -0.007082228 -0.056297746 -0.02468099
000010 67 97 17 3d 10 2d e8 3c 41 7a 59 bd 05 18 14 3b
       0.037009623 0.0283418 -0.053095106 0.0022597325
000020 16 e1 90 bc 71 96 11 3d 22 e4 4f bd e5 7c 2f bd
       -0.017685454 0.035543863 -0.050754674 -0.042843718
000030 46 bd 1d bd fa 5e 56 bd 76 da 2c 3d 67 ee 77 3d
       -0.038510583 -0.05233667 0.042200528 0.060530093
000040 da da cf 3c f6 e7 bc 3d 4c 87 4c 3c 6a 89 1e 3d
       0.025372911 0.092239305 0.012483429 0.038705267
000050 43 bb e1 bd ae 20 67 3d 1a ff 71 3d 22 40 6c bd
       -0.110220455 0.05642765 0.059081174 -0.05767835
000060 42 60 aa 3d bd 12 56 3d 42 d1 98 bd 00 c3 68 3d
       0.08319141 0.052263964 -0.07461788 0.05682659
000070 ea a9 87 3d 8d 5b 32 bc 54 3d 99 bd a6 44 72 3d
       0.066242054 -0.010886085 -0.074824005 0.0591475
000080 b0 67 9e 3d 80 ae a3 3d a5 62 3f 3d 68 42 c5 bc
       0.077346206 0.079922676 0.046724934 -0.024079517
