output/model/model_test_1.pt (torch_old, 855518 bytes, 48 tensors)

net.0.weight f4 [3, 16, 3, 3]
0	0xbdb7f5f3	-0.08982458
1	0x3d12ffa4	0.03588833
2	0x3d5ae768	0.053443342
3	0xbbbfc702	-0.005852581
4	0x3cf8d468	0.03037472
5	0xbe112734	-0.14175111
6	0x3e4a502e	0.19757149
7	0x3db0609c	0.08612177
8	0xbe4dd547	-0.2010089
9	0x3e33a565	0.17543562
10	0x3dedf03c	0.11618087
11	0x3d5176a7	0.051138546
12	0x3d07b1a4	0.033128396
13	0xbb0795c0	-0.0020688623
14	0x3daa176e	0.0830525
15	0xbd9b8429	-0.07593567
16	0x3e3b536e	0.18293545
17	0xbe1d61fc	-0.1536941
18	0xbe06c057	-0.1315931
19	0x3c284570	0.010270461
20	0xbe111d7b	-0.14171402
21	0x3e0f07dd	0.13967843
22	0xbdd86582	-0.10566236
23	0xbc9543c0	-0.018220782
24	0xbe541fd2	-0.20715263
25	0xbd84b4c8	-0.06479794
26	0xbdce9268	-0.100865185
27	0x3d471eaa	0.048613228
28	0x3dad79c4	0.084704906
29	0x3decb7af	0.11558472
30	0x3e2e3fc3	0.1701651
31	0x3df238a3	0.11827209
32	0xbd9de3ce	-0.07709466
33	0x3e33e2f5	0.17567046
34	0xbde00ad8	-0.10939568
35	0xbe123592	-0.14278248
36	0xbd82096d	-0.06349454
37	0xbb8ed860	-0.00435929
38	0xbe4f968c	-0.20272273
39	0xbdd2d2ca	-0.10294111
40	0xbd00ed55	-0.031476337
41	0xbdadfb59	-0.084952064
42	0xbde0d4ee	-0.10978113
43	0xbd61a9b0	-0.055093467
44	0xbd812567	-0.06305962
45	0xbda81e95	-0.08208958
46	0x3e096f13	0.13421278
47	0xbe363fef	-0.17797826
48	0x3e0ff45a	0.14058056
49	0x3d09ac50	0.033611596
50	0x3d2d0315	0.042239267
51	0xbd4afa18	-0.049554914
52	0x3e49dac5	0.1971236
53	0x3dbe5f74	0.0929555
54	0x3e01366a	0.12618414
55	0x3e1ba7ad	0.15200682
56	0x3c445987	0.011984236
57	0xbd8615de	-0.065471396
58	0x3dce04ca	0.10059507
59	0x3da10ca4	0.07863739
60	0x3e05f8f4	0.1308325
61	0x3de11f81	0.10992337
62	0xbc999f20	-0.018752635
63	0xbd55679e	-0.05210077
64	0x3e487413	0.19575529
65	0x3d0a6542	0.033787973
66	0xbd8a785c	-0.06761238
67	0x3e2d1ebf	0.1690626
68	0xbe270a2d	-0.16312476
69	0xbdfe7863	-0.12425306
70	0xbe4aefd0	-0.19818044
71	0xbe1bdf93	-0.15222006
72	0x3e3e27de	0.18569896
73	0x3de9dc2c	0.114189476
74	0x3e0511fc	0.12995142
75	0x3c8acefa	0.016944397
76	0x3bb83ca3	0.005622463
77	0x3d8fb9a4	0.0701783
78	0x3e27a518	0.16371572
79	0x3e3b32e5	0.18281133
80	0xbce081a8	-0.027405575
81	0xbd6ba95a	-0.057534553
82	0xbc4f8d0e	-0.012667907
83	0xbd454432	-0.04816074
84	0x3d978e84	0.074002296
85	0xbdede8f2	-0.116166964
86	0x3dc7e284	0.09760001
87	0xbe304e8b	-0.17217462
88	0xbc93f15b	-0.018059423
89	0x3dee0f54	0.11624017
90	0x3ae06e92	0.0017122796
91	0x3de27d0f	0.11059009
92	0x3de538f3	0.11192503
93	0x3e1910c0	0.14947796
94	0x3a95f02b	0.0011439373
95	0x3d9bfda5	0.07616738
96	0xbe02154e	-0.1270344
97	0x3dd93723	0.106062196
98	0x3c45531d	0.0120437415
99	0xbe128147	-0.14307128
100	0x3cb8ea6e	0.022572722
101	0xbe09e656	-0.13466772
102	0xbe466464	-0.19374233
103	0x3e468eba	0.19390383
104	0x3de9b701	0.11411858
105	0x3d8aaeb0	0.067716
106	0x3d5c2358	0.053744644
107	0x3e10131c	0.1406979
108	0x3db49175	0.08816806
109	0xbc385c46	-0.011252468
110	0xbe3373d8	-0.1752466
111	0x3ddddba0	0.10832906
112	0xbd354c7a	-0.044262387
113	0x3dafc0d1	0.08581699
114	0xbd929a0e	-0.0715829
115	0xbd9c6ca3	-0.07637908
116	0x3d7a7a04	0.06115152
117	0x3e233d81	0.1594143
118	0x3d9a9623	0.075481676
119	0xbe313f80	-0.1730938
120	0x3cf27d1e	0.029600676
121	0x3e36ab76	0.17838845
122	0x3d807afd	0.06273458
123	0x3a3c776e	0.0007189427
124	0x3d519460	0.051166892
125	0x3d9db516	0.07700555
126	0x3d26e9fc	0.04075049
127	0xbd414294	-0.047182634
128	0xbdd6a1da	-0.104800895
129	0xbe0271e0	-0.12738752
130	0x3caa4b0b	0.020787736
131	0xbe32f82b	-0.17477481
132	0xbe3f44e0	-0.18678617
133	0xbe0e72ad	-0.13910933
134	0x3dd26692	0.1027347
135	0x3dcbfc4c	0.09960231
136	0x3e48b574	0.19600469
137	0xbd80cfa4	-0.06289604
138	0xbdd9d87d	-0.10636995
139	0xbb69c7d2	-0.003567208
140	0xbe1a578e	-0.15072462
141	0xbd9f0b1e	-0.07765792
142	0xbe06731f	-0.13129853
143	0x3dc55974	0.096362025
144	0x3e2207f2	0.15823343
145	0x3e0b4fae	0.13604614
146	0xbe1bd023	-0.15216117
147	0x3dbfe36a	0.09369548
148	0x3e10386e	0.14084026
149	0xbcad6fea	-0.021171529
150	0x3e4be598	0.19911802
151	0xbdd1556a	-0.102213696
152	0xbe44f785	-0.19235046
153	0x3da4e200	0.080509186
154	0xbda239d3	-0.07921185
155	0x3db8ffc1	0.09033156
156	0x3e49791d	0.19675107
157	0xbde66d5e	-0.11251329
158	0xbdfbe75c	-0.12299988
159	0x3cb92cfd	0.02260446
160	0xbe301fb0	-0.17199588
161	0xbdcb0fb6	-0.09915106
162	0x3d9b6cdb	0.07589122
163	0x3e48bbde	0.19602916
164	0xbdc29ab1	-0.09502161
165	0xbe1531b5	-0.14569743
166	0xbe00daca	-0.12583461
167	0xbe125d61	-0.14293434
168	0x3e04edb2	0.12981299
169	0x3e492d34	0.1964615
170	0xbd45be59	-0.048277233
171	0xbdf95f9d	-0.1217644
172	0x3e1d2294	0.15345222
173	0xbdb5c598	-0.08875579
174	0x3e197408	0.14985669
175	0xbc78037c	-0.0151375495
176	0x3dc0e1be	0.09418057
177	0xbd8b1a84	-0.06792167
178	0x3e2c5cbc	0.1683225
179	0xbdb4539a	-0.08805008
180	0x3d9f9c30	0.07793462
181	0xbe2f76e2	-0.17135194
182	0xbc564915	-0.013078948
183	0xbe17bb09	-0.14817442
184	0xbe10cbb9	-0.14140214
185	0x3d2328ff	0.03983402
186	0x3e426905	0.18985374
187	0x3e1d88c4	0.15384203
188	0x3cb6d250	0.022317082
189	0x3daf7959	0.08568067
190	0x3e0566cc	0.13027495
191	0x3e2a3234	0.16620713
192	0x3e33aac1	0.17545606
193	0xbd669208	-0.05629161
194	0x3e235c89	0.15953268
195	0xbdf196d2	-0.11796345
196	0xbdb9fa1e	-0.09080909
197	0xbda1c852	-0.07899536
198	0xbe2afaa7	-0.16697179
199	0xbd908777	-0.07057088
200	0xbe260fdc	-0.16216987
201	0xbdec79c9	-0.11546666
202	0xbd21a5e0	-0.03946483
203	0x3d7c0113	0.061524462
204	0xbb2ecfcb	-0.0026674147
205	0xbe4576e5	-0.19283636
206	0x3d6d2888	0.05789998
207	0x3de96485	0.11396126
208	0xbe2465a2	-0.16054395
209	0xbc6d616c	-0.014488559
210	0x3df65396	0.120276615
211	0xbcc69dcf	-0.02424517
212	0x3c64aa6e	0.013956649
213	0x3e18f498	0.14937055
214	0xbde84a1f	-0.113422625
215	0x3e24d740	0.16097736
216	0x3e390db9	0.18071641
217	0xbceba7c4	-0.02876652
218	0x3de400f1	0.11132992
219	0xbe271368	-0.16315997
220	0x3e00d5fb	0.12581627
221	0xbdc8baf0	-0.098012805
222	0x3e37d9ea	0.17954221
223	0x3e0c3340	0.13691425
224	0xbe3ac46a	-0.18238989
225	0x3d226dde	0.03965556
226	0xbe493118	-0.19647634
227	0xbcf47f5e	-0.02984589
228	0x3e2f9caf	0.17149614
229	0xbdee6e28	-0.116421044
230	0x3ddfa4d6	0.10920112
231	0xbdfcf853	-0.123520516
232	0xbe1cf97d	-0.15329547
233	0xbdc40f0a	-0.09573181
234	0xbc1c46e0	-0.009538382
235	0x3bc5212e	0.006015918
236	0x3e1c8ec4	0.15288836
237	0xbd9c03f4	-0.076179415
238	0xbe4b5c48	-0.19859421
239	0xbe13fb17	-0.14451252
240	0xbe0cbfdf	-0.13745068
241	0x3d8c8ac3	0.06862404
242	0x3d97e4ed	0.07416711
243	0x3dfbe6b7	0.12299865
244	0x3c9f44a4	0.01944191
245	0xbd9b4b73	-0.0758275
246	0x3bb9b1a4	0.0056669284
247	0xbe267feb	-0.16259734
248	0x3dd247e4	0.10267618
249	0xbdab1282	-0.083531395
250	0xbccc1dfd	-0.024916643
251	0x3ddd9655	0.10819689
252	0x3bbc441f	0.0057454254
253	0x3b8492ee	0.0040458357
254	0xbe19ec56	-0.15031561
255	0x3e37229a	0.17884293

net.0.bias f4 [3]
0	0x3b6e7990	0.0036388375
1	0x3aaa5d84	0.001299784
2	0x00000000	0.0

net.3.weight f4 [6, 3, 3, 3]
0	0x3b70f01a	0.0036764205
1	0x3de231b3	0.110446356
2	0x3e6ec131	0.23315884
3	0xbee1f595	-0.44132677
4	0xbe5ef574	-0.2177332
5	0x3e0f4d3d	0.13994308
6	0x3d22fe79	0.039793465
7	0x3e740849	0.23831286
8	0xbecf53ed	-0.40493718
9	0xbebfc633	-0.37455902
10	0xbeaa0f35	-0.33214727
11	0x3e33e007	0.17565928
12	0xbe62cc8b	-0.2214834
13	0xbe907fe4	-0.28222573
14	0x3ea41db1	0.32053903
15	0x3ecf7b08	0.40523553
16	0x3eb0384e	0.34417957
17	0x3ebbb4d6	0.36661404
18	0xbda41698	-0.08012122
19	0xbea3fb16	-0.320275
20	0xbcf4d6e0	-0.029887617
21	0x3e2ba82e	0.16763374
22	0xbe41a6ee	-0.18911335
23	0x3eddc245	0.43312278
24	0xbedaa545	-0.42704216
25	0x3e0b5f7e	0.13610646
26	0x3ebdbbe5	0.37057415
27	0x3e1d40e5	0.15356787
28	0xbe7e6c98	-0.24846113
29	0xbe11fc75	-0.14256461
30	0x3e96d597	0.2945983
31	0xbd5e6f8d	-0.054305602
32	0x3dd254db	0.10270091
33	0xbec01a5d	-0.37520114
34	0x3ee4e9a4	0.44709504
35	0xbeccc3e9	-0.39993218
36	0xbea3a090	-0.31958437
37	0x3eac255f	0.33622262
38	0xbee8d693	-0.45476207
39	0x3d46093b	0.048348647
40	0xbeb7811b	-0.35840687
41	0x3e8f5cea	0.28000575
42	0x3e0eed37	0.13957678
43	0x3eaf7dc1	0.3427563
44	0xbecf9b55	-0.40548196
45	0x3d6a2428	0.057163388
46	0x3e4e4b36	0.20145878
47	0xbda2afa0	-0.07943654
48	0xbd55b2a8	-0.052172333
49	0x3c8cbb90	0.01717928
50	0xbebfdbf4	-0.37472498
51	0x3e31632e	0.1732299
52	0xbe8afee7	-0.271476
53	0xbd86fc04	-0.06591037
54	0x3ea3b71c	0.3197564
55	0xbebb453f	-0.36576268
56	0x3e824790	0.25445223
57	0x3e6784dc	0.22609276
58	0xbebfa409	-0.37429836
59	0x3d3770ad	0.04478519
60	0x3e4df337	0.2011231
61	0x3ce3c19a	0.027802277
62	0x3e8adf73	0.27123603
63	0x3eec4959	0.4614971
64	0xbec73677	-0.3890874
65	0x3ed106ff	0.4082565
66	0xbd645db6	-0.055753432
67	0x3e438e76	0.19097313
68	0xbed8f0d3	-0.42371234
69	0xbe8d5efb	-0.27611527
70	0x3ede3126	0.43396872
71	0x3eb7898e	0.35847133
72	0xbe2526d8	-0.16128099
73	0xbeca00b3	-0.39453658
74	0xbeb4fa58	-0.35347247
75	0xbcd84f50	-0.026405007
76	0x3dbefc14	0.09325424
77	0x3e6b65ca	0.22988048
78	0x3e3ef10a	0.18646637
79	0x3d0fc028	0.035095364
80	0xbe91f4e2	-0.28507143
81	0xbe83bd5e	-0.25730413
82	0x3e58d82e	0.21176216
83	0xbe19323c	-0.14960569
84	0xbebf43c4	-0.3735639
85	0xbeb03c27	-0.34420893
86	0xbec73050	-0.38904047
87	0x3e7a73ba	0.24458209
88	0xbe3d2f34	-0.18475038
89	0x3d8fc65c	0.07020256
90	0x3e818e2d	0.25303784
91	0xbea6a472	-0.32547337
92	0xbe94eb71	-0.29085878
93	0xbe5adfb0	-0.21374393
94	0xbeccd8cd	-0.40009156
95	0x3e36aa32	0.17838362
96	0x3e94948b	0.2901958
97	0x3da0874c	0.07838306
98	0xbea6bc62	-0.325656
99	0x3c9cc6f0	0.01913783
100	0x3ea3ba9b	0.31978306
101	0xbebd2cdc	-0.36948287
102	0xbe23f9e8	-0.160133
103	0xbeb7b387	-0.35879156
104	0xbe878966	-0.26472014
105	0xbee2081c	-0.44146812
106	0xbe7d6711	-0.24746348
107	0x3e85afa1	0.26110557
108	0xbe27668c	-0.16347712
109	0xbe95e302	-0.29274756
110	0x3ead50c2	0.33850676
111	0xbc3dc95c	-0.011583652
112	0xbe330cb8	-0.1748532
113	0xbe98d6d5	-0.29851404
114	0x3eb79393	0.35854778
115	0x3ebe7d3a	0.37204915
116	0x3d68c072	0.056824155
117	0x3cd14669	0.02554627
118	0x3d496ca7	0.049175885
119	0x3e0bf326	0.13666973
120	0x3e315477	0.17317377
121	0x3e541338	0.20710456
122	0x3d8b6e03	0.068080924
123	0x3e923db8	0.28562713
124	0x3e0e6de5	0.13909109
125	0xbee0a3bb	-0.43874916
126	0x3d0c6bc8	0.034282476
127	0x3e7322be	0.23743722
128	0x3ec4c88f	0.38434264
129	0xbe45d6fe	-0.19320294
130	0xbe8da711	-0.27666524
131	0x3e200b62	0.15629342
132	0x3e27ae3a	0.16375056
133	0xbe37182e	-0.17880318
134	0x3e53ff96	0.20702967
135	0xbee1f07d	-0.4412879
136	0xbdfe2c85	-0.12410835
137	0x3d3dc575	0.046330888
138	0x3e811930	0.2521453
139	0xbd1cbf65	-0.038268466
140	0xbd4b8225	-0.049684662
141	0x3e3c0572	0.18361452
142	0xbd61b815	-0.055107195
143	0x3ef03160	0.4691267
144	0x3e80efe6	0.25183028
145	0x3ec554b5	0.3854119
146	0xbd8d56a7	-0.06901293
147	0x3d7cc5ac	0.061711952
148	0xbdbc76cd	-0.09202347
149	0xbe75e919	-0.24014701
150	0xbe9b1e24	-0.30296433
151	0x3e4fb4c6	0.20283803
152	0x3e1f233f	0.15540789
153	0x3dd2b99c	0.102893084
154	0x3e68afba	0.22723284
155	0xbea423e1	-0.32058623
156	0x3cf4e610	0.029894859
157	0xbe8f1694	-0.27946913
158	0xbd0d7330	-0.03453368
159	0x3eee922b	0.46595892
160	0x3e799c3e	0.24376008
161	0x3e58bc1e	0.21165511

net.3.bias f4 [6]
0	0xbbb7717a	-0.0055982443
1	0x3b7bbf38	0.0038413536
2	0xb9a1df5c	-0.0003087473
3	0x00000000	0.0
4	0x3b5d0459	0.0033724515
5	0x3bd578ac	0.0065146293

net.6.weight f4 [6, 6, 3, 3]
0	0x3d97d1cc	0.074130625
1	0x3deed08c	0.11660871
2	0xbe4a1950	-0.19736218
3	0x3e4bea2a	0.19913545
4	0xbe92853a	-0.2861727
5	0xbb53bb80	-0.0032307804
6	0xbe320408	-0.1738435
7	0x3cea7a30	0.028622717
8	0x3db47ed4	0.08813253
9	0x3dc09170	0.0940274
10	0x3e46c4aa	0.19410959
11	0xbe62724b	-0.22113912
12	0x3df215d4	0.1182057
13	0xbe5a4756	-0.21316275
14	0x3b0d3800	0.0021548271
15	0x3d9aa364	0.075506955
16	0xbe295e26	-0.16539821
17	0x3e2ff0ee	0.17181751
18	0xbe48d6bb	-0.19613163
19	0xbdb2ea36	-0.087360784
20	0x3e859ab1	0.26094583
21	0x3e784bae	0.2424762
22	0xbe8b2a3e	-0.27180666
23	0xbe4331ee	-0.19062015
24	0xbe299083	-0.16559033
25	0x3e80d049	0.2515891
26	0xbe03b61e	-0.12862441
27	0xbe416c13	-0.18888883
28	0x3e048b38	0.12943733
29	0xbe268566	-0.16261825
30	0x3ea1538f	0.31509063
31	0x3ea32aed	0.31868687
32	0x3e6c905a	0.23101941
33	0x3d39cfc8	0.04536417
34	0x3db086a0	0.08619428
35	0xbe471608	-0.19441998
36	0xbb8a4400	-0.004219532
37	0x3e159678	0.1460818
38	0x3e1b281a	0.15152016
39	0x3d941670	0.07230842
40	0x3dd335d4	0.10313001
41	0xbe8345c6	-0.2563917
42	0x3e248dfe	0.1606979
43	0xbe9a786f	-0.3017001
44	0xbe702580	-0.23451805
45	0x3e76c13a	0.24097148
46	0xbe68e440	-0.2274332
47	0xbe83e624	-0.2576152
48	0xbe924acb	-0.28572688
49	0xbd933050	-0.07186949
50	0x3ea02cad	0.31284085
51	0x3e1e22a6	0.15442905
52	0xbe3b8798	-0.18313444
53	0xbdabb5e6	-0.08384304
54	0xbe6fddce	-0.23424456
55	0x3e824eaf	0.25450656
56	0x3e9b44c9	0.30325916
57	0xbdbbc150	-0.09167731
58	0xbe4df298	-0.20112073
59	0xbddbbb70	-0.1072911
60	0xbe292d68	-0.16521227
61	0xbe7692d8	-0.24079454
62	0x3e5f718a	0.21820655
63	0xbe93a49a	-0.2883652
64	0x3e68d112	0.22736004
65	0xbbfaeec0	-0.0076578557
66	0xbdc9c4f0	-0.09852016
67	0xbe1ca706	-0.1529809
68	0x3ca815d0	0.020518214
69	0x3d91b3a0	0.07114339
70	0xbe53c28e	-0.20679685
71	0xbcf2da00	-0.029644966
72	0xbe9f6120	-0.31128788
73	0x3e1caef8	0.1530112
74	0x3cf6b790	0.030116826
75	0xbe500060	-0.20312643
76	0xbba452c0	-0.0050147474
77	0x3d10c980	0.035348415
78	0x3e7ec382	0.24879268
79	0x3e8aea57	0.27131912
80	0xbe9d1b1a	-0.3068474
81	0xbe8dfb17	-0.2773063
82	0xbda8dab0	-0.08244836
83	0x3ea4f5b1	0.32218698
84	0xbe4ae2e8	-0.1981312
85	0x3beb5a00	0.0071823597
86	0x3dee3b24	0.11632374
87	0xbe9c2bfe	-0.30502313
88	0x3e2d91ae	0.16950104
89	0xbe7a6bfe	-0.24455258
90	0xbe6e5073	-0.23272876
91	0x3e9ed26d	0.31019917
92	0xbcbea270	-0.023270816
93	0x3ba706c0	0.00509724
94	0xbd79ac00	-0.060955048
95	0x3d9613f0	0.073280215
96	0xbe8e6378	-0.27810264
97	0x3dceb4b4	0.1009306
98	0x3d0f7300	0.035021782
99	0x3e7be38e	0.24598524
100	0x3e90a67d	0.2825202
101	0xbe90c6a3	-0.28276548
102	0x3e176d68	0.14787829
103	0x3dddc240	0.10828066
104	0xbea2ccc4	-0.3179685
105	0xbddfa376	-0.109198496
106	0xbe276d6b	-0.16350333
107	0xbea8b6e3	-0.32952031
108	0xbe94d0df	-0.29065606
109	0xbe8fba99	-0.2807205
110	0x3d6f40a7	0.058411267
111	0x3d987bde	0.07445501
112	0xbe24cf04	-0.16094595
113	0xbe9db3b6	-0.3080117
114	0x3e8bfed2	0.2734285
115	0xbe75643e	-0.2396402
116	0xbd231772	-0.03981728
117	0xbd4b36a8	-0.04961267
118	0xbe665d10	-0.22496438
119	0x3d89ad60	0.06722522
120	0x3bd78d40	0.0065781176
121	0x3e895b4d	0.2682747
122	0xbe48923b	-0.19587032
123	0x3e90b087	0.2825968
124	0xbe44da03	-0.1922379
125	0xbb7e8b80	-0.0038840473
126	0xbe077fd6	-0.1323236
127	0xbe3e8430	-0.18605113
128	0x3e1b0da9	0.1514193
129	0x3e6a3e49	0.22875322
130	0x3d93e370	0.07221115
131	0x3df97a91	0.12181581
132	0x3c2d582e	0.010580106
133	0xbea1d2c1	-0.31606105
134	0xbd862c45	-0.065514125
135	0x3e155b98	0.14585721
136	0x3da31cac	0.07964453
137	0x3e1c1f58	0.15246332
138	0xbe5ad508	-0.21370327
139	0xbea171ec	-0.31532228
140	0xbea15f5f	-0.31518075
141	0x3e8de095	0.27710405
142	0x3e39b4ca	0.18135372
143	0xbc9e7f00	-0.019347668
144	0x3e611017	0.21978794
145	0x3e561d28	0.2090956
146	0x3e5dd168	0.21661913
147	0xbe832b35	-0.25618902
148	0xbe8ce4ab	-0.2751821
149	0x3e390809	0.18069471
150	0xbe666e3b	-0.22502987
151	0xbe8e793b	-0.27826867
152	0xbde90e18	-0.11379641
153	0xbd651933	-0.055932235
154	0xbb6e24db	-0.0036337886
155	0x3e9655c3	0.29362306
156	0x3e54091f	0.20706604
157	0x3ea9cf75	0.3316609
158	0xbc5052d9	-0.012715065
159	0xbcabc523	-0.020968026
160	0xbea17257	-0.31532547
161	0xbe518e0f	-0.20464347
162	0x3e6f58e4	0.23373753
163	0xbd3e5356	-0.046466194
164	0xbe1bf21b	-0.15229075
165	0x3c5abf55	0.013351281
166	0xbde54a4b	-0.11195811
167	0xbd2626df	-0.040564414
168	0x3e8dcc6d	0.27695027
169	0xbe4181c6	-0.18897161
170	0xbe293dfa	-0.16527548
171	0x3d06c808	0.03290561
172	0xbd65c988	-0.0561004
173	0x3e4b651e	0.19862792
174	0xbe180e7a	-0.14849272
175	0xbc3d9ef7	-0.011573545
176	0xbdd5947c	-0.10428712
177	0xbdd5c293	-0.10437503
178	0x3d416eeb	0.04722492
179	0x3e64cde8	0.22344172
180	0xbe544b79	-0.20731916
181	0x3dd56208	0.104190886
182	0xbdc45b10	-0.09587681
183	0x3ea4ce1d	0.32188502
184	0x3e4b48a5	0.1985193
185	0x3d96a352	0.0735537
186	0xbe0288ca	-0.12747493
187	0xbe68a543	-0.22719292
188	0x3e6005c7	0.21877204
189	0x3e880d11	0.2657247
190	0xbe0f7fd3	-0.14013605
191	0x3e94b2e5	0.29042736
192	0xbe981c2f	-0.29709002
193	0xbe260d40	-0.16215992
194	0xbe75aeb0	-0.23992419
195	0x3d8815dc	0.06644794
196	0x3e1328ce	0.14371035
197	0xbe6a5480	-0.22883797
198	0x3dd54cf7	0.104150705
199	0x3d87f128	0.06637794
200	0x3e34c85a	0.17654553
201	0x3e05a6be	0.13051888
202	0x3e8f467e	0.2798347
203	0x3caec065	0.021331975
204	0xbe66fd62	-0.22557595
205	0x3e188906	0.1489602
206	0xbe039c7b	-0.12852661
207	0xbde489f5	-0.11159126
208	0x3e57b1ed	0.21063967
209	0xbdc5ae28	-0.09652358
210	0xbe5ad254	-0.21369296
211	0xbda7b2ac	-0.08188376
212	0xbb83d2fa	-0.004022953
213	0x3e8f93fa	0.28042585
214	0xbe182884	-0.14859205
215	0xbdb13823	-0.08653285
216	0xbaf386aa	-0.0018579562
217	0xbd8dfca3	-0.06932952
218	0xbe368fd1	-0.17828299
219	0x3d143903	0.036187183
220	0xbe9fed66	-0.31235808
221	0xbbd8381a	-0.0065984847
222	0xbea7ed81	-0.3279839
223	0xbded712c	-0.115938514
224	0x3e16cc1e	0.14726302
225	0x3e42f38a	0.19038215
226	0x3dc2e914	0.095171124
227	0xbe5cd45e	-0.21565387
228	0x3e10d259	0.14142741
229	0x395d4cd9	0.0002110483
230	0x3e300a0d	0.17191334
231	0xbda9ac29	-0.0828479
232	0x3e120752	0.14260605
233	0xbd1039c2	-0.035211332
234	0xbe017953	-0.12643938
235	0xbea29835	-0.3175675
236	0xbea39fb9	-0.31957796
237	0x3df3dde0	0.11907554
238	0xbd8e4873	-0.06947412
239	0x3e30bd34	0.17259675
240	0x3ea3c4e8	0.31986165
241	0x3e5bce12	0.21465328
242	0x3e930f74	0.28722727
243	0x3e4f15b2	0.2022312
244	0xbe2598db	-0.16171591
245	0xbe6959d6	-0.22788176
246	0xbc4391a0	-0.011936575
247	0xbdfb344c	-0.12265834
248	0xbe9544c0	-0.29154015
249	0xbdae4ed0	-0.08511126
250	0x3d236500	0.039891243
251	0xbe87e9c2	-0.2654553
252	0x3e7a15b7	0.24422346
253	0x3daad595	0.08341519
254	0x3e141621	0.14461567
255	0xbd242929	-0.040078316

net.6.bias f4 [6]
0	0x00000000	0.0
1	0x00000000	0.0
2	0x3bc74088	0.006080691
3	0x3af0130c	0.0018316223
4	0xbaafaf11	-0.0013403614
5	0xbbee3e27	-0.0072705927

fc_x_layers.0.weight f4 [64, 294]
0	0xbc9b74c0	-0.01897657
1	0xbd62e194	-0.05539091
2	0xbdde30ee	-0.10849176
3	0xbd1f8204	-0.038942352
4	0xbbe46df7	-0.0069711166
5	0xbd7a09f3	-0.061044645
6	0x3d57f82d	0.052726913
7	0x3d446bd7	0.047954407
8	0xbd662ceb	-0.05619518
9	0xbd56218d	-0.05227809
10	0xbcb70ef7	-0.022346003
11	0x3cfa3913	0.030544793
12	0xbd0ec97d	-0.034860123
13	0xbc11e37a	-0.008904332
14	0xbc01d2ab	-0.007923762
15	0xbded5ce2	-0.115899816
16	0xbcc255d5	-0.023722569
17	0xbd1b10bd	-0.03785776
18	0xbd814c4c	-0.063133806
19	0x3de851d5	0.11343733
20	0xbbfd00f6	-0.007721062
21	0x3d9547ce	0.07289086
22	0xbd8f90de	-0.07010053
23	0xbcab0ca3	-0.02088005
24	0x3d91041b	0.07080861
25	0x3c9f4824	0.019443579
26	0x3d146754	0.036231354
27	0x3c61108b	0.013736854
28	0x3d2ace74	0.041700795
29	0x3c5868de	0.013208596
30	0x3da99704	0.08280757
31	0x3dfee0bd	0.12445209
32	0x3d0884db	0.033329826
33	0xbbec029e	-0.0072024604
34	0x3dccb7c0	0.09995985
35	0x3c0e55a5	0.008687411
36	0x3dba5603	0.09098437
37	0xbd4497b9	-0.047996257
38	0x3d57335c	0.052539214
39	0x3ca20915	0.019779721
40	0xbd9df0d4	-0.0771195
41	0x3d20a31f	0.039218064
42	0x3d8e7184	0.06955245
43	0x3d8f8526	0.07007818
44	0xbbef1287	-0.00729591
45	0xbcd11b7b	-0.025525799
46	0x3c90cb97	0.017675204
47	0xbcc5f46b	-0.0241644
48	0xbd8e98f3	-0.069627665
49	0x3d0952a5	0.03352608
50	0xbbb4e4e3	-0.0055204495
51	0x3a825f3a	0.0009946593
52	0x3e03a694	0.12856513
53	0xbca6d4d7	-0.020365162
54	0x3d06e17b	0.03292988
55	0xbd5fc14a	-0.054627694
56	0x3bfc35aa	0.007696827
57	0xbce982b1	-0.028504701
58	0xbca17137	-0.019707305
59	0x3c90f7fa	0.01769637
60	0x3d7a1cb1	0.06106252
61	0xbb4f57d4	-0.0031638043
62	0xbd6e3328	-0.058154255
63	0xbd199bcf	-0.037502106
64	0xbce4a6b3	-0.02791152
65	0x3dd33e54	0.103146225
66	0xbd549d0d	-0.051907588
67	0x3d8231e9	0.06357176
68	0xbd6bace5	-0.057537932
69	0xbc1c2579	-0.009530419
70	0x3bbe2e37	0.005803849
71	0xbde96abd	-0.11397312
72	0x3d2eeff7	0.042709317
73	0xbd1deaad	-0.038553882
74	0x3d984669	0.07435305
75	0xbd8233ec	-0.063575596
76	0xbdb5a93e	-0.08870171
77	0x3d8aaada	0.067708686
78	0xbdfd56d5	-0.123700775
79	0xbb7e9c2c	-0.003885041
80	0xbd981da3	-0.07427528
81	0x3c9d75e5	0.019221256
82	0xbc11f95d	-0.0089095505
83	0xbddfd2d4	-0.10928884
84	0xbc57db4c	-0.013174843
85	0x3cf4678a	0.029834528
86	0x3ac069bf	0.0014679952
87	0xbd12dc53	-0.03585465
88	0x3d070a57	0.032968845
89	0x3d29b180	0.041429043
90	0x3dbf7c5e	0.09349893
91	0x3d3503c3	0.04419304
92	0xbd2e3c77	-0.042538133
93	0x3dab97f3	0.083785914
94	0x3d06ab4a	0.032878198
95	0xbc953e6e	-0.018218245
96	0x3c1bc74b	0.009507964
97	0x3ddaec3b	0.10689589
98	0xbc5df149	-0.013546296
99	0xbc6f81a7	-0.014618314
100	0x3d8c1b5d	0.06841157
101	0xbe10c761	-0.14138557
102	0xbdd374b2	-0.10324992
103	0xbdb67c3a	-0.08910413
104	0x3d385a52	0.04500801
105	0x3cc8dbd9	0.024518894
106	0x3c9484b5	0.018129686
107	0x3d87f06f	0.06637656
108	0xbc600067	-0.013671971
109	0xbcd8ac17	-0.026449246
110	0xbc77738d	-0.015103233
111	0xbd2267e4	-0.03964986
112	0xbcc43a51	-0.023953589
113	0x3c0f0a94	0.008730549
114	0x3d6f5436	0.05842992
115	0x3db382ba	0.087651685
116	0xbc3ae9a5	-0.011408244
117	0x3db6bf0f	0.0892316
118	0xbc6d7ccd	-0.014495087
119	0xbdc81401	-0.097694404
120	0xbc096a0c	-0.0083871
121	0x3d567a79	0.052362893
122	0x3d8f562e	0.06998859
123	0xbdd764a3	-0.10517242
124	0x3d041cb9	0.032253955
125	0xbdcbb966	-0.09947471
126	0x3d449598	0.047994226
127	0xbc8c3e01	-0.01711941
128	0x3cbef439	0.023309814
129	0x3c5c436d	0.01344381
130	0x3c46dcd1	0.012137608
131	0xbbe43060	-0.0069637746
132	0xbc4e529d	-0.012592939
133	0xbd886cf9	-0.0666141
134	0x3d9a6ce8	0.075403035
135	0x3d43aae2	0.04777039
136	0x3d27d350	0.040973008
137	0xbd3368cb	-0.04380111
138	0x3b648890	0.0034871437
139	0xbcfeb411	-0.031091722
140	0xbd35f8ca	-0.044426717
141	0x3ca1f523	0.01977021
142	0xbbb76f1f	-0.0055979635
143	0xbd9c66b4	-0.076367766
144	0xbe22ec47	-0.15910445
145	0xbd87b906	-0.06627087
146	0xbe35aa28	-0.1774069
147	0xbd62316d	-0.055222917
148	0xbd789b75	-0.06069513
149	0x3d3672da	0.044543125
150	0x3cbc680d	0.022998834
151	0xbd3d1554	-0.04616292
152	0x3cb4d6ce	0.022075083
153	0x3d9e31e4	0.0772436
154	0xbccd7eeb	-0.025084933
155	0x3ca65bfb	0.020307532
156	0x3da0b3bc	0.078467816
157	0x3d915e84	0.070981055
158	0xbd02b25f	-0.03190839
159	0xbe11321b	-0.1417927
160	0xbd2b9680	-0.041891575
161	0x3cf96dc9	0.030447857
162	0xbcc1a761	-0.023639383
163	0xbdf8d701	-0.12150384
164	0x3cff2f50	0.03115049
165	0xbd09807b	-0.033569794
166	0xbd8a48e8	-0.06752187
167	0x3d913e3e	0.0709195
168	0xbc0a3dd5	-0.0084375935
169	0xbb5a8bee	-0.0033347565
170	0x3c98740f	0.018610029
171	0xbd08578b	-0.033286612
172	0xbd070b50	-0.032969773
173	0xbd62dc64	-0.055385962
174	0x3d6558b1	0.055992786
175	0xbdc27e7f	-0.094967835
176	0xbd5caa7c	-0.053873524
177	0x3d8937b0	0.06700075
178	0xbc9321b9	-0.017960416
179	0xbd3756ca	-0.044760503
180	0x3c82a03e	0.01594555
181	0xbd04f881	-0.032463554
182	0x3d2cb469	0.04216424
183	0x3d83801c	0.06420919
184	0x3dd160a6	0.10223512
185	0xbd333890	-0.043755114
186	0xbceeff7e	-0.029174563
187	0xbd6d39c5	-0.05791642
188	0xbd96b58f	-0.07358848
189	0x3e3bd279	0.18342008
190	0xbd211d9a	-0.03933487
191	0xbc1fdb97	-0.009756944
192	0x3d6644f9	0.05621812
193	0xbcf439b9	-0.02981268
194	0x3e3351eb	0.17511718
195	0xbd4b5f04	-0.04965116
196	0xbd8cbd87	-0.06872087
197	0x3ce14039	0.027496444
198	0x3ce8eaac	0.028432213
199	0xbd896d2d	-0.06710277
200	0x3cd2a8df	0.02571529
201	0xbd9fc932	-0.07802047
202	0x3d7744b2	0.060368247
203	0xbbaf1691	-0.0053432663
204	0x3d842662	0.064526334
205	0x3d67cf4f	0.05659419
206	0xbd63dee5	-0.05563249
207	0xbc5582c5	-0.013031666
208	0xb9189f6d	-0.0001455524
209	0xbca93c97	-0.020658774
210	0x3cd36ba6	0.025808167
211	0x3cef239d	0.029191786
212	0x3d269871	0.040672723
213	0xbd94abe1	-0.07259346
214	0x3af26469	0.0018493059
215	0x3da170c5	0.07882837
216	0x3c808aa7	0.015691115
217	0x3ce3741e	0.02776533
218	0xbd879170	-0.06619537
219	0x3d501af9	0.050806973
220	0x3d083ebe	0.03326296
221	0x3d8211b0	0.0635103
222	0xbd1c2f18	-0.03813085
223	0xbd8aa3e1	-0.06769539
224	0xbcc9e040	-0.024643064
225	0x3d9d94de	0.0769441
226	0x3d06a336	0.032870494
227	0xbd812b2f	-0.06307065
228	0xbd86488a	-0.065568045
229	0xbdd466d1	-0.10371173
230	0xbd106fd9	-0.035262916
231	0xbdb45b1f	-0.088064425
232	0xbcfc0f43	-0.030768996
233	0xbd105a7f	-0.035242554
234	0x3dcf7c42	0.10131122
235	0x3cc081f4	0.023499466
236	0xbd90791a	-0.07054348
237	0x3cabce20	0.020972311
238	0x3d84998a	0.06474598
239	0x3d00cde9	0.03144637
240	0xbd637e99	-0.055540655
241	0x3c6f53c4	0.014607374
242	0xbaa60aaf	-0.0012667979
243	0xbdc8df36	-0.09808199
244	0x3d1df29e	0.038561456
245	0x3d1d41d6	0.038392864
246	0xbb970023	-0.0046081706
247	0xbc95e65d	-0.018298322
248	0x3b66b5a9	0.0035203493
249	0xbc42969b	-0.011876727
250	0x3d0b960c	0.034078643
251	0x3d8f0d9f	0.0698502
252	0x3cb9a4d0	0.022661597
253	0x3d9d1b6e	0.076712474
254	0xbd856389	-0.065131254
255	0x3ce29e16	0.027663272

fc_x_layers.0.bias f4 [64]
0	0x00000000	0.0
1	0x00000000	0.0
2	0xbbcd108b	-0.0062580756
3	0x3c0c729e	0.008572249
4	0xbc065767	-0.008199549
5	0x3c039ca2	0.00803295
6	0x3c11417e	0.008865712
7	0x00000000	0.0
8	0x3c5aee18	0.01336243
9	0x00000000	0.0
10	0x00000000	0.0
11	0xbb86b763	-0.004111217
12	0xbb9de52f	-0.0048185806
13	0x00000000	0.0
14	0xbb26b545	-0.0025437635
15	0x3ad39877	0.001614346
16	0xbb6fa1f2	-0.0036565033
17	0x3b7fe175	0.0039044295
18	0xbb1aa15e	-0.0023594717
19	0x3bd47b62	0.006484435
20	0xbb390138	-0.0028229486
21	0xbc1d016a	-0.009582857
22	0x3bb5ede1	0.005552039
23	0x3c0ceb0e	0.008600963
24	0x00000000	0.0
25	0x00000000	0.0
26	0xb9b90248	-0.0003528765
27	0x3bf2b1cc	0.007406449
28	0x00000000	0.0
29	0x00000000	0.0
30	0x00000000	0.0
31	0x00000000	0.0
32	0x3b6a8e5d	0.0035790422
33	0xbb498ec0	-0.0030755252
34	0x00000000	0.0
35	0xbae6b690	-0.0017602015
36	0xbb9d0dea	-0.0047929185
37	0x00000000	0.0
38	0x00000000	0.0
39	0xbb895f81	-0.004192293
40	0x00000000	0.0
41	0x00000000	0.0
42	0x3c100431	0.008790062
43	0x3b997e13	0.0046842187
44	0xbb86fc0f	-0.004119403
45	0xbadb5d60	-0.0016736202
46	0x00000000	0.0
47	0x00000000	0.0
48	0x00000000	0.0
49	0x00000000	0.0
50	0x3c54a997	0.0129798865
51	0x00000000	0.0
52	0x3998dbc8	0.0002915545
53	0x00000000	0.0
54	0x3b05954c	0.0020383177
55	0xbc0c5f2b	-0.008567612
56	0x3bb1c4f7	0.0054250914
57	0xba363fac	-0.0006952237
58	0xbb9e053d	-0.004822402
59	0xbb73ea66	-0.003721857
60	0xbbbab672	-0.0056980187
61	0xbc0c5885	-0.008566027
62	0x3c194193	0.009354013
63	0x3bede740	0.007260233

fc_x_layers.1.weight f4 [64, 294]
0	0xbd534e20	-0.051588178
1	0xbd64d29e	-0.055864923
2	0x3da0969d	0.07841227
3	0xbc0a362d	-0.008435768
4	0x3d03cd88	0.03217843
5	0xbc187e95	-0.009307523
6	0x3d099ce1	0.033596877
7	0xbd03bc75	-0.03216215
8	0x3c97264d	0.01845088
9	0x3babdb3c	0.0052446406
10	0xbd97cbe2	-0.074119344
11	0x3d9e682a	0.077347115
12	0xbe17f51c	-0.14839596
13	0x3d02b7c0	0.03191352
14	0xbcc3b438	-0.023889646
15	0x3bbf7c28	0.005843658
16	0xbd9a290d	-0.07527361
17	0x3d99263b	0.07477995
18	0xbbf5d407	-0.0075020823
19	0xbd44e497	-0.048069563
20	0x3b86b05c	0.004110379
21	0x3d811e3b	0.06304594
22	0xbda1ba56	-0.07896869
23	0x3d061d3e	0.03274273
24	0xbdc433be	-0.095801815
25	0xbd19722b	-0.037462395
26	0xbd86739d	-0.0656502
27	0x3d6cfb91	0.0578571
28	0x3d22e5c8	0.039769918
29	0x3d77bb43	0.06048132
30	0xbdcc4f6a	-0.099760845
31	0x3d09e472	0.033665128
32	0xbd4e69b1	-0.050393764
33	0x3d511cbf	0.051052805
34	0xbd9a6f11	-0.075407155
35	0x3dc3fcac	0.09569678
36	0x3bddfb1a	0.0067743184
37	0x3b573802	0.003283978
38	0x3d20bef0	0.039244592
39	0xbbfd1a9c	-0.0077241194
40	0xbd529279	-0.05140922
41	0xbb93fadc	-0.0045159888
42	0xbdba3c31	-0.09093512
43	0xbbeeee3f	-0.0072915847
44	0xbda6691f	-0.08125519
45	0x3c2dd558	0.010609947
46	0xbdd625ec	-0.10456452
47	0x3da2bef0	0.07946575
48	0xbcdc9716	-0.026927512
49	0xbcbcc7ab	-0.023044428
50	0x3d21095c	0.039315566
51	0x3d5244d2	0.051335163
52	0x3d511c76	0.051052533
53	0x3d3d3352	0.04619152
54	0x3cae124b	0.021248957
55	0x3da7e53f	0.08198022
56	0xbd93d8c2	-0.07219078
57	0xbdc88a31	-0.09791983
58	0x3b56cf14	0.0032777237
59	0x3d1c7824	0.038200513
60	0xbd99bcfc	-0.07506749
61	0xbc66af85	-0.014079933
62	0x3d6d4cb9	0.057934497
63	0x3ce44446	0.027864587
64	0x3c92a8ab	0.017902693
65	0x3d6baf2b	0.0575401
66	0xbd844120	-0.06457734
67	0xbd5e56fa	-0.054282166
68	0x3c975565	0.018473336
69	0xbd6cd5df	-0.05782115
70	0xbcea30e5	-0.028587768
71	0x3cd69462	0.026193801
72	0x3d9aeb1f	0.07564377
73	0xbc03c72a	-0.00804309
74	0x3d46498f	0.048409995
75	0xbd36ae5a	-0.04459987
76	0x3c520fbd	0.012821135
77	0x3cff1216	0.031136554
78	0x3db22281	0.08697987
79	0xbac9501a	-0.0015358955
80	0xbd8be493	-0.068307064
81	0xbd48589b	-0.048912626
82	0x3d1da66a	0.038488783
83	0xbd670357	-0.05639967
84	0xbcbaa1de	-0.022782262
85	0x3b8902cc	0.0041812416
86	0x3d1a2bce	0.03763943
87	0x3ca465d4	0.020068087
88	0x3bcc0d3b	0.006227163
89	0x3bc0edee	0.0058877384
90	0xba8855e4	-0.0010401574
91	0xbd851fd5	-0.06500212
92	0x3cdb46f8	0.026767239
93	0x3cf30631	0.029666038
94	0x3d98a33c	0.074530095
95	0xbcfddd81	-0.03098941
96	0xbb2e6ef4	-0.0026616426
97	0x3dfbfaa9	0.12303669
98	0x3dbb1dac	0.09136519
99	0xbdd598c6	-0.1042953
100	0x3d8bfd7e	0.06835459
101	0x3d30b807	0.043144252
102	0x3d67d622	0.056600697
103	0xbd6dbf60	-0.058043838
104	0x3bf9311a	0.0076047303
105	0x3ccd4dec	0.02506157
106	0xbd09c488	-0.033634692
107	0x3cdcc872	0.026951049
108	0x3b8c3882	0.004279197
109	0xbdec093b	-0.11525198
110	0x3cf94ab9	0.030431138
111	0x3d837a11	0.06419767
112	0xbcd98b3e	-0.026555654
113	0xbb538758	-0.0032276716
114	0x3d7833f3	0.060596418
115	0xbcc3a931	-0.023884388
116	0xbe06fa90	-0.1318152
117	0x3c31005d	0.010803309
118	0xbd50e262	-0.050997145
119	0xbd01050b	-0.03149895
120	0xbcb9ee57	-0.022696657
121	0xbcd3133a	-0.025766004
122	0xbe3354ef	-0.17512868
123	0x3cc10f7c	0.023566954
124	0xbd885493	-0.06656756
125	0xbcdd2ca0	-0.026998818
126	0x3da7403d	0.08166549
127	0x3c5d6976	0.013513913
128	0x3d888c34	0.066673666
129	0xbce2a43c	-0.027666204
130	0xbd9d2110	-0.07672322
131	0x3d836feb	0.06417831
132	0x3cad5436	0.021158319
133	0xbdf2b387	-0.118506484
134	0x3c140457	0.009034238
135	0x3cbdac2e	0.02315339
136	0xbbf691cf	-0.007524706
137	0x3bbfaec3	0.0058496906
138	0xbd445856	-0.047935806
139	0xbd252fef	-0.040328916
140	0xbca322ff	-0.019914148
141	0xbd386a69	-0.045023356
142	0x3dd93c6b	0.10607227
143	0xbd5b6dca	-0.0535715
144	0x3d48dfb7	0.049041476
145	0x3a01317b	0.00049283326
146	0xbd6acfa8	-0.057326943
147	0x3d97b136	0.07406847
148	0x3b13b0c2	0.0022535776
149	0x3e404b57	0.1877874
150	0xbdb82f7e	-0.089934334
151	0x3d3a97db	0.045554977
152	0x3c91fc9b	0.017820647
153	0xbd32d1cd	-0.043657113
154	0xbd402d87	-0.04691842
155	0x3d6c12b1	0.057635013
156	0x3c3d6d7e	0.0115617495
157	0xb94750df	-0.00019008246
158	0x3d41acc4	0.047283903
159	0x3d237a26	0.03991141
160	0x3c6332ab	0.013867061
161	0x3cd5b3c8	0.026086703
162	0x3d3efe30	0.04662913
163	0xbc3c4200	-0.011490345
164	0x3ced1a0d	0.028943086
165	0x3ab21772	0.001358731
166	0x3d4161d6	0.047212444
167	0xbddd9fa1	-0.108214624
168	0xbd07805b	-0.033081394
169	0x3cf83d73	0.030302739
170	0x3ce830b7	0.028343542
171	0x3d754417	0.05987939
172	0xbe15f0e5	-0.14642675
173	0xbd0d6192	-0.03451688
174	0x3d467a36	0.048456393
175	0x3c291968	0.010320999
176	0x3cc8d6fb	0.024516573
177	0x3afc7f60	0.0019264035
178	0x3b984754	0.004647175
179	0x3d9ff7f4	0.07810965
180	0x3d3e8267	0.04651108
181	0xbc71a022	-0.014747651
182	0x3c27a33d	0.01023179
183	0xbc8b9d6f	-0.017042844
184	0xbcbdc5d5	-0.023165623
185	0x3d5401d5	0.05175956
186	0xbd92d764	-0.07169989
187	0xbdeccbec	-0.115623325
188	0x3d0e84c8	0.0347946
189	0xbd78b52c	-0.060719654
190	0x3dcf629d	0.10126231
191	0x3d1a6450	0.03769332
192	0xbd499f63	-0.04922427
193	0x3d2bb016	0.041915976
194	0xbddb9fd0	-0.10723841
195	0x3c25209a	0.010078574
196	0xbd0b1755	-0.033957798
197	0x3c714a04	0.014727119
198	0x3d1c40ed	0.038147856
199	0x3d21afa6	0.039474152
200	0x3d5c1f84	0.053740993
201	0x3d16e7ab	0.03684203
202	0x3d50c23f	0.050966498
203	0x3cd640d1	0.026153954
204	0x3da2b03a	0.07943769
205	0xbd2f9fc3	-0.04287697
206	0x3d398992	0.045297213
207	0xbca7aed7	-0.020469112
208	0xbbf0ba1d	-0.007346405
209	0xbdff3284	-0.12460807
210	0xbdaa11e3	-0.08304193
211	0x3c018505	0.0079052495
212	0x3dadd199	0.08487243
213	0x3db9e098	0.09076041
214	0xbd45f8fc	-0.048333153
215	0xbc9268da	-0.017872263
216	0x3d130abb	0.035898905
217	0x3c89c21e	0.016816195
218	0x3d86c11b	0.06579801
219	0x3dffef4a	0.12496813
220	0x3ca1cde9	0.019751506
221	0x3d410dba	0.04713223
222	0xbc83beb6	-0.016082149
223	0x3d6a5c19	0.057216737
224	0x3d4fd935	0.050744254
225	0x3e43abe5	0.19108541
226	0x3c6265aa	0.013818184
227	0xbd0e00ad	-0.034668613
228	0x3c9af8ea	0.01891752
229	0x3b8ed141	0.004358441
230	0x3d02194e	0.031762414
231	0x3b93befc	0.004508851
232	0x3ca28d49	0.01984276
233	0x3ca6f985	0.020382652
234	0x3def1df5	0.11675636
235	0xbd3861ca	-0.045015134
236	0x3d06282b	0.03275315
237	0xbd1da63f	-0.038488623
238	0xbcf9d4fc	-0.030497067
239	0x3d887be6	0.06664257
240	0x3da29c2a	0.07939942
241	0x3e28b387	0.16474734
242	0xbd722c62	-0.059124358
243	0x3e08055b	0.13283293
244	0xbcf545fb	-0.029940596
245	0x3cf6de6f	0.030135361
246	0x3d7e39ca	0.06206683
247	0xba458bba	-0.00075357745
248	0x3c929511	0.017893346
249	0xbcdbb5f4	-0.02682016
250	0xbdb78466	-0.089608
251	0x3bdf12be	0.006807654
252	0xbddf566d	-0.10905156
253	0xbd46f4b0	-0.048573196
254	0xbe079ae9	-0.13242687
255	0x3cdd2878	0.026996836

fc_x_layers.1.bias f4 [64]
0	0x3c051ae4	0.008124087
1	0xbab644de	-0.0013906022
2	0x3c07f484	0.008298043
3	0xbc341360	-0.0109909475
4	0xbbd8ba7a	-0.0066140266
5	0x3a974203	0.0011540059
6	0xbb07347c	-0.0020630648
7	0x3c2154e0	0.009846896
8	0xbb9e3ac0	-0.004828781
9	0x3b7a75c6	0.003821717
10	0x3bbff718	0.0058583133
11	0x00000000	0.0
12	0x00000000	0.0
13	0xbc3df726	-0.011594569
14	0x00000000	0.0
15	0x00000000	0.0
16	0x3ba1b6db	0.004935128
17	0x397c0537	0.00024034535
18	0x3ad4e069	0.0016241196
19	0xbbdba86c	-0.006703427
20	0x00000000	0.0
21	0x00000000	0.0
22	0x00000000	0.0
23	0xb952cde1	-0.00020103857
24	0xbb9565c3	-0.00455925
25	0x3a60637a	0.0008559745
26	0xbbdf8718	-0.0068215244
27	0xbb97f472	-0.0046372944
28	0xbb7658d2	-0.0037589562
29	0x00000000	0.0
30	0x00000000	0.0
31	0x3acf69b4	0.0015824349
32	0xbc14c6eb	-0.009080629
33	0x3b81c0c1	0.0039597456
34	0x00000000	0.0
35	0x3bd146d0	0.0063866153
36	0x00000000	0.0
37	0x00000000	0.0
38	0x3a10f65a	0.00055298733
39	0x00000000	0.0
40	0xbb80e317	-0.003933321
41	0xb922dc94	-0.00015531696
42	0x00000000	0.0
43	0xbb48d96c	-0.0030647172
44	0x00000000	0.0
45	0xbb6ca66d	-0.003610994
46	0x3c0b4baa	0.008501926
47	0xba851d0a	-0.0010155749
48	0x00000000	0.0
49	0xbb3b4254	-0.002857347
50	0x399e8cee	0.0003024111
51	0x3c077d2e	0.008269591
52	0x00000000	0.0
53	0xbb913691	-0.0044315537
54	0xbb4fb9a4	-0.0031696344
55	0x00000000	0.0
56	0xbb89c9a8	-0.0042049475
57	0x00000000	0.0
58	0x3c3381e4	0.010956261
59	0xbbe2123c	-0.0068991464
60	0xbb846ade	-0.00404106
61	0x00000000	0.0
62	0x00000000	0.0
63	0x00000000	0.0

lstm_layers.0.weight_ih f4 [256, 64]
0	0x3b9e6c00	0.004834652
1	0x3c829954	0.015942253
2	0xbde4614a	-0.11151369
3	0xbd1df401	-0.03856278
4	0xbcc8cc02	-0.024511341
5	0x3d102212	0.035188742
6	0xbda350a4	-0.07974365
7	0xbc83d803	-0.016094213
8	0xbce84a7f	-0.028355835
9	0x3c093a53	0.008375722
10	0xbce5ce60	-0.028052509
11	0xbdc2c7d4	-0.095107704
12	0x3d694cae	0.056957893
13	0x3db03c79	0.08605284
14	0xbc8a3c2f	-0.0168744
15	0x3d1ff6cd	0.039053727
16	0xbce9b628	-0.028529242
17	0x3dc6269f	0.09675335
18	0x3b372640	0.0027946383
19	0xbdd5088c	-0.10402021
20	0xbd87d898	-0.06633109
21	0x3d80bd0f	0.0628606
22	0x3b5d717e	0.003378957
23	0x3c8dd88f	0.017315177
24	0xbd805c45	-0.06267599
25	0x3b7abf12	0.003826086
26	0xbd6dcc5c	-0.05805622
27	0x3d121b31	0.035670463
28	0xbd08e081	-0.03341723
29	0xbda1c899	-0.07899589
30	0x3d0a055e	0.033696525
31	0xbd327e7d	-0.04357766
32	0xbcd3b38f	-0.025842456
33	0xb9050e33	-0.00012689158
34	0x3d7a135f	0.06105363
35	0xbdd36a68	-0.1032303
36	0xbdf8ca93	-0.12148013
37	0x3d14401b	0.03619395
38	0x3dafbbd2	0.08580746
39	0xbc9f8ae3	-0.019475406
40	0xbd5f9c17	-0.05459222
41	0xbded2f2b	-0.11581262
42	0xba10f0e0	-0.0005529057
43	0x3cdd1de6	0.026991796
44	0xbda5176d	-0.08061109
45	0xbccf7c28	-0.025327757
46	0x3b34c710	0.002758447
47	0xbc327dfd	-0.010894296
48	0x3d497cea	0.049191393
49	0xbcc6217e	-0.024185892
50	0xbd8b537a	-0.06803031
51	0xbd110409	-0.03540424
52	0x3c04c694	0.008103985
53	0x3cadccff	0.021215914
54	0x3d9ae1b6	0.07562582
55	0xbccec393	-0.025239741
56	0x3cbda92c	0.023151956
57	0xbd88f2de	-0.06686948
58	0x3da42c66	0.08016281
59	0xbc288e2f	-0.010287805
60	0xbd237c74	-0.03991361
61	0x3cf067e1	0.029346408
62	0x3d82bf02	0.06384088
63	0x3c335060	0.010944456
64	0xbdf91f7d	-0.12164209
65	0xbd8b7d75	-0.068110384
66	0xbdab422b	-0.0836223
67	0xbcf514d6	-0.029917162
68	0x3d5f8f2b	0.054579895
69	0x3d29a126	0.04141345
70	0xbde79f55	-0.11309687
71	0x3cff4ea2	0.031165425
72	0xbd8785a1	-0.066172846
73	0x3d445476	0.04793211
74	0x3dc978bd	0.09837482
75	0x3c0cac20	0.00858596
76	0xbdabc6ec	-0.08387551
77	0x3d6c0bb8	0.057628363
78	0xbc5fae9b	-0.013652469
79	0x3df2d868	0.118576825
80	0x3ca6d550	0.020365387
81	0x3d8580d7	0.06518715
82	0xbbde40d1	-0.006782629
83	0xbc72dd27	-0.014823235
84	0x3d81b37c	0.06333062
85	0x3c581acd	0.013189984
86	0x3ce82b81	0.028341057
87	0xbd5c2a19	-0.053751085
88	0xbb22b00c	-0.002482417
89	0x3d56394b	0.052300733
90	0x3dae6f92	0.08517374
91	0xbc8aab4a	-0.01692738
92	0x3d58ff31	0.052977744
93	0x3ce33d18	0.027739093
94	0xbe16de68	-0.14733279
95	0x3d2ce68f	0.042212065
96	0x3d9b4062	0.075806394
97	0x3c38dabf	0.011282622
98	0xbdb76149	-0.089541025
99	0x3d92865a	0.07154532
100	0xbdcdc786	-0.10047822
101	0xbdf4fac0	-0.11961889
102	0x3ae85f70	0.0017728638
103	0xbddabbfa	-0.10680385
104	0x3bbd8508	0.005783681
105	0xbc8aa42b	-0.016923985
106	0xbce676a7	-0.02813275
107	0xbdbb30a5	-0.091401376
108	0x3d97f43c	0.07419631
109	0x3d462415	0.048374254
110	0xbd0b70ae	-0.034043007
111	0xbce295f8	-0.027659401
112	0x3e18aa2d	0.14908667
113	0xbde77078	-0.113007486
114	0xbdca9524	-0.098917276
115	0xbd1dca09	-0.038522754
116	0xbde2e466	-0.1107872
117	0xbc8d6595	-0.017260352
118	0xbd27f7fd	-0.041007984
119	0xbd4a6600	-0.04941368
120	0x3d026d03	0.031842243
121	0x3c4fff41	0.012695135
122	0x3d9c147f	0.07621097
123	0x3d233386	0.03984406
124	0xbb07e708	-0.002073707
125	0x3dbbb062	0.09164502
126	0x3e437162	0.19086221
127	0xbd100fe7	-0.035171416
128	0xbda7b0d3	-0.081880234
129	0xbd720c68	-0.059093863
130	0xbd53d41e	-0.051715963
131	0x3cf659a7	0.030072046
132	0xbcdcfed1	-0.026976975
133	0xbc062d7d	-0.008189556
134	0xba5f434a	-0.0008516802
135	0xbd546753	-0.05185635
136	0x3d3ea219	0.046541307
137	0x3c8db94a	0.017300267
138	0xbbbbe3d1	-0.005733945
139	0x3d4f4101	0.050599102
140	0x3ccd3de2	0.025053922
141	0xbd58e62d	-0.052953888
142	0xbdb93705	-0.09043697
143	0xbda9e52e	-0.08295666
144	0x3ce9c1be	0.028534766
145	0xbd80eb62	-0.06294896
146	0xbdb9da53	-0.09074845
147	0xbda59ef3	-0.08086958
148	0x3af81118	0.0018925993
149	0xbaec8aa5	-0.001804669
150	0x3e0cd59b	0.13753359
151	0xbdd217db	-0.10258456
152	0xbd60a04a	-0.054840364
153	0x3d57e873	0.052711915
154	0xbd227d71	-0.03967041
155	0xbd8623df	-0.065498106
156	0x3d47af50	0.048751175
157	0x3dd89819	0.10575885
158	0x3da35a2a	0.07976182
159	0x3d8316c6	0.06400828
160	0x3d747ffd	0.05969237
161	0x3db89c73	0.09014215
162	0x3d7984d6	0.060917698
163	0x3ca4433b	0.02005159
164	0xbd5a7462	-0.053333648
165	0x3d988f45	0.074492015
166	0x3cb22a32	0.021748636
167	0xbc7c3161	-0.015392632
168	0xbdce8b4b	-0.10085162
169	0xbbf2f5d8	-0.0074145608
170	0xbbf390db	-0.0074330396
171	0xbd2ce676	-0.042211972
172	0x3c13bb1f	0.009016781
173	0xbd2e529a	-0.042559244
174	0xbd97b89f	-0.074082606
175	0x3d6ce9ba	0.057840087
176	0xbccf966b	-0.02534028
177	0xbd06d37e	-0.03291654
178	0xbc6d0c0c	-0.014468204
179	0xbd483cd6	-0.048886143
180	0xbbc2cda7	-0.005944926
181	0xbb25905e	-0.0025263052
182	0xbd35a912	-0.04435069
183	0xbd52a52c	-0.05142705
184	0x3d828542	0.06373073
185	0xbc197d06	-0.009368187
186	0x3c92f806	0.017940532
187	0x3d45c903	0.048287403
188	0x3d584ded	0.05280869
189	0xbd4fdf81	-0.05075026
190	0xbd892a72	-0.06697549
191	0x3c8a72cc	0.016900443
192	0xbd4245d8	-0.04742989
193	0xbb84de4c	-0.00405482
194	0xbda072da	-0.07834406
195	0x3ab562bd	0.001383863
196	0x3e10b4bd	0.14131446
197	0xba7b7f84	-0.00095938914
198	0x3de6b8c1	0.11265708
199	0xbd2c05af	-0.041997608
200	0xbccc089e	-0.024906453
201	0x3d9d4a07	0.07680135
202	0x3ce6a39f	0.028154192
203	0x3d41a47c	0.047276005
204	0x3d0d2a8d	0.034464408
205	0xbc97a5a8	-0.018511608
206	0xbd026310	-0.031832755
207	0xbc6c358e	-0.014417065
208	0xbd77ab1f	-0.06046593
209	0xbd35332d	-0.04423826
210	0xbcb3bc7a	-0.021940459
211	0xbd04e123	-0.03244127
212	0xbd80d0cb	-0.06289824
213	0xbd794820	-0.0608598
214	0xbc75b937	-0.014997772
215	0xbd919bc3	-0.07109787
216	0xbc0a4797	-0.00843992
217	0xbca8e475	-0.02061675
218	0xbca5826f	-0.020203797
219	0x3b6a2fee	0.0035734135
220	0xbc366acc	-0.011133861
221	0xbc54d999	-0.012991332
222	0x3e23185e	0.15927264
223	0xbc47292a	-0.01215581
224	0x3dc868f6	0.09785645
225	0xbc993498	-0.018701836
226	0x3bf9f446	0.0076279966
227	0x3d5c2a38	0.0537512
228	0x3d6a1af1	0.0571546
229	0x3c2ddb31	0.010611341
230	0xbcbf5807	-0.023357404
231	0xbd30ae69	-0.04313508
232	0xbd2d79a5	-0.042352337
233	0xbcd36630	-0.025805563
234	0xbd828fa7	-0.06375056
235	0x3bdd7d62	0.0067593316
236	0x3d2dd83f	0.042442556
237	0x3dae1160	0.08499408
238	0x3c9f1b31	0.019422146
239	0xbce8b70e	-0.0284076
240	0x3d0b9ef5	0.03408714
241	0xbd584ac6	-0.052805685
242	0xbd7ce338	-0.06174013
243	0x3be2e4be	0.006924241
244	0x3c322643	0.01087338
245	0xbde28125	-0.110597886
246	0x3d8fb12f	0.07016217
247	0x3d761311	0.060076777
248	0xbd10c516	-0.035344206
249	0x3d7c6936	0.061623774
250	0xbcc96b2b	-0.024587234
251	0xbcbc2db3	-0.02297101
252	0xbd4290b7	-0.047501292
253	0xbcbbf1c5	-0.022942433
254	0x3d38a9a8	0.04508367
255	0xbd9ef015	-0.07760636

lstm_layers.0.weight_hh f4 [256, 64]
0	0x3cd74d1a	0.026281882
1	0xbd4f0630	-0.05054301
2	0x3d2957f4	0.041343644
3	0x3b427435	0.0029671316
4	0xbda67b48	-0.08128983
5	0xbe036689	-0.12832083
6	0xbd9800e3	-0.07422044
7	0x3d9c7c15	0.07640854
8	0x3dc73f3e	0.09728859
9	0x3d38064f	0.04492789
10	0x3dc6e7db	0.09712192
11	0x3d3102e5	0.04321565
12	0x3d41a862	0.047279723
13	0x3c41a66a	0.011819461
14	0xbc9768f8	-0.01848267
15	0x39f1906d	0.00046074708
16	0xbba15f20	-0.00492467
17	0x3e735ea5	0.23766573
18	0x3d6932dc	0.05693327
19	0x3baa5d4a	0.005199109
20	0x3cd91062	0.02649707
21	0x3c3b82e9	0.011444786
22	0xbdbf9d2b	-0.09356149
23	0xbc99daf1	-0.018781157
24	0x3dd6d98b	0.10490712
25	0xbcb59932	-0.022167776
26	0x3cffb784	0.031215437
27	0x3c0c6cc5	0.008570855
28	0x3c878461	0.016542615
29	0xbcfdfb8d	-0.031003738
30	0xbdc21314	-0.09476295
31	0x3d94b3f4	0.07260886
32	0xbd019a67	-0.03164139
33	0x3d481063	0.048843753
34	0xbc130592	-0.008973496
35	0x3d7f1a16	0.062280737
36	0x3d6ecfc1	0.0583036
37	0xbdabdfa6	-0.08392267
38	0xbcc497ec	-0.023998223
39	0xbc019ee7	-0.00791142
40	0x3cbf664a	0.023364205
41	0x3d39beba	0.045347907
42	0x3d635c9c	0.05550824
43	0x3b8ff874	0.0043936316
44	0xbb264537	-0.0025370845
45	0xbcaadccd	-0.02085724
46	0x3d290b4c	0.04127054
47	0x3c2bf311	0.010494963
48	0xbe0d02be	-0.13770577
49	0x3dbfd2c1	0.0936637
50	0x3d011661	0.031515483
51	0x3c4aa11e	0.012367515
52	0xbd621d94	-0.05520399
53	0x3d6d65c7	0.05795839
54	0xbd532078	-0.051544636
55	0xbbcb311a	-0.0062009217
56	0xbc92f4df	-0.01793903
57	0xbcea0b43	-0.028569823
58	0x3a271bc8	0.0006374684
59	0x3d64fa66	0.05590286
60	0x3c40fe90	0.011779442
61	0x3d3dd925	0.046349663
62	0x3d6cbb8c	0.057796046
63	0xbd4a6c77	-0.049419846
64	0xbcebb75e	-0.02877396
65	0xbd3e0f9a	-0.046401598
66	0x3da45fe0	0.08026099
67	0x3c73bb4b	0.014876197
68	0xbda1b88c	-0.07896528
69	0x3c8baf8f	0.017051486
70	0xbd7c7b9a	-0.061641313
71	0xbdbcfdb2	-0.09228076
72	0xbd1c8cb2	-0.038220115
73	0x3d841433	0.06449165
74	0x3cc707b2	0.024295662
75	0xbc336eea	-0.010951737
76	0x3d697608	0.05699733
77	0xbcd15a57	-0.025555773
78	0x3d4341bd	0.047670115
79	0x3d0e61d8	0.03476128
80	0xbd13d3c5	-0.03609063
81	0x3d1dd6d1	0.038534943
82	0xbdc255b7	-0.09489005
83	0x3be72cbc	0.0070548933
84	0x3c63f0d0	0.013912395
85	0x3de67f29	0.112547226
86	0x3c82502d	0.015907371
87	0xbd6b96d1	-0.057516877
88	0xbd11a545	-0.035558004
89	0x3d0c2496	0.03421458
90	0xbd061795	-0.032737333
91	0x3e0b1f2f	0.13586114
92	0x3c8408ae	0.01611742
93	0x3d213160	0.03935373
94	0x3b8d4dc7	0.0043122503
95	0x3ca1d093	0.019752776
96	0x3cb4f41c	0.022089057
97	0x3d0ae035	0.033905227
98	0x3c41a501	0.011819125
99	0xbd9ebc1b	-0.07750722
100	0xbd2a12c1	-0.04152179
101	0x3dc6bd5d	0.09704087
102	0xbd0d85d6	-0.034551464
103	0x3e0018f4	0.12509519
104	0xbd89a68a	-0.06721218
105	0xbe2d24ea	-0.16908613
106	0xbdb601c3	-0.08887055
107	0x3dc38169	0.095461674
108	0x3d2358d6	0.039879642
109	0x3c2139b1	0.009840415
110	0x3df60a2f	0.12013661
111	0x3cd9ad36	0.026571851
112	0x3d2c3629	0.04204384
113	0xbd16f045	-0.036850233
114	0xbd462163	-0.048371684
115	0x3c02dad9	0.007986748
116	0x3d8a5dc0	0.06756163
117	0x3d3ebfe1	0.04656971
118	0xbd8e2823	-0.06941249
119	0xbbc76e86	-0.0060861735
120	0x3c1e8436	0.009675076
121	0x3d8f794e	0.07005559
122	0xbdf8d196	-0.1214935
123	0xbd8f563e	-0.06998871
124	0xbda0653e	-0.078318104
125	0xbb1948be	-0.0023389305
126	0x3d0e6798	0.034766763
127	0x3cbabad1	0.02279416
128	0xbe184668	-0.14870608
129	0xbd85f977	-0.06541722
130	0xbd35a275	-0.044344384
131	0x3ca8a466	0.020586204
132	0x3d83bfb8	0.06433052
133	0x3be0b92a	0.006858011
134	0x3d2fbeb9	0.042906497
135	0xbc993bee	-0.018705335
136	0x3d8e5bf3	0.06951132
137	0xbd871e78	-0.06597608
138	0xbdbb397f	-0.09141826
139	0x3cb0bedc	0.021575384
140	0xbc70ff20	-0.014709264
141	0x3c89ad8f	0.016806392
142	0xbc2fcb7c	-0.010729667
143	0xbd9e5ba9	-0.077323265
144	0xbd833d94	-0.064082295
145	0xbb45eddd	-0.0030201592
146	0xbdcc7b93	-0.099845074
147	0x3d7241fe	0.059144966
148	0xbc2bc5d9	-0.010484182
149	0xbd00e40d	-0.031467486
150	0xbd114ff5	-0.035476644
151	0x3ca03fcc	0.01956167
152	0xbd905258	-0.07046956
153	0x3cbc1733	0.022960281
154	0x3da17ae5	0.078847684
155	0x3d046371	0.032321397
156	0xbde472af	-0.11154687
157	0xbd50cc84	-0.05097629
158	0xbd94d189	-0.07266528
159	0xbdaf10f0	-0.085481524
160	0x3cd1d633	0.025614833
161	0x3d807b2d	0.06273494
162	0x3dd4808b	0.1037608
163	0xbc78190c	-0.01514269
164	0xbd43c36e	-0.0477938
165	0xbc75ffff	-0.0150146475
166	0x3c5fc21d	0.01365712
167	0x3e17ef76	0.14837441
168	0xbde5e0d9	-0.11224527
169	0x3d4cfbc8	0.050044805
170	0x3e16a3fd	0.14710994
171	0x3dca912e	0.09890972
172	0x3dd6e0c1	0.10492087
173	0xba099870	-0.000524885
174	0x3d76eb54	0.06028302
175	0x3da2f3ae	0.079566345
176	0xbddabb43	-0.106802486
177	0xba73dcfb	-0.0009302643
178	0x3c91d474	0.0178015
179	0xbe161909	-0.14657988
180	0x3dd7cc9e	0.105370745
181	0x3c39cc04	0.011340145
182	0x3dfff0e8	0.12497121
183	0xbdbe773c	-0.09300086
184	0x3d116775	0.035499055
185	0xbda97ed8	-0.08276147
186	0x3c29edfc	0.010371681
187	0xbddafebf	-0.1069312
188	0xbd84ba68	-0.06480867
189	0x3cba2f6e	0.022727694
190	0x3c648f7b	0.013950224
191	0x3d0cb23a	0.034349658
192	0xbca83b37	-0.020536048
193	0xbc390fb9	-0.0112952525
194	0xbdaba02c	-0.0838016
195	0xbdcda0fe	-0.100404724
196	0x3c427e1c	0.011870887
197	0xbc998ca0	-0.018743813
198	0x3d0ece48	0.034864694
199	0xbd20f89f	-0.039299604
200	0xbd55d219	-0.052202318
201	0x3dbbf30a	0.091772154
202	0x3da2cee2	0.07949616
203	0x3bdebcef	0.006797425
204	0xbd994815	-0.07484452
205	0x3d876d8a	0.0661269
206	0xbdb069d6	-0.086139366
207	0x3dc4da22	0.09611918
208	0xbcc6c189	-0.024262207
209	0x3d409ac8	0.04702261
210	0xbd9f39fa	-0.0777473
211	0x3d1fba97	0.038996305
212	0x3d2b1f71	0.04177803
213	0x3db68865	0.08912734
214	0xbd660a14	-0.056161955
215	0x3cb51b6a	0.022107799
216	0x3db110c5	0.08645777
217	0x3bf55a0b	0.0074875406
218	0xbdd319d2	-0.10307659
219	0xbd05ec57	-0.032696094
220	0x3d22b897	0.03972682
221	0x3c7f427c	0.015579816
222	0xbb8c87f9	-0.00428867
223	0x3def6986	0.11690049
224	0x3de1fbdb	0.11034366
225	0x3d3178a8	0.043327957
226	0x3d557a81	0.052118782
227	0xbdb0d483	-0.086342834
228	0xbca5ee66	-0.020255279
229	0xbe037158	-0.12836206
230	0x3c06f6b5	0.0082375305
231	0x3d6dbaf9	0.05803964
232	0xbdad6523	-0.08466556
233	0xbd0224d4	-0.031773403
234	0x3d0cbb6d	0.03435843
235	0x3e26aea1	0.16277553
236	0xbe08e6e4	-0.13369328
237	0x3e1da78f	0.1539595
238	0xbca931e7	-0.020653678
239	0xbe21d0fb	-0.15802376
240	0x3dae4592	0.08509363
241	0xbd82a8bc	-0.0637984
242	0x3d81a059	0.06329412
243	0x3d9c5924	0.0763419
244	0xbd25a0af	-0.040436443
245	0xbd23bc73	-0.03997464
246	0xbd6fb0c6	-0.058518194
247	0x3cc39b80	0.02387786
248	0x3d5c296a	0.053750433
249	0x3cf3ec0a	0.029775638
250	0x3d1cbd93	0.03826673
251	0x3d95b1af	0.07309281
252	0xbd334ac9	-0.043772493
253	0x3d007119	0.03135786
254	0x3dc30dbe	0.095241055
255	0x3c737eff	0.014861821
