models/actor_1_4600_policy.pt (torch, 31761 bytes, 15 tensors)

mean_linear.weight f4 [9, 300]
0	0x3d2c2182	0.042024143
1	0xbd4afcd0	-0.049557507
2	0x3bc5c2fa	0.006035206
3	0x3d20373b	0.039115172
4	0xbd37abff	-0.044841763
5	0xbad8e4b3	-0.001654765
6	0x3cda8dc6	0.026678931
7	0x3cbeda7b	0.023297539
8	0x3bde7bb8	0.006789651
9	0x3cbf3086	0.023338567
10	0xbd24d9f0	-0.040246904
11	0x3d44f682	0.04808665
12	0x3aa8c747	0.0012876772
13	0x3d18dd3a	0.037320353
14	0x3c514239	0.012772136
15	0xbbd276f6	-0.0064228727
16	0x3cca96b9	0.024730073
17	0x3d607e3d	0.05480789
18	0x3d69453e	0.0569508
19	0xbd470ef3	-0.04859824
20	0x3b657b01	0.0035015943
21	0xbd29e230	-0.041475475
22	0x3d09c947	0.03363922
23	0x3d29c504	0.041447654
24	0xbd260ebc	-0.040541396
25	0xbb5aaec5	-0.003336833
26	0x3d23a415	0.039951403
27	0x3d1c6338	0.03818056
28	0xbd31cddb	-0.04340921
29	0x3d1ec818	0.038765043
30	0xbc277794	-0.010221381
31	0xbd491f37	-0.049102034
32	0x3c3c6db3	0.011500764
33	0x3cdc562f	0.026896564
34	0x3d0dd2d8	0.034624904
35	0xbd20ca3d	-0.03925537
36	0xbd2b47c1	-0.041816477
37	0xbd1ee400	-0.038791656
38	0x3d060483	0.032719146
39	0xbd4eae6f	-0.05045932
40	0xb9ff400a	-0.00048685103
41	0xbc8afc68	-0.01696606
42	0x3cce7fb5	0.02520738
43	0x3c39c3ff	0.011338233
44	0xbceed600	-0.029154778
45	0x3c2538f8	0.010084383
46	0x3d59a09b	0.05313168
47	0x3c1bbdd1	0.009505705
48	0xbcea600b	-0.02861025
49	0x3afd5b87	0.0019329645
50	0xbd58e9c2	-0.052957304
51	0xbd17b9f2	-0.037042566
52	0xbc2fb468	-0.010724165
53	0xbd135d54	-0.035977677
54	0x3d4841cf	0.048890885
55	0x3c379d68	0.011206962
56	0x3d372a78	0.044718236
57	0xbc576599	-0.013146781
58	0xbc038e33	-0.008029508
59	0x3c6e9b48	0.014563389
60	0xbc8ca19d	-0.017166907
61	0xbca13897	-0.019680304
62	0xbd67fbd4	-0.056636646
63	0x3d322749	0.043494496
64	0x3d560610	0.052251875
65	0xbd6a2592	-0.057164736
66	0xbc9c7c0e	-0.019102123
67	0xbd32df65	-0.043670077
68	0xbcbffd1b	-0.02343612
69	0x3d34096b	0.043954294
70	0x3cfcffc2	0.030883674
71	0xbb92cb18	-0.004479777
72	0x3cca011b	0.02465873
73	0x3c8d3f28	0.01724203
74	0x3d0125b8	0.031530112
75	0xbd3e099c	-0.046395883
76	0x3c92326d	0.01784631
77	0xbd5ff89b	-0.054680448
78	0xbd1b86c8	-0.037970334
79	0xbcb040a1	-0.021515192
80	0xbbb852aa	-0.0056250887
81	0xbd5f2b79	-0.054484818
82	0x3abc5522	0.0014368633
83	0x3c170625	0.009217774
84	0xbcbbb433	-0.022913074
85	0x3c996867	0.01872654
86	0x3d4ea4e1	0.05045021
87	0xbc21942c	-0.009861987
88	0xbcfbe426	-0.030748438
89	0xbd517baa	-0.051143326
90	0xbd2cae28	-0.042158276
91	0xbd02cbac	-0.031932518
92	0xbd2ed357	-0.042682018
93	0xbcb9f24c	-0.022698544
94	0x3d024654	0.03180535
95	0x3c940056	0.018066566
96	0x3d5525c3	0.052037966
97	0x3d6aca84	0.05732204
98	0xbcaa516b	-0.020790776
99	0xbcb938e5	-0.022610137
100	0x3c017225	0.007900749
101	0xbd3c4e93	-0.04597337
102	0x3d00a09e	0.031403176
103	0xbc2a3f22	-0.010391029
104	0xbd460387	-0.048343208
105	0xbd328a42	-0.043588884
106	0xbd22f3e5	-0.039783377
107	0x3c81fedc	0.015868597
108	0x3d3547d7	0.044257965
109	0x3d3b5aa1	0.045740727
110	0xbc823bbd	-0.015897626
111	0xbd095cc4	-0.033535734
112	0xbcd1eb24	-0.02562482
113	0xbd218bc0	-0.039439917
114	0xbc73e1a6	-0.014885342
115	0xbd5593d6	-0.05214294
116	0x3cfccc7d	0.030859226
117	0xbd5e938c	-0.05433993
118	0xbd131ae9	-0.035914335
119	0x3d1eb41e	0.038745992
120	0xbd30e426	-0.04318633
121	0x3c62237d	0.013802406
122	0x3d312191	0.043244902
123	0x3d691aad	0.056910206
124	0x3cef50c9	0.029213326
125	0xbc7ddb09	-0.015494117
126	0x3d072274	0.03299184
127	0xbaf9bf13	-0.0019054137
128	0xbc91d590	-0.01780203
129	0x39452a45	0.0001880313
130	0x3c542e4c	0.012950491
131	0x3d1e90fa	0.03871248
132	0x3cc688ad	0.024235094
133	0x3ce1d61f	0.027567921
134	0x3c0d8246	0.008637017
135	0xbb3e70d7	-0.0029058957
136	0x3cc698be	0.024242755
137	0x3c63847b	0.013886566
138	0xbd6249b7	-0.05524608
139	0x3c18eefd	0.009334323
140	0xbcd20a43	-0.025639659
141	0xbcfad001	-0.030616762
142	0x3cb6e8f8	0.022327885
143	0x3c416e9c	0.0118061565
144	0x3c202fe4	0.009777043
145	0xbce05df0	-0.027388543
146	0x3cda8b85	0.026677856
147	0x3d5dec3f	0.05418038
148	0x3be771e1	0.007063136
149	0x3cc266b6	0.023730617
150	0xbd4f790e	-0.050652556
151	0x3d0c967a	0.034323193
152	0x3ca44d70	0.020056456
153	0x3cd5158a	0.026011247
154	0x3cc53b7d	0.024076218
155	0xbc78cd92	-0.0151857305
156	0xbb631e4a	-0.0034655505
157	0x3d64bdf6	0.055845223
158	0x3d2d0af9	0.042246792
159	0xbd29820f	-0.0413838
160	0x3d3ba185	0.045808334
161	0x3d6b5ae1	0.057459716
162	0x3bf8cd1b	0.00759281
163	0xbd387fe2	-0.045043834
164	0x3c375c1b	0.011191393
165	0xbc3f0a79	-0.011660212
166	0x3d2a0727	0.041510727
167	0xbd633573	-0.055470895
168	0x3c721124	0.014774594
169	0xba3183ef	-0.0006771674
170	0x3b94eec5	0.004545065
171	0x3d22acae	0.03971546
172	0x3a88b434	0.0010429681
173	0xbd3e633d	-0.04648136
174	0xbd09f2fe	-0.033679
175	0xbcbd608c	-0.023117326
176	0x3bc9c487	0.006157461
177	0x3cb6846c	0.02227994
178	0xbc30907e	-0.010776637
179	0xbcbaab48	-0.022786751
180	0x3ccf8a48	0.025334492
181	0xbd65ef19	-0.056136224
182	0x3d253fe9	0.040344153
183	0xbbdbec6d	-0.0067115338
184	0x3d248d33	0.04017372
185	0x3d32b089	0.04362539
186	0x3bca1a08	0.006167654
187	0x3c959ca3	0.018263167
188	0xbd05c192	-0.032655306
189	0x3d296fa2	0.041366227
190	0x3d0a6982	0.033792026
191	0xbc149118	-0.009067796
192	0x3cb859e1	0.022503795
193	0xbb53f042	-0.003233925
194	0x3d38c2f5	0.0451078
195	0x3cc2b19c	0.023766331
196	0x3d2c682f	0.042091545
197	0xbd56f530	-0.052479923
198	0x3d666950	0.056252778
199	0x3cb037d3	0.021510994
200	0x3ce5f27d	0.028069729
201	0x3c52c7ef	0.012865051
202	0x3d1b519a	0.03791962
203	0x3d5ea13f	0.054352995
204	0xbba12b20	-0.004918471
205	0xbd4209f0	-0.04737276
206	0x3d592742	0.053015955
207	0xbc477d1d	-0.012175825
208	0xbce41995	-0.02784423
209	0x3d11934a	0.035540856
210	0x3d03f9d4	0.032220677
211	0x3bfd4957	0.00772969
212	0xbb6d834c	-0.003624159
213	0xbc34f515	-0.01104476
214	0x3d58d54e	0.0529378
215	0x3d1015d5	0.03517707
216	0x3d0cd57b	0.03438328
217	0x3d16ccc2	0.036816366
218	0xbcf787e3	-0.030216163
219	0x3c45817a	0.012054795
220	0xbd4c9426	-0.049945973
221	0x3d09643c	0.033542857
222	0xbd6a6748	-0.057227403
223	0xbd6c577e	-0.057700627
224	0xbd69c245	-0.057070035
225	0x3d11d4c8	0.035603315
226	0x3bc4e2cb	0.006008481
227	0x3909ab4f	0.00013129156
228	0x3c16746c	0.009183031
229	0xbcb2fe8b	-0.021849891
230	0xbc8f9f4c	-0.017532013
231	0xbd1f4af8	-0.038889855
232	0xbc670324	-0.01409987
233	0xbd118434	-0.03552647
234	0x3ac71a8f	0.001519041
235	0x3d39ce51	0.045362774
236	0xbd437f96	-0.047729097
237	0x3ce8973e	0.02839243
238	0xbd2fe535	-0.0429432
239	0xbcc3f5fa	-0.023921002
240	0x3c38f8ae	0.011289759
241	0x3c22c37c	0.009934302
242	0x3d41ef0b	0.04734711
243	0xb7b52c2a	-2.1597447e-05
244	0xbcb42338	-0.02198945
245	0xbcc39a7c	-0.023877375
246	0x3adddcb7	0.001692674
247	0xbd31524f	-0.043291386
248	0xbd396a8c	-0.045267627
249	0xbcca5d4f	-0.024702696
250	0x3ac2650d	0.0014831141
251	0xbd1fb4db	-0.038990837
252	0xbd06fdfe	-0.03295707
253	0x3d28d8f5	0.04122253
254	0x3d5a89c1	0.05335403
255	0xbc942641	-0.018084647

mean_linear.bias f4 [9]
0	0x39145067	0.00014144332
1	0xbc8c718d	-0.017143989
2	0x3d24092e	0.040047817
3	0x3d617a23	0.05504812
4	0x3be4ae38	0.0069787763
5	0xbd455abb	-0.04818223
6	0x3cc5bcbe	0.02413785
7	0xbc1de339	-0.009636694
8	0xbd2e3dcd	-0.042539407

log_std_linear.weight f4 [9, 300]
0	0x3c4ba232	0.012428807
1	0x3ab0f149	0.0013499643
2	0x3a604854	0.00085556996
3	0x3d6b45aa	0.057439484
4	0x3cf011e2	0.029305402
5	0x3d154a38	0.036447734
6	0x39fb9932	0.0004798859
7	0xbc3b099f	-0.011415868
8	0x3cb15a04	0.021649368
9	0xbd30f076	-0.04319807
10	0x3d5f7991	0.054559294
11	0x3beb2180	0.0071756244
12	0xbd5bd01a	-0.053665258
13	0xbd088e75	-0.033338983
14	0x3ce411eb	0.027840575
15	0x3c5a4d6d	0.013324124
16	0x3ce99ae4	0.02851624
17	0xbd69345b	-0.056934696
18	0xb9954baa	-0.0002847587
19	0x3d0ce6fd	0.034399975
20	0x3d02a37a	0.031894185
21	0x3b4d7c1d	0.0031354495
22	0xbd69cfc7	-0.057082918
23	0x3d4eab65	0.050456423
24	0x3cb5aaa5	0.022176096
25	0x3cb8c0b9	0.022552835
26	0x3d0e87da	0.034797527
27	0x3d0bc3f8	0.034122437
28	0xbbd5b349	-0.0065216166
29	0x3d1ca326	0.038241528
30	0x3d20b415	0.03923424
31	0x3c6a4d86	0.01430071
32	0xbd36395e	-0.044488303
33	0x3d253919	0.040337656
34	0xbce7b6f1	-0.028285475
35	0x3d49aca9	0.049236927
36	0xbd134b3e	-0.03596043
37	0xbb825eb7	-0.003978576
38	0xbcb6df62	-0.022323314
39	0xbd017c3f	-0.03161263
40	0xbc9bfec9	-0.01904239
41	0x3d18698e	0.03721004
42	0x3c9c4225	0.019074509
43	0xbbae7c52	-0.0053248787
44	0xbd3dee65	-0.04636993
45	0xbd030211	-0.031984393
46	0x3d064e17	0.032789316
47	0xbcdcefac	-0.026969753
48	0xbd3659b8	-0.044519156
49	0xbd01b479	-0.031666253
50	0xbc9e2648	-0.019305363
51	0xbcd22fb0	-0.025657505
52	0x3cfa4c39	0.030553924
53	0xba35278b	-0.00069104944
54	0x3d5f3726	0.054495953
55	0xbd59b2e4	-0.05314912
56	0xbced79fc	-0.02898883
57	0x3c9d1eb2	0.019179676
58	0x3d10fddb	0.035398345
59	0xbcc23839	-0.02370845
60	0x3cbd30c2	0.023094539
61	0xbd024560	-0.031804442
62	0xbd0f3a0b	-0.034967463
63	0x3d0151f1	0.031572286
64	0xbb666673	-0.003515628
65	0xbd2d0e9c	-0.04225026
66	0xbb12594c	-0.0022331057
67	0x3d5020c8	0.050812513
68	0x3c57f786	0.013181573
69	0xbc3d4d4f	-0.011554076
70	0xbc2b5b90	-0.010458842
71	0xbd0cf026	-0.03440871
72	0x3d068476	0.03284117
73	0x3a7a19d6	0.0009540593
74	0xbcf45637	-0.029826267
75	0x3b5b3f39	0.0033454432
76	0x3c9230d0	0.017845541
77	0x3b203800	0.002444744
78	0xbb9ab90f	-0.0047217677
79	0xbd5e4d54	-0.054272965
80	0xbae41fe7	-0.0017404527
81	0xbc974e36	-0.018469911
82	0xba41cbf0	-0.0007392755
83	0xbd114468	-0.035465628
84	0x3cb273a6	0.021783661
85	0xbd126b1a	-0.03574667
86	0xbc98d502	-0.018656258
87	0xbcd97106	-0.026543152
88	0xbcee1a0b	-0.029065153
89	0x3a57a213	0.000822575
90	0xbcd274db	-0.025690487
91	0xbcccb9f4	-0.024991013
92	0x3bc7650a	0.006085043
93	0x3cc6c897	0.02426557
94	0xbce10ba9	-0.02747138
95	0x3cfc2281	0.030778171
96	0x3c8c54e6	0.017130326
97	0x3d3691a5	0.04457249
98	0x3bb706a1	0.005585507
99	0x3d420aa0	0.047373414
100	0xbd551977	-0.05202624
101	0x3c89cbfc	0.0168209
102	0xbd4b37b4	-0.04961367
103	0x3cc7f663	0.024409479
104	0xbcb572e3	-0.022149509
105	0xbc41eefc	-0.0118367635
106	0x3d484c64	0.048900977
107	0x3d5d6489	0.054050956
108	0xbc6d3442	-0.014477791
109	0xbd08217b	-0.033235054
110	0x3d013a10	0.031549513
111	0xbcd1819e	-0.025574502
112	0xbcde6a53	-0.027150309
113	0xbd31d710	-0.04341799
114	0x3d6b00f9	0.057373974
115	0x3b60695a	0.0034242482
116	0x3c38f2e8	0.011288382
117	0xbd0982ba	-0.033571936
118	0x3cdc7b0c	0.026914142
119	0xbd603d9b	-0.05474625
120	0xbc894d2f	-0.016760437
121	0xbc108f0e	-0.008823169
122	0x3d0b2d16	0.033978544
123	0xbbb044a8	-0.005379278
124	0x3c07d867	0.00829134
125	0x3d34d37a	0.044146992
126	0x3ca687b4	0.02032838
127	0x3d401f3e	0.046904795
128	0xbca12e2f	-0.019675342
129	0x3d122e08	0.03568843
130	0xbc129ed7	-0.008949003
131	0xbb890fc5	-0.004182788
132	0x3c4a2320	0.012337476
133	0x3d63ff2d	0.055663276
134	0x39753ac2	0.0002338691
135	0xbbca0c68	-0.0061660297
136	0xbcb91e14	-0.02259735
137	0xbd1560d3	-0.036469292
138	0x3d07d70c	0.03316407
139	0xbc4443e1	-0.011979074
140	0xbc9f5156	-0.019447964
141	0x3c4d5808	0.012533195
142	0x3c217a8a	0.009855876
143	0xbc198d78	-0.009372108
144	0x3d45a2be	0.048250906
145	0x3d10b315	0.035327036
146	0x3c6676f6	0.014066448
147	0xbce00e22	-0.027350489
148	0xbcc3efbb	-0.023918023
149	0x3d4da26c	0.050203726
150	0x3c434991	0.011919395
151	0xbd56afe8	-0.05241385
152	0xbbfeabb8	-0.0077719353
153	0x3c54cf8d	0.012988937
154	0x3c7f5c5c	0.015585985
155	0x3d48a3c0	0.04898429
156	0x3af2bb49	0.001851895
157	0xbbe3fd8d	-0.006957716
158	0x3d273695	0.040823538
159	0xbc0bb672	-0.008527385
160	0x3c98621d	0.018601472
161	0xbd3121e4	-0.04324521
162	0xbca70212	-0.02038673
163	0xbd325f43	-0.04354788
164	0x3bbc2013	0.005741128
165	0xbd396707	-0.04526427
166	0x3d342595	0.043981154
167	0xbcd1b3bf	-0.025598405
168	0xbd22131e	-0.039569013
169	0x3b63b3f0	0.0034744702
170	0xbcdee35e	-0.027208026
171	0xbd0d937d	-0.034564484
172	0x3d2d2af0	0.042277277
173	0x3c982f38	0.018577203
174	0x3c1aff3c	0.009460267
175	0x3ce892af	0.028390257
176	0xbc9e0b40	-0.019292474
177	0x3bc49c11	0.00600005
178	0x3d6431ec	0.05571167
179	0xbccc9b05	-0.024976263
180	0x3cbe92e0	0.023263395
181	0x3d46d978	0.048547238
182	0xbc04330f	-0.008068814
183	0x3d429624	0.047506467
184	0xbc788094	-0.015167374
185	0xbc3cd9d7	-0.011526546
186	0x3c712397	0.014717958
187	0xbc1240e0	-0.0089266
188	0xbc786563	-0.015160891
189	0xbc386a4e	-0.011255814
190	0x3c419501	0.01181531
191	0xbd029fe9	-0.031890783
192	0xbd3498fd	-0.044091213
193	0xbd39550e	-0.04524713
194	0x3d68a1fa	0.056795098
195	0x3acb019b	0.0015488149
196	0x3cd3b914	0.025845088
197	0xbd62808f	-0.055298384
198	0xbc0a6b91	-0.008448497
199	0xbd38ea9d	-0.04514562
200	0xbba35fa8	-0.0049857683
201	0x3d52a91b	0.051430803
202	0x3d2ba057	0.04190096
203	0xbcaac659	-0.020846533
204	0xbd0076a5	-0.03136315
205	0xbd417fee	-0.047241144
206	0xbce93cf1	-0.028471442
207	0x3ca1c0fd	0.019745344
208	0xbd0c07f7	-0.034187283
209	0x3d01fc92	0.03173501
210	0xbca9e3da	-0.02073853
211	0x3d5b1870	0.053490102
212	0xbc64d9cf	-0.013967945
213	0xbc28584f	-0.010274961
214	0x3d0b6b21	0.034037713
215	0x3d25c758	0.040473312
216	0x3d2abd2f	0.041684326
217	0x3d2b4f51	0.04182369
218	0xbd5f9987	-0.054589774
219	0x3d02665f	0.03183591
220	0xbcf75ded	-0.030196154
221	0x3d27c776	0.040961705
222	0x3d380018	0.044921964
223	0xbb9dc0ab	-0.0048142276
224	0x3ca31556	0.019907635
225	0x3c482097	0.012214801
226	0x3ccfceea	0.025367219
227	0x3d1e9af2	0.038721986
228	0x3c88e448	0.016710415
229	0xbc9e70ca	-0.019340891
230	0x3b14d1ba	0.0022708015
231	0x3bda7d00	0.006667733
232	0xbd43673c	-0.047705874
233	0x3c9b757d	0.018976921
234	0xbd1a15bb	-0.03761838
235	0x3d15f931	0.0366146
236	0x3d53eb53	0.051738095
237	0x3c00be28	0.007857837
238	0x3d460310	0.048342764
239	0x3aa33712	0.0012452325
240	0x3d14b632	0.036306567
241	0x3cebf421	0.028802933
242	0xbd4511fc	-0.048112854
243	0xbd3dab16	-0.04630574
244	0xbc631ab6	-0.013861349
245	0x3cbc418c	0.022980474
246	0xbc300510	-0.0107433945
247	0xbc3fd4fb	-0.011708493
248	0x3d0f0051	0.03491241
249	0x3d53ea6e	0.05173724
250	0x3cc8421f	0.024445591
251	0x3c8c2fa1	0.017112555
252	0x3cf062c1	0.029343965
253	0x3c00bfea	0.007858256
254	0xbd54fa09	-0.051996265
255	0xbd6a99ff	-0.05727577

log_std_linear.bias f4 [9]
0	0xbc2bf265	-0.010494803
1	0x3be0dd49	0.0068623167
2	0x3d4db098	0.05021724
3	0x3d26527e	0.040606014
4	0x3cf3d3b8	0.029764041
5	0x3bf922e7	0.0076030376
6	0xbd5a3669	-0.053274546
7	0xbc989360	-0.018624961
8	0x3d52d142	0.051469095

conv1.weight f4 [1, 1, 7, 7]
0	0x3c94bb3e	0.01815569
1	0xbcd30282	-0.025758032
2	0xbd2f7b6f	-0.042842325
3	0x3d9a1fef	0.07525622
4	0x3dc4fb42	0.09618236
5	0xbbc8890b	-0.0061198524
6	0x3d453300	0.04814434
7	0x3de46a60	0.11153102
8	0x3dd0d924	0.10197666
9	0x3da4a820	0.0803988
10	0x3dd4acf4	0.10384551
11	0x3d6f3bfe	0.058406822
12	0x3d3aced1	0.04560739
13	0xbe090171	-0.13379456
14	0xbcab1f78	-0.020889029
15	0xbd16e0e8	-0.03683558
16	0x3d1833d8	0.037158817
17	0xbd0ec6a4	-0.034857407
18	0xbdff9cc6	-0.12481074
19	0x3e010249	0.12598528
20	0xbd680002	-0.056640632
21	0xbe04b81a	-0.12960854
22	0xbd572064	-0.052521124
23	0x3d14f86c	0.036369726
24	0xbd2d3925	-0.042290825
25	0xbe0b1ffd	-0.13586421
26	0x3d5e1862	0.054222472
27	0x3d7c3316	0.061572157
28	0x3e0e9ed9	0.13927783
29	0xbe0a12e2	-0.13483766
30	0xbca9bf99	-0.020721244
31	0xbd44823a	-0.047975756
32	0xbd30a36e	-0.04312461
33	0x3c1a0d93	0.00940265
34	0x3e0ece7b	0.13945954
35	0xbc0a7a1e	-0.008451967
36	0x3e03d87f	0.12875555
37	0x3cd957c2	0.026531104
38	0xbd8a70e5	-0.06759814
39	0xbbdd1569	-0.006746937
40	0x3da44aa7	0.08022051
41	0x3dba9473	0.09110346
42	0xbd27d368	-0.040973097
43	0xbc3bd461	-0.011464209
44	0xbde7c14a	-0.11316164
45	0xbdacf3a4	-0.08444908
46	0xbd047ee6	-0.032347582
47	0x3dbca733	0.09211578
48	0x3c6ebd29	0.0145714665

conv2.weight f4 [1, 1, 7, 7]
0	0xbe00b3d9	-0.12568606
1	0x3cbf30f6	0.023338776
2	0xbdf8805d	-0.12133858
3	0xbd4c2a2c	-0.049844906
4	0x3de37cd5	0.11107794
5	0x3b7a9168	0.0038233642
6	0xbde7aa72	-0.11311807
7	0xbe14f92e	-0.1454818
8	0xbd490e54	-0.04908593
9	0xbd7e2bb4	-0.062053397
10	0xbe0e8d13	-0.13921003
11	0x3d940828	0.07228118
12	0xbb6baa55	-0.003595968
13	0xbce69306	-0.028146278
14	0x3dd44458	0.10364598
15	0xbe11162c	-0.14168614
16	0x3d216d58	0.03941092
17	0x3dc9eb16	0.09859292
18	0x3ccf2733	0.025287246
19	0x3d933160	0.07187152
20	0xbd5708bc	-0.052498564
21	0xbe0f30df	-0.13983487
22	0x3e035756	0.12826285
23	0xbe15aacb	-0.14615934
24	0xbd84a882	-0.06477453
25	0x3dfcc60d	0.12342463
26	0xbd950751	-0.07276786
27	0xbd031be0	-0.032009006
28	0xbda1e7e0	-0.07905555
29	0x3cba74a8	0.022760704
30	0xbd5abae9	-0.053400908
31	0x3d4263ed	0.047458578
32	0x3e08c6fa	0.13357154
33	0xbde67474	-0.112526804
34	0x3db69fa8	0.08917171
35	0xbd2d8496	-0.042362772
36	0xbe18d21a	-0.14923897
37	0x3d75af74	0.05998178
38	0xbdcff46d	-0.101540424
39	0x3da093b4	0.07840672
40	0xbcfcf93d	-0.030880565
41	0xbdb07370	-0.08615768
42	0xbe066fa7	-0.1312853
43	0x3cc8e1ea	0.024521787
44	0xbe0f3785	-0.13986023
45	0x3d96f632	0.07371177
46	0x3d447f32	0.047972865
47	0xbdff053a	-0.12452169
48	0x3d97cebb	0.074124776

conv3.weight f4 [1, 1, 7, 7]
0	0x3c6d90b8	0.014499836
1	0xbd28cda0	-0.041211724
2	0x3dc3a3cc	0.09552726
3	0xbdf7617e	-0.12079142
4	0xbd38278e	-0.044959597
5	0xbd4f8f0a	-0.050673522
6	0xbc49b313	-0.012310761
7	0x3c6d24ca	0.014474103
8	0xbdb7042e	-0.08936344
9	0x3c9f5c65	0.019453237
10	0x3bd4314a	0.0064756023
11	0xbd947d53	-0.07250466
12	0x3d0ae32a	0.033908047
13	0x3dd6eaa7	0.10493975
14	0x3d969b05	0.073537864
15	0x3d3ca39c	0.046054468
16	0xbd80dc0c	-0.062919706
17	0xbdd3ccea	-0.10341819
18	0x3daedc2e	0.0853809
19	0x3cb48801	0.022037508
20	0x3c35b7b7	0.011091164
21	0x3d950c27	0.072777085
22	0xbd86c3be	-0.065803036
23	0xbe113e88	-0.1418401
24	0xbdc8dbf5	-0.098075785
25	0xbe08ff23	-0.13378577
26	0x3db61895	0.088914074
27	0x3db221a5	0.086978234
28	0xbd860843	-0.065445445
29	0xbd03043c	-0.03198646
30	0xbcf48a0a	-0.029850978
31	0xbd6dfd5c	-0.05810295
32	0xbdc8b127	-0.09799414
33	0x3d383c17	0.04497918
34	0xbd4f4953	-0.050607037
35	0xbdbe8fe7	-0.09304791
36	0x3cdb60a5	0.026779482
37	0xbd6af4bc	-0.057362303
38	0x3ce765ca	0.028246779
39	0xbbb11cdc	-0.0054050516
40	0x3d3cb073	0.046066713
41	0x3dc0a9e1	0.09407402
42	0xbe0090ac	-0.12555188
43	0xbd8af0c3	-0.06784203
44	0x3e0f6d58	0.14006555
45	0x3bcff493	0.006346294
46	0xbcc0568a	-0.023478765
47	0x3de7222e	0.11285816
48	0x3dfed71a	0.12443371

linear1.weight f4 [12, 64]
0	0xbdc9b1fe	-0.098484024
1	0x3df42f6c	0.119231075
2	0xbde7c0da	-0.113160804
3	0xbdfe250c	-0.1240941
4	0x3c9b1830	0.018932432
5	0xbd15ff90	-0.036620677
6	0xbdee2748	-0.11628586
7	0x3dc6fbba	0.09715982
8	0x3c7845f0	0.015153393
9	0xbd896160	-0.06708026
10	0x3d3364c4	0.04379727
11	0x3dba62ca	0.09100874
12	0xbc591910	-0.013250604
13	0x3dbcecce	0.092248544
14	0x3d9e90c8	0.077424586
15	0x3cade558	0.021227524
16	0xbd87d7c2	-0.066329494
17	0xbdc3d77e	-0.09562586
18	0xbaeb8300	-0.0017968118
19	0xbd0891a0	-0.033342004
20	0xbde68fbc	-0.11257884
21	0xbdefad06	-0.117029235
22	0xbda27f38	-0.07934421
23	0x3b1d4a80	0.0024000704
24	0xbd677cd4	-0.05651553
25	0xbdd7164a	-0.10502298
26	0xbcb0b878	-0.021572337
27	0xbd61a884	-0.05509235
28	0xbcf70ac0	-0.030156493
29	0x3d9ada00	0.075611115
30	0x3d947586	0.07248978
31	0x3da6fa84	0.08153251
32	0x3dff6884	0.12471107
33	0x3c0d52d0	0.008625701
34	0xbd881e5e	-0.06646417
35	0xbc55cf40	-0.0130499005
36	0x3ca39fa0	0.019973576
37	0xbd36aa64	-0.04459609
38	0x3dcc13d2	0.09964718
39	0x3d867aae	0.06566368
40	0xbdb9adf4	-0.09066382
41	0x3c420560	0.011842102
42	0x3c4133c0	0.011792123
43	0x3d1ed9fc	0.038782105
44	0xbdaaaf9a	-0.083342746
45	0x3dfbd470	0.122963786
46	0xbd312cc8	-0.043255597
47	0x3d40aeb4	0.04704161
48	0xbd7d5b00	-0.061854362
49	0x3d2e21f0	0.042512834
50	0xbd3181b0	-0.04333657
51	0xbd8765b8	-0.06611198
52	0xbde4ff40	-0.111814976
53	0x3d344b90	0.044017375
54	0x3c8c7090	0.017143518
55	0x3d1e0ec8	0.038588315
56	0xbd8c90ba	-0.06863542
57	0x3cd9f8c8	0.026607886
58	0xbd516288	-0.051119357
59	0x3d0e677c	0.03476666
60	0x3def03fc	0.11670682
61	0xbdd6828a	-0.10474117
62	0x3d445ff4	0.04794307
63	0xbda51be2	-0.08061959
64	0x3d1cdb60	0.03829515
65	0xbcdf6750	-0.027270943
66	0x3d50fd08	0.05102256
67	0xbdbf0fd2	-0.09329189
68	0x3db40142	0.087893024
69	0x3d909aea	0.070607975
70	0xbdb0012c	-0.085939735
71	0xbdb4ad18	-0.088220775
72	0x3d8be390	0.068305135
73	0xbdc8eb2e	-0.09810482
74	0x3d47f6bc	0.04881929
75	0xbd7d0b14	-0.061778143
76	0xbde56526	-0.11200933
77	0x3d1ed6e0	0.03877914
78	0xbd5718c4	-0.052513853
79	0xbda8efda	-0.08248873
80	0x3d186138	0.03720209
81	0x3d6cb498	0.057789415
82	0x3dcee84a	0.101028994
83	0x3dfa5646	0.122234866
84	0x3d577dc7	0.052610185
85	0xbd13f268	-0.03611985
86	0xbcafab20	-0.021443903
87	0x3dc141c6	0.094363734
88	0xbdc701ac	-0.09717116
89	0x3d9de599	0.07709808
90	0x3d47ee4a	0.048811235
91	0x3d44b344	0.048022524
92	0x3d1e68a4	0.03867401
93	0xbdd48d64	-0.103785306
94	0x3d4cb8a0	0.04998076
95	0xbbf771c0	-0.007551402
96	0x3ad5d180	0.0016313046
97	0xbd6dcd08	-0.05805686
98	0x3db90b4a	0.09035356
99	0xbcab0908	-0.02087833
100	0x3c1de029	0.0096359635
101	0xbddaa9bc	-0.106769055
102	0x3dc495dc	0.09598896
103	0xbdec4dc2	-0.115382686
104	0x3d9e73a6	0.07736902
105	0x3d60764c	0.054800317
106	0x3ce9b290	0.028527528
107	0xbdf7db36	-0.12102358
108	0xbd6c0fa4	-0.057632104
109	0xbc07db40	-0.008292019
110	0xbdbd9e24	-0.092586786
111	0xbd25aec0	-0.040449858
112	0xbce7a4f8	-0.028276905
113	0xbd1fe124	-0.03903307
114	0x3dc570e1	0.096406706
115	0x3dea10b6	0.114289686
116	0xbd654820	-0.055976987
117	0x3d8431cc	0.064548105
118	0x3c009830	0.007848784
119	0x3dbb66ac	0.091504425
120	0xbddf44fe	-0.10901831
121	0xbd7da7c8	-0.061927587
122	0xbccd2328	-0.025041178
123	0x3df5dd00	0.12005043
124	0x3dca9dd6	0.09893386
125	0xbd0a8fdc	-0.0338286
126	0xbd9dcdba	-0.07705255
127	0xbd7f92c8	-0.06239584
128	0x3c7be200	0.015373707
129	0x3ce7b5d0	0.028284937
130	0xbd8182cc	-0.06323776
131	0x3d104430	0.03522128
132	0xbc6cccc0	-0.014453113
133	0x3dbe8772	0.09303178
134	0xbd432d4c	-0.04765062
135	0xbd8fc164	-0.07019308
136	0x3c9d6098	0.019211099
137	0x3bd34ba0	0.006448224
138	0x3d908fe6	0.070586964
139	0x3df9eaec	0.12203011
140	0xbd4e3214	-0.050340727
141	0x3dee0ea2	0.11623885
142	0x3d708118	0.058716863
143	0x3dd9f1de	0.10641836
144	0x3d1dc284	0.038515583
145	0xbc991998	-0.018688962
146	0x3c8c86b0	0.017154068
147	0x3b574ac0	0.003285095
148	0xbdbd1200	-0.09231949
149	0xbd2a6f1c	-0.04160987
150	0x3dc1e52c	0.09467539
151	0x3cc8a770	0.024493903
152	0x3d080c38	0.033214778
153	0x3c463640	0.012097895
154	0x3cdcefc0	0.02696979
155	0xbdb23376	-0.08701222
156	0xbcc0d7b0	-0.023540348
157	0xbcdd7de8	-0.027037576
158	0xbd2efff0	-0.04272455
159	0xbda1ce98	-0.07900733
160	0xbc557c40	-0.013030112
161	0xbb43b300	-0.002986133
162	0xbd277104	-0.040879264
163	0xbcfa4910	-0.030552417
164	0xbd1d39ec	-0.038385317
165	0xbca34fa8	-0.019935444
166	0xbdcc5f88	-0.09979159
167	0x3dd0a91a	0.101885036
168	0xbd88bae8	-0.066762745
169	0x3d85570e	0.06510745
170	0xbde15590	-0.11002648
171	0xbbbb4f60	-0.0057162493
172	0xbc3d0c70	-0.01153861
173	0xbdd9b8ec	-0.10630974
174	0x3bd4b3c0	0.0064911544
175	0xbdbf14fa	-0.09330173
176	0x3d351b88	0.04421571
177	0x3da032f4	0.078222185
178	0xbc9e5618	-0.019328162
179	0x3ca9b408	0.020715728
180	0xbd8021aa	-0.06256421
181	0x3d395640	0.04524827
182	0xbdf1b0b2	-0.1180128
183	0x3dfeff22	0.124510065
184	0xbbe6b980	-0.0070411563
185	0x3cd45f70	0.025924414
186	0x3dd8e368	0.10590249
187	0xbdd40b0c	-0.103536695
188	0xbd855920	-0.0651114
189	0x3cb7b038	0.022422895
190	0xbdff6edc	-0.124723166
191	0x3ce8eca8	0.028433159
192	0xbc2e16a0	-0.010625511
193	0xbdf021c4	-0.1172519
194	0xbcfed5e0	-0.031107843
195	0xbdbb5942	-0.09147884
196	0x3c45d830	0.012075469
197	0x3dbca562	0.09211232
198	0x3df3ade0	0.118983984
199	0xbdef5eee	-0.11688028
200	0x3d369224	0.044572964
201	0xbdc50abc	-0.09621188
202	0x3d35fb98	0.04442939
203	0x3d8ce9ee	0.06880556
204	0xbdf3e144	-0.119082004
205	0xbdb8c768	-0.09022409
206	0xbde58ca0	-0.11208463
207	0xbc4004f0	-0.011719927
208	0x3d3ba220	0.04580891
209	0xbdbbc902	-0.091691986
210	0xbc054090	-0.008133069
211	0xbd323c48	-0.04351452
212	0x3de84030	0.11340368
213	0xbdeab6b8	-0.11460632
214	0xbd8e1712	-0.06937994
215	0xba997b80	-0.001170978
216	0xbdc77ff4	-0.09741202
217	0x3dc50e10	0.09621823
218	0xbdeb3210	-0.11484158
219	0xbd252ebc	-0.040327772
220	0xbd561adc	-0.05227171
221	0xba962380	-0.0011454672
222	0xbd734218	-0.059389204
223	0x3db7c902	0.08973886
224	0xbddc62b8	-0.107610166
225	0xbd870800	-0.06593323
226	0xbd6a5718	-0.057211965
227	0xbdf4adae	-0.11947189
228	0xbdfdea64	-0.12398222
229	0x3d34a8d8	0.044106334
230	0x3df11bb6	0.117728636
231	0xbc9c8f30	-0.019111246
232	0xbd46a578	-0.048497647
233	0x3d5fd314	0.05464466
234	0x3d96d8fc	0.07365605
235	0xbde5bff2	-0.11218251
236	0xbd747438	-0.059681147
237	0x3dd861a4	0.105654985
238	0x3d63e3e0	0.05563724
239	0xbdeda8e2	-0.116044775
240	0x3b192740	0.0023369342
241	0xbdc1dc02	-0.09465791
242	0xbdc60634	-0.09669152
243	0xbd7e4cc0	-0.062084913
244	0x3dfe167a	0.12406631
245	0xbd939b9c	-0.072074145
246	0x3daff606	0.08591847
247	0xbde8529e	-0.11343883
248	0xbc0ce3b0	-0.008599207
249	0x3de783ca	0.11304434
250	0xbce5ed30	-0.028067201
251	0xbd307578	-0.043080777
252	0xbd625a7c	-0.055262074
253	0xbdb90650	-0.09034407
254	0x3d2446d4	0.04010661
255	0xbdba9dac	-0.09112105

linear1.bias f4 [12]
0	0xbbd6d9e0	-0.0065567344
1	0xbc43cf4e	-0.011951281
2	0xbd3c1930	-0.04592246
3	0xbd35d0b4	-0.044388488
4	0xbd538bc8	-0.051646978
5	0xbd581a70	-0.052759588
6	0x3e14d09c	0.14532703
7	0x3d9bcf3e	0.07607888
8	0x3e1f5d3e	0.15562913
9	0x3e60414a	0.21899906
10	0xbc8138e0	-0.01577419
11	0x3e183266	0.14862975

linear2.weight f4 [5, 5]
0	0xbe8c3601	-0.27384952
1	0x3e8fcd78	0.28086448
2	0x3ec925f3	0.39286765
3	0x3e52bf91	0.2058089
4	0xbe499f9d	-0.19689794
5	0x3e096133	0.13415985
6	0xbe7ff3f8	-0.2499541
7	0xbeb3aa83	-0.35091028
8	0x3e8f3d6a	0.27976543
9	0x3e18185e	0.14853045
10	0x3e79b1d3	0.24384241
11	0x3e416c60	0.18888998
12	0xbde37d89	-0.11107928
13	0x3de23912	0.110460415
14	0xbe969648	-0.2941153
15	0xbe981826	-0.29705924
16	0xbd7a3994	-0.061090067
17	0xbea6a5ce	-0.32548374
18	0x3eab8126	0.3349697
19	0xbec97e8e	-0.39354366
20	0x3e8d38af	0.2758231
21	0xbe2f335c	-0.17109436
22	0xbd4e2c73	-0.05033536
23	0x3eae1802	0.34002692
24	0xbe34518a	-0.1760923

linear2.bias f4 [5]
0	0xbdb5cefb	-0.08877369
1	0x3e180c65	0.14848478
2	0xbe51fa48	-0.20505631
3	0xbbaafb02	-0.0052179107
4	0x3e8fe6c7	0.28105757

linear3.weight f4 [3, 17]
0	0xbcdbacc1	-0.026815774
1	0x3cc685ef	0.024233786
2	0xbdf8b0d6	-0.12143104
3	0xbc94135c	-0.018075638
4	0xbd46ba19	-0.04851732
5	0xbe3f0685	-0.18654831
6	0xbc9065a1	-0.017626585
7	0x3dc21a00	0.09477615
8	0xbe18e3ee	-0.14930698
9	0x3e52c8f8	0.20584476
10	0xbe0b5e3c	-0.13610166
11	0x3b50a586	0.003183694
12	0xbda37489	-0.07981212
13	0xbe896c5d	-0.26840487
14	0x3d98af43	0.074553035
15	0xbd624b9b	-0.055247884
16	0xbe1fd1da	-0.15607396
17	0xbcb9caf6	-0.022679787
18	0xbdae885d	-0.08522103
19	0x3d4b951b	0.049702745
20	0x3d2e8fe0	0.04261768
21	0x3d490899	0.049080465
22	0x3dec3d1f	0.115350954
23	0x3e10ebbe	0.14152429
24	0x3db144d7	0.08655708
25	0x3d9fe529	0.07807381
26	0xbe516a4b	-0.20450704
27	0xbc5f1713	-0.013616341
28	0xbddd9d89	-0.10821063
29	0x3e2d1fe4	0.16906697
30	0x3dae88b4	0.08522168
31	0xbb9d7deb	-0.0048062704
32	0xbe60ec8a	-0.21965232
33	0xbe6d9ba6	-0.23203906
34	0xbd8aba6d	-0.06773839
35	0x3db11c6e	0.08648001
36	0x3e1e6f7b	0.15472214
37	0xbe33f8cf	-0.17575382
38	0xbe11b4f3	-0.14229183
39	0x3e4ec942	0.20193961
40	0x3dde451f	0.108530276
41	0xbe1c80fb	-0.15283577
42	0xbce5a18b	-0.028031131
43	0x3e191e04	0.14952856
44	0x3e03391e	0.12814757
45	0x3c522f4b	0.012828658
46	0xbdacc280	-0.084355354
47	0xbd72600f	-0.05917364
48	0xbd5f3fbd	-0.054504145
49	0xbe1a2406	-0.15052804
50	0xbe0ec3b2	-0.1394184

linear3.bias f4 [3]
0	0x3d9a3ba6	0.07530908
1	0x3ce5d9d3	0.028057968
2	0x3dc55adf	0.09636473

linear4.weight f4 [3, 17]
0	0xbe19a739	-0.15005197
1	0xbd96df9d	-0.073668696
2	0x3e156499	0.14589156
3	0x3c33d617	0.010976336
4	0xbdc7d7fc	-0.097579926
5	0xbde4aa20	-0.11165261
6	0x3e657d2c	0.2241103
7	0xbdd41673	-0.10355844
8	0xbd8ce052	-0.06878723
9	0x3c3e2dff	0.011607646
10	0xbd8cde61	-0.06878353
11	0xbe282f30	-0.1642425
12	0xbe2dd61b	-0.16976206
13	0xbe96e16b	-0.29468855
14	0xbdeb8c84	-0.115014106
15	0x3dcc9efb	0.099912606
16	0xbebe559c	-0.3717469
17	0x3d67c8a4	0.05658783
18	0xbcaefa56	-0.021359604
19	0xbe00fe15	-0.12596925
20	0x3ddf91f4	0.1091651
21	0x3db70c2e	0.0893787
22	0x3d9e507e	0.077301964
23	0xbdaddf5c	-0.08489868
24	0x3d6c6c7e	0.057720654
25	0x3de5a6ae	0.11213432
26	0xbd13407e	-0.035950176
27	0xbdd5b33b	-0.10434576
28	0x3bdfc840	0.0068292916
29	0xbe4ac786	-0.19802675
30	0x3e2fb7be	0.17159936
31	0x3cd11dbd	0.025526876
32	0xbdd9dc8d	-0.1063777
33	0x3cc658ee	0.024212327
34	0xbdb930ea	-0.09042533
35	0xbde1719b	-0.11007997
36	0xbe51d14b	-0.20489995
37	0x3d16cbb4	0.03681536
38	0x3c4337d7	0.011915169
39	0xbd998bfe	-0.074974045
40	0x3e0bb394	0.13642722
41	0x3e302571	0.17201783
42	0xbe5f9cdb	-0.2183718
43	0xbe209a50	-0.15683866
44	0x3cb58e03	0.022162443
45	0xbe8a3172	-0.2699085
46	0x3d6f8547	0.058476713
47	0x3d980468	0.074227154
48	0xbe79a817	-0.24380527
49	0x3cf38399	0.029725837
50	0xbdde0ec1	-0.10842658

linear4.bias f4 [3]
0	0x3dd7aeac	0.10531363
1	0xbe482632	-0.1954582
2	0xbbe85a88	-0.0070908703
