models/actor_2_900_policy.pt (torch, 31761 bytes, 15 tensors)

mean_linear.weight f4 [9, 300]
000000 e5 3c 5f bd 0b b8 1b bc 8e 46 60 bd 92 08 1e 3d
       -0.054501433 -0.0095043285 -0.054754786 0.038582392
000010 ae 37 08 bd db 00 cb 3b e3 14 56 bd d2 34 01 3d
       -0.033256225 0.0061951703 -0.052266013 0.031544514
000020 81 c6 4d bc 41 31 6d 3c 72 11 6c 3d aa 17 8e 3c
       -0.012559534 0.014477075 0.057633825 0.017345268
000030 b5 18 2d 3d 19 d9 ef 3c e6 d4 51 bb de 94 aa bb
       0.04225989 0.029278325 -0.0032017766 -0.0052057346
000040 20 d1 42 bd a9 2e 3d bd 7f 6e df 3c 1e 52 69 3c
       -0.04756272 -0.046187077 0.027274368 0.01424077
000050 80 aa b0 3b 88 b2 43 3d be 66 6c bd c0 45 2a 3d
       0.005391419 0.047777683 -0.05771517 0.041570425
000060 64 70 e7 3c 83 92 3a bd 25 e5 4a 3c 36 11 8e 3c
       0.028251834 -0.04554988 0.012383734 0.017342191
000070 7e 30 42 bd ab 6a d6 3c 52 71 9f bc 9f c7 d1 bc
       -0.047409527 0.02617391 -0.019463215 -0.025607882
000080 a2 b7 80 bb b7 03 b2 3c bf 40 fa 3c aa 28 64 bd
       -0.0039281407 0.021730287 0.030548451 -0.055702843
000090 e9 7d 0f 3b e5 28 5c bd 96 e7 61 3c bb c4 34 bc
       0.0021895117 -0.053749938 0.013788125 -0.011033232
0000a0 84 a9 ed bb b5 44 44 bd 3d 93 02 3d 59 c6 11 bd
       -0.007252874 -0.047917087 0.0318787 -0.03558955
0000b0 52 f1 f4 bb 98 a5 50 bd 25 b9 28 3d 9e 14 3b 3c
       -0.0074750567 -0.050939173 0.041192193 0.01141849
0000c0 fb f4 b0 3b eb 92 30 3d 4c a0 e7 3b 91 89 25 3d
       0.0054002977 0.043108862 0.0070686694 0.040414397
0000d0 b6 0a 31 bd 99 f1 d0 bb 89 bd fd bc ed 8e 9e 3c
       -0.043223105 -0.006376457 -0.030974166 0.019355262
0000e0 2b 91 60 bd f8 fc 85 bc d2 2d 76 3b ed 4d 6b 3d
       -0.054825943 -0.016355976 0.0037563932 0.057447363
0000f0 be 7f b7 bc d7 7b 0f bd a1 42 0f bd 01 86 d6 bc
       -0.02239978 -0.035030212 -0.03497565 -0.026186945
000100 f8 b7 03 bc bc 91 30 3d 0d fd 0c bb 3f f1 ef bc
       -0.008039467 0.043107733 -0.0021513135 -0.02928984
000110 eb b5 8d b9 41 6c 53 bd 8b 00 2b ba 85 76 1c bd
       -0.00027029155 -0.05161691 -0.0006523213 -0.038198967
000120 de 05 4c 3d f8 f0 46 3d 0d 37 09 bd 79 fa 69 3c
       0.049810283 0.04856965 -0.033499766 0.014280909
000130 56 32 80 bc 14 bf 9e bc e1 bf 50 3d 70 8a 50 3d
       -0.015649002 -0.019378223 0.05096424 0.050913274
000140 f3 0f 34 3d 16 34 62 bd e5 6b 4c 3c 7a cb f8 3c
       0.043960523 -0.055225454 0.012476896 0.030370463
000150 53 f3 dc 3c ff 5d 21 bd 1e 81 cf 3c 8a 5f 9f bc
       0.026971495 -0.039396282 0.025330123 -0.019454736
000160 30 f2 a3 3b c4 be 6c bc 71 ef d7 3b 9f 4f e9 bc
       0.0050032362 -0.014449779 0.006589823 -0.02848035
000170 19 36 d1 3c 93 a8 90 bc b4 af 90 bc 8d 36 bb 3c
       0.025538491 -0.017658507 -0.017661907 0.02285316
000180 c3 e3 b5 3c d5 15 e3 3c 60 4f 99 3c 5e 87 de bc
       0.022203332 0.027720371 0.018714607 -0.027164157
000190 6f 8a 38 bc a2 ec ed 3c 71 63 6a bd eb 8a 01 3d
       -0.011263474 0.0290435 -0.05722374 0.031626623
0001a0 18 e1 1d 3d 6e f0 7c 3c cc c1 18 3d 5d a0 5d 3d
       0.038544744 0.015438182 0.037294194 0.054108012
0001b0 ed 34 44 bc 35 9d 01 bd b6 c6 17 bd 8c bd b8 3c
       -0.011975509 -0.031644065 -0.03705474 0.02255132
0001c0 b5 70 10 bd 0f 51 a0 3b 70 b4 06 bc 9f 2a 28 bd
       -0.035263736 0.0048924754 -0.008221731 -0.04105627
0001d0 59 58 75 3c d0 c1 fa bc 4e fa 21 3c 94 e5 e7 3c
       0.014974677 -0.030609995 0.009886337 0.028307714
0001e0 b8 93 8a bc a4 87 80 bc 8a 73 11 bc 15 90 78 bb
       -0.01691614 -0.015689678 -0.008877644 -0.0037927676
0001f0 20 69 55 3c 9f 66 1c 3d d6 8e 5e bd 01 ae 50 3d
       0.013025552 0.038183805 -0.054335438 0.050947193
000200 67 2a 6c 3d 26 7a 01 bd 87 5a fe 3c 0e 30 69 3c
       0.057657626 -0.03161063 0.031049026 0.014232649
000210 c2 ff 22 bd 69 b9 2b 3b 22 7a 67 bc 6d 53 41 3d
       -0.03979469 0.0026203042 -0.01412824 0.0471987
000220 d7 29 c8 bc ae 2d 39 bc b2 96 40 3d 96 0a 02 bd
       -0.024434013 -0.011302395 0.047018714 -0.031748377
000230 5b ee 58 bd 4d 40 45 3d a4 b3 e6 3b 11 35 b1 3c
       -0.05296169 0.048157025 0.007040458 0.02163175
000240 d4 80 2c 3c de bd c6 bc 38 a7 7d 3c a4 c3 c5 3c
       0.010528762 -0.024260458 0.015481763 0.02414114
000250 77 a3 d5 3a 05 f4 e9 3c ca 42 30 bd 0d 4a 77 3c
       0.0016299327 0.02855874 -0.043032445 0.015093339
000260 20 98 47 3d d1 4a 8e bb 14 75 5c 3d 38 c3 10 bc
       0.048729062 -0.004342415 0.053822592 -0.008835606
000270 33 e0 d2 bc d3 f5 24 3b 64 34 17 3d d6 b2 01 3b
       -0.025741672 0.0025170937 0.036915198 0.0019790432
000280 c5 e4 22 bd 86 22 0f 3d 55 78 96 3c 82 58 25 bd
       -0.039768953 0.034945033 0.018367926 -0.04036761
000290 85 c8 09 3c 4c 3b b3 3b 9a 71 45 3c 35 f2 c4 bb
       0.008409624 0.005469715 0.0120510105 -0.0060103186
0002a0 25 e3 36 3d 81 df 39 bd 61 7a 76 bb ed f0 2b 3c
       0.044650216 -0.045379166 -0.0037609565 0.010494453
0002b0 cb 45 d0 bc f7 5f 89 bb dd 07 64 bd 7a af ac 37
       -0.025423905 -0.004192348 -0.05567156 2.058571e-05
0002c0 72 eb 1f 3b 83 14 24 bc a3 f2 66 bd 24 e6 cf 3c
       0.002440181 -0.010014656 -0.05638374 0.025378294
0002d0 e2 36 c1 bc 81 02 60 3d 2d 13 60 3d 96 37 4c 3d
       -0.02358574 0.054689888 0.054705787 0.0498577
0002e0 c7 7a 3f 3d 42 d7 38 3d 85 f4 07 3a 20 c2 d5 3c
       0.04674795 0.04512716 0.00051862776 0.026093543
0002f0 7d 2c 8b bc 53 e9 7d ba ca 49 28 bd 07 79 ea bb
       -0.016988987 -0.0009685952 -0.041085996 -0.007155541
000300 9e c7 82 3b db f7 16 bc 7e 46 5a bd f8 41 31 3c
       0.0039910814 -0.009214367 -0.053289883 0.010818951
000310 37 d2 c7 bb b9 b9 c1 bc 29 16 c1 bc fd a5 c3 bc
       -0.0060980576 -0.02364813 -0.023570137 -0.02388286
000320 fb 00 0e 3d 2e 85 60 3c 1d 64 db bb 95 b5 ad bc
       0.034668904 0.0137036275 -0.006695284 -0.02120475
000330 fe b9 02 3a 9f b1 1b bd ff f8 6b 3d 74 08 29 bd
       0.00049868214 -0.03801119 0.057610508 -0.041267827
000340 87 93 d2 3c 0d 6d 4d bd f8 f7 28 bd 86 fd 67 bd
       0.025705112 -0.050152827 -0.041252106 -0.056638263
000350 8c 90 f7 bc 9a 9b 4b bd 3c 42 05 bd 80 26 4b bc
       -0.030220293 -0.04970894 -0.03253387 -0.012399316
000360 bb 58 98 3c 08 2c ce bc 5b 1f 0c 3d 48 35 28 bd
       0.018596997 -0.02516748 0.03420959 -0.041066438
000370 3c dc 46 bd 84 4c 3c bd f7 14 43 bd 85 f2 ad 3c
       -0.048549876 -0.04597141 -0.047627416 0.021233806
000380 c6 3d 2b 3d b5 0c b1 3c ee 24 a7 3b ad c7 45 3d
       0.04180696 0.021612504 0.005100838 0.04828613
000390 be 2c f0 bb 47 52 05 3d 50 fd e0 bc 78 6a 1e 3c
       -0.0073295524 0.03254917 -0.027464539 0.009668939
0003a0 d6 d0 d9 bb 68 9a 44 3d 56 fe c3 bc bb 68 11 3d
       -0.0066472096 0.047998816 -0.023924988 0.03550027
0003b0 30 33 94 bb fa c1 21 bd 3b a9 c9 bc be 8a 57 bd
       -0.0045227036 -0.03949163 -0.024616828 -0.05262255
0003c0 1f 12 1d 3d a8 4d b7 3c a6 3a 32 bd 7e 3d 05 bd
       0.03834736 0.022375897 -0.043512963 -0.032529347
0003d0 cd c5 06 3d 77 d0 2a 3d 3f 97 15 3d 29 97 14 3d
       0.03290348 0.041702714 0.036521193 0.03627697
0003e0 d1 91 8e bc f2 ec 58 3d 43 d8 5d bd 39 c3 9d bc
       -0.017403515 0.052960344 -0.05416132 -0.019258128
0003f0 17 7d cf 3c 58 d9 d6 3c 60 c9 67 bc 81 a9 ec bc
       0.025328202 0.026226684 -0.014147133 -0.02888942

mean_linear.bias f4 [9]
000000 b9 11 59 3d 3c 15 fe 3c 24 a0 6b 3d de c4 23 3c
       0.052995417 0.031015985 0.05752577 0.009995667
000010 2d 2d 63 bd b7 4c 8c 3c a4 33 70 bc 8d 2a 29 3c
       -0.055463005 0.017126424 -0.01466075 0.010325086
000020 d1 8c b8 3c
       0.022528084

log_std_linear.weight f4 [9, 300]
000000 f5 72 05 3d 96 3a e0 bc 01 87 2f bd 9d 92 58 3d
       0.032580335 -0.027371686 -0.04285336 0.052874196
000010 14 4d 6f 3c 00 c9 e2 3c c8 cb 80 3c bd a6 29 bc
       0.014605779 0.027683735 0.01572217 -0.010354695
000020 d0 bd 59 bd 39 39 54 3d 81 12 60 3d a8 60 9d ba
       -0.053159535 0.051812384 0.054705147 -0.0012006955
000030 2c 77 77 bc d1 e6 cf 3c f8 3c 5d bd 98 5b 82 3c
       -0.015104096 0.025378617 -0.054013222 0.015912816
000040 94 d2 49 3d 7f 61 76 bc c8 67 51 bb 7b e6 ea 3c
       0.04927309 -0.015037893 -0.0031952728 0.028674355
000050 c0 2a ab bb 05 3e 9b ba f4 aa 96 3c c0 7f 92 bb
       -0.005223602 -0.0011844045 0.018392064 -0.0044707954
000060 9e 78 88 b9 be e9 64 bb 7d e0 04 3d 12 6e 5a 3d
       -0.00026029808 -0.003492936 0.03244065 0.053327627
000070 f6 09 a9 3b 0f 0e 0b 3c f1 44 28 bd 12 bd 03 3d
       0.005158658 0.008487239 -0.041081373 0.032162733
000080 73 ab 05 3d 22 58 2c bd 9d b4 0a 3d dc a2 81 3c
       0.03263421 -0.042076237 0.033863652 0.015824728
000090 90 27 11 bd a8 e8 1b bc bc 85 52 bd b6 04 00 3c
       -0.03543812 -0.009515919 -0.05139707 0.007813623
0000a0 a3 88 ed 3c 20 42 23 bd 1f 12 8e bb 63 13 3a 3d
       0.028995818 -0.039857984 -0.0043356563 0.045428645
0000b0 bb 3d 35 3d c5 0c 17 3d 40 5f 04 bd 77 cf ab ba
       0.044248324 0.036877412 -0.0323174 -0.0013108094
0000c0 91 12 e4 bc 80 7c 53 3d d6 42 27 3b b0 bf 11 bd
       -0.027840884 0.051632404 0.0025522015 -0.035583198
0000d0 9f 29 03 bc bd ff 51 3b 46 80 9f 3c ca 02 10 bc
       -0.008005529 0.00320433 0.019470345 -0.008789727
0000e0 20 2b 20 3c d8 cc 5e bd b4 17 8f bc ba ae 02 3d
       0.009775907 -0.054394573 -0.017467357 0.031904913
0000f0 78 2d c2 3c ec 3c 67 3d 93 e5 3c 3d b6 70 f5 3c
       0.023703322 0.056454584 0.046117377 0.029960971
000100 74 9e e5 bc 66 5f 55 3d 0b 2e 22 3d eb 85 a9 bc
       -0.028029658 0.052092932 0.03959469 -0.02069374
000110 47 0e db bc 1c e8 ea bc ab 1d 16 bd fa 8c bd 3c
       -0.026740206 -0.028675131 -0.036649387 0.023138512
000120 bf 00 f6 bc c0 0b 51 3d d3 96 54 3c 59 6e 7e 3a
       -0.030029653 0.051036596 0.012975412 0.0009705774
000130 a5 cc 94 3c e6 24 05 3d f6 00 1d bc b8 eb 36 bd
       0.018163988 0.032505892 -0.009582749 -0.044658393
000140 d1 fb 66 bd bc e7 5b 3d 71 42 5d 3d 0e 54 b1 bc
       -0.056392495 0.053687796 0.05401844 -0.021646526
000150 d3 3d 50 3d 13 48 bb 3c 9e 9c 4d bd cb c3 11 bc
       0.05084021 0.022861516 -0.05019819 -0.008896778
000160 60 8f 55 bd d9 39 cd 3c d7 60 a8 3c 67 20 e1 3c
       -0.052138686 0.025051998 0.02055399 0.027481271
000170 e2 45 18 bb e4 fc 08 3c ed f5 0d bd e5 eb 43 bd
       -0.0023235013 0.008361075 -0.03465836 -0.04783239
000180 de d0 a6 bc f8 8c ac 3c e1 d9 2e bc 12 35 43 bc
       -0.020363268 0.021063313 -0.010672064 -0.011914508
000190 82 12 01 bd ed 22 ec bc 46 9a f7 bc b9 23 43 bc
       -0.03151179 -0.028825248 -0.03022493 -0.011910372
0001a0 1f e8 5c 3d 72 0d 72 bc 47 4d fa bb 3a 82 f8 bc
       0.053932305 -0.014773713 -0.0076386067 -0.030335534
0001b0 7b df 0f bd f9 98 67 bd 54 ab 16 bd f4 49 88 bc
       -0.035125237 -0.05654237 -0.036784485 -0.016636826
0001c0 4c d7 5a bc df cc 22 bd cc 73 92 bb 8d 6a 47 3d
       -0.013356995 -0.03974616 -0.0044693705 0.0486856
0001d0 5f a4 36 bd 17 9b 13 3d 09 f9 35 bd 5e 6f 2b 3c
       -0.04459035 0.036036577 -0.04442695 0.010463564
0001e0 95 3d 13 3a 88 5c 3e bd 12 3e f2 bc 44 a5 e0 bc
       0.00056167814 -0.046474963 -0.029570613 -0.027422555
0001f0 52 0b 34 bd e5 05 8a 3b fc 24 3c bd 1d 3c 5c 3d
       -0.04395611 0.0042121285 -0.04593371 0.053768266
000200 84 4f 57 3b f6 3f 34 bd 0a 1e bd bc 70 86 4e 3d
       0.0032853791 -0.04400631 -0.023085613 0.05042118
000210 bd 5f 1b bb 6a 43 d9 3c aa 71 22 3d b0 91 f1 bc
       -0.0023708188 0.026521403 0.03965918 -0.029488415
000220 af f2 4a 3d 84 d2 f9 bc 9c 28 45 bd 46 56 0f 3d
       0.049547847 -0.03049589 -0.04813443 0.034994386
000230 0e b8 33 bd 9b a3 20 bd 85 0c 34 bd f6 de a4 3c
       -0.0438767 -0.039218526 -0.043957252 0.020125847
000240 32 b5 3f bb d4 ad 4b 3d 25 a8 cf bc 85 a5 36 3b
       -0.0029252288 0.049726322 -0.025348732 0.0027869653
000250 fe 8f f4 3c 5f 76 1a bc 45 9b 84 bb 20 6b 16 bd
       0.029853817 -0.009427636 -0.00404683 -0.036723256
000260 30 1a 0c 3d ac 67 b1 3c c4 ec 21 bc b2 df c7 bc
       0.03420466 0.02165588 -0.0098831095 -0.024398658
000270 4d 79 1d 3d ea 60 4f bd a4 8d c6 3c ce 12 25 3d
       0.03844576 -0.050629534 0.024237461 0.040301137
000280 0c a7 9e bc 33 e5 bb 3c 3a 9a 7d 3c a0 5b 02 3c
       -0.019366764 0.02293644 0.015478665 0.007956415
000290 51 41 cb bc 2c a9 09 bc 19 ab 0c bc c7 3b b6 3c
       -0.024811419 -0.00840215 -0.008585715 0.022245301
0002a0 c8 4c 6a bd 0c dd 3b bb a3 3c 95 3c 38 65 8e 3c
       -0.05720213 -0.002866569 0.01821739 0.01738225
0002b0 a9 93 00 bd eb f7 a8 bc 1a 66 0c 3d 3e c7 5c 3c
       -0.03139082 -0.020626029 0.03427706 0.013475237
0002c0 67 12 6b 3d e4 ba a9 bc db 22 03 3d 9d 7e 01 bc
       0.057390597 -0.020719 0.032015663 -0.007903722
0002d0 23 05 16 3c 78 fb a8 ba db 66 60 bd 3d cb bf 3c
       0.009156498 -0.0012892326 -0.05478559 0.023412341
0002e0 b4 2b 82 3c b3 08 4e bd 60 19 02 bb bb f5 30 3c
       0.01588998 -0.050301265 -0.001985155 0.010800774
0002f0 61 4d 3e 3d e0 a7 69 3d 42 c2 27 bc af 1d 27 bc
       0.046460513 0.057044864 -0.010239186 -0.010199948
000300 a4 b9 53 bc 09 19 2e bd b4 47 e7 3c 01 88 67 3d
       -0.012922678 -0.042504344 0.028232433 0.056526188
000310 19 49 4b 3d be 13 4e bd af 6a 5a bd 80 c7 19 bd
       0.04963026 -0.050311796 -0.053324398 -0.037543774
000320 8a e6 29 bc 9a b6 74 bc 4f 3b 5e bd 1e 39 4e bd
       -0.010369906 -0.014936114 -0.05425578 -0.05034744
000330 3a 36 3b bd 85 34 88 bc a6 df 75 3a de 2c 63 3d
       -0.04570601 -0.016626606 0.00093793345 0.05546271
000340 1a 1a 5f bd 9c c8 10 3d dc 0a c1 bc f4 f9 69 3d
       -0.05446825 0.035347566 -0.023564748 0.05712314
000350 1e cd 45 bd dd 43 51 bd ed b8 0b bc 9a a7 c3 3c
       -0.048291318 -0.05109011 -0.008527976 0.02388363
000360 57 7b 41 bd 40 2f 5d bc cd 9a 39 bd 83 32 07 3d
       -0.047236767 -0.013500035 -0.045313645 0.033007156
000370 5f e4 e0 bc 1f c6 e4 bc c0 0d 4c bd 67 29 8f 3c
       -0.027452646 -0.027926503 -0.0498178 0.017475797
000380 31 46 59 3d 18 a0 71 3c 34 f8 b8 3c fc df 38 3d
       0.053045455 0.014747642 0.02257929 0.045135483
000390 44 37 7f bb 8f c4 96 b9 a7 1a 4a 3d a6 b6 9e bc
       -0.0038942853 -0.00028756677 0.049341824 -0.019374203
0003a0 30 c5 58 bd 27 0a f3 3b 40 53 c9 3c 7b 1a 9c 3c
       -0.052922428 0.0074169817 0.02457583 0.019055596
0003b0 5b bb 2f 3d f5 a9 45 3d 66 48 c8 38 c8 15 0b 3d
       0.042903285 0.048257787 9.5502284e-05 0.03395632
0003c0 89 97 47 bd 28 13 cb 3b a6 eb 0a 3d 4b 06 11 3d
       -0.0487285 0.006197352 0.033916138 0.035406392
0003d0 f0 ce 5d bd 80 11 4f 3d 9e a4 fe 3a 28 e9 c0 3b
       -0.05415243 0.0505538 0.0019427722 0.0058871694
0003e0 97 6c 5f 3b cb 95 65 3a a5 17 0e bd ce 29 4e 3d
       0.0034091824 0.00087579776 -0.034690518 0.050332837
0003f0 3d 18 94 3c 13 1d 26 bd 12 3d 35 bd 96 8c 04 3d
       0.018077964 -0.04055507 -0.044247694 0.032360636

log_std_linear.bias f4 [9]
000000 3d 00 42 3d 37 69 1b bd b5 19 ae bb 36 46 bb bc
       0.04736351 -0.037942138 -0.005313123 -0.022860628
000010 0c 24 e8 ba 4f 58 00 3c 1c c8 1f 3c 0e cf 51 bd
       -0.0017710938 0.007833554 0.0097523 -0.051222853
000020 f5 11 8b 3c
       0.016976336

conv1.weight f4 [1, 1, 7, 7]
000000 4a 62 b8 ba 76 a6 75 3d 7b e5 d3 bd 83 a6 ea bd
       -0.0014067378 0.059973203 -0.10346504 -0.11457541
000010 e7 79 a4 bd 73 cc 45 3c 4f 13 13 3e c8 14 13 3e
       -0.080310635 0.01207267 0.14362834 0.14363396
000020 32 b0 37 bd f9 8b ad bc 32 d4 cb bd 4a bf 66 bd
       -0.044845767 -0.021184908 -0.099525824 -0.05633477
000030 78 2f 1d 3d 80 70 98 bd 30 52 a7 bd c9 2f 14 3e
       0.038375348 -0.07443333 -0.08169973 0.14471354
000040 40 95 9a bd 59 a1 06 be b8 20 05 3e 90 6c 09 3e
       -0.075479984 -0.13147487 0.13000762 0.1342032
000050 2a 54 79 3d e9 13 c3 bb 00 0f 89 bd f3 7e f8 3c
       0.06087128 -0.005953301 -0.06692314 0.030333972
000060 04 f2 6c 3c 99 4e 70 bd e8 e4 0c 3e 0b bc 6e bd
       0.014461998 -0.058668707 0.13759196 -0.0582848
000070 ee 5d f4 bd 82 31 20 3d 4c 48 d8 3b 4d 7f e9 3d
       -0.11931978 0.039109714 0.0066004153 0.11401234
000080 88 ee b0 3d 94 c6 0e 3c ea b9 07 bd 24 b7 af 3c
       0.08639246 0.008714337 -0.033136286 0.021449633
000090 51 65 25 bd ec ff f6 3d 4a ae 69 3d 1f af 24 3d
       -0.040379826 0.12060532 0.05705098 0.04020607
0000a0 b8 43 d7 bd 30 49 14 3e 6a fe 61 bd bc e9 df 3d
       -0.10510963 0.14481044 -0.05517427 0.10933253
0000b0 55 c2 84 3a b7 13 13 3e 4e 00 bc bc 1d 19 40 3c
       0.0010128716 0.1436299 -0.022949364 0.0117247375
0000c0 b5 4a 79 bd
       -0.06086226

conv2.weight f4 [1, 1, 7, 7]
000000 53 2b e7 bd a1 5d ec 3d b5 48 0a 3e 5c 11 82 bd
       -0.1128756 0.11541296 0.13504298 -0.06350967
000010 60 9c 01 3e 62 9e e1 3d b7 a9 06 3e 38 22 0b be
       0.12657309 0.11016537 0.13150679 -0.13587272
000020 93 42 da bd ad aa 0c be 52 34 30 3d f2 2b 4f bd
       -0.10657229 -0.13736983 0.043018647 -0.05057902
000030 33 00 05 3d ef 09 c1 3d ef 3a 6b 3d ad 30 ea 3b
       0.032470893 0.09425723 0.05742925 0.007146916
000040 3b 5b 5f 3d a0 99 13 bd ff 03 9b 3c 3e fb d1 bd
       0.054530364 -0.03603518 0.018922804 -0.10252999
000050 18 4c a2 bd 2e e8 e2 3d c6 87 a3 bd cb d0 fc 3d
       -0.0792467 0.11079441 -0.07984881 0.123445116
000060 58 36 b2 3d dc 0f 20 3d 8b 5b 40 3d a1 1f 00 3e
       0.087017715 0.039077625 0.046962302 0.12512065
000070 db 01 a5 bd 62 da 95 bd 77 d1 bc 3c 85 3e cd bd
       -0.080569945 -0.07317044 0.0230491 -0.1002169
000080 e3 9b a2 bd 4f 86 2b 3b b2 5d bc 3d fb 1f b7 bd
       -0.07939889 0.0026172583 0.091975585 -0.08941647
000090 8e 02 34 bd a3 e6 a6 bd 06 49 f4 3d 42 77 e8 bd
       -0.04394775 -0.08149459 0.119279906 -0.113508716
0000a0 b3 20 20 3b 77 25 ee 3d 0b 10 06 3e 79 0e 8d bc
       0.0024433553 0.116282396 0.13092057 -0.017218815
0000b0 4c 0e c4 bd 40 41 d1 bc ed 82 ff 3d 2f 60 4d bc
       -0.095730394 -0.025543809 0.12476144 -0.012535139
0000c0 24 42 ea 3d
       0.114383966

conv3.weight f4 [1, 1, 7, 7]
000000 15 bf 81 3d c3 1f a3 bd 47 c3 b8 bd 9a b0 82 bd
       0.06335274 -0.079650424 -0.09021621 -0.0638134
000010 c5 b9 fe bd e7 be 03 be bc aa 59 3d f3 fe cf bd
       -0.124377765 -0.12865792 0.05314134 -0.101560496
000020 5c 20 ac bc a0 ef 0e 3d 1a 64 a1 3d c5 f1 ef 3d
       -0.021011524 0.034896493 0.07880421 0.11716036
000030 8e 1e 00 be c1 61 7e bd ee e7 b8 bd 6e d4 e3 3c
       -0.12511656 -0.062104944 -0.09028612 0.027811255
000040 ef 93 06 be 33 f7 7b 3d 4a 70 51 3d b7 3b 9a bd
       -0.1314237 0.061515044 0.051132478 -0.07530921
000050 65 75 ed 3d d3 1f 39 bd 43 6c 0a 3e 8f f7 0b 3e
       0.11594657 -0.045196366 0.13517861 0.13668655
000060 51 27 cd bd e4 d9 09 3e be bf d4 3d 47 61 ca bd
       -0.10017265 0.13462025 0.103881344 -0.098818354
000070 b1 ec ed bd c3 d8 a0 bd 8c 26 03 3e 0d 09 03 3e
       -0.11617411 -0.07853844 0.12807673 0.12796421
000080 0e 18 96 3d 55 57 00 3e 17 69 9d bd 33 23 1a 3d
       0.07328807 0.12533315 -0.0768606 0.037631225
000090 9c b2 97 bd 8e 91 6d bd 85 fa 30 3d d3 14 bb bd
       -0.07407114 -0.05800014 0.043207664 -0.09134831
0000a0 7c 61 8e 3d b7 a5 15 3a ae 5e ec bd 8e 22 43 bd
       0.069521874 0.00057085924 -0.11541496 -0.047640376
0000b0 85 df 3a bd 2e 6c b2 3c e3 c0 86 3d bc 66 ad bd
       -0.04562332 0.0217801 0.06579759 -0.08466861
0000c0 d7 a4 ac bd
       -0.08429878

linear1.weight f4 [12, 64]
000000 da 88 8a 3d 8f 55 9a 3d 5f 6b f9 bd 09 1b 65 3d
       0.067643836 0.0753585 -0.121786825 0.055933986
000010 b6 e7 78 3d a5 fa 60 3d 24 09 e9 3d c0 4c e2 bc
       0.06076785 0.054926533 0.113786966 -0.027624488
000020 cd db a9 3d cf 0c c1 bc df ca c3 3d cc f3 99 3d
       0.08293877 -0.023565678 0.09560179 0.07517204
000030 cb 94 14 bb 97 4a 70 3d 88 ff a9 bd ec 2c 8a 3d
       -0.0022671695 0.058664884 -0.08300692 0.067468494
000040 e0 a1 96 bd 49 5b 93 bd aa 57 50 bd a7 6d b2 3d
       -0.07355094 -0.07195146 -0.050864853 0.08712321
000050 b3 49 b9 bd 46 f7 b1 3d 5b d1 77 3d 2d 15 d8 3d
       -0.0904726 0.08689742 0.06050239 0.10550914
000060 84 c4 21 bd 39 dd 26 3b 4f a5 f2 bd 1b 7b e5 3d
       -0.039494053 0.0025461449 -0.11847936 0.11205121
000070 a0 55 94 3b fa fa 85 3d aa 2f d7 3c 24 c5 99 bd
       0.004526809 0.065420106 0.026267845 -0.07508305
000080 c4 c6 98 bd 40 25 cd bc 9d f0 54 bd d9 f7 85 3c
       -0.074597865 -0.025042176 -0.05198728 0.016353535
000090 0d 3a 9d bc 71 92 36 3d 36 6c 84 bc db 01 15 bd
       -0.01919272 0.04457325 -0.01616488 -0.036378723
0000a0 df 5d 89 3c 33 ce c7 3d c5 f0 c1 bd b2 4d 44 3d
       0.016768394 0.09756126 -0.09469751 0.04792566
0000b0 d9 66 d2 bd 3e ee af 3d cb 38 1f 3d 85 d3 e4 bd
       -0.10273523 0.08590363 0.03887252 -0.11173157
0000c0 57 11 cd 3d ad dc 8b 3d 24 d1 ce 3d af 3f c7 3b
       0.10013073 0.068292 0.10098484 0.0060805897
0000d0 5a c6 d9 bd 83 e7 ba 3c 42 7d 54 3d c0 a3 30 3d
       -0.10633536 0.022815472 0.051877268 0.043124914
0000e0 dd 34 9e 3d 06 cb 46 bd f8 33 37 bd ee 8c be bc
       0.077249266 -0.048533462 -0.044727296 -0.02326056
0000f0 d2 fa 05 be 3b cc dd 3d 09 ed ee 3d 45 d2 e8 3b
       -0.13083962 0.108299695 0.116663046 0.007105144
000100 40 59 05 3c 82 82 91 bd 36 ad ae bd 22 99 a9 3d
       0.008138955 -0.071049705 -0.08529131 0.08281161
000110 e0 16 83 3d 00 16 21 3b 50 1f 1b 3d e0 dd 91 bc
       0.064008474 0.0024579763 0.03787166 -0.017805994
000120 18 1c 83 3d ea ef f8 bd ec 93 ea bd 20 07 4b bd
       0.06401843 -0.12155135 -0.11453995 -0.04956734
000130 d0 74 01 3c 74 a8 fc 3d ea bb 88 bd c0 e2 a9 bd
       0.007901385 0.123368174 -0.06676467 -0.08295202
000140 48 06 82 bd 00 4f 1e 3b 00 cb 3b 3a b2 dc ad bd
       -0.06348854 0.0024155974 0.0007163733 -0.0848936
000150 d8 e1 da bc 78 b8 95 bc 1a d3 cd bd 7c 99 3d bd
       -0.026719019 -0.018276438 -0.1005003 -0.046288952
000160 38 b2 fa bd 86 c6 f2 bd c2 5a b7 3d 42 19 88 3d
       -0.12241024 -0.118542716 0.089528576 0.066454425
000170 0c 2c bc 3d e0 89 2d 3c 34 84 ff bd b6 66 b9 3d
       0.09188089 0.010591954 -0.124763876 0.09052794
000180 1c f3 b1 3d 3e 77 e5 bd 98 60 41 bd 74 90 1e bd
       0.086889476 -0.11204384 -0.04721126 -0.03871198
000190 48 85 ec bc 50 d7 68 3d f4 d4 30 bd 50 a1 bd bc
       -0.028872147 0.056845963 -0.043171838 -0.023148209
0001a0 8a e2 97 3d 34 5c 66 3d 84 0d 23 bd cc cb 0d 3d
       0.07416256 0.056240276 -0.03980781 0.034618184
0001b0 9e a5 bd 3d ec 5a 42 bd c0 cc 13 bc 5e 67 fd bd
       0.092601046 -0.04744999 -0.009020984 -0.12373231
0001c0 cc 26 87 3d 7c e7 73 3d e6 50 d0 3d b0 02 f3 3d
       0.06599197 0.059546933 0.1017168 0.11865747
0001d0 ac 5e 88 3d 72 e7 fb 3d 22 2e b6 3d 0a 0b c5 bd
       0.06658682 0.12300004 0.08895518 -0.09621246
0001e0 08 6d 02 bd 78 59 ea bd ac 91 76 3d a2 17 93 3d
       -0.03184226 -0.11442846 0.060197517 0.07182242
0001f0 4c cd 4c bd 28 bd 7d bd 7e c5 ea 3d 20 bd 8a 3b
       -0.050000474 -0.06194797 0.1146345 0.0042339712
000200 74 51 b0 bd 60 7f e1 3c 8a 6e f4 bd 56 a2 f1 bd
       -0.08609286 0.027526557 -0.11935146 -0.11798541
000210 f4 84 94 bd a8 f1 db bd c4 29 82 bd d0 58 7c 3d
       -0.07251921 -0.10739452 -0.063556224 0.061608136
000220 2c 13 99 3d 40 a8 33 bd d4 71 83 bd a8 4e 2c 3d
       0.0747436 -0.043861628 -0.06418195 0.0420672
000230 6a 10 80 3d 62 42 8a 3d 4c ef db bd 50 bb 8c 3d
       0.06253131 0.06750943 -0.10739002 0.068716645
000240 12 90 94 bd 9a 96 d1 3d 80 0f 5f bc bc e4 48 3d
       -0.07254042 0.10233803 -0.013614535 0.049046263
000250 60 c0 de bb 30 3e 61 3d a0 50 6b bd 44 b8 6b bd
       -0.006797835 0.054990947 -0.057449937 -0.057548776
000260 fe cf bf 3d d2 82 97 bd c8 d9 3d 3d 4a 46 8a 3d
       0.09365843 -0.07397999 0.04635027 0.06751688
000270 b8 bf 9c bc 7c fb 4e bd 20 c0 0e bd b8 44 ae 3d
       -0.019134387 -0.050532803 -0.034851193 0.08509201
000280 7c 18 69 bd ec 12 90 bd fc f8 c5 bd 94 9c 5c bd
       -0.056908116 -0.07034859 -0.096666306 -0.053860262
000290 e4 e6 e9 bd d0 ba a2 3c 06 1e 89 3d 68 cf e8 bc
       -0.11420992 0.01986447 0.0669518 -0.028419212
0002a0 fc d6 15 3d 60 f6 de 3c 6e 54 93 3d b4 d9 ec 3d
       0.03658198 0.02721709 0.07193838 0.11564961
0002b0 a0 34 1f 3c 9c 31 85 bd a0 71 08 bd e0 60 a1 bc
       0.009717137 -0.06503603 -0.033311486 -0.019699514
0002c0 20 15 3b bd 60 ee b8 3b ac 80 84 bd f8 5f 74 3d
       -0.045674443 0.005643651 -0.06469855 0.059661835
0002d0 36 c0 cb bd 08 b3 d1 3d e8 6f a4 bc 78 98 cb bd
       -0.09948771 0.102392256 -0.020072892 -0.099411905
0002e0 24 f8 04 3d 2e ff f8 bd 9e 9f de 3d 8c 22 75 3d
       0.032463208 -0.12158047 0.10870288 0.0598474
0002f0 a8 79 3b 3d 08 05 ad bd 0c 3a 59 3d 74 38 db bd
       0.045770317 -0.08448225 0.053033873 -0.10704127
000300 80 13 06 3b 30 be 9c 3d 50 54 40 3c b0 29 c9 bd
       0.00204584 0.07653463 0.011738852 -0.098224044
000310 c0 4d 9e bc b0 ba e4 bd 20 b7 3d bc f0 01 da bd
       -0.019324183 -0.1116842 -0.011579305 -0.10644901
000320 a0 ab 29 3d e0 2c ea 3d ba 4f aa bd d6 96 b9 bd
       0.04142344 0.114343405 -0.08315988 -0.09061973
000330 06 ed a5 3d 4c a5 95 3d 50 39 c8 bc 8a d1 a1 3d
       0.08101849 0.073069185 -0.024441391 0.079012945
000340 18 3c e8 bc 00 ec b8 3d a0 f7 a5 bd 58 db 96 bc
       -0.028348967 0.090293884 -0.08103871 -0.018415138
000350 bc b8 5d 3d 00 0d fc bc 60 e6 f6 3d 70 ff b9 3d
       0.054131255 -0.030767918 0.12055659 0.09081924
000360 f2 48 ae bd 2e 7b a9 3d f8 54 b0 bd f0 d0 e5 3c
       -0.08510007 0.08275448 -0.086099565 0.02805373
000370 1e d5 f2 bd 68 8c b9 3c c8 3a 4a 3d e2 6d a4 3d
       -0.11857055 0.022649959 0.049372464 0.08028771
000380 e8 2f fa bc 8c d8 a8 bd f0 9c 4f bd 54 0d bb 3d
       -0.030540422 -0.08244428 -0.050686777 0.091334015
000390 70 16 57 bc a4 de cd 3d e0 e0 c5 3c 60 a1 fb bd
       -0.013127908 0.10052231 0.02415508 -0.12286639
0003a0 62 60 c1 3d 9e 18 8a bd 1c b3 a4 3d a8 ac bc bc
       0.09442212 -0.067429766 0.08041975 -0.023031548
0003b0 70 e2 54 bd 94 3d aa 3d 00 99 14 ba 3e c5 e2 bd
       -0.05197376 0.08312526 -0.0005668551 -0.11072777
0003c0 7c 4c ef 3d b2 c8 f7 3d 94 e4 f2 bd d4 fb 28 3d
       0.1168451 0.120988265 -0.11860004 0.041255787
0003d0 28 a1 9d bc 30 e6 7c bd 62 cd 91 bd aa 30 f5 bd
       -0.019241884 -0.06174296 -0.07119252 -0.119721726
0003e0 1e 0a c0 bd e4 94 b8 3d 20 6c 2a bd a0 4a 9b bb
       -0.0937693 0.09012774 -0.041607022 -0.0047391206
0003f0 48 79 a1 3c 3c a3 9d 3d 18 45 66 bd 58 e9 a8 bc
       0.019711152 0.0769715 -0.056218237 -0.02061908

linear1.bias f4 [12]
000000 1f c8 a7 bc ac b7 30 bd c8 31 8d 3d ba 04 9c bd
       -0.020481167 -0.043143913 0.06894261 -0.07618089
000010 3f 10 c6 bc 64 e7 2e 3d 02 d7 a7 3d 5d 0c 08 be
       -0.024177669 0.04270114 0.08195306 -0.13285966
000020 ad 80 0b 3d c4 17 cd bc e0 bd 99 bb 68 c2 e8 3c
       0.03405826 -0.025035746 -0.0046918243 0.028413013

linear2.weight f4 [5, 5]
000000 52 21 c8 be 07 09 01 3d fd fb a3 be 78 d8 b3 3d
       -0.3908792 0.03150275 -0.3202819 0.087815225
000010 7d 69 a7 be 90 6c ad be 67 a7 1b 3e 83 58 bc be
       -0.3269767 -0.3387189 0.15200578 -0.3678628
000020 8f f8 78 3e 28 60 59 bd eb 7e a3 3e 96 c0 89 bd
       0.24313568 -0.053070217 0.31932768 -0.06726186
000030 7d cd 04 3e ac fe ee bc fc 5d b1 3e 7f 61 18 be
       0.12969013 -0.029174171 0.34642017 -0.14880942
000040 15 fd 11 3d 68 26 a9 be 16 57 f3 3d 82 c4 b5 3e
       0.03564175 -0.33037114 0.11881845 0.35501486
000050 2f 4d 1f be fb 74 91 be 31 5e 8b 3d 54 77 00 be
       -0.15556787 -0.28409562 0.06805075 -0.1254552
000060 dd ac 37 bc
       -0.011210647

linear2.bias f4 [5]
000000 f0 17 31 bd a8 c6 0a 3e 06 3d 12 be 95 06 b1 bd
       -0.04323572 0.13552344 -0.14281091 -0.086438335
000010 e2 4e 88 be
       -0.26622683

linear3.weight f4 [3, 17]
000000 69 76 57 3d 31 75 39 3d 43 b7 07 3e 01 22 cf 3d
       0.05260316 0.045277778 0.13253503 0.101139076
000010 22 83 1a 3d 68 00 48 bd 90 50 ab bc 77 f7 fc bd
       0.037722714 -0.048828512 -0.020912439 -0.12351888
000020 38 9b 42 3e 95 9c 42 be d3 78 4c 3e 48 56 03 be
       0.19004524 -0.19005044 0.19967966 -0.12825882
000030 5c fc 14 be 4b 74 b7 bb f2 75 b1 bd 06 7d 31 be
       -0.14549392 -0.00559858 -0.086650744 -0.17332849
000040 95 a1 62 bd 8a d3 d8 3d c1 5b 44 3d 7c 2e 1e 3e
       -0.055329878 0.10587223 0.047939066 0.1544742
000050 19 d4 98 3d 4b 1a a7 bd 78 be 3f be 8b 92 ef bd
       0.074623294 -0.08159312 -0.18725002 -0.11697873
000060 ce 8b 1c be 14 a4 84 3d 0e f6 96 bd 76 63 36 be
       -0.15287706 0.06476608 -0.0737115 -0.17811379
000070 07 b4 16 3e 46 6c 66 be aa 5b d7 bd be 5e e1 3d
       0.14717112 -0.2250224 -0.105155304 0.11004399
000080 62 70 c0 3d 57 0d 11 3e ab b7 45 3e e7 ae bc bd
       0.09396435 0.14165245 0.19308345 -0.092130475
000090 50 b1 a7 bc e6 76 e9 bd 1d a2 40 be 50 19 50 3e
       -0.020470291 -0.11399631 -0.18811841 0.20322156
0000a0 7f 50 9d 3c 22 2f 1e be 6a c2 73 3e 16 bd 07 be
       0.019203423 -0.15447667 0.23804632 -0.13255724
0000b0 3a ac 68 be af 97 a2 3d b2 89 42 3e 68 b2 fe bd
       -0.22721949 0.079390876 0.18997839 -0.12436372
0000c0 43 20 08 3e 91 ca df bd 28 ee 53 bd
       0.13293557 -0.10927308 -0.051740795

linear3.bias f4 [3]
000000 2b d8 f4 3d 8c 4a ab 3d ca 5e 19 3e
       0.11955293 0.08363828 0.14977565

linear4.weight f4 [3, 17]
000000 b7 3d b5 bd 4d 66 13 3e a9 ad ab 3d 1f 64 b6 bd
       -0.08849662 0.14394493 0.083827324 -0.08905815
000010 ae 14 07 be ae 12 06 3b 4c 3a b3 3d 8b 36 51 be
       -0.13191482 0.0020457911 0.087513536 -0.20430963
000020 90 8e 52 be d1 9b 2d 3e 3a 11 4e bc b4 9b 37 be
       -0.20562196 0.1695397 -0.012577349 -0.1793049
000030 75 e6 71 3e e7 8c 50 3e ec 89 dc bd 77 95 57 3c
       0.23623069 0.2036625 -0.10768494 0.013158194
000040 3c 97 07 be 30 bc 36 bd 2e f9 82 3d c8 52 04 3e
       -0.13241285 -0.044613063 0.063951835 0.12922204
000050 6b f7 13 3e aa 68 1d 3d 1f 4b 49 be b2 c4 6d be
       0.14449851 0.038429894 -0.19657563 -0.23219565
000060 7e c2 45 3d b7 1d e3 3d aa 40 28 be 56 3c a6 bb
       0.048281185 0.11089652 -0.16430917 -0.0050731106
000070 86 17 6d be 95 81 a2 3d 80 f0 8e 3d 7c 12 82 be
       -0.23153505 0.07934872 0.069794655 -0.25404727
000080 e7 ec 83 bd 3c a0 51 be 5d 86 42 bd 43 e8 41 3c
       -0.0644167 -0.20471281 -0.04749142 0.011835161
000090 e3 dc 87 3d c4 28 0e 3c bf c1 ea 3c 73 29 5a 3e
       0.06633928 0.0086767115 0.028656838 0.21304874
0000a0 2a 76 5d be 8b d8 f8 3d e5 ed c0 bc 1b 34 9f 3b
       -0.21627107 0.12150677 -0.023550937 0.0048585064
0000b0 a4 9a 2a 3e b7 a7 68 be a3 3e bb 3d 11 1f ed 3d
       0.16660553 -0.22720228 0.091428064 0.11578191
0000c0 74 6d 51 bd cd d6 03 3d ca 07 2f 3e
       -0.051129773 0.032187272 0.17092815

linear4.bias f4 [3]
000000 eb c6 37 be 12 1a 34 3e 5c 22 32 be
       -0.17946975 0.1758807 -0.1739592
