models/critic_3_2000_q_net_1.pt (torch, 16290 bytes, 24 tensors)

conv_net.0.weight f4 [3, 1, 3, 3]
0	0x3ebc41c2	0.3676892
1	0xbca21aab	-0.019788107
2	0xbe69d93f	-0.22836779
3	0x3e91bab8	0.28462768
4	0xbd0a2dcd	-0.033735085
5	0x3e87270f	0.26396987
6	0xbd690a47	-0.056894567
7	0x3d77f74a	0.060538568
8	0xbe01b75f	-0.12667607
9	0x3e9c31ec	0.30506837
10	0x3dbcf387	0.09226137
11	0x3e93d1a9	0.28870896
12	0x3e82eb0e	0.25569957
13	0x3e8324a6	0.25613898
14	0x3e67f036	0.22650227
15	0x3e9be02a	0.3044446
16	0xbd932f0e	-0.07186709
17	0xbe64fec1	-0.22362806
18	0xbe0fff18	-0.14062154
19	0xbea5bd32	-0.32370907
20	0xbbe9eb0a	-0.0071386145
21	0xbe8b74fa	-0.27237684
22	0xbe472d0e	-0.19450781
23	0xbdb4f8ee	-0.08836542
24	0x3dc8c166	0.09802513
25	0xbd165e0c	-0.036710784
26	0xbb3d1da6	-0.0028856783

conv_net.0.bias f4 [3]
0	0xbe5a4bef	-0.21318029
1	0x3e2537c5	0.16134556
2	0xbe6b66f4	-0.22988492

conv_net.1.weight f4 [3]
0	0x3f60a316	0.8774885
1	0x3f853bb1	1.0408841
2	0x3f84336e	1.0328195

conv_net.1.bias f4 [3]
0	0xbe0c2df4	-0.13689405
1	0x3d8fe0ad	0.070252754
2	0x3e988a8d	0.29793206

conv_net.1.running_mean f4 [3]
0	0x3e7c134a	0.24616733
1	0x3fb82250	1.4385471
2	0xbf8af648	-1.0856409

conv_net.1.running_var f4 [3]
0	0x3ccb2f1e	0.02480274
1	0x3d8ea2c3	0.06964638
2	0x3d1675ec	0.036733553

conv_net.4.weight f4 [6, 3, 3, 3]
0	0x3dd11407	0.10208898
1	0x3e063d6b	0.13109367
2	0xbb2cb806	-0.0026354804
3	0x3de31de4	0.110896856
4	0x3e13e737	0.1444367
5	0x3e5bdb34	0.21470338
6	0x3d74329c	0.059618577
7	0x3e22467b	0.15847199
8	0xbd009f74	-0.031402066
9	0xbe13302a	-0.14373842
10	0xbe895476	-0.2682225
11	0xbba3d5e2	-0.004999862
12	0x3e24c1ce	0.16089556
13	0xbd7d0a7b	-0.061777573
14	0xbdf5904d	-0.11990414
15	0x3de0a371	0.10968674
16	0xbe8f36f1	-0.27971604
17	0xbe2f4853	-0.17117433
18	0xbe00bf60	-0.12573004
19	0x3deb4496	0.11487691
20	0x3d8882a8	0.06665546
21	0xbdd78adf	-0.105245344
22	0xbd1df624	-0.038564816
23	0xbcff7be7	-0.03118701
24	0xbd484119	-0.048890207
25	0x3e5864ed	0.2113225
26	0x3e395606	0.18099222
27	0xbe4ed1ed	-0.20197268
28	0x3e3e9687	0.18612109
29	0xbde6e90c	-0.11274919
30	0xbdf2c3e4	-0.118537694
31	0xbdab79bc	-0.08372828
32	0x3ce7cb2b	0.02829512
33	0xbdc86671	-0.09785164
34	0xbd8cdb69	-0.06877787
35	0x3e06f2d9	0.13178577
36	0xbd17279c	-0.03690301
37	0xbdf51c26	-0.119682595
38	0xbe39c40a	-0.18141189
39	0x3ce6eb1d	0.028188283
40	0xbcf4d810	-0.029888183
41	0xbcf0b1ee	-0.029381718
42	0x3e10caac	0.14139813
43	0xbe94c003	-0.29052743
44	0xbe04f26a	-0.12983099
45	0x3dd34328	0.103155434
46	0x3e58071c	0.21096462
47	0x3e03b8d7	0.1286348
48	0x3e27820d	0.16358204
49	0x3cf19a89	0.029492633
50	0xbdcf2886	-0.10115151
51	0x3da28125	0.079347886
52	0x3e8e14f0	0.2775035
53	0x3e4f1a53	0.20224886
54	0xbdb86b80	-0.09004879
55	0x3e1acc46	0.15116987
56	0xbe150819	-0.1455387
57	0xbd063344	-0.032763734
58	0xbda9bad6	-0.08287589
59	0xbe8c96c3	-0.27458772
60	0xbe2918b7	-0.16513334
61	0xbdc7d420	-0.097572565
62	0xbdc9a889	-0.09846599
63	0x3d3ca44f	0.046055134
64	0xbcb1fb61	-0.021726312
65	0x3d6b44e3	0.057438742
66	0xbe08540a	-0.13313308
67	0x3d26d87f	0.04073381
68	0xbd859c80	-0.06523991
69	0x3d67a455	0.056553204
70	0x3dea5e1c	0.11443731
71	0xbd85a8dd	-0.06526349
72	0x3d44baf1	0.048029844
73	0xbd90657b	-0.07050606
74	0xbd9f0dd8	-0.07766312
75	0xbe390fab	-0.18072383
76	0x3cad3e86	0.021147978
77	0xbe3ee0dc	-0.18640465
78	0xbe8b8a2b	-0.2725385
79	0xbdf17711	-0.11790288
80	0xbdd83994	-0.10557857
81	0x3e55559d	0.2083344
82	0xbd8d16e5	-0.068891324
83	0xbda3736d	-0.07981
84	0x3d92a54c	0.07160434
85	0xbdaa4693	-0.08314242
86	0xbe1f745a	-0.15571728
87	0x3c824565	0.01590223
88	0x3cb3c9d9	0.021946834
89	0x3d296bff	0.04136276
90	0x3d864ae4	0.06557253
91	0xbee5d0f1	-0.44885972
92	0x3dc55b67	0.09636574
93	0xbd937f80	-0.07202053
94	0xbe89b174	-0.26893198
95	0x3d126126	0.03573718
96	0xbdd81a6d	-0.10551915
97	0xbea82e22	-0.32847697
98	0xbe244c86	-0.16044816
99	0xbdebad54	-0.11507669
100	0x3dea7f8c	0.11450109
101	0x3e0fe42c	0.14051884
102	0x3dc5640c	0.09638223
103	0xbd89c583	-0.067271255
104	0x3dd3c61a	0.10340519
105	0xbd78fc9e	-0.06078779
106	0xbe02b691	-0.12764956
107	0xbe181266	-0.14850768
108	0xbd889233	-0.0666851
109	0x3c846713	0.01616243
110	0xbe21acb9	-0.15788545
111	0xbc002329	-0.007820883
112	0xbe05e582	-0.13075832
113	0xbe494816	-0.19656405
114	0x3d73ad5c	0.0594915
115	0xbc7deb42	-0.015497984
116	0xbd70f84f	-0.058830556
117	0x3dedc643	0.11610081
118	0x3d74abb3	0.059734058
119	0x3da50fa5	0.080596246
120	0xbe133466	-0.14375457
121	0xbd3f012e	-0.046631984
122	0x3dcdd7b9	0.100509115
123	0x3d8f9a76	0.07011883
124	0x3e189cc1	0.14903547
125	0xbe1fca15	-0.15604432
126	0xbdbe64c9	-0.09296567
127	0xbe128d47	-0.14311706
128	0xbe752d47	-0.23943053
129	0xbe5bca57	-0.21463905
130	0xbdb0963c	-0.08622405
131	0x3bbf1cd9	0.0058322963
132	0xbddfd72d	-0.109297134
133	0xbe11cb79	-0.14237775
134	0xbea17bfe	-0.3153991
135	0xbe4e55ea	-0.20149961
136	0x3dd1443f	0.10218095
137	0x3e5ad7cf	0.21371387
138	0xbe0b54b6	-0.13606533
139	0xbd963b9f	-0.073355906
140	0x3cccf713	0.025020158
141	0x3cb9287a	0.022602309
142	0x3c64d17f	0.013965963
143	0xbe431c96	-0.19053873
144	0x3d98f9a6	0.07469492
145	0x3e52a419	0.20570411
146	0x3d933306	0.07187466
147	0xbe07c077	-0.13257013
148	0x3e5ade4a	0.21373859
149	0xbd21c9ff	-0.03949928
150	0x3dc92a0a	0.098224714
151	0x3e4a3b87	0.1974927
152	0x3c8c6e8e	0.01714256
153	0x3d7bae36	0.061445437
154	0x3d70f520	0.05882752
155	0xbdbb4dec	-0.09145722
156	0xbe97088e	-0.29498714
157	0x3d7364b3	0.059422206
158	0x3e5224c8	0.20521843
159	0xbe4cd15f	-0.20001744
160	0xbe660bc3	-0.22465424
161	0x3d89bc08	0.06725317

conv_net.4.bias f4 [6]
0	0x3c6c9308	0.014439352
1	0x3d1bb0a0	0.03801024
2	0xbe199363	-0.1499763
3	0x3e362965	0.17789228
4	0x3d7c87c2	0.061652906
5	0xbd7a2269	-0.061067972

conv_net.5.weight f4 [6]
0	0x3f5e2d42	0.8678781
1	0x3f60cf19	0.87816006
2	0x3f93245c	1.1495471
3	0x3f551fe8	0.8325181
4	0x3fa76968	1.3079042
5	0x3f67b5ae	0.90511596

conv_net.5.bias f4 [6]
0	0x3b5e6ce3	0.0033939413
1	0x3e653b72	0.22385958
2	0x3dc1379e	0.09434436
3	0xbd9cab5d	-0.076498725
4	0xbddceb81	-0.10787106
5	0x3da35ef1	0.07977093

conv_net.5.running_mean f4 [6]
0	0xbd865dce	-0.065608606
1	0x3e3f8249	0.18702044
2	0xbf347aab	-0.70499676
3	0xbec9a413	-0.3938299
4	0xbf093a37	-0.53604454
5	0x3d6a3435	0.057178695

conv_net.5.running_var f4 [6]
0	0x3e0916e6	0.13387641
1	0x3e932d7a	0.28745633
2	0x3e39ba43	0.1813746
3	0x3d1cb370	0.038257062
4	0x3eb32c7b	0.34994873
5	0x3e108298	0.14112318

conv_net.8.weight f4 [6, 6, 3, 3]
0	0xbda36a2e	-0.079792365
1	0xbd299f7b	-0.041411858
2	0x3e2a6a56	0.16642126
3	0x3c5cbf8e	0.013473405
4	0xbd91de7f	-0.07122516
5	0x3dd59854	0.10429445
6	0x3ce2936b	0.027658185
7	0x3deaa964	0.1145809
8	0x3cf1d58b	0.02952077
9	0xbca457b4	-0.020061351
10	0x3cb86403	0.022508627
11	0x3ded598f	0.115893476
12	0x3dcb7d22	0.099359766
13	0xbd85222f	-0.06500661
14	0x3d23df6c	0.040007994
15	0x3daf8f6e	0.08572279
16	0xbcbf1c9c	-0.023329072
17	0x3e066bf6	0.13127121
18	0x3d5b9d63	0.053616893
19	0x3de16c38	0.11006969
20	0x3dec1310	0.115270734
21	0xbdd6b4ad	-0.1048368
22	0xbb8c50d0	-0.0042820945
23	0xbe13a4fb	-0.14418404
24	0x3bb968ec	0.0056582596
25	0xbe54c18f	-0.20776962
26	0xbd8e75c0	-0.06956053
27	0x3d539a1a	0.051660635
28	0x3d62cd6e	0.055371694
29	0x3d85f523	0.06540897
30	0x3de024df	0.109445326
31	0xbd9a3711	-0.07530034
32	0xbdc0cd7e	-0.094141945
33	0xbd6f5c30	-0.058437526
34	0xbd5ffbc6	-0.05468347
35	0x3db6f81d	0.089340426
36	0xbd7e19b9	-0.06203625
37	0x3d1a7b46	0.03771522
38	0xbd0d8f21	-0.034560326
39	0xbe133d53	-0.14378862
40	0xbe65740b	-0.22407548
41	0xbe84a373	-0.25905952
42	0xbe7907d7	-0.24319397
43	0xbec60f66	-0.38683623
44	0xbe0eccd7	-0.13945328
45	0xbc98ad77	-0.018637402
46	0x3ca7071b	0.02038913
47	0xbe0a3175	-0.13495429
48	0xbd8b890a	-0.068132475
49	0x3e1fa16a	0.15588918
50	0xbd0e2190	-0.034699976
51	0x3d83807d	0.064209916
52	0xbddd58e1	-0.10807968
53	0x3b0c6ba5	0.0021426466
54	0xbc16e302	-0.009209396
55	0xbc9d01b6	-0.019165855
56	0x3d845529	0.064615555
57	0xbdd994c6	-0.106240794
58	0x3c35f849	0.011106559
59	0x3d600037	0.054687705
60	0x3d9bfc2f	0.076164596
61	0xbd7b0d30	-0.061291873
62	0x3ddf240a	0.10895546
63	0x3c6c291f	0.014414101
64	0x3bd593e6	0.006517875
65	0x3c8645b6	0.016390663
66	0xbd2b04b3	-0.04175253
67	0x3dbe3bd5	0.09288756
68	0x3da00e1d	0.07815192
69	0x3ddff86d	0.10936055
70	0x3bc2e665	0.0059478753
71	0x3d374b07	0.044749286
72	0x3d431615	0.04762848
73	0xbe4ea477	-0.20179926
74	0xbe4a2fb5	-0.19744761
75	0x3daa489b	0.0831463
76	0x3cb9c5f6	0.022677403
77	0x3dc5b4f2	0.09653653
78	0x3dc486a3	0.095959924
79	0xbd896969	-0.067095585
80	0xbde6ab81	-0.112631805
81	0x3c2ccc68	0.010546781
82	0x3e132a8a	0.14371696
83	0x3d0d8656	0.03455194
84	0x3d1d9fbe	0.03848242
85	0xbddf45ea	-0.10902007
86	0x3deb1fca	0.11480673
87	0x3d5749d3	0.05256064
88	0xbd36e697	-0.0446535
89	0xbdcbb705	-0.099470176
90	0xbd23dc0b	-0.04000477
91	0xbefdb7ff	-0.4955444
92	0xbec26491	-0.3796735
93	0xbdcaa0c3	-0.09893944
94	0x3d0e0532	0.034672923
95	0x3e249f2f	0.16076349
96	0xbd8cdfe6	-0.06878643
97	0x3d27ad21	0.040936593
98	0x3d570e83	0.052504074
99	0x3dbc38f7	0.09190553
100	0xbd2c8077	-0.0421147
101	0x3df92b6a	0.12166484
102	0xbd4a91e0	-0.049455523
103	0xbcf3cb51	-0.029760035
104	0x3c888b0f	0.01666787
105	0x3d716e70	0.058943212
106	0xbe2285e6	-0.1587139
107	0xbdc83f5b	-0.09777709
108	0x3cd30b9c	0.025762372
109	0xbd251713	-0.04030521
110	0x3ccbbabb	0.024869313
111	0xbdef38ef	-0.11680781
112	0xbc08dbfd	-0.008353231
113	0x3d45c229	0.04828087
114	0xbcb7da0d	-0.022442842
115	0xbbfeae84	-0.0077722687
116	0x3dbde741	0.09272624
117	0x3d9c5bf7	0.076347284
118	0xbd32cf9f	-0.043655034
119	0x3dcede09	0.101009436
120	0xbba31266	-0.0049765585
121	0x3d024cd5	0.031811554
122	0x3cefec55	0.029287497
123	0x3d0eeade	0.034891956
124	0x3d742a53	0.059610676
125	0x3d523eda	0.05132947
126	0xbdaf7105	-0.08566479
127	0xbd007155	-0.03135808
128	0xbd5ef3c0	-0.054431677
129	0x3daf65dc	0.0856435
130	0x3e584ee3	0.21123843
131	0x3e40a021	0.18811084
132	0x3e2615c2	0.16219237
133	0xbe850029	-0.25976685
134	0xbe9c3652	-0.30510193
135	0x3ddc7e2f	0.10766255
136	0x3d268b65	0.04066028
137	0x3dec57c6	0.11540179
138	0x3dbdeaf2	0.09273328
139	0xbc137fc2	-0.009002628
140	0xbd45206a	-0.048126616
141	0xbd2ded02	-0.042462356
142	0x3caeca62	0.021336738
143	0x3c8e6e6a	0.017386634
144	0xbd4e46df	-0.050360557
145	0x3c0015a3	0.007817659
146	0xb9f09b89	-0.0004589225
147	0x3d62b6e4	0.0553502
148	0x3dde2819	0.10847492
149	0x3dea06f8	0.114271104
150	0xbbdd3b8b	-0.006751483
151	0xbee00cb7	-0.437597
152	0xbeba71a3	-0.36414823
153	0x3babd926	0.005244392
154	0x3d849356	0.064734146
155	0x3c84c3f7	0.016206725
156	0x3d7c01d3	0.061525177
157	0xbced3099	-0.028953837
158	0x3dd9446e	0.10608755
159	0xbd8623f5	-0.06549827
160	0xbc06eb13	-0.008234757
161	0x3d24f097	0.040268507
162	0xbdb7a477	-0.08966916
163	0xbdb2cb6e	-0.087302074
164	0x3d6cc909	0.05780891
165	0x3cab56fd	0.020915503
166	0xbd2ae75a	-0.04172454
167	0x3d946927	0.07246619
168	0x3d1a0814	0.03760536
169	0xbda25eac	-0.079282135
170	0x3dd51ce0	0.10405898
171	0x3d00febc	0.031492934
172	0xbd3ce195	-0.04611357
173	0x3d81b469	0.06333239
174	0xbc4f878b	-0.012666593
175	0x3cb93c4a	0.022611756
176	0x3d94d507	0.07267194
177	0x3dfa5e4f	0.12225019
178	0xbd7d6823	-0.06186689
179	0x3d2c3ec7	0.042052057
180	0xbd8339bd	-0.06407497
181	0xbde47956	-0.111559555
182	0x3d303156	0.0430158
183	0xbdb21df2	-0.08697118
184	0xbe01beea	-0.12670484
185	0xbcd3abe6	-0.025838803
186	0x3e30936f	0.17243741
187	0x3dedefdf	0.116180174
188	0x3d87aaa7	0.06624346
189	0x3d8494ee	0.064737186
190	0x3de03ed8	0.109494865
191	0x3de4b926	0.11168127
192	0x3da89815	0.08232132
193	0xbd04734d	-0.032336522
194	0x3d77b7cb	0.060478013
195	0x3cef4700	0.02920866
196	0x3d1e9c05	0.03872301
197	0xbdf99d47	-0.121882014
198	0xbd07755f	-0.03307092
199	0x3c7da8fd	0.0154821845
200	0xbc7b2199	-0.0153278345
201	0xbe7cbbc9	-0.2468101
202	0xbf2d3fe8	-0.6767564
203	0xbea7c65a	-0.32768518
204	0xbdc555d5	-0.09635512
205	0x3d62c6e0	0.055365443
206	0xbcb7e934	-0.022450067
207	0x3d7662e2	0.060152896
208	0xbd1ff792	-0.03905446
209	0x3ca5665d	0.020190412
210	0x3d847e68	0.064694226
211	0xbd89f47b	-0.06736084
212	0x3db229a1	0.08699346
213	0xbcc251fd	-0.023720736
214	0x3cadf4d8	0.021234915
215	0xbdcf9a78	-0.101368845
216	0xbe58c4e1	-0.21168853
217	0xbe05937e	-0.13044545
218	0xbe4f5b06	-0.20249566
219	0x3e34d041	0.17657568
220	0xbd90cec7	-0.0707069
221	0x3e18ef3d	0.14935012
222	0x3d6d8531	0.05798835
223	0x3dddf7bf	0.108382694
224	0xbd57cf54	-0.052687958
225	0xbe003cf8	-0.12523258
226	0x3d22315e	0.03959786
227	0xbe28fda4	-0.16503006
228	0x3de797a3	0.11308219
229	0x3df06830	0.11738622
230	0x3d77252b	0.06033818
231	0x3e09356e	0.13399288
232	0xbcb0d22d	-0.021584595
233	0x3dd4cf7e	0.103911385
234	0x3e4b3c4f	0.19847225
235	0x3e948956	0.2901103
236	0x3df9fc8f	0.12206375
237	0x3daa382e	0.08311497
238	0x3cee21ff	0.029068945
239	0xbe116eac	-0.14202374
240	0xbe0a8238	-0.13526237
241	0xbc3915b5	-0.011296679
242	0xbe0c0098	-0.13672101
243	0x3d0ad551	0.03389484
244	0xbc8c333b	-0.017114272
245	0xbd550786	-0.052009128
246	0x3e487aa1	0.19578029
247	0x3ddf2630	0.108959556
248	0xbd490137	-0.049073424
249	0x3d2b7e50	0.041868508
250	0xbd0037d4	-0.03130324
251	0x3cef1ef8	0.029189572
252	0xbd8b8b0f	-0.06813633
253	0xbc92af78	-0.017905936
254	0xbd6b9126	-0.05751147
255	0xbc31df66	-0.010856485

conv_net.8.bias f4 [6]
0	0x3d6e8388	0.058230907
1	0x3d15f0b7	0.036606517
2	0x3c81359f	0.015772639
3	0x3c172c36	0.009226849
4	0x3cf275d1	0.029597195
5	0x3d71db0a	0.059046783

conv_net.9.weight f4 [6]
0	0x3ff6f148	1.9292383
1	0x3ffb83fc	1.9649653
2	0x40003444	2.00319
3	0x3ffa1e10	1.9540424
4	0x3ff48da3	1.9105724
5	0x3ff93ed5	1.94723

conv_net.9.bias f4 [6]
0	0x3f83f559	1.0309249
1	0x3f87960d	1.0592667
2	0x3f87c056	1.0605571
3	0x3f893e73	1.0722183
4	0x3f886655	1.0656229
5	0x3f87dc11	1.0614034

conv_net.9.running_mean f4 [6]
0	0xbee19f92	-0.44067055
1	0xbe85c4a6	-0.26126593
2	0x3cbf5ba5	0.02335913
3	0xbebc5945	-0.36786857
4	0xbd945d06	-0.07244305
5	0xbed4baec	-0.4154886

conv_net.9.running_var f4 [6]
0	0x3f60b6bf	0.8777885
1	0x3ee2c37a	0.44289762
2	0x3e91be77	0.28465626
3	0x3f23d4c4	0.6399653
4	0x3ec183b0	0.37795782
5	0x3f56217e	0.83644855

linear1.weight f4 [12, 96]
0	0x3f502f15	0.8132184
1	0x3f2ee31d	0.683153
2	0x3f5688f7	0.8380274
3	0x3f621496	0.8831266
4	0x3f50f79f	0.8162784
5	0x3f49c8c4	0.7882197
6	0x3f1c72f2	0.6111289
7	0x3f393887	0.7235188
8	0x3f347b78	0.705009
9	0x3f1e1a58	0.6175895
10	0x3f231e6c	0.63718295
11	0x3f48f512	0.7849895
12	0x3f578967	0.84194034
13	0x3f65c9c6	0.89761007
14	0x3f469022	0.7756368
15	0x3f4bceb3	0.7961227
16	0x3f83c03c	1.029304
17	0x3f6f654c	0.9351394
18	0x3f6ecfaf	0.9328565
19	0x3f548716	0.83018625
20	0x3f536db6	0.8258928
21	0x3f298a8a	0.6622702
22	0x3f47e9bb	0.7809102
23	0x3f3c1ec4	0.73484445
24	0x3f48dd02	0.7846223
25	0x3f250951	0.6446734
26	0x3f1ca4cd	0.61188966
27	0x3f3da1f3	0.7407524
28	0x3f3f9249	0.7483259
29	0x3f3001f8	0.68753004
30	0x3f568c16	0.83807504
31	0x3f5f2905	0.87171966
32	0x3f6ca82e	0.9244412
33	0x3f2da913	0.6783611
34	0x3f32ed11	0.69892985
35	0x3f6c0567	0.92195743
36	0x3f3c5845	0.7357219
37	0x3f44d447	0.7688641
38	0x3f408b0b	0.7521216
39	0x3f516dc6	0.81808126
40	0x3f474513	0.77839774
41	0x3f3ceb94	0.73796964
42	0x3f2d54ad	0.6770733
43	0x3f3f914c	0.7483108
44	0x3f6118e7	0.8792862
45	0x3f672a5b	0.90299004
46	0x3f6b48af	0.9190778
47	0x3f828a1d	1.0198399
48	0x3f826d66	1.0189636
49	0x3f5e8d4d	0.8693436
50	0x3f4e7737	0.8065066
51	0x3f535db6	0.82564867
52	0x3f515d2e	0.81782806
53	0x3f2d98e4	0.6781142
54	0x3f3f4edd	0.7472971
55	0x3f255404	0.6458132
56	0x3f4469e8	0.767241
57	0x3f2f9ebc	0.68601584
58	0x3f3a6595	0.7281125
59	0x3f3e52f8	0.7434535
60	0x3f6135e5	0.8797286
61	0x3f567978	0.83779097
62	0x3f36e5fe	0.7144469
63	0x3f5706c1	0.8399468
64	0x3f2f49ea	0.6847216
65	0x3f24f79a	0.6444031
66	0x3f1df3c5	0.6170009
67	0x3f3f7cce	0.7479981
68	0x3f45a9f5	0.7721246
69	0x3f39dead	0.726054
70	0x3f42fa13	0.7616283
71	0x3f4de041	0.8042031
72	0x3f35b653	0.7098133
73	0x3f5224b4	0.82087255
74	0x3f541689	0.82846886
75	0x3f4a8552	0.7910968
76	0x3f86d8db	1.0534929
77	0x3f804210	1.0020161
78	0x3f537c76	0.8261179
79	0x3f5cf763	0.8631498
80	0x3f52b75f	0.8231105
81	0x3f5ebe1f	0.8700885
82	0x3f57af36	0.84251726
83	0x3f76c715	0.96397525
84	0x3f3b1999	0.73085934
85	0x3f41a6b5	0.75645
86	0x3f361ea9	0.71140534
87	0x3f26b8c1	0.6512566
88	0x3f289df6	0.6586603
89	0x3f336cf8	0.7008815
90	0x3f3b19ff	0.7308654
91	0x3f4576c4	0.77134347
92	0x3f5fc7bd	0.8741415
93	0x3f5ae421	0.8550435
94	0x3f575246	0.84109914
95	0x3f6232c8	0.88358736
96	0x3f58bf4c	0.84666896
97	0x3f304921	0.68861586
98	0x3f3a719a	0.7282959
99	0x3f494724	0.78624177
100	0x3f413c78	0.75482893
101	0x3f1f0db0	0.6213026
102	0x3f3445ca	0.7041899
103	0x3f320341	0.69536215
104	0x3f46922c	0.7756679
105	0x3f2021b4	0.62551427
106	0x3f2f7cf9	0.6855007
107	0x3f42a0dd	0.7602671
108	0x3f7ae672	0.9800788
109	0x3f6e8b38	0.9318118
110	0x3f431b0d	0.7621315
111	0x3f5e9e07	0.8695988
112	0x3f65148b	0.8948447
113	0x3f555ce4	0.83344865
114	0x3f67c3d3	0.9053318
115	0x3f5d0806	0.8634037
116	0x3f4bfab8	0.7967944
117	0x3f4c0f04	0.7971041
118	0x3f504296	0.813516
119	0x3f52ffde	0.8242167
120	0x3f399881	0.7249833
121	0x3f44836d	0.7676304
122	0x3f157a1a	0.5838944
123	0x3f574477	0.84088844
124	0x3f445594	0.7669308
125	0x3f4def07	0.8044285
126	0x3f48f146	0.78493154
127	0x3f68e1b9	0.90969425
128	0x3f497619	0.7869583
129	0x3f507add	0.81437474
130	0x3f2c8f66	0.6740631
131	0x3f5d3ad3	0.86417884
132	0x3f407655	0.7518056
133	0x3f39e5c5	0.72616225
134	0x3f4c002f	0.7968778
135	0x3f427c5e	0.7597102
136	0x3f21609e	0.6303805
137	0x3f27eb51	0.6559344
138	0x3f3c2a7d	0.7350233
139	0x3f5bdc15	0.85882694
140	0x3f8b7295	1.0894343
141	0x3f6942b4	0.91117406
142	0x3f7589bf	0.9591331
143	0x3f5f98ba	0.8734242
144	0x3f71a9f6	0.94399965
145	0x3f5598dd	0.83436376
146	0x3f661797	0.89879745
147	0x3f6de8ed	0.9293354
148	0x3f363a27	0.71182483
149	0x3f357f47	0.70897335
150	0x3f19feba	0.60154307
151	0x3f50064a	0.81259596
152	0x3f406479	0.7515331
153	0x3f1de90f	0.61683744
154	0x3f2ab1dd	0.6667765
155	0x3f5221d3	0.8208286
156	0x3f49a9cf	0.7877473
157	0x3f62dd0a	0.8861853
158	0x3f6bc9cd	0.921048
159	0x3f55c2a5	0.8350013
160	0x3f2f3353	0.6843769
161	0x3f28cf27	0.6594109
162	0x3f1b2ad7	0.60612243
163	0x3f387051	0.7204638
164	0x3f43fb39	0.7655521
165	0x3f44de57	0.76901764
166	0x3f390e06	0.72287023
167	0x3f2ff986	0.6874012
168	0x3f32c675	0.6983407
169	0x3f39b05d	0.72534734
170	0x3f3b0d37	0.7306704
171	0x3f670dbd	0.9025534
172	0x3f807ff3	1.0039047
173	0x3f684cef	0.9074239
174	0x3f7672c0	0.96268845
175	0x3f6d0fa7	0.9260201
176	0x3f603590	0.8758173
177	0x3f5a60c7	0.8530392
178	0x3f66d489	0.9016805
179	0x3f707a20	0.9393635
180	0x3f3bd358	0.7336936
181	0x3f40bef7	0.7529139
182	0x3f19aa55	0.6002553
183	0x3f4d271c	0.801378
184	0x3f3a400a	0.72753966
185	0x3f465340	0.7747078
186	0x3f40a1a2	0.7524663
187	0x3f5c62a5	0.8608802
188	0x3f4faad7	0.81120056
189	0x3f452d3c	0.7702215
190	0x3f4a4f53	0.7902729
191	0x3f5609ec	0.8360889
192	0xbd39eb64	-0.0453905
193	0xbd45d423	-0.048298012
194	0xbd83be1b	-0.06432744
195	0x3ccca986	0.024983179
196	0xbd917e5b	-0.071041785
197	0x3af0edcb	0.0018381415
198	0xbdcd87e1	-0.100356825
199	0xbdedff5e	-0.11620973
200	0x3dd289c4	0.10280183
201	0xbd0c89a0	-0.034310937
202	0x3cee480e	0.029087093
203	0x3b2f972b	0.0026792984
204	0x3c90c546	0.017672192
205	0xbc900da0	-0.017584622
206	0x3d778021	0.060424928
207	0xbd30f92c	-0.04320638
208	0xbc584847	-0.013200826
209	0x3d3d1da2	0.04617084
210	0xbd641cd3	-0.05569155
211	0x3d531b64	0.051539794
212	0xbd62ea68	-0.05539933
213	0xbd1c0719	-0.038092706
214	0xbd1472b4	-0.036242202
215	0xbdf66f10	-0.12032902
216	0xbcf0205f	-0.02931231
217	0xbbb1da24	-0.0054276157
218	0xbde76cec	-0.11300072
219	0xbce6ab2a	-0.02815779
220	0xbd5421b5	-0.051789958
221	0xbd307ee3	-0.04308976
222	0xbcf6ce8f	-0.030127792
223	0x3d949001	0.07254029
224	0xbd6eec18	-0.058330625
225	0x3d82290e	0.06355487
226	0x3c920cc3	0.01782835
227	0x3d319017	0.043350305
228	0x3d73e01d	0.059539903
229	0x3d34881a	0.04407511
230	0xbda6c626	-0.081432626
231	0xbd67e081	-0.056610588
232	0xbe154d1f	-0.145802
233	0xbd50a6fd	-0.050940502
234	0xbd89b175	-0.067233
235	0xbd29a33a	-0.04141543
236	0xbe19a72e	-0.1500518
237	0xbe066450	-0.13124204
238	0xbb96f3b8	-0.0046066903
239	0x3c5bdec9	0.013419815
240	0x3d05c297	0.03265628
241	0xbd28a7c0	-0.041175604
242	0xbd5c9d0f	-0.05386072
243	0xbdd7e92e	-0.10542522
244	0xbdef9cb1	-0.116998084
245	0x3c319188	0.01083792
246	0x3d2b82d0	0.0418728
247	0xbc65601f	-0.013999968
248	0xbdd259ab	-0.10271009
249	0x3d0627d0	0.032752812
250	0xbdd1164c	-0.10209331
251	0x3d11c8c3	0.035591852
252	0xbc67ce0c	-0.0141482465
253	0x3d98bfde	0.07458471
254	0x3caf7cea	0.021421868
255	0xbdd029f0	-0.10164249

linear1.bias f4 [12]
0	0x3f585c3c	0.8451574
1	0x3f25c1b1	0.64748675
2	0xbd327187	-0.0435653
3	0x3f261b2c	0.6488521
4	0x3f464c35	0.7746003
5	0x3f40198f	0.75039
6	0x3f3d58ab	0.7396342
7	0x3f641646	0.89096487
8	0x3f393516	0.7234663
9	0x3d90f168	0.070772946
10	0x3f4e01d8	0.80471563
11	0xbd334667	-0.043768313

linear2.weight f4 [9, 9]
0	0x3e7f1c2f	0.24913095
1	0x3e773324	0.24140602
2	0x3fadd133	1.3579468
3	0xbe66e744	-0.22549158
4	0xbf6cf661	-0.92563444
5	0x3e43940a	0.19099441
6	0xbebae661	-0.3650389
7	0x3f164451	0.5869799
8	0xbf13439a	-0.57525027
9	0x3f30531f	0.6887683
10	0xbe51db15	-0.2049373
11	0x3f995df3	1.1981796
12	0x3f28a7b6	0.65880907
13	0xbf46a3cb	-0.7759368
14	0xbd9d7675	-0.076886095
15	0x3f27dea9	0.6557413
16	0x3e9514d2	0.29117447
17	0x3e0fe5b6	0.14052472
18	0x3d921ff6	0.07135002
19	0x3f0e5d15	0.5561078
20	0x3fd04bf9	1.6273185
21	0xbe2b6b6e	-0.167402
22	0xbf74d619	-0.9563919
23	0x3f9de8e3	1.2336696
24	0x3eda73f7	0.426666
25	0x3f10be07	0.5653996
26	0x3f685a24	0.90762544
27	0xbe893b64	-0.26803124
28	0xbf6cba33	-0.9247162
29	0x3fb821b1	1.4385282
30	0xbf58498a	-0.8448721
31	0xbf28fc78	-0.66010237
32	0x3e2a7f6a	0.16650167
33	0xbd3aa6fb	-0.0455694
34	0xbf93b130	-1.1538448
35	0xbe896a88	-0.2683909
36	0xbecead1a	-0.4036644
37	0xbf0ea645	-0.5572246
38	0x3fd39e07	1.6532601
39	0xbf8deed6	-1.1088512
40	0xbf430889	-0.761849
41	0x3f357d6a	0.7089449
42	0xbf257184	-0.64626336
43	0xbec11baf	-0.37716433
44	0x3f74d0cd	0.95631105
45	0xbedd8200	-0.43263245
46	0xbe96ac33	-0.29428253
47	0x3fdd80e7	1.7304963
48	0xbf7942cf	-0.97367567
49	0xbf74ee16	-0.9567579
50	0x3f859e25	1.0438887
51	0xbf2c1df6	-0.67233217
52	0xbedaf68a	-0.4276622
53	0x3f6cf64c	0.9256332
54	0x3eb228b8	0.3479669
55	0xbefb670d	-0.4910206
56	0x3f9b7014	1.2143579
57	0x3f357578	0.7088237
58	0xbf2cd97d	-0.6751936
59	0x3f88dc66	1.069226
60	0x3f305755	0.6888326
61	0xbf289b03	-0.6586153
62	0x3d111902	0.03542424
63	0x3e3934f2	0.18086603
64	0x3ea0f376	0.31435746
65	0x3fb2c5a7	1.3966569
66	0x3eb06c4d	0.34457627
67	0xbf7921a5	-0.9731696
68	0x3e724393	0.2365859
69	0xbf04b116	-0.5183271
70	0x3f11bb63	0.56926554
71	0xbea41c51	-0.32052854
72	0xbf12c8c4	-0.57337594
73	0x3f59b4aa	0.85041296
74	0x3fabfc74	1.3436418
75	0xbfab0f0b	-1.3363966
76	0x3f33cf8e	0.7023858
77	0x3f2b9c38	0.67035246
78	0xbf878334	-1.0586915
79	0x3e8dba8a	0.2768138
80	0xbf004d50	-0.5011797

linear2.bias f4 [9]
0	0x3fde0725	1.734593
1	0x3f929cc8	1.1454096
2	0x3fa49fc1	1.2861253
3	0x3fe36eb1	1.7768155
4	0x3fcb0995	1.5862299
5	0x3f98570b	1.1901563
6	0x3f90822c	1.1289725
7	0x3fdcee6c	1.726026
8	0x3fb74a8f	1.4319628

linear3.weight f4 [3, 24]
0	0x3fa65016	1.299319
1	0x3f8622a7	1.0479325
2	0x3fab159e	1.3365972
3	0x3f95b46b	1.1695684
4	0x3faa3aef	1.3299235
5	0x3faefa73	1.3670181
6	0x3f91cfc4	1.139153
7	0x3f808698	1.0041075
8	0x3fa8d0e8	1.3188753
9	0x3f83484d	1.025644
10	0x3f6634a5	0.8992408
11	0xbd32ca80	-0.04365015
12	0x3f8312c5	1.0240103
13	0x3f6dca5d	0.92886907
14	0x3f824ec8	1.0180292
15	0x3f785a1c	0.97012496
16	0x3f6dbce9	0.9286638
17	0x3f6d9f68	0.9282136
18	0x3cef3fb6	0.029205184
19	0x3f8115ab	1.0084738
20	0xbe0214ab	-0.12703197
21	0x3db9c8d7	0.0907151
22	0x3e78f8c2	0.24313644
23	0xbd018c35	-0.031627852
24	0x3f8ca9ee	1.0989358
25	0x3f7ee374	0.99565816
26	0x3f957af8	1.1678152
27	0x3fb75b51	1.4324743
28	0x3fa1722b	1.2612966
29	0x3fb484ed	1.4103066
30	0x3f9ad424	1.209599
31	0x3f993835	1.1970278
32	0x3fad49ee	1.3538187
33	0x3f683653	0.9070789
34	0x3f8281a8	1.0195818
35	0x3dbfa832	0.093582526
36	0x3f8248bd	1.0178448
37	0x3f78fba0	0.9725895
38	0x3f854e5c	1.0414538
39	0x3f7813ad	0.9690502
40	0x3f6e6744	0.9312632
41	0x3f76025e	0.9609736
42	0xbe068641	-0.13137151
43	0x3f62435d	0.8838404
44	0xbd661974	-0.056176618
45	0x3e313ce9	0.17308392
46	0x3eb9ded5	0.3630282
47	0x3e8dc4e7	0.27689287
48	0x3f9430da	1.1577408
49	0x3f906f3c	1.1283946
50	0x3fa7d07c	1.3110499
51	0x3f9f243b	1.2432932
52	0x3fa52213	1.2901024
53	0x3fa7dd68	1.3114443
54	0x3fa765ba	1.307792
55	0x3fa33d30	1.2753048
56	0x3f8d6252	1.104563
57	0x3f85e4bf	1.0460433
58	0x3f810b10	1.0081501
59	0xbe0296e5	-0.12752874
60	0x3f70eda9	0.9411264
61	0x3f7495a7	0.9554085
62	0x3f7af50f	0.9803018
63	0x3f607f43	0.87694186
64	0x3f73214c	0.9497268
65	0x3f69ec85	0.91376525
66	0xbe2629c3	-0.16226868
67	0x3f81068e	1.0080125
68	0x3d1a33ef	0.037647184
69	0x3e150b31	0.1455505
70	0x3def0bc5	0.11672167
71	0xbcbe4b17	-0.023229165

linear3.bias f4 [3]
0	0x3f237cc7	0.6386227
1	0x3f311e2b	0.6918666
2	0x3f42050b	0.75788945
