models/critic_3_4500_q_net_1.pt (torch, 16290 bytes, 24 tensors)

conv_net.0.weight f4 [3, 1, 3, 3]
000000 e6 7f ca 3e 76 e0 44 bd d4 60 92 be 63 e5 9f 3e
       0.39550704 -0.048065625 -0.285895 0.31229696
000010 26 87 ab bb 7c cf 6c 3e 11 6a 80 bd 3e 68 0f 3d
       -0.005234617 0.23126024 -0.062702306 0.035011522
000020 d5 fa f2 bd 4c b2 97 3e 3c 24 44 3d bd 4e aa 3e
       -0.11864249 0.29628217 0.04788612 0.33263198
000030 8f db 91 3e 08 d7 91 3e 6d c4 ad 3e 2f 12 a5 3e
       0.28487822 0.28484368 0.33938923 0.32240435
000040 a4 cd 29 bd 33 82 5b be ae d3 19 be 8b 65 a0 be
       -0.04145588 -0.21436386 -0.15022156 -0.3132747
000050 6c 03 c6 3c 01 5a a9 be 2b 63 29 be 43 22 eb bd
       0.024171554 -0.3307648 -0.16541736 -0.11481144
000060 29 ff ae 3d 61 52 aa bd ac fd 24 bd
       0.08544762 -0.08316494 -0.040280983

conv_net.0.bias f4 [3]
000000 04 7f 09 bd e0 37 5b 3e 4c c3 70 be
       -0.033568397 0.21408033 -0.23512

conv_net.1.weight f4 [3]
000000 0d 1c 5e 3f db 51 86 3f 61 35 7e 3f
       0.8676155 1.049373 0.993002

conv_net.1.bias f4 [3]
000000 db 24 5b be 0e 6e f2 3d 4e 75 c9 3e
       -0.21400778 0.118373975 0.3934731

conv_net.1.running_mean f4 [3]
000000 45 d8 bd 3e 03 61 d6 3f 08 b0 99 bf
       0.37079063 1.6748356 -1.2006845

conv_net.1.running_var f4 [3]
000000 1a 67 e4 3c cf 74 b2 3d 83 2a 21 3d
       0.027881194 0.08713686 0.039347183

conv_net.4.weight f4 [6, 3, 3, 3]
000000 2f 4d fc 3d 9e 35 ff 3d f2 28 ce bc f2 83 f8 3d
       0.12319409 0.124613985 -0.025166009 0.121345416
000010 3b e7 2b 3e 76 85 6c 3e 53 fa f8 3d 7a e8 41 3e
       0.16787426 0.23097786 0.121571206 0.18936339
000020 3a 2c cc bc 9c fd c3 bd 5b f6 71 be f2 cd 2f 3d
       -0.024923433 -0.095698565 -0.23629133 0.042921014
000030 12 85 3c 3e 0c b8 ad bd 0b 4d 0b be 4d 8b b9 3d
       0.18410137 -0.0848237 -0.13603608 0.09059773
000040 1b ea a9 be b8 50 7b be 13 8d 0f be 14 75 43 3d
       -0.3318642 -0.2454251 -0.1401866 0.047719076
000050 5e 93 06 3d 8a 64 c6 bd 4c 67 9b bd 6e 68 15 bc
       0.032855384 -0.09687145 -0.07588062 -0.009119136
000060 23 db 89 3b 16 1f 41 3e 4f 68 89 3e 8a bb 29 be
       0.0042070313 0.18859515 0.26837394 -0.16575447
000070 b0 ae 1a 3e 21 6a bf bd 78 fe a8 bd 00 e0 c1 bd
       0.151057 -0.09346414 -0.08251661 -0.09466553
000080 d6 f2 6c 3d 73 b9 6b bd 00 dc 91 bd c3 44 2a 3e
       0.057848774 -0.057549905 -0.0712204 0.16627793
000090 9d 76 ef bc 04 89 e2 bd e7 17 1f be fa ee 10 3d
       -0.029231364 -0.1106129 -0.15536462 0.035384156
0000a0 c9 bb f6 bd 49 dc af bc 56 b4 02 3e e6 47 ae be
       -0.12047536 -0.021467345 0.12764105 -0.3403923
0000b0 31 1e 20 be b6 1d ed 3d c8 1d 3d 3e 87 f2 0e 3e
       -0.15636517 0.115779325 0.18468392 0.13959704
0000c0 45 c8 38 3e ff 77 57 3d 0a 8f 88 bd 16 ec 0a 3e
       0.18045147 0.05260467 -0.066679075 0.13566622
0000d0 43 d2 9b 3e f0 33 93 3e 2f ff c0 bc be 9c 75 3e
       0.30433854 0.28750563 -0.023559181 0.23985574
0000e0 d3 b6 ef bc 46 05 0c 3c 5c c7 25 bd 6e 47 50 be
       -0.029261982 0.008546179 -0.040473327 -0.20339748
0000f0 2d 47 74 be 11 84 35 be a2 15 29 be bf 2f af bc
       -0.23855276 -0.1772616 -0.16512159 -0.021385072
000100 e7 e8 98 bd de dc 11 3c 62 21 12 be 03 fb c0 3c
       -0.074662976 0.0089027565 -0.14270547 0.023557192
000110 0f 3a 0d bd b5 85 65 3d 7e 42 38 3e b0 c6 28 3d
       -0.034479197 0.056035716 0.17994115 0.04120511
000120 92 32 8d 3d 6e 8a 1c bd ac 46 0e bd 4b 7a 18 be
       0.06894411 -0.038217954 -0.034735367 -0.14890401
000130 bf c1 b1 bc de 90 0a be 71 27 9a be 6d 41 3c be
       -0.02169883 -0.13531825 -0.30108216 -0.18384333
000140 d1 1c 47 be 1b e7 6a 3e cf 47 e0 bd 63 14 c7 bd
       -0.19444586 0.22939722 -0.109511964 -0.09720685
000150 0e 78 79 3d a3 56 d6 bd 88 5f 05 be ab 25 71 3b
       0.06090551 -0.104657434 -0.13024724 0.0036796133
000160 dc c7 7e 3c b9 ae aa 3d 4c 29 03 3d 34 33 07 bf
       0.01555058 0.08334107 0.032021806 -0.52812505
000170 35 03 90 3d c3 ae 8b bd 87 49 a8 be 6e 90 a2 3c
       0.07031862 -0.068204425 -0.32868597 0.01984426
000180 8a 81 9f bd 67 fd a0 be b1 cc 45 be d7 40 d4 bd
       -0.077883795 -0.3144333 -0.19316365 -0.1036393
000190 3e f2 1f 3e d8 7b 30 3e ea 69 a2 3d ee f4 13 bd
       0.15619752 0.17234743 0.07930358 -0.036122255
0001a0 1e 4f 13 3e 70 54 ba bd b6 7d 0d be 15 38 d6 bd
       0.1438565 -0.090981364 -0.13817486 -0.104599155
0001b0 31 b3 a4 bd 57 4d e0 3b 55 f0 79 be b0 f7 c6 3a
       -0.080419905 0.006845157 -0.24408086 0.0015180018
0001c0 44 9f 02 be 6d be 6f be 36 4e 33 3d 39 a3 bc bb
       -0.12756068 -0.23412485 0.04377576 -0.0057567623
0001d0 6d a0 f6 bd 17 b0 0f 3e 89 72 a0 3d 08 ee 05 3e
       -0.120423175 0.14032017 0.07834346 0.13079083
0001e0 ed 0f e9 bd 6a 5b 2c bc 5b 56 14 3e 2e 0f f6 3d
       -0.11379991 -0.010519842 0.14486067 0.12014614
0001f0 5c 3d 56 3e bd dd bd bd b5 d7 b3 bd 45 71 27 be
       0.20921844 -0.09270809 -0.08781377 -0.16351803
000200 dd 48 3c be 55 59 4b be e7 44 e3 bd b5 37 af 3d
       -0.1838717 -0.19858296 -0.110971265 0.08555547
000210 7a 36 12 be fe 96 44 be b2 9a 99 be a7 57 4f be
       -0.14278594 -0.19198224 -0.30000836 -0.2024828
000220 8b ba 78 3d 96 5d 55 3e b4 d1 09 be 78 56 0e be
       0.060724776 0.20836481 -0.13458902 -0.13900173
000230 aa 0a 4d 3c a2 95 b1 bd 4b 06 83 bd 2b 52 6b be
       0.01251475 -0.08671118 -0.06397685 -0.22980563
000240 4c d0 6c 3d a1 38 43 3e fe 0f 9b 3d b7 c9 09 be
       0.057815835 0.19064571 0.0757141 -0.13455854
000250 fb bb 60 3e 65 76 6a bc ad f1 22 3e d9 ac 5f 3e
       0.21946709 -0.014310454 0.15912504 0.2184328
000260 c2 ef 96 3d 21 b2 96 3d 25 04 d4 3d 41 b2 2e bd
       0.07369949 0.07358194 0.10352353 -0.042650465
000270 98 56 8d be f6 b0 e1 3d 6b 1a 68 3e a9 64 92 be
       -0.27605128 0.11020081 0.22666328 -0.28592423
000280 d2 27 3c be 4f a9 33 3d
       -0.18374565 0.043862637

conv_net.4.bias f4 [6]
000000 b1 98 2e 3d ad 9e 8d 3b 44 01 07 be b5 95 46 3e
       0.042626087 0.004321894 -0.13184077 0.19393046
000010 04 05 00 3e 4a db 2b bb
       0.12501913 -0.0026223236

conv_net.5.weight f4 [6]
000000 18 e7 4c 3f ce 85 5e 3f db b4 98 3f f3 3c 42 3f
       0.8004012 0.8692292 1.1930193 0.7587425
000010 46 d7 ab 3f 52 5c 5c 3f
       1.3425071 0.8607837

conv_net.5.bias f4 [6]
000000 4e 47 8c 3d 81 56 58 3e f0 1f d7 3d b8 e4 c1 bd
       0.06849538 0.21126749 0.105041385 -0.09467453
000010 3a d2 57 be 51 48 06 3d
       -0.21076289 0.03278381

conv_net.5.running_mean f4 [6]
000000 c0 a8 04 be 74 7a 66 3e 64 52 23 bf 85 a5 ef be
       -0.12954998 0.2250765 -0.63797593 -0.4680597
000010 13 8a 8a be 18 13 77 3e
       -0.27058467 0.24128377

conv_net.5.running_var f4 [6]
000000 c4 ae 34 3e 93 99 eb 3e c6 9a 6f 3e 35 90 b5 3d
       0.17644793 0.46015605 0.23398885 0.08865396
000010 a2 e9 e9 3e 36 3d 2d 3e
       0.4568606 0.16917881

conv_net.8.weight f4 [6, 6, 3, 3]
000000 b1 d3 28 bd d3 c4 42 3c f9 45 66 3e 6f 24 62 bb
       -0.04121751 0.011887747 0.2248763 -0.003450658
000010 25 6b ae bd bb 4d c3 3d a7 46 80 3d ed 7c 2b 3e
       -0.0851653 0.0953631 0.06263476 0.16746874
000020 1a f5 4c 3d 10 ed b1 3c 66 be 58 3d 44 48 0e 3e
       0.050038435 0.021719486 0.052915953 0.13894755
000030 b8 0c fd 3d ed 7d 36 bd 3f 98 88 3d 4b 7e 00 3e
       0.123559415 -0.044553686 0.06669664 0.12548177
000040 f6 50 da bb ac 8e 0d 3e 2c 60 75 3d 99 12 03 3e
       -0.0066624833 0.13823956 0.05990617 0.12800063
000050 86 07 f5 3d 79 3a 80 bd b1 b6 e3 3c 49 85 e3 bd
       0.119643256 -0.06261153 0.027797075 -0.111094065
000060 9a 59 79 bd 3a 8a a9 be fe 21 0b be 8e 91 98 3d
       -0.060876466 -0.3311327 -0.13587186 0.07449637
000070 a8 e8 b0 3d 44 c0 b8 3d 80 da bc 3d 8a f4 5a bd
       0.08638126 0.09021047 0.09221363 -0.053455867
000080 5f 40 9d bd 9a 0f 9b bd 1e a0 2f bd 61 f7 ab 3d
       -0.076782934 -0.07571335 -0.04287731 0.08396793
000090 3f 9b 8a bd dd 2b 36 3d c5 6f 2b bd 51 95 a3 bd
       -0.06767892 0.044475425 -0.04185464 -0.07987464
0000a0 1b 0d 39 be d8 c8 65 be 6b 74 91 be 49 2a fa be
       -0.18071406 -0.22439897 -0.28409132 -0.48860386
0000b0 e3 46 46 be 8e fe 1e 3c ad 49 95 3c e6 b8 1a be
       -0.19362979 0.009704245 0.018223608 -0.15109596
0000c0 97 89 2f bd 24 e1 37 3e 6c c3 05 bc 72 96 ab 3d
       -0.042855825 0.17956978 -0.008164268 0.083783045
0000d0 c3 46 02 be c4 f3 48 bd 12 1d f7 3c 67 2a 10 3d
       -0.12722306 -0.049060598 0.030165229 0.035196688
0000e0 a1 18 d2 3d ff b9 c2 bd 07 97 ad 3c 2f 11 8b 3d
       0.10258604 -0.09508132 0.02119018 0.06790387
0000f0 9a 1c a5 3d b0 c7 78 bd e0 fa bc 3d a2 b1 ab 3d
       0.08062096 -0.06073731 0.09227538 0.0838349
000100 d8 41 7c 3d d7 d6 53 3d b2 74 93 3c 20 a2 05 3e
       0.06158623 0.05171856 0.01799998 0.13050127
000110 2c 27 f3 3d b6 97 09 3e 98 46 e0 3b df 02 02 3d
       0.11872706 0.1343678 0.006844353 0.03174102
000120 1d ad bd 3d 81 6c 2a be 0b 04 17 be 2b 0c 9b 3d
       0.09261534 -0.16642953 -0.14747636 0.0757068
000130 26 51 1d 3d be 34 ff 3d bc d0 8d 3d 62 77 b4 bd
       0.038407467 0.12461232 0.069245785 -0.08811833
000140 44 f1 00 be fe 6b a0 3c 25 3e 28 3e b4 e6 1c 3d
       -0.12592036 0.019582745 0.16429956 0.038305953
000150 37 31 51 3d 53 c7 a1 bd 34 12 eb 3d 40 74 7a 3d
       0.051072326 -0.07899346 0.11478081 0.06114602
000160 77 68 42 bd 97 5f 00 be e2 a4 99 bd 2b f0 0f bf
       -0.047462907 -0.12536465 -0.07502152 -0.5622584
000170 17 53 e3 be 26 ed a8 bd 98 3f 7a 3d 6d df 4c 3e
       -0.4439933 -0.082483575 0.061095804 0.20007105
000180 64 85 ca bd a2 52 98 3c 63 c0 1c 3d 2f c9 d3 3d
       -0.098887235 0.01859409 0.03826941 0.10341107
000190 4e 72 c6 bd e9 e0 a1 3d 4b d4 ac bd fb 0e d2 bc
       -0.09689771 0.07904226 -0.08438929 -0.025641909
0001a0 df 73 2c 3d 02 cf 13 3d cc f2 3a be 1b 93 01 be
       0.04210269 0.03608609 -0.18256682 -0.12653773
0001b0 b9 9c 13 3d c0 a2 89 bc e2 79 78 3d b1 cb 04 be
       0.036038134 -0.016801238 0.06066311 -0.12968327
0001c0 e8 ab cf bc b3 97 2f 3d d8 5a 6e ba 5b ad 51 3d
       -0.025350526 0.04286928 -0.0009092516 0.051190715
0001d0 d6 37 10 3e e7 d4 b3 3d 1f 20 00 bd fd 0a f5 3d
       0.140838 0.08780842 -0.031280633 0.119649865
0001e0 45 4b aa bb 5b c1 01 3d 59 6d 54 3d 47 bb 70 3d
       -0.005196961 0.03167854 0.051862095 0.05877235
0001f0 58 b0 a4 3d 3c 56 a2 3d ff b3 ad bd a4 e1 89 bc
       0.080414474 0.07926604 -0.08481597 -0.016831227
000200 51 03 7e bd ba 26 dd 3d da 31 76 3e 79 36 50 3e
       -0.06201488 0.10798402 0.24042454 0.2033328
000210 4e 53 73 3e 6d e1 8c be ef 56 bc be 72 34 e8 3d
       0.23762247 -0.27515736 -0.36785075 0.11338128
000220 d0 99 7a 3d 42 75 04 3e de 22 60 3d cb 2e 12 39
       0.061181843 0.12935355 0.054720752 0.00013941077
000230 6a af c7 bc 80 0b 94 bd 76 8b e3 3c a0 ad 1f 3d
       -0.024375636 -0.07228756 0.027776461 0.03898394
000240 53 e8 ba bd 72 92 cd bc c9 27 43 bd e0 1e b4 3d
       -0.091263436 -0.025094245 -0.047645364 0.087949514
000250 43 1e 13 3e b5 6c 06 3e fe da a3 3d 12 59 dc be
       0.14367013 0.13127406 0.08000754 -0.43036705
000260 47 59 d3 be 48 7a 95 3c 61 49 33 3d 6a 37 03 bc
       -0.4127905 0.018246785 0.04377115 -0.008008817
000270 3b e5 b4 3d 60 9a 0e bc 11 9b fa 3d 26 86 90 bb
       0.08832785 -0.008703798 0.12236608 -0.004410523
000280 46 a4 96 bb d7 5f 3b bc 23 55 7f bd c9 44 72 bd
       -0.0045972196 -0.011436424 -0.062337052 -0.05914763
000290 37 29 91 3d 08 e0 2a 3d cc 4c 54 bc d6 d5 9a 3d
       0.07087939 0.04171756 -0.012957763 0.07560317
0002a0 03 f8 28 3d 79 a4 a1 bd 37 c0 a4 3d 7e 57 b3 3d
       0.041252147 -0.07892699 0.080444746 0.08756922
0002b0 56 4a e1 bb ab 1a 9f 3d 03 f3 8b 3d 84 15 ad 3d
       -0.0068753166 0.077687584 0.0683346 0.084513694
0002c0 74 55 f7 3d cf eb 1e 3e af e4 5b bd a5 91 06 3d
       0.12076846 0.15519641 -0.053684887 0.03285374
0002d0 23 ce 83 bd b8 89 9b bd 2b 7d c0 3d 33 8f 07 be
       -0.06435802 -0.07594627 0.09398874 -0.1323822
0002e0 9a 7d 48 be 7f 25 bf 3c df 73 3e 3e df 40 12 3e
       -0.19579163 0.02333331 0.18598889 0.14282559
0002f0 56 0c e3 3d 80 d9 88 3d 98 98 d0 3d 3b 3f a3 3d
       0.11086337 0.0668211 0.10185355 0.07971045
000300 c7 df c0 3d 03 57 3d 3c 8c 81 5a 3d 7f a2 24 3d
       0.09417682 0.01155639 0.0533462 0.04019403
000310 8d d3 64 3d d7 bd 10 be d5 f7 31 bd c6 d0 1f 3d
       0.055865813 -0.14134918 -0.04344924 0.03901746
000320 28 5e b4 3c da 20 97 be 01 6e 48 bf f5 f3 97 be
       0.022017553 -0.2951725 -0.7829285 -0.29678312
000330 7d 2f a1 bd 28 3d a4 3d 93 ef bc 3c 9c 63 a1 3d
       -0.07870386 0.08019477 0.023063457 0.07880327
000340 9e 6a 59 bd 66 18 ec 3c 9c 41 d4 3c 13 b3 00 be
       -0.053080194 0.028820228 0.025910191 -0.12568311
000350 c2 1f a5 3d 04 b5 6f 3b 7b a1 4c 3d 05 f1 e8 bd
       0.08062698 0.00365764 0.049958687 -0.11374096
000360 8a a7 66 be 58 e4 1a be 50 9f 48 be 52 68 17 3e
       -0.22524849 -0.15126169 -0.19592023 0.14785889
000370 1f 5c df bd 4e 2c 02 3e 9a 90 e5 3d c8 6b 3e 3e
       -0.109062426 0.12712213 0.11209221 0.18595803
000380 5d 7c 02 bc 8c e2 18 be a4 ef 29 bc 84 4e 52 be
       -0.007964221 -0.14930171 -0.010372076 -0.20537764
000390 be a0 c0 3d 23 f7 b6 3d e0 c7 2d 3d ef a3 29 3e
       0.09405659 0.08933856 0.042426944 0.16566442
0003a0 47 f1 2e 3c bf b7 01 3e 28 8f 48 3e a6 05 a5 3e
       0.010677642 0.1266775 0.1958586 0.32230872
0003b0 b8 dd 05 3e 2a b1 b7 3d 89 22 56 3d 68 48 03 be
       0.1307286 0.08969338 0.05227903 -0.1282059
0003c0 b2 ff 32 be de 18 a0 bd 49 32 3f be 6c 7b 9c 3c
       -0.17480353 -0.07817243 -0.18671526 0.01910182
0003d0 ea 65 54 bd 02 fb 9a bd 8f 5f 1a 3e b8 cd 90 3d
       -0.051855005 -0.07567407 0.15075515 0.07070488
0003e0 5a 7b 9e bd e9 65 9a 3c db 36 90 bc 11 13 ea 3c
       -0.07738371 0.018847423 -0.017604282 0.028573545
0003f0 32 aa d4 bd 5e 5e d7 bc 66 fc b2 bd 36 09 5c bc
       -0.10384025 -0.026290115 -0.087395474 -0.01342993

conv_net.8.bias f4 [6]
000000 51 d6 9a 3d e1 5d f2 3d e4 74 f4 3c 6e d6 87 3d
       0.07560409 0.11834312 0.029840894 0.06632696
000010 70 c9 f7 3c 22 c7 3c 3d
       0.03024742 0.046088345

conv_net.9.weight f4 [6]
000000 5e 48 04 40 ea b3 06 40 8d c6 0c 40 d3 6a 06 40
       2.066917 2.104731 2.1996186 2.10027
000010 f6 90 02 40 f8 7b 05 40
       2.0400977 2.0856915

conv_net.9.bias f4 [6]
000000 8f 9b a4 3f 41 5d a8 3f 2c 43 a7 3f 7a 54 a8 3f
       1.2859973 1.3153459 1.3067374 1.315078
000010 53 dc a9 3f b1 89 a7 3f
       1.3270363 1.3088895

conv_net.9.running_mean f4 [6]
000000 c2 c1 7c be 19 41 80 bc f7 98 6d 3e 71 5b 1b bd
       -0.24683288 -0.015656041 0.23202883 -0.037929002
000010 98 95 83 be d0 1a 01 be
       -0.25700068 -0.12607884

conv_net.9.running_var f4 [6]
000000 5f 59 a3 3f 63 f2 32 3f 7d dc b0 3e 41 bd 68 3f
       1.2761649 0.699011 0.3454322 0.9091378
000010 11 bb 1c 3f ae 12 8d 3f
       0.6122294 1.1021326

linear1.weight f4 [12, 96]
000000 98 4e 82 3f 3d a3 4c 3f b7 c4 6e 3f 7f 25 81 3f
       1.0180235 0.7993658 0.93268913 1.0089568
000010 bf 42 6a 3f e6 b7 56 3f 9c 67 29 3f 3a 03 5c 3f
       0.91508096 0.83874357 0.6617372 0.85942423
000020 dd dd 4f 3f d5 94 29 3f be 32 29 3f 0e 2e 5d 3f
       0.8119791 0.66242725 0.6609305 0.863984
000030 f1 58 93 3f 6a 27 8f 3f 42 94 77 3f d9 4c 88 3f
       1.1511518 1.1183903 0.967106 1.0648452
000040 38 89 a9 3f fb f1 99 3f 33 6a 96 3f 0c 03 89 3f
       1.3245001 1.2026972 1.175116 1.0704055
000050 7a 00 77 3f 1d 87 3d 3f d1 87 53 3f 54 46 55 3f
       0.964851 0.7403429 0.82629114 0.8331044
000060 33 86 5f 3f a4 ab 31 3f af 7c 26 3f 13 b9 5c 3f
       0.87314147 0.6940253 0.65034 0.862199
000070 1b 9b 62 3f 24 61 46 3f 59 9f 62 3f 42 ff 7f 3f
       0.8851792 0.77491975 0.88524395 0.9999887
000080 7f db 84 3f b7 02 40 3f 05 a6 41 3f 34 7a 85 3f
       1.0379485 0.7500414 0.7564395 1.0427918
000090 66 94 4d 3f c8 1c 57 3f 42 5e 59 3f 8f 9a 75 3f
       0.80304563 0.8402829 0.8490945 0.9593896
0000a0 cf 67 5f 3f 40 49 52 3f 41 60 35 3f 97 0c 5f 3f
       0.87267774 0.8214302 0.70849997 0.87128586
0000b0 12 32 99 3f 73 b6 95 3f 3e 37 97 3f b9 79 ad 3f
       1.1968405 1.1696304 1.1813734 1.3552772
0000c0 9c ef a7 3f 65 ed 8c 3f a2 e5 86 3f 27 0c 8a 3f
       1.3119998 1.1009947 1.0538828 1.0784959
0000d0 f9 aa 76 3f 04 42 42 3f 90 d4 54 3f 0d 6b 4a 3f
       0.96354634 0.7588198 0.83136845 0.79069597
0000e0 f2 ff 64 3f 46 35 3f 3f a6 26 45 3f 09 d3 58 3f
       0.8945304 0.74690664 0.770121 0.84697014
0000f0 6b 20 82 3f f2 16 65 3f 3f 0b 40 3f e8 39 6f 3f
       1.0166143 0.89488137 0.7501716 0.9344773
000100 01 22 4c 3f 40 8f 33 3f 6c 5e 26 3f 0a b5 4f 3f
       0.79739386 0.7014046 0.64987826 0.8113562
000110 7c 02 58 3f 83 09 4b 3f 3c d2 56 3f 88 15 68 3f
       0.8437879 0.7931139 0.8391454 0.90657854
000120 52 d4 4c 3f cd c7 63 3f 22 b5 61 3f 38 c6 52 3f
       0.80011475 0.88976747 0.8816701 0.8233371
000130 53 7c b1 3f 7e 2f a5 3f a3 ab 8f 3f 41 99 98 3f
       1.3866066 1.2905118 1.1224254 1.1921769
000140 83 a5 8a 3f 14 58 8a 3f 2f 80 89 3f 61 81 9a 3f
       1.083176 1.0808129 1.0742244 1.2070733
000150 c9 46 5f 3f fe 25 56 3f 33 0a 4c 3f e5 96 4c 3f
       0.87217385 0.8365172 0.7970306 0.79917747
000160 1a 29 47 3f 9b f2 41 3f c6 2d 46 3f ef a2 5f 3f
       0.7779709 0.7576081 0.77413595 0.8735799
000170 ff 35 83 3f 0e e8 6e 3f 57 12 65 3f ce 05 80 3f
       1.0250853 0.9332284 0.8948111 1.0001771
000180 06 93 85 3f 58 41 4a 3f 56 0f 51 3f 5e 07 67 3f
       1.0435493 0.79005957 0.81664026 0.90245616
000190 c7 e8 5a 3f a8 63 2a 3f e1 89 3e 3f aa 5e 52 3f
       0.8551144 0.66558313 0.74429137 0.82175696
0001a0 b9 d3 6c 3f cd 35 32 3f ba 53 3c 3f 8f 4c 59 3f
       0.92510563 0.69613343 0.73565257 0.84882444
0001b0 9a c8 a2 3f 60 6c 92 3f e6 4b 78 3f f4 01 95 3f
       1.2717469 1.1439323 0.9699081 1.1641221
0001c0 72 73 9b 3f 38 10 90 3f e4 fd 97 3f d8 0f 91 3f
       1.2144606 1.125495 1.1874356 1.133296
0001d0 ad 83 6e 3f 64 ce 5a 3f 53 ed 58 3f 44 21 6a 3f
       0.9316967 0.8547118 0.8473713 0.9145701
0001e0 eb 3d 50 3f 3e 2d 50 3f ec 38 1e 3f 2b dc 74 3f
       0.8134448 0.81319034 0.61805606 0.9564845
0001f0 41 f8 6f 3f 75 7b 6c 3f 97 83 5d 3f d5 7b 87 3f
       0.9373818 0.9237588 0.86528915 1.0584666
000200 e2 f6 65 3f d0 c8 60 3f a4 04 40 3f 14 80 82 3f
       0.8982984 0.87806416 0.7500708 1.0195336
000210 36 d3 4a 3f 9e 21 3f 3f c8 c6 57 3f bc 8e 5f 3f
       0.7922853 0.7466067 0.8428769 0.8732717
000220 d0 a8 42 3f c7 0c 49 3f 36 79 4d 3f 17 1b 82 3f
       0.7603884 0.7853512 0.8026308 1.0164517
000230 e2 26 b2 3f 89 d4 95 3f 7d 82 9d 3f ef ee 9d 3f
       1.3918116 1.1705486 1.2305447 1.2338542
000240 f1 07 a2 3f 24 10 8a 3f 14 92 93 3f 15 74 96 3f
       1.2658674 1.0786176 1.1528955 1.1754175
000250 00 7b 5e 3f 3d e3 4d 3f 38 65 2f 3f eb 4a 7a 3f
       0.86906433 0.80424863 0.6851382 0.97770566
000260 58 9d 5e 3f 8e a6 2a 3f 88 90 31 3f 69 cc 64 3f
       0.8695884 0.6666039 0.6936116 0.89374405
000270 f4 d6 79 3f ff 32 7c 3f 8e 6a 7c 3f 2c ba 75 3f
       0.9759362 0.98515314 0.9860009 0.959872
000280 b1 cd 47 3f 24 43 2f 3f ec 23 1a 3f e5 e1 42 3f
       0.78048235 0.68461823 0.6021106 0.7612594
000290 36 f0 55 3f 7a 12 57 3f bb 0f 49 3f 14 62 42 3f
       0.8356966 0.8401257 0.7853963 0.75930905
0002a0 0f 83 55 3f 95 9a 53 3f 82 fe 4f 3f b0 dd 75 3f
       0.83403105 0.8265775 0.81247723 0.96041393
0002b0 2c 78 a4 3f 89 31 96 3f 71 e0 9f 3f f8 0e a1 3f
       1.2849174 1.1733867 1.2490369 1.2582693
0002c0 7d dd 94 3f 94 1f 89 3f b6 62 90 3f 3f 31 95 3f
       1.1630093 1.0712762 1.1280124 1.1655654
0002d0 c9 c7 61 3f 46 d7 59 3f 19 93 30 3f f2 bc 78 3f
       0.8819547 0.85094106 0.68974453 0.9716331
0002e0 aa a0 58 3f 35 1d 54 3f e0 47 48 3f 2b 88 70 3f
       0.84620154 0.82857066 0.7823467 0.93957776
0002f0 eb 1a 80 3f c3 fd 60 3f b8 07 5f 3f 15 da 7b 3f
       1.0008215 0.8788721 0.8712115 0.9837964
000300 64 eb 39 bd 23 d4 45 bd 1b be 83 bd 86 a9 cc 3c
       -0.0453905 -0.048298012 -0.06432744 0.024983179
000310 5b 7e 91 bd cb ed f0 3a e1 87 cd bd 5e ff ed bd
       -0.071041785 0.0018381415 -0.100356825 -0.11620973
000320 c4 89 d2 3d a0 89 0c bd 0e 48 ee 3c 2b 97 2f 3b
       0.10280183 -0.034310937 0.029087093 0.0026792984
000330 46 c5 90 3c a0 0d 90 bc 21 80 77 3d 2c f9 30 bd
       0.017672192 -0.017584622 0.060424928 -0.04320638
000340 47 48 58 bc a2 1d 3d 3d d3 1c 64 bd 64 1b 53 3d
       -0.013200826 0.04617084 -0.05569155 0.051539794
000350 68 ea 62 bd 19 07 1c bd b4 72 14 bd 10 6f f6 bd
       -0.05539933 -0.038092706 -0.036242202 -0.12032902
000360 5f 20 f0 bc 24 da b1 bb ec 6c e7 bd 2a ab e6 bc
       -0.02931231 -0.0054276157 -0.11300072 -0.02815779
000370 b5 21 54 bd e3 7e 30 bd 8f ce f6 bc 01 90 94 3d
       -0.051789958 -0.04308976 -0.030127792 0.07254029
000380 18 ec 6e bd 83 cd 66 3d 30 1b 78 3c 17 90 31 3d
       -0.058330625 0.056348335 0.015143201 0.043350305
000390 1d e0 73 3d 1a 88 34 3d 26 c6 a6 bd 81 e0 67 bd
       0.059539903 0.04407511 -0.081432626 -0.056610588
0003a0 1f 4d 15 be fd a6 50 bd 75 b1 89 bd 3a a3 29 bd
       -0.145802 -0.050940502 -0.067233 -0.04141543
0003b0 2e a7 19 be 50 64 06 be b8 f3 96 bb c9 de 5b 3c
       -0.1500518 -0.13124204 -0.0046066903 0.013419815
0003c0 97 c2 05 3d c0 a7 28 bd 0f 9d 5c bd 2e e9 d7 bd
       0.03265628 -0.041175604 -0.05386072 -0.10542522
0003d0 b1 9c ef bd 93 63 dc bb c6 7c d1 3c 1f 60 65 bc
       -0.116998084 -0.0067257374 0.025572192 -0.013999968
0003e0 ab 59 d2 bd d0 27 06 3d 4c 16 d1 bd c3 c8 11 3d
       -0.10271009 0.032752812 -0.10209331 0.035591852
0003f0 0c ce 67 bc de bf 98 3d ea 7c af 3c 9b 9e da bd
       -0.0141482465 0.07458471 0.021421868 -0.10674783

linear1.bias f4 [12]
000000 e5 65 81 3f 98 e3 4f 3f 2a 82 40 bd fa 0c 50 3f
       1.0109221 0.81206656 -0.046999134 0.812698
000010 00 6a 73 3f 41 22 6f 3f 74 72 64 3f 28 b4 87 3f
       0.9508362 0.9341164 0.8923714 1.0601854
000020 0a 4d 66 3f 25 6e 90 3d 34 18 7b 3f 67 46 33 bd
       0.899613 0.070522584 0.98083806 -0.043768313

linear2.weight f4 [9, 9]
000000 67 f0 fc 3e 54 4a c6 3e 95 db 59 40 d8 e8 34 be
       0.49402162 0.38728583 3.4040272 -0.17666948
000010 87 ff 87 bf 93 6f cc 3e 9d 40 6d be ef 7a 21 3f
       -1.0624856 0.39928874 -0.2316918 0.63078207
000020 fe 58 a8 be d2 64 6c 3f b5 69 44 3d f0 f9 53 40
       -0.32880396 0.9234134 0.047952373 3.31213
000030 bc 30 49 3f 39 08 76 bf 0e c9 7c 3e 23 03 61 3f
       0.7858999 -0.96106297 0.24686071 0.8789541
000040 10 2d fb 3e 63 6c 0c 3f d1 03 8c 3e 86 fd 45 3f
       0.49057817 0.54852885 0.27346662 0.7733997
000050 c0 15 64 40 19 6a e2 bd 55 d1 8c bf 39 83 cc 3f
       3.5638275 -0.11055393 -1.1001383 1.5977546
000060 54 be 17 3f 9f 2d 58 3f 2b fa a4 3f 6f 19 0b be
       0.5927479 0.8444461 1.2888845 -0.13583921
000070 82 66 5c bf 4a ba 58 40 60 52 7c bf 9b f3 68 bf
       -0.86093915 3.3863702 -0.98563194 -0.9099671
000080 68 f3 ec 3e d2 eb bd bc 83 67 9b bf 05 df 32 3d
       0.46279454 -0.023183737 -1.2140964 0.04366972
000090 23 c3 96 be ec f9 07 bf 30 20 63 40 e8 59 a5 bf
       -0.29445753 -0.53115726 3.5488396 -1.2918062
0000a0 74 77 88 bf 57 76 89 3f b3 9e 3e bf 4e 97 d7 be
       -1.0661454 1.073924 -0.74460906 -0.42107624
0000b0 ec 42 b0 3f 76 20 c6 be c9 f6 b5 be db 21 68 40
       1.3770423 -0.3869664 -0.35539845 3.6270664
0000c0 fc e0 9a bf 1e 8a ac bf cb 46 c7 3f 59 2b 5c bf
       -1.209991 -1.347965 1.5568479 -0.86003643
0000d0 c7 60 0d bf 78 d2 c3 3f c9 0b 49 3f e5 09 03 bf
       -0.55225796 1.5298605 0.7853361 -0.5118697
0000e0 03 8b 4e 40 cc 4c 98 3f 34 74 90 bf a8 5c c5 3f
       3.2272346 1.1898437 -1.1285462 1.5418901
0000f0 65 eb 8f 3f 7b 3d 64 bf bc f1 13 3f 9c eb c4 3e
       1.1243712 -0.8915631 0.5779073 0.38461006
000100 8c 51 f9 3e f6 88 58 40 63 6f cf 3e 7c c9 90 bf
       0.48695028 3.3833594 0.4051467 -1.1311488
000110 50 78 f3 3e 07 80 d3 be 9e 4e 30 3f d6 26 06 bd
       0.4755273 -0.41308615 0.6886996 -0.03275188
000120 8d 16 42 bf b7 be 89 3f 60 6b 4f 40 16 4d f0 bf
       -0.7581566 1.0761327 3.2409286 -1.8773525
000130 b9 3f 49 3f f7 ea 90 3f f3 66 bb bf 39 88 05 3f
       0.7861286 1.1321706 -1.4640793 0.52160984
000140 04 8b 27 bd
       -0.04090406

linear2.bias f4 [9]
000000 da 14 84 40 74 ca 68 40 bf 72 66 40 5b 10 82 40
       4.1275454 3.6373568 3.6007535 4.0644965
000010 5d a6 75 40 14 5c 59 40 b9 e7 5f 40 13 b3 81 40
       3.838279 3.396245 3.4985182 4.0531096
000020 1b d7 67 40
       3.622504

linear3.weight f4 [3, 24]
000000 51 95 5f 40 a8 f7 4c 40 7b a3 56 40 0f 31 43 40
       3.4934886 3.2026157 3.353728 3.0498693
000010 e7 da 49 40 b0 3a 4c 40 20 23 4c 40 9d 52 48 40
       3.1539857 3.191082 3.1896439 3.1300423
000020 b8 fd 42 40 c2 db 95 3f a2 44 93 3f 90 21 04 bd
       3.0467358 1.170769 1.150532 -0.03225857
000030 b2 35 96 3f 6e f9 91 3f dc b3 9b 3f 92 a3 8d 3f
       1.1735137 1.1404245 1.2164264 1.1065543
000040 5b 28 8e 3f 7d 31 8f 3f ac 7c ef 3c 88 c1 95 3f
       1.1106066 1.1186978 0.029234253 1.1699686
000050 ab 14 02 be c7 0c 04 3d 53 4b 90 3e 57 0a be 3d
       -0.12703197 0.032238748 0.28182468 0.09279316
000060 49 43 53 40 b9 87 49 40 2d 6a 4c 40 99 1c 53 40
       3.3009818 3.1489089 3.1939805 3.2986205
000070 dc 05 46 40 1c 3e 4f 40 6c 1d 50 40 44 11 54 40
       3.0941076 3.2381659 3.2517958 3.3135538
000080 67 a5 45 40 79 5e 94 3f ec 92 94 3f a6 f8 d6 3d
       3.0882204 1.1591331 1.1607337 0.10496645
000090 2f 17 96 3f 64 5a 92 3f 00 e3 9b 3f a8 8c 8d 3f
       1.1725825 1.1433835 1.217865 1.105855
0000a0 63 1d 8e 3f cc 73 8f 3f ad 7e 06 be 94 38 94 3f
       1.1102718 1.1207213 -0.1313426 1.1579766
0000b0 74 19 66 bd 9a e4 d9 3d 49 b6 c9 3e ed 95 c3 3e
       -0.056176618 0.106393054 0.39396885 0.38200322
0000c0 09 f6 56 40 c0 38 51 40 d8 2f 55 40 3c 6a 47 40
       3.3587668 3.2690887 3.3310452 3.115859
0000d0 76 d7 47 40 b3 38 49 40 d8 61 55 40 82 e0 58 40
       3.1225257 3.1440856 3.334097 3.3887029
0000e0 01 a9 37 40 58 ec 95 3f 0e 5d 94 3f 83 e9 ed bd
       2.8696902 1.1712751 1.1590898 -0.116168045
0000f0 09 16 95 3f 16 15 92 3f a5 10 9b 3f e6 86 8c 3f
       1.164735 1.1412685 1.2114455 1.0978668
000100 06 36 8e 3f 77 e8 8e 3f 3a 22 26 be 28 93 95 3f
       1.1110237 1.1164693 -0.16223994 1.1685534
000110 ef 33 1a 3d 0b 1d a5 3d 1a d5 29 3e 84 f5 ce 3d
       0.037647184 0.0806218 0.16585198 0.10105422

linear3.bias f4 [3]
000000 93 dd 17 40 e1 d9 1a 40 f1 e2 1e 40
       2.3728988 2.4195483 2.4826014
