models/critic_1_3100_q_net_2.pt (torch, 9005 bytes, 11 tensors)

conv1.weight f4 [1, 1, 7, 7]
000000 3c 35 22 3e dd 14 a4 3e 74 e7 72 3e 8f 15 8f 3e
       0.1584062 0.32047167 0.23721105 0.27946135
000010 5b 5a e6 3d f5 2e 8d 3e 3d 02 40 3e 8f d0 8f 3e
       0.11247703 0.27574888 0.18750854 0.28088805
000020 55 bd a9 3e 75 82 85 3e 87 74 0e 3e b2 48 e1 3d
       0.3315226 0.26076093 0.13911639 0.11000194
000030 1a 9c 92 3c f1 da 2b 3d f9 c8 64 3e ff e5 1c 3d
       0.0178967 0.041956846 0.2234229 0.03830528
000040 0d ca 37 3e ab d2 0d 3c 48 95 ce 3c d5 22 43 3d
       0.1794817 0.008656184 0.025217667 0.04764064
000050 6f dc c4 bd f0 98 aa 3d 03 8e a7 3d 4b 52 f3 3d
       -0.09612357 0.08329952 0.081813835 0.118809305
000060 7c c4 09 3e 22 69 9c 3e d6 86 9a 3e c1 45 96 3d
       0.13453859 0.3054896 0.30180997 0.07337523
000070 8e 8f 86 3e 3e 39 ac 3d 20 91 c0 3d 85 c9 87 3e
       0.262814 0.084093556 0.094026804 0.26520935
000080 c4 c8 64 3e df aa 19 3e bf 52 60 3d 56 6d 22 3e
       0.22342211 0.15006588 0.054766413 0.15862021
000090 ac 15 8a 3e b2 45 c7 3c bf bd 91 bc 35 42 03 3e
       0.2696966 0.024325226 -0.017790673 0.12818225
0000a0 da 33 0b bb 9e 3c 2d bd ea 44 92 3d cb 36 c0 3d
       -0.0021240623 -0.042294137 0.071420506 0.09385451
0000b0 ff a9 3e bd 59 dd c1 bc 34 d3 a2 3d 00 5d c0 bd
       -0.04654884 -0.023665117 0.0795044 -0.09392738
0000c0 c5 0d 10 3d
       0.03516938

conv2.weight f4 [1, 1, 7, 7]
000000 e0 0c 82 3d 0f 17 75 3e 14 5c 64 3d 58 bb 03 3d
       0.06350112 0.23934577 0.055751875 0.032161087
000010 f2 01 82 3e 8e 88 52 3e 0c aa 9d 3e 8f ba 09 3e
       0.2539211 0.20559904 0.30793798 0.13450073
000020 59 58 e3 3d e7 88 20 3e 8c 0d 13 3e 8b bb 8b 3e
       0.11100835 0.15677224 0.14360636 0.2729152
000030 12 9f 16 3d ea 4a 24 3e 28 de 6c 3e 9e 74 dc 3d
       0.036772795 0.16044202 0.23131621 0.107644305
000040 28 d7 cf 3d ad 53 60 3e 68 f4 82 3c 91 8e 61 3e
       0.1014846 0.2190692 0.015985683 0.22027041
000050 5a aa 87 3d 91 e2 63 3e 6a 23 64 3d 93 e8 8d 3e
       0.06624289 0.22254397 0.055697836 0.27716503
000060 df cb 9d 3a 12 52 a6 3c 8e 89 39 3e f1 29 9d 3e
       0.0012038908 0.020302806 0.18118879 0.3069606
000070 48 30 96 3c 16 c9 00 3e 2b 85 a5 3e 8a 7b f3 3d
       0.01833357 0.12576708 0.32328162 0.118887976
000080 c4 25 49 3e e0 b0 50 3d 96 6c 1c 3e f0 37 76 3d
       0.19643313 0.05094993 0.15275797 0.06011194
000090 54 f8 9a 3e 01 cd 82 3e 7a 64 f5 3c 65 e2 1f 3e
       0.30267584 0.2554703 0.029955138 0.15613706
0000a0 e1 8f 36 3e 9a e2 0b 3e 11 d8 39 3d 59 f4 01 3e
       0.17828323 0.1366066 0.045372073 0.12690867
0000b0 24 b1 9a 3e 6e cc b1 3c 29 7c c4 3c b6 f3 02 3e
       0.30213273 0.021703925 0.023984985 0.12788281
0000c0 b2 61 43 3e
       0.19080237

conv3.weight f4 [1, 1, 7, 7]
000000 dc 78 8c 3b e0 db 0c bd 97 66 b1 bd ca fc d1 bc
       0.0042868685 -0.034389377 -0.086621456 -0.025633235
000010 1c 8d 6b bd 7c 60 ec 3d 5b 65 0e be 8c 9e ba bd
       -0.05750762 0.115418404 -0.13905852 -0.09112272
000020 83 08 ee bd ae e0 d5 bc 3e fe e3 3d a5 39 00 3e
       -0.11622717 -0.026108112 0.11132477 0.1252199
000030 1a b3 fe bd b7 d1 ca bb c3 ba ab 3d fa f6 80 3d
       -0.12436505 -0.0061895507 0.08385231 0.06297107
000040 7a a5 ef 3d b7 d8 81 bb 9e 93 c4 bd 81 8b c1 3d
       0.11701484 -0.003962602 -0.09598468 0.094504364
000050 6e a7 48 bd 4c 7d 97 3d 57 33 10 bd a5 bd 78 3d
       -0.0489878 0.07396945 -0.03520521 0.060727734
000060 bc 92 03 3e 4b 06 08 3e 28 21 05 be be 87 c1 bd
       0.12848943 0.1328365 -0.1300093 -0.09449719
000070 ea ef 71 bd b7 92 ba bd 75 5c 0c 3e 6e b7 4e bc
       -0.05906669 -0.09110015 0.13707145 -0.012616975
000080 13 13 c2 bd f3 30 82 bd 2a 9b a1 bd 6a bb 6e 3d
       -0.09476294 -0.063569926 -0.07890923 0.0582842
000090 1e 32 ff bd b3 65 08 be ea 33 10 be 0a eb 7b 3d
       -0.12460731 -0.13320045 -0.14082304 0.061503448
0000a0 ce a9 90 3d c3 b5 b5 bd 57 1a 11 3d c5 f8 d7 3d
       0.07063638 -0.08872559 0.03542551 0.10545496
0000b0 4a 0b aa 3c 65 9c f7 bc 4a ed 2c 3c 5c f9 7a bc
       0.020757336 -0.030225942 0.010554621 -0.015318241
0000c0 3a 4f 93 3d
       0.07192846

linear1.weight f4 [12, 64]
000000 52 6e 62 3e 8d cd 66 3e ab c2 9c 3d 96 0b 82 3e
       0.22112396 0.22539349 0.076543175 0.25399464
000010 fd 02 8d 3e ec 89 d9 3d e1 5e fc 3d 7d 74 65 3e
       0.27541342 0.1062201 0.12322784 0.22407718
000020 3f d6 d1 3c 81 46 2c 3e 8c 0f 15 3e 97 3f 49 3e
       0.025614856 0.1682377 0.14556712 0.19653164
000030 70 21 1d 3c ca 48 7c 3c 61 eb 33 3e cb 59 2a 3e
       0.009590492 0.015398214 0.17570259 0.16635816
000040 45 93 a3 bc a4 d8 bf 3c 5f cb b0 bc 1b 1c 82 3b
       -0.019967685 0.023418732 -0.02158135 0.0039706356
000050 12 8c 15 3d 05 68 48 3e 5d 0f 8a 3d a6 57 29 3e
       0.036510535 0.1957093 0.067412116 0.16537341
000060 7f f6 53 3e 7a da 11 3e eb ea e7 bc 5c 0d 15 3e
       0.206995 0.14243498 -0.02831026 0.14555877
000070 77 79 01 3e 01 03 35 3e 77 8f 26 bd 75 20 28 3e
       0.12643991 0.17676927 -0.040664162 0.16418631
000080 f2 64 3f 3e 51 86 17 bd d8 ff bb 3d cc 42 3e 3e
       0.18690851 -0.03699333 0.09179658 0.18580168
000090 80 05 49 bc 5d ad f7 3d f5 05 0a 3e c5 69 e6 3d
       -0.012269378 0.12093613 0.13478835 0.11250643
0000a0 38 dd 5f 3e a7 5b 46 3e cf d4 48 3e f2 6d 93 3d
       0.21861732 0.193709 0.1961243 0.07198705
0000b0 4a 6b 46 3e 88 a8 e4 bc fd 7d 99 3c 28 5a 70 3d
       0.19376865 -0.027912393 0.018736834 0.05867973
0000c0 8a a5 96 3d 7e 9f 64 3e 95 72 27 3e 0d e4 39 3e
       0.07355793 0.22326466 0.16352303 0.181534
0000d0 0e f3 3d 3e 74 86 00 3c 68 64 b2 3d de a5 fc 3d
       0.1854975 0.007844556 0.08710557 0.12336324
0000e0 65 14 2d 3e 36 90 4b 3e 92 92 a3 3d 7c 7b b3 3d
       0.16902311 0.19879231 0.079869404 0.08763787
0000f0 56 76 6a 3e 22 91 bc 3d b1 4d 28 3d e3 e7 5c 3e
       0.22896704 0.092073694 0.041089717 0.21572833
000100 72 55 ab 3e ad 0e 55 3e c6 e8 60 3e b9 a5 1b 3e
       0.33463627 0.2080638 0.21963796 0.15199937
000110 f1 e6 0f 3e da ec 96 3e 12 cf 49 3e 2e f7 b4 3e
       0.14052941 0.29477578 0.19707897 0.35344833
000120 8a c7 ee 3d 4c 5f 47 3e b9 7a 59 3e 94 e9 8c 3e
       0.11659153 0.19469947 0.21238221 0.27521956
000130 ed 03 a0 3e 0d 19 98 3e 5e 13 89 3e a4 cb 20 3e
       0.31252995 0.29706612 0.26772588 0.15702683
000140 20 73 ce 3d 83 c3 99 3d 6e 6d 45 3e 84 05 9e 3e
       0.10080552 0.07507994 0.19280025 0.30863583
000150 3f fc 26 3e 03 2d 39 3e 86 11 c3 3d 5f 1d 67 3e
       0.16307162 0.18083577 0.09524827 0.22569798
000160 32 c3 85 3e 7d 97 65 3d 9e 21 b7 3d ba bf 89 3e
       0.26125485 0.056052674 0.08941959 0.26904088
000170 76 31 4f 3e 9a 0e 2a 3e 8b ac 4b 3e 89 f7 25 3e
       0.20233712 0.16607133 0.19890039 0.16207708
000180 69 32 ba 3d 08 bc 66 3d 42 69 82 3e e1 d7 21 3e
       0.09091646 0.056331664 0.2547093 0.15805008
000190 24 1b 01 3e 8e e9 10 3e 9d 91 d7 3d 62 e6 0b 3e
       0.1260801 0.14151594 0.105258204 0.13662103
0001a0 6b 02 a5 3d 91 8d 8e 3e 61 18 6f 3e 62 bd f1 3d
       0.08057102 0.27842382 0.23349144 0.118037
0001b0 56 2d 0f 3e 03 ff 73 3e 4f d3 08 3e f2 28 59 3e
       0.13982138 0.23827748 0.13361858 0.21207026
0001c0 45 15 74 3e 17 a7 fa 3d 39 b1 6a 3e ef e6 4e 3e
       0.23836239 0.12238901 0.22919168 0.20205282
0001d0 f3 26 9b 3e 38 f4 18 3e e4 bc 26 3e 4c b1 9c 3e
       0.30303153 0.14936912 0.16282994 0.30604017
0001e0 d8 13 02 3e 71 cc 71 3e 7e 7f af 3e ce 0c 26 3e
       0.12702882 0.23613144 0.34276956 0.16215822
0001f0 1e 9a ac 3e 07 a6 a8 3e 03 8c ac 3e bc df 58 3e
       0.33711332 0.3293917 0.3370057 0.21179098
000200 ca 42 ba 3e 91 22 46 3e f2 5c 4f 3e 3a 9c 95 3e
       0.3637908 0.19349124 0.202503 0.29220754
000210 b1 40 8b 3e 2f 7d a2 3e 21 6f bd 3e 64 b4 34 3e
       0.27197793 0.31736133 0.36998847 0.17646939
000220 02 0c 91 3e d0 0e 82 3e bd 39 8d 3e d6 74 8a 3e
       0.28329474 0.25401926 0.27583113 0.27042264
000230 48 b6 28 3e fd 17 e9 3d 74 41 a0 3e a1 de 12 3e
       0.16475785 0.113815285 0.31299937 0.14342739
000240 83 34 8a 3e 1e bc 8a 3d a7 cf 28 3e 5c 29 41 3e
       0.26993188 0.06774162 0.16485463 0.18863434
000250 6c 4e 55 3e ef d0 48 3e 16 d0 66 3e 85 87 31 3e
       0.20830697 0.19610952 0.22540316 0.17336853
000260 61 89 59 3e db 04 9b 3e f0 43 c5 3d 13 74 2d 3e
       0.21243812 0.30277142 0.09632099 0.1693881
000270 9d 8a ff 3d 6a 0d 91 3e 86 13 91 3e 4e c5 35 3e
       0.1247761 0.28330547 0.28335208 0.17751047
000280 0c ec 09 3e 31 e0 c3 3d d8 01 86 3e e4 0c 28 3e
       0.13468951 0.095642455 0.26173282 0.16411167
000290 70 80 94 3e 70 b3 7a 3e 39 ac 90 3e ba 5f 8b 3e
       0.2900424 0.24482512 0.28256395 0.2722147
0002a0 9c 32 da 3d 1a b9 62 3e d3 a3 05 3e 4f 88 79 3e
       0.10654184 0.22140923 0.13050775 0.24368404
0002b0 69 47 2f 3e 56 88 45 3e ee 02 bf 3d 11 86 89 3d
       0.17117085 0.1929029 0.09326731 0.06715024
0002c0 76 9c 80 3e e2 d1 6b 3e 57 d0 55 3e c7 06 8f 3e
       0.2511937 0.23029283 0.20880257 0.27934858
0002d0 48 11 11 3e 0a bc 74 3e 6b 23 01 3e 54 ab 65 3e
       0.14166749 0.23899856 0.12611167 0.22428638
0002e0 1d ef 4d 3e a1 59 a1 3e 51 05 aa 3e ab 80 a7 3e
       0.20110746 0.31513694 0.3320718 0.32715353
0002f0 85 a4 64 3e 8a cf 95 3e 46 20 c5 3d c0 6d 1a 3e
       0.22328384 0.29259902 0.09625296 0.15080929
000300 38 03 b7 3c 00 bf 36 3a 8a fa c8 bd fc 9d 62 bd
       0.022340402 0.000697121 -0.098134115 -0.055326447
000310 b8 21 6f bd 96 a2 fd bd c0 51 43 3c 80 83 ae 3d
       -0.058381766 -0.123845264 0.011921346 0.085211754
000320 54 cd 4f 3d a0 44 73 bd 6e 13 eb bd f0 88 ce bd
       0.050732926 -0.059391618 -0.11478315 -0.100847125
000330 80 f4 17 3b 16 1b b0 3d 90 58 4f bd 16 4d 8b bd
       0.0023186505 0.08598916 -0.05062157 -0.06801812
000340 9a 90 88 bd f0 4a 31 bc 92 1c f3 bd e2 e7 e1 bd
       -0.066682056 -0.010821089 -0.11870684 -0.11030556
000350 06 01 fc 3d 58 2e 74 bd 40 b1 b8 bc ac fc 08 bd
       0.12304883 -0.05961451 -0.022545457 -0.03344409
000360 c8 e5 e0 bd 30 86 b4 bc 54 bb 1c 3d c8 e6 4f bd
       -0.10981327 -0.022036642 0.038264588 -0.0507572
000370 20 92 ae bb 00 bf 1c ba 68 d9 fe bd 16 0a ba 3d
       -0.005327478 -0.0005979389 -0.12443811 0.09083955
000380 32 ca ce 3d ce 8a ae 3d d4 23 28 bd b4 c6 85 3d
       0.100971594 0.08522569 -0.041049793 0.0653204
000390 26 da ef bd f0 52 fd bc f8 43 d0 bc 08 d0 34 bd
       -0.117115304 -0.030923337 -0.025423035 -0.044143707
0003a0 40 0a 57 3d fc 4b 69 bd 00 5f 6d bc 7c d7 13 bd
       0.05250001 -0.05695723 -0.014487982 -0.036094174
0003b0 be 67 f0 bd a0 1a a9 bc 34 f4 d8 bd 50 46 95 3d
       -0.11738537 -0.020642579 -0.10593453 0.07288802
0003c0 90 d2 88 3d 9a d1 ef 3d 58 ee 2b bd 60 4a d0 3b
       0.066807866 0.117099 -0.04197535 0.0063565224
0003d0 90 97 c8 3c 40 8b ff 3d 2e a7 ea 3d 78 7d 84 bd
       0.024486333 0.12477732 0.11457668 -0.06469244
0003e0 c2 d4 d9 bd d4 ba e6 bd 00 8f 76 bd ca 3d d7 3d
       -0.106362835 -0.112661034 -0.06019497 0.10509832
0003f0 7c f4 2b 3d 9e 00 f7 3d a6 c0 bd 3d 80 87 ed 3a
       0.041981205 0.120606646 0.092652604 0.0018122047

linear1.bias f4 [12]
000000 79 31 7e 3e 3f ef 5a 3e f9 a1 6a 3e 0c 83 1b bd
       0.2482356 0.21380328 0.2291335 -0.037966773
000010 ad f4 73 3d 6f f7 9a 3e 3e 7a ce 3a 1c a8 44 ba
       0.059559513 0.30266902 0.0015752984 -0.0007501857
000020 9d 31 1b 3d 7c 1a a1 3e 01 8f 1f 3e c0 61 60 bc
       0.03788911 0.31465518 0.15581895 -0.01369518

linear2.weight f4 [5, 5]
000000 81 d4 cd 3e 3f 65 92 bd f8 1c 91 3f ed d3 29 3b
       0.4020119 -0.071482174 1.1336966 0.002591367
000010 51 be 16 3f 9d b4 28 3e 0a ad 51 3e f8 a2 73 3f
       0.5888415 0.16475148 0.20476165 0.95170546
000020 b9 50 59 3e 4d 4e 8a 3e b9 c5 6d 3f fc 82 53 bf
       0.212222 0.27012864 0.92879826 -0.8262174
000030 78 3f ea be 57 f3 8a be 9b e2 2d be 67 5d cd 3e
       -0.45751548 -0.2713878 -0.16980974 0.40110323
000040 88 be ea bd dc 49 39 3f 3e d8 e6 3d bd 68 1b 3f
       -0.11462122 0.72378325 0.11271714 0.6070669
000050 16 da 3c 3e d2 a2 5d bd 3f c6 69 3f e2 c1 04 bd
       0.18442568 -0.054110356 0.91318125 -0.032411464
000060 9a c3 25 3f
       0.6475159

linear2.bias f4 [5]
000000 d6 ab 7a 3e e5 92 92 3e 30 5c 0b 3b 99 dd d9 3e
       0.24479613 0.28627697 0.0021264665 0.42551878
000010 97 f3 be 3e
       0.3729522

linear3.weight f4 [3, 20]
000000 5a de b1 3e 8b 2b 04 3f 52 2a 83 bf 6e d8 90 3e
       0.34739953 0.5162894 -1.024729 0.28290123
000010 03 0b af 3e 56 3f 93 3e 8d c0 c2 3e 2c c1 89 3e
       0.3418809 0.2875926 0.3803753 0.2690519
000020 ef 43 20 3d 1f 29 33 3e 95 dc 64 3d 30 8f cc bd
       0.039127287 0.17496155 0.055874426 -0.09988248
000030 95 e5 45 bd 69 d6 fa bd 52 7b 82 3e fe 2b ea 3d
       -0.04831465 -0.12247927 0.2548471 0.11434172
000040 e7 ad 9c bd 81 e5 12 3c 04 97 c4 3d 60 be 37 3f
       -0.07650357 0.008965851 0.095991164 0.71774864
000050 dc 6c 32 3f 0e 05 61 3e 55 23 6d bf ae b8 e5 3e
       0.69697356 0.21974584 -0.9263204 0.44867462
000060 4f 96 e9 3e 84 f2 34 3e 6c fa 95 3e 01 55 95 3e
       0.4562249 0.17670637 0.2929262 0.29166415
000070 08 dc 5e 3e bd ba 3d be ba 01 14 3e da ab 08 be
       0.21763623 -0.18528266 0.14453784 -0.13346806
000080 15 d6 bc bd 0a 78 87 3d 6c 8a bd 3e e1 e7 9f 3b
       -0.092205204 0.066146925 0.3701967 0.004879937
000090 4f ed 14 3e fb 0c 52 3e 8e ed 39 ba 25 05 14 3f
       0.14543651 0.20512764 -0.00070925883 0.5782035
0000a0 bc 90 c3 3e 75 df de 3e 0b 13 8d bf 71 f2 8b 3e
       0.3819636 0.4352986 -1.1021436 0.27333406
0000b0 d0 87 5e 3e f6 16 13 3c 39 53 ce 3e f1 95 47 3e
       0.21731496 0.008977642 0.4029787 0.19490792
0000c0 53 45 cb bb f8 74 a8 bd 7b 36 be 3e 06 5a e3 bd
       -0.0062033325 -0.08225435 0.3715094 -0.11101155
0000d0 0e ec 97 bd 31 f6 1b be d4 76 09 3d 7d b0 b7 3e
       -0.07418071 -0.15230633 0.03356059 0.35876837
0000e0 ef cf 30 be 3a da 87 3b 18 73 29 3d 49 2d 1e 3f
       -0.1726682 0.0041458877 0.041369528 0.6178785

linear3.bias f4 [3]
000000 cf b8 6a 3e 30 a1 80 3c b0 3f c5 3e
       0.22922061 0.01570186 0.38525152

linear4.weight f4 [3, 17]
000000 5b 65 77 be ec 82 c4 3c 46 fd a5 bc 94 37 66 bd
       -0.24159758 0.02398821 -0.020262372 -0.056205347
000010 28 3f 29 3e 08 b1 51 3e 37 68 01 3d 43 70 af bd
       0.16527998 0.20477688 0.031593528 -0.08566334
000020 f9 a3 38 3e eb 08 1c 3e 67 6d 32 3d 4e db 87 bd
       0.180313 0.15237777 0.043561365 -0.06633626
000030 f0 87 27 3c d0 5b 5d 3e 9a 76 d7 3c 04 c5 43 bd
       0.010225281 0.21617055 0.02630167 -0.04779531
000040 b6 45 52 be 04 17 05 be 28 5f 33 3e aa ed 0b bc
       -0.20534405 -0.12997061 0.17516768 -0.00854055
000050 7e 4f 84 bc 86 66 c1 3d 83 66 23 be 99 37 86 bc
       -0.016151186 0.09443383 -0.15957074 -0.016383933
000060 e5 b3 8b bd ff f1 01 3e 52 1e 4a 3e e7 f1 1b 3e
       -0.068214215 0.1268997 0.19738129 0.15228997
000070 e0 29 39 3e e7 f4 5d be 66 57 b0 bd 63 46 eb 3c
       0.1808238 -0.21675454 -0.0861042 0.028720086
000080 58 f1 52 be a1 be 86 3d 0a cb 22 be 02 d9 d4 3d
       -0.20599878 0.06579328 -0.15897766 0.103929535
000090 04 02 49 3e d1 74 54 be c1 1b 50 3e 56 c4 e7 3d
       0.19629675 -0.20747687 0.20323087 0.11316745
0000a0 54 e5 23 be a5 b8 6d 3e 42 19 57 be cf 32 27 be
       -0.1600545 0.23214968 -0.21005729 -0.16327976
0000b0 75 16 f7 bd de 38 49 bc c2 63 32 3d 4a c5 91 bd
       -0.1206483 -0.012281625 0.043552168 -0.07117708
0000c0 6d 67 6b be 6b 58 e5 bc 99 6e 3c 3e
       -0.22988673 -0.027996263 0.18401565

linear4.bias f4 [3]
000000 0a 38 3f 3e 89 a6 f8 3d 04 3c 10 3d
       0.18673721 0.12141139 0.035213485
