models/critic_3_3500_q_net_1.pt (torch, 16290 bytes, 24 tensors)

conv_net.0.weight f4 [3, 1, 3, 3]
0.39521652 -0.07239558 -0.27171627 0.29840872 -0.013652421 0.24807486 -0.05470777 0.031159587
-0.11308609 0.289949 0.03835349 0.3010215 0.2636035 0.27976793 0.3046288 0.32331616
-0.058242902 -0.21656609 -0.1452389 -0.31568393 0.015982518 -0.32129627 -0.17470893 -0.091125846
0.09170912 -0.06565403 -0.0127392085
00000000: d259 ca3e 2244 94bd 651e 8bbe 07c9 983e
00000010: 67ae 5fbc 5607 7e3e 4115 60bd 6442 ff3c
00000020: ae99 e7bd 3274 943e 8d18 1d3d 7d1f 9a3e
00000030: 0af7 863e be3d 8f3e 4ef8 9b3e b289 a53e
00000040: 1c90 6ebd 80c3 5dbe 82b9 14be 53a1 a1be
00000050: c5ed 823c f280 a4be e6e6 32be 30a0 babd
00000060: fed1 bb3d 9f75 86bd 1db8 50bc

conv_net.0.bias f4 [3]
-0.050937824 0.21647047 -0.23206007
00000000: 2ea4 50bd 6faa 5d3e 28a1 6dbe

conv_net.1.weight f4 [3]
0.88600916 1.0508239 0.98026615
00000000: 7fd1 623f 6681 863f b9f2 7a3f

conv_net.1.bias f4 [3]
-0.16610011 0.1088837 0.39857846
00000000: 2616 2abe 6bfe de3d 7a12 cc3e

conv_net.1.running_mean f4 [3]
0.36180383 1.5590414 -1.1326017
00000000: 5a3e b93e ab8e c73f 18f9 90bf

conv_net.1.running_var f4 [3]
0.026990937 0.075705595 0.03793988
00000000: 191c dd3c 890b 9b3d d966 1b3d

conv_net.4.weight f4 [6, 3, 3, 3]
0.14410822 0.1304894 0.024216672 0.14108673 0.1811168 0.2630645 0.12282955 0.18118055
-0.026627 -0.11572741 -0.24258149 0.01656784 0.18924065 -0.06894994 -0.14218378 0.10802955
-0.30396053 -0.21952067 -0.13841599 0.051458985 0.052724596 -0.10923236 -0.09285744 -0.015533958
-0.03217572 0.16380657 0.21942922 -0.1485804 0.16494858 -0.08205645 -0.06557815 -0.08732335
0.06917524 -0.04627678 -0.06648822 0.16879138 -0.048640452 -0.1321073 -0.18457235 0.017912617
-0.10252726 -0.04154276 0.11661777 -0.33399552 -0.15681265 0.12162958 0.19661304 0.15082349
0.16563262 0.03835782 -0.07560443 0.11177742 0.29328826 0.25732177 -0.07890777 0.20041215
-0.0762157 -0.014762941 -0.095596254 -0.24865225 -0.18900637 -0.15926023 -0.14811651 -0.008262746
-0.05280935 0.02100583 -0.121427275 0.03530958 -0.0073616253 0.057022188 0.1595098 0.00601515
0.068558745 -0.07520151 -0.03828086 -0.16198972 -0.027029987 -0.15873818 -0.2858191 -0.17318301
-0.14711367 0.22969809 -0.11582853 -0.09895398 0.06333111 -0.11050423 -0.13824737 0.0048859473
-0.003372306 0.076440684 0.033012047 -0.50366676 0.06443567 -0.07909249 -0.31647775 0.014109398
-0.09429063 -0.328417 -0.18756978 -0.099955946 0.14336114 0.15807816 0.08910762 -0.049302556
0.1263959 -0.06836341 -0.13669495 -0.118562326 -0.070215695 0.009251523 -0.22575483 0.013971115
-0.12398648 -0.22895038 0.05120172 0.0039803153 -0.110159665 0.12655891 0.074408166 0.11560432
-0.12365248 -0.036063947 0.13228069 0.09274806 0.19429752 -0.1179025 -0.104860835 -0.14511573
-0.20747519 -0.21942 -0.08386886 0.061500143 -0.12965806 -0.1685409 -0.30721274 -0.22553384
0.07586027 0.19332367 -0.13085797 -0.1166563 -0.0013200797 -0.03161123 -0.04519526 -0.22001855
0.04038717 0.19845974 0.08862361 -0.15369813 0.20036419 -0.013114595 0.120972574 0.18833904
0.06360272 0.06601032 0.07482359 -0.061158847 -0.29253903 0.08738141 0.22722016 -0.2571356
-0.19604568 0.06613252
00000000: 1b91 133e 039f 053e 0b62 c63c 0a79 103e
00000010: af76 393e 64b0 863e 0f8e fb3d 6587 393e
00000020: de20 dabc 7e02 edbd 4867 78be 47b9 873c
00000030: 4dc8 413e a035 8dbd a098 11be 993e dd3d
00000040: b7a0 9bbe 07ca 60be ecbc 0dbe a8c6 523d
00000050: bff5 573d 37b5 dfbd 0b2c bebd 2482 7ebc
00000060: b0ca 03bd e9bc 273e 0eb2 603e 7625 18be
00000070: 48e8 283e 360d a8bd d64d 86bd 96d6 b2bd
00000080: c0ab 8d3d b98c 3dbd fa2a 88bd a6d7 2c3e
00000090: 363b 47bd 2347 07be 8900 3dbe 7bbd 923c
000000a0: d0f9 d1bd be28 2abd 4cd5 ee3d 7601 abbe
000000b0: 7f93 20be ee18 f93d ee54 493e 7971 1a3e
000000c0: 999b 293e 171d 1d3d 7fd6 9abd 8feb e43d
000000d0: e129 963e aebf 833e 669a a1bd d838 4d3e
000000e0: fa16 9cbd 43e0 71bc f8c7 c3bd b29e 7ebe
000000f0: e38a 41be 1d15 23be dbab 17be 7860 07bc
00000100: 9e4e 58bd 6b14 ac3c ddae f8bd c7a0 103d
00000110: ca39 f1bb 1990 693d 8956 233e bc1a c53b
00000120: 8768 8c3d 4003 9abd 64cc 1cbd a2e0 25be
00000130: fe6d ddbc 438c 22be e256 92be e356 31be
00000140: f7a4 16be fa35 6b3e 8237 edbd 62a8 cabd
00000150: beb3 813d 0b50 e2bd b890 0dbe 4c1a a03b
00000160: e801 5dbb ef8c 9c3d a437 073d 4ef0 00bf
00000170: d9f6 833d 3efb a1bd 5f09 a2be 1b2b 673c
00000180: 721b c1bd 4626 a8be 4b12 40be b4b5 ccbd
00000190: 43cd 123e 3edf 213e 0e7e b63d 7af1 49bd
000001a0: ed6d 013e 1e02 8cbd c3f9 0bbe ced0 f2bd
000001b0: 3fcd 8fbd b393 173c 462c 67be 1be7 643c
000001c0: a0ec fdbd f871 6abe e5b8 513d 4e6d 823b
000001d0: 649b e1bd a998 013e 4f63 983d f5c1 ec3d
000001e0: 833d fdbd cab7 13bd 9774 073e b2f2 bd3d
000001f0: eef5 463e de76 f1bd 47c1 d6bd 3899 14be
00000200: 6074 54be a3af 60be 70c3 abbd 93e7 7b3d
00000210: 15c5 04be fc95 2cbe fd4a 9dbe 58f2 66be
00000220: a15c 9b3d a4f6 453e a2ff 05be 80e9 eebd
00000230: 8606 adba c77a 01bd aa1e 39bd 8b4c 61be
00000240: 046d 253d 0839 4b3e 4c80 b53d 0b63 1dbe
00000250: 452c 4d3e 99de 56bc 78c0 f73d f3db 403e
00000260: 2542 823d 6b30 873d 1c3d 993d b381 7abd
00000270: adc7 95be 06f5 b23d 67ac 683e 47a7 83be
00000280: 33c0 48be 7d70 873d

conv_net.4.bias f4 [6]
0.07213967 0.018017786 -0.12700202 0.19999835 0.10839057 -0.007572433
00000000: f7bd 933d 099a 933c d10c 02be 5ecc 4c3e
00000010: e0fb dd3d 2c22 f8bb

conv_net.5.weight f4 [6]
0.81232345 0.86043435 1.1989189 0.7818738 1.3300714 0.87500894
00000000: 6ef4 4f3f 6d45 5c3f 2d76 993f e228 483f
00000010: c83f aa3f 9600 603f

conv_net.5.bias f4 [6]
0.06770923 0.20513907 0.10772121 -0.09139709 -0.1923698 0.05075452
00000000: 23ab 8a3d fa0f 523e f09c dc3d 662e bbbd
00000010: 97fc 44be f9e3 4f3d

conv_net.5.running_mean f4 [6]
-0.081124164 0.1630232 -0.6555884 -0.47684172 -0.36458644 0.1489322
00000000: 6d24 a6bd 8eef 263e a4d4 27bf 9924 f4be
00000010: 13ab babe af81 183e

conv_net.5.running_var f4 [6]
0.14608559 0.41292536 0.2295419 0.07279987 0.3963415 0.15087888
00000000: 7697 153e f46a d33e 080d 6b3e 1918 953d
00000010: 46ed ca3e fe7f 1a3e

conv_net.8.weight f4 [6, 6, 3, 3]
-0.07017622 -0.025687415 0.19103795 0.012531433 -0.06937131 0.109470785 0.05030533 0.15279955
0.045053963 -0.0033301495 0.032830793 0.12588495 0.10983771 -0.053106524 0.050691985 0.08628397
-0.028964443 0.12748651 0.099622 0.15694894 0.15420237 -0.043449238 0.03398246 -0.106848486
-0.026116792 -0.30558604 -0.118152946 0.055084895 0.06672764 0.06693231 0.094410464 -0.086500406
-0.100262545 -0.07154002 -0.03972952 0.074132 -0.02264738 0.08024903 -0.005924993 -0.0683169
-0.1759906 -0.21678005 -0.2624942 -0.47055024 -0.18043208 0.0036530525 0.020273501 -0.13711572
-0.032056052 0.17688027 -0.024081042 0.08011021 -0.13346103 -0.043303348 0.005258554 0.010651045
0.093257524 -0.090164915 0.027967371 0.07022297 0.06719233 -0.07394964 0.083650075 0.05352534
0.044179726 0.05616522 -0.00368141 0.123307176 0.10925351 0.11048499 -0.0023461003 0.034498908
0.102398105 -0.19242735 -0.184407 0.10018742 0.038438346 0.11798915 0.09193476 -0.072291486
-0.11178901 0.0042025857 0.16396734 0.03721168 0.047871403 -0.10204681 0.11517686 0.064133905
-0.037265345 -0.11193684 -0.033696905 -0.5453402 -0.43343556 -0.07346212 0.052206315 0.18442297
-0.069159575 0.040107634 0.05786804 0.093909025 -0.09730306 0.07284409 -0.054446172 -0.021737054
0.029713959 0.048888277 -0.16986224 -0.111678496 0.03574888 -0.024816267 0.056078386 -0.10963133
-0.0040571783 0.061980423 -0.006982629 0.025563346 0.12089113 0.080512345 -0.037956897 0.115232795
0.0006809302 0.036862735 0.047231663 0.03967264 0.06055554 0.06124267 -0.07313742 -0.02272627
-0.05144404 0.106844015 0.22422148 0.18456538 0.19831014 -0.29643697 -0.35638165 0.107454896
0.054039765 0.11995339 0.07200021 -0.01972545 -0.04078745 -0.05142355 0.039864358 0.029597199
-0.057091523 -0.0019009471 -0.01818994 0.081191815 0.12466718 0.11526826 0.04079471 -0.4520242
-0.4095303 0.008520374 0.034800485 -0.008841313 0.08595337 -0.01531556 0.10103097 -0.03734251
-0.0223981 -0.0051510152 -0.08654236 -0.08106195 0.06450328 0.045132767 -0.009269508 0.09592875
0.02897632 -0.0837479 0.096156195 0.05776798 -0.022900488 0.086006075 0.035637654 0.0655301
0.10494017 0.12352721 -0.06808933 0.032908987 -0.044931717 -0.07948145 0.08089593 -0.09035449
-0.17520931 -0.021725629 0.20927963 0.14383473 0.096714534 0.049433228 0.10113997 0.08373343
0.09387069 -0.018719941 0.058253817 0.036664892 0.054389447 -0.13375273 -0.021281807 0.044880647
0.021549247 -0.2601927 -0.7514421 -0.33409482 -0.049060598 0.09131986 0.01779291 0.0794994
-0.052724484 0.026323402 0.05829804 -0.08420363 0.083150364 0.01941083 0.05089924 -0.09562226
-0.20904836 -0.1374352 -0.1887622 0.17271854 -0.072782815 0.16002955 0.079918444 0.1487368
-0.026134975 -0.132182 0.025487559 -0.1668843 0.11417886 0.123730004 0.069172345 0.12958935
-0.015695237 0.112159766 0.20087856 0.31170803 0.13248949 0.08525712 0.025392558 -0.15655708
-0.14673558 -0.060792584 -0.17726338 0.033540756 -0.02513717 -0.05478105 0.17741519 0.09264534
-0.059436634 0.032822516 -0.0059053474 0.03464748 -0.08399768 -0.018724116 -0.0705589 -0.02011834
00000000: 8db8 8fbd 6a6e d2bc 749f 433e a450 4d3c
00000010: 8c12 8ebd 3832 e03d f60c 4e3d 7c77 1c3e
00000020: 818a 383d a33e 5abb 9579 063d fce7 003e
00000030: 98f2 e03d 3a86 59bd 66a2 4f3d a6b5 b03d
00000040: d746 edbc d38b 023e 9e06 cc3d 39b7 203e
00000050: 3ae7 1d3e d4f7 31bd 3131 0b3d 61d3 dabd
00000060: e2f2 d5bc c675 9cbe 2cfa f1bd b3a0 613d
00000070: 80a8 883d cf13 893d 465a c13d 2027 b1bd
00000080: 7356 cdbd 9383 92bd 6cbb 22bd 85d2 973d
00000090: 0087 b9bc 9a59 a43d 7226 c2bb bbe9 8bbd
000000a0: e136 34be 97fb 5dbe a465 86be f6eb f0be
000000b0: 30c3 38be 0d68 6f3b 9d14 a63c 1068 0cbe
000000c0: 354d 03bd 1a20 353e 9b45 c5bc d210 a43d
000000d0: 02aa 08be da5e 31bd f34f ac3b b881 2e3c
000000e0: cdfd be3d 62a8 b8bd d41b e53c 0fd1 8f3d
000000f0: 229c 893d e972 97bd bb50 ab3d 633d 5b3d
00000100: cdf5 343d 800d 663d d043 71bb 7988 fc3d
00000110: 4ec0 df3d f445 e23d 08c1 19bb ba4e 0d3d
00000120: 19b6 d13d ad0b 45be 30d5 3cbe 102f cd3d
00000130: 8771 1d3d 4ca4 f13d 4b48 bc3d 8f0d 94bd
00000140: a3f1 e4bd d8b5 893b 0ee7 273e 466b 183d
00000150: ce14 443d ebfd d0bd d8e1 eb3d a358 833d
00000160: 8ca3 18bd 243f e5bd c405 0abd 6a9b 0bbf
00000170: 44eb ddbe 4f73 96bd 4ad6 553d 60d9 3c3e
00000180: 89a3 8dbd e747 243d 0a07 6d3d 6053 c03d
00000190: d446 c7bd 482f 953d f302 5fbd e811 b2bc
000001a0: b06a f33c 133f 483d 5ef0 2dbe b2b7 e4bd
000001b0: 6b6d 123d 7c4b cbbc 73b2 653d 6486 e0bd
000001c0: 14f2 84bb 2fdf 7d3d 8ace e4bb 396a d13c
000001d0: c595 f73d a8e3 a43d b178 1bbd 2cff eb3d
000001e0: 7480 323a 61fd 163d fd75 413d c77f 223d
000001f0: 1609 783d 98d9 7a3d 12c9 95bd 712c babc
00000200: fcb6 52bd 09d1 da3d 519a 653e b5fe 3c3e
00000210: d011 4b3e 96c6 97be a877 b6be 5011 dc3d
00000220: cd58 5d3d 1faa f53d d974 933d 4497 a1bc
00000230: be10 27bd 80a1 52bd cf48 233d d375 f23c
00000240: cdd8 69bd 3329 f9ba 1203 95bc e547 a63d
00000250: 8251 ff3d c411 ec3d 5b18 273d b76f e7be
00000260: f5ad d1be 0a99 0b3c f48a 0e3d 28db 10bc
00000270: 5208 b03d 1dee 7abc 53e9 ce3d 76f4 18bd
00000280: 387c b7bc d9c9 a8bb 1f3d b1bd cf03 a6bd
00000290: 4c1a 843d 23dd 383d 22df 17bc 4b76 c43d
000002a0: bf5f ed3c 0584 abbd 8aed c43d 1e9e 6c3d
000002b0: ce99 bbbc f423 b03d caf8 113d a534 863d
000002c0: dfea d63d d5fb fc3d 6b72 8bbd 93cb 063d
000002d0: 520a 38bd 2cc7 a2bd c4ac a53d c60b b9bd
000002e0: 126a 33be f2f9 b1bc 664d 563e 6949 133e
000002f0: 4512 c63d 7f7a 4a3d 7922 cf3d 6f7c ab3d
00000300: 473f c03d 905a 99bc 8e9b 6e3d ed2d 163d
00000310: 78c7 5e3d 7af6 08be 2f57 aebc c5d4 373d
00000320: 0c88 b03c fa37 85be 825e 40bf 7a0e abbe
00000330: c4f3 48bd e805 bb3d 70c2 913c 95d0 a23d
00000340: a1f5 57bd 2da4 d73c edc9 6e3d f472 acbd
00000350: bd4a aa3d 7603 9f3c b97b 503d 9ad5 c3bd
00000360: c610 56be d0bb 0cbe e14a 41be 21dd 303e
00000370: 280f 95bd c9de 233e 48ac a33d 764e 183e
00000380: 0419 d6bc b85a 07be 49cb d03c b8e3 2abe
00000390: 9bd6 e93d 2866 fd3d 3baa 8d3d 12b3 043e
000003a0: 4c93 80bc 05b4 e53d 1cb3 4d3e 3298 9f3e
000003b0: 53ab 073e 499b ae3d 0e04 d03c 8050 20be
000003c0: da41 16be a501 79bd 8884 35be 0862 093d
000003d0: 77ec cdbc 1862 60bd 54ac 353e d7bc bd3d
000003e0: d473 73bd e770 063d a581 c1bb 84ea 0d3d
000003f0: fa06 acbd 5163 99bc 2f81 90bd 38cf a4bc

conv_net.8.bias f4 [6]
0.107596174 0.09063907 0.030673238 0.050123718 0.058340807 0.045084912
00000000: 625b dc3d faa0 b93d 7146 fb3c 874e 4d3d
00000010: c5f6 6e3d f5aa 383d

conv_net.9.weight f4 [6]
2.0359085 2.0720015 2.1455357 2.0608132 2.0197535 2.0504365
00000000: 534c 0240 ac9b 0440 7550 0940 5de4 0340
00000010: a443 0140 5a3a 0340

conv_net.9.bias f4 [6]
1.2141405 1.2442186 1.2410954 1.2520174 1.2516878 1.2442342
00000000: f568 9b3f 8e42 9f3f 37dc 9e3f 1b42 a03f
00000010: 4e37 a03f 1143 9f3f

conv_net.9.running_mean f4 [6]
-0.1563766 -0.035450436 0.14020804 -0.034072693 -0.15093352 -0.09288632
00000000: 3021 20be 7a34 11bd b292 0f3e cf8f 0bbd
00000010: 518e 1abe 2f3b bebd

conv_net.9.running_var f4 [6]
0.8941425 0.56063837 0.35627934 0.69643176 0.51040506 0.76944786
00000000: 86e6 643f ff85 0f3f 3f6a b63e 5a49 323f
00000010: e8a9 023f 89fa 443f

linear1.weight f4 [12, 96]
0.9494291 0.7666868 0.9030795 0.97038394 0.8621264 0.8146626 0.6354532 0.79992515
0.7880065 0.6736815 0.6716037 0.84039116 1.0539829 1.0736324 0.93618995 0.99168074
1.1953185 1.0902963 1.0831693 1.0018662 0.91499704 0.7246592 0.81341356 0.78879374
0.83008486 0.68042886 0.6267349 0.79969287 0.8655476 0.7797508 0.8992949 0.9658805
0.98772496 0.7128606 0.7294916 1.0028805 0.78799415 0.8201914 0.8082851 0.8819129
0.8716866 0.81438565 0.695859 0.8273224 1.114896 1.1402094 1.1242414 1.2489233
1.197841 1.0189399 0.96435314 0.99340653 0.8858165 0.7082332 0.7879354 0.74255735
0.8295123 0.73148584 0.75615585 0.79501086 1.0025675 0.9144502 0.77157605 0.9209679
0.76000917 0.69832987 0.66059065 0.79370487 0.8068224 0.7730596 0.8118855 0.85504466
0.7920125 0.9023761 0.9029962 0.8388787 1.2786583 1.2214557 1.0501978 1.0904298
0.9909694 1.0097846 0.9997725 1.1317728 0.79411393 0.78131086 0.7518635 0.74781215
0.7195623 0.7466195 0.7669879 0.8282557 1.0016582 0.9395869 0.90482265 0.9766623
0.9833751 0.7695815 0.79252386 0.8734703 0.8245719 0.6735205 0.754624 0.8024822
0.89131236 0.7140451 0.75698787 0.8340367 1.1750355 1.0904628 0.9197828 1.0809761
1.0908735 1.0231739 1.0945686 1.0612808 0.89341146 0.8605322 0.8469749 0.8866078
0.7945307 0.8315866 0.6273714 0.926758 0.9048576 0.9251219 0.8792327 1.0223371
0.8517931 0.85373515 0.7170851 0.973319 0.8001642 0.7627979 0.8356631 0.82269907
0.756097 0.781568 0.79466254 0.96275806 1.2977523 1.1164819 1.1586016 1.121542
1.1564896 1.0063752 1.0746226 1.0970337 0.7992821 0.7726946 0.6737767 0.944011
0.8200187 0.6797017 0.7140661 0.88106847 0.94387066 1.0022821 1.0163246 0.94720334
0.751303 0.69071794 0.6195032 0.75690234 0.82591736 0.8455818 0.78907406 0.74610996
0.802798 0.8336709 0.8309822 0.9653298 1.1929044 1.1026909 1.1681451 1.1542827
1.0739653 1.0116427 1.0669129 1.0971261 0.8181195 0.81798273 0.68077517 0.94099945
0.79590815 0.84108114 0.803414 0.9267509 0.96443087 0.88530105 0.8887825 0.9613929
-0.0453905 -0.048298012 -0.06432744 0.024983179 -0.071041785 0.0018381415 -0.100356825 -0.11620973
0.10280183 -0.034310937 0.029087093 0.0026792984 0.017672192 -0.017584622 0.060424928 -0.04320638
-0.013200826 0.04617084 -0.05569155 0.051539794 -0.05539933 -0.038092706 -0.036242202 -0.12032902
-0.02931231 -0.0054276157 -0.11300072 -0.02815779 -0.051789958 -0.04308976 -0.030127792 0.07254029
-0.058330625 0.056345686 0.015142118 0.043350305 0.059539903 0.04407511 -0.081432626 -0.056610588
-0.145802 -0.050940502 -0.067233 -0.04141543 -0.1500518 -0.13124204 -0.0046066903 0.013419815
0.03265628 -0.041175604 -0.05386072 -0.10542522 -0.116998084 -0.006731034 0.025567077 -0.013999968
-0.10271009 0.032752812 -0.10209331 0.035591852 -0.0141482465 0.07458471 0.021421868 -0.106748134
00000000: c90d 733f 9645 443f 3830 673f 156b 783f
00000010: 51b4 5c3f ba8d 503f 10ad 223f e5c7 4c3f
00000020: cbba 493f 6476 2c3f 38ee 2b3f e023 573f
00000030: e9e8 863f c96c 893f 25aa 6f3f cade 7d3f
00000040: 3200 993f d48e 8b3f 4ba5 8a3f 273d 803f
00000050: 3f3d 6a3f 4483 393f df3b 503f 63ee 493f
00000060: 7180 543f 9630 2e3f b371 203f acb8 4c3f
00000070: 8794 5d3f c09d 473f 3138 663f f243 773f
00000080: 8bdb 7c3f 087e 363f f6bf 3a3f 635e 803f
00000090: fcb9 493f 10f8 513f c6eb 4e3f 0bc5 613f
000000a0: da26 5f3f 947b 503f d123 323f 67cb 533f
000000b0: eab4 8e3f 62f2 913f 24e7 8f3f b8dc 9f3f
000000c0: db52 993f 9f6c 823f d9df 763f e44f 7e3f
000000d0: dfc4 623f c54e 353f 22b6 493f 3d18 3e3f
000000e0: eb5a 543f a842 3b3f 6e93 413f d585 4b3f
000000f0: 2254 803f 6919 6a3f 0286 453f 8dc4 6b3f
00000100: f68f 423f bfc5 323f 781c 293f 3e30 4b3f
00000110: ea8b 4e3f 3ce7 453f bad7 4f3f 35e4 5a3f
00000120: 55c1 4a3f 1f02 673f c22a 673f c1c0 563f
00000130: 13ab a33f a958 9c3f e26c 863f 3493 8b3f
00000140: 2cb0 7d3f 9f40 813f 17f1 7f3f eedd 903f
00000150: 0d4b 4b3f fd03 483f 207a 403f 9e70 3f3f
00000160: 3c35 383f 7522 3f3f 5259 443f 9108 543f
00000170: 5636 803f c488 703f 75a2 673f 8a06 7a3f
00000180: 78be 7b3f 4b03 453f d8e2 4a3f c09b 5f3f
00000190: 2517 533f d76b 2c3f 0a2f 413f 796f 4d3f
000001a0: 0c2d 643f a9cb 363f f5c9 413f 6e83 553f
000001b0: 9067 963f 4994 8b3f e376 6b3f 6d5d 8a3f
000001c0: bea1 8b3f 5df7 823f d31a 8c3f 0dd8 873f
000001d0: 9db6 643f d74b 5c3f 59d3 583f bbf8 623f
000001e0: 5d66 4b3f dce2 543f 699b 203f 0340 6d3f
000001f0: bfa4 673f cad4 6c3f 6515 613f f1db 823f
00000200: 1d0f 5a3f 638e 5a3f e492 373f 6f2b 793f
00000210: 90d7 4c3f b946 433f 04ee 553f 689c 523f
00000220: 938f 413f d714 483f 016f 4b3f 5077 763f
00000230: bf1c a63f e1e8 8e3f 0f4d 943f b08e 8f3f
00000240: da07 943f e7d0 803f 3c8d 893f 9a6b 8c3f
00000250: c09d 4c3f 50cf 453f a17c 2c3f b4aa 713f
00000260: bfec 513f ee00 2e3f 09cd 363f b48d 613f
00000270: 82a1 713f c84a 803f ed16 823f eb7b 723f
00000280: 6555 403f e4d2 303f c397 1e3f 5ac4 413f
00000290: 526f 533f 0d78 583f c200 4a3f 1001 3f3f
000002a0: 2b84 4d3f 756b 553f 40bb 543f db1f 773f
000002b0: 17b1 983f fa24 8d3f c785 953f 89bf 933f
000002c0: b277 893f 827d 813f 9a90 883f a16e 8c3f
000002d0: 4870 513f 5167 513f 4847 2e3f 57e5 703f
000002e0: a3c0 4b3f 1851 573f 8aac 4d3f 8c3f 6d3f
000002f0: f1e4 763f 17a3 623f 4087 633f d81d 763f
00000300: 64eb 39bd 23d4 45bd 1bbe 83bd 86a9 cc3c
00000310: 5b7e 91bd cbed f03a e187 cdbd 5eff edbd
00000320: c489 d23d a089 0cbd 0e48 ee3c 2b97 2f3b
00000330: 46c5 903c a00d 90bc 2180 773d 2cf9 30bd
00000340: 4748 58bc a21d 3d3d d31c 64bd 641b 533d
00000350: 68ea 62bd 1907 1cbd b472 14bd 106f f6bd
00000360: 5f20 f0bc 24da b1bb ec6c e7bd 2aab e6bc
00000370: b521 54bd e37e 30bd 8fce f6bc 0190 943d
00000380: 18ec 6ebd bcca 663d a516 783c 1790 313d
00000390: 1de0 733d 1a88 343d 26c6 a6bd 81e0 67bd
000003a0: 1f4d 15be fda6 50bd 75b1 89bd 3aa3 29bd
000003b0: 2ea7 19be 5064 06be b8f3 96bb c9de 5b3c
000003c0: 97c2 053d c0a7 28bd 0f9d 5cbd 2ee9 d7bd
000003d0: b19c efbd 0190 dcbb 0c72 d13c 1f60 65bc
000003e0: ab59 d2bd d027 063d 4c16 d1bd c3c8 113d
000003f0: 0cce 67bc debf 983d ea7c af3c c49e dabd

linear1.bias f4 [12]
0.95727247 0.76683074 -0.047000267 0.77591246 0.899842 0.87925965 0.8674932 1.0305207
0.8387398 0.070772946 0.9180915 -0.043768313
00000000: cf0f 753f 054f 443f 5a83 40bd 33a2 463f
00000010: 0c5c 663f 2917 613f 0914 5e3f 1ae8 833f
00000020: a7b7 563f 68f1 903d 0b08 6b3f 6746 33bd

linear2.weight f4 [9, 9]
0.3137065 0.3978689 2.6588442 -0.2721921 -0.9574468 0.44331372 -0.31398588 0.6906759
-0.32663655 0.796035 0.012070932 2.5683432 0.7379363 -0.88645107 0.24363141 0.83815897
0.48644388 0.5056383 0.11905487 0.75531673 2.849967 -0.18356992 -0.99386626 1.6042222
0.49436602 0.79662985 1.237253 -0.28556767 -0.850434 2.6531014 -1.0156525 -0.82178974
0.41785902 -0.08583907 -1.1798947 -0.011607175 -0.42480198 -0.47254914 2.8502116 -1.2804092
-0.89060336 1.0429726 -0.7398075 -0.36667642 1.3316073 -0.52057785 -0.2931367 2.9333649
-1.2087864 -1.1736063 1.4631417 -0.8654411 -0.4527859 1.4241971 0.56037664 -0.43222076
2.5140254 0.98920095 -0.93357474 1.5212097 0.9398929 -0.75925463 0.5029923 0.19953918
0.4820879 2.6799798 0.29485786 -1.0361347 0.5021277 -0.507839 0.69795024 -0.047926564
-0.84104055 1.052032 2.5656352 -1.783056 0.8691131 1.0833495 -1.4113712 0.4712704
-0.12968563
00000000: 239e a03e 79b5 cb3e 812a 2a40 c35c 8bbe
00000010: 3c1b 75bf 04fa e23e c2c2 a0be 23d0 303f
00000020: e83c a7be f3c8 4b3f 29c5 453c bc5f 2440
00000030: 65e9 3c3f 75ee 62bf 837a 793e 9691 563f
00000040: 2c0f f93e 8371 013f 0ad3 f33d 705c 413f
00000050: dc65 3640 c1f9 3bbe 056e 7ebf 2757 cd3f
00000060: 8b1d fd3e efef 4b3f 4e5e 9e3f ed35 92be
00000070: 0bb6 59bf 6acc 2940 e700 82bf d060 52bf
00000080: 9ef1 d53e 65cc afbd ca06 97bf 052c 3ebc
00000090: a57f d9be f6f1 f1be de69 3640 73e4 a3bf
000000a0: 95fe 63bf 2080 853f 0664 3dbf 03bd bbbe
000000b0: 1c72 aa3f 9744 05bf 0316 96be 40bc 3b40
000000c0: 83b9 9abf bb38 96bf 3a48 bb3f 8c8d 5dbf
000000d0: 8ed3 e7be 174c b63f d874 0f3f 0a4c ddbe
000000e0: cbe5 2040 463c 7d3f c1fe 6ebf 00b7 c23f
000000f0: d29c 703f 835e 42bf 1ac4 003f 0054 4c3e
00000100: 3ad4 f63e ca84 2b40 9cf7 963e 10a0 84bf
00000110: 718b 003f bd01 02bf deac 323f a54e 44bd
00000120: 6f4e 57bf fca8 863f 5e33 2440 2e3b e4bf
00000130: 327e 5e3f 32ab 8a3f d0a7 b4bf 5b4a f13e
00000140: 4fcc 04be

linear2.bias f4 [9]
3.204649 2.706095 2.6926744 3.1641827 2.951669 2.5479412 2.5901346 3.157396
2.779096
00000000: f818 4d40 a930 2d40 c754 2c40 f881 4a40
00000010: 25e8 3c40 7811 2340 c4c4 2540 c712 4a40
00000020: b5dc 3140

linear3.weight f4 [3, 24]
2.638475 2.369996 2.5723212 2.2785583 2.4253297 2.5021393 2.3888571 2.308864
2.4220648 1.1228561 1.0980104 -0.032255188 1.1346415 1.0804106 1.1605816 1.0840286
1.0803695 1.0561404 0.029205184 1.1090975 -0.12703197 0.030994995 0.30878937 0.05660767
2.4420316 2.3164504 2.408507 2.5323668 2.3617263 2.5480456 2.4535377 2.495895
2.460851 1.0937207 1.1260345 0.10496978 1.1332583 1.0896074 1.1656017 1.0834131
1.0804143 1.0630049 -0.13137151 1.0780398 -0.056176618 0.10773073 0.42404774 0.35322917
2.500284 2.4403257 2.5476315 2.3463306 2.3897574 2.4507146 2.541638 2.57187
2.2299118 1.1262968 1.1223166 -0.116164744 1.113318 1.0851837 1.1498895 1.0618939
1.0838244 1.0521342 -0.16226868 1.1073462 0.037647184 0.08173122 0.18909095 0.06447807
00000000: c6dc 2840 04ae 1740 e9a0 2440 e6d3 1140
00000010: 9a38 1b40 0d23 2040 09e3 1840 6ec4 1340
00000020: 1c03 1b40 c0b9 8f3f 9b8b 8c3f 041e 04bd
00000030: ef3b 913f e54a 8a3f f08d 943f 73c1 8a3f
00000040: 8c49 8a3f 9c2f 873f b63f ef3c e8f6 8d3f
00000050: ab14 02be 37e9 fd3c a419 9e3e 72dd 673d
00000060: 3f4a 1c40 b940 1440 fb24 1a40 4c12 2240
00000070: 8626 1740 2e13 2340 c306 1d40 bebc 1f40
00000080: 957e 1d40 0aff 8b3f e621 903f 65fa d63d
00000090: 9c0e 913f 4178 8b3f 7032 953f 48ad 8a3f
000000a0: 044b 8a3f 8b10 883f 4186 06be 35fd 893f
000000b0: 7419 66bd eea1 dc3d c91c d93e 74da b43e
000000c0: a704 2040 4c2e 1c40 650c 2340 482a 1640
000000d0: c9f1 1840 82d8 1c40 32aa 2240 8599 2440
000000e0: e0b6 0e40 7e2a 903f 12a8 8f3f c8e7 edbd
000000f0: 3481 8e3f 4de7 8a3f 942f 933f 24ec 873f
00000100: c2ba 8a3f 55ac 863f c329 26be 85bd 8d3f
00000110: ef33 1a3d b362 a73d 0fa1 413e 140d 843d

linear3.bias f4 [3]
1.5999959 1.6479635 1.7114093
00000000: aacc cc3f 78f0 d23f 760f db3f
