models/critic_2_1400_q_net_1.pt (torch, 9005 bytes, 11 tensors)

conv1.weight f4 [1, 1, 7, 7]
00000000: edfe 9f3c 8334 6a3c 9920 8f3e 7601 733e
00000010: 69c1 00b9 69e7 603e 63fe 0b3d 0749 8c3e
00000020: 9e27 383e 2ee3 e73d 63e0 233e 5fa6 f13d
00000030: abd7 0e3e 0fd6 0f3d 78d4 463e 34e6 89ba
00000040: 3bf6 b83d f29c d1bc a043 75bc 03e3 e23d
00000050: 668b e33d 0377 19bd f1eb 173e c17f 133e
00000060: e99c d93c 951b da3d 5164 a53c 6074 5dbd
00000070: 0429 cb3d be7d 733e 1da9 123e 5bb6 203d
00000080: 1f45 873e 6764 f33d d84b 2b3c 4e10 4c3e
00000090: b31c 1d3d adc4 803e 1ca1 343e 957f 3d3e
000000a0: a6d9 563c 4078 303e d7f0 d83d b08b 8c3d
000000b0: 0898 003e bc3e 45bd e332 02bd f929 4ebd
000000c0: ba98 453d
0.019530738 0.014294746 0.27954558 0.23731026 -0.00012279082 0.21963276 0.03417815 0.27399465
0.17983863 0.11322628 0.16003565 0.11799311 0.13949458 0.03511625 0.19416988 -0.0010520876
0.0903134 -0.025587533 -0.014969736 0.11078455 0.111105725 -0.037467014 0.14836098 0.14404203
0.026564078 0.10649792 0.020189436 -0.054066062 0.099199325 0.23778436 0.14322324 0.039236408
0.26419923 0.118843846 0.010455094 0.19928095 0.038357448 0.25150052 0.17639583 0.185057
0.013113415 0.17233372 0.105928116 0.06862581 0.12557995 -0.04815553 -0.03178681 -0.050332997
0.048241355

conv2.weight f4 [1, 1, 7, 7]
00000000: d9bc 4b3e 2fcf 3f3e 7a3e 7b3d d612 bc3d
00000010: d424 3f3e 3d78 853d 87c9 99bc 7fc4 c63d
00000020: 024f 993d 8adb 3d3e 7488 2c3e bba8 123e
00000030: 744a 453e a2b4 523b 069b 563d 306e 503c
00000040: 3348 d03d 645b 653c 557c fa3d bc9f 7e3d
00000050: 98b6 2f3e 4545 9f3c 65fd 623d 3399 753e
00000060: aff8 663e 01aa 163e 8610 8a3d dce0 233a
00000070: d755 7d3e 2ab4 1f3e cba0 d03d 3855 e13d
00000080: eac2 d23d ff45 723e 9ee1 293d dda9 d33d
00000090: 2ba6 673e 7577 be3d ba38 483e e5b5 3c3e
000000a0: 2c1e 483c 5a3e 2b3e ff56 013e 749e 0d3d
000000b0: bf8c 433d 79d9 733e f3b0 623e 2b72 7e3e
000000c0: 34dc 833e
0.19896258 0.18731378 0.06133888 0.0918328 0.18666393 0.06517074 -0.018772854 0.097054474
0.07485773 0.18540779 0.16848928 0.14322178 0.19266683 0.0032151123 0.052393936 0.012721583
0.10170021 0.01399884 0.12230746 0.062164053 0.17159498 0.01944221 0.055417437 0.23984222
0.22555803 0.14713289 0.06741433 0.0006251463 0.24739777 0.15596071 0.10186919 0.11002582
0.10291083 0.23659514 0.04147493 0.10335133 0.22621982 0.09300128 0.1955289 0.18428762
0.012214225 0.16723004 0.12630843 0.03457494 0.047741648 0.23813428 0.22137813 0.24848239
0.2575394

conv3.weight f4 [1, 1, 7, 7]
00000000: dcd6 39bd 9ed1 8b3d 7302 9bbd bee6 e53d
00000010: 55ec 023e 517a f03d 21ca c23d b355 61bd
00000020: d8c1 6abd 370b 53bd e018 03be 30f7 093e
00000030: 7e67 99bd 6e9b ccba 539d 22bd aa8f 173d
00000040: e394 f4bd dc9c 9a3b f58b f43d 017f 4cbd
00000050: ca01 df3c fc81 753d 9a20 eb3d 7893 0cbe
00000060: b78f 80bd d338 d6bd 5a57 d3bd d575 aabd
00000070: 97a8 3e3d 5130 e23d a590 193c cadb 453c
00000080: 93cb 76bc 6248 0dbe 4b37 113e aaec 673d
00000090: 787d fabd bcf4 073d c337 c93d fc0f b33d
000000a0: 9f11 033e 4628 003e 681c ee3d a5fc f3bc
000000b0: fc63 1e3d bcee 4b3d febb f8bd 9c82 423d
000000c0: bc1d b2bd
-0.04537092 0.06827091 -0.075688265 0.11225651 0.12785466 0.1174208 0.09511209 -0.05501337
-0.05731377 -0.051524367 -0.12802458 0.13473201 -0.07490443 -0.0015610287 -0.039700817 0.037002243
-0.119424604 0.004718406 0.11940757 -0.049925808 0.027222533 0.059938416 0.11480828 -0.1372813
-0.062774114 -0.10460057 -0.10319395 -0.08323256 0.0465475 0.11044372 0.009372865 0.012076328
-0.015063184 -0.13797143 0.14181249 0.056622185 -0.122309625 0.03319238 0.09825089 0.08743283
0.1279969 0.12515363 0.11626512 -0.029783556 0.03866957 0.04978822 -0.12145232 0.04748784
-0.08697078

linear1.weight f4 [12, 64]
00000000: 7c35 833e 2ded 903e 05e2 8d3e 749f 913e
00000010: 35e3 463d f551 873d c9b5 863d 3863 8b3e
00000020: 00e0 bc3d a8d1 773e 10e4 533e 383b 8f3e
00000030: c099 c23d a9e4 383e f042 663d 5269 713d
00000040: 1da9 043d 8ae6 623e bf79 e73d 5278 213e
00000050: 8478 7d3e 9657 5c3e a30a 423e 1d44 ad3d
00000060: e08b 603e 0775 863e 9383 f13c 5106 f23d
00000070: 961a 473d af6f eb3d 22dd 323e 086d 013d
00000080: 33c5 6b3d 53ad 443e 226f 7d3e 8552 c93d
00000090: 278b 5e3e 56cf 533d 32e6 c83d 882b 753e
000000a0: 4016 093e 02b0 4f3e 72e7 9c3d 362a 473e
000000b0: edc7 023e dc3a 1c3e 1122 4c3e fee9 3a3e
000000c0: 5798 793e a573 193e 393e f23d 33f0 7f3e
000000d0: a318 1f3e d67c 563d 05c8 983d 9241 703e
000000e0: 8153 6c3e 34b1 e43d 29b2 843e 60ed 693e
000000f0: dc73 623e e429 313e 4524 673e a34a 0c3e
00000100: b874 16be 2f96 93bd b854 6dbc 5e33 d2bd
00000110: a2a7 2d3c 1716 993d a13c 283c f29d 2a3d
00000120: 2dd6 53bd fc81 38bd cb77 9abd 48f6 8d3d
00000130: 8d85 08be 2197 703c 8ce4 2b3c ae65 9a3d
00000140: ce98 60bd e273 c0bd 9117 a73d da24 03be
00000150: fe07 1dbd 376f eebd a213 4c3d 1a2d 323d
00000160: 9ca2 d9bd 6e1e 47bd e180 27bd a2ee 1fbe
00000170: a628 9a3d 9e91 493c fcbb 22bd edfb 863d
00000180: 713d bd3c 38c9 853c 383d 403c d0f2 a9bd
00000190: 3bc5 0fbe 5de9 d93b 0014 4abd 2a4c c13c
000001a0: 5d19 05be 0380 e5bc 6a7e 5b3d 6988 95bc
000001b0: 93c2 02be 462c 26bb 13fe ab3d b462 9ebd
000001c0: 25be 77bd cbd3 093d 7c0b 283d 6cad c13b
000001d0: 4d56 74bc ae49 5a3d a844 9e3d 8eae 1abe
000001e0: 3f93 253d 44c1 603d cd4a f53c ef61 223c
000001f0: eedf 533b 0229 623d 0789 c3bc f7fb 953d
00000200: 57cf 203e d2ab 783e 60b8 8c3e a787 3a3e
00000210: 58c0 8a3e 8c4c 833e b749 653e 3f6e 063e
00000220: 2472 8e3d e529 593e e3fc 713e 2207 4c3d
00000230: e869 233e be95 263e 8cea 0c3e 4784 743e
00000240: 1e02 863e f05a e03d 3971 503e 93b9 7b3e
00000250: f6fc 113e c680 623e c3cf 8d3e 1b29 183e
00000260: 073d 0b3d e507 213d 408a 813e c6cf 8d3d
00000270: 1461 873e c7a7 333e d17d 643d dc6d 8d3e
00000280: b717 7b3e 1de6 e83d 82ce 033e 70d3 aa3d
00000290: 241b b63d 788a 3f3e 5fe2 143e 1eca 883d
000002a0: e004 033e a9b9 503e 7dd6 403e c915 3e3e
000002b0: 673b a43d 4f73 d33d 6e92 453e cafb 733e
000002c0: e663 3d3e 1020 893d afb5 533e 6638 ab3d
000002d0: bb9a 3a3d abb3 803e 7b90 723e a529 113e
000002e0: dcf7 813e 70bf 033e b076 5b3e 2349 503d
000002f0: 0eb9 e43d 2c81 163e fa34 4a3e 1d58 6a3e
00000300: 2010 a53c c41c 7fbd f2d7 c83d 46bf 953d
00000310: 8c15 90bd a097 a53b 5010 ed3d f881 2dbd
00000320: 7250 fdbd 9402 bc3d 6c15 543d 1a45 863d
00000330: 60ac 893c e8c4 9fbc a88d e6bc 009b 6a3d
00000340: 7059 04bd 88b5 6cbd 406f a2bb f45b 183d
00000350: 4218 fbbd 80ef c43b c0f1 6a3d 2c6c 98bd
00000360: fe42 a93d b0cf e43c e893 8d3d 9c97 513d
00000370: 40e0 083b 44ba 743d ae0b d3bd c4dc b83d
00000380: f86b 98bc 00d3 8d3a c08a 57bd e838 b0bd
00000390: 80c7 99bd d0ee 793d a83c 07bd 407f e13d
000003a0: 8081 d0bc ca79 fdbd 16ef 89bd c00b d1bb
000003b0: d0fe 86bd 3c6e 85bd 080a 6d3d 788c 5c3d
000003c0: 00fe eb39 c4bd c4bd 76d9 d0bd 20d8 c3bb
000003d0: 0a0c f1bd 803b f63c 0050 cab9 305c ae3c
000003e0: 30e3 29bc 2203 9e3d b6d3 8abd 5c1c ddbd
000003f0: b48b 19bd 0845 553d 904a d6bd b8cc 923c
0.25626743 0.2830595 0.27711502 0.28441966 0.048556525 0.06607429 0.065776415 0.27224135
0.09222412 0.24201071 0.20692468 0.27974868 0.09501982 0.18055977 0.05621618 0.058938332
0.03238784 0.22158256 0.11302518 0.15768555 0.24753004 0.21517786 0.1894937 0.08460257
0.21928358 0.2626116 0.029481685 0.11817611 0.04860934 0.11495911 0.17467168 0.03159812
0.05756111 0.19206743 0.24749425 0.098301925 0.2173277 0.051711403 0.09809531 0.23942387
0.13387394 0.20281985 0.07661332 0.19449696 0.12771578 0.15256828 0.1993487 0.18253323
0.2437452 0.14985521 0.11828274 0.24993972 0.15536742 0.052365147 0.07460026 0.23462513
0.23078729 0.11166611 0.25917175 0.22844458 0.2211451 0.17301136 0.2257243 0.13700347
-0.14692962 -0.072063796 -0.014485531 -0.10263704 0.010599049 0.074749164 0.010268361 0.041654535
-0.051717926 -0.045045838 -0.0754238 0.0693174 -0.13332196 0.014684469 0.010491502 0.07538925
-0.054833226 -0.09397103 0.08158792 -0.12807027 -0.0383377 -0.11642306 0.04982341 0.043500043
-0.106267184 -0.048613004 -0.040894393 -0.15618375 0.07527284 0.012302784 -0.039730057 0.0659102
0.023100587 0.0163313 0.011733346 -0.08298266 -0.14040081 0.0066501335 -0.04933548 0.023595888
-0.12997957 -0.028015142 0.053587355 -0.018253522 -0.12769537 -0.002535598 0.0839807 -0.0773367
-0.06048407 0.033649247 0.041026577 0.005910566 -0.014913154 0.053292923 0.07727939 -0.1510565
0.040423628 0.054871812 0.029942894 0.0099110445 0.0032329517 0.05521489 -0.02386905 0.07323449
0.15704094 0.24284294 0.27484417 0.1821581 0.27099872 0.25644338 0.22391401 0.13127993
0.06955364 0.21207388 0.23631625 0.04981149 0.15958369 0.1626806 0.13761348 0.23878585
0.2617349 0.10954845 0.20355691 0.2458251 0.14256653 0.22119436 0.27697572 0.1485943
0.033993747 0.03931417 0.2530079 0.06924395 0.26441252 0.1754447 0.05578405 0.2762288
0.24520765 0.113720156 0.12871745 0.0834111 0.088918954 0.18705165 0.14539479 0.06679176
0.12794828 0.20383324 0.18831821 0.18562998 0.080191426 0.10324728 0.1929414 0.23826519
0.1849514 0.066955686 0.20674776 0.083603665 0.04555772 0.25137076 0.23687927 0.14176042
0.25384414 0.12865996 0.21431994 0.050851 0.11168109 0.14697713 0.19746771 0.22885175
0.02014929 -0.062283292 0.09806813 0.07311873 -0.0703536 0.0050534755 0.11575377 -0.042360276
-0.12368859 0.09180179 0.051778242 0.06556149 0.016805828 -0.019503072 -0.028143719 0.057276726
-0.032311857 -0.05779031 -0.0049571097 0.03719707 -0.12260486 0.006009996 0.057359457 -0.07442507
0.08264731 0.027931064 0.069129765 0.051169977 0.0020885617 0.05974795 -0.10304962 0.09026483
-0.018606171 0.0010820329 -0.052622557 -0.08604604 -0.07508755 0.061018765 -0.03301683 0.11010599
-0.025452375 -0.12376745 -0.06735055 -0.0063795745 -0.065915704 -0.06515166 0.057870895 0.0538449
0.00045011938 -0.096065074 -0.101977274 -0.005976692 -0.117698744 0.030057669 -0.00038588047 0.021284193
-0.010369107 0.07715441 -0.06778662 -0.10796425 -0.037486747 0.052067786 -0.104634404 0.017919883

linear1.bias f4 [12]
00000000: aca3 1b3e 6c56 243c 6c4d 703e 6012 53bd
00000010: b16a 75bd 8b14 e13c 9f22 ce3d 5d69 b53c
00000020: b7e9 493e d41d dd3d 2079 10bd 30e7 813e
0.15199155 0.01003037 0.23467034 -0.051531196 -0.059916202 0.027475616 0.10065197 0.022144968
0.19718061 0.10796705 -0.035271764 0.25371695

linear2.weight f4 [5, 5]
00000000: c626 213e 5c8c d6be 5d8e dcbe ced6 03be
00000010: 44a0 8dbe 737c 9f3e b3df 8c3e f540 b93e
00000020: 0200 013f b325 e33e 10a0 e93e 088c 3a3d
00000030: f34d a93e b0b0 f93d b827 573e 38b4 55be
00000040: 167d 383e eb4d c7be e8c5 b8bb d69d 86be
00000050: 9f2f a13d 342d a53d 0d0e babd 331d 053f
00000060: 705d 8dbe
0.15737447 -0.4190396 -0.43077365 -0.1287491 -0.27661335 0.31149635 0.2751442 0.3618237
0.50390637 0.443647 0.4562993 0.0455437 0.33067283 0.121919036 0.21011245 -0.20869529
0.18016466 -0.38926634 -0.0056388266 -0.26292294 0.07870411 0.080652624 -0.09084711 0.5199768
-0.2761035

linear2.bias f4 [5]
00000000: 02f6 e8be 864f 373e ad0d a3be 3c16 9fbe
00000010: 0cbb 5bbe
-0.4550019 0.1790143 -0.3184637 -0.3107165 -0.21458071

linear3.weight f4 [3, 20]
00000000: b0d1 363e a2e4 10bd 46da 62be 1555 1e3e
00000010: d39b 05be c36d 263e ca19 d4bd 31f6 803e
00000020: c65a 453e d1e1 cebd de4f 0dbe 067a 833e
00000030: af66 febd 5f29 8b3e be9f 903e a963 2d3e
00000040: ae8e 5a3e ad9f b53e e9df abbd e91f bc3e
00000050: c286 98bd 2b8b 14bd c4c9 453b f8c2 e93d
00000060: 2e5f 623d bf8c 833e 5295 f63c 8cf5 483e
00000070: 185e 233e 7b3b f3bd e564 9abc dcd4 633e
00000080: 7677 efbc 3aba 983e b3d6 293e 3518 c0bd
00000090: 6862 903e 0e9d 893d 8471 e33d 4395 d23e
000000a0: 4d1b 0d3e 3965 913e d4f1 81bc bc38 48be
000000b0: a8e1 493e ac90 643e 70e8 68bd 2b79 293e
000000c0: 4c57 06be 3b83 093e 6a36 43be 9f10 903e
000000d0: 2293 4dbe 10c9 ba3d 8df5 9f3e a315 0cbd
000000e0: a2a3 b53e 5508 a83e a93c c0bd b0df 7d3e
0.17853427 -0.03537429 -0.22153577 0.15462144 -0.13047723 0.16252808 -0.103564814 0.2518783
0.19272909 -0.10101665 -0.13799998 0.25679034 -0.12421929 0.2718 0.28246874 0.16932549
0.2134349 0.35473385 -0.08392317 0.36743096 -0.07447578 -0.036265533 0.0030180076 0.114141405
0.05526655 0.25693318 0.030100498 0.19624919 0.15953863 -0.118765794 -0.018846938 0.22249168
-0.029231768 0.2982958 0.16585808 -0.09379617 0.28200078 0.06719409 0.11105636 0.41129503
0.13779946 0.2839754 -0.015862383 -0.19552892 0.19714987 0.22320813 -0.056862295 0.16550128
-0.13119239 0.13428967 -0.19063726 0.2813768 -0.20075658 0.09120381 0.31242028 -0.034200322
0.35476404 0.32818857 -0.0938657 0.24792361

linear3.bias f4 [3]
00000000: 8bde 33bd cb10 213d 4638 5d3e
-0.043913405 0.039322656 0.21603498

linear4.weight f4 [3, 17]
00000000: 96ed 8fbd 339e 4a3e 5340 053e f3cc 1e3e
00000010: 9c5e 423e 5010 843c 4e6d 1abc ba25 44bd
00000020: 7e36 673e 60bd 2a3e 6968 3dbe 5619 8b3d
00000030: a869 88bd e03b 523e 932d 0fbe b366 41be
00000040: 223b 5c3d c105 2abe 167a 583e 8406 673e
00000050: 4c80 2dbe 83c3 27bd 0f1c fdbc bb87 66be
00000060: 270c 3cbe 7432 673e 1ec6 363e fd78 b0bd
00000070: 6afd bc3d cda3 58bd 1dd7 1a3d b171 84bc
00000080: 3e84 ae3d 57b5 05be c463 563e c274 2cbd
00000090: c3c3 743e cadc 09be be78 31bd f3c8 323e
000000a0: 0b6c 64be 816d 603d cb4c e43d bd16 36bc
000000b0: 3dfc 3dbe 8ef8 24be f235 ee3d d1b6 71be
000000c0: 1c06 13be 3764 253e 3075 7ebd
-0.07027738 0.1978691 0.13012819 0.1550787 0.18981403 0.01612106 -0.009425474 -0.04788754
0.22579381 0.16673803 -0.1849686 0.06791942 -0.06660777 0.20530653 -0.13982229 -0.18886833
0.05376733 -0.16603757 0.21140322 0.2256108 -0.16943473 -0.04095794 -0.030897168 -0.22512715
-0.18364011 0.2257784 0.17849013 -0.08616827 0.092280224 -0.052890588 0.037802804 -0.016167494
0.08521317 -0.13057457 0.20936495 -0.042103536 0.23902802 -0.1346313 -0.04332804 0.17459469
-0.2230684 0.05479193 0.111474596 -0.01111382 -0.18553253 -0.16110441 0.11631383 -0.23604895
-0.143578 0.1615151 -0.062123477

linear4.bias f4 [3]
00000000: 644f 71be 08ad d0bd d323 fc3c
-0.23565441 -0.10189253 0.030778801
