models/critic700_q_net_1.pt (torch, 8877 bytes, 11 tensors)

conv1.weight f4 [1, 1, 7, 7]
000000 00 30 8c ba b5 f2 9c 3d ac cc f0 bd 93 50 d7 bd
       -0.0010695457 0.0766348 -0.11757788 -0.10513415
000010 ce 5e 61 bd 0e e9 1c 3d 25 7f 39 bb 11 fa e7 3d
       -0.055022053 0.038308196 -0.0028304544 0.11326993
000020 37 b6 4f bc 0e d6 1a 3d 7c d6 30 bd a5 09 e6 bc
       -0.012677721 0.037801795 -0.0431733 -0.02808077
000030 fc c0 0b be cc c3 c1 bd 9c 35 71 bd 01 68 ad 3b
       -0.13647836 -0.094611734 -0.058889017 0.0052919392
000040 dc 53 67 3d ae 8c af 3d a1 58 c6 bd d8 ce 7e bd
       0.05647646 0.085717544 -0.09684873 -0.06220898
000050 ae 88 54 3d a3 f2 f2 3d 53 d8 f0 bc 45 ef da 3d
       0.05188816 0.118626855 -0.029400026 0.10690168
000060 6e a1 bc bc 5c aa 77 3c 4f 75 04 3e 76 b4 07 be
       -0.023026194 0.0151163 0.12935375 -0.13252434
000070 51 2f b8 bd 4a 23 14 bd b3 16 64 bd 2e c8 fc 3d
       -0.089934 -0.036166467 -0.05568571 0.12342869
000080 8c a3 bd bd 25 ae 86 bd fa 66 cc bd 68 01 09 be
       -0.0925971 -0.06576184 -0.09980579 -0.13379443
000090 2a c9 aa bd 6c 7e fb 3d fe 8c 82 3d 25 cd 8d 3d
       -0.0833915 0.122799724 0.063745484 0.06923894
0000a0 4a 30 f6 3b 1e ff 95 bd 93 fe c5 3c 12 96 08 be
       0.0075130807 -0.0732405 0.024169242 -0.13338497
0000b0 fa 66 d3 bd 50 d4 96 bd 2c 98 b8 3d 75 8a ab 3d
       -0.103223756 -0.07364714 0.090133995 0.08376018
0000c0 05 c1 81 bd
       -0.06335644

conv2.weight f4 [1, 1, 7, 7]
000000 01 1e bb 3d 6f 6d 11 3e 98 3b 68 3d e5 18 9e 3c
       0.09136582 0.14201902 0.056697458 0.01929898
000010 47 2a c4 3d 4a 44 ac bd 65 13 da 3c 0e d5 e2 bd
       0.09578376 -0.084114626 0.026620576 -0.11075793
000020 f7 c6 ca bd 3a 23 97 bd 75 61 84 3d 41 52 6b 3d
       -0.09901231 -0.07379766 0.06463901 0.05745149
000030 31 4e ad bd 9c c6 30 3d 10 9d a0 3d dc b5 93 bc
       -0.084621795 0.04315816 0.07842457 -0.018031053
000040 b7 bb b2 3b 93 94 07 3d 25 81 b5 3d 73 76 0c 3e
       0.0054545063 0.033100676 0.08862523 0.1371706
000050 63 76 e1 bd ea 6f 56 bd 8a f7 65 3d ee 68 f2 3d
       -0.110089086 -0.052352823 0.056144275 0.1183642
000060 0a 99 fe 3d 82 13 01 3e 65 e7 e8 3c 41 6a fe bd
       0.12431534 0.12605098 0.02843065 -0.1242261
000070 a5 50 57 3c c5 08 b7 bd e3 54 08 be 48 f9 01 3e
       0.013141786 -0.089372195 -0.13313632 0.1269275
000080 a5 75 de 3d 92 ec 11 be 77 0b db 3c 77 25 c5 bc
       0.10862283 -0.142504 0.026738865 -0.024065716
000090 65 95 c0 bc 35 ed 85 bd 33 05 61 3d 85 4a ad bd
       -0.023508737 -0.06539384 0.0549366 -0.08461479
0000a0 21 82 56 3d ac f4 93 3d 8e 71 d1 3d 9c ca 5a 3d
       0.052370194 0.07224402 0.10226737 0.05341588
0000b0 bd c8 10 be 4a ca bd bd d7 15 92 3d 41 f1 f4 3c
       -0.14139076 -0.09267099 0.07133072 0.029900195
0000c0 f5 3a e4 bd
       -0.11144058

conv3.weight f4 [1, 1, 7, 7]
000000 42 9e 09 3e ce 23 c5 3d 13 23 7f bd 85 45 13 bd
       0.13439277 0.0962597 -0.06228931 -0.03595497
000010 fc 59 0b be 6e 47 28 bb d3 52 dc bd 4c ad e1 bd
       -0.13608545 -0.002567734 -0.10757985 -0.11019382
000020 ee f6 00 bc 6e b6 af 3c 3c a2 6f bd f7 9a ad 3d
       -0.007871373 0.021449294 -0.058504328 0.08476823
000030 8a 0a b2 bd 3c bc 04 3e ca 7f c8 3d 73 b8 f6 bd
       -0.086934164 0.1296243 0.09789999 -0.120469
000040 05 a2 11 bd b7 39 d3 3b f7 be aa 3c e5 c7 0a 3d
       -0.035554904 0.006446089 0.020843012 0.03388204
000050 6a a0 65 3d 5c 33 0c 3c 07 c1 8e bd 0c 71 8a 3d
       0.056061186 0.008557167 -0.06970411 0.06759843
000060 0d 53 0c be b7 68 ad bd 8e 7a 12 bd f5 83 8e bd
       -0.13703556 -0.084672384 -0.03576141 -0.069587626
000070 d7 b3 4c bd 43 cc ef bd 01 f0 f8 bc f8 27 fa 3c
       -0.049976196 -0.11708882 -0.03038788 0.030536637
000080 ac 99 be bd b8 3b f0 bb 01 70 d1 3d 81 9c 70 bc
       -0.09306654 -0.007331338 0.10226441 -0.014685751
000090 6e 19 82 3b 25 eb 49 bc 13 d8 ec 3c 4a 07 ba 3d
       0.0039703166 -0.012324129 0.028911626 0.090834215
0000a0 8f 91 0a 3e 9a cc b9 3d ba e2 0a 3e 25 46 29 bc
       0.13532089 0.09072228 0.13563052 -0.010331665
0000b0 5f 69 03 be 93 b3 8a bd a3 36 c7 3d 6e c3 72 ba
       -0.12833165 -0.06772532 0.09727218 -0.00092606887
0000c0 ec 6b 91 bd
       -0.071006626

linear1.weight f4 [12, 64]
000000 00 94 ef bd ec 10 d8 bd 70 b4 cf bc 56 64 8c 3d
       -0.11698151 -0.105501026 -0.025354594 0.06855075
000010 74 67 8a 3d 02 e5 f6 bd 2e b0 9f 3d 8a 52 c8 bd
       0.06758013 -0.120553985 0.077972755 -0.09781368
000020 f0 7b d8 bc 1c 9a 4f bd f0 3c c5 bc 10 0e c9 bc
       -0.026426286 -0.05068408 -0.024076909 -0.024542838
000030 ba b8 e5 bd 44 0a dd bd 28 3c a0 bc 80 e1 d3 3a
       -0.112168744 -0.10792974 -0.019559935 0.0016165227
000040 b8 96 68 bd b8 de 40 3d 3a 6a e6 bd c0 36 0a bc
       -0.05678436 0.0470874 -0.1125073 -0.008435905
000050 a2 21 e1 3d 38 d7 50 bd 36 2b e7 3d 38 6c 39 3d
       0.10992743 -0.0509865 0.11287539 0.04526922
000060 ae 07 e7 bd 74 f8 a1 3d f0 53 6c bc 70 8f 64 bd
       -0.11280762 0.07908717 -0.014424309 -0.055800855
000070 14 b6 cc 3d 54 df ce bd b0 c2 5b 3c c0 64 d6 bc
       0.09995666 -0.1010119 0.013413116 -0.026171088
000080 16 d0 b6 3d 08 ec 0e 3d cc 04 76 3d 40 d1 34 3d
       0.08926408 0.034893066 0.06006317 0.04414487
000090 00 3f f6 bc 50 5a d7 bc 00 f7 d2 bd 4c b6 8a 3d
       -0.030059338 -0.026288182 -0.10301018 0.067730516
0000a0 26 42 cb 3d 5c 29 af 3d ac 93 b4 bd 60 ae b6 3b
       0.09924726 0.085528105 -0.08817229 0.0055749863
0000b0 90 76 b4 bd 88 ec 8c bd 30 2c 95 bd 34 f9 2e 3d
       -0.088116765 -0.06881052 -0.07283819 0.042718127
0000c0 c4 8d 98 bd 00 ba 32 bb a0 4f ac 3b 04 06 a5 3d
       -0.07448915 -0.002727151 0.0052585155 0.08057788
0000d0 fa 83 c1 bd 44 bf af bd 3c a6 94 bd d6 2e b3 3d
       -0.09449001 -0.08581403 -0.07258269 0.087491676
0000e0 cc 0b 38 bd e0 ee d7 3d a0 24 39 3d 40 aa 81 3c
       -0.044933125 0.10543609 0.045200944 0.015828252
0000f0 00 ed 73 ba 08 6d ca bc 40 7a 80 3c 30 d3 e9 bc
       -0.000930503 -0.024710193 0.015683293 -0.028543085
000100 00 3e 66 ba c0 a7 82 3c 98 3e c8 bd 7a 2d 86 bd
       -0.00087830424 0.01594913 -0.09777564 -0.06551643
000110 d8 b7 ce 3d 86 c1 cf bd 20 0f 13 bc c0 3e fd 3d
       0.10093659 -0.101443335 -0.008975774 0.12365484
000120 10 f4 38 3d c0 f0 67 3b 26 da dd bd 2c a2 7d 3d
       0.04515463 0.00353913 -0.10832624 0.061922237
000130 08 58 b6 bd a8 56 11 bd cc c8 2b bd 38 a4 97 bc
       -0.089035094 -0.035483032 -0.04193954 -0.018510923
000140 80 36 b3 3a 96 26 d3 3d 80 ab 7f 3c 20 4c e5 3d
       0.0013672858 0.10310094 0.015604854 0.1119616
000150 30 99 9c 3d c6 d8 a1 bd 54 a2 65 3d 24 f7 b4 bd
       0.07646406 -0.079026744 0.05606301 -0.08836201
000160 9c ff 58 bd 40 97 16 3d f0 0e 29 3d f2 0e c0 3d
       -0.052978143 0.036765337 0.04127401 0.093778506
000170 28 d2 24 bd 00 d4 51 39 7a cb 83 3d 5a 93 f7 bd
       -0.040239483 0.0002001077 0.064352944 -0.12088652
000180 42 15 b9 3d 30 b1 d3 bd 00 d0 e1 3a e0 18 ae bc
       0.09037258 -0.1033653 0.0017228127 -0.021252096
000190 0a d4 86 bd d8 57 87 3c f2 b0 d3 3d e8 aa 15 bd
       -0.06583412 0.01652138 0.10336484 -0.036539942
0001a0 56 fc 97 bd 84 5b 3d bd e6 bb fd bd 1c 1d 67 3d
       -0.07421176 -0.046229854 -0.123893544 0.056424245
0001b0 20 e5 75 bd d0 d6 aa bd 62 7b 93 bd 52 30 93 3d
       -0.060032964 -0.083417535 -0.07201268 0.07186951
0001c0 24 92 87 3d 50 7c c4 3d d8 b6 39 3d c4 fc 2a bd
       0.06619671 0.09594023 0.04534039 -0.041744962
0001d0 d4 13 0f bd 98 42 17 3d de 70 d2 3d 74 35 0b 3d
       -0.03493102 0.036928743 0.10275434 0.033986524
0001e0 1c 40 72 bd fc ad 70 bd 42 0a f2 bd b0 3b dd 3c
       -0.05914317 -0.058759674 -0.11818363 0.027006
0001f0 a8 a9 8f bd 50 3e e4 bd fa 7a e0 3d d0 3f a6 bd
       -0.07014781 -0.11144698 0.10960956 -0.0811764
000200 d0 fb 68 bc 48 af 12 3d e0 7d 82 3b fa 41 ac bd
       -0.014220193 0.035811692 0.0039822906 -0.084110215
000210 2c ee ce bd 98 0d cc 3d 30 bf a6 3c 46 62 d4 3d
       -0.101040214 0.0996353 0.020354837 0.10370307
000220 a8 a4 2b bd f8 cf 16 3d 18 2a ea bc 60 27 b6 bb
       -0.041905075 0.03681943 -0.028584525 -0.005558893
000230 52 ea 9b bd ac 28 2d 3d 80 e0 21 3d 40 fd 28 bb
       -0.076130524 0.042275116 0.03952074 -0.0025785714
000240 c0 4c e6 bc 58 ce 9d bd 14 09 b1 3d 94 92 be bd
       -0.02811277 -0.077053726 0.0864431 -0.09305301
000250 ac bf 51 3d 6c 29 2c bd 0c 06 77 bd e0 f4 b7 3c
       0.051208183 -0.04203169 -0.0603085 0.022455633
000260 22 fb 84 bd 40 ef eb 3c 10 18 c9 3c ca 13 be bd
       -0.06493212 0.028800607 0.024547607 -0.09281118
000270 98 7e aa 3c 64 13 5a 3d 5c aa 4a 3d 58 e6 80 bc
       0.020812318 0.05324115 0.049478874 -0.015734836
000280 9a dd d1 bd 90 da 9d bc 50 d2 31 3d 2c d1 3a bd
       -0.10247345 -0.019269258 0.04341346 -0.045609638
000290 74 58 42 3d 86 7c aa 3d ba ab 85 bd 80 93 a1 3a
       0.047447637 0.08324532 -0.06526895 0.0012327284
0002a0 24 b6 53 3d 90 84 20 3c 90 12 2b 3c 70 b9 7f 3c
       0.051687375 0.00979723 0.010441437 0.015608177
0002b0 fa 40 c9 bd e0 f2 20 3c b4 45 b1 3d 64 af e6 3d
       -0.098268464 0.009823531 0.08655873 0.11263922
0002c0 d8 76 96 3d 18 38 89 3c 7c 1c 6f 3d dc 13 79 bd
       0.073468864 0.01675038 0.058376774 -0.060809955
0002d0 ec 24 d4 bd ca 23 dc bd 5a 63 ff 3d 8e 81 a2 3d
       -0.10358605 -0.10749014 0.12470122 0.07934867
0002e0 b2 f4 b0 bd f4 50 48 3d aa 52 c1 3d c2 e6 ff 3d
       -0.08640422 0.048905328 0.09439595 0.124951854
0002f0 58 d8 df 3d 44 56 c6 3d f0 c2 ea bc a0 ae 33 bd
       0.10929936 0.096844226 -0.028657407 -0.043867707
000300 42 30 d2 3d 0a 75 8f 3d 30 0e 9a bd fe 25 e6 3d
       0.10263111 0.07004745 -0.07522237 0.11237715
000310 90 60 77 3d 00 8e 8b 3d 6a 74 a0 bd 88 e4 12 3d
       0.060394824 0.06814194 -0.07834704 0.035862476
000320 ec 7c 33 bd fc 06 c8 3d 58 42 b8 bc f8 53 47 3d
       -0.043820307 0.09766957 -0.022492573 0.048664063
000330 80 e2 b5 3c f8 d6 59 3d e0 fd 2d bd f4 a2 79 3d
       0.02220273 0.053183526 -0.042478442 0.06094642
000340 fe ce b2 bd 88 46 e7 3c 20 35 ad bd ba 8d fc bd
       -0.08730887 0.028231874 -0.084573984 -0.1233172
000350 10 95 cd bd b6 1a ca 3d 50 81 8a 3d e8 2e f0 3d
       -0.10038197 0.09868376 0.06762946 0.11727697
000360 48 16 cd 3d a0 9e e4 bd ce b3 ae bd e8 75 a5 bc
       0.100140154 -0.11163068 -0.08530389 -0.020197824
000370 32 41 a6 bd f8 c3 b1 3d ba 89 c1 bd 38 ce 79 bd
       -0.08117904 0.08679956 -0.094500974 -0.06098768
000380 c4 51 f7 bd c6 57 91 bd e2 8d d2 3d 42 9a d1 3d
       -0.120761424 -0.070968196 0.10280968 0.102345005
000390 24 41 b7 3d 22 aa c5 3d ba a1 e3 3d b0 1a 03 bd
       0.089479715 0.09651591 0.11114831 -0.032007873
0003a0 f4 47 61 3d 04 14 e4 3d 14 61 29 3d ca ea ff 3d
       0.05500026 0.1113663 0.041352347 0.12495954
0003b0 18 c7 84 3d 58 24 9f 3d 2c 32 33 bd f4 ab 75 3d
       0.064832866 0.07770604 -0.04374902 0.05997844
0003c0 20 54 6b 3c 88 8c f4 bc 4a 4f 90 bd 56 a5 8f bd
       0.014363319 -0.029852167 -0.07046373 -0.07013957
0003d0 b2 fc c4 bd 4e dc ab 3d 96 ff b5 3d a0 16 69 bc
       -0.0961851 0.08391629 0.0888664 -0.014226586
0003e0 c4 24 94 bd 22 dd c5 3d 8c b5 a3 3d 70 3c 18 3c
       -0.07233575 0.09661318 0.07993612 0.009291753
0003f0 b8 bb 71 bd b8 46 eb 3d ac 60 51 3d 5a 57 c2 bd
       -0.059016913 0.11488098 0.051117584 -0.09489317

linear1.bias f4 [12]
000000 2c 4e 1e bc 4e 83 34 bc e7 cc fa bb 1c ac ff bd
       -0.009662192 -0.011017634 -0.007653821 -0.12483999
000010 2a 41 ec bd a3 c7 9c bb 40 72 8a 3e 24 9b e7 bd
       -0.115358666 -0.0047845407 0.2704029 -0.113088876
000020 67 d2 7e 3e 68 e5 c7 bd 8a a3 82 3e 44 2f 45 3e
       0.2488495 -0.09760553 0.25515395 0.19256312

linear2.weight f4 [3, 3]
000000 93 80 f9 3e 43 f9 f2 be be 41 23 bf 7e 6f 06 3f
       0.48730907 -0.47455797 -0.6377219 0.52513874
000010 08 f8 1f 3f 02 b5 00 3f c0 aa 0f 3f 45 4b e7 be
       0.6248784 0.50276196 0.5611992 -0.45174614
000020 79 b5 19 3f
       0.6004253

linear2.bias f4 [3]
000000 5c 4f 21 bf 3b 1d 95 3e a4 56 44 be
       -0.6301172 0.29123864 -0.19173676

linear3.weight f4 [3, 18]
000000 06 49 08 bb b0 41 2c 3e 31 dc 9a 3d 7e f0 21 3c
       -0.0020795478 0.16821933 0.075615294 0.009883998
000010 26 48 4e be a1 f4 2d be ba fc ba 3d 00 53 cc bd
       -0.2014471 -0.1698785 0.09130235 -0.099767685
000020 a2 26 9b bd 1c 3b a2 3d df 53 45 be b0 07 e0 bb
       -0.07575728 0.079214305 -0.19270276 -0.006836854
000030 31 6c 10 3e 1a 9f 92 3e e8 6c 62 3e f1 72 25 bd
       0.14103772 0.2863701 0.22111857 -0.04039282
000040 09 6f 0a 3e 09 33 98 3d ef 82 9d bd 03 75 35 3e
       0.13518919 0.07431609 -0.07690989 0.17720418
000050 33 0c c4 3e b8 17 3d be 7a 85 59 be 43 14 a9 3d
       0.38290557 -0.18466079 -0.21242324 0.08255818
000060 b1 bf 35 3e 53 dd 12 be 38 cb f4 3d f9 02 ad 3e
       0.17748906 -0.14342241 0.119528234 0.3379133
000070 76 d4 94 3d 94 2c 6e 3e 6d cf 70 3e 06 e8 a3 3e
       0.07267086 0.23259193 0.23516627 0.32012957
000080 11 1d 6a 3d 23 ac de 3d 7c 6e 35 3e e7 0b 8b 3e
       0.057156626 0.10872676 0.17717928 0.27157518
000090 28 66 12 be b5 1b 82 3e 8f 81 cc 3d be 08 3c be
       -0.14296782 0.25411764 0.09985649 -0.1836271
0000a0 8d 1e 98 3d 35 91 9b bd 6a d0 08 3d a0 b3 1c be
       0.07427702 -0.075960554 0.033401884 -0.15302896
0000b0 c7 ba e0 bd 2a df 1b 3e 4f 28 a2 bd 51 8d a3 3e
       -0.10973125 0.15221849 -0.079178445 0.31943753
0000c0 ea 79 a6 3c 04 7c b3 3e c2 81 6f 3e cb e1 4d 3c
       0.020321805 0.35055554 0.23389342 0.01256604
0000d0 1a 9a 5d 3e 0c e4 9c 3d
       0.21640816 0.07660684

linear3.bias f4 [3]
000000 82 08 3e 3e ee 35 86 3d 25 99 11 3e
       0.18557933 0.06553255 0.14218576

linear4.weight f4 [3, 15]
000000 41 58 4b bd 60 d3 b3 bc 5c 32 4e be e4 20 d0 ba
       -0.049644712 -0.021951377 -0.20136398 -0.0015878943
000010 c9 75 5b be c3 84 63 bd c1 3a 19 3e fc d8 37 be
       -0.2143165 -0.055546533 0.14963819 -0.17953867
000020 63 37 32 be 51 1e 81 bd af f5 90 bd 14 09 33 3d
       -0.17403941 -0.063046105 -0.070781104 0.04370983
000030 43 93 2f 3d fa 12 06 3e 14 23 36 be 0c 45 95 bc
       0.04286505 0.13093176 -0.17786819 -0.0182214
000040 ca df 13 3e d9 b1 64 3e af 4a 9a bc 13 fc 18 be
       0.14440838 0.22333468 -0.01883444 -0.14939909
000050 fa 01 98 3d 3d 91 16 3e 61 2e 25 be 54 6d 19 be
       0.07422252 0.14703842 -0.16130973 -0.14983112
000060 8f b9 e9 3d 7c 33 94 bc aa b8 79 be 53 72 18 be
       0.114123456 -0.018090956 -0.2438685 -0.14887361
000070 37 71 d6 3d 69 5a b3 bd 5a 7e 36 3e eb 03 51 3e
       0.10470813 -0.08757479 0.17821637 0.20411651
000080 b1 d8 19 3d 93 41 a7 bc 4c da a7 bd 04 e9 55 bc
       0.03756017 -0.02041701 -0.08195934 -0.013056044
000090 8d 80 40 3d 7b f5 49 be f7 c1 7c bd b0 ec 5b be
       0.046997596 -0.1972255 -0.061708417 -0.21477008
0000a0 2d 46 22 3e 73 60 28 be 7a 89 71 3e ef 4f 88 bd
       0.15847082 -0.16443042 0.235876 -0.06655871
0000b0 3a 77 17 be
       -0.14791575

linear4.bias f4 [3]
000000 38 0f fe 3d d8 a9 1d 3d 16 15 37 3e
       0.124052465 0.038492054 0.17879137
