models/critic_1_700_q_net_2.pt (torch, 9005 bytes, 11 tensors)

conv1.weight f4 [1, 1, 7, 7]
0.11931962 0.26398054 0.17068665 0.21103387 0.04665574 0.21500638 0.14257386 0.22270629
0.26740405 0.2128164 0.11421514 0.101534076 0.038347293 0.077644736 0.2410881 0.0736728
0.22507171 0.07774722 0.10276367 0.13698618 -0.003552651 0.13685004 0.12781906 0.135465
0.12545097 0.27215344 0.2661169 0.057717387 0.22331703 0.03427837 0.032447334 0.19918387
0.15832673 0.09207899 0.017780123 0.10729502 0.21204403 -0.012121415 -0.03021683 0.12817156
0.028803464 0.009527738 0.092425115 0.1262795 0.0052855895 0.04310978 0.15057401 -0.0042119296
0.11367488
00000000: d85d f43d 7528 873e 7bc8 2e3e 4319 583e
00000010: 171a 3f3d a22a 5c3e e2fe 113e 1e0d 643e
00000020: 2fe9 883e 8bec 593e a1e9 e93d 19f1 cf3d
00000030: 0d12 1d3d 3404 9f3d cddf 763e c4e1 963d
00000040: 3379 663e ef39 9f3d c275 d23d 1b46 0c3e
00000050: 98d3 68bb 6b22 0c3e 00e3 023e 56b7 0a3e
00000060: 3876 003e b257 8b3e 7940 883e 1169 6c3d
00000070: 38ad 643e 7a67 0c3d 7fe7 043d dbf6 4b3e
00000080: 6720 223e e993 bc3d 9fa7 913c 7ebd db3d
00000090: 1222 593e e698 46bc 4989 f7bc 683f 033e
000000a0: 3ef5 eb3c 3b1a 1c3c 6149 bd3d 6a4f 013e
000000b0: bd32 ad3b e193 303d 1330 1a3e 3a04 8abb
000000c0: 60ce e83d

conv2.weight f4 [1, 1, 7, 7]
0.03985818 0.20474076 0.030298404 0.020965355 0.23262522 0.170763 0.27981153 0.11159861
0.0748829 0.12910064 0.13339645 0.25309846 0.0008370582 0.1299666 0.21195997 0.069979854
0.06875684 0.21018267 0.0007877621 0.18256223 0.031583954 0.20851539 0.016541958 0.23967516
-0.006402939 0.010414434 0.14236584 0.26823276 0.0091293715 0.08543374 0.2827733 0.113783486
0.1905173 0.011893302 0.11159772 0.055528414 0.2640238 0.21607788 0.028382104 0.15439788
0.14099129 0.09690673 0.043409616 0.0932606 0.26721987 0.021753555 0.0246965 0.09547667
0.15591535
00000000: 5542 233d 90a7 513e 5c34 f83c 89bf ab3c
00000010: 4e35 6e3e 7fdc 2e3e 7543 8f3e d08d e43d
00000020: 355c 993d f532 043e 1499 083e 1f96 813e
00000030: 066e 5b3a f715 053e 090c 593e 9951 8f3d
00000040: 63d0 8c3d 203a 573e d281 4e3a 98f1 3a3e
00000050: 2d5e 013d 0f85 553e 0083 873c 686d 753e
00000060: bfcf d1bb 4da1 2a3c 5ac8 113e ce55 893e
00000070: 5c93 153c e2f7 ae3d a9c7 903e 5107 e93d
00000080: f816 433e 20dc 423c 588d e43d c371 633d
00000090: 212e 873e 8543 5d3e 9681 e83c 7a1a 1e3e
000000a0: 0560 103e 0977 c63d 48ce 313d 6aff be3d
000000b0: 0bd1 883e 8334 b23c 5050 ca3c 4689 c33d
000000c0: 46a8 1f3e

conv3.weight f4 [1, 1, 7, 7]
0.0042868685 -0.034389377 -0.086621456 -0.025633235 -0.05750762 0.115418404 -0.13905852 -0.09112272
-0.11622717 -0.026108112 0.11132477 0.1252199 -0.12436505 -0.0061895507 0.08385231 0.06297107
0.11701484 -0.003962602 -0.09598468 0.094504364 -0.0489878 0.07396945 -0.03520521 0.060727734
0.12848943 0.1328365 -0.1300093 -0.09449719 -0.05906669 -0.09110015 0.13707145 -0.012616975
-0.09476294 -0.063569926 -0.07890923 0.0582842 -0.12460731 -0.13320045 -0.14082304 0.061503448
0.07063638 -0.08872559 0.03542551 0.10545496 0.020757336 -0.030225942 0.010554621 -0.015318241
0.07192846
00000000: dc78 8c3b e0db 0cbd 9766 b1bd cafc d1bc
00000010: 1c8d 6bbd 7c60 ec3d 5b65 0ebe 8c9e babd
00000020: 8308 eebd aee0 d5bc 3efe e33d a539 003e
00000030: 1ab3 febd b7d1 cabb c3ba ab3d faf6 803d
00000040: 7aa5 ef3d b7d8 81bb 9e93 c4bd 818b c13d
00000050: 6ea7 48bd 4c7d 973d 5733 10bd a5bd 783d
00000060: bc92 033e 4b06 083e 2821 05be be87 c1bd
00000070: eaef 71bd b792 babd 755c 0c3e 6eb7 4ebc
00000080: 1313 c2bd f330 82bd 2a9b a1bd 6abb 6e3d
00000090: 1e32 ffbd b365 08be ea33 10be 0aeb 7b3d
000000a0: cea9 903d c3b5 b5bd 571a 113d c5f8 d73d
000000b0: 4a0b aa3c 659c f7bc 4aed 2c3c 5cf9 7abc
000000c0: 3a4f 933d

linear1.weight f4 [12, 64]
0.15646395 0.16357318 0.017071966 0.19532105 0.21650083 0.04522128 0.058885835 0.15632974
-0.011197272 0.13577053 0.11503399 0.16505235 -0.022788662 -0.017704029 0.14266783 0.13232109
-0.03503486 0.010148045 -0.03467063 -0.009221662 0.023839813 0.18392439 0.05662948 0.15458445
0.19737121 0.13500412 -0.03376686 0.1412653 0.12477583 0.17475516 -0.043927982 0.15857638
0.17999205 -0.039083563 0.091194995 0.18606265 -0.011523686 0.12029743 0.13333875 0.110168464
0.20408401 0.18232855 0.18842319 0.06667883 0.18783216 -0.03461587 0.013366033 0.05246816
0.04665853 0.1994814 0.14318812 0.16423783 0.16884431 -0.009325535 0.069825806 0.10297983
0.1260633 0.15788502 0.0424181 0.052668575 0.19396317 0.05560332 0.0025472962 0.17411555
0.26656964 0.14278147 0.15667868 0.08984729 0.078159295 0.23036064 0.12938058 0.2824016
0.07580727 0.15816604 0.17775185 0.23968422 0.27613625 0.2599693 0.23068969 0.118991606
0.08147167 0.057499647 0.17537256 0.29108736 0.14602035 0.16463983 0.08003158 0.21047895
0.24731332 0.044245623 0.07951028 0.260247 0.19610967 0.1594858 0.1910841 0.15195593
0.07964153 0.049769085 0.24956791 0.153725 0.12221149 0.13629098 0.09924537 0.12974377
0.061846305 0.2627575 0.22139989 0.10826764 0.12942955 0.22714835 0.12382491 0.20148914
0.20750044 0.09455072 0.20469454 0.18051924 0.28212443 0.12797531 0.14135611 0.28153685
0.08034689 0.19144507 0.30144966 0.123265155 0.2981957 0.2890473 0.29462686 0.16639498
0.296489 0.12899937 0.14034978 0.23086281 0.21040972 0.25372815 0.30304188 0.10614529
0.24355201 0.21857035 0.24230029 0.23596998 0.12943187 0.07777744 0.27702397 0.10644639
0.2518109 0.05139199 0.14866273 0.17232323 0.19250067 0.1811693 0.21145277 0.15941554
0.19973199 0.29222205 0.08769588 0.16189562 0.11987831 0.2780518 0.27685842 0.16868933
0.124659814 0.09037414 0.2579094 0.1611216 0.2875198 0.24093561 0.27787742 0.2666524
0.08897827 0.2069411 0.11965862 0.23518781 0.16205005 0.1830346 0.08474 0.057818804
0.2213733 0.20353295 0.18542725 0.2589715 0.12192495 0.21876036 0.105786644 0.20089833
0.15533382 0.27138233 0.29172143 0.28925505 0.18536016 0.25323117 0.054831337 0.10634187
0.022340402 0.000697121 -0.098134115 -0.055326447 -0.058381766 -0.123845264 0.011921346 0.085211754
0.050732926 -0.059391618 -0.11478315 -0.100847125 0.0023186505 0.08598916 -0.05062157 -0.06801812
-0.066682056 -0.010821089 -0.11870684 -0.11030556 0.12304883 -0.05961451 -0.022545457 -0.03344409
-0.10981327 -0.022036642 0.038264588 -0.0507572 -0.005327478 -0.0005979389 -0.12443811 0.09083955
0.100971594 0.08522569 -0.041049793 0.0653204 -0.117115304 -0.030923337 -0.025423035 -0.044143707
0.05250001 -0.05695723 -0.014487982 -0.036094174 -0.11738537 -0.020642579 -0.10593453 0.07288802
0.066807866 0.117099 -0.04197535 0.0063565224 0.024486333 0.12477732 0.11457668 -0.06469244
-0.106362835 -0.112661034 -0.06019497 0.10509832 0.041981205 0.120606646 0.092652604 0.0018122047
00000000: 1638 203e ba7f 273e 82da 8b3c 3e02 483e
00000010: 65b2 5d3e f339 393d 4632 713d e714 203e
00000020: c374 37bc 6e07 0b3e f196 eb3d 7c03 293e
00000030: 4aaf babc 0a08 91bc 8417 123e 2e7f 073e
00000040: b780 0fbd fc43 263c ca02 0ebd 7416 17bc
00000050: b64b c33c ad56 3c3e 50f4 673d 634b 1e3e
00000060: ae1b 4a3e 853e 0a3e 1e4f 0abd daa7 103e
00000070: 788a ff3d 04f3 323e d4ed 33bd d961 223e
00000080: d64f 383e 1616 20bd 71c4 ba3d 3587 3e3e
00000090: d8cd 3cbc 805e f63d f489 083e 01a0 e13d
000000a0: 66fb 503e 56b4 3a3e 02f2 403e e98e 883d
000000b0: 1357 403e 5fc9 0dbd 35fd 5a3c dae8 563d
000000c0: 041d 3f3d da44 4c3e e89f 123e f62d 283e
000000d0: 86e5 2c3e 21ca 18bc d500 8f3d 17e7 d23d
000000e0: bd16 013e 9cac 213e 9abe 2d3d 01bb 573d
000000f0: 489e 463e 4fc0 633d 8af0 263b 594b 323e
00000100: d17b 883e 4e35 123e 6070 203e db01 b83d
00000110: fb11 a03d a9e3 6b3e 587c 043e f196 903e
00000120: d840 9b3d 47f6 213e 9504 363e c86f 753e
00000130: bb61 8d3e b21a 853e eb39 6c3e dfb1 f33d
00000140: 9eda a63d c084 6b3d dd94 333e 6709 953e
00000150: 5c86 153e 5897 283e 99e7 a33d cb87 573e
00000160: b43f 7d3e e63a 353d 49d6 a23d 183f 853e
00000170: f9d0 483e 3f50 233e 8dab 433e 569a 1b3e
00000180: 191b a33d abda 4b3d bb8e 7f3e 166a 1d3e
00000190: 054a fa3d dd8f 0b3e 2841 cb3d 8ddb 043e
000001a0: 8d52 7d3d 2788 863e a7b6 623e 6dbb dd3d
000001b0: 2e89 043e 9499 683e ea97 fd3d 2b53 4e3e
000001c0: ff7a 543e cfa3 c13d 729b 513e 09da 383e
000001d0: 9d72 903e f60b 033e a8bf 103e 9925 903e
000001e0: e98c a43d 2d0a 443e 9c57 9a3e 7172 fc3d
000001f0: 1bad 983e 02fe 933e 55d9 963e 7263 2a3e
00000200: 68cd 973e 6918 043e dab7 0f3e 4d67 6c3e
00000210: a575 573e a8e8 813e 4e28 9b3e b462 d93d
00000220: b365 793e e8d0 5f3e 911d 783e 1da2 713e
00000230: ca89 043e c749 9f3d 16d6 8d3e 9100 da3d
00000240: 5ced 803e 6880 523d 0b3b 183e 8075 303e
00000250: e51e 453e 7284 393e 1387 583e d43d 233e
00000260: 8b86 4c3e 219e 953e e699 b33d f7c7 253e
00000270: c282 f53d ce5c 8e3e 63c0 8d3e e5bc 2c3e
00000280: a54d ff3d 1416 b93d b30c 843e 10fd 243e
00000290: cc35 933e d3b7 763e f345 8e3e aa86 883e
000002a0: 3d3a b63d 5ee8 533e 940f f53d 13d5 703e
000002b0: 73f0 253e 6c6d 3b3e 2a8c ad3d 69d3 6c3d
000002c0: afaf 623e f16a 503e a4e0 3d3e ea97 843e
000002d0: cab3 f93d b702 603e aba6 d83d 4bb8 4d3e
000002e0: d40f 1f3e a0f2 8a3e 835c 953e 3d19 943e
000002f0: 0ecf 3d3e 84a7 813e d396 603d c4c9 d93d
00000300: 3803 b73c 00bf 363a 8afa c8bd fc9d 62bd
00000310: b821 6fbd 96a2 fdbd c051 433c 8083 ae3d
00000320: 54cd 4f3d a044 73bd 6e13 ebbd f088 cebd
00000330: 80f4 173b 161b b03d 9058 4fbd 164d 8bbd
00000340: 9a90 88bd f04a 31bc 921c f3bd e2e7 e1bd
00000350: 0601 fc3d 582e 74bd 40b1 b8bc acfc 08bd
00000360: c8e5 e0bd 3086 b4bc 54bb 1c3d c8e6 4fbd
00000370: 2092 aebb 00bf 1cba 68d9 febd 160a ba3d
00000380: 32ca ce3d ce8a ae3d d423 28bd b4c6 853d
00000390: 26da efbd f052 fdbc f843 d0bc 08d0 34bd
000003a0: 400a 573d fc4b 69bd 005f 6dbc 7cd7 13bd
000003b0: be67 f0bd a01a a9bc 34f4 d8bd 5046 953d
000003c0: 90d2 883d 9ad1 ef3d 58ee 2bbd 604a d03b
000003d0: 9097 c83c 408b ff3d 2ea7 ea3d 787d 84bd
000003e0: c2d4 d9bd d4ba e6bd 008f 76bd ca3d d73d
000003f0: 7cf4 2b3d 9e00 f73d a6c0 bd3d 8087 ed3a

linear1.bias f4 [12]
0.16335988 0.136964 0.14810485 -0.037966773 0.059559513 0.21930102 0.0015752984 -0.0007501857
0.03788911 0.23159094 0.07125657 -0.01369518
00000000: d047 273e 4a40 0c3e cca8 173e 0c83 1bbd
00000010: adf4 733d 7290 603e 3e7a ce3a 1ca8 44ba
00000020: 9d31 1b3d 2d26 6d3e f7ee 913d c061 60bc

linear2.weight f4 [5, 5]
0.22214946 -0.17048012 0.5245936 -0.12639244 0.3455905 -0.20855266 0.24973616 0.42500022
0.22083403 0.11068146 0.54591274 -0.5535984 -0.19445193 -0.29889956 -0.09924138 0.0641278
-0.10181869 0.17798956 0.13737129 0.46240717 -0.1600847 -0.04079781 0.35622668 -0.0070996485
0.5000619
00000000: 267b 633e 5792 2ebe c44b 063f 056d 01be
00000010: 3df1 b03e d48e 55be d6ba 7f3e a199 d93e
00000020: 5122 623e f6ac e23d f0c0 0b3f a0b8 0dbf
00000030: 681e 47be 5d09 99be 113f cbbd 7055 833d
00000040: 5186 d0bd e542 363e 0fab 0c3e a2c0 ec3e
00000050: 3eed 23be 9b1b 27bd 5863 b63e 2ba4 e8bb
00000060: 0f04 003f

linear2.bias f4 [5]
-0.0067311493 0.16674244 0.012412205 0.3235949 0.269284
00000000: f990 dcbb 88be 2a3e 905c 4b3c 3bae a53e
00000010: 98df 893e

linear3.weight f4 [3, 20]
-0.06694658 0.25531527 -0.40227818 0.04300369 0.09045356 0.2647841 0.3539548 0.24309878
0.039127287 0.17496155 0.030920068 -0.09988248 -0.04831465 -0.12247927 0.22884208 0.089348584
-0.07650357 0.07541319 0.057256535 0.33908165 0.28642583 -0.03984413 -0.2967875 0.21170394
0.20509617 0.15245439 0.2651611 0.2643965 0.21763623 -0.18528266 0.11822867 -0.13346806
-0.092205204 0.066146925 0.34286246 -0.021541448 0.14543651 0.285331 -0.04528129 0.19105156
-0.030588232 0.17737968 -0.48105532 0.035650678 -0.03265984 -0.013748062 0.37662238 0.16901997
-0.0062033325 -0.08225435 0.34664667 -0.11101155 -0.07418071 -0.15230633 0.007626606 0.33385408
-0.1726682 0.07069842 -0.00047667132 0.23314735
00000000: 4a1b 89bd afb8 823e 68f7 cdbe a324 303d
00000010: b73f b93d c891 873e 9039 b53e e3ee 783e
00000020: ef43 203d 1f29 333e 154c fd3c 308f ccbd
00000030: 95e5 45bd 69d6 fabd 9455 6a3e 64fc b63d
00000040: e7ad 9cbd 3b72 9a3d d485 6a3d 1c9c ad3e
00000050: 68a6 923e 9933 23bd 88f4 97be ebc8 583e
00000060: bb04 523e 011d 1c3e 32c3 873e fa5e 873e
00000070: 08dc 5e3e bdba 3dbe df21 f23d daab 08be
00000080: 15d6 bcbd 0a78 873d ab8b af3e b177 b0bc
00000090: 4fed 143e e816 923e e078 39bd 05a3 433e
000000a0: 2c94 fabc 05a3 353e e24c f6be 7206 123d
000000b0: 53c6 05bd 8d3f 61bc a6d4 c03e 9213 2d3e
000000c0: 5345 cbbb f874 a8bd ac7b b13e 065a e3bd
000000d0: 0eec 97bd 31f6 1bbe 9ce8 f93b ecee aa3e
000000e0: efcf 30be 55ca 903d bee9 f9b9 2ebe 6e3e

linear3.bias f4 [3]
0.16193174 -0.05159669 0.3188478
00000000: 6fd1 253e 0d57 53bd 0540 a33e

linear4.weight f4 [3, 17]
-0.24159758 0.02398821 -0.020262372 -0.056205347 0.16527998 0.20477688 0.031593528 -0.08566334
0.180313 0.15237777 0.043561365 -0.06633626 0.010225281 0.21617055 0.02630167 -0.04779531
-0.20534405 -0.12997061 0.17516768 -0.00854055 -0.016151186 0.09443383 -0.15957074 -0.016383933
-0.068214215 0.1268997 0.19738129 0.15228997 0.1808238 -0.21675454 -0.0861042 0.028720086
-0.20599878 0.06579328 -0.15897766 0.103929535 0.19629675 -0.20747687 0.20323087 0.11316745
-0.1600545 0.23214968 -0.21005729 -0.16327976 -0.1206483 -0.012281625 0.043552168 -0.07117708
-0.22988673 -0.027996263 0.18401565
00000000: 5b65 77be ec82 c43c 46fd a5bc 9437 66bd
00000010: 283f 293e 08b1 513e 3768 013d 4370 afbd
00000020: f9a3 383e eb08 1c3e 676d 323d 4edb 87bd
00000030: f087 273c d05b 5d3e 9a76 d73c 04c5 43bd
00000040: b645 52be 0417 05be 285f 333e aaed 0bbc
00000050: 7e4f 84bc 8666 c13d 8366 23be 9937 86bc
00000060: e5b3 8bbd fff1 013e 521e 4a3e e7f1 1b3e
00000070: e029 393e e7f4 5dbe 6657 b0bd 6346 eb3c
00000080: 58f1 52be a1be 863d 0acb 22be 02d9 d43d
00000090: 0402 493e d174 54be c11b 503e 56c4 e73d
000000a0: 54e5 23be a5b8 6d3e 4219 57be cf32 27be
000000b0: 7516 f7bd de38 49bc c263 323d 4ac5 91bd
000000c0: 6d67 6bbe 6b58 e5bc 996e 3c3e

linear4.bias f4 [3]
0.18673721 0.12141139 0.035213485
00000000: 0a38 3f3e 89a6 f83d 043c 103d
