models/critic_1_300_q_net_2.pt (torch, 9005 bytes, 11 tensors)

conv1.weight f4 [1, 1, 7, 7]
00000000: 7257 e53d 3a74 813e 5bde 213e 9485 4a3e
00000010: 6d5f 0c3d 78f3 4f3e 62ab 083e 380b 563e
00000020: 2f7a 813e eece 4e3e 6315 db3d 9ca1 ca3d
00000030: 75f8 1d3d 8bd9 a03d ab99 753e 5791 953d
00000040: 2061 663e 2858 a33d f213 d93d b303 123e
00000050: 83ec b03b 41bd 113e 0201 063e f74f 093e
00000060: 4684 f53d 869f 863e bb26 833e 032b 533d
00000070: febf 5c3e 1b43 ca3c 7d14 ab3c 32ed 3e3e
00000080: 79d7 153e d6e0 a53d f09e 303c d4cb c33d
00000090: 37c3 4b3e 3d95 aabc 5cf3 0fbd 5fde 013e
000000a0: 04bf f63c f86a 4f3c f8e4 bb3d 01e3 fe3d
000000b0: 5d1c be3b 1286 363d 3542 1c3e bd94 1c3a
000000c0: f681 f43d
0.111983195 0.25283986 0.15807478 0.19777519 0.034270693 0.2030772 0.13346627 0.20902717
0.2528853 0.20196125 0.106974386 0.09894106 0.038567025 0.07853993 0.23984401 0.07303112
0.22497988 0.07975799 0.105995074 0.14259224 0.005399288 0.14232351 0.13086322 0.1340941
0.1198812 0.26293582 0.25615487 0.05155469 0.21557614 0.024690202 0.020883793 0.1864517
0.14632978 0.08099525 0.010780081 0.095603615 0.19898687 -0.020823115 -0.035144195 0.12682484
0.03012038 0.012659781 0.09174532 0.12445641 0.005801721 0.044561453 0.15259631 0.00059730915
0.119388506

conv2.weight f4 [1, 1, 7, 7]
00000000: b55b 0d3d ab8b 493e 0556 c93c 5e18 8f3c
00000010: 1f30 693e 6ad0 263e 8f11 8c3e 3fe7 d93d
00000020: 147e 883d 3a83 fb3d 1b45 053e d057 7e3e
00000030: 35c7 f0bb 4c10 fc3d 598b 543e 1d07 7c3d
00000040: 4160 7b3d 5710 543e e80f 3dbb 7642 323e
00000050: ab14 c23c 5f05 523e 997e 003c a9aa 6c3e
00000060: 7799 1abc 0c09 fc3b fcf9 083e 5eca 843e
00000070: 3c66 d43b 3bab 9c3d 3ef4 8b3e b5b2 e23d
00000080: 5308 413e 825d 4e3b 9e26 d13d 75fa 5a3d
00000090: 5495 823e 845b 533e af38 cf3c 9c60 1c3e
000000a0: 0c79 073e aeca b23d 048f 2a3d a0bb ae3d
000000b0: 653a 843e 92bd 953c 1af8 be3c ba89 b33d
000000c0: 7e79 163e
0.034511287 0.19682185 0.02457715 0.017467674 0.22772263 0.16290441 0.27357146 0.1063981
0.066646725 0.12280889 0.13014643 0.24838185 -0.007347966 0.12307796 0.20756282 0.06153022
0.06137109 0.20709358 -0.0028848592 0.17408165 0.023691496 0.20509861 0.007842683 0.23111977
-0.009436003 0.007691508 0.13376611 0.25935644 0.006481914 0.07649847 0.2733478 0.11069242
0.18850832 0.003148884 0.10212444 0.05346151 0.25504553 0.20640379 0.025295584 0.15271229
0.1322977 0.08730064 0.041640297 0.085318804 0.25825801 0.01827887 0.023311663 0.08766504
0.14694783

conv3.weight f4 [1, 1, 7, 7]
00000000: dc78 8c3b e0db 0cbd 9766 b1bd cafc d1bc
00000010: 1c8d 6bbd 7c60 ec3d 5b65 0ebe 8c9e babd
00000020: 8308 eebd aee0 d5bc 3efe e33d a539 003e
00000030: 1ab3 febd b7d1 cabb c3ba ab3d faf6 803d
00000040: 7aa5 ef3d b7d8 81bb 9e93 c4bd 818b c13d
00000050: 6ea7 48bd 4c7d 973d 5733 10bd a5bd 783d
00000060: bc92 033e 4b06 083e 2821 05be be87 c1bd
00000070: eaef 71bd b792 babd 755c 0c3e 6eb7 4ebc
00000080: 1313 c2bd f330 82bd 2a9b a1bd 6abb 6e3d
00000090: 1e32 ffbd b365 08be ea33 10be 0aeb 7b3d
000000a0: cea9 903d c3b5 b5bd 571a 113d c5f8 d73d
000000b0: 4a0b aa3c 659c f7bc 4aed 2c3c 5cf9 7abc
000000c0: 3a4f 933d
0.0042868685 -0.034389377 -0.086621456 -0.025633235 -0.05750762 0.115418404 -0.13905852 -0.09112272
-0.11622717 -0.026108112 0.11132477 0.1252199 -0.12436505 -0.0061895507 0.08385231 0.06297107
0.11701484 -0.003962602 -0.09598468 0.094504364 -0.0489878 0.07396945 -0.03520521 0.060727734
0.12848943 0.1328365 -0.1300093 -0.09449719 -0.05906669 -0.09110015 0.13707145 -0.012616975
-0.09476294 -0.063569926 -0.07890923 0.0582842 -0.12460731 -0.13320045 -0.14082304 0.061503448
0.07063638 -0.08872559 0.03542551 0.10545496 0.020757336 -0.030225942 0.010554621 -0.015318241
0.07192846

linear1.weight f4 [12, 64]
00000000: 05f9 133e 3b6c 1b3e e3f2 c13b dd8c 3c3e
00000010: 1567 523e 6a4c 0a3d 33b1 413d 3aae 133e
00000020: 6f03 9fbc 9432 033e f2f9 dc3d b8e4 213e
00000030: 0efa edbc 89d4 c3bc e56b 0b3e c9f1 ff3d
00000040: dcfb 22bd 7baa c73b 70f8 1cbd afce 57bc
00000050: 77b6 a73c ed6d 393e decd 5a3d c3ec 193e
00000060: b6b7 473e f4ff 073e 8208 13bd 7f98 0e3e
00000070: e883 fd3d 8388 313e 4ae8 3cbd 30d6 1e3e
00000080: 88b8 363e 3dea 24bd 3c93 b73d 4358 3c3e
00000090: 4d9f 5fbc 8b14 f23d cdd3 063e a5f3 de3d
000000a0: a4c2 4d3e 7e86 373e c02e 3d3e 6601 803d
000000b0: 2e75 3b3e b62c 1fbd 1ed7 1e3c d441 4b3d
000000c0: c191 283d c65e 463e e172 0c3e df45 223e
000000d0: da0f 273e eb26 77bc c756 833d 02e0 c63d
000000e0: b4cc e83d 6c1c 153e 470b 003d 4ccc 2f3d
000000f0: be5d 3d3e 3a16 3f3d 4808 dcbb edd9 283e
00000100: b001 823e e06b 053e 004b 143e 56a3 9f3d
00000110: 6504 883d b56e 5f3e 1bc6 ef3d da08 8a3e
00000120: 27d5 883d 7852 193e 85e4 2d3e 0a7e 6d3e
00000130: d9c0 893e 4981 813e 26b7 643e a200 e33d
00000140: 2b59 9b3d 7157 573d 71f1 2e3e 1191 923e
00000150: 0b2a 113e 84c2 243e 5082 9b3d 2f46 523e
00000160: ccef 793e 118e 283d df9e 9c3d 29c0 833e
00000170: 06da 463e 75f5 203e 0182 403e a72a 173e
00000180: b80d 9e3d 5a3f 433d 7006 7d3e 214f 1a3e
00000190: e018 f43d 257f 083e bff7 c53d 2595 023e
000001a0: f6d0 6c3d 8d7d 843e b50f 5e3e db6d d33d
000001b0: 1e97 fd3d 0862 633e 384f f43d 1783 4a3e
000001c0: 53ff 4d3e 9e27 b43d b697 4a3e 061a 323e
000001d0: 181c 8d3e 76a0 f83d 9315 0a3e b7b9 8c3e
000001e0: 22d2 893d 5ecc 363e 9546 943e 81fe e63d
000001f0: 4cab 933e 2607 8f3e 75ba 913e 872e 203e
00000200: d663 913e 57e1 ee3d cfb6 033e b25c 603e
00000210: 9594 4b3e 8380 773e 73ed 943e 2c6c bf3d
00000220: 755f 703e 4d5e 573e 9e30 703e ace4 693e
00000230: bbff fa3d 5e55 913d 6630 8a3e a1b7 c93d
00000240: 5a58 7c3e 7854 3f3d 44d9 133e cbc5 2b3e
00000250: a306 413e b5f5 353e a598 543e 063c 1e3e
00000260: f77d 493e 6c2c 943e c4f2 ad3d b512 233e
00000270: fb2d f23d 9854 8d3e e24e 8c3e b38e 283e
00000280: b1d4 fa3d 5560 b53d bded 823e e629 223e
00000290: 40cd 913e 81ee 733e 3918 8d3e b888 873e
000002a0: ad81 ae3d 3017 503e 9444 ec3d 73ed 6b3e
000002b0: 6b6f 203e c974 363e 29c6 a43d 7fa4 5e3d
000002c0: ef6d 5c3e f9e5 493e be14 373e 3654 813e
000002d0: 29cb ec3d 817f 593e 5cc3 cb3d 3418 473e
000002e0: 34d0 113e b462 843e aa5c 8f3e 5fd0 8e3e
000002f0: baf6 333e f28c 793e b449 383d 1db6 c53d
00000300: 3803 b73c 00bf 363a 8afa c8bd fc9d 62bd
00000310: b821 6fbd 96a2 fdbd c051 433c 8083 ae3d
00000320: 54cd 4f3d a044 73bd 6e13 ebbd f088 cebd
00000330: 80f4 173b 161b b03d 9058 4fbd 164d 8bbd
00000340: 9a90 88bd f04a 31bc 921c f3bd e2e7 e1bd
00000350: 0601 fc3d 582e 74bd 40b1 b8bc acfc 08bd
00000360: c8e5 e0bd 3086 b4bc 54bb 1c3d c8e6 4fbd
00000370: 2092 aebb 00bf 1cba 68d9 febd 160a ba3d
00000380: 32ca ce3d ce8a ae3d d423 28bd b4c6 853d
00000390: 26da efbd f052 fdbc f843 d0bc 08d0 34bd
000003a0: 400a 573d fc4b 69bd 005f 6dbc 7cd7 13bd
000003b0: be67 f0bd a01a a9bc 34f4 d8bd 5046 953d
000003c0: 90d2 883d 9ad1 ef3d 58ee 2bbd 604a d03b
000003d0: 9097 c83c 408b ff3d 2ea7 ea3d 787d 84bd
000003e0: c2d4 d9bd d4ba e6bd 008f 76bd ca3d d73d
000003f0: 7cf4 2b3d 9e00 f73d a6c0 bd3d 8087 ed3a
0.14450462 0.15178005 0.005918847 0.1841311 0.20547135 0.03376428 0.04728813 0.14421931
-0.019410817 0.12812263 0.10789861 0.15809906 -0.0290499 -0.023905056 0.13615377 0.12497289
-0.039790973 0.006093321 -0.038322866 -0.013171836 0.020472748 0.1810834 0.053418986 0.15031724
0.19503674 0.13281232 -0.035896786 0.1392536 0.12378675 0.17337231 -0.046119966 0.15511394
0.1784383 -0.04026245 0.089636296 0.18393044 -0.01364882 0.118203245 0.13166733 0.10886315
0.20093781 0.17922398 0.18474865 0.06250267 0.18306419 -0.038861 0.009694843 0.049623325
0.041154627 0.1937209 0.13715698 0.15846966 0.1631464 -0.015084962 0.06413036 0.09710695
0.11367169 0.14561623 0.031260755 0.042919442 0.18492791 0.046652056 -0.0067148544 0.16489382
0.25391912 0.13029432 0.14481735 0.07794826 0.06641463 0.21819575 0.117077075 0.26959878
0.066812806 0.14972866 0.16981705 0.23192611 0.26904944 0.2529395 0.2233549 0.11084105
0.07585367 0.052573625 0.1708429 0.28626302 0.14176194 0.16089827 0.075932145 0.20534585
0.24407881 0.04115111 0.0764749 0.25732544 0.19419107 0.15718634 0.18799593 0.14762364
0.077174604 0.04766784 0.24709487 0.15069248 0.11918807 0.13329752 0.096663944 0.12752207
0.05781647 0.25877038 0.2168568 0.10323688 0.12382339 0.22205365 0.11929172 0.1977657
0.2011693 0.08796619 0.19784436 0.1739274 0.27560496 0.121399805 0.13484792 0.2748544
0.06729533 0.17851397 0.289601 0.112790115 0.28841627 0.2793514 0.28462568 0.15642749
0.2839648 0.11664074 0.12862705 0.2191036 0.19880898 0.24170117 0.2908741 0.09346804
0.23473914 0.21032067 0.23456046 0.22841138 0.12255808 0.070963606 0.2699005 0.098494776
0.24643078 0.046711415 0.14438349 0.16774671 0.18850188 0.17769511 0.20761354 0.15452585
0.19676958 0.2894014 0.084935695 0.15925105 0.11825176 0.27603602 0.27403933 0.16460685
0.12247599 0.088562645 0.25572005 0.15836295 0.28476906 0.23821451 0.27557543 0.26471496
0.085208274 0.20321345 0.11536518 0.23039798 0.15667503 0.17817988 0.080456086 0.054356094
0.21526311 0.19716634 0.17879006 0.2525956 0.11562187 0.21240045 0.09949371 0.19442827
0.1423958 0.25856555 0.28000385 0.2789335 0.17574587 0.24370173 0.044992164 0.09653876
0.022340402 0.000697121 -0.098134115 -0.055326447 -0.058381766 -0.123845264 0.011921346 0.085211754
0.050732926 -0.059391618 -0.11478315 -0.100847125 0.0023186505 0.08598916 -0.05062157 -0.06801812
-0.066682056 -0.010821089 -0.11870684 -0.11030556 0.12304883 -0.05961451 -0.022545457 -0.03344409
-0.10981327 -0.022036642 0.038264588 -0.0507572 -0.005327478 -0.0005979389 -0.12443811 0.09083955
0.100971594 0.08522569 -0.041049793 0.0653204 -0.117115304 -0.030923337 -0.025423035 -0.044143707
0.05250001 -0.05695723 -0.014487982 -0.036094174 -0.11738537 -0.020642579 -0.10593453 0.07288802
0.066807866 0.117099 -0.04197535 0.0063565224 0.024486333 0.12477732 0.11457668 -0.06469244
-0.106362835 -0.112661034 -0.06019497 0.10509832 0.041981205 0.120606646 0.092652604 0.0018122047

linear1.bias f4 [12]
00000000: 18e3 163e eba7 013e 5219 0b3e 0c83 1bbd
00000010: adf4 733d 5a1c 523e 3e7a ce3a 1ca8 44ba
00000020: 9d31 1b3d f06c 5f3e d976 633d c061 60bc
0.14735067 0.12661712 0.13583878 -0.037966773 0.059559513 0.20518628 0.0015752984 -0.0007501857
0.03788911 0.218189 0.055533264 -0.01369518

linear2.weight f4 [5, 5]
00000000: 4449 923e faf5 56be 7d3f 063f 79e8 26be
00000010: 7e56 ac3e 773c 7ebe 464c 743e 8f7a d73e
00000020: d1fd 443e d880 b83d d549 a03e a43b bbbe
00000030: 2c87 9ebe 7fa0 babe dea9 6fbe 2859 923d
00000040: e523 21be ddfd 333e b309 fc3d 05f1 ef3e
00000050: b7ab 1cbe d08b c4bd d94c b53e ee3c b1bc
00000060: eeae 013f
0.28571522 -0.2099227 0.52440625 -0.16299619 0.33659738 -0.24827753 0.23857221 0.42085692
0.19237448 0.0900895 0.3130633 -0.3656894 -0.30962503 -0.36450574 -0.23404643 0.071459115
-0.15736349 0.1757731 0.123065375 0.4686357 -0.15299879 -0.095969796 0.35410193 -0.021635499
0.50657547

linear2.bias f4 [5]
00000000: 5113 31bd 4d80 063e dd74 abbd 93b9 9e3e
00000010: ead7 823e
-0.043231312 0.1313488 -0.08371899 0.31000957 0.25555354

linear3.weight f4 [3, 20]
00000000: 3b95 06bd f947 7a3e 49f6 ccbd 3e68 2d3d
00000010: 911e b73d b842 853e c52f b23e dde6 723e
00000020: ef43 203d 1f29 333e e1cd cd3c 308f ccbd
00000030: 95e5 45bd 69d6 fabd cf37 643e 87ce ab3d
00000040: e7ad 9cbd c71f 843d 93a3 193d 87c1 8a3e
00000050: 6a54 a43e 9db0 4fbd b4fb f03b 3a3a 583e
00000060: c7e5 503e 2833 173e 9795 843e 5c39 843e
00000070: 08dc 5e3e bdba 3dbe 3ba1 e53d daab 08be
00000080: 15d6 bcbd 0a78 873d 915a ac3e 2520 e0bc
00000090: 4fed 143e 99a9 8d3e 2c55 87bd 9304 f93d
000000a0: 3485 3e3b c9c4 2a3e c853 37be e308 0f3d
000000b0: 9a61 0abd 5d6a 97bc daab bd3e f5d0 263e
000000c0: 5345 cbbb f874 a8bd c260 ae3e 065a e3bd
000000d0: 0eec 97bd 31f6 1bbe 9262 bb3a 6dfb a73e
000000e0: efcf 30be c01c 753d 4c74 aabc 7c00 283e
-0.03285716 0.24441518 -0.10007913 0.04233574 0.08941377 0.26027465 0.3480207 0.2372088
0.039127287 0.17496155 0.025122585 -0.09988248 -0.04831465 -0.12247927 0.22286914 0.08389001
-0.07650357 0.064513735 0.037509512 0.27100775 0.32095653 -0.05070554 0.007354224 0.21115962
0.20400153 0.14765608 0.25895378 0.25825012 0.21763623 -0.18528266 0.11212393 -0.13346806
-0.092205204 0.066146925 0.33662847 -0.027359078 0.14543651 0.27668455 -0.06608042 0.121590756
0.0029071094 0.1667663 -0.17903054 0.034920584 -0.033784486 -0.018483335 0.37045175 0.16290648
-0.0062033325 -0.08225435 0.34058195 -0.11101155 -0.07418071 -0.15230633 0.0014296344 0.3280901
-0.1726682 0.05984187 -0.020807408 0.16406435

linear3.bias f4 [3]
00000000: b50d 1e3e 24be 71bd e273 9f3e
0.15434916 -0.059019223 0.311431

linear4.weight f4 [3, 17]
00000000: 5b65 77be ec82 c43c 46fd a5bc 9437 66bd
00000010: 283f 293e 08b1 513e 3768 013d 4370 afbd
00000020: f9a3 383e eb08 1c3e 676d 323d 4edb 87bd
00000030: f087 273c d05b 5d3e 9a76 d73c 04c5 43bd
00000040: b645 52be 0417 05be 285f 333e aaed 0bbc
00000050: 7e4f 84bc 8666 c13d 8366 23be 9937 86bc
00000060: e5b3 8bbd fff1 013e 521e 4a3e e7f1 1b3e
00000070: e029 393e e7f4 5dbe 6657 b0bd 6346 eb3c
00000080: 58f1 52be a1be 863d 0acb 22be 02d9 d43d
00000090: 0402 493e d174 54be c11b 503e 56c4 e73d
000000a0: 54e5 23be a5b8 6d3e 4219 57be cf32 27be
000000b0: 7516 f7bd de38 49bc c263 323d 4ac5 91bd
000000c0: 6d67 6bbe 6b58 e5bc 996e 3c3e
-0.24159758 0.02398821 -0.020262372 -0.056205347 0.16527998 0.20477688 0.031593528 -0.08566334
0.180313 0.15237777 0.043561365 -0.06633626 0.010225281 0.21617055 0.02630167 -0.04779531
-0.20534405 -0.12997061 0.17516768 -0.00854055 -0.016151186 0.09443383 -0.15957074 -0.016383933
-0.068214215 0.1268997 0.19738129 0.15228997 0.1808238 -0.21675454 -0.0861042 0.028720086
-0.20599878 0.06579328 -0.15897766 0.103929535 0.19629675 -0.20747687 0.20323087 0.11316745
-0.1600545 0.23214968 -0.21005729 -0.16327976 -0.1206483 -0.012281625 0.043552168 -0.07117708
-0.22988673 -0.027996263 0.18401565

linear4.bias f4 [3]
00000000: 0a38 3f3e 89a6 f83d 043c 103d
0.18673721 0.12141139 0.035213485
